NCC_Code/Models/2022-08-14_10-42-19_model.pt (torch, 115275 bytes, 50 tensors)

conv1.weight f4 [8, 2, 5, 5]
000000 1d 49 0b 3e cc 41 1a be b3 2a 74 3e f5 dc 46 bd
       0.13602109 -0.15064162 0.23844413 -0.048550565
000010 bd 52 5b bd e7 71 82 3e dc 87 e9 3e 9a d4 1e 3f
       -0.053545702 0.25477526 0.45611465 0.62043154
000020 57 ba 27 3f 7f 75 38 3e ae 3d 76 be 92 bf 82 be
       0.6551871 0.18013571 -0.24046966 -0.25536782
000030 50 7b f8 bd dd 02 b1 be 61 93 b1 be 09 5e 0a bc
       -0.12132895 -0.34572497 -0.34682754 -0.008445271
000040 9c af ce bd 2a 4d 35 bd e7 25 27 bd 7f f0 fd bd
       -0.100920886 -0.044263043 -0.04080763 -0.123993866
000050 7b 9c 00 3e 80 85 80 bd 55 4b ca bd 75 56 c3 3d
       0.12559693 -0.06275463 -0.0987765 0.09537975
000060 5b 3a b7 be ee 45 69 bd 84 79 5b 3e b1 fe ed bd
       -0.3578671 -0.056951456 0.21433073 -0.11620844
000070 48 f4 d6 3d c4 e8 38 bb c7 8b ad 3e 45 ff d4 3e
       0.10495812 -0.002821491 0.33895704 0.41601005
000080 05 33 ca 3e 87 db eb 3e 87 8a 3e 3e 95 ab 99 bd
       0.3949205 0.46065924 0.18607531 -0.0750343
000090 74 96 5f be a1 f7 db be 26 93 7a be 69 21 1a be
       -0.21834737 -0.42962363 -0.24470195 -0.15051807
0000a0 bf 46 8a bd 76 0d 81 3d 60 cd 7f be ba d1 ce bd
       -0.06751775 0.063013956 -0.24980688 -0.10098596
0000b0 83 d5 91 ba 04 cb bc 3d ff 5f 3f 3c 91 a1 02 3e
       -0.0011126254 0.0921841 0.011680602 0.12756945
0000c0 1b c9 dd bc 2d bc e0 3c 77 02 f8 bd b7 6c bb bd
       -0.027073434 0.02743348 -0.12109845 -0.09151595
0000d0 6f a7 8f be f6 f1 bc be 85 07 e8 be c0 5e e3 3c
       -0.2805743 -0.36903352 -0.45318237 0.027755141
0000e0 5e 4d 53 bd fb f2 e9 bd ad 45 74 bd 00 bc f8 3d
       -0.051587455 -0.11423298 -0.05963676 0.12145233
0000f0 92 4a 8d be 0e ac 6f be 33 63 14 be 77 02 31 be
       -0.27595955 -0.23405477 -0.14490966 -0.17286097
000100 00 93 c0 be 9b 2c 05 3e 35 ff 7d 3d b0 b2 3d bc
       -0.37612152 0.13005297 0.062010963 -0.011578247
000110 32 30 4d 3d 87 1e 0b 3e 86 46 2c 3d 65 05 bd 3d
       0.05009479 0.13585864 0.042059444 0.092295446
000120 a0 2c 72 3d e6 0a 96 3e 28 c6 0a bd 5c de 04 bc
       0.05912459 0.2930519 -0.033880383 -0.008109655
000130 6b f5 ac be 44 b2 91 be 54 97 13 be 69 58 0b be
       -0.3378099 -0.28456318 -0.14413196 -0.13607945
000140 d4 db 54 bd 50 d4 0a bc 72 70 33 bd 1a b7 bb 3c
       -0.051967457 -0.008473471 -0.043808408 0.022914458
000150 ea 5b f1 3d 70 b9 a5 be b6 df 74 be 37 1b 81 be
       0.11785109 -0.3236804 -0.23913464 -0.25216076
000160 a9 b7 b8 be 6a fb 47 3d 9f 80 0a 3e 5a ca 90 3d
       -0.36077622 0.04882375 0.13525628 0.070698455
000170 66 15 35 3e df 32 7e 3c df 04 e9 3c 42 f1 8b 3e
       0.17683944 0.015515058 0.028444706 0.27332503
000180 ca 6a 99 3e b3 cf 99 3e 65 0d b4 3e 0f 1d 92 3e
       0.29964286 0.30041274 0.3516647 0.28537795
000190 e5 13 73 be df 76 cf be 59 23 63 be da 89 b7 be
       -0.23738058 -0.4052038 -0.22181453 -0.3584736
0001a0 dc 76 44 be 0f 84 e9 3d 36 e9 b7 3e f5 5a c1 3e
       -0.19185966 0.11402141 0.35920113 0.37764707
0001b0 8a 0f 0c 3f f7 1c 1f 3e ee cd 77 3e cc 6d 8c 3e
       0.5471121 0.15538393 0.2419965 0.27427518
0001c0 9f aa a2 3e 20 05 a8 bc bc e9 a7 be a1 f8 b6 be
       0.317708 -0.020510256 -0.32795513 -0.35736564
0001d0 38 a6 12 be 9e 97 87 3c c8 c4 91 bd b9 8b 39 be
       -0.1432122 0.016551789 -0.07117611 -0.18119706
0001e0 ef 98 1c 3e db b5 3d bc b8 a5 ab bd 67 85 54 3e
       0.15292715 -0.011579002 -0.08381218 0.20754014
0001f0 b6 4d 41 bc ea 65 cb bd a7 37 7b be 8a ab 51 be
       -0.011798313 -0.09931548 -0.24532948 -0.20475593
000200 93 66 73 bd 13 8b 05 bf 27 6f 37 3e 22 27 e2 3e
       -0.059423994 -0.52165335 0.17913495 0.4417048
000210 47 69 fe 3e 20 eb 22 3e 0d 78 4a 3e 1d fc 07 3e
       0.49689695 0.15910006 0.19772358 0.13279767
000220 c6 c4 36 3e 4b ea 8f 3c 51 00 14 3d bc e0 82 be
       0.178485 0.017567774 0.036133114 -0.25562084
000230 20 43 4e be ae 2c 86 be 54 5c e6 3d b7 e3 a7 bd
       -0.20142794 -0.26205963 0.11248079 -0.0819773
000240 6d 57 f0 bd 2b ae 42 3e 13 b4 55 3e 03 65 ef 3c
       -0.11735425 0.19011752 0.20869474 0.02922297
000250 32 bb fd bb 59 c0 cb bc 2e 52 c6 bd c7 67 a4 3d
       -0.0077432627 -0.024871992 -0.09683643 0.080276065
000260 f9 ab bd bd 4f e2 32 3d 6c 9a 49 3e 9e 21 c3 3e
       -0.09261317 0.043672856 0.19687814 0.38111585
000270 cb 96 10 3f ad 6d b3 3e e6 0d be 3e fb 63 cb 3d
       0.5648009 0.35044613 0.3711998 0.09931179
000280 36 11 74 be e2 62 02 be 52 ca 79 bd 37 c7 0b bc
       -0.2383469 -0.12733033 -0.060983963 -0.008531383
000290 bf 89 2c 3c 64 47 4c 3e cf 8e 96 be 9c 5d 55 be
       0.010530888 0.19949108 -0.2940583 -0.2083649
0002a0 be 94 26 be dc 8d 96 3d af 71 3d be b0 86 0b be
       -0.16267678 0.07351276 -0.18500398 -0.13625598
0002b0 c0 ab 82 be 44 14 88 be 5c c7 e3 bd c6 2d ce bc
       -0.2552166 -0.2657796 -0.11122009 -0.02516831
0002c0 c2 ea 46 bc f5 e4 11 3e ae d9 1a be c9 60 1f be
       -0.012140932 0.14247496 -0.151221 -0.15564264
0002d0 9b 4a 92 3e fd a9 b4 3e 0e 1f 81 3e d0 f7 88 3e
       0.28572544 0.3528594 0.25219005 0.26751566
0002e0 1b 4e 82 3e c6 a8 89 3e fc 39 8d 3d fa 93 24 3d
       0.25450215 0.26886576 0.06895825 0.040180184
0002f0 88 32 e1 bd 47 c2 b0 bd 25 95 ac be fe b1 80 bc
       -0.10995966 -0.086308055 -0.33707538 -0.015709873
000300 3b ef bd bd a9 39 ab be 66 6b 98 be b1 cf 05 3e
       -0.09274145 -0.3344243 -0.29769439 0.13067509
000310 2e c1 00 be da 3c 9c bd 9b c3 5c be 59 57 5b be
       -0.12573692 -0.07628794 -0.21558993 -0.21420039
000320 81 a6 0b 3c 6a 62 05 be de eb 49 be 7e 91 e9 bc
       0.008523584 -0.13025823 -0.19718882 -0.028511759
000330 7e 62 02 be 2b eb c2 be 58 2d 8a be 00 e7 7b be
       -0.12732884 -0.38070044 -0.2698772 -0.24599838
000340 a2 d9 ac be 45 b9 3e be 55 7f 94 3e 0c 75 99 bc
       -0.3375979 -0.18625362 0.29003397 -0.01873257
000350 a8 16 01 3d b3 64 ff 3d 05 fb 33 bc c6 05 fe bd
       0.031515747 0.12470379 -0.010985141 -0.12403445
000360 13 e7 15 3e 82 f1 81 be 6b 24 7e 3e 42 1a da 3d
       0.14638929 -0.25379568 0.2481858 0.106495395
000370 1b d6 a9 3e 8c 46 e5 3d 74 94 bd 3e e9 9d b6 3e
       0.33171162 0.111950964 0.37027323 0.3566735
000380 91 de 8b 3e 21 67 8c bd 35 bb 56 be 33 3e 92 bd
       0.27318242 -0.06855608 -0.20969851 -0.0714077
000390 cb a7 fe bd f2 fc 57 be b9 ef c0 bd e9 8c b7 be
       -0.12434348 -0.21092585 -0.094207235 -0.35849693
0003a0 29 6f 2f be 79 0e c9 be 26 2b 66 be f7 95 eb 3d
       -0.17132248 -0.39268854 -0.22477397 0.11503213
0003b0 7a 0a 9a 3e a0 8a 0a 3e 19 f3 12 3e 8c 94 04 3d
       0.30086118 0.13529444 0.14350547 0.032368228
0003c0 81 7c 71 bc 04 a1 8e 3d 29 dc bf 3e f1 db 21 be
       -0.014739157 0.06964305 0.37472656 -0.15806557
0003d0 f9 7e 21 be a0 89 b3 3e 8c 45 09 3f 87 03 06 3e
       -0.15771092 0.35065937 0.53621745 0.13087283
0003e0 11 7c a4 3e 69 54 42 3e 27 11 86 bd 20 36 43 be
       0.32125905 0.18977512 -0.0654624 -0.19063616
0003f0 97 64 2d be f1 28 36 be 93 a0 d0 bb 37 ac 5d 3e
       -0.16932903 -0.17789055 -0.006366798 0.21647726

conv1.bias f4 [8]
000000 ee 23 9f be 1b 1e cc 3e 78 14 7a be b0 cf 21 bd
       -0.310821 0.3986672 -0.2442187 -0.039504707
000010 d8 0a 4e be 6a ee aa bd d7 61 04 bf 5a db f9 bd
       -0.20121324 -0.08346255 -0.5171179 -0.12200041

bn1.weight f4 [8]
000000 28 97 87 3f 29 ec 33 3f 42 9e 75 3f cb 8e 5b 3f
       1.0593004 0.70282227 0.9594461 0.8576476
000010 9a ce 9e 3f 66 57 27 3f ef 36 99 3f 21 34 80 3f
       1.24068 0.65367734 1.1969889 1.0015908

bn1.bias f4 [8]
000000 39 a8 71 bc aa 1f 28 3e ef 3e 1e be fd d2 68 3d
       -0.01474958 0.16418329 -0.15453695 0.05684184
000010 9f 66 fb bd 4d e0 42 3e fe 67 a6 be a3 c9 0f be
       -0.12275433 0.19030876 -0.32501215 -0.14041762

bn1.running_mean f4 [8]
000000 17 12 d5 3e 76 09 76 3f 2b 2f 5a 3e 15 16 dd 3e
       0.41615364 0.96108186 0.21307056 0.4318091
000010 19 66 f7 3e a9 ad 40 3f 0b 3a 90 3e 65 97 88 3f
       0.48320082 0.75264984 0.28169283 1.0671202

bn1.running_var f4 [8]
000000 89 63 58 3f be 16 a9 3f 1b 6a 92 3e c1 86 53 3f
       0.8452688 1.3210065 0.28596577 0.82627493
000010 ed 79 b9 3f 27 dc 8d 3f bb bc 23 3f 94 02 8c 40
       1.4490334 1.108281 0.63959855 4.3753147

conv2.weight f4 [16, 8, 3, 3]
000000 16 6c 63 3e a1 b1 bd 3d 51 a2 b8 3e 01 28 14 be
       0.222092 0.09262396 0.36061338 -0.14468385
000010 7d 59 ac bd 64 c6 b5 3d 47 4a 50 bd f1 79 9c 3d
       -0.08415506 0.08875731 -0.050852086 0.07640446
000020 f2 ac d2 3e ec 84 79 bd fb 74 42 be 29 e1 2c be
       0.41147572 -0.06091778 -0.18989937 -0.16882767
000030 27 4c 7a 3e 4f d2 00 3e ec fb 30 3c 59 7b 4c 3e
       0.24443112 0.12580226 0.01080225 0.19968928
000040 fb 9c 3c 3d ed a2 b1 be c4 af d2 bd d0 10 d2 bd
       0.046048146 -0.34694615 -0.10287431 -0.10257113
000050 e5 5a 0f bd 96 ef 62 3e 92 17 89 3e ee 58 6e 3e
       -0.034998793 0.22161707 0.26775795 0.23276111
000060 d0 1f c5 bd 3d 8f 62 be 78 e4 ca bd f0 5b c2 3e
       -0.096252084 -0.22124954 -0.09906858 0.37960768
000070 63 58 ea 3d 20 23 6e 3c e8 5b ff bd cc 96 0a 3e
       0.1144264 0.014534742 -0.124687016 0.13534087
000080 f9 83 48 3e e3 7c 55 bd a3 32 67 3d 0b a7 54 3d
       0.19581594 -0.052121054 0.056444775 0.051917117
000090 91 ca 50 bd f2 49 03 3e ac 10 3c 3e f4 7b 7e be
       -0.050974432 0.12821177 0.18365735 -0.24851972
0000a0 d0 99 c7 be d4 93 8e be 9f fb 99 3e a5 2c 0c 3f
       -0.38984537 -0.2784716 0.30074784 0.5475562
0000b0 1b aa 95 3e 24 24 3f be 9e df 5e 3c b8 e1 94 be
       0.29231343 -0.1866613 0.013603119 -0.2907846
0000c0 e6 f8 15 be 1c 41 3a 3e 03 c2 50 be e7 5d a3 3d
       -0.14645728 0.181889 -0.2038651 0.07976895
0000d0 a9 97 8c 3c b9 3c 4e bd b6 14 87 3e e5 31 30 3e
       0.017162161 -0.05035088 0.2638299 0.17206533
0000e0 5b a8 4c bd df dd 45 3e ad 19 85 3e cc 0c 39 3e
       -0.049965244 0.19322918 0.25996152 0.18071288
0000f0 47 6b df bd e2 ff 03 be 69 d2 b1 3c a4 c6 3d 3d
       -0.109091334 -0.1289058 0.021706777 0.046332017
000100 fe a2 36 3e ab d4 54 3e 17 cc c5 3d 9c 3b ba 3d
       0.17835614 0.20784251 0.09658068 0.09093401
000110 4d 83 8d 3e 61 b4 b9 3d 90 c3 59 be ba ff 5f 3e
       0.27639237 0.09067608 -0.21266007 0.21874896
000120 6d a9 a7 be b6 9c 9d be 2e 17 9f be b4 32 a6 3e
       -0.3274645 -0.30783623 -0.31072372 0.32460558
000130 af 7d 0c 3d 40 6f 0f 3e 0c b3 a1 be 3f 7a c3 bc
       0.03429955 0.14007282 -0.31581914 -0.023862002
000140 01 d7 82 bc 27 aa a0 3d c1 25 ed bd 11 e8 94 3d
       -0.015971662 0.07844954 -0.115794666 0.07270826
000150 87 65 55 3e ae e6 96 3d 0f 8c ad 3d 64 c0 65 3e
       0.20839511 0.073682174 0.0847398 0.22436672
000160 3b a8 52 3e 06 08 1f 3b 6c 53 2b 3d 6d 9f bf 3d
       0.20571987 0.0024266257 0.041827604 0.0935658
000170 91 83 39 bd 29 bb 7f 3d 9c 60 c4 3d 39 e6 b1 3d
       -0.045291487 0.06243435 0.09588739 0.086864896
000180 97 63 81 3e ed 0e 8c 3e 0a 23 6b 3e dd ba 83 be
       0.25271294 0.27355137 0.22962585 -0.25728503
000190 43 22 59 be 96 5a a7 be 20 5e 09 3e c2 aa b7 3e
       -0.21204476 -0.326863 0.13414812 0.35872465
0001a0 51 e6 64 3e a4 33 7c 3e c7 9f 1c bd bc 04 3d be
       0.22353484 0.24629074 -0.038238313 -0.18458837
0001b0 c6 a9 f0 3d e9 db fb 3c 2d 44 a7 bd b0 cf 41 3e
       0.11751132 0.03074451 -0.081673004 0.18926883
0001c0 cf cb 1c 3e 78 3d 94 3d c8 98 0a bf 35 e0 6f be
       0.15312122 0.07238287 -0.54139376 -0.23425372
0001d0 a5 2f 6d be 5f 76 ab bd ef 4f 5e be 71 f4 4e be
       -0.23162706 -0.08372187 -0.2171018 -0.20210434
0001e0 fb 5e 59 be f1 54 ed bb cb 98 3e be 9e bc 75 b9
       -0.21227638 -0.007242792 -0.18612973 -0.00023435286
0001f0 89 a5 3a ba 0e 7e e3 bd ea ba 1c 3e f0 ad aa 3e
       -0.00071200036 -0.111080274 0.15305677 0.3333583
000200 f1 21 c8 3e e5 5f 57 3d 70 40 06 be f2 f3 1e be
       0.39088395 0.052581687 -0.13110518 -0.15522745
000210 f1 88 1b 3c 5c 63 1b 3e 07 f6 84 3d 73 66 c1 3c
       0.009493099 0.15174621 0.064922385 0.023608422
000220 c4 22 83 bd 9f 4b 9e 3d 43 de d9 3d a9 a8 39 3d
       -0.064031154 0.07729267 0.10638096 0.045326862
000230 1f d1 d4 3d b5 3f 91 be 17 9f 2f 3e 6f d9 0c 3e
       0.10391449 -0.28368917 0.17150532 0.1375482
000240 08 27 54 3e c6 0a 43 3d 33 ee 1c bd f6 89 ca bd
       0.20718014 0.047617696 -0.038313102 -0.09889595
000250 45 ac 4e bd 4b 99 df bd 04 03 b9 be 3a 61 bf bd
       -0.050457258 -0.1091791 -0.36135113 -0.09344716
000260 af f9 03 be e4 0b 8a be fd bf 23 bd d9 5a 84 be
       -0.12888215 -0.26962197 -0.039978016 -0.2585056
000270 ce 8e ba 3c c7 ec d6 bd 45 cd a9 be 15 50 c2 3d
       0.022773173 -0.104943804 -0.3316442 0.09487931
000280 e6 62 37 bd e8 db 50 be 7e 89 09 bd f6 7a d8 3d
       -0.04477205 -0.20396388 -0.03357839 0.10570328
000290 ec d4 63 bd a2 8d 3b 3e b9 90 02 3e a0 ec 58 3d
       -0.05562298 0.18315747 0.1275052 0.05296004
0002a0 c8 39 2c bc 59 bb ab be 90 1d a4 be e3 81 06 3d
       -0.010511823 -0.33541372 -0.32053804 0.032838713
0002b0 cd 3d a7 bd 22 63 cc bc 46 86 0d be 8b d5 af bd
       -0.081660844 -0.024949614 -0.13820753 -0.08585652
0002c0 06 59 1a be b0 ac 71 be 4b 76 8b be aa a1 04 be
       -0.15073022 -0.23601031 -0.27238688 -0.12952295
0002d0 26 19 b5 bb 84 d8 aa 3d 6b fd 4f 3c 74 46 52 3e
       -0.0055266796 0.08342078 0.012694697 0.20534688
0002e0 82 23 6b 3e 88 5a bd bc 50 05 97 be 88 21 bd bd
       0.22962764 -0.023114458 -0.2949624 -0.09234911
0002f0 7d a7 9e be 1e d0 1f 3e f0 8f 6a 3d 38 c1 65 3d
       -0.30987158 0.15606734 0.057266176 0.05609247
000300 2e ea 04 be 66 08 b5 be ee ff b7 be 9d ed 00 3c
       -0.12979957 -0.3535797 -0.35937446 0.007869151
000310 27 01 27 be f9 7a 84 be cf b8 85 3e c2 d3 7c 3e
       -0.16309033 -0.2587507 0.2611756 0.24690154
000320 af d1 c3 3d 54 8e 89 3e d1 e8 d8 3e 6e aa 7f 3e
       0.09561478 0.268664 0.42365125 0.24967358
000330 c6 84 a2 3e f5 24 f7 3e 34 be cc 3e 26 3b ae bd
       0.31741923 0.48270383 0.39988863 -0.085073754
000340 b4 ec ac bc 93 96 7d be cf fe b2 3d 1c 4b cc 3c
       -0.021108963 -0.24764471 0.08740007 0.024938159
000350 79 60 8b be b5 78 ab 3e 0c b4 de 3e fc c1 84 bd
       -0.2722204 0.3349053 0.4349674 -0.06482312
000360 1c 29 17 3e 40 a3 6e be ab 49 1c 3e c8 db 02 3e
       0.14761776 -0.23304462 0.15262477 0.12779152
000370 40 76 ba 3c 82 bb ca bd be 87 b9 be b9 89 1c 3c
       0.022761464 -0.098990455 -0.36236376 0.00955432
000380 0c 41 9f be 0b b2 be 3c 28 4e 3c be ba 6c cb be
       -0.31104314 0.023278257 -0.18389189 -0.3973139
000390 bd e0 8e be a0 a0 53 be c2 05 7a be 98 e1 28 be
       -0.27905837 -0.20666742 -0.24416259 -0.16492307
0003a0 5e 2f 3d be b7 63 82 be 67 c4 27 be 87 f6 28 be
       -0.184751 -0.254667 -0.16383515 -0.16500293
0003b0 ea 14 8b be cf 98 5c 3e d4 84 ba 3e c5 5b 94 3e
       -0.27164394 0.21542667 0.36429465 0.28976265
0003c0 dd 5f ec bd 98 d0 56 be 93 06 9a be c9 58 ee bd
       -0.11541722 -0.2097801 -0.3008314 -0.11638028
0003d0 e7 e5 d4 bd 32 6a 4c be df 02 af 3e 1a 17 91 3e
       -0.10395413 -0.19962385 0.34181878 0.28337938
0003e0 61 a7 b3 3e d6 74 ad 3b 7c 46 0b be b2 97 66 be
       0.35088637 0.005293469 -0.13601106 -0.22518805
0003f0 24 fc 7c 3e bd 21 d2 3d 60 ec 9a 3e 01 18 c0 bd
       0.24705559 0.10260341 0.30258465 -0.093795784

conv2.bias f4 [16]
000000 47 5f c1 be 87 b7 c7 3d 11 64 f1 bd fb a8 fa 3b
       -0.37768003 0.09751802 -0.11786664 0.0076495386
000010 ce 1c fc bd 9f f5 0f bd c4 4b d1 bc e4 33 77 3e
       -0.123101816 -0.035146352 -0.025548823 0.24140888
000020 96 43 67 be 54 b7 e4 3d e8 e0 60 be 16 56 ba bb
       -0.22584376 0.111677796 -0.21960795 -0.005686532
000030 82 5c e7 be 69 60 81 3c a6 dd 25 bd 42 a1 cb 3e
       -0.45187765 0.015793042 -0.040494584 0.39771467

bn2.weight f4 [16]
000000 c7 71 7b 3f 31 9e 77 3f 7a ff a8 3f 42 bf 78 3f
       0.98220485 0.96725756 1.3202965 0.97166836
000010 94 4b 77 3f 61 7b 29 3f 32 8f 94 3f 6a 81 99 3f
       0.965997 0.66203886 1.16062 1.1992619
000020 ae d7 a1 3f 93 2b 27 3f f0 97 8c 3f 0a ab 72 3f
       1.2643945 0.65300864 1.0983868 0.94792235
000030 76 05 7c 3f 94 e7 16 3f b8 b4 9b 3f 32 95 2e 3f
       0.9844583 0.5894711 1.2164526 0.68196404

bn2.bias f4 [16]
000000 f7 86 38 be d7 fa 35 3c b3 c7 a9 be 9d d7 0b bd
       -0.18020235 0.011107168 -0.3316017 -0.03414117
000010 04 9a 26 3c f7 f2 ba 3e 20 e6 f8 3d 3a 0d 1d be
       0.010168556 0.36513492 0.12153268 -0.15337077
000020 7b 4f 09 be 3a 32 77 bd fc c0 ee 3d 64 f3 83 3c
       -0.13409226 -0.060350634 0.116579026 0.016107269
000030 87 77 de bd 6c 59 7c 3e 73 8c ea 3b 2d 64 20 3e
       -0.10862642 0.24643487 0.007157856 0.15663214

bn2.running_mean f4 [16]
000000 58 28 00 3f 52 c8 a5 3e c0 9e c8 3e f0 bb 1f 3f
       0.5006156 0.32379395 0.39183617 0.62396145
000010 09 19 7f 3f 08 6a 61 3f 70 dc fb 3e 06 bc 38 3f
       0.99647576 0.88052416 0.49191618 0.721619
000020 4c 8a 4e 3e 47 50 f5 3f d3 71 56 3e 35 4c 17 3f
       0.20169944 1.9165124 0.20941858 0.5910066
000030 bd 0d 79 3e 70 8c 8a 3f c0 b4 0c 3f 0c 5b 83 3f
       0.24321647 1.0824108 0.549633 1.026216

bn2.running_var f4 [16]
000000 b4 2f d2 3f c4 de 52 3f ab 04 c9 3f bd 79 d4 3f
       1.6420808 0.82371163 1.570455 1.6599652
000010 34 d3 75 40 df 4a 23 3f 82 75 d3 3f a7 17 2c 40
       3.8410158 0.6378612 1.6520236 2.6889436
000020 6d f8 3a 3f 33 1a 11 40 14 2c 38 3f ea 32 d3 3f
       0.7303532 2.267224 0.7194226 1.6499913
000030 a7 1c 66 3f 86 38 45 3f 15 5d 04 40 a3 f1 53 3f
       0.8988747 0.7703937 2.0681813 0.82790583

conv3.weight f4 [32, 16, 3, 3]
000000 3e f2 86 bb 69 9e 04 3d ba 0d 92 bd 2b f6 d7 3d
       -0.004118233 0.032377634 -0.071315244 0.10545
000010 e3 5e 7e be 07 cd b8 be 2f 32 32 bd 42 22 15 3c
       -0.24840884 -0.36093923 -0.04350489 0.009102406
000020 5d 9e 58 be a5 3b 0d be 9a 97 fa be a0 a7 a5 be
       -0.21154161 -0.13792284 -0.48943788 -0.3235445
000030 d7 9f 5b 3e 7e 87 6a 3e 8f d4 87 3e 04 f2 e9 bd
       0.21447693 0.22903249 0.26529357 -0.11423114
000040 53 19 80 be 23 6b 2e be 86 24 80 3d 18 11 91 3d
       -0.2501932 -0.17033057 0.06256966 0.070833385
000050 67 76 10 bd 60 04 b6 bd 99 b6 07 be d7 e8 d8 3d
       -0.035269167 -0.08887553 -0.13253249 0.10591286
000060 90 62 46 3e f0 8f 06 3e b3 25 d7 3b 26 11 9c 3e
       0.19373536 0.13140845 0.0065657734 0.30481833
000070 ef 55 b9 3c 2a 0a 46 3e 1c 3d 1e be ed b9 10 be
       0.022623984 0.19339815 -0.15452999 -0.14133425
000080 d3 3e 99 be 4e a6 64 3e 44 b2 aa bd 37 15 92 be
       -0.29930744 0.22329065 -0.08334783 -0.2853181
000090 08 b6 c4 be 58 54 86 3d 93 8e 42 3d 89 38 37 3e
       -0.3842013 0.06559056 0.04749925 0.1789266
0000a0 57 fd 67 be b6 c9 7a bd d8 a5 f4 bd b6 62 88 bd
       -0.22655235 -0.061227523 -0.11945695 -0.066594526
0000b0 69 b9 f5 3b 88 7d 1a be b6 de 11 bf b7 12 ba be
       0.0074989093 -0.15086949 -0.56980455 -0.36342403
0000c0 dd c5 d3 3d 80 89 4d bd c9 7a 2e 3d d3 6c 80 be
       0.10340474 -0.05017996 0.042597566 -0.25083026
0000d0 7c 88 ae bd f9 e0 05 3e 96 3b 03 3e 5a 9d 8f 3e
       -0.08522126 0.13074102 0.12815699 0.28049737
0000e0 df 32 96 3e 18 df 12 3e 6a 4c ff bd 16 88 38 be
       0.29335687 0.14342916 -0.12465747 -0.18020663
0000f0 54 0f 69 3e 52 96 35 3e 51 05 dc 3c c5 3c 80 be
       0.22759753 0.17733124 0.026858004 -0.25046363
000100 53 e5 08 bd 35 ee 84 3e 79 fb 3d 3e 42 75 5d 3e
       -0.033421826 0.25962988 0.1855296 0.21626762
000110 df 6f 0a 3e a9 6a cd bc 85 50 21 3d e7 e3 e8 3c
       0.13519238 -0.025075274 0.03938343 0.028428985
000120 3f fd 1a bd a7 78 a2 3d 61 5e 4f 3e 84 11 fb 3d
       -0.03783917 0.07933169 0.20250846 0.122592
000130 04 17 cc bb dc 8a ae be f7 a6 83 be db 5e 2a be
       -0.0062283296 -0.34090316 -0.25713322 -0.16637747
000140 bb a2 ba bd 75 b1 b8 bd 89 9f 69 3d f2 72 15 3c
       -0.091130696 -0.09018222 0.05703691 0.009121643
000150 5f 19 5b 3e 00 37 08 3c 90 83 35 3d 21 fc 5b bb
       0.21396397 0.008313894 0.04431492 -0.0033567029
000160 d7 2d 1b 3e c5 5f 8b b9 a0 78 3e 3e d2 04 b0 3d
       0.15154205 -0.000265835 0.18600702 0.085946694
000170 c7 b8 93 bd da 4b f2 3a f2 35 b2 bd a2 17 02 bb
       -0.07212978 0.001848574 -0.087016955 -0.0019850512
000180 af 91 21 be 79 52 3f be 9c a0 f3 bd 39 ab 8f be
       -0.1577823 -0.18683805 -0.11895868 -0.2806032
000190 92 79 b4 be 1a 6e 80 be d6 ed db 3c 59 6e d9 3d
       -0.35249 -0.25084 0.026846807 0.1061675
0001a0 53 06 df 3d d8 3c 1a 3d 0c bb f0 3d c0 37 00 be
       0.10889878 0.03765568 0.11754426 -0.12521267
0001b0 a8 30 17 3e dc dd 07 3e 9d 6a 96 3e 9e 75 d1 bd
       0.14764655 0.13268226 0.29378214 -0.10227512
0001c0 37 a5 33 bd 28 78 0f be 98 9f 3b 3e 81 65 b4 3d
       -0.043858733 -0.1401068 0.18322599 0.08808423
0001d0 ec 1b 05 bd c5 0a 4f be ce ca 7f bd ff 9b 76 3d
       -0.03249733 -0.20218952 -0.06244927 0.060207363
0001e0 e6 8a b4 3e f9 02 33 3e be 3f c0 bc 80 e0 50 bd
       0.3526222 0.17481603 -0.023467895 -0.05099535
0001f0 31 b4 a0 bd 1e a1 d6 bd ee 32 ab bd 7c e5 a6 be
       -0.07846869 -0.104799494 -0.083593234 -0.32596958
000200 07 3d a9 be 7f a8 14 3e 4c 3e 1c 3e 8c 2c a9 3d
       -0.33054373 0.14517401 0.1525814 0.0826045
000210 50 d6 64 3d 2e 71 6e bd 1b d0 c0 3b f4 bf 86 3b
       0.055868447 -0.058213405 0.005884183 0.004112238
000220 7f 05 b8 bd 27 f6 85 be cb 31 90 bd 44 ea 08 3d
       -0.08985423 -0.26164362 -0.07040747 0.033426538
000230 69 c8 07 be 11 04 1d be cf 31 85 be a4 23 60 be
       -0.13260044 -0.15333582 -0.26014563 -0.21888596
000240 32 d6 d6 b9 1e f1 06 be 84 b1 82 be 9c bc 35 3e
       -0.0004097685 -0.13177916 -0.2552606 0.1774773
000250 84 6c 14 3e 4e 5b ae 3a c6 49 1d be b8 86 02 3e
       0.1449452 0.0013302357 -0.15360174 0.12746704
000260 95 88 a8 bd ca 48 98 bb f2 89 41 bc c0 48 aa be
       -0.08229176 -0.004647349 -0.011812674 -0.3325863
000270 86 04 a5 3d 85 fc 95 3d f4 9d d9 bd 9a 9c ba be
       0.080575034 0.07323555 -0.1062583 -0.36447603
000280 d7 44 75 be af 30 0b be 41 4c 87 3e d7 cc c8 3e
       -0.23952042 -0.1359279 0.26425365 0.3921878
000290 7d 33 4d 3e fa 2f c5 3d 70 1b 2f 3d 82 d9 86 3d
       0.20039172 0.096282914 0.042750776 0.06584455
0002a0 02 5b 2d 3e 8f 52 92 3d ae 86 06 3e 5a 1d 65 be
       0.16929248 0.07144653 0.13137314 -0.22374478
0002b0 3c 61 b9 be 8a ca a4 3d d2 03 68 3e e9 3f fd 3d
       -0.36206996 0.08046444 0.22657707 0.123657055
0002c0 8b 3a 99 3e 67 a2 3a be aa 15 0b 3e 37 72 6b 3d
       0.29927477 -0.18226014 0.13582483 0.05748197
0002d0 42 8e 2c bd 13 e9 c1 bc 70 cd ba bd b9 f9 17 bd
       -0.042127855 -0.023670709 -0.09121215 -0.03710339
0002e0 07 7f 28 3e 49 98 0f 3e 3a d7 26 3d 83 39 fb bd
       0.16454707 0.14022936 0.0407326 -0.12266829
0002f0 5f f7 a5 bd c3 46 c2 bd 5a b5 74 bd 1d c3 06 3e
       -0.08103823 -0.09486153 -0.059743263 0.13160367
000300 d7 42 d3 bc c5 26 93 bd f6 4b 81 3c fa 69 50 be
       -0.025788708 -0.07185129 0.015783291 -0.20352927
000310 48 a3 5d be 51 c6 85 be 48 5f 83 bd f9 3a 25 bd
       -0.21644318 -0.26127866 -0.06414658 -0.040339444
000320 a5 70 fe bd 51 8d f5 bc b9 4c d3 bc b6 cb 84 be
       -0.12423829 -0.029974611 -0.02579342 -0.2593667
000330 d0 12 1b 3e fe b1 99 3d 10 aa a7 3c 91 a7 84 bd
       0.15143895 0.075046524 0.020466834 -0.06477273
000340 93 07 80 be 94 9b ea be 98 df 71 3d ee 98 40 be
       -0.2500578 -0.45821822 0.059051126 -0.18808338
000350 4b dd 48 be 40 cd 0a 3e 57 a4 8d 3e ac 2a 0f 3e
       -0.19615667 0.13554859 0.27664444 0.13981122
000360 7a 3b 95 bc 31 e8 d0 bd 91 a9 69 be 2a 52 24 3d
       -0.018216837 -0.10200537 -0.2281859 0.04011742
000370 ab c0 a1 3d 4d 71 ba bd 6c 41 4e bd f9 ef b4 bd
       0.078980766 -0.09103642 -0.05035536 -0.08834834
000380 b9 7c 4c 3e 82 5e e1 bc 21 50 44 3d 19 dd 6a 3e
       0.19969453 -0.027510885 0.04792798 0.22935905
000390 5b ac a0 ba db 15 63 bd ee db 4d bc 56 1c b6 3c
       -0.0012258397 -0.055440765 -0.012564642 0.022230309
0003a0 2a 82 0b 3e 91 c8 15 be ee 1d 2c bd 3d b3 69 be
       0.13623872 -0.14627291 -0.04202073 -0.2282228
0003b0 24 15 76 be 6c 15 15 be 93 ea ca bd f6 e4 ab 3c
       -0.24031502 -0.14558953 -0.09908023 0.0209832
0003c0 75 92 db bd 86 b5 03 3e bc 28 41 3e 7e 86 3b 3e
       -0.10721294 0.12862214 0.18863195 0.18313023
0003d0 a2 e4 96 3e 7a f5 28 3e e4 4f c4 3e f6 63 36 3e
       0.29471308 0.16499892 0.38342202 0.1781157
0003e0 5a 46 5b 3d 77 81 83 be 02 6b b9 bc cf 61 5c 3e
       0.05353389 -0.2568471 -0.022634033 0.21521686
0003f0 a7 10 75 3e 6e a3 49 3e 71 e4 80 be f7 c0 2c 3b
       0.23932134 0.1969125 -0.25174287 0.0026360133

conv3.bias f4 [32]
000000 71 f7 1c be 43 4b 18 be fa 0a c2 be a2 a7 15 3e
       -0.15328766 -0.1487246 -0.37899 0.14614728
000010 29 8e fa be ca b4 a9 be ee d7 fb be e6 c0 03 bd
       -0.48936585 -0.33145744 -0.4918818 -0.032166384
000020 af 81 81 be 38 b5 dd be b1 41 fd be 5c d6 18 be
       -0.25294253 -0.4330232 -0.4946418 -0.14925522
000030 92 48 f0 be 44 6b 40 bc 71 38 c1 be 08 1d 55 bb
       -0.46930367 -0.011744324 -0.37738374 -0.0032518525
000040 4e eb eb 3d 5e f2 e0 be 63 14 44 be 93 ca 7f be
       0.1151949 -0.4393491 -0.19148402 -0.2497962
000050 6d 5b b3 be 89 fb 69 3d dc 1a 1d be 12 1e 41 be
       -0.3503069 0.05712465 -0.15342277 -0.18859127
000060 5c 06 5f be b8 be ec be d5 d8 93 be 74 ff 93 be
       -0.2177977 -0.46239257 -0.28876367 -0.28905833
000070 c7 ab 53 be 26 03 bf bd e9 24 e1 bd c5 d0 7a be
       -0.20670997 -0.093267724 -0.10993368 -0.24493702

bn3.weight f4 [32]
000000 7b 09 6e 3f 6a 92 74 3f de c5 9e 3f a4 ee 5c 3f
       0.92983216 0.9553591 1.2404134 0.86301637
000010 00 7b 8b 3f af 2d 68 3f 91 52 8b 3f e2 78 67 3f
       1.0896912 0.9069471 1.0884572 0.9041883
000020 ff 98 98 3f 05 5d 63 3f 21 71 8c 3f d7 7c 75 3f
       1.1921691 0.8881381 1.0972024 0.95893615
000030 9b c7 6c 3f 91 60 8a 3f 41 df 81 3f 2f e4 32 3f
       0.92492074 1.081072 1.0146257 0.6987943
000040 9c d2 57 3f b8 ac 87 3f ee 4c 88 3f a2 7a 77 3f
       0.8430574 1.0599585 1.0648477 0.966715
000050 8d d2 8d 3f f9 3a 89 3f da 40 79 3f 32 e2 64 3f
       1.107988 1.0721122 0.9736458 0.89407647
000060 c9 88 83 3f 80 35 6b 3f 3a e3 40 3f 8c 91 81 3f
       1.0276119 0.9187851 0.7534672 1.0122542
000070 b8 07 8a 3f 2b c7 6c 3f 7f b8 4a 3f d7 1f 89 3f
       1.0783606 0.92491406 0.7918777 1.0712842

bn3.bias f4 [32]
000000 33 c6 e7 bc ec c9 4f be 01 6b 01 3f 1b 8f 50 3d
       -0.028292751 -0.20291871 0.505539 0.050917726
000010 26 6b 46 3d 41 63 85 3e 90 58 ca bc df ba 08 be
       0.04844203 0.26052287 -0.024700433 -0.13352536
000020 2a 2e fb 3d 7e ad 1e 3d 7a 1d 0c 3f be 4e ee 3d
       0.122646645 0.038739674 0.5473248 0.11636113
000030 b5 30 63 3e ba b6 02 3f 1b 8d 03 3e 80 0c d6 bd
       0.22186549 0.5106007 0.12846796 -0.10451603
000040 67 d0 7e 3b f7 81 02 bd 34 44 04 3f e8 e2 e8 3e
       0.0038881542 -0.031862225 0.5166657 0.45485616
000050 a7 13 8b 3d 2c 92 63 3e 87 2d 04 3f f5 ef 6b be
       0.06790858 0.22223729 0.5163197 -0.23040755
000060 36 f7 87 3d 4c 80 07 be f8 25 95 bd 73 89 bc 3e
       0.066389486 -0.13232535 -0.072826326 0.36823615
000070 c3 02 b4 3d d0 75 ea 3e 4b 2c ac bd 13 30 91 3e
       0.08789589 0.4579301 -0.08406886 0.2835699

bn3.running_mean f4 [32]
000000 91 8b 0e 3f 15 98 9b 3e b5 0a 9c 3e 2d 0e a8 3f
       0.5568171 0.30389467 0.3047692 1.3129326
000010 45 a6 98 3e 6a 6d 82 3f 36 d2 27 3f 53 da 86 3e
       0.29814354 1.018964 0.6555513 0.26338443
000020 a2 7b 97 3e 5b 0d e2 3e 80 9d 2a 3f 99 e5 92 3e
       0.29586512 0.44150814 0.66646576 0.28690794
000030 66 9c 02 3f 5a 75 6f 3f b7 60 ea 3e d5 b2 92 3f
       0.51019895 0.9353844 0.45776913 1.1460825
000040 40 dd 05 3f 24 85 4d 3f fb 2f 06 40 34 93 ff 3e
       0.52290726 0.8028128 2.0966785 0.49916995
000050 d0 f7 21 3f 42 88 cd 3e ed 65 b3 3f a3 71 27 3f
       0.63268757 0.4014302 1.401548 0.6540777
000060 ce 6d e2 3e 8e 69 0c 3f 50 70 cd 3e 7a a5 41 3e
       0.442244 0.54848564 0.4012475 0.1891078
000070 3e a9 90 3f df d3 a2 3f f4 1d 18 3f 30 29 b0 3e
       1.1301649 1.2720908 0.59420705 0.34406424

bn3.running_var f4 [32]
000000 5e 25 b4 3f a6 71 8b 3f d5 8c af 3f 3d ad ef 3f
       1.4073904 1.0894058 1.3714854 1.8724743
000010 4b 67 8c 3f 71 bb db 3f 5f af 65 40 45 89 82 3f
       1.0969023 1.7166578 3.5888288 1.0198141
000020 2e 17 a4 3f 4f 90 b6 3f 22 76 58 40 72 f7 6f 3f
       1.2819574 1.426279 3.3822103 0.93736947
000030 51 f3 13 40 bd 41 58 40 f2 4e d3 3f da b8 a4 3f
       2.3117259 3.3790123 1.6508467 1.2868912
000040 c2 84 78 3f 04 c9 88 40 1f 90 1e 40 0b 20 f6 3f
       0.9707757 4.274538 2.4775465 1.9228529
000050 de f7 1a 40 33 8e 14 40 4f 4d f5 3f 3d 2f 29 40
       2.4213786 2.3211792 1.9164218 2.6435082
000060 cc 28 ce 3f 5f 61 05 40 9b 46 56 3f 21 35 82 3f
       1.61062 2.084068 0.83701485 1.0172464
000070 ef 5f 93 40 ea ec de 3f 8e ef 8b 3f 17 de ec 3f
       4.6054606 1.741605 1.0932481 1.8505276

conv4.weight f4 [64, 32, 3, 3]
000000 ed d1 a3 3d bf 45 9b 3e 61 1e 82 3e 2a a2 c6 bd
       0.079990245 0.3032665 0.25413802 -0.09698899
000010 3a 87 b0 bd 6e 5e 19 be cb 4d b6 3d 5b a4 9a 3d
       -0.086195424 -0.14977428 0.089015566 0.075508796
000020 99 4c 51 3d a2 8e e2 3e bf 7a 1c 3f c1 a3 c3 3e
       0.05109844 0.44249445 0.61124796 0.38210872
000030 65 f8 1c be cc a2 ec bd c8 49 b1 bb 00 df 83 3d
       -0.1532913 -0.115544885 -0.0054104067 0.06439018
000040 92 51 d3 3d db f1 2f 3b 5b 37 f8 bc ad 67 0d 3d
       0.10318293 0.0026847038 -0.030299833 0.0345227
000050 7c 28 5e be 6b 9f 93 3d f1 5a af 3c 88 c8 4f be
       -0.21695131 0.07208141 0.021405669 -0.2029134
000060 97 b2 c4 bc c8 87 32 be 14 13 5a bd bd 40 02 3e
       -0.02401094 -0.17434609 -0.05324085 0.12720008
000070 93 ce 44 3d 0e 42 27 ba 9d 93 0f be 83 ae b9 bc
       0.048048567 -0.00063803873 -0.14021154 -0.022666221
000080 0d d9 8a 3c 7d 4a 29 3e cc 5e df 3d 80 15 43 3c
       0.016949201 0.16532321 0.10906753 0.0119069815
000090 3d 90 0d 3e 6a 2a 2d 3e 3c 2e e8 3d 8b cb 59 bd
       0.13824554 0.16910711 0.113369435 -0.05317263
0000a0 be 1b ef 3b be be 56 3d e9 96 11 3e a3 1e 2a 3e
       0.0072970083 0.052428 0.14217724 0.1661325
0000b0 ef 48 ff 3e 0f 7a 54 be da 22 6b be ce 40 04 be
       0.4986033 -0.20749687 -0.22962514 -0.12915346
0000c0 ef 71 5d be e9 37 c4 be 24 4d 2f be 0f 40 b4 bc
       -0.21625493 -0.38323906 -0.1711927 -0.022003202
0000d0 e7 a0 08 3e a8 e8 4d 3e 91 be 17 3e 85 22 00 bd
       0.1334263 0.20108283 0.14818789 -0.03128292
0000e0 fc 76 35 bd d8 55 54 be 87 c6 05 be 1b 05 84 be
       -0.044302925 -0.20735872 -0.13064013 -0.25785145
0000f0 e8 7c 3c bd 98 a5 13 bd b5 c5 05 3d 81 f6 85 ba
       -0.046017557 -0.036046594 0.03265925 -0.0010220559
000100 ce f0 88 3e c3 37 8a 3e b8 5e 6f be ca 6a ab bd
       0.2674622 0.26995668 -0.23375976 -0.08369978
000110 b3 6e 05 be a5 01 0b 3d 77 be da bd f4 73 de bd
       -0.1303051 0.033937115 -0.106808595 -0.1086196
000120 8f 05 5e be 08 13 40 3d 65 1a ed 3d 22 0a 3b 3c
       -0.21681808 0.04689315 0.115773 0.01141599
000130 56 76 87 3d 78 76 80 be 8e cd 29 3e 1f 9f c6 bc
       0.06614368 -0.25090384 0.16582319 -0.024245797
000140 2f c3 65 be c1 51 1c be d1 7b b3 bc dd 87 05 be
       -0.22437738 -0.15265562 -0.021909626 -0.13040109
000150 37 8c ce bd 72 de b0 bd 51 1d a5 bd dd 92 0b 3e
       -0.100853376 -0.08636178 -0.08062232 0.13630243
000160 c8 df e4 3d 53 b2 35 3d 3c 33 16 3e 53 ab 37 3e
       0.111754954 0.044359516 0.14667982 0.17936449
000170 8b 67 ac bd ed 9b 7f be 33 4e 9c be 4a 4e 55 be
       -0.08418187 -0.24961825 -0.3052841 -0.20830646
000180 05 57 f9 bd cd 94 35 be b9 03 64 3e 77 70 10 3d
       -0.12174801 -0.17732544 0.22267045 0.035263505
000190 98 f5 ec 3d bb 64 11 3e 4f 46 7c bd 62 be b0 bd
       0.11570281 0.14198582 -0.06159049 -0.08630063
0001a0 13 73 84 be eb 56 7c bd 71 b6 41 bd 22 0c 4e 3e
       -0.25869045 -0.06160633 -0.04729313 0.20121816
0001b0 39 85 01 38 ba 92 15 be 53 7f bb 3d cc df 20 bf
       3.088007e-05 -0.14606753 0.091551445 -0.62841487
0001c0 4e b2 a7 be d1 0e b3 be e4 90 a1 3d 87 1c 6d bd
       -0.32753223 -0.34972242 0.07888964 -0.057888534
0001d0 5f 9e ff 3c 49 3c 4c bc 07 89 d6 3d 41 dc c1 3d
       0.031203447 -0.012465545 0.10475355 0.09465838
0001e0 4b 50 f5 3d 02 f5 c2 3d f1 97 49 3e 74 09 a9 bc
       0.11978205 0.09519388 0.19686867 -0.02063439
0001f0 17 06 fc bd 75 3a fb bb a3 b4 a6 3d a4 7f f3 3d
       -0.12305849 -0.0076668807 0.081399225 0.1188958
000200 4f 30 2d bd aa fc c4 be 1d 94 cb be 7e a9 5d b9
       -0.0422824 -0.38474017 -0.3976144 -0.00021139343
000210 7d c0 dd 3a bc 19 ad 3d 83 ac 60 3c 5d 7f a3 bd
       0.0016918328 0.08452174 0.013713005 -0.07983277
000220 c7 7c ee bc d5 30 51 be c8 55 85 bd 6f 79 0f be
       -0.029112233 -0.20428784 -0.06510502 -0.14011167
000230 4a 31 ce bd c7 0f 12 3d 1b 26 d0 bd ec 9d a2 3d
       -0.10067995 0.035659578 -0.10163518 0.079402775
000240 07 1c 99 3d 7e 2e 7c 3e a5 fb 8a 3d cd 01 a4 ba
       0.07476049 0.2462711 0.06786279 -0.0012512744
000250 28 93 f5 3d 6b e6 4d be 49 74 e7 bd 90 3e b9 be
       0.119909585 -0.20107429 -0.113014765 -0.36180544
000260 54 57 7a bd 66 41 e1 bb 97 3b 1b 3d ea 12 4c be
       -0.06111844 -0.006874251 0.037898626 -0.1992909
000270 6e 6c 08 be 25 62 05 be 9d f5 eb bd 4d ee 41 3d
       -0.13322613 -0.1302572 -0.115214564 0.047346402
000280 aa 9f e9 bb 1c 34 a4 3c de 81 d3 bc bb 09 19 3e
       -0.007129629 0.020044379 -0.025818761 0.14945118
000290 8a bc 52 3e 04 0f 92 3d a4 a2 0d be e3 72 96 3d
       0.20579734 0.0713177 -0.13831574 0.07346132
0002a0 20 75 fc bd 73 0e 10 bd d1 ce d0 bd b1 03 2c bd
       -0.12327027 -0.03517003 -0.10195697 -0.041995708
0002b0 04 1e 7f bd 12 21 20 3e a1 31 1e be ea b9 de 3c
       -0.062284485 0.15637615 -0.1544862 0.02718826
0002c0 56 81 1b be ac cd ae bd 22 c9 af be f2 96 2d be
       -0.15186056 -0.085353225 -0.3433314 -0.16952112
0002d0 27 94 a3 bd 64 34 3d be 9c b0 e9 bd 35 03 a8 bc
       -0.07987242 -0.18477017 -0.11410639 -0.020509342
0002e0 f9 20 cc 3d 6d 52 ca 3d 84 2b 87 3d 8d f6 84 3d
       0.099672265 0.09879003 0.06600097 0.06492338
0002f0 20 af d4 bd c1 38 bf 3d 59 19 82 3d 07 3a 2d 3d
       -0.10384965 0.09336997 0.06352491 0.042291667
000300 2f d0 86 3e 49 be 66 3e 52 37 75 3e cc 7e 1a be
       0.26330706 0.22533526 0.23946884 -0.15087432
000310 0d 13 87 bd b8 3e 21 be 16 78 95 3d b2 58 05 3d
       -0.065954305 -0.15746582 0.07298295 0.03255529
000320 c3 10 de bd 9e 96 42 be 2f 69 7c be 07 02 c7 3d
       -0.10843041 -0.19002768 -0.246495 0.097171836
000330 52 32 22 bd 02 1f 75 be 7b de 36 be 1d c7 8d bc
       -0.03959877 -0.2393761 -0.17858307 -0.017306859
000340 e2 47 23 b9 0d eb b3 be c4 70 9e bd 48 1e 5e bc
       -0.0001557167 -0.35140267 -0.07736352 -0.013557024
000350 68 78 57 bd 63 04 93 3e d4 ef 34 3e 2d 29 f3 bc
       -0.052605063 0.28714284 0.17669612 -0.02968272
000360 ca 99 b0 bc 20 d0 5b be 70 f3 01 be 2f a8 3f be
       -0.021557707 -0.21466112 -0.1269052 -0.187165
000370 29 41 28 be 02 b4 e6 3d 2c c5 4d be 78 f1 c8 bd
       -0.16431107 0.112648025 -0.20094746 -0.098116815
000380 24 cd 08 be ac e7 08 be a4 49 d0 bc 21 ca df bd
       -0.13359505 -0.13369626 -0.02542574 -0.10927225
000390 6d b3 93 3e b5 66 14 3e 63 c9 96 3e 1e 18 43 be
       0.28847829 0.14492305 0.2945052 -0.19052169
0003a0 60 9a 86 be 90 2d 9a bd 0e 2c 1c 3c 1b 7e 40 be
       -0.26289654 -0.075282216 0.009531988 -0.18798105
0003b0 90 64 fe bd 2f 40 1f 3e cd 07 64 3e 17 a6 3a 3e
       -0.124215245 0.15551828 0.22268601 0.18227421
0003c0 1a 0e 8c bc c4 f5 38 bd 89 15 3c bd a0 ea 1d bc
       -0.017096568 -0.045156255 -0.045918975 -0.0096384585
0003d0 32 78 88 3b fc 70 4d be c9 f1 24 bd ab 89 65 be
       0.004164719 -0.20062631 -0.040269647 -0.22415797
0003e0 37 b2 3b bd b0 18 c0 3c b9 4d 26 3e 48 21 64 be
       -0.045824256 0.023449272 0.16240586 -0.22278321
0003f0 b4 a8 bd bc f9 ed e4 3c 38 18 5b be 58 95 7a be
       -0.023151733 0.027945505 -0.21395957 -0.24471033

conv4.bias f4 [64]
000000 3c 53 71 be ad c3 e1 be e8 37 b9 be b7 63 58 be
       -0.23566908 -0.440946 -0.36175466 -0.21131788
000010 10 58 bf bd ae ce b0 bd ca bc fb bd cc ac 9a be
       -0.093429685 -0.08633171 -0.12291868 -0.3020996
000020 e7 42 90 be e2 02 29 be f9 54 b1 3d 44 25 c9 be
       -0.28176042 -0.16505006 0.086587854 -0.39286244
000030 43 96 0b bf 72 df 11 bf f6 1a 98 be 9d e7 33 be
       -0.54526156 -0.56981575 -0.2970807 -0.17568822
000040 c2 50 0f be 0c 86 96 be ab 61 3b bd 49 4b b6 be
       -0.1399565 -0.29399145 -0.04574744 -0.35604313
000050 a7 7f 7a be 95 93 42 be 7c 45 a4 be 0f 8e 92 be
       -0.24462758 -0.1900161 -0.32084262 -0.28624007
000060 6b 2a 07 be be 60 b7 be 02 23 59 be b6 37 ce be
       -0.13199775 -0.35815996 -0.2120476 -0.4027688
000070 86 ec 66 be ca 45 a2 bd 00 62 3f be 9e e2 3e be
       -0.22551164 -0.079234675 -0.18689728 -0.18641135
000080 45 68 3b be 9f 11 df bd 53 37 e0 be 85 bc ce be
       -0.18301494 -0.10892033 -0.4379221 -0.40378204
000090 91 83 ad be da 35 89 be fc ca aa bd 57 7a af be
       -0.3388944 -0.26798898 -0.083394974 -0.34273025
0000a0 34 8b 0b bc 78 18 cd be 6a 78 05 3e a8 b2 89 be
       -0.008517075 -0.4005773 0.13034216 -0.26894116
0000b0 65 1c 55 be 78 09 83 bc 05 53 27 be 10 96 59 be
       -0.20811613 -0.015995726 -0.16340263 -0.2124865
0000c0 f8 05 ed bd 25 6c 11 bd 3b ae 48 be 0e 51 b6 be
       -0.11573404 -0.035503525 -0.19597714 -0.35608715
0000d0 85 18 54 be 42 38 95 be fe eb 1f 3c ae c5 5d 3c
       -0.20712478 -0.29144484 0.009760855 0.0135359
0000e0 f8 23 94 be 01 61 59 be 5a bc 85 be 96 4a 3d be
       -0.28933692 -0.2122841 -0.26120263 -0.18485484
0000f0 44 e8 fb be cd 0f 08 be d2 8e 75 be 7b 8b 8d be
       -0.49200642 -0.13287278 -0.23980263 -0.27645478

bn4.weight f4 [64]
000000 92 2d 2f 40 f8 b5 3b 40 43 e8 41 40 64 5a 44 40
       2.7371564 2.9329815 3.0298011 3.068017
000010 f0 e9 34 40 df 6f 32 40 64 46 2e 40 be bd 33 40
       2.8267784 2.788078 2.7230463 2.808456
000020 c6 6f 34 40 77 85 28 40 54 bc 0c 40 20 53 21 40
       2.819322 2.633146 2.1989946 2.5206985
000030 25 ce 1e 40 6c 8a 32 40 f0 0c 43 40 f3 a7 36 40
       2.481332 2.7896986 3.0476646 2.8540008
000040 21 e6 25 40 99 63 64 40 29 20 48 40 c6 f3 65 40
       2.592171 3.568579 3.126963 3.5930037
000050 8c 9e 20 40 7e c1 01 40 c5 d6 5f 40 22 b9 15 40
       2.509677 2.0274348 3.4974835 2.3394246
000060 f9 75 47 40 81 b9 4e 40 1c f5 12 40 bf 41 4a 40
       3.1165755 3.2300723 2.2962103 3.1602628
000070 6c 97 39 40 ed e6 21 40 4e 88 4f 40 ec 32 35 40
       2.899867 2.5297196 3.2426944 2.831233
000080 f1 91 26 40 62 e2 2d 40 0e cb 2e 40 99 12 48 40
       2.6026576 2.7169423 2.7311435 3.126135
000090 2f 75 35 40 0c 9a 3b 40 71 2c 01 40 75 a9 55 40
       2.8352773 2.9312773 2.0183375 3.3384678
0000a0 21 97 27 40 87 75 24 40 fc e0 28 40 9d 36 28 40
       2.6185992 2.5696733 2.638732 2.6283333
0000b0 52 c3 3a 40 91 79 2e 40 a6 32 3a 40 8c 11 19 40
       2.9181714 2.7261698 2.9093413 2.391696
0000c0 63 86 1d 40 ad e6 25 40 41 4b 32 40 53 f8 66 40
       2.4613273 2.5922043 2.7858431 3.6089065
0000d0 9d 0d 42 40 3a bb 21 40 89 4b 38 40 59 13 03 40
       3.032081 2.5270524 2.8796103 2.048056
0000e0 91 ec 31 40 d1 c7 27 40 61 b2 55 40 17 d7 36 40
       2.7800639 2.6215708 3.3390124 2.856878
0000f0 07 9e 3b 40 bd 53 47 40 75 c5 28 40 f1 8e 27 40
       2.9315202 3.114486 2.6370518 2.6180995

bn4.bias f4 [64]
000000 71 8c d5 3e fc 5a 52 3e 7a d7 0f 3e ee 36 ac be
       0.4170871 0.2054252 0.14047042 -0.33635658
000010 8e 63 71 3e 75 df 64 be d5 31 3c be cc de 4e be
       0.23573133 -0.22350867 -0.18378384 -0.20202178
000020 86 43 93 bd 4f 4d 90 3e d6 da 59 be 29 72 36 3e
       -0.071906134 0.28183982 -0.21274886 0.17816986
000030 c0 74 81 3e 29 34 82 be 0a 4a 4b be ee f6 5c be
       0.25284386 -0.2543042 -0.19852462 -0.21578571
000040 d8 a1 39 3e ae 81 c6 3e 7a 7f 7b 3e 45 94 8f be
       0.18128145 0.38770813 0.24560347 -0.28042808
000050 6a f2 53 be 2b 4e 8a be b3 d3 3e be 79 e4 63 be
       -0.20697942 -0.27012762 -0.18635444 -0.22255124
000060 45 35 8d be 9b 8b b9 3e 6c 6b 47 be 45 b4 38 be
       -0.27579704 0.36239323 -0.19474572 -0.18037517
000070 5a 0a 97 be 69 52 24 be d0 0c 4e be aa 70 80 3e
       -0.29500085 -0.16047062 -0.20122075 0.25085956
000080 67 b9 18 3e d7 e7 4d be c2 64 5a 3e 6b 85 9e 3e
       0.14914475 -0.20107971 0.21327499 0.30961165
000090 26 ca 46 be 61 28 1a be bc 94 32 3e 42 1a 3a be
       -0.19413051 -0.15054466 0.1743955 -0.18174079
0000a0 16 22 5b 3e e6 e7 23 be 54 3e 68 3e 81 64 8c be
       0.21399722 -0.16006431 0.22680026 -0.27420428
0000b0 a8 5a 9a be 71 19 96 3e 70 16 15 be ce b9 17 3e
       -0.3014729 0.29316285 -0.1455934 0.14816973
0000c0 fe 84 44 be 8e d5 23 3e 80 16 0b 3e 87 f8 8c be
       -0.19191357 0.15999433 0.13582802 -0.2753336
0000d0 bf b1 63 be 23 42 04 3e bb 64 6b 3e 0f ea 68 be
       -0.22235774 0.12915854 0.22987644 -0.22745536
0000e0 5d ce 51 3e f7 b9 33 3e 42 37 09 be 16 96 63 3e
       0.20488878 0.17551409 -0.13399985 0.22225222
0000f0 89 66 11 3e 74 5f 86 3e d2 7e 2e 3e 89 52 2d be
       0.1419927 0.262447 0.17040566 -0.16926016

bn4.running_mean f4 [64]
000000 50 db a1 3e 92 e6 5e 3e 7d 2e 45 3e 7e 32 c0 3d
       0.31612635 0.21767643 0.19256015 0.093846306
000010 34 46 93 3d a3 d0 eb 3d 32 1e 42 3e 11 45 08 3e
       0.071911246 0.11514404 0.18956831 0.13307597
000020 a1 b6 ea 3d 89 bc 81 3d c9 65 fd 3e f2 30 f9 3d
       0.11460615 0.06334788 0.49491718 0.12167539
000030 0a b4 04 3e be 47 bd 3d 84 74 aa 3d f7 48 35 3e
       0.12959304 0.09242199 0.08323005 0.17703615
000040 6c 06 ec 3d c6 c4 9d 3d 48 bc aa 3d 21 03 07 3e
       0.115246624 0.07703547 0.08336693 0.13184787
000050 9f ff a8 3d 58 3f 48 3f 40 e3 c6 3d 31 52 13 3e
       0.08251881 0.78221655 0.09711313 0.14386822
000060 41 f5 d2 3d c8 f1 c1 3d c2 04 ca 3e 73 10 f5 3d
       0.10300685 0.09469944 0.39456755 0.11966028
000070 4a fc 15 3e 93 5c 20 3e 61 a7 5e 3d 99 f6 0b 3e
       0.14647022 0.15660314 0.054358844 0.13668288
000080 b6 52 24 3e d2 23 ab 3d 31 0a 1e 3e 8a f1 01 3e
       0.16047177 0.083564416 0.15433575 0.12689796
000090 c9 aa 47 3e 5e 49 02 3e 4f 89 3d 3f 1f 8d 79 3d
       0.19498743 0.127233 0.7403764 0.0609256
0000a0 7a d7 a5 3e c7 80 84 3e 7f eb 8b 3e cc c0 dd 3d
       0.32390958 0.258795 0.27328107 0.10827789
0000b0 40 64 bc 3d 4f 5c 00 3e a4 9a e1 3d 82 ce 87 3e
       0.09198809 0.12535213 0.110158235 0.2652474
0000c0 89 98 f1 3d e3 ba 91 3e 4b 80 b0 3d d1 ee cd 3d
       0.11796672 0.28462896 0.0861822 0.10055316
0000d0 02 79 7d 3e 2d c3 12 3e 51 47 9a 3e 2c 2d dc 3f
       0.24753192 0.14332266 0.30132535 1.7201285
0000e0 3b 4b c6 3d 02 cc 2a 3e 26 a6 ac 3d 10 de ea 3d
       0.09682318 0.16679385 0.08430128 0.11468136
0000f0 fe e0 a6 3d 32 e9 d3 3d a5 10 5a 3e 08 60 8b 3e
       0.081483826 0.10347213 0.21295412 0.27221704

bn4.running_var f4 [64]
000000 00 bd 85 3f de 9e 82 3f e6 f0 54 3f d4 42 65 3e
       1.0448303 1.0204732 0.8318008 0.22388774
000010 b2 aa 58 3e ff 93 94 3e 73 97 f6 3e ea 05 bd 3e
       0.21158865 0.29019162 0.48162422 0.36918575
000020 be 4c c4 3e f3 38 08 3e 84 e0 23 3f 55 33 e2 3e
       0.383398 0.13302974 0.6401446 0.44179788
000030 2d 9a fd 3e f8 a0 8e 3e 94 8f 85 3e ef 04 d0 3e
       0.4953169 0.27857184 0.26086104 0.40628764
000040 34 92 aa 3e 20 a5 88 3e f1 13 91 3e da 64 b0 3e
       0.3331467 0.2668848 0.28335527 0.34451944
000050 4d 3a 5f 3e 83 db 2f 40 eb 25 be 3e c3 57 b1 3e
       0.21799584 2.747773 0.37138304 0.3463727
000060 07 10 a8 3e 53 e3 7c 3e 42 72 0c 3f 4c d8 f4 3e
       0.32824728 0.24696092 0.54861844 0.4782127
000070 aa 0c da 3e 59 ce a2 3e 7e 15 23 3e cc 59 b6 3e
       0.42587787 0.31798056 0.15926167 0.35615385
000080 f0 f2 f9 3e 7d 6a 40 3e 4a 4c 11 3f 65 18 ea 3e
       0.4881816 0.18790622 0.5675703 0.45721737
000090 f7 82 20 3f fa c5 9f 3e 8a 2d 18 40 26 92 41 3e
       0.62699836 0.31205732 2.3777795 0.18903407
0000a0 68 91 80 3f 81 a2 95 3f b6 0a 2e 3f 61 0a a7 3e
       1.0044374 1.1690217 0.67985094 0.32625106
0000b0 4c 95 a7 3e 68 72 7a 3e 5e 8a c0 3e cd 1d 77 3f
       0.32731092 0.24457705 0.37605566 0.9652985
0000c0 60 18 95 3e db 1f 6b 3f 14 14 83 3e 4e e1 76 3e
       0.2912016 0.9184548 0.25601256 0.24109384
0000d0 4d da 39 3f 57 e2 ed 3e 70 d8 8f 3f 5d d6 0f 40
       0.72598726 0.46461746 1.1237926 2.2474587
0000e0 44 c6 a1 3e 39 5b 3a 3f 38 77 7d 3e 84 fb bd 3e
       0.31596577 0.72795445 0.2475251 0.37105954
0000f0 3b b5 96 3e a9 ac 98 3e 93 22 44 3f 9b 83 48 3f
       0.29435143 0.2981923 0.76615256 0.78325814
