NCC_Code/Models/2022-08-28_13-48-28_model.pt (torch, 115275 bytes, 50 tensors)

conv1.weight f4 [8, 2, 5, 5]
000000 45 d0 29 3c f6 8d 70 bc bf 39 db 3d 62 7b c8 bd
       0.010364597 -0.014682284 0.107043736 -0.097891584
000010 0e 5e cd bd 5d f9 13 be 1b 7f a9 be f8 48 06 be
       -0.10027705 -0.14450593 -0.33104786 -0.13113773
000020 99 e9 cc bd d2 64 cc bd 16 cc 1f be 37 61 4c be
       -0.10005493 -0.099801674 -0.15605196 -0.1995896
000030 bb 25 60 be eb 12 8d 3d 82 a9 82 3d 23 11 1f 3e
       -0.21889393 0.06888374 0.06379987 0.15533881
000040 bd 36 58 3e 88 ee af 3e cc 15 9d 3e cb 3f 5f 3d
       0.21114631 0.34361672 0.30680692 0.054504197
000050 b5 38 68 bd bc e4 20 3d f6 6f 79 3d 9d 70 cb be
       -0.056694705 0.039280638 0.06089779 -0.39734355
000060 41 92 94 3a f0 b5 01 3e f2 db 3e 3e 3d 04 7d be
       0.0011335091 0.1266706 0.1863859 -0.24708648
000070 9e a3 66 3e 91 14 d0 39 35 38 fc bd ba c6 bc bd
       0.22523353 0.00039688175 -0.12315408 -0.092175916
000080 9a 55 80 bd d5 88 24 be 71 ec 2b be 62 95 05 3d
       -0.06266327 -0.16067822 -0.16789414 0.032613166
000090 a7 1f 67 ba 0c c6 0d be 06 df 01 be cf a5 0a be
       -0.0008816667 -0.1384508 -0.12682733 -0.13539813
0000a0 f4 bc 82 3e 9d 90 59 3e a3 4a 63 3e 22 3a 2b 3e
       0.25534785 0.21246572 0.2219644 0.16721395
0000b0 5c 93 4e 3c fb 7b f9 bd 47 92 07 3c 2e 75 4a bd
       0.012608375 -0.121818505 0.008274621 -0.049428158
0000c0 a5 be 2c be a3 cb 77 be 6f dc b4 be 13 77 83 be
       -0.168696 -0.24198775 -0.35324427 -0.25676784
0000d0 f4 be ad bd da 1d 21 bd 69 e5 a2 be 30 97 a1 3d
       -0.08483687 -0.03933511 -0.3181565 0.07890165
0000e0 16 39 da bd 2a 53 0d be 4a 6b 53 bc 3b b4 7f 3d
       -0.106554195 -0.13801256 -0.012903998 0.06242774
0000f0 2c 57 ed 3e b5 71 c1 3e 47 f3 c1 3e 69 2a 5c be
       0.4635557 0.37782064 0.37880918 -0.21500553
000100 21 1a 96 3e 54 bc d2 3c 3b dc 7f 3e cf 37 22 bd
       0.2931681 0.025724567 0.24986355 -0.039604004
000110 50 65 99 3e 60 89 59 bd f9 b4 0e be 59 30 11 3e
       0.29960108 -0.053109527 -0.13936223 0.141786
000120 81 d5 05 3e 2f 17 ae be 73 2e 3c bd 59 1e 1e 3e
       0.13069727 -0.34002063 -0.045942735 0.15441264
000130 20 e7 4e be c1 cf f8 bb 7e 14 84 be de 19 67 bd
       -0.20205355 -0.0075931256 -0.25796884 -0.056421153
000140 b0 50 00 3e 69 58 01 3e 66 ff bd bb 34 29 0f 3e
       0.1253078 0.12631382 -0.005798268 0.13980561
000150 63 25 7f be c6 89 b9 3e ee 06 9b bc 3a a5 c2 bd
       -0.24916606 0.36237925 -0.018924203 -0.09504171
000160 db db 3b be ee bc fb 3c 0f 5d 81 be f6 2d b4 bc
       -0.18345587 0.030729737 -0.2526631 -0.021994572
000170 40 87 d3 3d aa a5 c1 3c af 63 07 be c8 25 22 3d
       0.10328531 0.023638565 -0.1322162 0.039586812
000180 43 17 32 3e ff 43 52 bd 3e 68 02 be c8 59 97 3e
       0.17391686 -0.051334377 -0.12735078 0.29560685
000190 42 6f 37 3e cd 66 82 3b fa a5 8f be f6 69 00 3e
       0.17913535 0.00397954 -0.28056318 0.12540421
0001a0 13 59 06 3d ff a3 9d be 0d c6 89 be b8 a8 e0 3d
       0.03279979 -0.30789182 -0.26908913 0.109696805
0001b0 ff ee da be 9f 6d 72 be f1 48 95 3e 78 37 ce 3e
       -0.42760465 -0.2367463 0.29157212 0.40276694
0001c0 03 47 6e 3e 88 4b 32 3e 59 ab 48 3e e8 37 56 3e
       0.23269276 0.17411625 0.19596614 0.20919764
0001d0 b6 6d da 3d 61 9d 27 be 43 82 2c 3e a1 8b 92 be
       0.10665457 -0.16368629 0.16846566 -0.28622153
0001e0 95 ce a6 3e c3 60 01 be db ba 65 3e dd b9 a7 bd
       0.32579485 -0.12634568 0.22434561 -0.081897475
0001f0 8e 45 ca bc a9 08 f5 bc 78 bb 31 be 5f 5e 7d be
       -0.02469137 -0.029911356 -0.1735667 -0.24743031
000200 59 fd a5 bd b6 17 e9 3d ea 4c c5 be 56 c1 bf bd
       -0.08104963 0.113814756 -0.38535243 -0.09363048
000210 eb 20 3e be 82 29 7b be 72 ff 27 be 4d b9 06 3f
       -0.18567245 -0.24527553 -0.16406038 0.52626497
000220 ea f4 c6 3e 8a 1d 83 be 39 c7 40 3e 11 0f 9c 3e
       0.3885873 -0.25608474 0.18825997 0.30480245
000230 fd 1b b1 be cf d0 24 be d4 9a 9b 3e 06 db 00 3b
       -0.34591666 -0.16095279 0.30391562 0.0019661798
000240 30 a1 04 be 25 2e ae bd 9e 6f 87 3e b9 56 7f bb
       -0.12952113 -0.08504895 0.26452345 -0.0038961603
000250 89 f8 df 3d 6e f1 c2 bd a8 b1 9c be c6 78 1c be
       0.10936076 -0.09518705 -0.3060429 -0.15280446
000260 f2 4f 4f 3e a9 c5 fa bc 76 1b 43 be fc 37 03 be
       0.2024534 -0.03061183 -0.19053444 -0.12814325
000270 fe d8 b3 bc 0c 66 e7 3c 4d d4 97 bd ae e8 6b 3e
       -0.021954056 0.028246902 -0.0741354 0.23037979
000280 1b c2 91 be 5a d1 de be 29 a9 10 bd e9 c3 3b be
       -0.28468403 -0.43519098 -0.035317574 -0.18336453
000290 6d 7b 0d be 4b b9 92 3e ef 2f 89 3e a0 cf 1c 3e
       -0.13816614 0.28656992 0.26794383 0.15313578
0002a0 17 d8 65 3e d4 66 92 3e 88 3d c3 bd 6f 48 15 3e
       0.22445713 0.28594077 -0.095332205 0.14578412
0002b0 ee 0a 4b 3e 0b 5b 62 3e 2a 84 c6 bd d8 6b 19 bd
       0.19828388 0.22105043 -0.09693177 -0.037456363
0002c0 99 db 91 bd 5e ff 8a be 93 fa 8d be 36 1e 4f 3e
       -0.07121963 -0.27147955 -0.27730235 0.20226368
0002d0 99 f2 37 3e a6 56 39 bd df 70 03 be 02 a6 e8 3d
       0.17963637 -0.04524865 -0.12836026 0.113597885
0002e0 b4 bf d6 bd 5c aa 49 bd cb d3 d4 3d ff e4 4c bd
       -0.10485783 -0.049234733 0.10391959 -0.050023075
0002f0 56 b3 d5 3c 9c df fa be e1 96 5b 3e 1b 09 94 bd
       0.02608649 -0.48998725 0.21444274 -0.07228299
000300 16 e0 27 3e 8c b8 e3 3e cf 76 c4 3e ee 64 8e 3e
       0.16394076 0.44476736 0.38371894 0.27811378
000310 73 f2 a5 3e 65 86 1e 3d 13 ca 4f be ad 27 73 bd
       0.32411537 0.038702387 -0.20291929 -0.05936401
000320 9c f2 1c be 12 b9 fd bd 70 a8 fa 3d 3c da 29 be
       -0.15326923 -0.12388815 0.12239158 -0.16587156
000330 d9 92 19 3e ef 75 87 3e c6 8d 2b 3e f4 57 f7 bd
       0.14997424 0.26457164 0.16753301 -0.120773226
000340 cc ee e8 bd 3e 1e 4e 3e 93 a0 64 bd 0e d6 4f be
       -0.11373672 0.20128724 -0.055817198 -0.20296499
000350 01 56 5b be 13 61 ed be 98 71 61 be d2 04 4c 3e
       -0.21419527 -0.46363124 -0.22015989 0.19923714
000360 fc f6 78 3e 0b dc 9d 3e ac d1 9c 3d 95 45 58 be
       0.24312967 0.30831942 0.07657179 -0.21120293
000370 8f 6a 1b 3f 36 d0 ed 3e 96 77 c9 be 87 fe f8 38
       0.6070947 0.46447915 -0.3934905 0.00011872971
000380 2f 2f 71 be 0b 52 a9 bd 7b 50 ce 3d 34 25 40 3e
       -0.23553155 -0.082676016 0.10073944 0.18764192
000390 1a 97 06 be 2f d2 22 3e be 05 e5 3d 13 c8 6f 3e
       -0.13143578 0.15900491 0.11182736 0.23416166
0003a0 2a 6d 2b be f4 89 95 bd 27 80 87 be ce 4e a1 3d
       -0.16740862 -0.07301703 -0.2646496 0.07876359
0003b0 47 b9 c0 3b c0 40 1f 3d 6b b1 0a 3e d2 33 6c bd
       0.005881462 0.03888011 0.13544242 -0.057666607
0003c0 77 32 b4 bc fa 64 c8 3e c5 63 50 be 2d db 80 be
       -0.02199672 0.3913954 -0.20350559 -0.25167218
0003d0 aa ad 46 be f7 b3 5c 3e a2 c5 8d 3d e5 3b 46 3e
       -0.19402185 0.21553026 0.06922461 0.19358785
0003e0 34 e4 39 be 48 ad 4e bd 72 0d 89 3e 21 01 c3 3e
       -0.18153459 -0.050458223 0.2676807 0.380868
0003f0 1c 97 c9 3d 84 f7 ca 3e c0 c1 c2 3e 72 5d 1a 3e
       0.09843275 0.39641964 0.38038445 0.15074709

conv1.bias f4 [8]
000000 77 a8 c7 3e 91 5c 49 be c3 f2 d6 3d d4 69 2a be
       0.38995716 -0.19664218 0.10495522 -0.16641933
000010 d8 bc c6 be d9 9a 77 3d 11 7f e1 bd dc ba 7e be
       -0.3881595 0.06045041 -0.11010564 -0.24875969

bn1.weight f4 [8]
000000 24 3f 50 3f de d3 4b 3f 60 b8 81 3f 8f b2 82 3f
       0.81346345 0.7962016 1.0134392 1.0210742
000010 a5 44 6e 3f ad a5 8b 3f ce c1 8e 3f 5e d8 80 3f
       0.93073493 1.0909935 1.1152894 1.006603

bn1.bias f4 [8]
000000 ef ae 77 3d b4 15 14 be 08 f2 e8 3d ea c7 3a be
       0.060469564 -0.14461404 0.11374289 -0.18240324
000010 a9 58 a4 bd af 3d 17 be d9 b2 9d 3d 97 ce a4 bd
       -0.08024723 -0.14769624 0.07700128 -0.080472164

bn1.running_mean f4 [8]
000000 47 0b 29 3f 31 3a 75 3e d5 f8 dc 3e f8 c9 89 3e
       0.6603283 0.2394798 0.43158594 0.26911902
000010 72 e4 51 3e 43 8a e0 3e cd 61 94 3e b1 c0 80 3e
       0.20497301 0.43855485 0.28980866 0.25147012

bn1.running_var f4 [8]
000000 a9 d5 eb 3e fa 4f cf 3e b2 68 65 3f 04 4d 8a 3e
       0.46061447 0.40490705 0.8961288 0.27011883
000010 8a dd dd 3e a0 9c 3b 3f e6 a4 b4 3e 4e 05 8f 3e
       0.43333083 0.73285866 0.35282058 0.27933735

conv2.weight f4 [16, 8, 3, 3]
000000 7f ae 4a 3e 3c 82 1d bd 55 c5 95 3d 22 6c 63 3d
       0.19793127 -0.03845428 0.07313029 0.055523045
000010 66 76 6c be 5b 34 8e 3d b5 e1 8a 3d fd 2f c8 3b
       -0.2309204 0.0694358 0.067813314 0.0061092363
000020 a5 ed 90 3c dc fb a3 3d fc 69 79 bd a6 1f f1 3d
       0.017691443 0.08007023 -0.06089209 0.117736146
000030 99 44 76 bd 9d 21 2e bd ac a3 25 be b0 b5 4e 3e
       -0.060124014 -0.042512525 -0.16175717 0.20186496
000040 8e 4a 19 3e ba ea 36 3e 8a f7 57 bd bd 4d 04 3e
       0.14969847 0.17862979 -0.052726306 0.1292028
000050 3b 57 0f 3d 20 30 0e be 08 da c2 be 0e 5a 85 be
       0.0349953 -0.13885546 -0.3805697 -0.2604527
000060 03 04 95 3c d8 59 f4 bd 07 d7 fb bd de 15 14 be
       0.01819039 -0.11931199 -0.122968726 -0.14461467
000070 d9 70 5d bd be 31 6c 3d d6 9e 82 3d 56 7a 8d 3d
       -0.054062698 0.057664625 0.06377952 0.06908099
000080 b9 3b 85 3e 80 63 20 3e 29 05 26 3d 5e b4 df bd
       0.26022127 0.15662956 0.040532265 -0.10923074
000090 c0 24 38 3d 05 51 5c 3d 87 9c f1 bc 15 80 82 3e
       0.044956923 0.053788204 -0.029493583 0.25488344
0000a0 a8 b5 a6 3e 06 cb 15 3e 00 58 e1 bc 4e c7 15 bd
       0.32560468 0.14628229 -0.027507782 -0.036567025
0000b0 3f b1 ff 39 1b c3 bc bd d7 ef 85 bb cd fc 9a bd
       0.0004876945 -0.09216901 -0.004087429 -0.07567749
0000c0 9d ed a2 bd ab 0a e4 3d 15 be 58 3e bf 16 8d be
       -0.079554774 0.11134847 0.2116626 -0.27556416
0000d0 11 69 27 3d f0 a8 60 be cc 02 ce 3b 21 6e 0a 3d
       0.040871684 -0.21939445 0.0062869545 0.033796433
0000e0 cb 42 be bd 99 c9 9a 3e 52 e6 a8 3e dd 55 c8 3e
       -0.092900835 0.30231932 0.3298822 0.39128008
0000f0 be b5 e0 bd a8 aa 80 bc da 4e 05 be 17 2a 6b be
       -0.109721646 -0.015706375 -0.1301836 -0.22965275
000100 27 1f ba bc 67 06 90 be e3 eb fd ba e3 8a 5d 3e
       -0.022719933 -0.28129885 -0.0019372668 0.21635012
000110 c2 8a f7 3d 13 b1 a3 bc b1 f3 ff bd 8d 31 dc bd
       0.12087013 -0.019981897 -0.12497652 -0.107516386
000120 b7 60 7c bd 82 28 0b bb c4 e2 31 3e 85 15 09 bc
       -0.061615672 -0.0021233861 0.1737166 -0.008366947
000130 87 0e 93 3c de 25 5f 3e 3f e1 d9 3d 29 11 95 bd
       0.017951263 0.21791789 0.106386654 -0.07278664
000140 64 37 19 bd 05 aa 45 be be 0b 79 be 82 ad 9f 3d
       -0.03740634 -0.19303139 -0.24320886 0.07796766
000150 87 b7 15 3e b2 23 ab 3e 4e 2f 9b 3c 91 27 b2 bd
       0.14620791 0.3342567 0.018943455 -0.08698953
000160 d5 4f 0e 3e 02 9b 60 3c b3 f2 e0 bd ea 3a 98 be
       0.13897641 0.013708832 -0.10983791 -0.29732448
000170 c7 c6 28 be a9 a2 e8 bd 93 81 a6 bd b9 c9 7d be
       -0.16482078 -0.1135915 -0.08130183 -0.24783982
000180 fc ab f2 bd f6 a4 1e 3e a2 9d 8a be c0 47 78 3d
       -0.1184921 0.15492615 -0.2707339 0.0606153
000190 27 2f e8 3d 5a c1 26 3e 08 f8 ad 3e f6 13 ce 3e
       0.113371186 0.16284695 0.33978295 0.40249604
0001a0 6c 54 a7 3e 4d d3 44 bc 57 ba b9 bd 1f 81 03 be
       0.32681596 -0.012013269 -0.09068745 -0.12842225
0001b0 a4 be 8d 3e df d9 23 3e 12 4e 88 bc 55 d0 b6 3d
       0.2768451 0.1600108 -0.01663879 0.08926455
0001c0 ce e6 12 be 61 c5 a3 3b cd 35 9e bd 67 18 15 bd
       -0.14345858 0.0049978946 -0.077251054 -0.036400225
0001d0 eb 38 c3 3d 69 54 81 bd 53 fe 4e be 5a 77 13 3e
       0.095323406 -0.06314928 -0.20214204 0.14400998
0001e0 63 7e 52 be 2e 24 19 bd 67 f3 ca bd f4 cd 5c 3d
       -0.20556025 -0.03738802 -0.099097066 0.05390735
0001f0 3c c3 93 be 8b 4c 31 3e fb 99 56 be 2d ac 85 be
       -0.2885989 0.17314355 -0.20957176 -0.26107922
000200 a5 75 97 3d f3 60 52 bd d9 ce e5 bb d4 97 95 3d
       0.07395486 -0.05136199 -0.0070131836 0.073043495
000210 4a 41 8f 3d b7 cf 06 3e 6b ea f4 bc 7d 2c 05 be
       0.06994875 0.13165174 -0.029896935 -0.13005252
000220 58 51 45 bd 12 47 10 3e 74 e4 83 3d a6 97 e5 3d
       -0.04817328 0.14089611 0.06440058 0.11210565
000230 a3 1f b4 3e d9 db a8 bd d7 1b cd bc 6e 2d 5f bd
       0.35180387 -0.082450576 -0.02503769 -0.054486685
000240 2f a3 fc bd 0b 6f c7 bd d4 b5 f7 3c a8 10 b9 3d
       -0.12335812 -0.09737977 0.03023807 0.0903638
000250 d6 16 3c bd 78 f0 ec bc 40 b4 da 3d cb b2 5b 3d
       -0.045920216 -0.028923258 0.10678911 0.053637307
000260 8d 10 19 3e ed ba 8b 3e a3 4a 7c 3e ad 3d 5b 3e
       0.1494772 0.2729105 0.24637847 0.21410246
000270 16 13 0c be bb 14 0b bd 20 54 4d be 70 03 ca bd
       -0.13679156 -0.033955317 -0.20051622 -0.09863937
000280 8b c4 9a bd d9 51 80 3d 4a 9f 76 be fd 47 07 be
       -0.07557019 0.06265611 -0.24084201 -0.13211055
000290 5f b3 f4 bc 27 c8 bd bd cb 54 f9 bd 18 f6 53 3d
       -0.029870687 -0.09266692 -0.12174376 0.051748365
0002a0 0f cc 06 be d2 18 1b bd 03 aa 22 3e 93 9a 8a bd
       -0.1316378 -0.037865467 0.15885167 -0.06767764
0002b0 85 71 92 bc 9e 8a 42 3e fd 65 69 be 32 9b 9d be
       -0.017876396 0.18998191 -0.22792812 -0.30782467
0002c0 43 48 03 be 92 8f fb bd 71 c4 41 be c1 ae 78 bd
       -0.12820534 -0.12283243 -0.18922593 -0.060713533
0002d0 c0 4b 22 3e b4 83 08 3e ab f1 3c 3e 5c 47 af 3c
       0.15849209 0.13331491 0.18451564 0.021396331
0002e0 84 72 29 bd 19 09 a9 bc 2a fd b6 3d 87 2a 3d 3e
       -0.041368976 -0.02063422 0.08935006 0.18473254
0002f0 fa a2 81 bd 78 9b 75 be d6 e7 d7 bd 60 ac b9 bd
       -0.063299134 -0.23985088 -0.10542266 -0.09066081
000300 c2 a3 6b 3e b2 80 22 3e ed 52 32 be 8c 6b 69 bd
       0.23011687 0.15869406 -0.17414446 -0.05698733
000310 90 7f e0 3d 1f dc 99 bd 32 51 aa 3d 68 f9 ef 3d
       0.109618306 -0.07512688 0.08316268 0.11717492
000320 72 6a 95 be 32 88 2b 3c bb 16 f3 3c a2 ae 2f 3c
       -0.29182774 0.010469483 0.029673925 0.010722788
000330 06 ba 29 bd 92 00 dc 3d 97 a2 8e 3d 62 a5 2f 3d
       -0.04143717 0.10742296 0.06964605 0.04288233
000340 06 da 21 3d 28 a7 4c be 11 9e 89 be 2c 7f 1d be
       0.039514564 -0.1998564 -0.26878408 -0.15380543
000350 94 b7 8a be 81 08 88 bd ba 18 13 3e 96 48 92 3d
       -0.27093184 -0.06642247 0.14364901 0.07142751
000360 81 f0 73 3d ea fa a7 3d 2d 58 19 be 55 9d 4f be
       0.059555534 0.08202155 -0.14975043 -0.20274861
000370 a2 21 6d 3a 8e 64 3a 3e 2d a1 81 bd 24 d0 23 be
       0.0009045844 0.18202421 -0.0632957 -0.15997368
000380 25 6b a1 be 09 a0 5a 3e f0 16 30 3c 4e 2a 91 3e
       -0.31527057 0.21350111 0.010747656 0.28352588
000390 4f 23 bd 3d 25 b9 08 3d 15 2d 04 bd 9d 8a 83 bc
       0.0923525 0.033379693 -0.032269556 -0.016057307
0003a0 0d 76 70 bd 45 af 0f 3d 13 5f 5b 3c 59 3b 2a bd
       -0.058706332 0.03507926 0.013389367 -0.041560505
0003b0 ac d6 44 bd 6f 03 4b bd 87 9d 98 be b5 e7 ae 3d
       -0.04805629 -0.04956382 -0.29807684 0.08540288
0003c0 b0 a1 b2 bd 88 f2 a2 be 65 ac 97 bd 6a 19 11 3e
       -0.08722246 -0.31825662 -0.074059285 0.14169851
0003d0 ef e2 40 bd 61 16 f7 bb 84 2a 7f 3d 61 01 9b bd
       -0.04709142 -0.0075405096 0.062296405 -0.075686224
0003e0 49 5b 78 3d 15 e6 b2 3c 58 06 68 bd 59 0b db 3d
       0.06063393 0.021838227 -0.056646675 0.10695524
0003f0 bb d1 da bd f0 8a 9c 3e e7 ad ba 3d 46 c6 b4 3e
       -0.10684534 0.3057475 0.091152005 0.3530752

conv2.bias f4 [16]
000000 23 5b b5 bd 7d 9d 0f bd 61 05 53 3e fc 18 59 bd
       -0.088552736 -0.035062302 0.2060752 -0.053002343
000010 e5 f2 2e be b6 a9 88 bc d9 6f c5 3c fb f3 3b 3d
       -0.17084844 -0.016682487 0.024101185 0.045886975
000020 13 bc aa 3d ea ef 4b be d1 5e 17 3e 73 86 c5 3c
       0.083366536 -0.19915739 0.14782263 0.024111962
000030 d1 4e f8 bc c6 cd 4d be dc 72 34 be 82 b7 14 bd
       -0.03031102 -0.20098028 -0.1762194 -0.03630782

bn2.weight f4 [16]
000000 19 0d 80 3f cc 40 85 3f 53 1d 44 3f 2d c4 81 3f
       1.0003997 1.04104 0.76607245 1.0137993
000010 90 57 8c 3f a2 4e 64 3f a5 3a 79 3f 51 79 8b 3f
       1.0964222 0.89182484 0.9735511 1.0896398
000020 c6 23 77 3f 9e fa 7f 3f 52 2e 86 3f b4 c6 77 3f
       0.9653896 0.99991786 1.0482886 0.9678757
000030 63 5e 82 3f e4 84 72 3f 09 6c 8a 3f 45 35 76 3f
       1.0185055 0.94734025 1.081422 0.9617503

bn2.bias f4 [16]
000000 70 ed 6b be e6 97 42 be c5 55 9e bd 2c 2d d1 bc
       -0.23039794 -0.19003257 -0.07731203 -0.025534235
000010 61 d1 80 3c 93 ee f3 3d f1 3d 25 3e 88 d4 19 3e
       0.01572484 0.11910739 0.1613691 0.1502248
000020 d7 6f 02 be 02 7b ab bc 27 ad 2d 3c 7a 75 6e 3d
       -0.12737976 -0.020932678 0.010600365 0.058217503
000030 2b 62 ce bd ae 39 f2 bd 0e 68 88 be a5 18 32 bd
       -0.10077318 -0.11827408 -0.26641887 -0.043480534

bn2.running_mean f4 [16]
000000 da 48 95 3e 99 cf 1d 3f 14 b0 2b 3f d0 97 18 3f
       0.29157144 0.61644894 0.6706555 0.5960665
000010 ce 22 11 3f 4f 88 17 3f db 3a 43 3f 90 97 5a 3f
       0.5669373 0.59192365 0.7626168 0.85387516
000020 14 d8 44 3f 1b d5 8f 3e 74 5f 00 3f 94 6d 3d 3f
       0.7689221 0.28092274 0.5014565 0.7399533
000030 98 a4 de 3e 6d 0d 98 3e 58 56 ac 3e b7 f4 06 3f
       0.4348495 0.29697743 0.33659625 0.52717155

bn2.running_var f4 [16]
000000 a7 32 29 3f cd e8 0e 40 94 26 fb 3e b2 f2 cc 3f
       0.66092914 2.232959 0.4905287 1.6011565
000010 d7 4c 0a 40 e5 13 df 3f 40 12 0c 40 6e a5 70 40
       2.16094 1.7427946 2.188614 3.760097
000020 af 87 34 3f a1 ac 35 3f f1 32 87 3f 92 4c 02 40
       0.70519537 0.70966536 1.0562421 2.0359235
000030 0c c7 be 3f ae 2f 11 3f 9a e8 5c 3f 1e d7 b2 3f
       1.4904494 0.5671338 0.8629242 1.3971899

conv3.weight f4 [32, 16, 3, 3]
000000 54 9b 21 be e1 3f 39 be e6 e8 f8 bd c9 e2 08 3e
       -0.15781909 -0.18090774 -0.12153797 0.13367762
000010 95 df 8f 3e 45 b5 8c 3c 37 e7 ae bd 2c 07 e4 bd
       0.28100267 0.01717628 -0.085401945 -0.111341804
000020 eb e3 28 3e e6 eb 68 be e3 8b f2 bd ba 62 09 be
       0.16493194 -0.22746238 -0.118430875 -0.13416567
000030 1e 02 3d be e8 a2 3f be c0 2a b9 3c 6e db 40 3e
       -0.18457839 -0.18714488 0.022603393 0.18833706
000040 4f cf 03 be c7 a8 a3 bd 6f e6 2b 3d c3 19 84 3d
       -0.1287205 -0.07991176 0.041967805 0.06450226
000050 64 0f 95 bb 4d a1 2a bd fa 59 59 bd e3 0b 26 3d
       -0.004548954 -0.041657735 -0.053064324 0.04053868
000060 ed ae b4 bc 96 4f e7 3d 7d 5f ed 3c 0b 89 b4 3d
       -0.022056067 0.11294477 0.028976196 0.08815201
000070 23 e2 0a 3e ad cf 03 be 5a 4b 22 be 2c 6f b9 3d
       0.13562827 -0.12872191 -0.15849057 0.090544075
000080 5c 5b de 3c 83 cc 3d bd da 13 d1 3d 49 ea 4c bd
       0.027143173 -0.046337616 0.102088645 -0.05002812
000090 8c 42 3e 3e 37 7f a9 3d c0 0d 77 3e 1b f8 1a be
       0.18580073 0.082762174 0.24126339 -0.15133707
0000a0 33 c5 b1 be d1 e2 62 3b 2e 44 29 3d 73 fb a0 3d
       -0.34720764 0.0034620056 0.041324787 0.0786046
0000b0 a8 2f 34 3d 38 07 7f 3e 0f ff 08 be 85 d7 09 3e
       0.04399076 0.24905097 -0.13378547 0.1346112
0000c0 e2 a3 93 bd 90 70 1b 3e 02 a7 c7 3c 96 83 dd bd
       -0.072089925 0.15179658 0.024371628 -0.10816114
0000d0 29 21 d1 3d f1 af d4 bc 1c 14 16 3e 83 f9 ab 3d
       0.10211403 -0.025962802 0.14656109 0.083972
0000e0 5a 83 77 3d 27 db 8b 3d 2a fe c2 3d cd a3 24 3e
       0.060428 0.06828909 0.09521134 0.1607811
0000f0 cb be 1c be fb 0a bc 3d 5e ce 0b be 5f 78 65 3e
       -0.15307157 0.09181782 -0.13652942 0.22409199
000100 9a 1c 89 bd 3a 51 7a be 6d 7f 0e 3d d7 a3 1d bd
       -0.066949084 -0.24445048 0.03478949 -0.038486328
000110 6e a8 30 3c 01 13 54 3d 0d 85 39 3d 38 a9 8b be
       0.010782344 0.051775936 0.045292903 -0.2727754
000120 3d 4e 9c 3d 4e d0 f8 bc 98 52 99 bd 06 e1 fa bd
       0.0763211 -0.030372765 -0.07486457 -0.12249951
000130 6b 04 ca 3d 6a e1 71 3d bd 4b 03 3d 4d ca 95 bd
       0.09864124 0.059052862 0.03205465 -0.073139764
000140 4f 0b 41 3d b8 f6 0f 3e ca 0d 02 3d 7d 69 db be
       0.047129925 0.1405896 0.03175143 -0.4285392
000150 51 84 39 be 98 91 c7 3d 2a 7e ad 3d 50 65 4d bd
       -0.18116881 0.09744567 0.084713295 -0.050145447
000160 d4 1d f2 bd ab 32 0b 3e a9 f8 bb bd cb dd 0e be
       -0.118220955 0.13593547 -0.091782875 -0.13951795
000170 75 26 1f be 80 44 0a 3e 31 a6 94 3e 63 9e 0c 3e
       -0.15542014 0.13502693 0.29033044 0.13732295
000180 ee a1 f6 3b e2 fe 24 3e c5 06 b8 3b bb 43 37 be
       0.0075266277 0.16112855 0.0056160414 -0.17896931
000190 be f4 a7 bb 5b 3a 98 bd 25 c0 c1 bd 13 86 00 be
       -0.005125611 -0.074330054 -0.09460477 -0.12551145
0001a0 cd 3d 07 bd f5 a3 01 be 80 d8 c8 bd 94 ca 66 be
       -0.033017922 -0.12660201 -0.09806919 -0.22538215
0001b0 04 96 5c bd 0f 42 82 be 48 01 e3 bd c2 9f c8 bc
       -0.053854004 -0.25441024 -0.11084229 -0.024490241
0001c0 9e c0 48 bd 59 a6 3a be a9 27 d8 bd e3 6f a9 be
       -0.04901182 -0.18227519 -0.105544396 -0.33093175
0001d0 05 8f 25 be ad a7 7c 3e c4 8d c8 3e 18 be 73 3e
       -0.16167839 0.24673338 0.3917066 0.23802984
0001e0 d1 8c 0c be 0f 64 8c 3d ae d7 00 3e 7d 00 80 3d
       -0.13725592 0.06855022 0.12582275 0.06250093
0001f0 47 4a 27 3e bc bc bb 3d 62 f4 32 3c 95 b0 de 3d
       0.16336928 0.091668576 0.010922523 0.10873524
000200 d4 08 7f 3e 10 bd fb bd e4 2e 92 bd c6 81 56 bc
       0.24905711 -0.1229192 -0.0713785 -0.013092464
000210 36 08 16 3e ac a6 c7 3d 4b e0 6c 3e 8e a3 60 3e
       0.1465157 0.09748587 0.23132436 0.21937391
000220 d7 4e 5e 3e 12 8c 65 bd 54 59 90 bd 5a d0 ca 3c
       0.21709763 -0.056041785 -0.07048288 0.024757553
000230 0a 98 96 3d 11 6b f9 3d 1f 88 5a 3b 22 7e 4d 3c
       0.07353218 0.121786244 0.0033345295 0.012542279
000240 1e d7 a9 3d ae 25 86 3e 25 33 52 3d 3e 27 01 be
       0.082929835 0.26200622 0.051318306 -0.12612626
000250 63 55 ba bc e9 dc fd 3c 36 36 ef 3d 13 28 a5 3d
       -0.022745794 0.030989127 0.11680262 0.08064284
000260 b6 d8 f7 3d 14 ac 52 3c 64 7e 5f bd 10 2b 63 3e
       0.12101881 0.012858409 -0.054563895 0.22184396
000270 c8 5c 08 3d c5 b4 6e bd f0 c1 06 3e 97 77 4c be
       0.033291608 -0.058277864 0.13159919 -0.19967495
000280 64 00 f3 3c 65 dc 3d 3e 4b 0c 1e be f3 30 fa bd
       0.029663272 0.18541105 -0.15434377 -0.122163676
000290 1e a3 55 be ec b8 23 3e e7 55 84 3e 40 37 39 3e
       -0.20863006 0.15988511 0.25846788 0.18087482
0002a0 81 56 72 bd 77 3f 37 3d 30 af 88 3c e9 fd 8a 3c
       -0.059164528 0.04473826 0.016685098 0.016966777
0002b0 d8 ce d7 bb 71 19 3f bd 24 44 b8 bd 05 06 b6 3e
       -0.006585937 -0.046655122 -0.08997372 0.35551468
0002c0 89 eb 7c 3e 3f 01 36 bd ac 09 8c bd be ce 99 bd
       0.24699225 -0.044434782 -0.06837782 -0.07510136
0002d0 55 7e 04 3e bb fc 8b 3d 0c 95 0d 3e 11 7d 4b 3d
       0.12938817 0.06835314 0.13826388 0.04967982
0002e0 4e f1 0c be ae e4 76 3d 38 6b 38 be 48 40 8b 3b
       -0.13763925 0.06027668 -0.1800965 0.0042496063
0002f0 65 6f 4a 3d 0b 58 2b 3e 2f 92 80 bd da 01 fd 3d
       0.04942264 0.16732804 -0.06277882 0.12353869
000300 09 d2 75 be 6d 07 46 be 9a 75 11 be 2b 94 48 3c
       -0.24005903 -0.1933877 -0.14205018 0.012242357
000310 a4 98 a8 3d f8 a6 5e 3c af ec 01 3e 7f 8d 7f 3d
       0.08232239 0.013589613 0.12687944 0.0623908
000320 d7 14 d1 bd 1c b0 ff bc d3 ad 76 be e6 57 64 be
       -0.10209053 -0.031211905 -0.24089746 -0.22299156
000330 5e 70 c9 bd 59 84 20 bd de ce 31 bd a3 76 28 be
       -0.098358855 -0.039188717 -0.043410175 -0.16451506
000340 8e 62 b8 bd 90 bd 10 be ec 71 cc bd 49 73 81 be
       -0.09003173 -0.14134812 -0.099826664 -0.25283268
000350 39 1c 55 bd aa da 58 bc 1c 84 b2 3d e7 59 95 3d
       -0.05202887 -0.013235727 0.08716604 0.07292538
000360 29 4d 27 3d d0 f0 a0 bb ed 75 ef bd cf f7 b8 3c
       0.04084507 -0.0049115196 -0.116924144 0.022579102
000370 d4 cc d7 3d 94 2c 3b 3c f2 cc 66 be 39 1f 96 3c
       0.10537115 0.0114242025 -0.22539118 0.018325435
000380 ed d2 53 3d 80 cf f1 bd cd bf 3c be 44 41 5e 3e
       0.051714826 -0.118071556 -0.18432541 0.21704584
000390 cb e9 e3 bd 94 69 c7 bd 04 5a 11 3b ce a5 07 be
       -0.11128577 -0.09736934 0.0022178898 -0.13246843
0003a0 48 fd 41 3d 85 64 e0 3d 01 7d a4 bc b5 81 7d bd
       0.04736069 0.109566726 -0.020079138 -0.061891276
0003b0 16 61 30 be ee 68 19 3d a0 b6 e5 3c f9 40 03 be
       -0.17224535 0.037453584 0.028041184 -0.12817754
0003c0 14 db 7d 3d 58 58 7d 3d 27 66 e9 3d 68 2b 67 3c
       0.061976507 0.06185183 0.11396437 0.01410947
0003d0 b7 5f a8 3d 91 98 c0 3d 6e 83 e2 3d 83 20 cc bd
       0.08221381 0.094041 0.110602245 -0.099671386
0003e0 e6 3c 01 be 09 9d 6d 3d 29 f8 14 bd 9a 2a 76 3e
       -0.12620887 0.05801109 -0.036369476 0.24039689
0003f0 3a 38 35 be b5 be 13 3d f7 f8 59 3d f9 50 37 3e
       -0.1769723 0.036070544 0.053215947 0.17901982

conv3.bias f4 [32]
000000 a4 de 49 3d 45 13 f8 bd 1f d7 d1 bd e5 37 6d 3d
       0.049284592 -0.1211305 -0.10246109 0.057914633
000010 df 47 a1 bd 68 74 47 bd df 39 73 be e4 88 04 be
       -0.078750364 -0.048694998 -0.23752545 -0.12942845
000020 9b b3 0e be 51 a5 74 3c 09 eb 01 be 19 ce 20 be
       -0.13935702 0.014931993 -0.12687315 -0.1570362
000030 a2 76 2c be e3 3f 3a be db fb e0 bd ef d4 39 bd
       -0.1684213 -0.18188433 -0.109855376 -0.045369085
000040 65 c5 2c be d3 e9 ec bc a4 b8 42 bd 43 fa 7f be
       -0.16872175 -0.02892009 -0.04753937 -0.24997811
000050 51 44 52 3d dc 28 83 bd 26 76 9d 3e 66 63 1e be
       0.051334683 -0.06404278 0.30754203 -0.15467605
000060 09 cd b9 bd f2 f8 81 bd 8b f8 f0 bb 9f ba 18 3e
       -0.090723105 -0.06346311 -0.0073538474 0.1491494
000070 80 72 b1 bd 6f cd 98 bc 93 c4 ba bd 86 1b 91 bd
       -0.08664417 -0.018652646 -0.09119525 -0.07085328

bn3.weight f4 [32]
000000 ea 18 80 3f e3 27 81 3f d0 9e 6a 3f 2d 5b 81 3f
       1.0007603 1.0090297 0.9164858 1.010595
000010 e6 de 81 3f 4a a1 74 3f 06 a1 68 3f f6 a4 84 3f
       1.0146148 0.9555861 0.908707 1.0362842
000020 a5 a5 71 3f d1 61 81 3f 34 09 81 3f 1e 8f 71 3f
       0.9439338 1.0107976 1.0080934 0.94359004
000030 ab af 83 3f 0f d8 83 3f b9 6a 6e 3f 7f 9c 72 3f
       1.0287985 1.0300311 0.93131596 0.94770044
000040 32 df 86 3f 9e 9c 67 3f 6c 35 73 3f d1 81 73 3f
       1.0536864 0.90473354 0.9500339 0.9511996
000050 1a 40 83 3f 6c 5b 89 3f ce 22 68 3f 0e 6d 81 3f
       1.0253937 1.0731025 0.9067811 1.0111406
000060 57 c8 8f 3f 57 36 71 3f 10 bb 81 3f 1f 71 72 3f
       1.1233014 0.9422354 1.0135212 0.9470386
000070 93 b1 82 3f 16 64 71 3f 4b bd 77 3f 04 54 89 3f
       1.0210441 0.94293344 0.96773213 1.0728765

bn3.bias f4 [32]
000000 b4 cc 4b be b6 c1 11 bd 0f 37 10 3e 08 e5 22 3e
       -0.19902307 -0.035585128 0.14083503 0.15907681
000010 69 4a f1 bd 54 42 56 be 21 1d 02 3e 7f 3d 00 bd
       -0.11781771 -0.2092374 0.12706424 -0.031308647
000020 5c a7 46 bd 78 fa 87 be 89 05 0b 3e 2f c8 02 3e
       -0.04849945 -0.2655828 0.1357633 0.12771676
000030 61 84 86 3d a5 01 fd 3d bf 4e 27 3e 16 2c d0 3d
       0.06568218 0.12353829 0.16338633 0.10164659
000040 db a8 a9 be 39 ee cf 3d b5 71 9c bd 42 d7 83 3e
       -0.3313664 0.10152859 -0.076388754 0.25750166
000050 05 f8 03 3e b4 ea 20 3e 11 59 42 bd f8 20 f8 3d
       0.1288758 0.15714532 -0.04744822 0.12115663
000060 12 0d 14 3e 0c ff bd be 69 da 93 3d 1a 2d 9f 3d
       0.14458111 -0.37108648 0.07219393 0.07772274
000070 c5 fb c0 bd 5b 95 2c 3d cb 90 0a 3e 28 64 9f be
       -0.09423021 0.042134624 0.13531797 -0.311311

bn3.running_mean f4 [32]
000000 f7 08 9a 3e 5e 92 ba 3e c7 b3 23 3f e6 0d 81 3f
       0.30084965 0.36439794 0.63946193 1.0082366
000010 fd 17 a4 3e 8a 21 95 3e 9e 5e 2b 3e 72 f7 3d 3f
       0.32049552 0.2912715 0.16735312 0.74205697
000020 ef b5 7c 3e c0 fa fa 3e d2 b2 10 3e ff 85 7e 3e
       0.24678777 0.49019432 0.14130715 0.24855803
000030 39 19 67 3e 53 45 c0 3e 66 1b b6 3e e4 06 86 3e
       0.22568215 0.3755289 0.35567778 0.26177132
000040 88 c5 af 3e f9 d4 10 3f 18 8a c4 3e ca 5f fb 3d
       0.34330392 0.5657497 0.38386607 0.1227413
000050 f7 d3 c3 3e ce fd 9d 3e eb 2e b8 3f ef 1e a1 3e
       0.38247654 0.308577 1.4389318 0.31468913
000060 fd 28 14 3f 72 3a 85 3e 91 64 1b 3f 9e 15 8c 3f
       0.57875043 0.26021153 0.6070033 1.0944097
000070 09 1f 0e 3f 07 69 0f 3f bd 04 84 3e 08 3e 63 3f
       0.55516106 0.56019634 0.25784865 0.8876653

bn3.running_var f4 [32]
000000 dd 30 23 3f ce a1 9e 3f d9 fc 33 3f 69 de 37 3f
       0.63746434 1.2393129 0.7030769 0.71823746
000010 76 8b 7a 3f 53 49 25 3f bf ab e0 3e 9d 3b 99 3f
       0.9786905 0.6456501 0.43881032 1.1971318
000020 1a 2a f2 3e 63 fa 65 3f 8c 3a 9b 3e b0 a5 2c 3f
       0.47297746 0.89835185 0.30318105 0.6744032
000030 ff 01 c4 3e e5 9d 96 3f f8 d4 74 3f 87 a8 0f 3f
       0.38282773 1.1766936 0.95637465 0.5611653
000040 d3 c1 2a 3f ca e0 a9 3f c6 76 2b 3f 6f 30 86 3e
       0.66702 1.3271725 0.6697811 0.26208827
000050 3e 51 60 3f ac 64 48 3f 99 e2 92 3f d9 d6 4c 3f
       0.87623966 0.78278613 1.1475402 0.8001533
000060 d9 3e 7e 3f e4 b3 cb 3e 0e 93 85 3f 65 c7 70 3f
       0.9931465 0.39785683 1.0435503 0.9405425
000070 4c e9 a3 3f d6 da 1b 3f 6a ec 15 3f f9 7d d1 3f
       1.2805572 0.6088079 0.58563864 1.6366569

conv4.weight f4 [64, 32, 3, 3]
000000 bf 51 f4 3c c3 c2 85 3d 65 86 87 3d 7c 7a 61 3c
       0.029824136 0.065312885 0.066174306 0.013762113
000010 06 4b ef 3d 4e 2b 0a 3e 57 cf 73 be c7 01 27 be
       0.116842315 0.13493082 -0.23809563 -0.16309272
000020 c4 b8 63 3c a2 fd 55 bd 93 04 e4 bd cd cd f5 3c
       0.013899032 -0.052243836 -0.11133685 0.03000536
000030 33 37 b9 3c 34 4f 59 3d 2d f9 41 3e 8c b6 a6 3d
       0.022609329 0.05305405 0.1894271 0.08140287
000040 28 4e f5 3d 53 5c 0c 3e 62 96 93 3d 9b 57 62 bd
       0.11977798 0.13707094 0.072064176 -0.05525933
000050 de e5 e3 3d 83 3b a2 bd 40 16 c9 3d 05 29 b6 3d
       0.11127828 -0.07921507 0.09818697 0.088945426
000060 1f ca a1 bd 2b f9 d1 bd 3e d2 7c bd 90 99 e9 3d
       -0.0789988 -0.10252603 -0.06172394 0.11406243
000070 ee 15 1d be cc bb cd bd 47 09 14 be bc 50 42 bc
       -0.15340397 -0.10045585 -0.14456664 -0.011860069
000080 e4 e6 14 3d 90 ff 94 3c dd bf 95 3c a3 75 8b 3c
       0.036353007 0.018188268 0.018279964 0.017023867
000090 c1 17 1a bd 50 fe 12 bd 66 46 d3 bd 56 30 06 be
       -0.03762031 -0.035887063 -0.10316162 -0.13104376
0000a0 c3 6b 73 bc 3b 46 0f 3c 97 8f 32 be b8 bc 73 bd
       -0.014857235 0.008744772 -0.17437588 -0.059506148
0000b0 a6 d7 9b 3d 0f f7 cf bc a5 1c 6d bd a1 ed 09 3e
       0.07609491 -0.025386361 -0.057888646 0.13469554
0000c0 bc 53 51 3d 78 53 57 bc e9 52 5a 3d 69 6d da bc
       0.051105246 -0.013142459 0.053301726 -0.026663499
0000d0 07 25 11 3e 1a 30 66 3c 9f e1 fd bd c4 29 ba 3c
       0.14174281 0.014049554 -0.123965494 0.022724994
0000e0 4d a3 48 bd 7e 05 38 3c 4a 71 3b bd 24 1a 29 bd
       -0.04898386 0.011231778 -0.045762338 -0.041284695
0000f0 2c 56 11 3d d6 fb b2 bd 3c 72 7e 3d 50 ca 9e 3d
       0.03548257 -0.0873944 0.06212066 0.07753432
000100 4f d3 49 bd 0d 8b 18 bd 71 45 fd 3d 3e 52 93 3d
       -0.049273785 -0.037241984 0.123667605 0.07193421
000110 fc 0a e4 3c ca 7b be bd be ea 39 be df 6a 62 bd
       0.027837269 -0.09300955 -0.18155953 -0.0552777
000120 40 aa ab bb 34 f0 08 be 9e ab 55 bc c2 e1 f6 3d
       -0.0052388012 -0.1337288 -0.013041405 0.12054779
000130 a3 dd 14 3e d2 5a 3f 3d 9d 47 fb 39 04 fa a3 3b
       0.14537673 0.046717472 0.00047927807 0.0050041694
000140 68 4f 0f be b8 c5 78 3d b1 8a 5a 3c ea ae 32 be
       -0.13995135 0.060735434 0.013338731 -0.17449537
000150 f7 aa 56 3d c2 7e 04 3d 18 8b 2a bc 3c 8a 96 bb
       0.05240914 0.03234745 -0.010409139 -0.0045941155
000160 c6 e1 2c bd d5 a4 c7 bd 7b 55 78 3d be 85 ba 3d
       -0.0422075 -0.09748236 0.060628396 0.091075405
000170 0b ae 5f bc a4 8d 2f be c1 94 f2 bd fb 68 cb bd
       -0.013652335 -0.17143875 -0.11844779 -0.09932133
000180 73 18 a1 bd 69 6e 66 3d 0e f7 e8 3c 3b c8 25 bd
       -0.078659914 0.05625764 0.028438117 -0.040474158
000190 67 4a b6 3d af 86 5c 3d b8 36 63 bd c9 c9 51 be
       0.0890091 0.05383938 -0.055472106 -0.20487131
0001a0 c1 f5 34 be 80 7e cb 3c a8 c8 f6 3d a8 59 d8 3d
       -0.17671873 0.024840593 0.12049991 0.105639756
0001b0 c5 f0 94 bc cb 14 03 bb a7 d6 cd bd 98 7f b7 bc
       -0.018181214 -0.0020001407 -0.10050707 -0.022399709
0001c0 a7 e6 f9 bc 9d e2 ce 3b 6e e5 d0 bd fa 8b 6f 3c
       -0.030505491 0.0063136355 -0.1020001 0.014620775
0001d0 1f 15 c6 bc 19 5f 03 be 28 ae 78 be 40 c1 60 bd
       -0.024179993 -0.12829246 -0.24285185 -0.054871798
0001e0 a5 c2 60 3d 3c 52 51 bd 99 ed 46 3d 95 21 97 bd
       0.054873127 -0.051103815 0.048566435 -0.07379452
0001f0 56 54 7f bd d2 87 97 3d 96 09 f5 3c a2 24 b3 bd
       -0.06233629 0.073989525 0.029911797 -0.087472215
000200 9f e6 95 bc ac 6c be 3b 5d b1 f4 3c 0a 0b 1a 3e
       -0.018298445 0.0058112945 0.02986973 0.15043274
000210 55 0f 9e 3c 4a 31 d2 3d 8a 2a 23 be 74 60 96 bc
       0.01929442 0.102633074 -0.15934196 -0.01835654
000220 d0 c1 f4 bd 5d 14 89 3c dc 4a cb bd 31 ab eb bd
       -0.11951029 0.016733343 -0.09926388 -0.115072615
000230 2b dd df bd 96 49 95 3d 6e cd e7 3c 10 26 8e 3c
       -0.10930856 0.07289426 0.028296199 0.017352134
000240 1b bf 20 bd fb ea ab 3c c3 e2 7b bd 55 e7 33 bd
       -0.039244752 0.02098607 -0.061495554 -0.043921787
000250 d5 d2 50 3c c4 5c aa 3d 35 a5 1c 3e 11 48 01 3e
       0.012745579 0.08318475 0.15297396 0.12625147
000260 2b 12 43 3e 39 4e 1d bc 8c 2e 78 bd 21 67 d6 bd
       0.190499 -0.009601169 -0.060591266 -0.10468889
000270 f5 a4 98 3d 1f 58 0a 3c b7 52 54 3c 60 4b 1a 3d
       0.07453338 0.008443861 0.012959174 0.03766954
000280 b0 39 ff bd 86 90 ba bd 5a f5 99 bd 01 d5 55 bd
       -0.12462175 -0.09109597 -0.075175 -0.05220509
000290 d0 90 15 be 72 9f 9d bc 36 7c 9f bd d5 7c 10 be
       -0.14606023 -0.019241069 -0.07787363 -0.1411012
0002a0 17 fc be 3d bc e2 68 3d fc 79 70 3d 29 3f eb bd
       0.09325426 0.056856856 0.058710083 -0.11486656
0002b0 9a a6 e1 bc ba 7b 8e bd 53 28 82 bd 75 4e 29 bd
       -0.027545262 -0.06957193 -0.063553475 -0.041334588
0002c0 1e ec 15 bd 51 49 85 bd 53 2c 55 3c ab 28 92 3b
       -0.036602132 -0.065081246 0.013011056 0.0044604144
0002d0 0a aa 83 3d 4c 0b c1 3d 68 93 2e bd 48 56 38 be
       0.06428917 0.09425983 -0.042621046 -0.18001664
0002e0 a2 06 eb bd cf 95 b0 bd 4b 76 38 bd d2 53 d5 bd
       -0.114758745 -0.08622324 -0.045034688 -0.10416378
0002f0 9a 84 f1 3b 8a ee 52 bd ff 5c fe bc 8c e0 ad 3d
       0.0073705437 -0.05149702 -0.031050203 0.084900945
000300 8e f7 dc 3c 33 59 12 3e 26 4f 92 3d d7 6e cf bd
       0.026973512 0.1429184 0.071440026 -0.10128563
000310 3e 72 95 bc 26 38 2b be 08 c0 96 bd 13 fd ea bd
       -0.018242951 -0.16720638 -0.07360846 -0.11474051
000320 be a8 3b 3d a7 8b 8d 3d ee 94 df bc 29 4d ea bd
       0.045815222 0.06911402 -0.027292695 -0.114404984
000330 30 67 99 bc af 5a b7 bd 06 35 13 3d 07 42 b9 bd
       -0.018725961 -0.089528434 0.03593924 -0.09045797
000340 e5 b6 5f bd 48 df 7c be 25 5b 44 3d 25 7d c8 3d
       -0.05461778 -0.2469455 0.047938485 0.097894944
000350 62 1d 7b bd ae 3a 83 3d 2b 14 7a bd 6d c5 bb bc
       -0.06130732 0.06407677 -0.06105439 -0.022921288
000360 64 47 e3 bd 61 d7 cc bd 19 4c 06 be a6 29 07 bd
       -0.11097601 -0.10002018 -0.13114966 -0.032998703
000370 ac 09 4c 3d 0e a0 8a 3d b4 ba 51 3d 12 7a cd 3d
       0.04981391 0.06768809 0.051203445 0.10033049
000380 64 40 09 3e 72 2f 86 3d d7 60 87 3d 51 de 68 3c
       0.1340347 0.06552018 0.066102676 0.014213161
000390 34 ce 7e 3d 94 b3 10 bd 30 49 c8 bd 60 85 7a 3d
       0.06220837 -0.03532751 -0.097795844 0.061162353
0003a0 13 f8 60 3d e7 20 0e 3e 6e a9 ef bc 16 05 77 3d
       0.054924082 0.13879739 -0.029255595 0.060307585
0003b0 31 08 77 bd 4f 0b c6 3d 2f 39 5b 3d e2 90 9e 3d
       -0.060310546 0.09670126 0.05352133 0.07742478
0003c0 f0 f2 c9 bd fc b0 79 3d cf 44 89 bb fc 22 75 bc
       -0.0986079 0.0609598 -0.004189111 -0.014961954
0003d0 93 89 30 3d ec 8d 0a 3e f2 85 55 bd 91 85 70 3c
       0.04309995 0.13530701 -0.052129693 0.014680282
0003e0 55 4e c1 3c 11 1e 6f bc 20 7d de 3c 82 09 1f 3d
       0.023596922 -0.014594571 0.027159274 0.038827427
0003f0 d5 4b 04 3e 17 a2 8e 3e d7 f5 36 bd 45 4d cd 3d
       0.12919553 0.2785804 -0.044668045 0.100245036

conv4.bias f4 [64]
000000 ee d3 24 be 8b fa f0 bd 61 57 31 bc 13 c3 1b bd
       -0.1609647 -0.11766537 -0.010824055 -0.038027834
000010 66 cf 3f be 40 79 41 be 54 61 83 bd ca 5c be bd
       -0.1873146 -0.1889391 -0.06415048 -0.09295042
000020 b5 2a 6b be d5 05 b3 be b9 7e 75 bd 20 4e cb bd
       -0.2296551 -0.34965387 -0.059935305 -0.099270105
000030 81 a5 81 3d a1 78 34 be 0d ff 44 bd 70 61 8b bd
       0.063303955 -0.17624141 -0.048094798 -0.06805694
000040 fb 30 a5 bd 4f 3f 23 3d f4 8e a9 bd dc 8d dc bd
       -0.08065983 0.039855298 -0.08279219 -0.10769245
000050 c4 85 2a bd a0 b2 cf bd d6 65 9a bd 54 37 fb bc
       -0.041631475 -0.10141492 -0.07538955 -0.030666031
000060 f5 30 80 be a2 26 9e 3d 28 3a 2b be fe 8f 6c be
       -0.2503735 0.077222124 -0.16721404 -0.23101804
000070 e6 23 c3 bc f4 06 1d be f4 6d 1f be aa ae 45 be
       -0.023820829 -0.15334684 -0.15569288 -0.1930491
000080 3f a9 58 bd e4 53 b6 3d 36 bc 6e bd 5e e2 67 bd
       -0.05289578 0.089027196 -0.05828496 -0.056612365
000090 af 9a cb bd f8 f9 b3 bd 60 3a 99 be f0 76 0e be
       -0.09941613 -0.08787912 -0.2992735 -0.13912559
0000a0 ef 7e c8 bd 44 9b 20 be 29 26 41 be 71 30 5b be
       -0.09789836 -0.15684229 -0.18862213 -0.21405198
0000b0 40 fc de bd 8f 18 a2 bd 3a fb a4 bb 7d 76 2f be
       -0.108879566 -0.079148404 -0.0050348314 -0.17135043
0000c0 9b 63 e7 bd 01 1e 4c be 51 f5 2b be c6 6d 85 3c
       -0.11298295 -0.1993332 -0.167928 0.016287696
0000d0 a7 57 82 bd d1 17 3b bd 3b 1b 3b be 75 57 9d bd
       -0.063643746 -0.04567701 -0.18272106 -0.07682697
0000e0 9a 40 df b9 4c 3e 41 be 3c ee 57 be 78 6d de bd
       -0.00042582006 -0.1887142 -0.21086973 -0.10860723
0000f0 5b 8e c8 bd b4 bb fb 3d dc 1d 92 bc 6d cf 27 be
       -0.09792777 0.12291661 -0.017836504 -0.1638772

bn4.weight f4 [64]
000000 ed 49 0d 40 1f a6 10 40 b8 00 f1 3f 4f 74 07 40
       2.207637 2.2601392 1.8828344 2.116474
000010 81 76 fd 3f b5 1c 07 40 02 eb 06 40 3f d8 f3 3f
       1.980179 2.1111271 2.1080937 1.9050368
000020 d8 2c 25 40 e3 a8 34 40 09 69 1b 40 49 fc 0d 40
       2.580862 2.822808 2.4282858 2.2185233
000030 37 71 fe 3f 06 37 12 40 05 5a cb 3f 5d ac 07 40
       1.98783 2.2846084 1.5886847 2.1198952
000040 5b 99 19 40 0d 5f d5 3f a1 74 fc 3f 6a e8 12 40
       2.399985 1.6669632 1.9723092 2.2954354
000050 7b f5 f9 3f ac 11 0b 40 68 04 02 40 ce 9f 1c 40
       1.952804 2.1729536 2.031519 2.4472537
000060 8b f2 14 40 fa 87 e9 3f ea fe 01 40 06 b0 e4 3f
       2.3273036 1.8244622 2.0311837 1.7866218
000070 66 31 f4 3f d2 c7 00 40 9a ae f2 3f e3 6d 10 40
       1.9077575 2.012196 1.8959534 2.256707
000080 83 40 03 40 d7 91 de 3f 0f aa 00 40 2a 13 02 40
       2.0508125 1.7388257 2.0103796 2.0324197
000090 d4 91 08 40 97 cc d6 3f d3 ff f9 3f cb ae 00 40
       2.1339006 1.6781186 1.9531196 2.0106685
0000a0 33 63 08 40 39 4e 10 40 2c 45 fd 3f 81 40 1d 40
       2.1310546 2.2547743 1.9786735 2.457062
0000b0 ae 56 12 40 d0 3e 1c 40 f1 f2 e5 3f 86 b5 1c 40
       2.2865405 2.4413338 1.7964765 2.4485793
0000c0 f3 b0 17 40 b6 a0 12 40 ab 7d 15 40 4b 4b 01 40
       2.3701751 2.291059 2.3357952 2.0202205
0000d0 2f ae eb 3f ba 4f 05 40 47 bb 00 40 37 cf f7 3f
       1.8412532 2.0829911 2.0114305 1.9360112
0000e0 4f bc 04 40 7c 53 00 40 05 80 02 40 ed fa 09 40
       2.0739934 2.0050955 2.0390637 2.1559403
0000f0 aa e4 1e 40 db 7f db 3f 75 30 03 40 09 16 04 40
       2.4827065 1.7148393 2.0498326 2.063845

bn4.bias f4 [64]
000000 14 e9 a4 be 6e fb 7d 3e 46 9a 31 3e 81 c9 2d 3e
       -0.32209074 0.24802944 0.17344007 0.16971399
000010 ec 81 9c 3e 97 a1 8f be 1e f2 13 3e 05 ac 87 3d
       0.30567873 -0.2805297 0.14447829 0.06624607
000020 7b 3b 12 be 59 b1 63 be d2 63 cb bd 6f 58 81 be
       -0.14280502 -0.22235622 -0.099311486 -0.25262782
000030 b8 54 ee 3e 42 f3 38 3c 30 95 ef 3d 0f 01 df bd
       0.4654901 0.011288466 0.11698377 -0.10888874
000040 f4 f4 3d bd 29 2c 8d 3e 31 a2 45 3e d3 56 31 be
       -0.046376184 0.27572754 0.19300152 -0.17318277
000050 30 cf f1 3d db d1 df bd 94 a1 37 be 7b cb 51 3e
       0.11807096 -0.10928699 -0.17932731 0.20487778
000060 a9 f3 e2 bd 18 ae 95 3e 02 bd 0d be d8 3a 71 3e
       -0.11081631 0.29234385 -0.13841632 0.23557603
000070 9e bd 49 be aa 71 18 be 43 60 96 be 49 e9 17 be
       -0.1970124 -0.1488711 -0.29370317 -0.14835085
000080 97 d3 00 be ff b2 39 be 7f 9f de 3d cb a0 1c 3e
       -0.12580715 -0.18134688 0.10870265 0.15295713
000090 ea b0 06 3e c7 33 71 3e 9e dc 38 be 8e ff 72 be
       0.13153425 0.23554908 -0.18052909 -0.23730299
0000a0 bd c5 99 be a3 1a 68 3e 63 5e a0 be 1c ec cf 3e
       -0.30033675 0.22666411 -0.3132201 0.40609825
0000b0 e5 2f 74 3e 9a 74 51 3e 04 3c 43 3e ae 4c 79 3e
       0.23846395 0.20454636 0.19065863 0.24345657
0000c0 27 c9 56 3e 6b dc 3d be 34 aa 8b 3e ed 21 92 3e
       0.20975171 -0.18541114 0.27278292 0.28541508
0000d0 35 75 1a be 85 89 04 3e 08 22 78 be a3 5f 36 3e
       -0.15083773 0.12943085 -0.24231732 0.1780992
0000e0 44 19 8d 3e ce 15 10 3e 96 43 34 3d de bb 1a be
       0.2755834 0.14070818 0.044009767 -0.15110728
0000f0 c5 b6 19 be b2 3f 9a 3e 4c 83 a0 be 8a 2d dd 3d
       -0.15011127 0.3012672 -0.31350172 0.107997015

bn4.running_mean f4 [64]
000000 b8 a5 37 3d f1 04 66 3d 6e 50 92 3e 95 fd 1f 3e
       0.044835776 0.056157056 0.28576988 0.15624078
000010 95 ed 14 3e 06 23 5e 3d 7a c9 90 3d 6f ee eb 3d
       0.14543755 0.05423262 0.070696786 0.11520087
000020 8f 0e 13 3e b7 6f 2d 3d 49 d4 9e 3d 49 c9 32 3d
       0.14361022 0.042342868 0.07755334 0.04364899
000030 dd 3c 39 3e 87 61 ca 3d bf e9 bb 3e 15 6c 27 3e
       0.18089624 0.09881883 0.36701772 0.16349824
000040 7b d9 9b 3d c2 81 07 3f 19 f5 52 3e 8a f2 a4 3d
       0.076098405 0.5293237 0.2060131 0.08054073
000050 92 53 1d 3e d0 79 79 3d 4c e8 c7 3d b0 00 96 3d
       0.15363911 0.060907185 0.09761104 0.0732435
000060 07 dc e6 3d 77 ac c8 3e 2e f7 0e 3d 05 d0 91 3e
       0.11272436 0.3919408 0.034903698 0.2847902
000070 4a 39 65 3e 08 76 6e 3d 16 e2 1e 3e ea 3c 6a 3d
       0.22385135 0.058218032 0.15515932 0.057187
000080 fb ed 34 3d c3 d3 03 3f a7 5a 0f 3e 7e 5c 8d 3e
       0.04417227 0.51495 0.13999425 0.27609628
000090 ab 70 09 3e fa 62 3d 3e f1 e2 2c 3d ce 16 9f 3d
       0.13421886 0.18494788 0.042208616 0.077680215
0000a0 0f 08 9d 3d e8 9d ae 3d 06 18 81 3d 3c ab aa 3d
       0.07667553 0.08526212 0.0630341 0.083334416
0000b0 fe 23 19 3e 5a b9 be 3d 3b ed 69 3e ce f1 98 3d
       0.14955136 0.09312697 0.22844402 0.074679956
0000c0 3a 6f 1b 3d 47 03 a1 3d b5 44 4f 3d 5f dc 55 3e
       0.03794787 0.07861953 0.050602634 0.20884846
0000d0 29 fc 6a 3e 04 f6 e9 3d 9f a9 29 3d c5 6b f0 3d
       0.22947754 0.11423877 0.04142153 0.117393054
0000e0 ee 60 cb 3d d0 07 17 3e 98 fa 3d 3e 7a 3d fc 3d
       0.09930597 0.14749074 0.18552625 0.12316413
0000f0 f5 31 d5 3d ec d0 64 3f 96 f7 5f 3e 64 7e 09 3e
       0.10409919 0.8938129 0.2187179 0.1342712

bn4.running_var f4 [64]
000000 e0 cd 7b 3d bc fd cb 3d 9e 6a aa 3e 96 dc 69 3e
       0.061475635 0.09960505 0.33284467 0.22838053
000010 e5 22 2e 3e 29 86 87 3d 95 e8 ad 3d 30 90 46 3e
       0.17005499 0.06617386 0.08491627 0.1939094
000020 b5 89 57 3e 8a 31 7f 3d ec 5e b3 3d b8 dc 70 3d
       0.21048625 0.062303104 0.08758339 0.058804244
000030 4c c6 9e 3e 21 44 14 3e 18 46 a4 3e a8 1a 8a 3e
       0.31010664 0.14479114 0.32084727 0.26973462
000040 61 c2 cd 3d 6e 28 37 3f c1 2d c8 3e f4 f1 01 3e
       0.100468405 0.71546066 0.39097407 0.12689954
000050 8e 5e 41 3e 8e fc b0 3d 1a 70 11 3e 52 3f f3 3d
       0.18883726 0.08641921 0.1420292 0.11877312
000060 6f 9b 34 3e 9c 9d f1 3e 57 4a 48 3d 2a c9 e8 3e
       0.17637418 0.4719056 0.04889902 0.45465976
000070 ea b4 48 3e 07 cd 9d 3d 71 44 4d 3e 15 b4 a4 3d
       0.19600263 0.077051215 0.2004564 0.080421604
000080 67 2d 95 3d 19 a9 f8 3e ab d9 40 3e e3 17 da 3e
       0.072840504 0.4856651 0.18833034 0.4259635
000090 6c 4f a2 3e b4 28 48 3e f8 14 48 3d e7 17 ad 3d
       0.3170122 0.19546777 0.048848122 0.08451825
0000a0 ab 09 c2 3d 4f 09 e5 3d 3c 64 08 3e a0 c5 a8 3d
       0.094745 0.11183416 0.13319486 0.08240819
0000b0 ad 62 55 3e 6b d9 ff 3d c6 55 86 3e 26 ef eb 3d
       0.20838423 0.12492641 0.26237315 0.11520223
0000c0 92 6e 51 3d 08 60 09 3e 95 76 9a 3d ec 0f 85 3e
       0.05113084 0.1341554 0.07542149 0.2598871
0000d0 08 b5 8c 3e e4 9a 40 3e 7c d1 40 3d a2 f0 45 3e
       0.27481866 0.18809086 0.04707478 0.19330075
0000e0 5b 6f 1e 3e a7 24 8c 3e 0a d2 ac 3e 71 26 7d 3e
       0.15472166 0.27371714 0.33753997 0.24721695
0000f0 27 fd 39 3e ee ff 54 3f 09 48 34 3e 26 e3 5a 3e
       0.18162976 0.8320302 0.17605604 0.21375713
