NCC_Code/Models/2022-07-13_22-59-32_model.pt (torch, 115275 bytes, 50 tensors)

conv1.weight f4 [8, 2, 5, 5]
0	0xbd6395ad	-0.055562664
1	0x3d1abed2	0.037779637
2	0xbdddd577	-0.10831731
3	0xbe75c55a	-0.24001065
4	0xbe7241bd	-0.2365789
5	0x3d07075b	0.032966
6	0xbd1c8b72	-0.038218923
7	0xbe27be8e	-0.16381285
8	0xbe4c2573	-0.1993616
9	0xbe24d12e	-0.1609542
10	0x3d11c19a	0.035585023
11	0x3dbc520d	0.091953374
12	0x3d9e6a78	0.07735151
13	0xbea647b0	-0.32476568
14	0xbd9290cf	-0.07156526
15	0x3e69459d	0.22780462
16	0x3ee71460	0.45132732
17	0x3ea37046	0.31921595
18	0x3ed1e729	0.40996674
19	0x3ef05034	0.4693619
20	0xbe3b4163	-0.18286662
21	0x3d87abaf	0.06624543
22	0x3e78fc60	0.24315023
23	0x3dc763af	0.0973581
24	0x3e6b9f50	0.23009992
25	0x3d8b325f	0.06796717
26	0xbdb0c624	-0.08631542
27	0xbe717f16	-0.23583636
28	0xbc1beba3	-0.009516629
29	0x3d5f5547	0.054524686
30	0xbd3b9df4	-0.045804933
31	0xbe1246e7	-0.1428486
32	0x3e680b17	0.2266048
33	0x3e17c520	0.14821291
34	0xbd8c63eb	-0.06854995
35	0xbe33ab0b	-0.17545716
36	0xbeb68e5d	-0.3565549
37	0xbefd0110	-0.49414873
38	0xbe946106	-0.28980273
39	0xbe1eaea8	-0.15496314
40	0x3d421375	0.047381837
41	0xbd98a730	-0.074537635
42	0x3ef765ce	0.48319858
43	0x3f030fe9	0.5119615
44	0x3ec0b470	0.37637663
45	0x3ddf3545	0.10898832
46	0x3dbc32fa	0.091894105
47	0x3d249bcd	0.040187646
48	0x3e13e41a	0.14442483
49	0xbe76c1b4	-0.2409733
50	0x3e515952	0.20444229
51	0x3e396b21	0.18107273
52	0xbe159c50	-0.1461041
53	0xbe7af473	-0.24507312
54	0xbdb22c9c	-0.08699915
55	0x3dc5562e	0.09635578
56	0x3e6dc000	0.23217773
57	0x3e0867a8	0.13320792
58	0x3e353b7c	0.17698473
59	0xbeb94132	-0.36182553
60	0x3ec262a4	0.37965882
61	0x3d4b46e3	0.04962815
62	0xbd28beda	-0.041197635
63	0xbe78579e	-0.24252173
64	0xbd8450a9	-0.06460697
65	0xbd573f9d	-0.0525509
66	0x3ecb9886	0.39764804
67	0x3c906a16	0.01762871
68	0xbd1610a7	-0.036636975
69	0xbedf3675	-0.43596235
70	0x3e3da76b	0.18520896
71	0x3ed71a8f	0.4201245
72	0x3e913ba9	0.2836583
73	0xbe8e9bcb	-0.27853236
74	0xbed8cb62	-0.4234267
75	0xbe10129b	-0.14069597
76	0x3e647fcd	0.22314377
77	0x3e17c5c4	0.14821535
78	0x3d2e96b3	0.042624187
79	0xbe83ddd0	-0.25755167
80	0x3e356edc	0.17718071
81	0x3e15b0e7	0.14618264
82	0x3bf2a728	0.0074051805
83	0x3cd0c8dc	0.025486402
84	0xbe233729	-0.1593901
85	0x3e099bd9	0.13438357
86	0x3de681e2	0.11255242
87	0x3da424d6	0.080148384
88	0xbe82252f	-0.25418994
89	0xbe66e8c7	-0.22549735
90	0x3ee9fbc0	0.45699883
91	0x3b8ce51e	0.004299774
92	0x3dd6eebe	0.10494755
93	0xbe2e26ff	-0.17007063
94	0xbe8fd69c	-0.2809342
95	0x3e268ed6	0.16265425
96	0xbd34f1a0	-0.044175744
97	0x3e3932bc	0.1808576
98	0xbe1aced7	-0.15117966
99	0xbe44823c	-0.19190305
100	0x3e139153	0.14410906
101	0xbd9c368e	-0.07627593
102	0xbe3e7708	-0.18600094
103	0xbe0107a7	-0.12600575
104	0xbc8f0ecb	-0.017463109
105	0xbea048de	-0.31305593
106	0x3e225cc8	0.15855706
107	0xbd8708a1	-0.06593443
108	0xbe551539	-0.20808877
109	0xbcda5f63	-0.026656812
110	0x3e3a5256	0.18195471
111	0x3e83b39c	0.2572297
112	0xbd61f2fe	-0.055163376
113	0xbebc8d4f	-0.3682656
114	0xbe6dec9d	-0.23234792
115	0xbb47570b	-0.0030416872
116	0x3e92fc5c	0.2870816
117	0x3efb2c0d	0.49057046
118	0x3e919b5b	0.2843884
119	0xbe42154f	-0.18953441
120	0x3e9384e8	0.28812337
121	0x3d0847b3	0.033271503
122	0xbe7ab8cd	-0.24484558
123	0xbe270b45	-0.16312893
124	0xbe82e35d	-0.2556409
125	0x3cba91cf	0.022774605
126	0xbe0ae947	-0.1356555
127	0x3db4046b	0.08789905
128	0x3e1f368d	0.15548153
129	0xbe9c1cf2	-0.30490834
130	0xbdf35939	-0.11882252
131	0xbefc1d08	-0.492409
132	0xbe049232	-0.12946394
133	0x3d820ccb	0.06350096
134	0x3d40ab3b	0.047038298
135	0x3db5b93b	0.088732205
136	0x3d5038fb	0.05083559
137	0x3cfb88a7	0.03070481
138	0xbe02c555	-0.12770589
139	0xbe165eaa	-0.14684549
140	0x3eee24cd	0.46512452
141	0x3efab3d2	0.48965317
142	0x3eaf286a	0.3421052
143	0x3dd627b2	0.1045679
144	0xbe8b2a4c	-0.27180707
145	0x3d6d88e6	0.057991885
146	0x3e02423a	0.12720576
147	0x3dd5dccb	0.104425035
148	0xbbedd21c	-0.007257713
149	0xbc932a58	-0.017964527
150	0xbe052763	-0.13003306
151	0x3dfdc174	0.12390414
152	0xbd9b8609	-0.075939246
153	0x3d1edbe1	0.03878391
154	0x3e0ca782	0.13735774
155	0x3e77a36c	0.24183434
156	0xbd76394e	-0.060113244
157	0xbe67f0e3	-0.22650485
158	0xbe66103e	-0.22467133
159	0xbe070fc9	-0.13189615
160	0xbe353ef1	-0.17699791
161	0x3ddcdb9d	0.107840754
162	0x3e467b1e	0.19382903
163	0x3def29bd	0.11677883
164	0x3ddfeca2	0.10933806
165	0xbe6a9552	-0.22908524
166	0xbe3827b9	-0.17983903
167	0xbe161c62	-0.14659265
168	0xbeaf9779	-0.34295252
169	0xbe98fea6	-0.2988178
170	0x3ec8b037	0.3919694
171	0x3f0fbcb2	0.561473
172	0x3ed54ccf	0.41660163
173	0xbdab5a27	-0.083668046
174	0xbd43b4b9	-0.047779772
175	0xbcb19803	-0.02167893
176	0xbd2b63ef	-0.04184335
177	0x3deb1ba6	0.11479883
178	0xbe874b90	-0.26424837
179	0xbdc99a33	-0.09843864
180	0xbd52f06e	-0.051498823
181	0xbe6d6aee	-0.23185322
182	0xbe17cac6	-0.14823446
183	0x3c425b37	0.011862568
184	0xbe39f279	-0.18158902
185	0x3e8c2bd5	0.2737719
186	0x3e9337d4	0.2875353
187	0x3dd5bbee	0.10436235
188	0x3e425cf5	0.18980773
189	0x3e38cd5b	0.18047087
190	0xbe847fdf	-0.25878808
191	0xbe2b3997	-0.16721188
192	0xbe194f60	-0.14971685
193	0xbe0e631e	-0.13904998
194	0xbde61c01	-0.1123581
195	0x3ed2422e	0.41066116
196	0x3e2e2ef1	0.17010094
197	0x3c7ad4de	0.015309541
198	0xbb8cfcbd	-0.0043025897
199	0xbe3da4cc	-0.18519896
200	0x3dd683fb	0.10474392
201	0x3e1d274b	0.1534702
202	0x3d9050c5	0.070466556
203	0xbd4a6b9b	-0.049419027
204	0xbd273698	-0.04082355
205	0x3d743978	0.05962512
206	0x3e959598	0.29215693
207	0x3e96aec8	0.29430223
208	0xbde8602a	-0.11346467
209	0x3bd6a5b9	0.0065505174
210	0xbcd6828a	-0.026185293
211	0xbe1ced02	-0.15324786
212	0x3cc76fbe	0.024345275
213	0xbe56bf95	-0.2097152
214	0xbd755d13	-0.059903216
215	0xbd195f6b	-0.037444513
216	0xbe38acf0	-0.1803472
217	0xbea92ec6	-0.33043498
218	0xbe7fa44b	-0.24965017
219	0xbebbb969	-0.36664894
220	0xbd23b791	-0.039969984
221	0x3ea1f4fa	0.31632215
222	0x3effdc89	0.49972942
223	0x3ec65c99	0.3874252
224	0x3e8a2150	0.2697854
225	0x3e85dca3	0.26144895
226	0x3e08709d	0.13324209
227	0x3df2c70e	0.11854373
228	0x3d083558	0.033253998
229	0xbec5f341	-0.3866215
230	0x3c87550a	0.016520042
231	0xbc06b586	-0.0082219895
232	0xbdf6b043	-0.12045338
233	0x3e1acdff	0.15117644
234	0x3d502d48	0.050824434
235	0xbdbbff0a	-0.09179504
236	0xbd47f211	-0.048814837
237	0xbeb5ccc7	-0.35507795
238	0xbe2633e9	-0.1623074
239	0x3d021461	0.031757716
240	0xbed8456d	-0.42240468
241	0xbe98de43	-0.29857072
242	0x3d5175e7	0.05113783
243	0xbe94f21f	-0.29090974
244	0xbecff468	-0.40616155
245	0x3eac63f6	0.33670014
246	0x3e1a29dd	0.15055032
247	0x3e610360	0.21973944
248	0x3f106994	0.564111
249	0x3ee8ff75	0.45507398
250	0xbe81d15c	-0.2535504
251	0x3dca06ec	0.098646015
252	0xba9b3bbf	-0.0011843367
253	0xbe123e5f	-0.14281605
254	0x3e2f2afb	0.1710624
255	0xbeb2f5e9	-0.3495324

conv1.bias f4 [8]
0	0xbe3a9e8c	-0.18224543
1	0xbe0b008d	-0.13574429
2	0xbe657b00	-0.22410202
3	0xbe015210	-0.1262896
4	0x3da18de5	0.07888392
5	0x3e708203	0.23487096
6	0x3ebaf15a	0.36512262
7	0x3e5e6173	0.21716861

bn1.weight f4 [8]
0	0x3f7adae7	0.9799027
1	0x3f8da388	1.1065531
2	0x3f56cd96	0.8390745
3	0x3f7f9cda	0.9984871
4	0x3f7d382a	0.98913825
5	0x3f4d55a9	0.8020883
6	0x3f3c9165	0.73659354
7	0x3f987197	1.1909665

bn1.bias f4 [8]
0	0xbd6f176d	-0.05837195
1	0xbea8798e	-0.3290524
2	0xbe818d4d	-0.25303116
3	0x3e62bb0a	0.22141662
4	0x3d69a40b	0.05704121
5	0xbe05ed8a	-0.13078895
6	0x3d7d170c	0.061789557
7	0x3ca8ba0a	0.020596523

bn1.running_mean f4 [8]
0	0x3ec1a020	0.37817478
1	0x3ee41e6c	0.4455446
2	0x3e9b111e	0.30286497
3	0x3e7c9732	0.24667051
4	0x3ec367f8	0.3816526
5	0x3f200f93	0.62523764
6	0x3fdbceca	1.7172482
7	0x3f0f3278	0.55936384

bn1.running_var f4 [8]
0	0x3f2a707e	0.665779
1	0x3fa5c4de	1.2950704
2	0x3f203e01	0.6259461
3	0x3e7b979e	0.24569556
4	0x3ee354e9	0.4440072
5	0x3f1378f6	0.57606447
6	0x4092bfe7	4.5859256
7	0x3f4b6523	0.794512

conv2.weight f4 [16, 8, 3, 3]
0	0xbdc3dbd4	-0.09563413
1	0x3db88b3f	0.09010934
2	0x3ebfb840	0.3744526
3	0x3e321e75	0.17394431
4	0x3deb00b1	0.11474741
5	0x3ea5babd	0.32369033
6	0x3cbe6f99	0.023246573
7	0x3cee02dc	0.029054098
8	0x3e293b01	0.16526414
9	0x3ddb8f1e	0.10720657
10	0x3e19698a	0.14981666
11	0xbd62f9ec	-0.055414125
12	0xbe35e024	-0.17761284
13	0xba0ad91e	-0.0005296635
14	0x3e6c9527	0.23103772
15	0x3dca73cf	0.0988537
16	0x3eb8e6e9	0.3611367
17	0x3ea68838	0.32525802
18	0x3ca06cdd	0.01958316
19	0xbdf52916	-0.11970727
20	0xbe91c9c5	-0.2847425
21	0x3ef1546b	0.47134718
22	0x3e646ba3	0.22306685
23	0x3e8bb4c4	0.2728635
24	0x3db48f60	0.08816409
25	0x3c69bd91	0.014266388
26	0x3d54ef5f	0.051986095
27	0xbc8c7b41	-0.017148616
28	0x3e02711c	0.1273846
29	0x3b892c5a	0.0041861953
30	0xbd98990d	-0.07451067
31	0xbe2b63d9	-0.16737308
32	0xbe342426	-0.17591915
33	0x3dc6c31c	0.09705183
34	0x3d8bc8d9	0.06825418
35	0xbd9cf674	-0.07664195
36	0x3e2bca94	0.16776496
37	0x3e2bf65b	0.16793196
38	0x3ec0297a	0.37531644
39	0xbeaa001e	-0.33203214
40	0xbed59687	-0.41716406
41	0xbe9afedb	-0.30272564
42	0xbe26b88c	-0.16281337
43	0xbda9c823	-0.08290126
44	0xbe237962	-0.15964273
45	0x3d8f6175	0.0700101
46	0x3e8d9f58	0.27660632
47	0x3df8403b	0.12121626
48	0x3d417fd0	0.047241032
49	0xbd72591a	-0.059167005
50	0xbe825fa8	-0.25463605
51	0xbe14b950	-0.14523816
52	0x3e1a321e	0.1505818
53	0x3c7c27bf	0.015390336
54	0xbc9a18c6	-0.018810641
55	0xbdcf4fe5	-0.101226605
56	0xbe99363f	-0.299242
57	0xbe0602ee	-0.13087055
58	0x3dfad98a	0.122485235
59	0xbd62c6b9	-0.055365298
60	0x3c9903a2	0.01867849
61	0x3e788a2a	0.24271455
62	0xbea7e697	-0.32793114
63	0x3c593801	0.013257981
64	0xbd3cbce4	-0.046078578
65	0xbd2c1ebf	-0.04202151
66	0xbe336e06	-0.1752244
67	0xbebc6776	-0.36797684
68	0xbe6b667a	-0.2298831
69	0xbe4ef5e6	-0.2021099
70	0xbdef65ca	-0.116893366
71	0x3dcda4a3	0.100411676
72	0x3d369716	0.04457768
73	0xbdc5aa4b	-0.096516214
74	0x3d31d967	0.04342022
75	0x3e42bbf9	0.19017018
76	0x3cc4fb88	0.02404572
77	0x3dd03f6d	0.101683475
78	0xbe19d699	-0.15023269
79	0xbd183bc1	-0.03716636
80	0xbf2ea645	-0.6822246
81	0x3d6393d4	0.0555609
82	0x3e9ef6dc	0.31047714
83	0x3e3a2291	0.18177249
84	0x3e494787	0.19656192
85	0x3db6c3db	0.08924075
86	0x3e94f3e1	0.29092315
87	0x3e59d683	0.21273236
88	0x3ebf07b3	0.37310562
89	0xbc9d59d4	-0.019207872
90	0x3ca78b87	0.020452274
91	0x3e8849a5	0.26618686
92	0xbc77838e	-0.015107049
93	0xbcb41c25	-0.021986077
94	0x3d835a31	0.06413687
95	0xbdeb26f7	-0.11482041
96	0x3cadfbfd	0.021238321
97	0xbe504a92	-0.20340946
98	0xbdea04c6	-0.11426692
99	0xbdbc1726	-0.09184103
100	0xbea8018d	-0.32813683
101	0xbd7d3de7	-0.061826613
102	0x3be1d26b	0.006891539
103	0xbe0ea3ae	-0.13929626
104	0x3b62e982	0.0034624045
105	0xbb90d511	-0.0044199307
106	0x3be1dd3d	0.0068928287
107	0xbe185248	-0.14875138
108	0xbcd0f8ec	-0.02550932
109	0xbe47b123	-0.19501166
110	0xbed935e5	-0.4242393
111	0xbd97724e	-0.07394849
112	0x3e790c2d	0.24321051
113	0x3eb36fc9	0.35046223
114	0xbd33bea3	-0.043882977
115	0xbe2bf969	-0.16794361
116	0x3e80285d	0.25030795
117	0x3e8b44d2	0.27200943
118	0xbd778341	-0.060427908
119	0x3d9a155d	0.07523606
120	0xbe1dbc24	-0.15403801
121	0xbe987803	-0.29779062
122	0xbeb95f7a	-0.36205655
123	0x3e2f9810	0.17147851
124	0xbdb3ea16	-0.08784883
125	0xbe8471fa	-0.25868207
126	0x3d25b86e	0.04045909
127	0xbd8e0dae	-0.06936203
128	0x3eb3672e	0.35039657
129	0xbe55435d	-0.20826478
130	0x3d88960d	0.06669245
131	0xbe89237e	-0.2678489
132	0x3cffad31	0.031210514
133	0xbd2a56d5	-0.041586716
134	0xbbf4c640	-0.0074699223
135	0x3e875c03	0.26437387
136	0x3e420c83	0.18950085
137	0x3e8a117b	0.26966462
138	0xbccf18d8	-0.025280401
139	0xbe836ccd	-0.25668946
140	0x3decd34c	0.11563739
141	0x3d8318d3	0.06401219
142	0x3e9d0252	0.30665833
143	0x3ea968f4	0.33087885
144	0x3e0f85d4	0.14015895
145	0x3dad259c	0.08454439
146	0x3c88bbe5	0.016691158
147	0x3d2ccfcf	0.04219037
148	0xbe31a01c	-0.17346233
149	0xbe3bd526	-0.18343028
150	0xbe32c329	-0.1745726
151	0xbe617557	-0.22017418
152	0xbea1ac99	-0.31576994
153	0xbe9eb3fc	-0.30996692
154	0x3e2e0cb2	0.1699703
155	0x3dd379f2	0.103259936
156	0x3e9ca61e	0.30595487
157	0x3d93edc0	0.072230816
158	0x3cf1c596	0.029513162
159	0xbdd25c91	-0.10271562
160	0xbd5996c1	-0.053122286
161	0x3d785e83	0.06063701
162	0x3de90e7a	0.11379714
163	0x3e826753	0.25469455
164	0x3f338c14	0.7013562
165	0x3d70281b	0.058631998
166	0xbf08c41c	-0.5342424
167	0xbe802ee6	-0.2503578
168	0xbc3a1242	-0.011356892
169	0x3a8ce1a0	0.0010748394
170	0xbed28d63	-0.41123495
171	0x3df7ff4c	0.12109241
172	0x3b7d698a	0.0038667643
173	0xbda3f839	-0.08006329
174	0x3ea5cad3	0.32381305
175	0x3e82c520	0.2554102
176	0xbd68af98	-0.056808084
177	0x3dff5042	0.1246648
178	0xbd873a82	-0.06602956
179	0x3db6d096	0.08926503
180	0x3e780755	0.24221547
181	0xbe7280ac	-0.23681897
182	0xbdc6fe9b	-0.09716531
183	0xbdedcc59	-0.11611242
184	0x3de7e13e	0.113222584
185	0xbe01c091	-0.12671115
186	0x3dbd3cf2	0.0924014
187	0xbc923cdd	-0.017851287
188	0x3e36ebf1	0.17863442
189	0xbbe8f4f0	-0.007109277
190	0xbe9e3067	-0.30896303
191	0xbe3ea2c4	-0.18616778
192	0x3e5fa8d2	0.21841744
193	0xbd7e3859	-0.062065456
194	0xbeca6fd0	-0.3953843
195	0xbe19bf55	-0.15014394
196	0xbe6cb122	-0.23114446
197	0xbecc1c2a	-0.39865237
198	0xbdf64a9a	-0.12025948
199	0x3c39838a	0.011322865
200	0x3e141755	0.14462025
201	0xbe896201	-0.26832584
202	0x3c92a0bc	0.01789891
203	0x3e78c410	0.24293542
204	0xbe22426d	-0.15845652
205	0xbd230dda	-0.03980813
206	0x3e6f2802	0.23355106
207	0xbeb43946	-0.35199946
208	0xbeb086a8	-0.34477735
209	0xbe8342a3	-0.25636777
210	0x3dc65cfa	0.096857026
211	0x3dd83443	0.10556843
212	0x3e753797	0.23946987
213	0x3d0785e7	0.033086684
214	0x3e71146e	0.2354295
215	0x3e80cda4	0.2515689
216	0xbe0a7b1e	-0.13523528
217	0xbd98cb22	-0.074606195
218	0xbdf7a6ac	-0.12092337
219	0x3e218dea	0.15776792
220	0x3db8ab4c	0.09017047
221	0xbde4ad22	-0.11165835
222	0xbdb1f4cf	-0.08689272
223	0xbe72d72e	-0.23714897
224	0xbe4c0e2f	-0.19927286
225	0xbb7102fe	-0.0036775465
226	0x3dcde80b	0.10054024
227	0xbc2f7b73	-0.010710585
228	0xbc80f3a1	-0.015741171
229	0xbbcf269b	-0.006321741
230	0x3de02532	0.109445944
231	0x3e98cd49	0.2984412
232	0x3eac88c6	0.336981
233	0x3ec603ee	0.38674873
234	0x3d5eaf35	0.05436631
235	0xbd37b107	-0.04484656
236	0xbe6a49a4	-0.22879654
237	0x3de641ad	0.112429954
238	0x3db9fa2e	0.09080921
239	0x3e014552	0.126241
240	0xbe5a4613	-0.21315794
241	0xbe51dfd1	-0.20495535
242	0xbc89f36e	-0.01683971
243	0xbdbe8880	-0.09303379
244	0xbdd712a7	-0.105016045
245	0xbde00f96	-0.10940473
246	0xbe5dd078	-0.21661556
247	0xbe726db3	-0.2367466
248	0xbe9d06f0	-0.30669355
249	0xbe2d962c	-0.16951817
250	0xbe37f2fa	-0.17963782
251	0xbe0a9401	-0.13533022
252	0x3dbd446c	0.09241566
253	0xbcf11bee	-0.029432263
254	0x3e6c4b13	0.23075514
255	0xbe9196c1	-0.2843533

conv2.bias f4 [16]
0	0xbe49472f	-0.1965606
1	0xbd8bd7e7	-0.068282895
2	0x3d84fa94	0.064931065
3	0xbea8d09a	-0.3297165
4	0xbd96515a	-0.07339735
5	0xbe346399	-0.17616118
6	0xbda829c4	-0.08211091
7	0xbedefec5	-0.4355375
8	0x3e2ade60	0.16686392
9	0xbcddb579	-0.027064072
10	0xbe4849ff	-0.19559477
11	0xbdd9e621	-0.10639597
12	0xbdec9958	-0.115526855
13	0xbd0f4618	-0.034978956
14	0xbeb2057d	-0.34769812
15	0xbe1d4e3e	-0.15361878

bn2.weight f4 [16]
0	0x3f7dbfa5	0.9912055
1	0x3f682b6f	0.90691274
2	0x3f390da9	0.7228647
3	0x3f8f589a	1.1198914
4	0x3f8024e9	1.0011264
5	0x3f18e020	0.5971699
6	0x3fa5e14f	1.2959384
7	0x3f8ac202	1.0840456
8	0x3f41589d	0.7552584
9	0x3f5776dc	0.8416574
10	0x3f9768f9	1.182891
11	0x3f50f060	0.81616783
12	0x3f689bca	0.90862715
13	0x3f74a3eb	0.9556262
14	0x3f880e93	1.0629448
15	0x3f7de2f3	0.9917442

bn2.bias f4 [16]
0	0x3ed86c05	0.42269912
1	0xbd88254b	-0.06647738
2	0xbe9140d9	-0.28369787
3	0xbd04d94b	-0.03243379
4	0x3e661ebc	0.22472662
5	0x3e9430c7	0.28943464
6	0xbec1c963	-0.37848958
7	0x3e28bec3	0.1647902
8	0xbd17cc96	-0.037060343
9	0x3e5b988f	0.21444915
10	0xbe722a05	-0.23648842
11	0xbebbc281	-0.36671832
12	0x3ec3cdba	0.38242894
13	0xbc3d52ea	-0.011555413
14	0xbe7408bf	-0.23831461
15	0x3ca52db3	0.020163393

bn2.running_mean f4 [16]
0	0x3eaf4c9c	0.34238136
1	0x3f1e3522	0.61799824
2	0x3f5960cf	0.84913343
3	0x3ea11941	0.3146458
4	0x3f4b254e	0.793538
5	0x3f2247d2	0.6339084
6	0x3f154fc9	0.5832487
7	0x3ee3d2b4	0.4449669
8	0x3f7de60f	0.99179167
9	0x3eb67cee	0.3564219
10	0x3e2e379e	0.17013404
11	0x3f03419e	0.51272
12	0x3f0679b9	0.52529484
13	0x3e6369fc	0.22208399
14	0x3ee3d766	0.44500273
15	0x3ed5e04f	0.41772696

bn2.running_var f4 [16]
0	0x3faf2fea	1.3686497
1	0x40133186	2.2998977
2	0x3fccbce3	1.5995144
3	0x3f3a1231	0.7268401
4	0x40515e62	3.2713857
5	0x3fac47ed	1.345945
6	0x40484b4f	3.1295965
7	0x3fd773ea	1.6832249
8	0x3f82d6ce	1.0221803
9	0x3efaad84	0.48960507
10	0x3f06e270	0.52689266
11	0x3fbc3ed1	1.470667
12	0x3fbac3a3	1.4590954
13	0x3ef84a43	0.48494157
14	0x3fc4a9f7	1.5364369
15	0x3fa2e0c0	1.2724838

conv3.weight f4 [32, 16, 3, 3]
0	0x3cdb88ef	0.026798693
1	0x3e812be8	0.2522881
2	0x3d4db949	0.05022553
3	0x3e3770f2	0.17914179
4	0x3e28ef28	0.16497481
5	0x3e05041c	0.12989849
6	0xbded8a0c	-0.11598596
7	0x3c27e86a	0.010248283
8	0xbc8e3151	-0.0173575
9	0x3e19bdd1	0.15013815
10	0x3d45d13f	0.048295256
11	0x3e621c21	0.22081043
12	0x3e1a62a1	0.15076686
13	0x3d995f07	0.07488828
14	0xbe20e082	-0.15710643
15	0xbccf620c	-0.025315307
16	0xbd548b56	-0.051890694
17	0xbe57751c	-0.21040767
18	0x3e08a29d	0.13343282
19	0x3d819301	0.06326867
20	0x3c35fd5a	0.011107767
21	0xbdefbde7	-0.11706143
22	0x3d3d9277	0.046282258
23	0x3de22bd9	0.110435195
24	0xbd79e18d	-0.061006118
25	0x3d6d8b36	0.05799409
26	0x3e30417e	0.17212483
27	0x3e368227	0.17823087
28	0xbcc066ad	-0.02348646
29	0x3cfc2071	0.030777188
30	0xbcae2004	-0.0212555
31	0xbe03daf5	-0.12876494
32	0xbc953ac9	-0.018216508
33	0xbe03b6cc	-0.128627
34	0x3d8cc1e6	0.06872921
35	0x3cc9cf99	0.024635123
36	0xbbf1dfd0	-0.007381417
37	0x3dfce991	0.12349237
38	0xbe118144	-0.14209467
39	0x3e3f98c0	0.18710613
40	0x3e860906	0.2617876
41	0x3eb689fa	0.35652143
42	0x3aee9b5e	0.0018204262
43	0x3dc66b43	0.09688427
44	0x3e808d9d	0.25108042
45	0x3da9005d	0.082520224
46	0xbe8161d4	-0.2526995
47	0xbe07f3d8	-0.13276613
48	0x3d39e727	0.04538646
49	0xbe82e445	-0.2556478
50	0x3e0e5d8d	0.13902874
51	0x3e3aa4e6	0.18226966
52	0xbe06074f	-0.13088726
53	0xbdeb1f6a	-0.11480601
54	0xba96ce02	-0.0011505487
55	0x3dc9dafc	0.09856221
56	0xb9cf8f91	-0.00039589082
57	0xbe8122c5	-0.2522184
58	0xbe50d857	-0.20395027
59	0x3d14d669	0.03633729
60	0x3de0cced	0.109765865
61	0x3e16e472	0.14735582
62	0x3d871cd9	0.06597299
63	0x3da3db64	0.0800083
64	0x3ddded25	0.10836247
65	0x3dc31953	0.095263146
66	0x3e6244a3	0.22096495
67	0x3e1b1c74	0.15147573
68	0x3da34744	0.07972577
69	0xbe7d0d9c	-0.24712223
70	0xbe81fde1	-0.25389007
71	0xbe16441c	-0.14674419
72	0x3e406401	0.18788148
73	0x3eac5074	0.3365513
74	0x3e267b69	0.16258015
75	0xbd91bb49	-0.071158
76	0x3cbb1851	0.022838743
77	0x3e58290c	0.21109408
78	0x3df6cec5	0.12051157
79	0x3cbdb165	0.023155877
80	0x3dddf90c	0.108385175
81	0x3e85e8e9	0.2615426
82	0x3e245057	0.16046272
83	0x3d6aadb2	0.057294555
84	0xbd0554fd	-0.032551754
85	0xbe394a57	-0.18094765
86	0xbb2f1a39	-0.002671851
87	0xbcca37fe	-0.024684902
88	0x3e02b8c0	0.12765789
89	0x3e69dbba	0.22837725
90	0x3dc859f4	0.09782782
91	0x3de8f935	0.113756575
92	0x3cbb0af6	0.022832375
93	0xbeb1da06	-0.3473665
94	0xbec933d5	-0.39297357
95	0x3d5c4f05	0.053786296
96	0x3dd1a818	0.102371395
97	0x3e50ae45	0.20378979
98	0xbda018a0	-0.07817197
99	0x3c43ccba	0.011950666
100	0x3dfcfea0	0.12353253
101	0x3e06e82c	0.13174504
102	0xbeaec6a6	-0.34135932
103	0xbc80eb29	-0.015737133
104	0x3d742fb1	0.059615795
105	0x3d376b46	0.04478004
106	0x3e757f98	0.23974454
107	0x3eb8cd28	0.36094022
108	0xbdccb59e	-0.09995578
109	0x3d57fea8	0.052733094
110	0xbc14f035	-0.009090473
111	0xbe1a3429	-0.1505896
112	0xbd09a79f	-0.03360712
113	0xbdd52dd9	-0.10409135
114	0x3dabab42	0.08382274
115	0xbcd6ecbf	-0.026235936
116	0x3e61f5fd	0.22066493
117	0xbebf4b52	-0.37362152
118	0xbe9a6ad3	-0.30159625
119	0xbe0cebe3	-0.13761859
120	0xbdcf01f8	-0.101077974
121	0xbe543ce9	-0.2072636
122	0x3d57e242	0.05270601
123	0x3d1d5900	0.038414955
124	0x3da26e4f	0.07931196
125	0x3da36f89	0.07980258
126	0x3dd2a732	0.10285796
127	0xbd9a40f6	-0.075319216
128	0x3e1347f8	0.14382923
129	0xbcb34444	-0.021883138
130	0xbcf24dae	-0.029578056
131	0xbe88557d	-0.26627722
132	0xbe820ae3	-0.2539893
133	0xbe4fe892	-0.20303562
134	0xbe08a02f	-0.13342355
135	0x3d380e11	0.04493529
136	0x3d05cbbc	0.032665
137	0xbe097ab5	-0.13425715
138	0x3d0bc10f	0.034119662
139	0x3d609f1e	0.054839246
140	0x3cd71033	0.026252842
141	0x3db4ab35	0.08821718
142	0x3e3ab48e	0.18232939
143	0x3dcec5ba	0.10096307
144	0xbd8ff55f	-0.07029223
145	0xbda3dd4a	-0.08001192
146	0xbe119675	-0.14217551
147	0xbe9cdd82	-0.30637747
148	0xbe7553c1	-0.23957731
149	0xbd6801c4	-0.05664231
150	0x3e689274	0.22712117
151	0x3e4feb65	0.2030464
152	0xbd337d5b	-0.04382072
153	0xbe1f96b7	-0.15584837
154	0xbd9b763c	-0.07590911
155	0xbdfc02b0	-0.123052
156	0x3d4984cb	0.049198907
157	0x3e90dfc6	0.28295726
158	0x3e647b73	0.22312717
159	0x3da5baca	0.08092268
160	0x3e3355a5	0.1751314
161	0x3e327a9b	0.17429583
162	0xbde2b3da	-0.1106946
163	0x3c8db2c0	0.017297149
164	0x3df478c3	0.11937096
165	0xbe7d4177	-0.24732004
166	0xbc941fb5	-0.018081525
167	0x3e16abfd	0.14714046
168	0x3e49cf92	0.19708088
169	0x3da52f66	0.08065681
170	0xbda50b9c	-0.08058855
171	0xbd44ddb9	-0.048063014
172	0xbdb08941	-0.08619929
173	0x3c90abb4	0.01766
174	0xbecde20b	-0.4021152
175	0xbeb8d0c6	-0.36096781
176	0xbe13469f	-0.14382409
177	0xbd17adc0	-0.037030935
178	0xbe2aac85	-0.16667373
179	0xbe0868ac	-0.13321179
180	0xbd8a2d25	-0.06746892
181	0x3cdb5098	0.026771829
182	0xbe1a77e4	-0.15084797
183	0xbeaa7add	-0.33296862
184	0xbea5591d	-0.3229455
185	0xbd12c551	-0.035832707
186	0x3daadbfb	0.08342739
187	0x3aa21054	0.0012364485
188	0xbe6f975a	-0.2339758
189	0xbcf3513e	-0.029701825
190	0x3e0f6ad9	0.14005603
191	0x3de22830	0.110428214
192	0xbd947632	-0.072491065
193	0xbcc57a7b	-0.024106255
194	0x3e38ac99	0.18034591
195	0xbdf30dea	-0.11867888
196	0xbe04307c	-0.1290912
197	0x3cc5be9f	0.024138747
198	0x3b2bd045	0.0026216668
199	0xbe33787d	-0.17526431
200	0xbdbe7231	-0.09299124
201	0xbd71c0ae	-0.059021644
202	0x3c183d09	0.009291896
203	0x3d4bc815	0.04975136
204	0x3ec55c34	0.38546908
205	0x3eb7f294	0.3592726
206	0x3e3b2884	0.18277174
207	0xbe35d157	-0.17755638
208	0xbe3f7c04	-0.18699652
209	0xbdc0a692	-0.09406771
210	0xbe4ad7f1	-0.19808938
211	0xbd356c44	-0.044292703
212	0x3e126873	0.14297657
213	0xbda9534b	-0.0826784
214	0xbd9f67fd	-0.07783506
215	0x3cfc272b	0.030780395
216	0x3c0b0d9a	0.00848713
217	0xbd10caaa	-0.035349526
218	0xbd74af82	-0.05973769
219	0x3d3a2292	0.045443125
220	0x3c09893f	0.008394538
221	0xbde9adf7	-0.11410134
222	0x3d23408d	0.039856482
223	0xbc9f7396	-0.019464295
224	0x3dbd5814	0.09245315
225	0x3b3a3e8b	0.0028418626
226	0xbcd5028b	-0.02600219
227	0x3a80e552	0.0009833968
228	0xbc99915c	-0.01874607
229	0xbca3087e	-0.01990151
230	0xbd833f5e	-0.06408571
231	0xbd09f8e7	-0.033684637
232	0xbac29ed6	-0.0014848362
233	0xbe1ca01a	-0.15295449
234	0x3bb8dfd0	0.005641915
235	0x3b5128eb	0.0031915258
236	0xbd42e991	-0.047586028
237	0xbe19db2d	-0.15025015
238	0xbdd400f9	-0.10351748
239	0x3d82c8f2	0.063859835
240	0x3da7cc8e	0.081933126
241	0xbcbde875	-0.023182133
242	0xbe234632	-0.15944746
243	0xbd74feb2	-0.05981321
244	0xbe80dc0d	-0.25167885
245	0xbd7c54d8	-0.06160435
246	0xbd1c73bb	-0.038196307
247	0xbdbff215	-0.09372345
248	0xbe299b11	-0.1656306
249	0x3e4b84f5	0.19874938
250	0x3e7317fb	0.23739617
251	0x3c8d31cd	0.01723566
252	0xbb534e9f	-0.0032242907
253	0xbd26f063	-0.040756594
254	0xbc32d534	-0.010915089
255	0xbe3cd12c	-0.18439168

conv3.bias f4 [32]
0	0xbea0e3e1	-0.31423858
1	0xbe976c9e	-0.29575056
2	0xbe133799	-0.14376678
3	0xbd988af9	-0.07448382
4	0xbd91472d	-0.07093654
5	0xbee791e3	-0.4522849
6	0xbd9bdf30	-0.07610929
7	0xbd62d476	-0.0553784
8	0xbdec1a63	-0.1152847
9	0x3b351dd8	0.0027636196
10	0xbe9531ae	-0.29139465
11	0xbdda7c44	-0.10668233
12	0xbdf5f1f5	-0.1200904
13	0xbe7cccac	-0.24687451
14	0xbe601ab0	-0.2188518
15	0xbe90a4ca	-0.28250724
16	0xbd49a867	-0.049232867
17	0xbde08d35	-0.10964433
18	0xbecd7ae5	-0.40132824
19	0xbe8ef038	-0.27917647
20	0xbe8df8b9	-0.27728823
21	0xbea4cfc5	-0.32189766
22	0xbe7736f9	-0.24142064
23	0xbe032d04	-0.12810141
24	0x3e54529d	0.2073464
25	0xbf1e35ed	-0.61801034
26	0xbe5d9b3e	-0.21641251
27	0xbe3e2d2c	-0.18571919
28	0xbead7195	-0.3387572
29	0xbdcc3aa3	-0.099721216
30	0xbdaacc2f	-0.08339726
31	0xbd2f5dab	-0.042813938

bn3.weight f4 [32]
0	0x3f5e9f41	0.8696175
1	0x3f874c6a	1.0570195
2	0x3f7f18f1	0.9964743
3	0x3f4f56b8	0.809917
4	0x3f66f3d2	0.9021579
5	0x3f887461	1.0660516
6	0x3f5620b5	0.83643657
7	0x3f47aa15	0.779939
8	0x3f70f175	0.94118434
9	0x3f7766da	0.96641314
10	0x3f922630	1.1417904
11	0x3f87c908	1.0608225
12	0x3f824ab4	1.0179048
13	0x3f8f22a3	1.1182445
14	0x3f783932	0.96962273
15	0x3f8dea9f	1.1087226
16	0x3f8a2d4c	1.0795074
17	0x3f77c2f1	0.9678183
18	0x3f5635cb	0.8367583
19	0x3f75994b	0.9593703
20	0x3f5fcdad	0.8742321
21	0x3f7a5f5e	0.9780177
22	0x3f74f95d	0.95693
23	0x3f688322	0.9082509
24	0x3f2a23e2	0.66461
25	0x3f84a03f	1.0361403
26	0x3f7bb975	0.9832986
27	0x3f5397ef	0.8265371
28	0x3f83c0b6	1.0293186
29	0x3f89e4c0	1.0772934
30	0x3f740f70	0.95336056
31	0x3f88d1af	1.068899

bn3.bias f4 [32]
0	0x3f1ca6ed	0.6119221
1	0xbe87b48b	-0.2650493
2	0xbeb898ee	-0.36054176
3	0x3c3e7e03	0.011626723
4	0x3d9c2529	0.07624275
5	0xbccfbc72	-0.025358412
6	0x3e56fe8f	0.20995544
7	0x3f057d04	0.52143884
8	0xbf1065e3	-0.56405467
9	0xbee19754	-0.44060767
10	0xbe0dfb34	-0.13865358
11	0x3e8f9403	0.2804261
12	0x3dae0fd7	0.08499115
13	0x3d87e6bc	0.06635806
14	0xbed068b9	-0.40704897
15	0x3e67662a	0.22597566
16	0xbe15e096	-0.14636454
17	0x3f08dd00	0.5346222
18	0xbe2bd437	-0.16780172
19	0x3e3ceed9	0.18450488
20	0xbbbc6ea2	-0.005750493
21	0xbdb73f21	-0.08947588
22	0x3e874752	0.264216
23	0xbe6b0a41	-0.2295313
24	0x3f068684	0.52549005
25	0x3ef8b04d	0.48572007
26	0x3dcb3c6a	0.099236324
27	0xbe3188ea	-0.17337385
28	0x3e90a0ea	0.28247768
29	0x3e1773a8	0.14790213
30	0x3e2843ce	0.16432115
31	0x3e84e2cb	0.2595428

bn3.running_mean f4 [32]
0	0x3f25e208	0.6479802
1	0x3dbaa8ef	0.09114253
2	0x3ead780f	0.3388066
3	0x3e8bc4da	0.27298623
4	0x3ec9dc01	0.39425662
5	0x3ebfd6ae	0.37468475
6	0x3f1a8e91	0.6037379
7	0x3f04b4b1	0.51838213
8	0x3ea0c147	0.3139746
9	0x3f0947d9	0.53625256
10	0x3eb0899d	0.3447999
11	0x3ee7fa7d	0.45308295
12	0x3ebfeb42	0.37484175
13	0x3e5c4af2	0.21512964
14	0x3ed568c5	0.41681495
15	0x3e8763df	0.26443383
16	0x3eea0d7c	0.45713413
17	0x3eb3c286	0.35109347
18	0x3eccd04e	0.40002674
19	0x3efefef1	0.4980388
20	0x3ecbf867	0.39837953
21	0x3e85d184	0.2613641
22	0x3ed7b2a4	0.4212848
23	0x3e46579d	0.1936936
24	0x3f8e5b06	1.1121528
25	0x3e46e817	0.19424473
26	0x3e798a8e	0.2436926
27	0x3f11d495	0.56965
28	0x3e8476a9	0.2587178
29	0x3e73b27d	0.23798557
30	0x3ed040e8	0.4067452
31	0x3eab4389	0.33449963

bn3.running_var f4 [32]
0	0x3fc38e9d	1.5277897
1	0x3e599e94	0.21251899
2	0x3fac4e33	1.3461365
3	0x3efd8da3	0.49522123
4	0x3f501488	0.8128133
5	0x3fb4b620	1.411808
6	0x3f3bf4c1	0.7342034
7	0x3f86cc5c	1.0531116
8	0x3f7984ee	0.9746846
9	0x3fe8ffd1	1.8203069
10	0x3f854dc3	1.0414356
11	0x3fce0083	1.6093906
12	0x3fba6170	1.4560986
13	0x3f5bafbe	0.85815036
14	0x3fa11c5c	1.258678
15	0x3f452514	0.770097
16	0x4001a931	2.0259516
17	0x3f9a5824	1.2058148
18	0x3fa78552	1.3087561
19	0x3fafc2e7	1.3731354
20	0x3fb61b9d	1.4227177
21	0x3f36ff9f	0.71483797
22	0x3fbe1acd	1.4851929
23	0x3ec30ad2	0.38094193
24	0x3fab8aec	1.340177
25	0x3f468dc9	0.77560097
26	0x3f40c913	0.75306815
27	0x3f879944	1.0593648
28	0x3f46a401	0.77594
29	0x3f80311d	1.0014988
30	0x3f5e2a4f	0.8678331
31	0x3f95399b	1.1658205

conv4.weight f4 [64, 32, 3, 3]
0	0xbca2f8b5	-0.019893983
1	0xbe328e5a	-0.17437115
2	0xbeafd1f3	-0.34339866
3	0xbd40082c	-0.046882793
4	0xbe28bd3f	-0.16478442
5	0xbcc7e52a	-0.024401266
6	0xbcf3d62c	-0.029765211
7	0x3db64e81	0.08901692
8	0x3daab4d7	0.08335274
9	0x3c8689e4	0.016423173
10	0x3ca3a48c	0.019975923
11	0x3d7a6cea	0.061139025
12	0xbcf73e94	-0.030181207
13	0xbe10f87a	-0.14157286
14	0xbebdcce6	-0.37070388
15	0xbe368556	-0.17824301
16	0xbdcf1d35	-0.10112993
17	0x3ca068af	0.019581167
18	0xbd17db2a	-0.037074246
19	0x3c118aec	0.008883219
20	0xbce36bef	-0.027761428
21	0xbca22e2d	-0.019797409
22	0x3dd1cc6e	0.1024407
23	0x3e3d6578	0.18495739
24	0x3c6e0d3a	0.014529521
25	0x3cfe6eb8	0.031058654
26	0xbc46a271	-0.01212369
27	0x3e2a6a08	0.1664201
28	0x3dbb90ed	0.09158502
29	0xbe305f29	-0.172238
30	0xbd7a5c2c	-0.06112306
31	0xbdb461f3	-0.08807745
32	0x3d4c2708	0.04984191
33	0x3e6c8ca5	0.23100527
34	0x3dbefc07	0.09325414
35	0xbc80c1ec	-0.01571747
36	0x3c061c49	0.008185455
37	0x3db0bc57	0.08629673
38	0x3e4e3f0d	0.2014124
39	0xbbfc2003	-0.007694246
40	0xbe701726	-0.2344633
41	0xbe7dd5b6	-0.24788556
42	0x3e4cb24a	0.19989887
43	0x3dab4a82	0.083638206
44	0xbbf21c62	-0.0073886374
45	0x3dac2d99	0.084071346
46	0x3d87c132	0.06628646
47	0xbd6f7b1b	-0.058467012
48	0x3c328038	0.010894828
49	0x3aeb7ca6	0.0017966225
50	0xbc26aaaf	-0.01017253
51	0xbdb96cde	-0.09053968
52	0x3cd7bf09	0.02633621
53	0xbdc93199	-0.09823913
54	0xbe090bf3	-0.13383465
55	0x3dd018f6	0.10161011
56	0x3dc2adb3	0.09505787
57	0x3cec49c0	0.02884376
58	0xbd103c16	-0.035213552
59	0xbde0b08d	-0.109711744
60	0x3d197d38	0.037472934
61	0x3ca87f61	0.020568551
62	0xbd2f849b	-0.04285107
63	0x3d7424db	0.05960546
64	0xbe001f97	-0.1251205
65	0xbbc09966	-0.0058776615
66	0xbd402668	-0.046911627
67	0xbcf5764b	-0.029963633
68	0xbe0f79c7	-0.14011298
69	0xbcd459c4	-0.02592171
70	0x3c947810	0.018123657
71	0xbd7910ce	-0.06080704
72	0xbd27f334	-0.04100342
73	0x3cc0b472	0.023523543
74	0x3cb161b6	0.021653038
75	0x3db34b3d	0.08754585
76	0x3c69bef3	0.014266717
77	0x3e0af9a9	0.135718
78	0x3dbe60c2	0.09295799
79	0x3e6467b3	0.22305183
80	0x3e0614f7	0.13093935
81	0x3e445a46	0.19175062
82	0x3d81d595	0.06339566
83	0x3d10873a	0.035285212
84	0xbcd3820b	-0.025818845
85	0xbe155fd8	-0.14587343
86	0x3c460f1d	0.012088564
87	0xbdc67ba8	-0.09691554
88	0xbd63e59c	-0.055638894
89	0xbc30b0d5	-0.010784348
90	0x3df5b18a	0.119967535
91	0x3e12cb00	0.14335251
92	0x3d57e572	0.05270905
93	0xbd4bad75	-0.04972597
94	0x3d215182	0.039384373
95	0x3d030807	0.031990077
96	0xbdc8bec9	-0.098020144
97	0x3cc9aa3f	0.024617312
98	0x3d3339a6	0.04375615
99	0xbdc5c936	-0.096575186
100	0xbd2139d6	-0.039361797
101	0x3d65c3e1	0.056095008
102	0xbd85908f	-0.06521713
103	0xbc683f61	-0.014175267
104	0xbd9624da	-0.07331248
105	0xbe513291	-0.20429446
106	0xbe729ac0	-0.23691845
107	0xbe7acd0f	-0.24492286
108	0x3e10f0f4	0.14154416
109	0xbd2d4799	-0.04230461
110	0xbc80cff1	-0.015724154
111	0xbc251749	-0.010076352
112	0x3ca801a3	0.020508593
113	0x3d924b03	0.071432136
114	0xbc85cbbe	-0.016332503
115	0xbe3c4530	-0.18385768
116	0x3de798c6	0.11308436
117	0x3e2a82fd	0.1665153
118	0xbdede86e	-0.11616598
119	0xbe30078c	-0.17190379
120	0xbd6192f5	-0.05507179
121	0xbd719a44	-0.05898501
122	0xbdfcc7b4	-0.12342778
123	0xbddfd0ac	-0.10928473
124	0xbd8be965	-0.06831626
125	0x3be020b3	0.0068398356
126	0x3d54bd6f	0.05193847
127	0x3dc9a30c	0.09845552
128	0xbc487f0b	-0.012237321
129	0x3e0af936	0.13571629
130	0x3e9603e0	0.2929983
131	0xbc876df6	-0.016531926
132	0xbd0e48d4	-0.034737423
133	0x3d463380	0.048388958
134	0x3e0b88b0	0.13626361
135	0xbdf0fc9d	-0.11766932
136	0xbe9083cc	-0.28225553
137	0xbee38753	-0.44439182
138	0xbc888156	-0.016663235
139	0x3e0ce058	0.13757455
140	0x3d9c26db	0.076245986
141	0xbd57f5a5	-0.0527245
142	0xbd62d323	-0.055377137
143	0xbe0d341c	-0.1378941
144	0xbd81bb54	-0.06334558
145	0xbd93f0af	-0.07223641
146	0x3d2fa3c1	0.042880777
147	0x3dcacc5c	0.0990226
148	0x3e4858a1	0.19565059
149	0x3d286fad	0.041122127
150	0x3dda7dd9	0.10668535
151	0x3e3898eb	0.18027084
152	0x3d42cecb	0.047560494
153	0x3e1c28c2	0.15249923
154	0x3ea6a92a	0.32550937
155	0x3e9d5835	0.3073136
156	0x3d0fd6f4	0.035117105
157	0xbde94339	-0.11389775
158	0xbe85983e	-0.26092714
159	0xbd5db5ff	-0.054128643
160	0xbe24826b	-0.16065376
161	0xbde2b24e	-0.11069165
162	0x3d89e43a	0.06732984
163	0xbd7bb6e5	-0.06145372
164	0xbd3beba4	-0.04587902
165	0xbd2b187e	-0.041771404
166	0xbd20dfa3	-0.039275777
167	0xbbbf192e	-0.005831859
168	0x3cc36ae3	0.023854678
169	0x3e13ab7a	0.14420882
170	0x3b1e6999	0.0024171828
171	0x3e25fd8c	0.16210002
172	0x3e0ab2a2	0.13544706
173	0x3d1b024c	0.037843987
174	0x3e211c77	0.15733515
175	0x3dab7c39	0.08373303
176	0x3d8fea88	0.07027155
177	0xbda47a6d	-0.08031163
178	0xbd0407f8	-0.032234162
179	0xbc76a381	-0.015053631
180	0x3d6e9f5b	0.058257442
181	0x3d679d7f	0.056546684
182	0xbd114540	-0.035466433
183	0x3dcd5bee	0.100273
184	0x3cbd9d26	0.023146223
185	0xbd3c344f	-0.045948323
186	0xbc549025	-0.01297382
187	0xbdf396af	-0.11893975
188	0xbdd0c880	-0.10194492
189	0xbe603a0e	-0.21897146
190	0xbd7e87e2	-0.062141307
191	0xbc9ffd48	-0.019529954
192	0x3e02178e	0.12704298
193	0x3e949e65	0.29027095
194	0x3e504e6a	0.20342413
195	0x3d8a48d9	0.06752176
196	0x3dad4c30	0.08461797
197	0xbc3161e9	-0.010826566
198	0xbdd64ceb	-0.1046389
199	0xbde960d4	-0.113954216
200	0x3c9e6f07	0.019340051
201	0x3bfe5d70	0.0077626035
202	0x3d5d6a9a	0.05405674
203	0xbe690d38	-0.22758949
204	0xbb19c46b	-0.0023463021
205	0xbd70fdb3	-0.058835696
206	0xbd33b4fe	-0.04387378
207	0xbe2c9b0b	-0.16856019
208	0xbea6e924	-0.32599747
209	0xbed468b0	-0.4148612
210	0xbd93e6e6	-0.07221775
211	0xbe5c19fd	-0.21494289
212	0x3dfddb68	0.12395364
213	0x3cec9c8a	0.028883237
214	0x3d78b107	0.0607157
215	0x3d483e2a	0.04888741
216	0x3cccce66	0.025000762
217	0xbe5ca089	-0.21545614
218	0xbd25cea2	-0.040480264
219	0xbdce9155	-0.10086314
220	0x3b160c19	0.0022895394
221	0x3cf089de	0.029362615
222	0x3e2417e5	0.1602474
223	0x3e2bff4c	0.16796607
224	0x3e0dc1cb	0.13843457
225	0x3de56940	0.112017155
226	0x3d97734e	0.073950395
227	0x3dac7820	0.084213495
228	0xbe2abd20	-0.16673708
229	0xbe12a3c1	-0.1432028
230	0xbe312592	-0.17299488
231	0xbce87862	-0.028377715
232	0x3dc9babe	0.09850071
233	0xbcea841a	-0.028627444
234	0xbe056677	-0.13027368
235	0xbecd73a4	-0.4012729
236	0xbe99c6f5	-0.30034605
237	0xbe17ecd7	-0.14836441
238	0xbdcb9a54	-0.09941545
239	0xbc05c503	-0.008164647
240	0xbe4115af	-0.18855928
241	0xbe5d5f97	-0.21618496
242	0xbdd031f6	-0.10165779
243	0x3e1f4da2	0.15556958
244	0x3c15cc8f	0.009143009
245	0x3e0f1ee7	0.13976632
246	0x3e04f2f8	0.1298331
247	0x3dfdfbe9	0.12401564
248	0x3d747041	0.059677366
249	0xbdf23ef1	-0.11828411
250	0xbd957687	-0.07297998
251	0x3e0258b9	0.12729158
252	0x3df0fe32	0.11767234
253	0x3c9e43f9	0.019319521
254	0xbe1c30cd	-0.15252991
255	0xbdf1b032	-0.11801185

conv4.bias f4 [64]
0	0xbee0ea82	-0.43928915
1	0xbe0e4a3a	-0.13895503
2	0xbe46d9c5	-0.1941901
3	0xbcf16ee2	-0.029471818
4	0xbe2d48b2	-0.16922262
5	0xbdfaf567	-0.12253838
6	0x3c7fd809	0.015615472
7	0xbec304fc	-0.3808974
8	0xbf1595ff	-0.58432
9	0xbe909bba	-0.2824381
10	0xbebcd157	-0.36878464
11	0xbe5fef5f	-0.21868657
12	0xbc030e1d	-0.00799897
13	0xbd016178	-0.031587094
14	0xbe2a7166	-0.1664482
15	0xbe9879f9	-0.29780558
16	0xbcfc5884	-0.030803926
17	0xbead5d59	-0.3386028
18	0xbeeb359e	-0.45939344
19	0xbf1ff6e5	-0.62486106
20	0xbe94ff30	-0.29100943
21	0x3d99df57	0.07513302
22	0xbe0096bf	-0.12557505
23	0xbee5e464	-0.4490081
24	0xbed172ad	-0.40907803
25	0x3b180c0f	0.0023200547
26	0xbe5c280b	-0.2149965
27	0xbefef28a	-0.49794418
28	0xbe919b3e	-0.28438753
29	0xbe590105	-0.21191795
30	0xbe3fcda8	-0.18730795
31	0xbe0d27d9	-0.13784732
32	0xbe788ae2	-0.2427173
33	0xbc88a6b6	-0.016681056
34	0xbea11193	-0.3145872
35	0xbe393a27	-0.1808859
36	0xbee0b620	-0.4388895
37	0xbeaab689	-0.33342388
38	0xbd32faeb	-0.043696325
39	0xbe9c2416	-0.3049628
40	0xbd0bd442	-0.03413797
41	0xbe951266	-0.291156
42	0xbe9b84a2	-0.30374628
43	0xbecd04c6	-0.40042704
44	0xbe5a1ca6	-0.21299991
45	0xbe663cfe	-0.22484204
46	0xbe0acb83	-0.13554196
47	0xbd91635f	-0.07099032
48	0xbe6fee74	-0.23430806
49	0xbe8946e1	-0.2681189
50	0xbed10a92	-0.40828377
51	0xbe0f3f12	-0.13988903
52	0xbe08bd0a	-0.13353363
53	0xbe85d5f2	-0.2613979
54	0xbdc1e59c	-0.09467623
55	0xbe975fc0	-0.2956524
56	0xbf04d74d	-0.5189102
57	0xbf053f79	-0.52049977
58	0xbeb03109	-0.3441241
59	0x3be94af7	0.007119532
60	0xbdda4365	-0.10657386
61	0xbcac1a5d	-0.021008665
62	0xbe402b55	-0.1876653
63	0xbd571db4	-0.05251856

bn4.weight f4 [64]
0	0x40242065	2.5644772
1	0x403685a2	2.8519063
2	0x4011f06a	2.2802987
3	0x400a6a4e	2.1627383
4	0x401c1353	2.4386795
5	0x3ff9e47f	1.9522856
6	0x401177f9	2.2729475
7	0x402fee1a	2.7489076
8	0x401ad28e	2.4191012
9	0x3ff86777	1.9406575
10	0x402ecbcd	2.731189
11	0x4014fd85	2.3279736
12	0x401049a6	2.2544951
13	0x3ff4bc81	1.9120027
14	0x4023377e	2.550262
15	0x4020683c	2.506362
16	0x3ffe4690	1.9865284
17	0x4012283d	2.283706
18	0x401dbd43	2.4646766
19	0x402207e5	2.5317318
20	0x4029ffe9	2.6562445
21	0x400c6327	2.1935518
22	0x3fd48c04	1.6605229
23	0x402bf346	2.6867232
24	0x401fa871	2.4946558
25	0x400f7214	2.2413378
26	0x40270159	2.6094573
27	0x4030ea5a	2.7643037
28	0x4028432c	2.6290998
29	0x403c415b	2.941489
30	0x40171578	2.3606853
31	0x400804fa	2.1253037
32	0x40265252	2.5987744
33	0x400ea0d4	2.2285662
34	0x40174c79	2.3640425
35	0x403367c2	2.8032079
36	0x403585d3	2.836293
37	0x40180711	2.3754313
38	0x4024c594	2.5745592
39	0x402839f0	2.6285362
40	0x3fe85c75	1.8153216
41	0x40388ace	2.883472
42	0x403925cd	2.8929322
43	0x403fe000	2.9980469
44	0x4017ee3a	2.3739152
45	0x402a991d	2.6655953
46	0x4022a383	2.54123
47	0x401c05da	2.4378572
48	0x400c39c8	2.1910267
49	0x402d8537	2.7112558
50	0x4028a613	2.6351364
51	0x4014f019	2.3271544
52	0x40208365	2.5080197
53	0x400198fa	2.024962
54	0x400698ac	2.1030684
55	0x402523da	2.5803132
56	0x403367bd	2.8032067
57	0x40296c56	2.6472373
58	0x4029f95f	2.6558454
59	0x3ff21df5	1.8915392
60	0x401d0eb2	2.454022
61	0x40020c7e	2.0320125
62	0x402186a8	2.5238438
63	0x400e3351	2.221882

bn4.bias f4 [64]
0	0x3e876702	0.26445776
1	0xbeb4cbed	-0.35311833
2	0x3d382d4e	0.04496508
3	0x3e2e3c0d	0.17015095
4	0x3e35ea5d	0.17765184
5	0x3e18b09c	0.14911121
6	0x3eacd72b	0.3375791
7	0x3ea2d7b5	0.31805196
8	0xbe7d624b	-0.24744527
9	0x3e44061f	0.1914296
10	0xbe8d87c6	-0.2764265
11	0x3e556520	0.20839357
12	0x3e82366b	0.25432143
13	0x3e0ed77c	0.13949388
14	0xbe1e2b5a	-0.15446225
15	0xbe3f02ef	-0.18653463
16	0xbeb11664	-0.34587395
17	0x3e4f4319	0.2024044
18	0xbe4a25cb	-0.1974098
19	0xbe6716dc	-0.22567314
20	0x3e9d4747	0.30718443
21	0x3e4bb596	0.19893488
22	0x3e6d94c5	0.23201282
23	0x3eb62cfc	0.35581195
24	0x3e57f7a1	0.21090557
25	0x3e42b462	0.19014123
26	0x3e72ffc3	0.23730378
27	0xbe3c5d32	-0.18394926
28	0xbe5c032a	-0.21485582
29	0xbeb18ba8	-0.34676862
30	0xbea17ff3	-0.3154293
31	0x3e32cf0d	0.17461796
32	0x3e828dd5	0.25498834
33	0x3e790343	0.2431765
34	0x3e5acf5e	0.21368167
35	0x3e945aa6	0.2897541
36	0x3ec88dcc	0.39170682
37	0xbe896c29	-0.26840332
38	0xbe97ed2f	-0.29673144
39	0xbebabb85	-0.3647119
40	0xbe604974	-0.2190302
41	0xbe3c7a4b	-0.18406026
42	0xbe71a149	-0.23596682
43	0xbe5d4a1f	-0.21610306
44	0x3e7ed1f4	0.24884778
45	0x3e267154	0.16254169
46	0x3e66619e	0.22498176
47	0x3e6f9f4d	0.23400612
48	0x3e35d080	0.17755318
49	0x3e90dba1	0.28292564
50	0xbe445132	-0.19171599
51	0x3e9bdf2b	0.304437
52	0xbe3e80d6	-0.18603835
53	0x3e1902f1	0.14942528
54	0x3e317f58	0.17333734
55	0x3e47c986	0.19510469
56	0xbe5c842a	-0.21534792
57	0xbe291315	-0.16511185
58	0xbe48fd1d	-0.19627805
59	0x3e47e251	0.19519927
60	0x3e63ef43	0.2225924
61	0x3e3c7534	0.18404084
62	0xbea26c67	-0.3172333
63	0xbea2409a	-0.31689912

bn4.running_mean f4 [64]
0	0x3de164cf	0.11005556
1	0x3e01f83e	0.12692353
2	0x3e136ff5	0.14398177
3	0x3e7ecc1b	0.24882548
4	0x3e016fc2	0.12640288
5	0x3d9f3dac	0.07775435
6	0x3e013bf7	0.12620531
7	0x3e503376	0.20332131
8	0x3d806479	0.06269164
9	0x3e49a3ce	0.19691393
10	0x3dd598d5	0.10429541
11	0x3d975cc4	0.073907405
12	0x3e71107a	0.23541442
13	0x3ea79a9b	0.32735142
14	0x3d86c2c4	0.06580117
15	0x3d9940fa	0.074830964
16	0x3db33878	0.08751005
17	0x3d86b28c	0.06577024
18	0x3d6e1e21	0.058134202
19	0x3d8d367f	0.0689516
20	0x3d781ec5	0.06057622
21	0x3ec26af9	0.3797224
22	0x3ea73320	0.32656193
23	0x3d8e4431	0.069466
24	0x3db2d1fc	0.087314576
25	0x3e2340c3	0.15942673
26	0x3da1f630	0.07908285
27	0x3d844395	0.06458203
28	0x3de9ef33	0.11422577
29	0x3db7e156	0.08978526
30	0x3da0090b	0.07814225
31	0x3e4ade40	0.19811344
32	0x3d9429c2	0.07234527
33	0x3dbedb0a	0.09319122
34	0x3d37c4e7	0.044865515
35	0x3dc4d2d3	0.09610524
36	0x3d690b99	0.056895826
37	0x3d8e71de	0.06955312
38	0x3df14e94	0.11782566
39	0x3d46bff8	0.04852292
40	0x3e312a6f	0.17301343
41	0x3da69196	0.08133237
42	0x3deaa4e3	0.11457231
43	0x3dc47269	0.095921345
44	0x3e401f27	0.18761884
45	0x3dff0a08	0.12453085
46	0x3d19a29e	0.0375086
47	0x3d306ffa	0.04307554
48	0x3e26d564	0.1629234
49	0x3d84a264	0.06476286
50	0x3d9bc73b	0.076063596
51	0x3da8638d	0.08222113
52	0x3dadc954	0.08485666
53	0x3e2d4c57	0.16923653
54	0x3ebdba56	0.37056226
55	0x3e13a8f6	0.14419922
56	0x3d73fcb4	0.05956717
57	0x3d8b227f	0.06793689
58	0x3d6f18f1	0.058373395
59	0x3e670984	0.22562224
60	0x3d77742f	0.060413536
61	0x3ebbfdbd	0.36717024
62	0x3dd63dcf	0.10461008
63	0x3e3bb926	0.18332347

bn4.running_var f4 [64]
0	0x3e977f82	0.29589468
1	0x3eadd9cb	0.33955225
2	0x3ee7818c	0.45216024
3	0x3f547f01	0.8300629
4	0x3eb0ea6e	0.34553856
5	0x3e739711	0.23788096
6	0x3e8afb6e	0.2714495
7	0x3f177c8e	0.5917443
8	0x3e3e0a44	0.18558604
9	0x3f01ef8e	0.50756156
10	0x3eaf14a9	0.3419545
11	0x3e63e8c4	0.22256762
12	0x3f13b6d5	0.57700855
13	0x3f4d92ce	0.8030213
14	0x3e39a683	0.18129925
15	0x3e7a2381	0.24427606
16	0x3e18f639	0.14937676
17	0x3e414d8d	0.1887724
18	0x3e4e36fb	0.20138161
19	0x3e761112	0.2402995
20	0x3e1f0641	0.1552973
21	0x3faf69ba	1.370414
22	0x3efb3222	0.49061686
23	0x3e275d0c	0.16344088
24	0x3e9139de	0.28364462
25	0x3ea216f1	0.31658128
26	0x3e2ef121	0.17084171
27	0x3e1dba49	0.15403093
28	0x3e78d47b	0.24299805
29	0x3e5658b9	0.20932283
30	0x3e4ad56d	0.19807978
31	0x3f0fdbda	0.5619484
32	0x3e0a1909	0.13486113
33	0x3e891c5a	0.26779443
34	0x3df8ddc5	0.12151674
35	0x3ea88a70	0.3291812
36	0x3e201fad	0.15637083
37	0x3e5d47f3	0.21609478
38	0x3e87e732	0.26543576
39	0x3e115fcd	0.14196701
40	0x3ea15768	0.31511998
41	0x3e799768	0.24374163
42	0x3ea3b2c6	0.3197233
43	0x3ed98c47	0.42489836
44	0x3f016621	0.5054646
45	0x3ecb854c	0.39750135
46	0x3d93674b	0.07197436
47	0x3d841e4b	0.064510904
48	0x3ef45430	0.4772048
49	0x3e37eb58	0.1796087
50	0x3e83e679	0.25761774
51	0x3e8ccac9	0.27498463
52	0x3e71748d	0.23579617
53	0x3ea3a328	0.31960416
54	0x3fa59ce8	1.2938509
55	0x3ee350db	0.44397625
56	0x3e0a6efd	0.13518901
57	0x3e56a7d1	0.20962454
58	0x3e2e49ae	0.17020294
59	0x3ee50ee1	0.44737914
60	0x3e233ea2	0.15941861
61	0x3f5504e1	0.8321057
62	0x3ec8629c	0.39137733
63	0x3eca2615	0.3948218

lin.weight f4 [10, 64]
0	0xbf6c81a3	-0.9238531
1	0x3ec444e5	0.38333812
2	0x3f846186	1.0342262
3	0x3f1b478c	0.60656047
4	0x3f2a3d9f	0.66500276
5	0x3f255910	0.64589024
6	0x3c5ce0c1	0.01348132
7	0xbebcf15f	-0.36902902
8	0xbf01c5a0	-0.50692177
9	0x3f0281ce	0.50979316
10	0x3e699b0f	0.22813056
11	0x3f2156f2	0.63023293
12	0x3c90dff9	0.017684923
13	0x3ea3caf5	0.3199078
14	0xbf349d88	-0.70552874
15	0xbf1a89c3	-0.6036646
16	0x3e532a3c	0.2062158
17	0x3f4f839d	0.810602
18	0xbeac4c61	-0.33652022
19	0xbea37189	-0.31922558
20	0xbe864ee4	-0.26232064
21	0x3efbb405	0.49160782
22	0x3eee7618	0.46574473
23	0xbf2a49f9	-0.66519123
24	0x3f04b11c	0.5183275
25	0x3dc1da6f	0.09465491
26	0x3e842a5c	0.25813568
27	0xbf1966d4	-0.5992253
28	0xbf544378	-0.8291545
29	0x3dd196c0	0.102338314
30	0x3ea83a5e	0.3285703
31	0x3f110f4e	0.5666398
32	0x3e20f486	0.15718278
33	0x3e877247	0.26454374
34	0x3f393855	0.7235158
35	0x3e9d4ca2	0.3072253
36	0xbf2c70c0	-0.6735954
37	0xbd505e0c	-0.05087094
38	0x3db8cc53	0.09023347
39	0x3f348095	0.705087
40	0xbe5e748c	-0.21724147
41	0xbf3feb41	-0.74968344
42	0xbebcab30	-0.36849356
43	0xbf2627dc	-0.6490457
44	0x3e8d16b2	0.27556378
45	0x3f81f3cb	1.0152525
46	0xbd6f9f3f	-0.05850148
47	0x3cfc8a4b	0.030827662
48	0x3f706d68	0.9391694
49	0xbf0db0fd	-0.5534819
50	0xbf3f11f6	-0.7463678
51	0x3ee1db05	0.4411241
52	0xbef7a46d	-0.48367634
53	0x3f1bc3f6	0.6084589
54	0x3f00d4b5	0.50324565
55	0x3f1a8bbe	0.6036948
56	0xbf0dfd8d	-0.5546501
57	0xbdd71964	-0.1050289
58	0xbf50898c	-0.8145988
59	0x3edb15c1	0.42790034
60	0xbe9eafb7	-0.30993435
61	0x3e7dc82e	0.24783394
62	0xbe12b5f7	-0.14327227
63	0xbd3d8acf	-0.046274956
64	0x3f8b0582	1.0861056
65	0x3ebd536a	0.36977702
66	0xbd70d5ef	-0.058797773
67	0x3e97f2bd	0.29677382
68	0x3ee402ca	0.44533378
69	0xbee635b9	-0.44962862
70	0x3d6ed9f7	0.058313336
71	0x3f1b2337	0.6060061
72	0xbe74046c	-0.23829812
73	0xbf766a65	-0.96256095
74	0xbf215070	-0.6301336
75	0x3db9bf02	0.09069635
76	0x3f28f367	0.659964
77	0x3d317841	0.043327574
78	0x3fa3097f	1.2737273
79	0xbf0cc938	-0.54994535
80	0xbe69ea96	-0.22843394
81	0xbe97fb54	-0.29683936
82	0xbf01b02d	-0.5065945
83	0xbed077de	-0.4071645
84	0x3f4e8480	0.8067093
85	0x3ec81f57	0.3908641
86	0xbcbaf8cb	-0.022823712
87	0x3f1ea364	0.61968064
88	0xbf619211	-0.88113505
89	0x3ef2473a	0.47319967
90	0xbe543e35	-0.20726855
91	0xbea7a031	-0.32739404
92	0x3eac0077	0.33594105
93	0xbdf2fc64	-0.11864546
94	0xbf0a288b	-0.53968114
95	0xbeca65f0	-0.39530897
96	0xbef9e88b	-0.4881023
97	0xbf3174a5	-0.6931861
98	0xbf4834cb	-0.78205556
99	0x3f2cda77	0.6752085
100	0x3e912a1c	0.2835244
101	0x3f131ff5	0.5747064
102	0xbeada925	-0.3391811
103	0xbf043a47	-0.51651424
104	0xbeff151c	-0.49820793
105	0x3f900667	1.1251954
106	0x3efd9386	0.49526614
107	0xbf12f362	-0.5740262
108	0x3e007795	0.12545617
109	0x3e91c36a	0.28469402
110	0xbed91dc0	-0.4240551
111	0x3d9117e0	0.07084632
112	0xbf5ac1e4	-0.85452104
113	0x3ec81049	0.39074925
114	0x3faa9c84	1.3329015
115	0xbe70f3b1	-0.23530461
116	0xbf3d9177	-0.74050087
117	0xbef4556e	-0.47721428
118	0x3d91f2ae	0.071263656
119	0xbed01ce9	-0.40647057
120	0xbedb3c0f	-0.4281926
121	0xbf17affe	-0.5925292
122	0xbe8abacd	-0.27095643
123	0xbf44b247	-0.7683453
124	0x3f7e6bea	0.99383414
125	0x3f0868a6	0.5328468
126	0x3f0266a3	0.5093786
127	0x3e562bf4	0.20915204
128	0xbe5c7aeb	-0.21531264
129	0xbe6079d4	-0.21921474
130	0xbecb8fba	-0.39758092
131	0xbf8d046e	-1.1016977
132	0xbf580863	-0.843878
133	0x3e9d7878	0.30755973
134	0x3f0e6029	0.5561548
135	0xbcc44567	-0.023958875
136	0xbe4bdd09	-0.19908537
137	0x3bd0daa9	0.0063737226
138	0xbf19414e	-0.5986527
139	0x3eac1582	0.3361016
140	0xbfcd5dfe	-1.6044309
141	0xbf22047f	-0.6328811
142	0xbee34b42	-0.44393355
143	0x3f83a490	1.0284595
144	0x3f35bf46	0.70994985
145	0xbe60dc0e	-0.21958944
146	0x3edd00d0	0.43164682
147	0xbe40a401	-0.18812563
148	0x3ea53195	0.3226439
149	0xbf5ff7c2	-0.87487423
150	0xbcec9c88	-0.028883234
151	0xbe08c12e	-0.13354942
152	0xbf29209c	-0.6606538
153	0xbf905001	-1.1274415
154	0xbf88e81a	-1.0695832
155	0x3f940c93	1.1566337
156	0xbd9fa649	-0.07795388
157	0xbf44d62d	-0.76889306
158	0x3f31100d	0.69165117
159	0xbf900877	-1.1252583
160	0x3f8406d6	1.0314586
161	0x3cda3d02	0.026640419
162	0xbedfe300	-0.43727875
163	0x3ea4b8fd	0.32172385
164	0xbe0acf30	-0.13555598
165	0x3e4eccd9	0.2019533
166	0x3facb5f8	1.3493032
167	0x3e7722f5	0.24134429
168	0x3ecbadf9	0.39781168
169	0x3ea5d8db	0.3239201
170	0x3f869e02	1.051697
171	0x3e9170d3	0.2840639
172	0xbfee8289	-1.8633586
173	0xbe9917bc	-0.2990092
174	0x3de69329	0.11258537
175	0xbfa031d2	-1.2515204
176	0xbdd84f70	-0.105620265
177	0xbf39a9a5	-0.7252448
178	0x3d5203c4	0.051273122
179	0x3ebfe7d0	0.37481546
180	0x3de40d44	0.11135343
181	0x3f04f352	0.5193378
182	0xbf5044dc	-0.8135507
183	0xbfec2e24	-1.8451581
184	0x3f1f7992	0.62294877
185	0xbf5181d6	-0.8183874
186	0xbe1cc0d9	-0.1530794
187	0x3e61d7d0	0.22054982
188	0xbefd34f5	-0.49454466
189	0xbf4bfd75	-0.7968362
190	0xbedbcd93	-0.42930278
191	0xbee4fc78	-0.44723868
192	0xbea79def	-0.3273768
193	0xbf651420	-0.89483833
194	0xbf2db22d	-0.6785
195	0x3ba5b150	0.0050565377
196	0xbf99045d	-1.1954457
197	0x3e287ac4	0.16453081
198	0xbf0c5c24	-0.54828095
199	0x3f4c536b	0.79814786
200	0x3e3e53f9	0.1858672
201	0x3effce04	0.49961865
202	0x3e7aa0a6	0.24475345
203	0xbf4855b0	-0.7825575
204	0xbe6813c6	-0.22663793
205	0x3ec41a54	0.38301337
206	0x3e0e409c	0.13891834
207	0x3f09d0e8	0.5383439
208	0xbf01157f	-0.50423425
209	0xbf44942f	-0.7678861
210	0x3f749121	0.9553395
211	0x3f9af991	1.2107412
212	0xbf43d6fc	-0.76499915
213	0x3e83dcd5	0.2575442
214	0xbec90da2	-0.39268214
215	0x3f1f80c9	0.62305886
216	0x3f4ad557	0.7923178
217	0x3e9e7cfa	0.30954725
218	0x3f5eac82	0.86981976
219	0x3f09c663	0.5381834
220	0xbefaee73	-0.49010047
221	0xbee186a2	-0.4404803
222	0xbde38e1f	-0.11111092
223	0x3f030c49	0.5119062
224	0x3d21acc3	0.0394714
225	0xbe9df0e2	-0.30847842
226	0xbc178f88	-0.009250529
227	0xbf787ad4	-0.9706242
228	0x3f69fc1e	0.91400325
229	0xbea84000	-0.32861328
230	0xbed8e074	-0.42358744
231	0xbf31d63f	-0.6946754
232	0x3e09bb77	0.13450418
233	0xbf3b4570	-0.7315283
234	0xbe9446c4	-0.2896024
235	0x3f7c6df9	0.98605305
236	0x3f0b756e	0.5447606
237	0xbf771465	-0.96515495
238	0xbf3051a9	-0.68874604
239	0x3f6422b3	0.89115447
240	0xbdec1208	-0.11526877
241	0x3f6ac4a0	0.91706276
242	0xbeaa69c1	-0.3328381
243	0xbf427c92	-0.7597133
244	0x3f052e12	0.5202342
245	0xbe7f18fb	-0.24911873
246	0x3ec1481a	0.37750322
247	0x3e6ff354	0.23432666
248	0x3f87c1dc	1.0606036
249	0x3f8b06ff	1.086151
250	0x3e07a90d	0.13248082
251	0xbee05434	-0.43814242
252	0xbf37f591	-0.7185908
253	0x3df76f8a	0.12081821
254	0xbf01a7f4	-0.506469
255	0x3ef5ff5e	0.48046392

lin.bias f4 [10]
0	0x3dcbdb0e	0.09953891
1	0x3dbe54fb	0.092935525
2	0x3d9fd0a0	0.07803464
3	0x3d0c92ab	0.03431956
4	0x3d18a07f	0.037262436
5	0xbea85cf0	-0.32883406
6	0xbe9275ea	-0.28605586
7	0xbe5fbcdb	-0.21849386
8	0xbebfa8f0	-0.37433577
9	0xbe582c56	-0.21110663
