NCC_Code/Models/2022-07-13_23-00-38_model.pt (torch, 115275 bytes, 50 tensors)

conv1.weight f4 [8, 2, 5, 5]
000000 c6 91 c4 3c 85 08 11 3e 19 77 0d be 8f fe e2 3d
       0.023995291 0.14163406 -0.13814963 0.110837094
000010 63 ca d8 3e 9a 97 10 3d 85 65 21 3d 76 c0 f2 3c
       0.4234191 0.03530083 0.039403457 0.029632788
000020 f9 e8 1a 3e ae 94 4c bd 3d b9 b8 3c 92 61 1f be
       0.15127935 -0.04994648 0.022549266 -0.15564564
000030 e4 0e a9 be 4a 34 5c bd 24 66 0e 3e 85 30 85 be
       -0.33019173 -0.053760804 0.13906151 -0.2601358
000040 90 e6 0c 3e 62 6e 6e bd f6 90 bf be 62 b7 d8 bd
       0.13759828 -0.058210738 -0.37415284 -0.105818525
000050 24 52 a0 bd 40 50 45 bd 7e 3e be 3d b8 e5 e9 bd
       -0.07828167 -0.048172235 0.09289263 -0.114207685
000060 d7 69 46 be 7d 34 47 3e d6 9e 83 3e 01 bc 26 3e
       -0.19376312 0.19453616 0.2570712 0.16282655
000070 f5 85 80 3d 54 16 2e bd f8 2f 36 3d ad 1d 42 3e
       0.0627555 -0.042501763 0.04447934 0.18956633
000080 8d 87 19 3e 8d 9f 6e 3d 24 70 e2 3d 84 4b a8 3d
       0.14993115 0.05825763 0.110565454 0.082175285
000090 61 ef bc be df f0 24 bc e8 21 7a bd 1e 7a 0f be
       -0.36901382 -0.010067194 -0.06106749 -0.14011428
0000a0 b7 65 f9 be fc 36 eb be 93 95 d4 be 9a d5 41 bd
       -0.48710415 -0.45940387 -0.41520366 -0.047322847
0000b0 02 a7 90 be 9c 0f 22 bd 12 c6 15 be e5 c0 3e 3e
       -0.28252417 -0.039565668 -0.14626339 0.18628271
0000c0 ec 06 d8 3c c1 79 58 be 42 55 bd bd 6d 76 ce be
       0.026370488 -0.21140195 -0.09244777 -0.40324727
0000d0 ea 86 4a be 5d f9 8a be 9e e3 05 3e 87 63 0b be
       -0.19778028 -0.27143374 0.1307511 -0.13612185
0000e0 2b 28 80 be c8 a8 2d be 09 be 65 be d8 a0 93 bd
       -0.25030646 -0.16958916 -0.22435774 -0.07208413
0000f0 56 eb 15 bd 73 31 0a bc d8 c0 da 3d 11 7c 0b be
       -0.036601387 -0.008434641 0.10681313 -0.13621546
000100 09 69 de be 6b c5 fc 3c 41 7c 29 be b3 c1 b3 be
       -0.4343951 0.030855855 -0.16551305 -0.35108718
000110 33 a3 87 be 2f 3e 83 be a6 ec 3c 3e 45 e7 92 be
       -0.264917 -0.2563338 0.18449649 -0.2869207
000120 df d1 0a be 71 13 b4 bd fa a8 b1 be 80 02 61 bd
       -0.13556622 -0.08792771 -0.3469923 -0.054934025
000130 d2 96 c7 be 17 f0 ca bd a6 40 96 bc 81 02 c7 3e
       -0.38982254 -0.09909075 -0.018341374 0.38869098
000140 c6 62 c5 be f0 4e e0 bd a8 9d 44 bd b1 1f 68 be
       -0.3855192 -0.10952556 -0.048001915 -0.2266834
000150 fb 60 b7 3d 32 e4 8a be 38 86 10 be 0a 4f 11 3d
       0.089540444 -0.27127224 -0.141137 0.03547577
000160 02 15 c0 bc 53 ce 95 3e be f6 ca 3d 7b 6c 4d 3d
       -0.023447517 0.29258975 0.099103436 0.050152283
000170 95 87 71 3d 54 c8 2a be bf 51 08 3d d1 2b 56 be
       0.05896719 -0.16677982 0.033281084 -0.20915152
000180 fc d9 6a bc c0 87 de 3b a4 49 02 be c7 15 6f 3e
       -0.014334198 0.006791085 -0.12723404 0.23348151
000190 c9 a9 1b 3f 79 5e 2e 3f 84 9d c4 3d fe 36 27 be
       0.60805947 0.68112904 0.09600356 -0.16329572
0001a0 ae 74 b5 3d 5b 88 bd 3d 8a 8a 18 3e a1 66 04 3e
       0.088601455 0.09254523 0.14896598 0.12929775
0001b0 dc 2f be bd 79 69 c8 be 48 e9 0c be ee 85 86 be
       -0.09286472 -0.3914297 -0.13760865 -0.26274055
0001c0 ed d8 70 be ce 91 3a be eb 83 99 bd 6f 24 b5 3e
       -0.2352025 -0.18219683 -0.074958645 0.3537936
0001d0 87 d5 31 3d 24 33 7b be c1 76 3e be bb 41 9c be
       0.043416526 -0.24531227 -0.18599989 -0.30518898
0001e0 54 1b 85 3e a5 f1 3f 3e e6 d6 86 3d 0c 22 a8 3c
       0.25997412 0.18744524 0.065839574 0.020524047
0001f0 ae 2a 8e bc 5a 22 0b 3e 1d 85 a5 3e 16 54 5a 3e
       -0.017354336 0.13587323 0.3232812 0.21321139
000200 74 d6 07 3e 79 ff 31 be 85 59 b0 3d a0 9d 40 3e
       0.13265401 -0.17382611 0.086108245 0.18810129
000210 88 53 38 3e 85 9e cb bd 45 f0 9c bd 67 de 5f be
       0.18000615 -0.099423446 -0.07663015 -0.21862184
000220 c3 59 95 be fa eb 9d be 46 b7 7b be a2 53 1a be
       -0.29170045 -0.30844098 -0.24581632 -0.15070966
000230 57 b1 ff bb ca 00 49 3d 7f 37 f8 bd d6 43 8e be
       -0.007803123 0.049073018 -0.1211996 -0.2778613
000240 87 cf 92 bd f2 e9 f7 3e a3 55 e7 3e ba 51 c7 3c
       -0.07168489 0.48420674 0.45182523 0.024330962
000250 0e aa 21 be 38 13 85 be 04 b7 37 be a8 0f a5 be
       -0.15787527 -0.25991225 -0.17940909 -0.32238507
000260 80 b2 60 be bf 29 d6 bd b3 fe 2a be c7 9e ff bd
       -0.21943092 -0.10457181 -0.16698723 -0.12481456
000270 87 65 4f be e1 ae bb be 09 ea 29 be d5 4a 02 3e
       -0.20253573 -0.3665686 -0.16593184 0.12723859
000280 79 6a a1 bd 96 58 da bc 5f 4c b9 bc 87 28 05 be
       -0.07881636 -0.02665357 -0.022619424 -0.13003741
000290 43 52 81 be 35 c4 1b 3d 63 ba c0 3d 02 ac 49 3e
       -0.25258073 0.038028914 0.094105504 0.19694522
0002a0 87 7c 15 bd 7f 37 21 3e fb 62 8c 3e 94 42 93 3e
       -0.03649571 0.15743826 0.27419266 0.28761733
0002b0 14 e4 d9 bd 5e 5f 92 3e d0 10 ac 3e 83 fa 1b be
       -0.106392056 0.28588384 0.33606577 -0.15232281
0002c0 d8 1a 9b bd 57 98 1f be 31 cd 32 be b2 af 87 3d
       -0.075734794 -0.15585457 -0.17461087 0.06625308
0002d0 8d 63 ca bd 62 6f 86 be 68 3f bc bd d2 65 7c bd
       -0.09882269 -0.26256853 -0.09191781 -0.06162054
0002e0 d1 c2 b1 bd c1 c9 8a 3d a0 64 b7 be e5 7c a6 be
       -0.086797364 0.06776763 -0.35818958 -0.32517162
0002f0 3a 04 5b 3c 3e 47 02 be 90 55 eb bc 8d 50 04 3e
       0.013367707 -0.12722489 -0.028727323 0.12921353
000300 03 be 5c 3e d5 df 1a be 0a b0 7a 3e f3 fa c0 3d
       0.21556859 -0.15124448 0.24481216 0.09422865
000310 b2 b1 76 3e 30 e3 1a 3e 62 51 c7 3e 73 df 40 3e
       0.24091223 0.15125728 0.38929278 0.18835239
000320 e3 32 27 ba 34 7e 5f 3e 15 f4 da 3e 8e 05 9f 3e
       -0.0006378127 0.21825486 0.42764345 0.31058925
000330 61 57 36 bd 56 dc bb 3e b0 ed 61 3e bf e7 46 3e
       -0.044516925 0.3669154 0.22063327 0.19424342
000340 d8 93 48 bc 42 cc a6 bd 52 ab 44 3c ba 8b c9 bd
       -0.01224228 -0.08144428 0.012003737 -0.09841104
000350 75 81 a0 be 36 82 87 be 76 a8 9b bc 32 6e 1d be
       -0.31348768 -0.2646653 -0.019001227 -0.15374067
000360 3f e9 a6 bd 59 2b 28 3e 37 5c 2e bd 9b 98 54 be
       -0.08149957 0.16422786 -0.04256841 -0.2076134
000370 38 d9 d9 be 71 4e da bd 59 d3 30 bc de ca 2e be
       -0.42548537 -0.10659493 -0.010792577 -0.17069575
000380 ac d5 a5 be c3 99 de 3d 87 8b 88 3d df 8d 30 3e
       -0.3238958 0.108691715 0.06667238 0.1724162
000390 76 ca 88 3e f0 1d 31 3f f7 2c 94 3d b0 a7 c8 3d
       0.26716965 0.69186306 0.07235139 0.09797609
0003a0 40 9e a2 3b e7 37 8c 3d 46 d1 0b bb c7 88 d8 bd
       0.0049627125 0.068466 -0.0021334453 -0.10572963
0003b0 f5 bf a5 be d9 db 51 3d 0e ca 3d 3e 71 55 98 be
       -0.32373014 0.051235054 0.18534109 -0.29752687
0003c0 a8 f3 81 3b 80 fd dd bd 9c 64 ab 3c 2b c4 ca bd
       0.0039658137 -0.10839367 0.020921998 -0.09900697
0003d0 e4 9a 02 be 61 60 ec bd 62 a0 06 bf 77 2d 5f be
       -0.12754399 -0.1154182 -0.52588475 -0.21794687
0003e0 f1 0b 8d bd 30 bc d8 bd f5 72 23 3d 74 08 c9 bb
       -0.06887043 -0.10582769 0.039904553 -0.006135041
0003f0 75 8c 0a be cb c4 ee bd e0 ef d5 be 47 5f af 3e
       -0.13530143 -0.11658629 -0.41784573 0.34252378

conv1.bias f4 [8]
000000 92 d1 59 be 79 1a 29 3d d2 d2 81 be 16 d8 92 3e
       -0.21271351 0.041285012 -0.25356156 0.28680485
000010 02 e9 aa 3d 3b 35 b7 be f4 24 79 3d f9 d9 8c be
       0.08345224 -0.357828 0.060826257 -0.2751005

bn1.weight f4 [8]
000000 48 45 56 3f 4f 1a 1a 3f b1 2b 84 3f d1 e3 45 3f
       0.83699465 0.60196394 1.0325834 0.77300745
000010 b8 d9 51 3f 52 fa 6d 3f c6 53 3e 3f b6 c8 a2 3f
       0.8197284 0.92960083 0.7434658 1.2717502

bn1.bias f4 [8]
000000 90 bf 1e 3f fa 86 87 bc d8 5f cf be aa b6 a6 bd
       0.6201105 -0.016543854 -0.4050281 -0.08140309
000010 ea 03 b9 bd 8b 6e 34 bf b0 25 fd bd c5 30 b9 be
       -0.0903395 -0.70481175 -0.12360704 -0.3617002

bn1.running_mean f4 [8]
000000 b7 a7 0a 3f ad 1e c3 3f 3a d9 d9 3e fa 8b 28 3f
       0.5416216 1.5243737 0.42548543 0.6583859
000010 68 47 05 3f 9d 83 44 3f 13 c9 01 40 7c 7d 2a 3f
       0.5206208 0.76763326 2.0278976 0.66597724

bn1.running_var f4 [8]
000000 f9 f2 3a 3f 08 04 93 40 e7 f7 67 3f 89 7a 48 3f
       0.73026997 4.594242 0.90612644 0.78311974
000010 d6 c9 14 3f cb 5f 0b 40 d0 19 02 41 7c 70 f1 3f
       0.5812048 2.1777217 8.131302 1.8862453

conv2.weight f4 [16, 8, 3, 3]
000000 11 2c 2f be 24 b9 6c be 81 80 14 be b6 01 5d be
       -0.17106654 -0.231175 -0.14502145 -0.21582684
000010 56 d5 08 bd 4c 52 53 3c 13 81 17 be c4 28 af be
       -0.033406578 0.012898039 -0.14795332 -0.3421079
000020 1f a6 f5 bd 4b 83 16 3e 28 bf aa 3e a9 66 75 3d
       -0.11994576 0.14698522 0.33348966 0.059912357
000030 ed 85 f2 3d df e6 a8 bd ef 8b f0 bc 1e 4e 8f 3d
       0.118419506 -0.0824716 -0.0293636 0.069973215
000040 5a f1 29 3e df aa 56 be 31 73 33 3e 1a 9a 97 3e
       0.16595975 -0.2096362 0.17524411 0.29609758
000050 72 ab 4d 3e 60 c1 f9 bd 42 63 8d be 34 ed f8 bd
       0.20084932 -0.121950865 -0.2761479 -0.12154618
000060 7f 2d 8d 3d 25 56 24 3e 48 d8 bd 3d 8f 69 67 be
       0.06893443 0.16048487 0.09269768 -0.22598861
000070 f7 e2 99 bd 82 46 9f bd 5a 57 2d be 81 79 3f bd
       -0.07513993 -0.0777712 -0.16927853 -0.046746735
000080 b0 82 9a be a5 6e 0e be e9 3e 24 3d 56 a0 42 3c
       -0.30177832 -0.13909395 0.04009906 0.011879047
000090 6a 0c e2 bd af a9 ad bd a0 60 99 3d 30 cb 38 be
       -0.11037524 -0.0847963 0.07489133 -0.1804626
0000a0 42 f6 1e bd fb 4f 9f b8 d1 d2 95 bd a8 70 8c 3d
       -0.03880907 -7.596608e-05 -0.07315601 0.06857425
0000b0 8d 32 92 bd 95 da b3 3e c1 83 51 3e 62 18 98 3e
       -0.07138548 0.35127702 0.20460416 0.29706103
0000c0 96 04 ab bc 34 fa 0f 3e db 6a a1 3d 31 86 d8 bd
       -0.02087621 0.14060289 0.07881709 -0.1057247
0000d0 aa 72 37 be fb 30 e6 bc b6 2a f1 3d 7c 31 93 be
       -0.17914835 -0.028099528 0.117757246 -0.2874869
0000e0 d9 a0 2d 3e b1 33 80 3e 28 3b 6c 3e d9 61 15 3e
       0.1695589 0.25039437 0.23069441 0.14588107
0000f0 8e e9 be 3c db 2f 06 be d7 e1 d9 3d 84 72 8e 3e
       0.023304727 -0.13104193 0.10638779 0.27821743
000100 15 0d e3 3e ef 36 9d 3e fa 90 38 be 95 ee 9d bd
       0.44345918 0.30705974 -0.18024054 -0.077115215
000110 95 53 de bc ed 6d 86 be 5d d0 b3 be 42 fe bf be
       -0.027139464 -0.26255742 -0.35119906 -0.3749867
000120 66 b3 86 3d 92 83 aa be 73 e7 9c be 40 0b f1 3d
       0.06577186 -0.33303505 -0.30645332 0.11769724
000130 b3 36 89 bd 51 e8 96 be 78 77 55 3d bb 91 ac be
       -0.06699886 -0.29474118 0.052115887 -0.33704934
000140 a3 cd 13 be 0b 5c 96 be b8 11 61 3e 5c f8 8d 3e
       -0.14433913 -0.29367098 0.21979415 0.27728546
000150 91 4d f9 be ab 6c f6 3d c3 49 3c be 75 b9 b0 bd
       -0.4869199 0.120324455 -0.18387513 -0.08629123
000160 dc 02 51 be 16 de 9b 3e c4 ea 02 3e 3b 09 85 3e
       -0.20411247 0.30442876 0.12784868 0.25983605
000170 25 77 3d 3e d9 aa d3 3c 3c c5 1c 3e e5 84 69 3d
       0.18502481 0.025838302 0.15309614 0.057011504
000180 ca b1 9d 3e 29 70 d7 3e 19 ba 0c 3e a1 1e 77 3e
       0.30799705 0.4207776 0.13742866 0.24132778
000190 31 1b 20 3f c6 4f 84 3d 2e 5d bf bd 3a 77 c8 bd
       0.6254149 0.06460528 -0.093439445 -0.09788366
0001a0 7b c9 42 be df 40 60 bc c9 09 f1 3c 70 cd 23 be
       -0.19022171 -0.0136873415 0.029423611 -0.15996337
0001b0 e2 9b 45 be 77 8b 14 be 00 e7 2f be 20 52 08 bf
       -0.19297746 -0.14506327 -0.17177963 -0.5325031
0001c0 2a 95 0a bf af 77 e0 bd 6a 5c 44 bd 2d db b3 3d
       -0.54133856 -0.10960328 -0.047939695 0.08782039
0001d0 22 77 b1 3e f5 5b aa 3d 2c d1 26 3e cd 57 b0 3d
       0.34661204 0.08318321 0.1629073 0.08610497
0001e0 b2 2e a3 be f3 e4 7f 3c af 01 51 be 1a a3 00 bc
       -0.31871563 0.015618551 -0.20410798 -0.007851386
0001f0 c7 24 c1 bd f3 a2 9f bd 57 62 0b be 10 df 11 3e
       -0.09430843 -0.07794752 -0.13611732 0.14245248
000200 ce d8 85 3e cc 3c 40 3c db 67 24 be ac 1f 12 3e
       0.2614197 0.011733245 -0.16055243 0.14269894
000210 3f 63 b8 bd d9 02 a5 3d 59 a8 54 3e fc d4 34 bc
       -0.09003305 0.08057184 0.20767345 -0.011037108
000220 26 42 c0 3e 74 77 bc 3e ba c6 1e bd a6 80 93 bd
       0.37550467 0.36809886 -0.03876374 -0.07202272
000230 1a 05 6d 3e 90 1b a6 3d 18 66 c9 be f4 12 e6 3d
       0.23146477 0.08110726 -0.39335704 0.11234084
000240 c9 ab 81 bd 65 27 7e 3d 47 c6 9d bc 28 e6 62 be
       -0.063315935 0.06204929 -0.019259585 -0.2215811
000250 dd b0 6c be d9 4c c5 3d b2 da ed 3d 26 a3 c0 3d
       -0.23114343 0.09633798 0.116139784 0.09406118
000260 20 35 1b 3e 0a 6c b6 3d 24 d9 5b be ea 4b 1e 3e
       0.15156984 0.089073256 -0.21469551 0.15458646
000270 12 e8 90 bd d0 b7 93 3e 1c 3f 81 3b da 4b d8 3c
       -0.07075514 0.28851175 0.003944291 0.026403356
000280 7a 5e 8c 3d 4b e0 96 bd 3c ee 64 be 57 7b 90 be
       0.068539575 -0.07366999 -0.22356504 -0.282191
000290 51 17 ce bd 74 ac 4f be 8c f2 50 be 8d 48 09 be
       -0.10063041 -0.2028063 -0.20405024 -0.13406582
0002a0 7b 5b a3 be 52 c5 cd be 56 a6 b6 be 0b 16 17 3e
       -0.31905732 -0.40189606 -0.3567378 0.14754502
0002b0 24 a1 63 bc ce 2e 9b bc 44 5b 47 3e 8f f3 0f bd
       -0.013893399 -0.018943217 0.19468409 -0.035144385
0002c0 b2 43 8d 3e 97 85 42 3c e3 d4 b9 bd 14 2e d4 bd
       0.2759071 0.011872671 -0.09073808 -0.10360351
0002d0 25 e9 63 bd b3 02 f6 bd 05 86 72 ba 86 2c cb be
       -0.055642266 -0.120122336 -0.0009251538 -0.39682406
0002e0 f5 21 89 be fa a1 af be 3f 52 00 be c0 61 cd be
       -0.2678372 -0.34303266 -0.12531374 -0.4011364
0002f0 3f 29 ff be c8 2b af bd 23 a1 03 3e b9 da 86 3d
       -0.49836156 -0.085532725 0.12854438 0.06584687
000300 5a 05 cc 3c 02 59 ee 3d 80 10 b3 3d 3f ef c2 3e
       0.024904896 0.11638071 0.087433815 0.38073155
000310 47 d1 c5 3d c5 7d 16 3c dd 7b d1 bd c4 da ee bd
       0.09659057 0.009185259 -0.10228703 -0.1166282
000320 54 fb ff bd 4e 0e f4 bd 0d 6f 12 3d 27 ae 94 bd
       -0.12499109 -0.11916791 0.035750438 -0.072597794
000330 8a 5c ef bd ee a2 84 3e b1 15 db be ed ea 5b be
       -0.11687572 0.25905555 -0.42789987 -0.21476336
000340 04 e8 80 bd 47 f7 8a bc ab 2e 2d be 86 a0 d7 bd
       -0.062942535 -0.016963614 -0.16912334 -0.10528664
000350 65 2b 81 be a1 d0 a4 3d d3 7d 28 be 54 6e e6 bc
       -0.2522842 0.08047605 -0.16454248 -0.02812878
000360 e6 45 31 3d 88 55 1c be 02 9c 89 be 73 36 05 be
       0.04327955 -0.15267003 -0.26876837 -0.13009052
000370 aa cc 80 be b1 c5 27 3e 6a 6b 3a bd 3c ed 46 3e
       -0.25156146 0.16384007 -0.045512594 0.19426435
000380 32 98 61 3d e0 e7 b1 3e 9a 8d 9e be a1 46 0e 3d
       0.055076785 0.3474722 -0.30967408 0.034735326
000390 89 db a3 3b 1a 24 b3 be d8 83 a4 be aa 81 90 be
       0.005000536 -0.3498848 -0.3213184 -0.28223926
0003a0 d5 10 79 be 13 a3 a8 3d 41 b3 2b be e0 68 ce 3d
       -0.24322827 0.08234229 -0.16767599 0.10078597
0003b0 d1 37 05 be f5 f7 80 3e 1d ce 9f 3d 33 a3 53 be
       -0.13009574 0.25189176 0.07802985 -0.20667724
0003c0 8c ff 71 bd e1 7e 4c be 86 36 02 be a2 ca 96 3e
       -0.0590816 -0.19970275 -0.12716112 0.29451472
0003d0 16 7e 6d ba 57 e3 5a be 4a b7 5d bd cf fa 7e be
       -0.0009059621 -0.21375786 -0.054129876 -0.24900363
0003e0 34 d4 fe bd fb 7c b1 3e 14 54 02 bd f4 96 ea 3d
       -0.12442818 0.34665665 -0.031818464 0.11454573
0003f0 98 d3 b7 bd 50 00 9e be 41 cd bb bc 71 c7 95 be
       -0.08975905 -0.30859613 -0.022925021 -0.29253724

conv2.bias f4 [16]
000000 03 79 9c be 87 41 98 bd af 3c e9 3e a0 b1 c6 3d
       -0.30561075 -0.07434373 0.4555411 0.09701848
000010 40 05 0b bf 0a 5e ae be 39 eb c1 be b0 95 c6 3e
       -0.54304886 -0.3405612 -0.37874773 0.38786077
000020 aa 06 bc be 2b 82 d2 be d3 a1 c8 bd 95 b9 81 bd
       -0.36723834 -0.41114935 -0.097964905 -0.06334225
000030 88 72 4d 3e 88 89 3e bd d1 cf ba be e6 de 71 be
       0.20063221 -0.04651788 -0.36486676 -0.23620185

bn2.weight f4 [16]
000000 ee b7 74 3f 1e a0 62 3f 73 be 7b 3f e7 0b 25 3f
       0.95593154 0.8852557 0.9833748 0.64471287
000010 fd e7 9b 3f 17 8d 8d 3f 36 70 a5 3f a5 6e 7f 3f
       1.2180172 1.1058682 1.2924869 0.99778205
000020 89 96 7a 3f 63 d6 7d 3f dd c4 57 3f 0b 59 54 3f
       0.9788595 0.99155253 0.84284765 0.8294837
000030 e9 54 63 3f c6 1b 6d 3f bd 9d 4d 3f 5f 40 80 3f
       0.8880144 0.92620504 0.80318815 1.0019644

bn2.bias f4 [16]
000000 6b 27 ac 3e 5e 0c 06 bf 43 71 07 3d 5f 9a 79 be
       0.33623824 -0.5236262 0.033067 -0.24375294
000010 3a 91 ec be fe 9f 38 bd 6d 14 da be 9a 7d b0 bd
       -0.4620455 -0.045074455 -0.4259371 -0.086177066
000020 7e f7 85 3d da 39 1c 3e 33 93 ea be cf 58 53 be
       0.06541346 0.15256444 -0.4581543 -0.20639347
000030 bf 73 21 3f e2 77 81 be 55 97 e3 be 2d 70 32 3b
       0.6306724 -0.25286776 -0.44451395 0.0027227507

bn2.running_mean f4 [16]
000000 fb 64 05 3e 1a 50 7b 3e 05 b8 e3 3f e4 01 3b 3f
       0.13026802 0.24542275 1.7790533 0.7304976
000010 1f f6 c3 3d c0 cb 99 3d 90 1b 3f 3e 0d e9 c2 3f
       0.09568428 0.07509565 0.18662858 1.5227371
000020 09 8d 9b 3e 8d b7 9e 3d bf 7f ae 3f 4a 3e ee 3e
       0.3038104 0.07749853 1.3632735 0.46531898
000030 22 5e e5 3e 0f 93 4f 3e c2 b9 05 3e 98 1f 3b 3e
       0.4479838 0.20270942 0.13059142 0.18273771

bn2.running_var f4 [16]
000000 2a 84 d2 3e 2f d6 52 3f 8c b8 df 3f c7 65 11 3f
       0.41116458 0.8235807 1.7478194 0.56795925
000010 06 5d b8 3e 3f 8d 4c 3e e1 0a 51 3f f0 f9 a4 3f
       0.3600847 0.19975756 0.81657225 1.2888775
000020 9f 01 f5 3f c0 0e 52 3e 85 c0 b4 3f 88 48 ba 3f
       1.914112 0.20513439 1.4121252 1.4553385
000030 28 4b dd 3e 28 e7 17 3f ea ea dd 3e 77 f0 03 3f
       0.43221402 0.5933709 0.43343288 0.51538795

conv3.weight f4 [32, 16, 3, 3]
000000 2f ba 07 be 08 1e 27 be 12 f5 49 bd fb ff cf bd
       -0.13254617 -0.1632005 -0.049305983 -0.10156246
000010 5c ef 92 3e e9 06 62 3c b7 d7 2d be 9f e0 f2 bd
       0.28698242 0.013795593 -0.1697682 -0.11859249
000020 98 7a 20 3d c6 10 df 3d 47 6d 8d 3d f5 71 71 be
       0.039179415 0.10891871 0.069056086 -0.23578627
000030 df 58 1a 3c b1 39 92 3d 0b 1b 01 3b 98 61 a6 bd
       0.009420603 0.0713991 0.0019699957 -0.08124083
000040 c0 9c a0 be 07 99 73 bd 3b 05 a8 3d 86 81 43 be
       -0.3136959 -0.05947211 0.08204123 -0.19092378
000050 40 c2 01 be 76 d4 4c 3d 00 36 93 3d 95 4a 83 3e
       -0.12671757 0.050007306 0.07188034 0.2564284
000060 88 21 81 be 7a ff bf bd 5e 1c 6b 3d 48 f2 52 3c
       -0.25220895 -0.093749 0.0574001 0.012875147
000070 d0 85 4f 3c c8 8e eb bd 42 b4 a8 3d 51 38 29 be
       0.012666181 -0.11501843 0.082375064 -0.16525389
000080 40 a1 a4 3d bc 32 8a 3e 18 b6 5b 3e 7f 35 bc 3d
       0.080385685 0.26991832 0.21456182 0.09189891
000090 51 d6 bc 3d 48 fc 1b be 31 5d 17 be 0e f3 93 3c
       0.09220565 -0.15232956 -0.14781643 0.018060233
0000a0 53 43 16 bd 25 27 91 be fa 50 a0 3e b1 3c 81 bd
       -0.0366853 -0.28350177 0.3131178 -0.06310404
0000b0 d9 85 f4 bd 72 8d 55 3c 8c 28 26 be c5 5e 6d be
       -0.11939592 0.0130342115 -0.16226405 -0.23180683
0000c0 6f 82 44 3d 34 32 1e bc 5e 29 ef bd a2 b1 96 3d
       0.047975954 -0.009655524 -0.11677812 0.073580995
0000d0 2a 49 06 3d 27 07 94 bd 34 61 85 be 7e 1d 8e 3d
       0.03278462 -0.07227927 -0.26050723 0.06939219
0000e0 3f 07 b9 3e 62 ab 9d bd 51 f0 91 bd 7e 20 9d 3d
       0.3613834 -0.07698704 -0.07125915 0.07672213
0000f0 b2 b8 2b bd b1 11 19 bd a7 7f 62 bd c7 3b 5a be
       -0.041924186 -0.037370387 -0.05529752 -0.21311866
000100 6b e6 51 3e 6f 8c 9d 3e 1a 05 0a 3e 17 d6 98 3d
       0.20498054 0.30771205 0.13478509 0.074627094
000110 77 da 12 3e d0 b5 16 bd 8c fb cc 3d 21 51 41 be
       0.1434115 -0.036794484 0.10008916 -0.18878604
000120 5e 1a 24 be 94 2e 8d be 29 91 d7 bd a1 45 29 be
       -0.16025683 -0.275746 -0.10525734 -0.16530468
000130 70 09 c3 bd 5c d8 a3 3e 8d c8 40 bd 64 23 91 bd
       -0.095232844 0.32001007 -0.04706626 -0.07086828
000140 44 e7 4d be 0e 6b ac bd 88 e8 cd bd 07 9a 15 bd
       -0.20107752 -0.084188566 -0.100541174 -0.036523845
000150 b1 1d 6a bd 29 96 3b be ad ba 00 be 73 2c 13 be
       -0.057157222 -0.18319 -0.12571211 -0.14372425
000160 41 4f 76 bd 92 10 6e be 81 0f c9 3c 52 92 ba 3c
       -0.060134176 -0.23248509 0.024543526 0.02277485
000170 c0 6e e7 3b c9 96 e3 3d fd e6 15 3e 58 2e a7 3d
       0.007062763 0.11112744 0.14638896 0.08163136
000180 52 61 0a 3e 40 6d c4 3d eb 4c f0 3c d6 54 fb bc
       0.13513687 0.0959115 0.029333552 -0.030680101
000190 f4 92 8c be 4d 19 bf be dd 4b 15 3e 6b 0b e1 3c
       -0.27455866 -0.3732399 0.14579721 0.027471265
0001a0 9b bf 99 3e 01 d8 8d 3e 11 a4 e2 3e ae 31 aa 3e
       0.30028996 0.2770386 0.44265798 0.33241028
0001b0 fc 68 22 bd a7 60 b6 3d 61 e9 0f 3e 09 3b a5 3d
       -0.039650902 0.08905154 0.1405387 0.08067901
0001c0 18 6b 52 3e 21 6b cd bd 00 f8 32 be da b3 77 be
       0.20548666 -0.10030199 -0.17477417 -0.24189702
0001d0 08 90 10 be c3 f2 2e 3e 9c 2d 23 3e 9f 8e ca bd
       -0.14117444 0.17084794 0.15935367 -0.09890484
0001e0 37 67 fd 3d 0f 99 70 bb ae cb 05 bd 19 ad fd 3d
       0.12373202 -0.0036712324 -0.032664947 0.123865314
0001f0 ab 3c cb 3d 64 0c 95 bd 4b 59 26 be e6 28 4e 3d
       0.09923681 -0.07277754 -0.16245 0.050331973
000200 85 ac 13 bc d9 b8 99 3c 3b 50 07 3e c6 17 87 3e
       -0.0090133 0.0187649 0.13214199 0.26385325
000210 09 d3 c7 bd 0c 2b 2a ba cb 03 0e 3d 42 fc ae bd
       -0.09757049 -0.00064914 0.034671586 -0.08544208
000220 a4 8f 09 bf 5c ac e0 be 7b 8f 85 bd af a0 89 3c
       -0.53734803 -0.438815 -0.06521507 0.016800253
000230 93 b9 50 3e 8b bd 35 3e d1 2e 71 3e 21 ab 02 3e
       0.20383291 0.17748086 0.23553015 0.12760593
000240 6b 5b 56 3e c8 f4 6e be 82 00 b7 be 39 db 84 3e
       0.2093331 -0.23335564 -0.35742575 0.25948504
000250 ab 39 18 be 54 a3 49 be f5 bf 8a 3e b2 7c 09 be
       -0.14865749 -0.19691211 0.27099577 -0.13426474
000260 ea df 9d 3d dd 40 5a be aa a3 4f be d0 98 cc be
       0.07708724 -0.21313806 -0.20277277 -0.39960337
000270 2a bb 86 3a e5 2b be be 00 2e 22 be ee 69 0a bd
       0.0010279168 -0.37142864 -0.1583786 -0.03379243
000280 bb fd 54 be e5 32 10 3d d6 bb ae 3d a6 f1 98 3e
       -0.20799915 0.035204787 0.085319206 0.29871863
000290 08 61 a1 3d a6 2c 00 be d0 cd 07 3d b4 30 ec bd
       0.07879835 -0.12517032 0.033155262 -0.11532727
0002a0 1d 71 a9 3d 2d 0c 6e 3d f5 0c 7f 3d 8c 19 0a be
       0.08273528 0.05811708 0.062268216 -0.13486308
0002b0 f5 8a 87 3d 11 3a 76 3d ec b8 13 be 2b a1 cb bc
       0.06618301 0.06011397 -0.14426011 -0.024857124
0002c0 40 c2 13 bd 83 c9 7a bc aa 86 43 be a8 dd 3b 3c
       -0.036073923 -0.015306833 -0.19094339 0.011466421
0002d0 aa dd 4b 3e f3 03 3c be 69 90 51 3c 71 b8 d7 bd
       0.19908777 -0.18360882 0.012790778 -0.10533226
0002e0 d8 7a dc 3b e5 5e 02 3e 38 98 62 bd a0 e7 0d be
       0.0067285113 0.12731512 -0.05532095 -0.13857889
0002f0 bf d6 2b 3d 8a 72 10 3e fe 21 d4 bc 45 3e 16 3e
       0.041952845 0.14106193 -0.025895115 0.14672191
000300 0c 18 19 bd 84 95 35 be 39 43 f8 3b ce f6 27 3d
       -0.03737645 -0.17732817 0.007576373 0.041006856
000310 38 f6 6b 3d cc 58 9b ba df a5 96 bd 0d ee 17 be
       0.05760786 -0.0011852025 -0.07355856 -0.14836903
000320 b4 c0 5a bd 99 ff 69 bd 3c bd ae be 58 e6 26 be
       -0.053406432 -0.057128523 -0.3412875 -0.16298807
000330 3c 2c e8 bd 15 2c 99 be c5 11 7b bd 6c 68 c7 3d
       -0.11336562 -0.29916444 -0.061296243 0.09736714
000340 66 7f 8b bd 0c d8 59 3e e2 c2 40 bb 83 97 97 bd
       -0.06811409 0.21273822 -0.0029413034 -0.074019454
000350 cf 5e 0e 3e a0 47 f8 3d 5e 0f 00 be ba 2e 7f 3c
       0.13903354 0.121230364 -0.12505862 0.015575105
000360 8b 07 9b bd 92 54 02 bf 45 33 d5 bc ce 56 40 bd
       -0.07569798 -0.50910294 -0.026025424 -0.046957783
000370 9a 0c 22 be 78 f9 a7 3e e6 ff 1a be 9a c3 e6 be
       -0.1582512 0.32807517 -0.1513668 -0.45071107
000380 39 33 e9 3d bd 2b 00 3d a2 e5 c1 bc 8c 17 a1 bd
       0.11386723 0.031291712 -0.023669068 -0.07865819
000390 a6 a3 4b 3e 52 5a 7a 3c b8 49 b7 bd 48 1e 68 3e
       0.19886646 0.015280323 -0.089496076 0.22667801
0003a0 32 41 e4 bd f0 ef 86 3e f7 40 98 3c fd e6 28 3d
       -0.111452475 0.26354933 0.018585665 0.041235913
0003b0 ff c0 38 bd f6 36 39 be 8b 85 a9 bd 43 48 eb 3c
       -0.04510593 -0.18087372 -0.082774244 0.02872098
0003c0 d9 97 1f be ac b1 06 bd 8b 21 92 bd b2 0d b2 3d
       -0.15585269 -0.032884285 -0.07135304 0.086940184
0003d0 26 f2 b6 bd b6 71 68 be fe 3c 48 3d 88 8a 0c be
       -0.08932905 -0.22699627 0.04888629 -0.1372472
0003e0 b3 89 2f 3d 82 f2 70 be 55 22 85 bd d5 19 b0 bc
       0.04285593 -0.2353001 -0.06500689 -0.021496693
0003f0 f3 34 8b bd 72 39 00 be 96 39 2b 3d ef c9 52 be
       -0.06797209 -0.12521914 0.041802965 -0.20584844

conv3.bias f4 [32]
000000 b7 d5 d9 be 6a 9a aa bd f7 49 d7 be 5b 85 23 bf
       -0.42545864 -0.083302334 -0.42048618 -0.6387536
000010 69 b5 85 be 6b 00 33 be 2a 92 a9 be 3b ee d1 be
       -0.26114967 -0.17480628 -0.33119327 -0.41002068
000020 3d 56 c2 be 58 4c 79 be b1 e0 f0 bd 08 cd 25 3e
       -0.3795642 -0.24345529 -0.117616065 0.16191494
000030 c3 a2 6c bd c2 2d 89 be ae 9e 91 be 6f d2 61 be
       -0.05777241 -0.26792723 -0.28441375 -0.2205293
000040 06 51 49 be 7d 45 7b be f7 ca 48 be 87 f0 6f be
       -0.19659814 -0.24538226 -0.19608675 -0.23431598
000050 d2 e7 86 be a1 65 e7 be 31 c1 fd be a3 74 93 be
       -0.2634874 -0.45194724 -0.49561456 -0.28799924
000060 8a f3 cf be 51 d5 c7 be 0b be 13 be 75 62 01 bf
       -0.40615493 -0.39029935 -0.14427964 -0.5054086
000070 76 f7 1b be 28 a9 26 be 6b 1a 92 be b1 41 8c be
       -0.15231118 -0.16275465 -0.2853578 -0.2739387

bn3.weight f4 [32]
000000 27 a6 75 3f 16 99 5a 3f 2f fe 83 3f 64 c1 94 3f
       0.95956653 0.8538984 1.0311946 1.1621518
000010 1a 9d 67 3f 17 1b 83 3f 46 17 4f 3f 69 40 98 3f
       0.9047409 1.0242642 0.8089489 1.1894656
000020 9c ed 54 3f e9 1c 1a 3f 08 be 82 3f 5f 69 47 3f
       0.83175063 0.60200363 1.0214243 0.7789516
000030 fc 9a 57 3f 88 76 78 3f 17 bf 7a 3f 53 a8 7c 3f
       0.8422086 0.97055864 0.9794783 0.9869434
000040 0d cd 53 3f 43 af 80 3f aa 21 6d 3f 67 3f 56 3f
       0.8273476 1.0053486 0.9262949 0.83690494
000050 96 00 65 3f fe df 77 3f 69 ed 78 3f 33 f5 8e 3f
       0.8945402 0.9682616 0.9723726 1.1168579
000060 ce fd 65 3f f5 2d 70 3f 1a 6c 90 3f 69 fd 9f 3f
       0.898404 0.93820125 1.128299 1.249921
000070 0a 25 45 3f ca e8 88 3f e1 d4 94 3f 2d 90 75 3f
       0.7700964 1.0696042 1.1627465 0.9592312

bn3.bias f4 [32]
000000 b5 5b b1 3e c2 56 89 be 94 91 40 3b d2 cb ec 3e
       0.3464028 -0.26824003 0.0029383646 0.46249253
000010 91 a6 24 bf fd 12 82 3e 25 c2 23 bf 05 a4 dd be
       -0.6431666 0.25405112 -0.63968116 -0.432892
000020 a2 90 9f bd 76 1e 20 bd f2 aa 84 3d 9b 63 3f 3e
       -0.077912584 -0.03909155 0.06477918 0.1869034
000030 a9 ca 12 3f 17 d0 2a be 83 55 f2 be 27 e7 54 3e
       0.57340485 -0.16680942 -0.47330865 0.20791303
000040 42 67 1b 3f 26 10 aa be 3b 47 e2 be 5d c3 8d 3c
       0.60704434 -0.33215445 -0.4419497 0.01730507
000050 06 e8 24 bf 3f 5e 09 bc 7b bf c0 bb fc 90 21 3b
       -0.6441654 -0.008384286 -0.0058822013 0.0024653068
000060 b9 73 6e 3d 78 1d 10 3f 0a 9b 98 be fd a0 07 be
       0.05821583 0.56294966 -0.29805785 -0.13245006
000070 6e 4a 9c be 48 d1 a0 be 05 89 2a 3f f7 88 4e 3f
       -0.30525535 -0.3140967 0.66615325 0.8067774

bn3.running_mean f4 [32]
000000 4b 41 34 3e b6 49 1e 40 c2 65 74 3e 91 62 d5 3d
       0.17603032 2.473249 0.23866943 0.10419191
000010 b9 c7 bb 3e fe c0 31 3e 3d 23 86 3e 83 4b 1d 3e
       0.36675814 0.17358777 0.2619876 0.15360837
000020 70 dd da 3e 73 73 44 3f d2 d5 79 3e 98 0c 02 40
       0.42747068 0.7673866 0.24397972 2.0320187
000030 47 59 4f 3e d6 63 b3 3e 3e 1f c2 3e f5 67 ed 3e
       0.202489 0.35037106 0.3791446 0.46368375
000040 7f 17 8f 3d 74 88 85 3e bf fd d8 3e b3 33 7d 3e
       0.069869034 0.26080668 0.42381093 0.24726753
000050 ae 1a 92 3f 12 84 48 3e 5b 82 12 3e b0 fb 57 3e
       1.1414392 0.19581631 0.14307539 0.21092105
000060 ca 30 2d 3e f3 21 7c 3e 76 6a 86 3e a2 f3 f1 3e
       0.16913143 0.24622326 0.26253098 0.4725619
000070 39 1c 92 3e 84 b0 b1 3e 77 22 4e 3e 54 3f 02 3e
       0.28537157 0.34704983 0.20130335 0.1271947

bn3.running_var f4 [32]
000000 10 57 07 3f da 03 b4 3f 5e a5 b0 3f 27 8e 4a 3f
       0.5286722 1.4063675 1.3800466 0.7912316
000010 f9 84 3b 40 ab 37 65 3f 67 c1 ff 3f 70 dc 76 3f
       2.929991 0.8953807 1.9980897 0.9643011
000020 c0 a8 a0 3f 87 ba 1d 3f a4 f1 92 3f f1 55 aa 3f
       1.2551498 0.61612743 1.1479993 1.3307477
000030 ae 1b b2 3f 54 37 79 3f 56 e6 43 40 c6 3d c4 3f
       1.3914697 0.9735005 3.0609336 1.5331352
000040 21 63 a5 3e ce 21 af 3f 6f cf 69 40 50 3b 1c 3f
       0.32302192 1.3682191 3.6532857 0.61028004
000050 16 71 cd 3f 18 50 44 3f e9 d1 4b 3f be 50 68 3f
       1.6050136 0.76684713 0.7961717 0.907482
000060 86 0f 24 3f 41 5a 37 3f fc e8 dc 3f ef c8 ab 40
       0.64086187 0.7162209 1.7258601 5.368278
000070 30 5d 15 40 a9 4b ec 3f 26 84 c0 3f 12 7a 27 3f
       2.3338127 1.846059 1.5040329 0.6542064

conv4.weight f4 [64, 32, 3, 3]
000000 d5 ad 1e bd 7c e4 9f 3b 69 1d 8e bd 97 f7 2d 3c
       -0.038739998 0.0048795324 -0.06939203 0.010618112
000010 3b 0f 12 be da be b6 bc b5 7b 1b 3e 1c 45 b6 3c
       -0.14263622 -0.022307802 0.15183909 0.02224975
000020 6e 2f 7b 3a 67 6e 0f bd a3 e5 f7 bc 3b f0 e8 3c
       0.0009581958 -0.035017397 -0.030260867 0.028434863
000030 44 49 3e ba db 64 86 bd 80 68 77 bd e8 96 f6 3d
       -0.0007258842 -0.065622054 -0.060402393 0.12040502
000040 4d a0 07 3e 56 a5 51 3d bd 23 d8 bd b0 50 2e be
       0.13244744 0.051183067 -0.105536915 -0.17022967
000050 9f 75 00 be a9 b7 44 3d f5 ef 53 3a c9 38 5c 3d
       -0.12544869 0.048026714 0.00080847676 0.053765092
000060 f1 b2 d5 bd c9 21 61 bd 70 81 67 3c 14 01 97 bd
       -0.10434521 -0.05496386 0.014129981 -0.073732525
000070 fa c1 e1 bd 70 6a 54 3b c3 c8 fd bd 5a 46 13 be
       -0.11023326 0.0032412075 -0.12391808 -0.14382306
000080 5c 96 1a be c0 59 5c bd 51 2c ce bd 40 bf fc bd
       -0.1509642 -0.05379653 -0.100670464 -0.123411655
000090 53 b0 bb 3d f8 c8 da 3d 2c 7d d9 3c c1 70 72 bd
       0.091644906 0.10682863 0.026548944 -0.05918956
0000a0 12 de 4b bc 92 7f 6d bc 89 3a 4f 3e 20 48 8e 3e
       -0.012443082 -0.014495747 0.20237173 0.27789402
0000b0 4d e6 9a 3e 29 f8 94 bb b6 fa b1 3d c1 e6 40 3d
       0.3025383 -0.0045461846 0.086903974 0.047095064
0000c0 49 cc 2a be ab 31 0a bd 6b a3 97 bd 53 5e 75 3d
       -0.16679491 -0.033738773 -0.074042164 0.059904408
0000d0 3c ef 94 3e 51 6c e6 3d 7a 1f f5 3c 77 00 6e be
       0.2908877 0.112511285 0.029922236 -0.23242365
0000e0 02 b7 26 be 8f 05 db 3c 96 c2 19 3d a1 66 e3 3c
       -0.1628075 0.026736049 0.037539087 0.027758898
0000f0 b3 ec 88 3e fb 5e 4e 3e a9 34 63 3e a8 41 b1 bc
       0.26743087 0.2015342 0.22188057 -0.021637753
000100 8f 10 d9 bc ec 15 09 be 4e e9 9c bd 91 f2 89 bd
       -0.026497154 -0.13387269 -0.07661687 -0.06735719
000110 26 ca 4c 3d cb 33 27 3e c6 cd 36 3e 02 42 45 3e
       0.04999747 0.16328351 0.17851934 0.19263461
000120 2b 7f 1d 3c 9b 33 c6 3d 43 ce bc 3d fb ac 24 3e
       0.009612839 0.09677812 0.09219029 0.16081612
000130 fc fc 32 3c ee 4b cd 3b b1 b5 78 be 39 e2 54 bd
       0.010924574 0.006265155 -0.2428806 -0.051973555
000140 26 b4 18 be 8c ff c3 3d d3 e6 2f 3e 33 c5 0f 3d
       -0.14912471 0.09570226 0.17177896 0.035100173
000150 99 2c 9c bd d1 41 2a bd 13 d3 cb bd 58 7d 27 3e
       -0.07625694 -0.041566674 -0.099523686 0.16356409
000160 f5 59 98 3d f2 84 42 3c 89 88 52 3d ae 43 81 bd
       0.07439033 0.011872517 0.05139974 -0.06311737
000170 85 21 dd bd 16 85 c4 3d 23 b5 ff 3d 65 f2 16 3d
       -0.10797409 0.09595697 0.12485721 0.03685226
000180 43 a9 84 3e 58 61 05 3e f4 98 a8 3e 34 fa b9 3b
       0.25910386 0.13025415 0.32929194 0.0056755785
000190 58 d6 1d bd a9 f6 ae 3c 04 6c 95 bd 5c 8a 45 be
       -0.038534492 0.021357851 -0.07295993 -0.19291061
0001a0 49 e8 1f bb 74 35 0a be 12 dc 98 bd 18 88 84 3c
       -0.0024399927 -0.13496953 -0.0746385 0.016178176
0001b0 38 b1 a0 3c e2 05 5c bd eb b1 33 be 49 f2 52 be
       0.019615754 -0.053716548 -0.17548339 -0.20600237
0001c0 20 fd 6e be 2b 7a 33 be 7b 58 5b bd 14 33 02 bd
       -0.23338747 -0.17527072 -0.05355118 -0.031786993
0001d0 28 ef d1 3d ff 34 ad 3d 49 a9 4f 3d 56 23 fe bc
       0.102506936 0.08457374 0.050698552 -0.031022709
0001e0 35 3e dd 3d 21 c0 de 3b 97 33 aa 3d f1 9a f7 bd
       0.10802881 0.006797806 0.08310621 -0.120900996
0001f0 b9 e7 72 3d 1f e7 1b bd 3e 51 45 3e 6f d7 1c 3e
       0.05930302 -0.03806221 0.19269273 0.15316556
000200 88 02 4a 3e c7 3a f7 bd ae 1c 52 bd dc a7 81 bd
       0.19727528 -0.12071758 -0.051296882 -0.06330845
000210 49 45 ba be 02 9b 09 be d9 4b 8a be 87 1c 48 3e
       -0.36380985 -0.13438037 -0.27010992 0.19542132
000220 2a 0f fc 3d 66 2b a0 3d d6 cf 20 bd 26 56 30 be
       0.1230758 0.078207776 -0.039260708 -0.17220363
000230 0e 26 84 be c7 c2 95 be fc e2 53 be a5 53 9c bd
       -0.25810283 -0.29250166 -0.20692056 -0.076331414
000240 3e c1 d1 3d a0 5e 9f 3d e3 f1 e1 3c a5 dd bb bd
       0.10241936 0.0778172 0.02758116 -0.09173135
000250 3a fa ae bd da 41 9d bd 83 df 8b 3d 9c 87 a3 3c
       -0.08543821 -0.07678576 0.06829741 0.019962125
000260 fa 78 a4 b9 fb d0 d9 bd c7 fb 5b be 80 c8 f2 bd
       -0.00031370652 -0.10635563 -0.21482764 -0.118546486
000270 32 a0 c8 3c ba ca 89 3c a9 9c 10 bd de a3 16 be
       0.02449045 0.0168203 -0.035305653 -0.14710948
000280 ee 45 91 be ff df 19 be 17 d5 1d 3d de 5f ce bc
       -0.28373665 -0.15026854 0.038533296 -0.025192197
000290 a7 66 b4 3d 3b 99 1d bd 0c d3 44 3d 8a 22 df 3b
       0.08808642 -0.03847621 0.048052832 0.0068095373
0002a0 62 df c1 3d 83 81 e0 3d 1d 56 eb bc 3b e9 62 3d
       0.09466435 0.109622024 -0.028727585 0.055398207
0002b0 d2 3a 1a 3e 04 e8 26 3d 76 10 8a 3d ca 05 05 bc
       0.150615 0.04074861 0.06741421 -0.008119056
0002c0 7b ae 94 3d 1e 4d 16 3e 8c 54 30 3e 6a 22 24 3e
       0.07259842 0.14677855 0.17219752 0.16028753
0002d0 81 33 e7 ba f2 aa 9f bc a5 02 49 bc df f5 16 3e
       -0.0017639251 -0.019490693 -0.012268697 0.1474223
0002e0 49 b5 87 3e 9b 60 bf 3d c3 83 2f 3e d4 75 36 3d
       0.26505497 0.09344598 0.17140107 0.044545963
0002f0 fc db 2b 3e 4d 95 37 3c 53 7f 84 bc 4e 8c ba 3d
       0.16783136 0.01120503 -0.016173994 0.09108792
000300 b2 a8 78 bd c1 98 e5 3d fc 87 65 3e f1 03 01 be
       -0.060707755 0.11210776 0.22415155 -0.1259916
000310 af b7 71 3d 46 2e ce 3d b9 5b 5e bc ca 29 0f bc
       0.059013065 0.1006742 -0.013571673 -0.008737991
000320 e3 06 76 bd 0d bf 27 3e eb d2 89 3d 7b e9 b5 3c
       -0.06006516 0.16381474 0.067296825 0.022206059
000330 2c d4 07 be 05 54 8b be 57 8e 3e be 04 47 a6 3d
       -0.13264531 -0.2721254 -0.18608986 0.08119014
000340 95 df 28 3e ff ba 07 3d 45 12 84 3c 14 0f bd bd
       0.1649154 0.033137318 0.016121993 -0.092313915
000350 dd 8d 8b bd 98 6d ec bc 99 b4 ea 3c 35 ce cb 3c
       -0.06814168 -0.028860852 0.028650569 0.0248786
000360 59 7f a8 bc 05 2c 22 3d 9e 6b b4 3d 56 0a 0e 3e
       -0.020568537 0.03959276 0.08809589 0.1387113
000370 1e 69 43 3e e2 bb 27 3e 6f cc ad be 03 b4 b8 be
       0.19083068 0.16380265 -0.33945033 -0.36074838
000380 93 4e 86 be bf 75 bb 3d e0 9e f4 bb ca fe 1d bd
       -0.26231822 0.09153318 -0.0074652284 -0.038573064
000390 fc 09 df bb ff 08 a1 bd 6f b7 87 3d fb 9a 99 3d
       -0.00680661 -0.07863044 0.06626784 0.07500263
0003a0 8d ee de 3c b9 a2 ca bd 9d 86 f5 bd 1d bf 9e be
       0.02721336 -0.09894318 -0.11988566 -0.31005183
0003b0 4c 2d a2 be 55 9c 14 3e b4 13 79 bd 0c 34 a5 bd
       -0.31675184 0.14512761 -0.060809806 -0.08066568
0003c0 6f 5e 98 bc b2 49 2a be 0b 4e ee bd df 2d af be
       -0.018599717 -0.16629675 -0.11635979 -0.34214684
0003d0 33 ce ac be f9 23 bb be 06 2c 5f be a0 7b 9b be
       -0.33751068 -0.36550882 -0.21794137 -0.30367756
0003e0 a2 e3 26 be 26 ce 71 3e e0 d8 3c 3e dc 2b 38 3e
       -0.16297773 0.23613796 0.18442106 0.17985481
0003f0 f3 82 1d be 5d f1 bc 3c 70 c4 35 bc f4 fc 42 bd
       -0.15381984 0.02306431 -0.011094198 -0.047604516

conv4.bias f4 [64]
000000 02 5d 0f 3c 09 12 c4 be 66 c6 64 be d4 42 1a be
       0.008750202 -0.3829501 -0.22341308 -0.15064555
000010 39 73 c8 be cd 04 09 be 4d 53 c2 be 35 2f 9c 3e
       -0.39150408 -0.13380738 -0.37954178 0.30504766
000020 dc 1c 13 3e 7b 19 b0 be 4f d2 1a bf a6 ee 8f bd
       0.14366478 -0.3439444 -0.60477155 -0.070279405
000030 df fe ae be bb d6 63 be 42 e0 9d be 17 d2 de be
       -0.34178826 -0.22249882 -0.30835158 -0.4351966
000040 cf de 6c 3d 78 f3 11 be 98 db 42 be 35 da 9e be
       0.057829674 -0.14253032 -0.19029081 -0.31025854
000050 f4 ca d4 be 5a 59 b2 be 14 07 3e be 4d b1 11 bf
       -0.4156109 -0.34833795 -0.18557388 -0.56911165
000060 d8 40 09 3e 3c f1 03 bf d6 ea 08 3e 0d ff 86 bd
       0.13403642 -0.5153997 0.13370833 -0.06591616
000070 ee fb 9f be 35 8a d5 be 52 ee 1a be ca be 09 be
       -0.31246895 -0.41707006 -0.15129974 -0.13451687
000080 e8 4a f6 be c2 6c 86 be c5 dd 85 bd 9c 88 f3 bc
       -0.48104024 -0.2625485 -0.0653644 -0.029728226
000090 02 34 e0 bd a6 e4 af be d3 cf 9d be 46 e5 88 be
       -0.1094742 -0.34354132 -0.3082262 -0.26737422
0000a0 f4 4b 52 be 3c aa 1c be 9e 73 c8 3d e3 82 d5 be
       -0.20536786 -0.15299314 0.09787677 -0.4170142
0000b0 52 0d 09 bf 61 7a 83 be 27 5e dd 3c 4d bc 90 be
       -0.5353595 -0.25679305 0.027022434 -0.28268662
0000c0 c3 ef d6 3d f7 c6 45 be f8 02 d2 be f0 eb 0f be
       0.1049495 -0.1931418 -0.4101789 -0.14054847
0000d0 23 fc 79 be 1d 12 83 3d e8 5b ff be db 08 ba be
       -0.24412589 0.06399939 -0.49874806 -0.3633488
0000e0 fd bf 95 3c d6 29 ea be 09 62 87 bc 6e a4 ab 3d
       0.018280024 -0.45735043 -0.016526239 0.08380972
0000f0 06 fb a8 be 85 d2 a7 3d 2b d3 08 3d e5 f8 e4 be
       -0.33004016 0.0819445 0.03340451 -0.4472114

bn4.weight f4 [64]
000000 ed e0 26 40 7a bd 62 40 14 60 46 40 e0 f9 67 40
       2.6074784 3.5428147 3.0996141 3.6246262
000010 8d 59 79 40 c4 1a 20 40 7b c8 71 40 92 4e e7 3f
       3.8960907 2.5016336 3.7778614 1.8070853
000020 31 89 a8 3f f4 7a 9e 40 13 38 7a 40 e1 b2 4a 40
       1.3166867 4.952509 3.9096725 3.167168
000030 56 15 5a 40 ac 6b 43 40 36 34 70 40 ca 9e 88 40
       3.4075522 3.0534468 3.7531867 4.2693834
000040 4f 96 15 40 1f 3e 38 40 49 0d 58 40 90 e9 58 40
       2.337299 2.8787916 3.3758109 3.3892555
000050 ea a0 6f 40 3a a4 59 40 5e 08 67 40 81 2b 84 40
       3.7441964 3.4006486 3.6098857 4.1303105
000060 cd a6 a6 3f 98 a5 8a 40 2d c9 c7 3f 93 61 36 40
       1.3019654 4.332714 1.5608269 2.8497055
000070 0b 98 57 40 c7 5a 78 40 2c 91 52 40 14 9d 75 40
       3.368655 3.8805406 3.2901106 3.8377123
000080 b1 eb 55 40 ef fa 50 40 66 7f 3f 40 35 fa 33 40
       3.3425105 3.2653158 2.9921508 2.8121464
000090 f1 3c 30 40 6f ba 86 40 be 3b 4e 40 33 c3 56 40
       2.7537196 4.210258 3.2223964 3.355664
0000a0 95 67 5b 40 82 9f 15 40 da fa 18 40 f4 09 75 40
       3.4281971 2.3378606 2.3903108 3.8287325
0000b0 1b bb 64 40 51 f7 69 40 6e 03 e2 3f a1 2f 47 40
       3.57392 3.65572 1.7657297 3.112282
0000c0 6b cf 28 40 c3 a7 85 40 0a ac 51 40 8f 82 0f 40
       2.6376598 4.1767287 3.2761254 2.2423437
0000d0 32 9c 51 40 cb df 9d 3f f1 8a 69 40 e6 76 71 40
       3.2751584 1.2333921 3.6491053 3.772882
0000e0 51 aa ef 3f 4e a7 6b 40 91 fc 2c 40 f1 a7 9e 3f
       1.8723851 3.6820865 2.7029154 1.2395002
0000f0 99 56 67 40 eb c7 a8 3f 82 65 05 40 97 69 56 40
       3.6146605 1.318601 2.0843205 3.3501947

bn4.bias f4 [64]
000000 01 04 f2 3d 97 44 da bd 2d 62 89 3e f3 2b 3b be
       0.1181717 -0.10657614 0.26832715 -0.18278484
000010 27 34 24 be b6 6e 9a 3e 5a ce f3 bd ac 76 cc 3e
       -0.1603552 0.3016259 -0.11904593 0.3993429
000020 1c aa e5 bd 8b 5b 13 be 8f 46 f1 be 97 34 ac 3d
       -0.112140864 -0.1439039 -0.47124144 0.08408468
000030 1a 6b 8e be ff f4 20 3e 10 43 38 be e1 9b ad bd
       -0.27816087 0.15718459 -0.17994332 -0.08476997
000040 3b 9c 51 be f0 45 4c 3e 31 1a 97 3e b2 28 06 3e
       -0.20469753 0.19948554 0.2951217 0.13101462
000050 81 a0 fc bd 3d 33 12 3e a5 86 96 be 3e 4f 46 3e
       -0.12335301 0.14277358 -0.293996 0.19366166
000060 fb 1b 53 be da 07 a8 3d 0f 22 d3 be a7 72 85 3e
       -0.20616142 0.082046226 -0.41236922 0.26064035
000070 14 ee de 3d 1a fa a4 be a0 23 bb bd e1 04 3d be
       0.108852535 -0.32222062 -0.09137654 -0.18458892
000080 32 be eb 3d 93 6d e7 3d ee 42 2d 3e be 50 1c 3e
       0.11510886 0.113001965 0.16920063 0.15265176
000090 e5 ad 3c 3e 41 1c 3c be 15 90 9b be 45 3c 26 be
       0.1842571 -0.18370153 -0.30383363 -0.16233929
0000a0 2d 61 9f 3d b9 11 92 3e f0 84 f0 be 2b 8b 2b be
       0.07782207 0.28529146 -0.46976423 -0.16752307
0000b0 45 63 3f be 36 52 39 be 9e d0 63 3e 12 64 a9 be
       -0.18690212 -0.18097767 0.2224755 -0.3308416
0000c0 40 33 13 be 3a 52 1e be e2 61 f4 3d 64 6e a1 be
       -0.14375019 -0.15461054 0.11932732 -0.31529534
0000d0 d6 10 51 be be a2 f4 bd b4 49 a7 3d d2 c0 ac 3e
       -0.20416579 -0.11945103 0.08168355 0.3374086
0000e0 1c a6 3f 3e 8a a1 66 3d b0 17 09 3e 65 21 96 3e
       0.1871571 0.0563064 0.13387942 0.29322353
0000f0 d1 51 e9 3d aa 4a be bd 78 76 50 be 88 13 80 3e
       0.11392558 -0.09291585 -0.20357692 0.250149

bn4.running_mean f4 [64]
000000 87 59 90 3d 41 0e 68 3c 69 cd 36 3d 93 76 30 3d
       0.07048326 0.014163555 0.04462949 0.04308183
000010 ac 49 a0 3c 8f 5e 9c 3c cc bd 64 3c 1a 27 c4 3f
       0.01956638 0.019088058 0.013961267 1.5324433
000020 0f 16 ba 3f f3 fb ce 3c f5 4a aa 3c e3 4a 66 3d
       1.4537982 0.025266623 0.020787695 0.05622376
000030 2a e9 97 3c 1d fc ab 3d 2f 05 ab 3c b9 81 b2 3c
       0.018543798 0.08397696 0.020876495 0.021790372
000040 6f 69 a6 3c 8b 8c 43 3d 16 34 90 3c 68 cb 3c 3d
       0.020313947 0.047741454 0.017602962 0.04609242
000050 8d ec 79 3c d9 30 a3 3d d1 d5 ff 3c 34 36 7e 3c
       0.015254152 0.07968301 0.031229885 0.015515853
000060 b5 68 6b 3f e7 44 98 3c e7 62 fd 3f 3d b0 0c 3d
       0.91956645 0.018587543 1.9795808 0.03434776
000070 7c 1c 3f 3d 74 44 9d 3d 7b 78 4a 3d 4a 10 fd 3b
       0.046658024 0.07679072 0.049431305 0.007722889
000080 bb 00 54 3c 1f 64 20 3d b2 8c ed 3d a7 ff 47 3e
       0.012939627 0.039157983 0.11599101 0.19531117
000090 e7 35 1d 3e ff d0 c2 3c 9a ce 02 3d 8d 10 d0 3c
       0.15352593 0.023781298 0.03193531 0.025398517
0000a0 c1 d3 c3 3c 47 be 1f 3c 13 06 7b 3e 36 9d 9a 3c
       0.023904683 0.0097499555 0.24514036 0.018873792
0000b0 44 1d 92 3c 6c 3c 13 3d bd 36 ca 3f 4e 72 68 3d
       0.01783622 0.035946295 1.5797955 0.056749634
0000c0 59 6d b6 3c bc ef 28 3c 88 48 21 3d 70 80 a4 3c
       0.022268938 0.010311063 0.03937581 0.020080775
0000d0 15 b7 e3 3c 5c 10 bb 3f fd 31 c9 3c e7 08 d0 3c
       0.027797261 1.4614367 0.02455997 0.02539487
0000e0 00 3a 89 3f be 67 0f 3d 93 79 2f 3e 8f b0 ba 3e
       1.0720825 0.035011046 0.1713622 0.3646283
0000f0 26 67 aa 3c b3 9f b6 3f 3d 3f 48 3e 18 8d cf 3c
       0.020801138 1.4267486 0.19555373 0.025335833

bn4.running_var f4 [64]
000000 87 64 64 3e cd 01 60 3d 7f 1e 0f 3e 54 19 1b 3e
       0.22303973 0.054689217 0.13976477 0.1514638
000010 56 00 d3 3d b9 c8 88 3d bd 2a 83 3d c8 06 7d 3f
       0.103027984 0.0667891 0.06404636 0.9883847
000020 3a de 7e 3f f6 ab d8 3d 90 ad cb 3d cd 1a 6f 3e
       0.9955784 0.10579674 0.09945214 0.23350067
000030 32 89 89 3d 4e 96 9d 3e 2e 02 b6 3d b9 49 e7 3d
       0.06715621 0.30778736 0.088871345 0.11293358
000040 b8 a2 45 3d 97 5e 44 3e c4 f3 84 3d 75 50 6d 3e
       0.048250884 0.19176708 0.06491807 0.23175223
000050 9c dc 86 3d 88 da fb 3e 96 3e 0b 3e bd 5c af 3d
       0.06585047 0.49190164 0.13598093 0.0856261
000060 2c b4 1a 3f c8 02 dc 3d b5 18 67 40 1c 58 1e 3e
       0.6043117 0.10742718 3.610883 0.15463299
000070 1d 4f 8b 3e c5 d1 b4 3e bb b5 2e 3e 81 1e d8 3c
       0.27208796 0.3531629 0.17061512 0.026381733
000080 4f fd 48 3d 08 71 36 3e 94 27 0a 3f bd dc 2b 3f
       0.0490697 0.17816556 0.5396664 0.67133695
000090 73 1a fa 3e 20 69 0b 3e fd 68 1f 3e 96 c0 d9 3d
       0.48848304 0.13614321 0.15567394 0.10632436
0000a0 10 0a b9 3d 0a cb 07 3d ff 11 30 3f 8b 96 d6 3d
       0.090351224 0.033152618 0.6877746 0.104779325
0000b0 fe ee cd 3d 7d ad 07 3e 1c 72 5d 40 9b 89 56 3e
       0.1005535 0.13249774 3.4600897 0.2095093
0000c0 70 cc 8f 3d 03 8b 20 3d 10 43 3e 3e 30 d3 7f 3d
       0.07021415 0.039195072 0.1858027 0.062457263
0000d0 b8 5f c7 3d 42 d6 95 3f fd 73 ec 3d 7d f6 bf 3d
       0.09735054 1.1706011 0.115455605 0.09373186
0000e0 93 3e 49 40 73 cc 36 3e af 25 0e 3f 36 fc 0e 3f
       3.1444442 0.17851429 0.5552625 0.55853593
0000f0 ff 25 d6 3d 3b b5 74 3f 33 5f a3 3e c7 c3 10 3e
       0.10456466 0.95589036 0.3190857 0.14137183
