NCC_Code/Models/2022-07-08_18-01-24_model.pt (torch, 115275 bytes, 50 tensors)

conv1.weight f4 [8, 2, 5, 5]
-0.12787792 -0.0891358 -0.2989764 -0.26850978 -0.36791745 -0.23548123 -0.17565946 -0.15475072
-0.1388596 0.08047302 -0.034896683 -0.020966679 0.036332577 0.0846687 0.09747498 -0.18917891
-0.031563208 -0.24119428 -0.06799234 0.2083733 -0.1158563 0.22525913 0.1536161 0.32838854
0.0594461 -0.1766436 -0.3812937 -0.12210396 -0.15661529 -0.08397344 -0.16607258 -0.2590341
0.037819408 -0.048304323 -0.13426587 -0.017476998 -0.067411534 -0.1194984 -0.07820149 -0.35648134
0.2317232 -0.12813841 0.1970915 -0.022975467 -0.16131252 0.119763725 0.16739155 0.16967711
0.016427716 0.3614137 0.14031868 -0.009863529 -0.20012638 0.019260932 0.08164888 -0.1936657
-0.100964576 -0.14761275 0.16257244 -0.18752019 -0.22944646 0.082627624 0.10327643 0.08017371
-0.084415525 -0.36505082 -0.40215296 -0.28898352 -0.41958895 0.01574263 0.018692173 -0.2350834
-0.1001511 0.19438577 -0.08333352 -0.008663067 -0.01861099 0.19270872 0.053545956 -0.23111035
0.37887892 0.36663088 0.27073038 -0.24781871 0.21352607 0.27315307 0.28922322 0.29256454
0.39392257 0.24239706 -0.0057201665 -0.2535131 -0.21264637 -0.18099856 -0.35833463 0.11024943
0.42462364 0.16359223 -0.11210638 0.081914276 0.23165147 0.088562585 0.05174036 0.3591955
0.28687197 0.25210685 0.2709415 0.17563726 0.12285657 0.37664482 -0.060248252 -0.16964209
0.114087194 0.4260711 -0.14414814 -0.1425234 -0.17999746 -0.24640907 0.094990805 0.26157814
-0.07526253 -0.3406359 -0.023760473 -0.10945834 0.0458678 -0.013381381 -0.029213093 0.47651592
0.36714008 0.39580223 -0.012969614 0.595782 0.059050556 -0.021352718 0.48792487 -0.07328546
-0.102304675 0.13537508 0.12781762 0.0028476391 0.16107966 0.028250162 -0.3550527 -0.41786632
0.17618172 0.009830567 0.31979293 -0.1850601 -0.14059407 -0.12620683 0.071681045 -0.004322419
0.021708263 -0.0011459703 0.29367265 -0.31463474 -0.0037858419 -0.16435614 -0.20051806 0.0051862192
0.040162418 0.17911316 0.34340388 0.41997716 0.3178503 -0.29834598 0.0065002386 0.06850879
0.08178021 0.2877563 0.12349533 -0.037307553 -0.12418107 0.02400657 -0.16579397 -0.23140849
-0.025760798 -0.12817417 -0.064161114 -0.070398204 -0.058477752 0.14584032 -0.04595326 -0.07698085
-0.24366716 -0.27078822 0.081150316 0.14469767 0.40275747 0.3163846 -0.17396455 -0.30392852
0.17174955 0.050201785 0.23262823 0.13062921 0.07597801 0.03701014 -0.24962084 -0.3272401
0.015429052 -0.14347224 -0.0545253 -0.27408364 -0.18321522 -0.1524268 -0.13009505 -0.017990837
-0.22920181 -0.22406189 -0.1497327 -0.18813157 -0.10534217 -0.7988817 -0.24541268 0.0027562182
0.027834378 0.17429437 0.011095893 -0.13625278 0.18142538 0.15164481 0.24316888 0.1780767
0.075058036 -0.22791827 0.2060109 0.3395288 0.08700184 -0.003484511 0.05225647 0.15583114
0.31837183 0.146107 -0.1291987 -0.29236197 -0.2770256 -0.16475137 0.07130153 -0.2209622
0.011260969 0.061628498 -0.049978334 -0.0977873 0.07270754 -0.16443585 0.07085943 0.02806287
-0.06631579 -0.20421253 -0.0972268 -0.061031736 -0.14099385 0.030382657 -0.24683537 0.23299874
00000000: 6ef2 02be d58c b6bd 6f13 99be 1d7a 89be
00000010: ad5f bcbe fe21 71be 13e0 33be f976 1ebe
00000020: 3631 0ebe 0acf a43d d3ef 0ebd 50c2 abbc
00000030: 78d1 143d c966 ad3d f6a0 c73d 1eb8 41be
00000040: 6c48 01bd a2fb 76be 913f 8bbd cf5f 553e
00000050: 1146 edbd 54aa 663e 8a4d 1d3e 8b22 a83e
00000060: c17d 733d 0fe2 34be ee38 c3be a411 fabd
00000070: c25f 20be 44fa abbd ee0e 2abe 1ea0 84be
00000080: 86e8 1a3d c1da 45bd fe7c 09be ec2b 8fbc
00000090: 0f0f 8abd 94bb f4bd 1a28 a0bd b984 b6be
000000a0: d948 6d3e b736 03be 5bd2 493e 0c37 bcbc
000000b0: 1c2f 25be af46 f53d b168 2b3e d6bf 2d3e
000000c0: 6b93 863c 370b b93e b3af 0f3e a49a 21bc
000000d0: eeed 4cbe 1ac9 9d3c 8737 a73d 4d50 46be
000000e0: 84c6 cebd cc27 17be 6479 263e 4b05 40be
000000f0: 03f4 6abe ac38 a93d 9882 d33d 1d32 a43d
00000100: 0ce2 acbd f1e7 babe fee6 cdbe a6f5 93be
00000110: 5dd4 d6be b0f6 803c 5420 993c b4b9 70be
00000120: 051c cdbd 100d 473e c4aa aabd 89ef 0dbc
00000130: 1376 98bc 6f55 453e 0153 5b3d 31a8 6cbe
00000140: 6bfc c13e 0bb7 bb3e 2c9d 8a3e 30c4 7dbe
00000150: 94a6 5a3e b8da 8b3e 1115 943e 05cb 953e
00000160: 38b0 c93e ef36 783e 3c70 bbbb 78cc 81be
00000170: f8bf 59be b057 39be a377 b7be 74ca e13d
00000180: 4568 d93e b984 273e 0898 e5bd acc2 a73d
00000190: 0b36 6d3e 4d60 b53d b3ed 533d 79e8 b73e
000001a0: e2e0 923e 2614 813e d8b8 8a3e 41da 333e
000001b0: 3a9c fb3d 97d7 c03e dfc6 76bd a8b6 2dbe
000001c0: 8ca6 e93d fe25 da3e 929b 13be a7f1 11be
000001d0: 4151 38be a952 7cbe 8a8a c23d 92ed 853e
000001e0: 3e23 9abd d467 aebe 53a5 c2bc b22b e0bd
000001f0: e0df 3b3d 943d 5bbc 4c50 efbc e5f9 f33e
00000200: c9f9 bb3e 97a6 ca3e 817e 54bc 2b85 183f
00000210: ffde 713d e5eb aebc 4ad1 f93e b016 96bd
00000220: 1d85 d1bd c49f 0a3e 9fe2 023e 759f 3a3b
00000230: 11f2 243e e26c e73c 78c9 b5be 93f2 d5be
00000240: fb68 343e 6310 213c e6bb a33e 6580 3dbe
00000250: e4f7 0fbe 5d3c 01be 83cd 923d 14a3 8dbb
00000260: 87d5 b13c 6234 96ba 435c 963e ce17 a1be
00000270: e31b 78bb fa4c 28be 9b54 4dbe 29f1 a93b
00000280: 5981 243d 7169 373e a2d2 af3e 3f07 d73e
00000290: 46bd a23e cec0 98be f4ff d43b 564e 8c3d
000002a0: 627c a73d cb54 933e 1feb fc3d cecf 18bd
000002b0: a552 febd 6da9 c43c e5c5 29be 59f6 6cbe
000002c0: 4f08 d3bc 1740 03be e766 83bd ef2c 90bd
000002d0: 5e86 6fbd 2a57 153e 7c39 3cbd 23a8 9dbd
000002e0: e283 79be c1a4 8abe 2332 a63d a02b 143e
000002f0: 3a36 ce3e 2afd a13e c323 32be 859c 9bbe
00000300: 1ddf 2f3e 63a0 4d3d 1836 6e3e aac3 053e
00000310: 5c9a 9b3d f297 173d 9b9c 7fbe 048c a7be
00000320: 22ca 7c3c 63ea 12be ec55 5fbd b154 8cbe
00000330: c59c 3bbe c515 1cbe a337 05be 8561 93bc
00000340: e1b3 6abe 7b70 65be 8753 19be 90a5 40be
00000350: a3bd d7bd 8383 4cbf 764d 7bbe aba1 343b
00000360: ec04 e43c 397a 323e 8ccb 353c d985 0bbe
00000370: 93c7 393e c748 1b3e 4301 793e bd59 363e
00000380: 07b8 993d 6863 69be 85f4 523e b8d6 ad3e
00000390: 052e b23d 655c 64bb e10a 563d 3392 1f3e
000003a0: a201 a33e 139d 153e aa4c 04be 78b0 95be
000003b0: 4dd6 8dbe 95b4 28be 8906 923d ea43 62be
000003c0: ed7f 383c 2a6e 7c3d 15b6 4cbd b544 c8bd
000003d0: b1e7 943d df61 28be c01e 913d 1be4 e53c
000003e0: 93d0 87bd 171d 51be d81e c7bd 6afc 79bd
000003f0: b160 10be 0de5 f83c 69c2 7cbe 3997 6e3e

conv1.bias f4 [8]
0.1524243 0.59234846 -0.19560698 -0.23154688 0.39849797 0.09417901 -0.18141243 0.01321418
00000000: 1e15 1c3e 26a4 173f 324d 48be a01a 6dbe
00000010: ed07 cc3e ede0 c03d 2ec4 39be 4a80 583c

bn1.weight f4 [8]
1.0087432 1.0464154 0.97763467 0.9014398 0.9097765 1.1419944 1.1078762 0.9152732
00000000: 7f1e 813f f1f0 853f 4446 7a3f c2c4 663f
00000010: 1de7 683f df2c 923f e3ce 8d3f 584f 6a3f

bn1.bias f4 [8]
0.25971693 -0.009550216 -0.0024497288 -0.14914311 0.02140782 -0.01824668 -0.084889166 0.081131876
00000000: 9ef9 843e 8278 1cbc a18b 20bb f9b8 18be
00000010: 745f af3c 107a 95bc 5fda adbd 7828 a63d

bn1.running_mean f4 [8]
0.97757614 0.712251 1.277622 0.3697723 1.0499061 0.7624177 0.39835602 0.28737074
00000000: 6e42 7a3f 1556 363f 1e89 a33f cb52 bd3e
00000010: 5363 863f ce2d 433f 52f5 cb3e 4222 933e

bn1.running_var f4 [8]
0.7227167 0.305091 7.0116315 1.0493152 0.7371495 2.2053163 0.92794997 0.20196357
00000000: f603 393f e334 9c3e 495f e040 f64f 863f
00000010: d4b5 3c3f e723 0d40 218e 6d3f 8acf 4e3e

conv2.weight f4 [16, 8, 3, 3]
-0.02438765 -0.1343068 0.10571282 0.27899438 0.22932033 0.16796704 0.4365456 0.020590901
0.34897968 0.004573939 -0.065167874 -0.18456087 -0.2366413 0.041288354 0.07539983 0.3832902
0.17031531 0.15843642 0.2078051 -0.13528423 0.14322983 0.082857214 -0.007968141 -0.1683134
0.05850035 0.19455308 0.17553256 -0.0016393346 0.12114528 0.08282583 -0.12193955 -0.21578221
-0.18219894 -0.26893672 -0.14148504 0.09010327 -0.024151701 0.29644486 0.09555069 0.17409828
-0.06338817 0.22136137 0.28492007 0.3240497 -0.17853929 0.28182837 0.19384488 0.02455453
0.11260438 -0.27320945 0.09546108 0.0780741 0.12615792 0.3437541 -0.23247463 -0.21903199
-0.24766813 -0.57177585 -0.2932557 -0.1321316 0.0016015156 0.43000218 0.3336488 0.0031349643
0.0023238743 -0.03110922 -0.0952123 -0.18600735 -0.03099991 -0.2508432 -0.29159364 -0.20170826
-0.06278646 -0.23256242 0.08579302 0.1239765 0.17074606 0.043772485 0.2691179 0.18293898
0.008275888 -0.09475113 0.081468105 0.007854765 -0.502427 -0.11370522 -0.1758772 -0.3731019
-0.15691397 -0.018203896 0.15762554 -0.51204157 -0.091645315 -0.015570721 -0.23967165 0.0435479
-0.17879829 -0.20350505 -0.033935975 -0.14539027 -0.7344984 -0.075945824 -0.11184818 -0.48793563
-0.21425259 0.093330786 -0.35389587 -0.26620173 0.06831731 0.13794193 -0.0704522 0.034834716
0.11327079 0.30266088 -0.15211317 0.071532466 0.062209 0.24388108 0.15743433 0.23038507
0.1271131 0.28278777 0.20536226 -0.11992216 -0.15392046 -0.32160497 0.25311667 0.17370448
0.06656232 -0.039281506 0.08570209 0.16850883 0.10442485 -0.044309273 0.15420306 0.017333671
-0.25720024 0.033058427 0.10236765 0.13897781 0.19115071 0.019579351 -0.10499127 -0.027891073
-0.26163968 -0.3591757 -0.3178283 -0.16287097 -0.21505785 -0.12447032 -0.16495623 -0.314248
-0.057071384 -0.17646492 -0.025654199 -0.22145115 0.094261825 0.166429 -0.20667434 0.017922634
-0.42440388 -0.14982231 0.43708566 0.0884255 0.10412788 0.09000454 -0.16732982 0.2817324
-0.32569677 -0.057569396 -0.38944256 0.023631422 0.32476985 0.049655642 -0.12244513 -0.27021918
-0.16885453 0.22261336 0.25639534 -0.09070523 0.1916234 -0.41803142 -0.46886957 -0.07279093
-0.299953 -0.19487034 -0.19189808 -0.14200431 0.035766695 0.12846215 0.3742742 0.09979148
-0.14365464 0.15896447 0.21855073 -0.009062543 0.024131581 -0.048605844 -0.0109184915 -0.041706882
-0.2348308 -0.19363308 -0.34403792 -0.094335996 0.17871842 0.13761024 0.060281996 -0.007363004
0.169028 -0.18397711 0.28784612 0.094600976 0.08323104 0.024675714 -0.053836755 0.0472185
-0.06706485 -0.09560648 -0.17088343 -0.2763407 0.1737085 0.31270048 -0.22143579 -0.054539014
-0.081732236 -0.14153704 0.18689817 -0.02143528 0.037569392 -0.007505912 -0.23542461 -0.1797579
-0.37948605 -0.65962297 0.18414141 0.20628783 -0.030332938 0.17562228 0.31382126 -0.06419347
-0.011816229 0.15444487 0.26788557 0.18867044 0.0573921 -0.026065899 0.1396047 0.08961841
0.23453672 -0.2740668 0.12620015 0.1816467 0.055050816 -0.08413339 0.09548894 0.3207579
00000000: 9cc8 c7bc b987 09be f77f d83d 5ad8 8e3e
00000010: f3d2 6a3e 8dff 2b3e e882 df3e 40ae a83c
00000020: 77ad b23e fbe0 953b bc76 85bd 86fd 3cbe
00000030: 1952 72be fa1d 293d 3a6b 9a3d 9d3e c43e
00000040: 2367 2e3e 283d 223e dcca 543e f387 0abe
00000050: d7aa 123e 0bb1 a93d ce8c 02bc 595a 2cbe
00000060: 109e 6f3d ec38 473e cfbe 333e f1de d6ba
00000070: 041b f83d 97a0 a93d 71bb f9bd 03f6 5cbe
00000080: 5c92 3abe 13b2 89be 74e1 10be 1088 b83d
00000090: cad9 c5bc 9fc7 973e 15b0 c33d d246 323e
000000a0: a8d1 81bd 8eac 623e 0be1 913e d8e9 a53e
000000b0: 01d3 36be cf4b 903e 467f 463e 9526 c93c
000000c0: 209d e63d 1ce2 8bbe 1981 c33d 50e5 9f3d
000000d0: 8b2f 013e 8a00 b03e d40d 6ebe ec49 60be
000000e0: b79c 7dbe e75f 12bf 9c25 96be 824d 07be
000000f0: f2e9 d13a 3f29 dc3e 04d4 aa3e f973 4d3b
00000100: 244c 183b c3d8 febc abfe c2bd b678 3ebe
00000110: 86f3 fdbc 856e 80be c34b 95be 9c8c 4ebe
00000120: 3096 80bd d824 6ebe 40b4 af3d 64e7 fd3d
00000130: 0ed8 2e3e c74a 333d d2c9 893e 5b54 3b3e
00000140: 9797 073c e10c c2bd c0d8 a63d 46b1 003c
00000150: 0e9f 00bf 48de e8bd 2719 34be 3607 bfbe
00000160: 0eae 20be 5620 95bc 9768 213e 2815 03bf
00000170: 8ab0 bbbd 561c 7fbc 7c6c 75be 485f 323d
00000180: e616 37be a163 50be 7300 0bbd 30e1 14be
00000190: 1608 3cbf 7c89 9bbd a910 e5bd b3d2 f9be
000001a0: 0865 5bbe 3624 bf3d d731 b5be 984b 88be
000001b0: f2e9 8b3d a640 0d3e 3e49 90bd d9ae 0e3d
000001c0: 84fa e73d 5ef6 9a3e 8ec3 1bbe 9d7f 923d
000001d0: ddce 7e3d f6bb 793e 7736 213e 10ea 6b3e
000001e0: f029 023e 8fc9 903e 7c4a 523e c099 f5bd
000001f0: 539d 1dbe 68a9 a4be 8298 813e 96df 313e
00000200: d351 883d a5e5 20bd 9484 af3d 948d 2c3e
00000210: b2dc d53d a47d 35bd 68e7 1d3e 58ff 8d3c
00000220: c0af 83be 4668 073d 21a6 d13d 3350 0e3e
00000230: 03bd 433e e064 a03c aa05 d7bd d27b e4bc
00000240: a3f5 85be e1e5 b7be 64ba a2be a6c7 26be
00000250: 2038 5cbe 4cea febd 49ea 28be 1de5 a0be
00000260: afc3 69bd 38b3 34be c128 d2bc 17c4 62be
00000270: 580c c13d 5d6c 2a3e 70a2 53be 7dd2 923c
00000280: 774b d9be 056b 19be b1c9 df3e 6e18 b53d
00000290: ff40 d53d 4d54 b83d 8258 2bbe 3b3f 903e
000002a0: bac1 a6be e3cd 6bbd 0465 c7be af96 c13c
000002b0: 3c48 a63e b763 4b3d 83c4 fabd 2b5a 8abe
000002c0: 34e8 2cbe c2f4 633e 4046 833e aac3 b9bd
000002d0: ed38 443e 3708 d6be ac0f f0be 6913 95bd
000002e0: 7193 99be 178c 47be ee80 44be 9469 11be
000002f0: 1980 123d 958b 033e dea0 bf3e 7a5f cc3d
00000300: 341a 13be 95c7 223e c3cb 5f3e 0f7b 14bc
00000310: 98af c53c ec16 47bd 79e3 32bc d6d4 2abd
00000320: 7c77 70be c047 46be bd25 b0be 3b33 c1bd
00000330: f601 373e b3e9 0c3e 41ea 763d 5b45 f1bb
00000340: ad15 2d3e 7f64 3cbe 9160 933e 28be c13d
00000350: 0975 aa3d b924 ca3c ee83 5cbd 3068 413d
00000360: 4c59 89bd 55cd c3bd 11fc 2ebe 877c 8dbe
00000370: a4e0 313e 471a a03e 10c0 62be 4d64 5fbd
00000380: 3b63 a7bd 16ef 10be 3c62 3f3e 0a99 afbc
00000390: 5de2 193d 27f4 f5bb 2613 71be 7412 38be
000003a0: ff4b c2be 0ddd 28bf 918f 3c3e 1e3d 533e
000003b0: c87c f8bc 54d6 333e 2ead a03e de77 83bd
000003c0: db98 41bc cc26 1e3e 4c28 893e d332 413e
000003d0: fb13 6b3d 2788 d5bc 89f4 0e3e db89 b73d
000003e0: 652a 703e 7c52 8cbe 9d3a 013e 9801 3a3e
000003f0: f77c 613d 204e acbd b58f c33d 613a a43e

conv2.bias f4 [16]
0.080488406 0.25006557 -0.1700099 -0.17870557 0.15065376 0.01261592 -0.1200614 -0.02139698
0.15074079 -0.06538556 -0.062015273 -0.10698463 -0.15188672 -0.13058776 -0.038706195 0.0775069
00000000: 1bd7 a43d 9808 803e 1317 2ebe 98fe 36be
00000010: fb44 1a3e 01b3 4e3c c0e2 f5bd b848 afbc
00000020: cb5b 1a3e dde8 85bd ba03 7ebd c21a dbbd
00000030: 3188 1bbe ccb8 05be 638a 1ebd f0bb 9e3d

bn2.weight f4 [16]
0.8557569 0.8907131 0.8996728 0.9743466 1.1255752 1.1486654 1.0397258 0.82602084
0.83002543 0.99377376 1.0883478 0.9818116 0.8620674 1.0728756 1.1979126 0.842712
00000000: e212 5b3f c605 643f f550 663f c76e 793f
00000010: d912 903f 7807 933f bc15 853f 1a76 533f
00000020: 8c7c 543f f567 7e3f fb4e 8b3f 0158 7b3f
00000030: 73b0 5c3f fd53 893f 3355 993f f9bb 573f

bn2.bias f4 [16]
-0.033674717 -0.2512088 -0.07377431 -0.046552453 0.14715047 0.10795414 0.2260495 -0.29039404
0.18942024 0.103962556 -0.24042979 -0.16615929 0.4311196 -0.032258626 -0.14048187 -0.17965321
00000000: 80ee 09bd 719e 80be fc16 97bd c9ad 3ebd
00000010: 9dae 163e 0f17 dd3d 8579 673e 87ae 94be
00000020: 61f7 413e 52ea d43d 3a33 76be a925 2abe
00000030: b5bb dc3e 9f21 04bd 7bda 0fbe 03f7 37be

bn2.running_mean f4 [16]
1.2569523 1.4157902 1.2047894 0.8652179 0.47553906 0.6613966 0.46902207 0.5248996
0.85776323 0.72841614 0.6172083 0.6118342 0.6343413 0.5279076 0.32129842 0.54116625
00000000: d0e3 a03f 9d38 b53f 8a36 9a3f ec7e 5d3f
00000010: db79 f33e 4a51 293f a923 f03e d25f 063f
00000020: 5f96 5b3f 7b79 3a3f 5d01 1e3f 2ba1 1c3f
00000030: 3164 223f f424 073f 3a81 a43e df89 0a3f

bn2.running_var f4 [16]
2.0376046 1.5133305 4.1373334 3.0441122 1.0932775 1.4300941 1.2197803 0.65601057
1.1550298 2.074284 1.2454774 1.613345 0.6352166 1.0317254 0.7771502 1.0332296
00000000: 1d68 0240 d0b4 c13f 0965 8440 bcd2 4240
00000010: 84f0 8b3f 530d b73f c321 9c3f 4ff0 273f
00000020: 04d8 933f 12c1 0440 ce6b 9f3f 1782 ce3f
00000030: 8e9d 223f 940f 843f 51f3 463f de40 843f

conv3.weight f4 [32, 16, 3, 3]
-0.11540048 0.02398524 -0.055142093 0.37546015 -0.030183423 -0.15309161 0.040505752 -0.20673281
0.1879929 0.1384746 -0.09173905 -0.027078947 0.15221208 0.13423523 -0.014325538 0.024180332
0.076494984 0.18117456 -0.108856015 0.11328305 -0.010275424 0.11017714 0.18730345 0.0912338
-0.056022838 0.14524351 -0.023247624 -0.047890317 -0.010831247 -0.090162545 -0.09252332 -0.0044016363
0.07602885 0.30918834 0.24543165 0.17863016 0.012333372 0.05063795 0.16491573 -0.001644745
0.022291072 -0.06979998 0.21960263 0.007387153 0.030798664 -0.06462165 -0.029958148 0.07354776
-0.04929091 0.06765484 -0.101241514 -0.13265815 0.080336496 -0.30799764 -0.10210779 0.09778971
0.062759876 0.042094395 0.12555203 0.26928228 0.2522714 0.22370392 0.015570315 -0.1242789
0.06407427 -0.090680845 0.16018137 0.048912626 -0.028075764 0.20685953 0.16097215 0.017267223
-0.17594591 -0.16463587 -0.08467039 0.06464311 -0.0038331777 -0.103499755 0.12889291 0.19860138
0.14677854 -0.118543416 -0.100193106 -0.11088438 0.11631628 0.19438581 -0.0023799327 0.16850024
0.09043112 0.15911064 -0.008382097 -0.06634986 0.17135514 -0.1395418 -0.19201246 -0.21325734
0.14071 -0.063070685 -0.31201077 0.08436554 0.37456265 0.1707403 -0.15645763 -0.31466615
-0.315908 0.015931387 -0.055313528 -0.18007079 -0.08842682 -0.10373697 -0.17076069 -0.04576476
-0.3226782 -0.13475144 0.20681459 0.11490339 -0.038234808 -0.05326496 -0.078941755 0.13905317
0.20192328 0.19674683 0.13018945 -0.039207827 0.067374475 0.0075279702 0.07825707 -0.101421826
-0.06243368 -0.09711423 0.12957552 -0.042736746 -0.068253435 0.044779304 0.037507065 -0.0026466749
0.19785213 0.0439118 -0.0944807 0.028129268 0.10997075 -0.07406733 -0.2557202 -0.010481331
0.01869421 0.15841375 -0.04989422 -0.087785274 -0.12716955 0.004543771 -0.109505296 -0.022538228
0.14293703 -0.19441059 -0.11894972 0.11425375 0.14338294 0.08400635 -0.08374391 0.017711226
0.18308166 0.16273211 -0.045418482 0.12075174 0.017912088 0.048166327 -0.008188388 0.19052142
0.15389359 0.12933177 0.27907777 0.15815921 0.13454649 0.046893023 0.023833506 0.10277575
0.17372006 -0.070002995 0.15850694 0.014111039 -0.27266732 -0.011838162 0.023667052 0.15690704
0.24544913 -0.016671643 -0.15771413 -0.08140041 0.03668955 0.037545655 0.026989225 0.0031927924
-0.21110569 -0.18726397 0.05944908 -0.020614654 -0.41353315 -0.33040518 0.1184925 -0.11799597
0.22430053 0.15939058 0.3927781 0.14117032 -0.085781306 -0.15447214 -0.27718458 0.07933362
0.22225535 0.39894378 -0.037071414 -0.05067093 -0.08503712 0.1423432 0.042106967 0.09835189
0.044104055 0.08324949 0.021669649 -0.15097606 -0.1931005 0.055902656 -0.051306974 0.061930887
-0.0765431 0.032115765 -0.02554154 0.064055175 0.020857597 -0.043917753 -0.0839013 -0.0891683
0.007447908 0.11948562 -0.2647264 -0.092182525 0.12131143 -0.13869475 0.00083191565 -0.10604326
0.16415744 0.21876512 0.20683023 -0.009539679 0.15355647 0.34465554 -0.20006263 0.017270667
0.19533588 0.33252725 0.137774 0.06864751 0.110960156 0.13688633 0.2753436 -0.14898859
00000000: 1657 ecbd b27c c43c addc 61bd 503c c03e
00000010: 3a43 f7bc 0cc4 1cbe 5ce9 253d c4b1 53be
00000020: 3681 403e 49cc 0d3e afe1 bbbd abd4 ddbc
00000030: 7cdd 1b3e f674 093e a9b5 6abc d515 c63c
00000040: 67a9 9c3d d385 393e e7ef debd f200 e83d
00000050: 415a 28bc 8da4 e13d 7acc 3f3e c9d8 ba3d
00000060: 3478 65bd b7ba 143e cd71 bebc a328 44bd
00000070: 8b75 31bc 24a7 b8bd de7c bdbd 9a3b 90bb
00000080: 04b5 9b3d ef4d 9e3e 6f52 7b3e d3ea 363e
00000090: e911 4a3c bd69 4f3d abdf 283e 7c94 d7ba
000000a0: c49b b63c 4bf3 8ebd 83df 603e ee0f f23b
000000b0: 7b4d fc3c 5b58 84bd ca6a f5bc 35a0 963d
000000c0: 44e5 49bd 9f8e 8a3d b657 cfbd 8ad7 07be
000000d0: 7687 a43d deb1 9dbe e41d d1bd f945 c83d
000000e0: 4088 803d 2c6b 2c3d b690 003e 5edf 893e
000000f0: b829 813e a412 653e a21a 7f3c f085 febd
00000100: 5f39 833d e1b6 b9bd 9606 243e 9b58 483d
00000110: 25ff e5bc fcd2 533e e2d5 243e fe73 8d3c
00000120: 2a2b 34be 4e96 28be ab67 adbd 9b63 843d
00000130: 0d36 7bbb aef7 d3bd 81fc 033e 295e 4b3e
00000140: 1d4d 163e e4c6 f2bd 0b32 cdbd 5a17 e3bd
00000150: 3b37 ee3d 130d 473e a5f8 1bbb 548b 2c3e
00000160: f333 b93d e6ed 223e 1055 09bc 6fe2 87bd
00000170: b977 2f3e 0ce4 0ebe ea9e 44be 2260 5abe
00000180: 4816 103e 342b 81bd e0bf 9fbe d7c7 ac3d
00000190: adc6 bf3e 8cd6 2e3e 6e36 20be ec1b a1be
000001a0: b2be a1be 8a82 823c 7090 62bd 7a64 38be
000001b0: 1f19 b5bd 0c74 d4bd e4db 2ebe d473 3bbd
000001c0: 1436 a5be 48fc 09be 34c7 533e 7852 eb3d
000001d0: 1a9c 1cbd 5c2c 5abd 37ac a1bd f463 0e3e
000001e0: fac4 4e3e 0078 493e 6250 053e 6398 20bd
000001f0: a1fb 893d 31ad f63b 3e45 a03d 3fb6 cfbd
00000200: 75ba 7fbd d3e3 c6bd 72af 043e ba0c 2fbd
00000210: 75c8 8bbd 816a 373d 02a1 193d d673 2dbb
00000220: c099 4a3e dcdc 333d 197f c1bd 5a6f e63c
00000230: 5838 e13d 9db0 97bd c2ed 82be e3b9 2bbc
00000240: 9a24 993c 3737 223e e25d 4cbd c4c8 b3bd
00000250: bc38 02be eae3 943b 5044 e0bd 17a2 b8bc
00000260: 165e 123e 9213 47be e99b f3bd dffd e93d
00000270: fad2 123e 850b ac3d ed81 abbd 2217 913c
00000280: c279 3b3e 3fa3 263e bb08 3abd b04c f73d
00000290: 5fbc 923c 0e4a 453d 9728 06bc 0c18 433e
000002a0: 4896 1d3e 8c6f 043e 48e3 8e3e 7df4 213e
000002b0: 8ec6 093e e612 403d 7c3e c33c 187c d23d
000002c0: ace3 313e bb5d 8fbd a54f 223e fd31 673c
000002d0: 0d9b 8bbe daf4 41bc 68e1 c13c 3dac 203e
000002e0: 0457 7b3e f892 88bc d07f 21be 42b5 a6bd
000002f0: c847 163d 79c9 193d 8218 dd3c 2b3e 513b
00000300: 172c 58be 20c2 3fbe e180 733d 10e0 a8bc
00000310: 9eba d3be de2a a9be 32ac f23d dfa7 f1bd
00000320: 0aaf 653e 4937 233e 361a c93e f48e 103e
00000330: 1cae afbd f22d 1ebe 23eb 8dbe aa79 a23d
00000340: e896 633e 5c42 cc3e 32d8 17bd 528c 4fbd
00000350: f127 aebd 6ac2 113e 5b78 2c3d b76c c93d
00000360: 74a6 343d b57e aa3d 8c84 b13c 7899 1abe
00000370: 23bc 45be 2ffa 643d 4327 52bd 3eab 7d3d
00000380: a1c2 9cbd d28b 033d 7e3c d1bc 5c2f 833d
00000390: 8ddd aa3c 1ae3 33bd 72d4 abbd df9d b6bd
000003a0: 950d f43b e0b4 f43d 388a 87be 31ca bcbd
000003b0: 2172 f83d ff05 0ebe ea14 5a3a 352d d9bd
000003c0: e318 283e f703 603e 4ecb 533e 504c 1cbc
000003d0: e83d 1d3e b176 b03e 38dd 4cbe 377b 8d3c
000003e0: 2106 483e 0341 aa3e a114 0d3e 1197 8c3d
000003f0: 143f e33d ee2b 0c3e d6f9 8c3e 7790 18be

conv3.bias f4 [32]
-0.16852716 -0.20782065 -0.36114848 -0.06440713 -0.15772152 -0.10517846 -0.1733887 -0.09131331
-0.10693395 -0.17393178 -0.09926228 -0.14792983 -0.18511021 -0.25743443 -0.14786303 -0.40789214
-0.21513705 -0.16464953 -0.037652668 -0.22225541 -0.15759434 -0.10344655 0.07166645 -0.3754027
0.02867078 -0.24751501 -0.15817235 -0.15390262 -0.15656239 -0.12305861 -0.31828642 -0.2372652
00000000: 6292 2cbe f0ce 54be 74e8 b8be e3e7 83bd
00000010: c081 21be ce67 d7bd cf8c 31be 7902 bbbd
00000020: 3000 dbbd 2c1b 32be 064a cbbd eb7a 17be
00000030: 888d 3dbe 72ce 83be 6869 17be 3dd7 d0be
00000040: e34c 5cbe e399 28be af39 1abd ec96 63be
00000050: 6960 21be c9db d3bd dcc5 923d c834 c0be
00000060: fcde ea3c 9374 7dbe eff7 21be a698 1dbe
00000070: e451 20be 2706 fcbd 70f6 a2be a6f5 72be

bn3.weight f4 [32]
0.9953326 0.96954936 1.0027338 0.87019557 1.0331012 1.0352219 0.88488525 1.0020553
0.8358772 1.0548228 0.99275386 0.96253884 1.0345203 1.1085206 0.9282186 0.9648758
1.0133992 1.0360388 0.97512686 1.01653 0.95238906 0.8978904 1.0205611 1.0371199
0.64743274 1.1305244 1.0248659 0.97634494 1.1128725 0.9639726 0.9521371 0.99002457
00000000: 1ece 7e3f 6334 783f 9559 803f 23c5 5e3f
00000010: a93c 843f 2782 843f d787 623f 5943 803f
00000020: 0cfc 553f 6f04 873f 1e25 7e3f f268 763f
00000030: 296b 843f 01e4 8d3f bc9f 6d3f 1a02 773f
00000040: 11b7 813f eb9c 843f eaa1 793f a81d 823f
00000050: c5cf 733f 25dc 653f bfa1 823f 58c0 843f
00000060: 27be 253f 06b5 903f ce2e 833f bef1 793f
00000070: 9b72 8e3f e9c6 763f 42bf 733f 4072 7d3f

bn3.bias f4 [32]
-0.15703738 0.13038492 0.100066446 0.21927114 -0.13885683 0.105188414 -0.09664821 -0.10993298
-0.11298267 0.015670296 0.16361497 0.3673332 0.13819516 -0.055844776 0.31400523 0.32580036
0.21491642 -0.025407324 -0.1262838 0.17311108 0.044273786 0.25591215 0.37880918 0.30052844
-0.4427722 0.00994926 0.16135342 0.22566997 -0.029797157 -0.09091994 -0.050073814 0.12788773
00000000: 68ce 20be a083 053e a3ef cc3d 9d88 603e
00000010: 7c30 0ebe 066d d73d 7fef c5bd 8b24 e1bd
00000020: 7563 e7bd fe5e 803c af8a 273e 1913 bc3e
00000030: 0883 0d3e 7ebd 64bd 4bc5 a03e 4ecf a63e
00000040: 0d13 5c3e 0523 d0bc 8a50 01be 0844 313e
00000050: 6e58 353d eb06 833e 47f3 c13e ddde 993e
00000060: 0ab3 e2be 3902 233c d539 253e 0716 673e
00000070: 2b19 f4bc 3c34 babd 331a 4dbd 00f5 023e

bn3.running_mean f4 [32]
0.46408007 0.5269789 0.36578673 0.4473465 0.6703654 0.332343 0.37082043 0.7392076
0.50215673 0.34231168 0.4362641 0.13760829 0.5038678 0.5149834 0.83309156 0.3375258
0.45012546 0.3163896 0.97909796 0.5329374 0.68082166 0.64751476 1.1830636 0.25891116
0.6915964 0.64086056 0.4586835 0.44151872 0.65218014 0.51637477 0.330275 0.47207004
00000000: e79b ed3e 17e8 063f 6648 bb3e 9a0a e53e
00000010: 119d 2b3f dd28 aa3e 2ddc bd3e b63c 3d3f
00000020: 588d 003f 7a43 af3e 025e df3e 30e9 0c3e
00000030: 7bfd 003f f4d5 033f 7d45 553f 2fd0 ac3e
00000040: d876 e63e d1fd a13e 2aa6 7a3f 966e 083f
00000050: 544a 2e3f 87c3 253f a16e 973f 0190 843e
00000060: 760c 313f 700f 243f 90d8 ea3e be0e e23e
00000070: 47f5 263f 2331 043f ce19 a93e 2ab3 f13e

bn3.running_var f4 [32]
1.1224786 1.553102 0.44287235 0.44716024 1.4991462 0.6575738 0.7709605 1.146129
0.9308205 0.5248163 1.2015233 0.3587753 1.0944859 1.6941408 1.3520997 0.71891093
0.9601758 0.70131046 1.5576686 1.2289734 1.1366014 0.91440123 1.8064265 0.58057946
0.9282421 1.9370571 1.1927327 1.3878279 1.3990085 0.6597237 0.8513774 0.91326267
00000000: 61ad 8f3f 0ccc c63f 2ac0 e23e 30f2 e43e
00000010: 06e4 bf3f c256 283f ab5d 453f 5bb4 923f
00000020: 414a 6e3f 5c5a 063f 84cb 993f 65b1 b73e
00000030: 1d18 8c3f 9bd9 d83f 9a11 ad3f 8c0a 383f
00000040: 15ce 753f 1589 333f af61 c73f 004f 9d3f
00000050: 287c 913f 3316 6a3f fc38 e73f dba0 143f
00000060: 46a1 6d3f 7df1 f73f 77ab 983f 58a4 b13f
00000070: b612 b33f a7e3 283f dff3 593f 95cb 693f

conv4.weight f4 [64, 32, 3, 3]
0.18680024 0.18030612 0.22108448 -0.021183489 0.07246571 -0.08252061 -0.068045855 -0.08255806
-0.13455494 -0.059402987 -0.0050374423 0.19833261 -0.027129836 -0.00019829787 0.0071509234 -0.021804905
-0.0068824138 -0.023430748 -0.08945218 0.2806916 0.1956668 0.0886675 0.006854681 -0.252444
0.1035151 0.045134842 -0.124299 0.14219835 -0.0017759874 -0.01170919 -0.023561465 -0.064098544
-0.034639463 0.1879858 0.18460563 0.09113965 -0.013723271 -0.029139513 -0.08625644 0.00974098
0.09565975 0.13976899 0.016414974 0.20973702 0.15665713 0.09818324 0.18560101 0.01269799
-0.008878719 0.031565122 -0.04931419 -0.033573132 -0.02147013 -0.17037773 -0.00757026 0.20340101
0.16532607 -0.10059845 -0.12013488 -0.22785519 -0.02063723 0.19359097 -0.04331334 0.09779028
0.2247316 0.25518832 -0.28360417 -0.21708152 -0.050974134 -0.0056213797 -0.15636641 -0.2624575
-0.0027541358 0.08161427 0.16765012 0.14229469 0.1640216 -0.027857311 0.06488854 0.040937528
0.051704593 -0.2280644 0.053352747 0.030433599 -0.06690135 -0.027346464 0.05523957 -0.08312315
0.010050077 0.024020793 -0.086894214 -0.13244674 -0.109567866 -0.044694223 0.06934614 0.12817876
-0.08935742 -0.031833798 -0.2053222 0.04037902 0.11773519 0.030528538 0.010077019 -0.049707063
-0.14149591 -0.2216847 -0.351483 -0.26928905 -0.07391413 -0.063728414 -0.03636702 -0.02210274
-0.0097197145 0.18547867 0.1050122 0.045167986 -0.079337575 -0.0977857 -0.2587045 -0.19713728
0.111627474 0.040238194 0.13403212 0.12324463 -0.012829588 -0.046365328 0.1127224 0.029211741
-0.1424364 -0.18394886 -0.09232704 -0.044481996 -0.25379857 -0.07667146 -0.1129528 -0.014929485
-0.0074211094 -0.012820587 -0.16368927 -0.26619732 -0.05007529 0.08096533 0.060698397 -0.07449085
0.013152618 -0.036616147 0.07504003 0.027437016 -0.028578417 0.07747916 -0.04405601 -0.23837835
-0.20777473 -0.21862999 -0.11931621 0.0018487715 0.18860318 0.17211124 0.08764734 -0.022691857
-0.1917109 -0.32952708 0.021957109 -0.22087108 -0.0051298332 0.14304404 0.030209063 -0.11471632
-0.19793643 -0.11273335 -0.053594436 0.07040327 -0.18764749 -0.18894768 -0.038335897 -0.02394257
0.07050263 -0.03126945 0.058306105 -0.08388554 0.1131922 0.050527677 0.042543665 0.097365044
0.0030937789 -0.091192275 0.14405064 -0.09049976 0.0076487632 0.03830216 -0.12204974 -0.25733617
0.023820987 -0.08249589 -0.0056644552 -0.1257011 -0.0979208 -0.25694364 -0.22028306 -0.17508264
-0.027569233 -0.019834317 0.00097490643 -0.0072866012 -0.079242334 -0.0036021373 -0.06427339 -0.14183
0.031227048 -0.019710874 -0.0432131 -0.14662263 -0.023098877 0.034954637 -0.0013449143 -0.25823602
0.12594764 0.08649979 0.027331648 -0.099899486 -0.040842086 0.0072794086 -0.007465227 -0.10353989
0.06368629 -0.12146046 -0.12859151 -0.032357465 0.03875087 -0.055502556 -0.027635533 -0.05799671
-0.009763622 -0.0710231 0.022992542 -0.094944954 -0.27727345 -0.076518364 -0.064479165 -0.2757514
0.10423041 -0.025723398 0.074642345 0.049100224 -0.26185212 -0.08356436 0.037643727 0.09107823
-0.101630375 0.120491974 -0.086056754 -0.09569521 -0.12258417 -0.018518839 -0.016257806 -0.20507354
00000000: 9048 3f3e 2ba2 383e f863 623e ff88 adbc
00000010: e768 943d 9100 a9bd a05b 8bbd 3314 a9bd
00000020: c5c8 09be 8c50 73bd 2111 a5bb b417 4b3e
00000030: 643f debc 2eee 4fb9 4b52 ea3b 33a0 b2bc
00000040: df85 e1bb d7f1 bfbc b432 b7bd cfb6 8f3e
00000050: e15c 483e 4e97 b53d 3b9d e03b 5740 81be
00000060: baff d33d 50df 383d 7990 febd 729c 113e
00000070: 40c8 e8ba e7d7 3fbc f903 c1bc 1946 83bd
00000080: 1ce2 0dbd 597f 403e 4209 3d3e 6da7 ba3d
00000090: 92d7 60bc fdb5 eebc 37a7 b0bd a298 1f3c
000000a0: 42e9 c33d 9a1f 0f3e b278 863c 4dc5 563e
000000b0: ba6a 203e 4b14 c93d 310e 3e3e 3b0b 503c
000000c0: 0c78 11bc 6e4a 013d adfd 49bd fb83 09bd
000000d0: 20e2 afbc 8077 2ebe f20f f8bb 5b48 503e
000000e0: 3d4b 293e 8f06 cebd 4709 f6bd df52 69be
000000f0: 680f a9bc b63c 463e 5469 31bd 4546 c83d
00000100: 0a20 663e 0ba8 823e 9134 91be 9e4a 5ebe
00000110: 41ca 50bd 8d33 b8bb 841e 20be d460 86be
00000120: bb7e 34bb 6225 a73d 79ac 2b3e b3b5 113e
00000130: 47f5 273e 0435 e4bc 48e4 843d 1cae 273d
00000140: 32c8 533d b789 69be 6988 5a3d e24f f93c
00000150: 9303 89bd b105 e0bc e342 623d 783c aabd
00000160: 14a9 243c 41c7 c43c 98f5 b1bd 1ea0 07be
00000170: 1e65 e0bd 4a11 37bd 5905 8e3d 4b41 033e
00000180: 0601 b7bd 2864 02bd fc3f 52be 7964 253d
00000190: 261f f13d fc16 fa3c 151a 253c a299 4bbd
000001a0: 4ee4 10be 5001 63be 94f5 b3be 41e0 89be
000001b0: 4b60 97bd 0b84 82bd 96f5 14bd ce10 b5bc
000001c0: 703f 1fbc 1fee 3d3e a310 d73d 1102 393d
000001d0: bd7b a2bd de43 c8bd eb74 84be 5bde 49be
000001e0: f29c e43d ced0 243d b73f 093e ae67 fc3d
000001f0: 3133 52bc 92e9 3dbd 00db e63d 764d ef3c
00000200: d9da 11be 175d 3cbe f615 bdbd c132 36bd
00000210: e3f1 81be ed05 9dbd cc53 e7bd cc9a 74bc
00000220: c72c f3bb 700d 52bc 299e 27be 044b 88be
00000230: bf1b 4dbd 27d1 a53d e29e 783d a98e 98bd
00000240: 147e 573c d0fa 15bd 96ae 993d 98c3 e03c
00000250: 491d eabc 65ad 9e3d 1374 34bd 7419 74be
00000260: e6c2 54be 8ae0 5fbe 0f5c f4bd 7a52 f23a
00000270: 3121 413e ee3d 303e 7380 b33d 46e4 b9bc
00000280: dd4f 44be c6b7 a8be 65df b33c 072c 62be
00000290: 2918 a8bb 237a 123e ff78 f73c 64f0 eabd
000002a0: d9af 4abe bee0 e6bd d785 5bbd 972f 903d
000002b0: aa26 40be 807b 41be 1a06 1dbd 3523 c4bc
000002c0: af63 903d 6514 00bd 62d2 6e3d 2fcc abbd
000002d0: 50d1 e73d 1cf6 4e3d 4442 2e3d 5367 c73d
000002e0: ffc0 4a3b 04c3 babd 0382 133e f057 b9bd
000002f0: 7aa2 fa3b bae2 1c3d 37f5 f9bd 91c1 83be
00000300: 3b24 c33c 9bf3 a8bd e59c b9bb cab7 00be
00000310: b38a c8bd 1e8e 83be e291 61be dd48 33be
00000320: dfd8 e1bc 947b a2bc dd90 7f3a 71c4 eebb
00000330: ce49 a2bd d611 6cbb c4a1 83bd e23b 11be
00000340: decf ff3c b378 a1bc 3800 31bd 3e24 16be
00000350: db39 bdbc 982c 0f3d d647 b0ba 8337 84be
00000360: 6bf8 003e cd26 b13d 9fe6 df3c 1a98 ccbd
00000370: 084a 27bd 1b88 ee3b dd9e f4bb b90c d4bd
00000380: f56d 823d 43c0 f8bd 7ead 03be 4389 04bd
00000390: 3bb9 1e3d a656 63bd ea63 e2bc f58d 6dbd
000003a0: 99f7 1fbc 8f74 91bd db5a bc3c 8072 c2bd
000003b0: c9f6 8dbe a9b5 9cbd a70d 84bd 4a2f 8dbe
000003c0: c176 d53d e0b9 d2bc 16de 983d 511d 493d
000003d0: 7b11 86be cb23 abbd 4f30 1a3d 3987 ba3d
000003e0: 9623 d0bd 7fc4 f63d 863e b0bd dafb c3bd
000003f0: 690d fbbd d2b4 97bc 172f 85bc ccfe 51be

conv4.bias f4 [64]
-0.28651595 -0.050815422 0.033177458 -0.08509849 -0.27224213 -0.18944417 -0.06980831 -0.07843695
-0.088733345 -0.23815587 -0.17307872 -0.19846477 -0.105160646 -0.2438343 -0.04065409 0.12811068
-0.2794861 -0.22977133 -0.17521039 -0.035009656 -0.18485117 -0.2743535 -0.19740868 -0.33937538
-0.2686982 -0.14013948 0.096445404 -0.22877528 -0.15752216 -0.036595684 -0.061773337 -0.13860987
-0.13204563 -0.11049387 -0.33878753 -0.18199588 -0.21613424 -0.20427772 -0.00857752 -0.15017055
-0.3703549 -0.3661793 -0.36584437 -0.08492109 -0.09997594 -0.035750557 -0.30385745 -0.32877904
-0.06681874 -0.15304914 -0.06515262 0.14961241 -0.22000946 -0.099905066 -0.3035145 -0.3365649
-0.011244395 -0.29376638 -0.19279648 -0.48007426 -0.020540832 -0.3459695 -0.52509195 0.03311691
00000000: 38b2 92be d523 50bd 16e5 073d 1e48 aebd
00000010: 5263 8bbe a7fd 41be a9f7 8ebd 8da3 a0bd
00000020: d4b9 b5bd 22df 73be 8c3b 31be 593a 4bbe
00000030: 775e d7bd b3af 79be e784 26bd 722f 033e
00000040: cd18 8fbe 2d49 6bbe 5a6a 33be 4966 0fbd
00000050: a049 3dbe 1078 8cbe 8025 4abe 9cc2 adbe
00000060: cf92 89be b980 0fbe 2b85 c53d 1144 6abe
00000070: 7d4d 21be 5be5 15bd 0a06 7dbd bfef 0dbe
00000080: f836 07be 9c4a e2bd 8f75 adbe 215d 3abe
00000090: 4b52 5dbe 2e2e 51be ba88 0cbc 4fc6 19be
000000a0: 289f bdbe da7b bbbe f44f bbbe 1ceb adbd
000000b0: 30c0 ccbd 2d6f 12bd 3493 9bbe ba55 a8be
000000c0: 43d8 88bd eab8 1cbe bd6e 85bd ff33 193e
000000d0: 294a 61be 079b ccbd 4166 9bbe 3c52 acbe
000000e0: 693a 38bc 8c68 96be 716c 45be 4bcc f5be
000000f0: 3f45 a8bc ea22 b1be 6d6c 06bf 99a5 073d

bn4.weight f4 [64]
2.4870594 1.9668946 2.3149443 2.5850096 2.3513918 2.3626685 2.1269343 2.1737018
1.9948483 2.204869 2.836057 2.0707595 1.9043651 2.8665915 2.3318005 1.8936849
2.2266726 2.8088777 2.7792566 1.9340113 2.522551 2.5419054 2.6358464 2.349653
2.5675607 2.1222098 1.7701555 2.5646276 2.2685595 2.1944406 2.3792078 2.183565
2.188916 1.7910091 2.8030796 2.1853344 2.1996953 2.5986762 1.9369587 2.0100574
2.7708867 2.7094533 2.3342938 2.3416479 2.551992 1.9179691 2.1957762 2.2911024
2.2635071 2.2381854 2.5524735 2.0336614 2.258368 2.1237557 2.8194327 2.4909415
1.9050978 2.5122814 2.6111448 2.55793 1.859399 2.493298 2.7984858 1.9165169
00000000: fb2b 1f40 34c3 fb3f 0c28 1440 cc70 2540
00000010: 347d 1640 f635 1740 b11f 0840 ee1d 0b40
00000020: 3057 ff3f 931c 0d40 f581 3540 5387 0440
00000030: 3cc2 f33f 3c76 3740 383c 1540 4464 f23f
00000040: ce81 0e40 a7c4 3340 57df 3140 af8d f73f
00000050: 7a71 2140 94ae 2240 b5b1 2840 b760 1640
00000060: ea52 2440 49d2 0740 7594 e23f dc22 2440
00000070: 1430 1140 b771 0c40 f144 1840 87bf 0b40
00000080: 3317 0c40 c93f e53f a865 3340 85dc 0b40
00000090: cfc7 0c40 b650 2640 43ee f73f c8a4 0040
000000a0: 3556 3140 af67 2d40 1265 1540 8fdd 1540
000000b0: d653 2340 0380 f53f 9987 0c40 6ca1 1240
000000c0: 4ddd 1040 6e3e 0f40 ba5b 2340 8227 0240
000000d0: 1a89 1040 9deb 0740 9671 3440 966b 1f40
000000e0: 3fda f33f 38c9 2040 ff1c 2740 20b5 2340
000000f0: c900 ee3f 3292 1f40 641a 3340 6d50 f53f

bn4.bias f4 [64]
-0.08831684 0.26793742 0.3107396 0.2919645 -0.2195992 -0.121485434 0.22264436 -0.15076034
-0.29580417 0.20945303 -0.16171515 0.17393932 -0.2432376 0.24120054 0.2781938 0.22866969
-0.28506514 -0.2679297 0.32197085 0.15791322 -0.21247382 0.24122874 0.3080381 -0.29331812
0.17064762 -0.20444779 -0.26115507 -0.2206901 0.1714942 -0.30572382 -0.16668461 0.22527298
-0.3011517 -0.24716482 0.18198918 -0.20154543 -0.2555742 -0.14753799 0.17539915 0.25414887
-0.2475053 0.15460555 -0.15318501 0.2386654 -0.23750481 0.2370521 -0.2891092 0.13923067
0.29513827 -0.19567111 0.23595464 0.31763273 -0.24988022 -0.2853439 -0.16347815 -0.16357926
0.13421656 -0.22968484 -0.1537713 -0.2795013 -0.2399393 0.24546759 0.21064058 0.253737
00000000: 76df b4bd 182f 893e 4319 9f3e 5f7c 953e
00000010: 9dde 60be 5bcd f8bd e2fc 633e eb60 1abe
00000020: a573 97be db7a 563e a898 25be 261d 323e
00000030: 4713 79be 46fd 763e 6b6f 8e3e 6328 6a3e
00000040: 0ff4 91be 152e 89be 5dd9 a43e 01b4 213e
00000050: bd92 59be ab04 773e 2bb7 9d3e cb2d 96be
00000060: 40be 2e3e c35a 51be 1eb6 85be 96fc 61be
00000070: 2d9c 2f3e d587 9cbe 5faf 2abe f6ad 663e
00000080: 8e30 9abe c618 7dbe 5f5b 3a3e ed61 4ebe
00000090: 9fda 82be 3314 17be d69b 333e cd1f 823e
000000a0: 0872 7dbe eb50 1e3e 88dc 1cbe b464 743e
000000b0: 7634 73be c9bd 723e 1f06 94be 7c92 0e3e
000000c0: 5d1c 973e 025e 48be 189e 713e c2a0 a23e
000000d0: 9ae0 7fbe 9818 92be d166 27be 5281 27be
000000e0: 1170 093e 8132 6bbe 3976 1dbe cb1a 8fbe
000000f0: a6b2 75be db5b 7b3e 2ab2 573e d1e9 813e

bn4.running_mean f4 [64]
0.12803979 0.7537974 0.28962743 0.21855275 0.18051954 0.11415746 0.30250922 0.22649297
0.48683167 0.29980657 0.09280407 0.2706551 0.4431503 0.16248982 0.2572522 0.8823946
0.27234712 0.19722447 0.15300603 0.6038062 0.20823584 0.12221347 0.17071724 0.16777742
0.17984214 0.27108684 1.5997491 0.0995112 0.3587983 0.33566463 0.3476991 0.31877357
0.1910315 0.5782103 0.10668593 0.28943223 0.13271554 0.1872747 0.32844192 0.57316875
0.081924155 0.2627089 0.16725358 0.35998017 0.15463224 0.35194996 0.22149637 0.4040049
0.38178843 0.120482445 0.5973551 0.7988411 0.17193405 0.25880438 0.16292088 0.10339403
0.77857226 0.059423793 0.19639502 0.10463092 0.23394658 0.13881864 0.16137655 0.62751913
00000000: dd1c 033e def8 403f 0c4a 943e 4bcc 5f3e
00000010: 1dda 383e 63cb e93d 7de2 9a3e c6ed 673e
00000020: 0042 f93e 3f80 993e 0f10 be3d 4e93 8a3e
00000030: 99e4 e23e bb63 263e 8fb6 833e 9de4 613f
00000040: 1571 8b3e 36f5 493e 9dad 1c3e 0b93 1a3f
00000050: c73b 553e 0e4b fa3d 80d0 2e3e d8cd 2b3e
00000060: 8a28 383e e5cb 8a3e 94c4 cc3f 87cc cb3d
00000070: 69b4 b73e 3cdc ab3e 9e05 b23e 4a36 a33e
00000080: c39d 433e 9705 143f 277e da3d 7630 943e
00000090: 95e6 073e f0c4 3f3e 8a29 a83e 30bb 123f
000000a0: dac7 a73d c881 863e 8644 2b3e 524f b83e
000000b0: ea57 1e3e c932 b43e f2cf 623e bbd9 ce3e
000000c0: c679 c33e 80bf f63d 44ec 183f da80 4c3f
000000d0: 7b0f 303e 0282 843e bbd4 263e 40c0 d33d
000000e0: 8350 473f 5d66 733d c71b 493e bc48 d63d
000000f0: b18f 6f3e 7926 0e3e e53f 253e 18a5 203f

bn4.running_var f4 [64]
0.20517413 1.7968187 0.6001937 0.50125325 0.3497919 0.25066337 0.62880975 0.4338977
0.72168285 0.6221156 0.27915004 0.6283761 0.7377963 0.34102228 0.61326826 1.9854385
0.54920214 0.38585785 0.3854249 1.0064229 0.4787247 0.2652695 0.3256931 0.32671854
0.38961008 0.469515 1.8746363 0.16282976 0.7628522 0.40837577 0.5031758 0.69811225
0.39572525 0.9589286 0.21324351 0.4675484 0.19408077 0.35373732 0.7027564 1.4778538
0.16068284 0.6008903 0.3333942 0.47923756 0.24864915 0.84646547 0.41980675 0.8088562
0.72204113 0.22685187 1.4049672 1.8721769 0.35083613 0.409044 0.45730516 0.19375744
1.647894 0.12481265 0.42262062 0.20031023 0.3903864 0.27824232 0.31854787 1.5642056
00000000: 2b19 523e 28fe e53f 4ba6 193f 2252 003f
00000010: ed17 b33e f356 803e adf9 203f d727 de3e
00000020: 35c0 383f f842 1f3f c1ec 8e3e 42dd 203f
00000030: 38e0 3c3f 799a ae3e 26ff 1c3f d922 fe3f
00000040: 8398 0c3f 298f c53e 6a56 c53e 77d2 803f
00000050: 671b f53e 67d1 873e 3fc1 a63e a747 a73e
00000060: f97a c73e 4564 f03e 15f4 ef3f d8bc 263e
00000070: 484a 433f a116 d13e 21d0 003f 7cb7 323f
00000080: 809c ca3e 587c 753f 825c 5a3e 8162 ef3e
00000090: 1cbd 463e 0f1d b53e d8e7 333f 502a bd3f
000000a0: 0b8a 243e f2d3 193f a5b2 aa3e a05e f53e
000000b0: e29d 7e3e f6b1 583f e9f0 d63e 3311 4f3f
000000c0: b0d7 383f db4b 683e f7d5 b33f 7ea3 ef3f
000000d0: cba0 b33e 376e d13e e723 ea3e 5a68 463e
000000e0: 31ee d23f c69d ff3d bb61 d83e 201e 4d3e
000000f0: bae0 c73e c775 8e3e b518 a33e e437 c83f

lin.weight f4 [10, 64]
0.6771806 0.2176341 -0.8535758 0.05235356 -0.6687989 -0.68384296 0.59445447 -0.6905895
0.073683284 0.7671519 -0.9228618 0.527596 -0.3895308 -0.11775071 -0.061795574 0.33958519
-0.03841097 -0.26795852 -0.8903458 0.36061805 -0.43646422 0.48193005 -0.30529475 0.4551279
1.0409182 -0.47665924 -0.08056733 -0.5450764 0.84581023 0.16411181 -0.89666706 0.57515657
0.38981563 -0.36953434 0.80700016 0.31811312 -0.38874996 -0.9044181 0.56451833 0.19496419
1.024858 0.880492 -0.8190641 0.403046 0.18636787 0.48334476 -0.063648134 1.0487291
-0.0052308072 -0.18713243 0.107704885 0.21004857 -0.537589 -0.25960618 -1.1041671 -0.73511785
0.43794098 -0.5257393 -0.8483823 0.6537401 -0.50522554 0.73709786 0.84160924 0.3092429
-1.17053 0.24894679 0.63053083 -0.15744017 -0.39106387 1.1059781 0.31547043 0.37788922
-0.43674493 0.11864372 0.47125822 -0.62101114 -0.24583872 -1.1134555 0.32718256 0.27887943
-0.5809047 -0.7019944 0.66993386 -1.082824 0.13296025 0.64510196 0.14608221 -0.83396626
0.11409834 0.23571107 -0.47852564 -0.7191071 -1.3456352 -0.20757447 0.6889905 0.37555194
-0.66134816 -0.21527247 -1.2452571 -0.7305361 -0.39600667 1.1821368 -0.058658097 0.51760715
-0.23655558 0.08185823 0.819635 0.49632215 0.6860092 0.07936867 -0.41335073 -0.66539043
0.28752574 0.7341781 0.05189015 0.32638612 -0.24484284 -0.4899173 0.06552453 1.213874
-0.9285154 0.8837916 1.302214 -0.87579024 -0.16689627 0.26998213 -0.21380657 0.38742366
-0.16809833 0.1522178 0.10286949 -2.1491075 -0.28975406 -0.24290125 -1.0492797 -0.21552886
0.5345539 0.25030878 -0.14829375 -0.8436043 0.018050173 -0.022902919 -0.93635416 -0.4603499
1.0017023 0.9823372 -0.50103146 -0.15464063 -0.53300154 -0.7624487 0.3152774 -0.23252986
-0.53758806 -0.40654254 0.92105746 -0.14555271 0.10756493 0.3490543 0.8647777 -0.4799698
-0.2975478 1.1004717 -1.0545075 -0.37184593 -0.24558273 -0.4037379 -0.31536788 0.21843028
-0.3487015 0.8167298 0.7045656 0.5911384 -0.30190265 -1.4819617 1.1648368 0.48429435
-0.7734395 -0.2183045 -1.975223 -1.2637622 1.279337 0.5277774 0.44516563 0.4768047
0.3606231 -0.22595741 -0.15427431 -0.34493345 0.8702765 -0.84780574 0.8367677 -0.59404606
0.6365589 0.31903133 0.09901568 0.65219754 0.37319693 0.17768215 -0.008377746 -0.21086419
-0.40313298 -1.284436 1.0130545 0.5190245 -0.10530892 1.0725086 0.661223 0.31044254
0.20057926 0.9904291 0.7645144 0.5754322 -0.51770633 -1.4063485 0.8538391 0.34616324
-1.415145 0.76540637 -0.20430143 1.5793868 0.27273434 -0.6991257 -0.24852489 -0.297622
0.36928856 -0.1768395 0.6157205 0.7397527 -0.16077316 -0.044152934 -0.87908274 0.120658144
-0.9307154 -1.2419138 -0.14307262 -1.3649015 -0.76303655 -0.03665646 0.15992637 -0.38011608
0.5781002 -0.57355416 0.7082647 0.23388018 0.20513184 0.23629749 1.1651828 -0.46427122
-0.07153186 -0.5564159 -0.47677684 0.030172843 0.2553957 -0.9296312 -0.66965735 0.16511256
00000000: b55b 2d3f 79db 5e3e f283 5abf b070 563d
00000010: 6836 2bbf 5510 2fbf 2b2e 183f 79ca 30bf
00000020: 43e7 963d 1164 443f ac40 6cbf 8810 073f
00000030: 9570 c7be 4927 f1bd 5b1d 7dbd 1cde ad3e
00000040: d254 1dbd dc31 89be b4ed 63bf eea2 b83e
00000050: 3d78 dfbe 89bf f63e 984f 9cbe 8606 e93e
00000060: cf3c 853f ae0c f4be 7c00 a5bd 208a 0bbf
00000070: 0587 583f ed0c 283e f98b 65bf 763d 133f
00000080: ea95 c73e 9b33 bdbe 9097 4e3f b9df a23e
00000090: 3c0a c7be f287 67bf 4684 103f b1a4 473e
000000a0: 8c2e 833f ec67 613f 2fae 51bf 0c5c ce3e
000000b0: 38d7 3e3e f778 f73e f459 82bd c13c 863f
000000c0: 3167 abbb a59f 3fbe 6194 dc3d f916 573e
000000d0: 6f9f 09bf 1aeb 84be 5955 8dbf af30 3cbf
000000e0: cd39 e03e da96 06bf 952f 59bf 835b 273f
000000f0: 7656 01bf 72b2 3c3f b473 573f 1655 9e3e
00000100: edd3 95bf e8eb 7e3e 786a 213f ff37 21be
00000110: 8639 c8be b190 8d3f 5785 a13e b27a c13e
00000120: 089d dfbe 7bfb f23d c248 f13e 96fa 1ebf
00000130: 25bd 7bbe b685 8ebf 7984 a73e 49c9 8e3e
00000140: 2cb6 14bf e8b5 33bf c980 2b3f fa99 8abf
00000150: bb26 083e 6725 253f 9396 153e d07e 55bf
00000160: 64ac e93d 3e5e 713e 5001 f5be 6717 38bf
00000170: c63d acbf 678e 54be ae61 303f 5848 c03e
00000180: 1d4e 29bf 6370 5cbe 9664 9fbf 6a04 3bbf
00000190: 63c1 cabe 4250 973f 7943 70bd e781 043f
000001a0: a03b 72be 4aa5 a73d 99d3 513f f01d fe3e
000001b0: 4d9e 2f3f 0b8c a23d b5a2 d3be 0757 2abf
000001c0: 9336 933e 19f3 3b3f c48a 543d 151c a73e
000001d0: 15b8 7abe 71d6 fabe ba31 863d 3960 9b3f
000001e0: 2fb3 6dbf 2b40 623f f3ae a63f ca33 60bf
000001f0: dbe6 2abe 193b 8a3e 1cf0 5abe 655c c63e
00000200: f821 2cbe fcde 1b3e 3dad d23d fa8a 09c0
00000210: a55a 94be 1bbb 78be cc4e 86bf 99b3 5cbe
00000220: 86d8 083f 7928 803e 51da 17be 74f6 57bf
00000230: f5dd 933c e79e bbbc e8b4 6fbf fbb2 ebbe
00000240: c837 803f 737a 7b3f 9943 00bf 1d5a 1ebe
00000250: ca72 08bf d72f 43bf 0a6c a13e 4f1c 6ebe
00000260: 5f9f 09bf 5826 d0be 6cca 6b3f c50b 15be
00000270: 014b dc3d 3fb7 b23e 1262 5d3f 9abe f5be
00000280: 2f58 98be 42dc 8c3f 1afa 86bf 9762 bebe
00000290: 0a7a 7bbe bcb6 cebe e677 a1be 30ac 5f3e
000002a0: 0189 b2be 3415 513f 695e 343f d954 173f
000002b0: fc92 9abe ecb0 bdbf 5f19 953f 6ef5 f73e
000002c0: 2200 46bf 378b 5fbe 1bd4 fcbf f6c2 a1bf
000002d0: 51c1 a33f 6b1c 073f c0ec e33e bf1f f43e
000002e0: 97a3 b83e 6161 67be 16fa 1dbe 1e9b b0be
000002f0: 71ca 5e3f cc09 59bf 6836 563f 6713 18bf
00000300: 86f5 223f 1358 a33e bcc8 ca3d 6bf6 263f
00000310: ab13 bf3e 4ff2 353e d042 09bc c8ec 57be
00000320: 7267 cebe 6668 a4bf c5ab 813f cade 043f
00000330: 34ac d7bd f647 893f e945 293f 53f2 9e3e
00000340: a664 4d3e c38c 7d3f 37b7 433f 864f 133f
00000350: 6788 04bf 3a03 b4bf 3395 5a3f 4f3c b13e
00000360: 7923 b5bf acf1 433f 6534 51be 5929 ca3f
00000370: d6a3 8b3e e7f9 32bf 4f7d 7ebe e961 98be
00000380: 6413 bd3e 6a15 35be dc9f 1d3f 6f60 3d3f
00000390: b8a1 24be b5d9 34bd 910b 61bf 9e1b f73d
000003a0: 5d43 6ebf 08f7 9ebf a181 12be 18b5 aebf
000003b0: 5d56 43bf 1625 16bd bdc3 233e 939e c2be
000003c0: 60fe 133f 72d4 12bf d650 353f 497e 6f3e
000003d0: 150e 523e f8f7 713e b624 953f f5b4 edbe
000003e0: 4c7f 92bd 4671 0ebf 181c f4be 0a2d f73c
000003f0: 3ac3 823e 4ffc 6dbf aa6e 2bbf 4413 293e

lin.bias f4 [10]
0.05910945 0.18407172 -0.055061117 0.026968462 0.09187171 -0.25435776 -0.27143377 -0.2535443
-0.20981976 -0.18937142
00000000: c01c 723d 4c7d 3c3e c487 61bd f7ec dc3c
00000010: 3c27 bc3d 2e3b 82be 5ef9 8abe 8fd0 81be
00000020: feda 56be 95ea 41be
