NCC_Code/Models/2022-07-10_16-51-21_model.pt (torch, 115275 bytes, 50 tensors)

conv1.weight f4 [8, 2, 5, 5]
0.2485865 0.19701385 -0.25255463 -0.36399046 -0.047647625 0.0008157632 -0.0058741895 -0.46718025
-0.019594677 -0.157735 -0.2897378 -0.10562985 0.08850058 -0.029574022 0.11083281 0.15163924
-0.06342928 -0.24906959 -0.29718292 -0.15168872 0.42571598 0.2004968 -0.01666646 -0.17210528
-0.32437903 0.07850779 -0.10778907 -0.13100064 -0.21645832 -0.4386708 0.14611489 -0.17621037
0.15829982 -0.24352978 -0.087247804 0.122646414 0.13506618 -0.15748063 -0.011530244 -0.107751414
0.35536513 0.234592 -0.10713713 -0.19545603 -0.25431108 -0.07367723 -0.047938824 -0.14511031
-0.14599214 -0.049113914 -0.2050837 -0.043226413 -0.2827715 -0.16790701 -0.12872873 0.21976052
0.5702533 0.027432917 0.35028952 0.007468045 0.09783903 -0.039319314 0.17490524 0.3940913
-0.09977293 0.1901549 -0.20894419 -0.083690114 -0.28183678 0.12004203 -0.12586525 0.23520301
0.11759342 0.04031531 0.102678314 0.027102137 -0.18808156 0.04679332 -0.063828014 0.0028333133
0.50990105 0.36941558 0.7001851 0.4221968 0.23372594 0.005726509 0.29694232 0.06664055
-0.08820281 0.16892011 -0.09904611 0.24927533 -0.06538971 0.10363983 -0.11372263 0.051300313
-0.26370987 -0.1854927 -0.14787367 -0.21728355 -0.09000183 0.004934761 0.08065648 0.25446683
0.41410598 -0.27440554 0.11578742 0.23709302 0.1310507 0.15123686 -0.2597738 -0.1613138
0.002665441 -0.02840352 -0.10674323 -0.0021961487 -0.46710157 -0.018680733 -0.5202381 0.12512071
0.0006813789 -0.15407239 0.00945537 0.032406423 0.08970168 0.05661107 0.14088812 0.24102448
0.35522717 0.05019167 0.47457573 0.075527966 -0.085777044 0.055291537 0.24811698 -0.15184158
-0.18543357 -0.33299714 -0.14995039 -0.005587459 -0.26824352 -0.036848098 -0.56099457 -0.1415474
-0.5482806 -0.071529925 0.02256184 -0.15586212 -0.07982404 -0.18264094 -0.10122172 -0.13135657
-0.27121928 -0.22851107 -0.33771333 0.24031387 0.07885839 -0.20387651 -0.31559786 -0.11981466
-0.24214177 0.29059023 -0.06797178 -0.34771773 -0.45074016 -0.0039509917 -0.09379254 0.17558338
0.12137626 -0.14985909 -0.051020876 -0.12124468 -0.26465482 -0.128675 0.04155484 0.0973504
-0.13315772 0.07376086 -0.32752964 -0.3321526 0.16601108 -0.18043363 -0.0329724 0.09909496
-0.11797915 0.16572778 -0.19173656 -0.30382892 -0.062058065 0.0070750983 0.15080294 -0.049407613
-0.4232008 -0.4605267 -0.37557933 -0.13335435 -0.15396628 0.041619137 -0.06310408 -0.23054281
-0.14086466 -0.13962816 -0.1843075 -0.2615023 -0.007697658 -0.31541747 -0.13720219 -0.3145384
-0.27087346 -0.08464511 -0.037252385 -0.35349214 -0.10808218 -0.027857628 -0.13188575 0.11208377
-0.01980674 -0.33704558 -0.048504606 -0.1556568 -0.111511275 -0.1246351 0.15157598 -0.035189703
-0.18323755 0.08856336 -0.19159 -0.08001325 0.112364285 0.16555242 0.028713416 -0.2889361
-0.15096116 -0.12115352 -0.055099383 -0.05893563 0.08708356 -0.111968495 -0.06432746 0.16908905
-0.33965197 -0.22509709 0.3090305 -0.016267829 0.357988 -0.17142326 -0.08113191 -0.21522275
0.025312461 0.17266518 0.05694402 0.37464988 0.3968892 0.14587326 0.364551 0.19521363
00000000: 768d 7e3e 00be 493e d74e 81be f55c babe
00000010: 282a 43bd f1d8 553a 467c c0bb 4032 efbe
00000020: 0485 a0bc 4985 21be 8358 94be 7654 d8bd
00000030: cb3f b53d 3845 f2bc 50fc e23d 5147 1b3e
00000040: 36e7 81bd 190c 7fbe 5c28 98be 4a54 1bbe
00000050: 72f7 d93e 084f 4d3e 1a88 88bc 5e3c 30be
00000060: 0215 a6be b1c8 a03d 84c0 dcbd 0825 06be
00000070: 40a7 5dbe 7699 e0be 249f 153e 7e70 34be
00000080: 5919 223e df5f 79be faae b2bd 0b2e fb3d
00000090: ca4e 0a3e 9a42 21be 59e9 3cbc c6ac dcbd
000000a0: 6bf2 b53e e338 703e b66a dbbd a025 48be
000000b0: 1035 82be 16e4 96bd 805b 44bd cc97 14be
000000c0: f77e 15be ac2b 49bd 7601 52be 2e0e 31bd
000000d0: 6dc7 90be d1ef 2bbe 77d1 03be e708 613e
000000e0: 1ffc 113f ffba e03c 2659 b33e 81b6 f43b
000000f0: d45f c83d 4a0d 21bd 5c1a 333e 56c6 c93e
00000100: c055 ccbd f7b7 423e 77f5 55be b965 abbd
00000110: e94c 90be 99d8 f53d d2e2 00be 0fd9 703e
00000120: d2d4 f03d ab21 253d 0249 d23d 4d05 de3c
00000130: 7498 40be 5aaa 3f3d 43b8 82bd 1caf 393b
00000140: e088 023f 0a24 bd3e 553f 333f 2e2a d83e
00000150: da55 6f3e 70a5 bb3b d308 983e d77a 883d
00000160: ada3 b4bd 65f9 2c3e b0d8 cabd 0842 7f3e
00000170: 0aeb 85bd 1f41 d43d 69e7 e8bd 4720 523d
00000180: fb04 87be ccf1 3dbe 326c 17be 947f 5ebe
00000190: e152 b8bd c7b3 a13b 392f a53d 7a49 823e
000001a0: b305 d43e e27e 8cbe f421 ed3d 83c8 723e
000001b0: 2832 063e d6dd 1a3e 1201 85be 722f 25be
000001c0: aeae 2e3b 80ae e8bc 329c dabd 43ed 0fbb
000001d0: f027 efbe 5608 99bc 532e 05bf a51f 003e
000001e0: 909e 323a 27c5 1dbe b2ea 1a3c 99bc 043d
000001f0: 84b5 b73d 02e1 673d fa44 103e 1fcf 763e
00000200: 56e0 b53e c895 4d3d 97fb f23e 68ae 9a3d
00000210: e0ab afbd 6179 623d 6112 7e3e 5c7c 1bbe
00000220: 4ce2 3dbe 9a7e aabe 988c 19be 0117 b7bb
00000230: 3757 89be 08ee 16bd 579d 0fbf cdf1 10be
00000240: 1e5c 0cbf 487e 92bd 9cd3 b83c 529a 1fbe
00000250: c97a a3bd 3a06 3bbe 554d cfbd 5682 06be
00000260: 41dd 8abe cefe 69be c3e8 acbe d714 763e
00000270: 8280 a13d 01c5 50be 0b96 a1be 6361 f5bd
00000280: 03f4 77be 3ec8 943e ca34 8bbd 0f08 b2be
00000290: 6ac7 e6be 5277 81bb 4e16 c0bd 21cc 333e
000002a0: 1e94 f83d a974 19be 44fb 50bd 214f f8bd
000002b0: d680 87be 61c3 03be 6835 2a3d a65f c73d
000002c0: 7f5a 08be ef0f 973d f7b1 a7be e80f aabe
000002d0: cffe 293e 98c3 38be 110e 07bd 4cf2 ca3d
000002e0: 0d9f f1bd 8bb4 293e 9756 44be 778f 9bbe
000002f0: 9930 7ebd 3ad6 e73b 166c 1a3e a35f 4abd
00000300: c6ad d8be 28ca ebbe ef4b c0be 0b8e 08be
00000310: 56a9 1dbe d478 2a3d b63c 81bd 6a13 6cbe
00000320: d33e 10be affa 0ebe 1bbb 3cbe a1e3 85be
00000330: a33c fcbb 667e a1be bb7e 0cbe 2d0b a1be
00000340: edaf 8abe 6a5a adbd f595 18bd ecfc b4be
00000350: 315a ddbd ae35 e4bc 0f0d 07be 2d8c e53d
00000360: bf41 a2bc 3d91 acbe c4ac 46bd 7f64 1fbe
00000370: 0660 e4bd b040 ffbd bc36 1b3e 1423 10bd
00000380: a0a2 3bbe b560 b53d 2b30 44be fddd a3bd
00000390: 3f1f e63d 9386 293e 6638 eb3c 6fef 93be
000003a0: 9095 1abe 561f f8bd e4af 61bd 7d66 71bd
000003b0: de58 b23d bd4f e5bd 1ebe 83bd ae25 2d3e
000003c0: dde6 adbe da7f 66be 3f39 9e3e 1c44 85bc
000003d0: 344a b73e 9489 2fbe 7d28 a6bd 5a63 5cbe
000003e0: 145c cf3c 24cf 303e 223e 693d 1cd2 bf3e
000003f0: 1035 cb3e cd5f 153e 6ea6 ba3e 15e6 473e

conv1.bias f4 [8]
0.45770133 -0.5803399 -0.14371444 -0.0966902 0.47705352 -0.43165275 0.3758095 -0.20007613
00000000: d457 ea3e 2891 14bf e129 13be 8305 c6bd
00000010: 5c40 f43e 9701 ddbe 1a6a c03e c2e0 4cbe

bn1.weight f4 [8]
0.8703791 1.100585 0.97420955 0.6704287 0.72442985 1.1841953 0.64610076 1.1032648
00000000: 2ad1 5e3f f8df 8c3f cc65 793f 37a1 2b3f
00000010: 3c74 393f b693 973f dc66 253f c837 8d3f

bn1.bias f4 [8]
-0.3897553 -0.37319198 0.012194501 0.20791611 0.102852 -0.09995212 0.0121095395 -0.2685653
00000000: 028e c7be 0513 bfbe 72cb 473c f6e7 543e
00000010: 12a4 d23d b2b3 ccbd 1767 463c 6481 89be

bn1.running_mean f4 [8]
1.1685376 0.55237216 0.5098665 1.1843401 1.2723366 0.30980152 1.2047175 0.43826506
00000000: a492 953f 4368 0d3f 9c86 023f 7598 973f
00000010: eddb a23f 4e9e 9e3e 2f34 9a3f 4764 e03e

bn1.running_var f4 [8]
1.2847515 2.9864876 0.6281435 1.6198833 1.1498821 0.6814634 1.2199693 1.3178852
00000000: bd72 a43f 9d22 3f40 03ce 203f 5658 cf3f
00000010: 562f 933f 6374 2e3f f427 9c3f 76b0 a83f

conv2.weight f4 [16, 8, 3, 3]
0.10666485 0.17202578 -0.009289772 -0.23992302 0.004396071 0.0018399316 0.11946871 0.109318875
0.22030777 -0.029852666 0.06813326 0.19214119 -0.2744413 -0.13673829 -0.22944672 -0.49837512
0.26844475 -0.24793594 0.053539824 0.007825514 0.085995756 0.15969068 0.098383434 -0.009051839
0.21679725 0.053798757 0.06619002 0.039893564 -0.22100776 -0.15514576 -0.21642101 0.07669354
-0.038918596 0.31394944 0.27296552 -0.08611905 0.049340446 0.2203356 0.13727915 0.055347014
-0.008451172 -0.15874906 0.16304515 0.15242445 0.24992771 0.094213076 0.4014131 0.090255946
-0.42698452 -0.2817914 -0.049046937 -0.063556574 0.1308487 0.09444737 0.11052571 0.11984511
-0.23239568 0.18655732 0.16234703 0.097234085 0.43433383 0.029465351 -0.061856523 -0.04693571
-0.077459045 -0.038855486 -0.20531054 -0.09192716 -0.104573965 0.02468064 0.00737927 0.30477718
0.20885125 0.3621663 0.12307102 0.2647152 0.24489999 0.13503441 -0.007298802 0.051584754
0.1980575 0.13714598 -0.16491802 -0.0959874 0.15179877 0.07111439 0.14098912 -0.22113197
0.098003715 -0.17288491 -0.04084882 -0.07106599 0.16555463 -0.05170954 -0.24028704 -0.066871986
0.17103535 0.38907346 0.20017883 0.19293948 0.14344326 0.17502517 0.0026170001 -0.07719096
-0.03875124 -0.047848225 0.2502767 0.18250243 -0.040430997 0.16306537 -0.08604168 0.24840435
-0.27601132 -0.15282539 -0.11157826 0.015444874 0.19959538 0.038151182 0.13738842 0.250304
0.32755086 0.4380305 0.37080392 0.040085398 -0.24388604 0.032771897 -0.13568716 0.033520076
-0.00075156847 0.2065237 0.19652726 0.066296026 0.07600012 -0.09946583 0.24300516 0.074217774
-0.16039032 0.03770617 -0.090643704 0.2320456 0.24931158 -0.23367107 -0.13773018 -0.15518236
-0.022327 -0.26840022 -0.111002 0.2591214 -0.16795929 -0.057941586 -0.12976068 -0.1072039
-0.22259697 -0.09103518 0.109435216 -0.1091989 -0.4640932 -0.15836045 -0.25060612 -0.1731638
0.15163314 0.00830035 0.061788145 -0.11885559 -0.110450044 0.028321553 -0.12834828 -0.12590997
0.01765201 -0.09997151 0.03874318 0.14750057 0.009115333 -0.23570487 -0.16459768 -0.0044658487
-0.22960015 0.005258376 0.056696005 0.088827945 -0.022589304 0.0068724053 0.14660473 0.27141005
-0.2333992 -0.18462604 0.10101206 -0.018605 0.07732359 -0.7644325 -0.24540004 -0.20253213
-0.4704138 -0.06310847 -0.3214253 -0.089523666 0.07253196 -0.0007136587 0.29570967 -0.15176031
-0.41962528 -0.089924075 -0.081152014 -0.20713718 0.015963012 0.20317607 -0.06772346 -0.3032065
-0.10404761 -0.017364511 -0.13877489 0.063047566 -0.04371648 0.02627181 0.26855385 0.2149092
0.12732403 0.19800599 -0.033025462 0.07353858 0.18774782 0.08399074 -0.11193701 0.06979161
0.26331493 -0.02192779 0.0977262 -0.037706845 -0.27860832 -0.09035574 -0.074414775 0.31946304
0.28158206 -0.0073911613 0.08811573 -0.08852678 -0.24951987 -0.043601625 -0.10889889 -0.1791908
0.10575206 -0.16841622 -0.19382977 0.07633681 -0.11156137 0.0037079619 -0.08031856 -0.167971
-0.21722625 0.108010426 0.08526322 -0.25893065 -0.038053103 -0.14113072 0.07314998 0.11122881
00000000: 1a73 da3d 8727 303e 2134 18bc 61ae 75be
00000010: eb0c 903b dc29 f13a 03ac f43d 93e2 df3d
00000020: 5c98 613e 948d f4bc 7389 8b3d a9c0 443e
00000030: 9283 8cbe 1f05 0cbe 15f4 6abe 062b ffbe
00000040: 9771 893e ebe2 7dbe 934c 5b3d 9636 003c
00000050: 8b1e b03d f485 233e 417d c93d 2a4e 14bc
00000060: 1900 5e3e 165c 5c3d a28e 873d 6f67 233d
00000070: dc4f 62be 88de 1ebe 789d 5dbe 8111 9d3d
00000080: 1b69 1fbd fbbd a03e 23c2 8b3e 2f5f b0bd
00000090: 3519 4a3d a89f 613e e892 0c3e 8db3 623d
000000a0: c976 0abc 1d8f 22be 4ff5 263e 2815 1c3e
000000b0: 0ded 7f3e c9f2 c03d 0586 cd3e 1cd8 b83d
000000c0: b79d dabe f646 90be 71e5 48bd f329 82bd
000000d0: 34fd 053e 9f6d c13d 4e5b e23d 5a71 f53d
000000e0: 22f9 6dbe e208 3f3e 4d3e 263e aa22 c73d
000000f0: 0161 de3e 5261 f13c 445d 7dbd a93f 40bd
00000100: d9a2 9ebd ee26 1fbd ed3c 52be 4f44 bcbd
00000110: e02a d6bd 0e2f ca3c cecd f13b c10b 9c3e
00000120: 1add 553e dc6d b93e a90c fc3d c088 873e
00000130: 10c7 7a3e 7646 0a3e ca2a efbb 894a 533d
00000140: 96cf 4a3e ff6f 0c3e 45e0 28be 0b95 c4bd
00000150: 2371 1b3e 6ca4 913d 745f 103e 6b70 62be
00000160: 2cb6 c83d be08 31be 1851 27bd 0c8b 91bd
00000170: 2787 293e 62cd 53bd ce0d 76be 2ef4 88bd
00000180: e423 2f3e a334 c73e aefb 4c3e ed91 453e
00000190: cae2 123e cc39 333e fa81 2b3b 4b16 9ebd
000001a0: 9fb9 1ebd 80fc 43bd 4524 803e ebe1 3a3e
000001b0: f99a 25bd 9cfa 263e 9f36 b0bd b65d 7e3e
000001c0: 5b51 8dbe 427e 1cbe 2583 e4bd 7f0c 7d3c
000001d0: bb62 4c3e 6a44 1c3d 8daf 0c3e d927 803e
000001e0: bfb4 a73e 8945 e03e 03da bd3e 9630 243d
000001f0: 43bd 79be d33b 063d 93f1 0abe 594c 093d
00000200: e804 45ba f37a 533e 713e 493e 36c6 873d
00000210: f3a5 9b3d beb4 cbbd 58d6 783e 7dff 973d
00000220: 5c3d 24be c971 1a3d 68a3 b9bd 5d9d 6d3e
00000230: 894b 7f3e 7847 6fbe 2409 0dbe 20e8 1ebe
00000240: 1de7 b6bc c16b 89be 0455 e3bd 8fab 843e
00000250: 85fd 2bbe 2854 6dbd fcdf 04be b88d dbbd
00000260: 76f0 63be a770 babd 921f e03d aca3 dfbd
00000270: a09d edbe 3e29 22be 724f 80be da51 31be
00000280: b845 1b3e 31fe 073c 9115 7d3d 8f6a f3bd
00000290: a233 e2bd 9a02 e83c bb6d 03be 8bee 00be
000002a0: f39a 903c ddbd ccbd 2bb1 1e3d 640a 173e
000002b0: 7a58 153c 9e5c 71be 4b8c 28be 4156 92bb
000002c0: 4d1c 6bbe 744e ac3b 123a 683d 6deb b53d
000002d0: 340d b9bc ea31 e13b 8d1f 163e 42f6 8a3e
000002e0: 3300 6fbe 9c0e 3dbe 69df ce3d 8369 98bc
000002f0: d55b 9e3d d9b1 43bf 264a 7bbe 9564 4fbe
00000300: 14da f0be 033f 81bd db91 a4be 2f58 b7bd
00000310: a38b 943d d314 3bba 4267 973e 0e67 1bbe
00000320: 20d9 d6be 1d2a b8bd 0733 a6bd c51b 54be
00000330: ddc4 823c 630d 503e 99b2 8abd e23d 9bbe
00000340: ea16 d5bd 0540 8ebc 011b 0ebe 151f 813d
00000350: 0d10 33bd fb37 d73c e47f 893e 2811 5c3e
00000360: 3b61 023e 15c2 4a3e b545 07bd 659b 963d
00000370: f740 403e 5603 ac3d 3b3f e5bd e7ee 8e3d
00000380: 37d1 863e e9a1 b3bc ad24 c83d 7e72 1abd
00000390: c0a5 8ebe 6e0c b9bd c666 98bd a990 a33e
000003a0: 862b 903e 8e31 f2bb 0576 b43d 874d b5bd
000003b0: 2382 7fbe 9e97 32bd 6206 dfbd cb7d 37be
000003c0: 8994 d83d 4d75 2cbe 507b 46be 7956 9c3d
000003d0: 4a7a e4bd 4701 733b 0f7e a4bd 9700 2cbe
000003e0: 8f70 5ebe 9234 dd3d 7c9e ae3d 8f92 84be
000003f0: 92dd 1bbd 9284 10be a8cf 953d eecb e33d

conv2.bias f4 [16]
-0.028961174 -0.18713126 0.097732596 0.03198904 -0.006928029 -0.3176599 -0.12124275 -0.049166936
-0.23494396 0.011639867 -0.6322562 -0.3590401 -0.042350862 -0.036637627 -0.0017147721 -0.097421244
00000000: fc3f edbc 569f 3fbe 0728 c83d f106 033d
00000010: 8504 e3bb 52a4 a2be 1e4e f8bd 4563 49bd
00000020: 2695 70be 24b5 3e3c 8bdb 21bf 1bd4 b7be
00000030: 1978 2dbd 5611 16bd 34c2 e0ba ca84 c7bd

bn2.weight f4 [16]
0.7544182 0.8211305 0.64535373 1.002061 0.8069915 1.3377507 0.9303887 0.88020897
1.0555013 0.69720685 1.0965669 1.076671 1.0526732 0.9629307 0.8685935 1.0647125
00000000: 8d21 413f 9c35 523f e735 253f 8943 803f
00000010: ff96 4e3f 6a3b ab3f f42d 6e3f 6055 613f
00000020: ab1a 873f 267c 323f 4e5c 8c3f 5bd0 893f
00000030: ffbd 863f a082 763f 255c 5e3f 8048 883f

bn2.bias f4 [16]
0.53751314 0.09020185 0.11751373 -0.045369167 -0.60157883 -0.37519836 0.04539818 -0.48088843
-0.08750488 -0.1512249 0.18845434 -0.10247241 0.022621438 0.07273004 -0.016229799 -0.20526156
00000000: 769a 093f bfbb b83d 0aab f03d 05d5 39bd
00000010: 1201 1abf 001a c0be 71f3 393d 0237 f6be
00000020: c235 b3bd b3da 1abe 2dfa 403e 0edd d1bd
00000030: 9850 b93c 7df3 943d 5bf4 84bc 1630 52be

bn2.running_mean f4 [16]
1.0008497 0.44076446 1.5901134 0.24638492 1.8213004 0.32049844 0.435336 1.3920186
0.16247538 2.591156 0.15931733 0.3813929 0.88144916 0.7917022 1.5165715 0.4403313
00000000: d81b 803f e1ab e13e d688 cb3f 544c 7c3e
00000010: 5f20 e93f 5f18 a43e 5ce4 de3e aa2d b23f
00000020: f25f 263e 80d5 2540 1524 233e ee45 c33e
00000030: a7a6 613f ffac 4a3f 041f c23f 1b73 e13e

bn2.running_var f4 [16]
1.2657837 0.8873212 1.7418957 1.0420498 2.419038 1.6421825 3.1251285 7.415645
0.48161316 2.2907193 0.58378536 2.5411985 3.7277353 2.779092 2.2898924 1.5988277
00000000: 3305 a23f 7b27 633f 70f6 de3f e361 853f
00000010: 85d1 1a40 0933 d23f 1b02 4840 f74c ed40
00000020: 0096 f63e 259b 1240 f572 153f ffa2 2240
00000030: 3793 6e40 a5dc 3140 998d 1240 63a6 cc3f

conv3.weight f4 [32, 16, 3, 3]
0.025025122 -0.054054476 0.04347253 0.058862597 0.020990577 -0.11539059 -0.038057446 0.007484612
-0.085327506 0.110845424 -0.07483453 -0.07774784 -0.1782946 -0.034489047 0.023857422 -0.10169614
0.0041853166 0.0047896034 -0.18986054 -0.018312382 -0.04832115 -0.13453145 -0.1525024 -0.056856688
-0.00961833 -0.09002285 -0.11052319 -0.16896395 -0.094699055 -0.20365992 -0.3690544 -0.19448318
-0.10256147 0.11067177 -0.011074352 -0.03829925 0.08249586 0.065791085 0.01434 0.071797475
-0.004246895 0.029797245 0.07460686 -0.1021858 -0.037066527 0.26412708 0.24423662 -0.058771905
0.028509187 -0.06187267 -0.18462761 0.15076792 -0.010431931 0.019968972 0.22807617 0.046688046
-0.20821999 0.15865648 0.033653114 -0.19251953 -0.23822625 0.055065133 -0.011414667 0.013959082
-0.1814575 -0.034929626 0.06292914 0.046031028 -0.26492962 0.17326967 0.14192455 -0.08807448
0.009642444 -0.15039942 -0.22176181 -0.08306563 -0.01585488 -0.17871086 0.4016968 0.1327186
-0.19222501 0.1605959 0.08969512 0.14992365 0.120724574 0.19948176 0.2170821 0.1481403
0.26143077 0.21988478 -0.07460395 0.011270858 -0.06224202 0.023728594 -0.100494504 -0.07441764
-0.034252774 -0.11687616 -0.0036740217 0.18402499 0.1394688 -0.44325575 0.1387534 0.1887426
-0.17970593 -0.18258831 -0.16933337 -0.17584148 -0.10222299 0.012426146 -0.33767825 0.116173655
-0.14598243 -0.20807678 0.2946532 0.024618192 -0.22015141 0.11121399 0.08716008 -0.27124307
-0.2020543 -0.2909463 -0.15812953 -0.17136255 -0.21216148 -0.17422153 -0.19964431 -0.2008822
-0.0055178506 0.05058902 0.07996019 -0.12522864 0.18378535 -0.049836356 0.0332608 0.1978446
0.08450857 -0.22140397 -0.21926147 -0.27032435 -0.056175884 -0.30383697 -0.06709648 0.057155993
0.07430741 -0.05406514 -0.08413907 0.04702643 -0.04730292 -0.2116329 -0.35029855 -0.18188217
-0.10056357 0.015429735 0.02635419 -0.15566379 0.023395954 0.029964922 0.14503345 0.00034308375
0.034036424 0.055416144 0.13115159 0.022201495 0.1826975 0.076581635 -0.059988696 -0.24228163
-0.038134698 -0.052772872 -0.11608537 -0.2160243 -0.07308006 -0.07962547 -0.20895296 -0.11338354
-0.13975395 -0.12684953 -0.35037267 -0.36087725 0.095559284 0.084605 0.12529522 0.07855471
0.08279868 0.16854224 0.020704608 0.06779816 -0.035544228 -0.07336636 0.020650897 -0.029936338
0.12110792 0.08951089 0.17063697 0.20310882 0.17628936 0.03468725 0.054727167 -0.08487063
0.14820316 0.22888151 0.32391387 0.15863216 -0.06822091 -0.084529474 0.12931497 0.108489454
0.21038005 0.104416884 -0.014764498 0.30500123 0.0644561 -0.13810739 -0.10821229 0.20763685
0.027107019 0.010545797 -0.123041235 -0.24951707 -0.2582611 -0.26189923 -0.3274713 -0.45629704
-0.37161556 -0.0054919436 -0.087249786 -0.14434454 -0.055618465 -0.020217137 -0.045914978 -0.10749775
0.05222191 -0.17300195 0.012262569 -0.18438935 -0.08377169 -0.13955288 -0.07890549 -0.040994853
-0.27637333 -0.35251477 -0.41744515 0.15067907 0.24894021 -0.0016748147 -0.02462955 0.1182465
0.3089604 0.15104124 0.12015383 0.0083756745 -0.01661734 0.075894035 -0.029936055 -0.03155534
00000000: 7c01 cd3c 3a68 5dbd 4010 323d e819 713d
00000010: 6ef4 ab3c e751 ecbd 20e2 1bbd 7a41 f53b
00000020: 30c0 aebd ed02 e33d d942 99bd 423a 9fbd
00000030: dc92 36be 6344 0dbd a470 c33c 1146 d0bd
00000040: fb24 893b 1bf2 9c3b cd6a 42be d903 96bc
00000050: 66ec 45bd 9dc2 09be 9729 1cbe 8fe2 68bd
00000060: 3396 1dbc e65d b8bd fb59 e2bd e304 2dbe
00000070: 94f1 c1bd 3a8c 50be b3f4 bcbe 9926 47be
00000080: bf0b d2bd e2a7 e23d 3371 35bc addf 1cbd
00000090: 97f3 a83d 7abd 863d 52f2 6a3c 8e0a 933d
000000a0: 8a29 8bbb 5a19 f43c 7bcb 983d ca46 d1bd
000000b0: 12d3 17bd aa3b 873e 2a19 7a3e cfba 70bd
000000c0: 198c e93c 326e 7dbd 050f 3dbe e862 1a3e
000000d0: b1ea 2abc f895 a33c cd8c 693e f73b 3f3d
000000e0: 9f37 55be d876 223e d9d7 093d d723 45be
000000f0: 95f1 73be fa8b 613d 9504 3bbc a2b4 643c
00000100: ffcf 39be 5e12 0fbd fee0 803d 088b 3c3d
00000110: dba4 87be 9b6d 313e ab54 113e 6560 b4bd
00000120: 57fb 1d3c 4e02 1abe 8715 63be 501e aabd
00000130: 18e2 81bc fbff 36be 34ab cd3e 62e7 073e
00000140: a2d6 44be 4073 243e 13b2 b73d 9685 193e
00000150: 723e f73d f244 4c3e c54a 5e3e 17b2 173e
00000160: 41da 853e 7a29 613e f5c9 98bd 68a9 383c
00000170: 7df1 7ebd 7862 c23c 10d0 cdbd 4768 98bd
00000180: a34c 0cbd c55c efbd dbc7 70bb 0c71 3c3e
00000190: e9d0 0e3e 6bf2 e2be 5f15 0e3e bd45 413e
000001a0: d504 38be 6ef8 3abe ba65 2dbe ca0f 34be
000001b0: 495a d1bd 0997 4b3c 2ae4 acbe 74ec ed3d
000001c0: 6b7c 15be 1412 55be c9dc 963e 17ac c93c
000001d0: 5f6f 61be 29c4 e33d fc80 b23d 5fe0 8abe
000001e0: 53e7 4ebe eaf6 94be b5ec 21be aa79 2fbe
000001f0: dc40 59be 2167 32be 8f6f 4cbe 10b4 4dbe
00000200: 16cf b4bb 6f36 4f3d 2bc2 a33d f03b 00be
00000210: 3a32 3c3e 3521 4cbd 7a3c 083d c697 4a3e
00000220: d412 ad3d b9b7 62be 1486 60be f467 8abe
00000230: af18 66bd 8590 9bbe e169 89bd 671c 6a3d
00000240: 7c2e 983d 6973 5dbd 1b51 acbd c99e 403d
00000250: b5c0 41bd 4cb6 58be 555a b3be 523f 3abe
00000260: 46f4 cdbd 00cd 7c3c bee4 d73c 5466 1fbe
00000270: dfa8 bf3c ff78 f53c a683 143e ecdf b339
00000280: c769 0b3d 0afc 623d 9a4c 063e e9df b53c
00000290: 0e15 3b3e d5d6 9c3d b5b6 75bd ad18 78be
000002a0: 2133 1cbd 5e28 58bd 2bbe edbd 7935 5dbe
000002b0: 00ab 95bd ae12 a3bd c4f7 55be a135 e8bd
000002c0: a91b 0fbe d8e4 01be 0c64 b3be e7c4 b8be
000002d0: 96b4 c33d 6345 ad3d 644d 003e 4be1 a03d
000002e0: 5b92 a93d 5696 2c3e b69c a93c c3d9 8a3d
000002f0: d396 11bd 1a41 96bd 122c a93c 0d3d f5bc
00000300: 6e07 f83d 7c51 b73d 75bb 2e3e c2fb 4f3e
00000310: 3385 343e 3814 0e3d 9829 603d a7d0 adbd
00000320: 92c2 173e ea5f 6a3e 0ad8 a53e 7870 223e
00000330: 68b7 8bbd ca1d adbd 256b 043e b82f de3d
00000340: de6d 573e 85d8 d53d cbe6 71bc 1f29 9c3e
00000350: 8f01 843d 066c 0dbe 689e ddbd c19e 543e
00000360: 8a0f de3c 47c8 2c3c 0bfd fbbd 6781 7fbe
00000370: cd3a 84be a817 86be 51aa a7be c49f e9be
00000380: 6544 bebe c3f5 b3bb 04b0 b2bd 0ecf 13be
00000390: 30d0 63bd 699e a5bc 5811 3cbd c827 dcbd
000003a0: a4e6 553d 6c27 31be f1e8 483c 90d0 3cbe
000003b0: 7e90 abbd f3e6 0ebe 3499 a1bd 38ea 27bd
000003c0: ce80 8dbe d17c b4be 5fbb d5be 9d4b 1a3e
000003d0: 2fea 7e3e 7585 dbba e9c3 c9bc 392b f23d
000003e0: 0f30 9e3e 8eaa 1a3e 3613 f63d 203a 093c
000003f0: 1621 88bc 556e 9b3d 753c f5bc 2c40 01bd

conv3.bias f4 [32]
-0.07405871 -0.4280862 -0.3356716 -0.18848257 -0.28766194 -0.12099583 -0.3728563 -0.12208054
-0.032009993 -0.21407922 -0.15663141 -0.13472357 -0.2881425 -0.34236708 -0.23074648 -0.25792706
-0.22059324 -0.07121349 -0.25293255 -0.33726948 -0.3481585 -0.18277662 0.051351927 -0.40697664
-0.38190207 0.028001133 -0.34218326 -0.24358612 -0.22897504 -0.12995733 -0.14640976 -0.24594802
00000000: 18ac 97bd 1d2e dbbe 26dd abbe 9301 41be
00000010: 6d48 93be a9cc f7bd 05e7 bebe 5d05 fabd
00000020: e91c 03bd 9537 5bbe fc63 20be faf4 09be
00000030: 6a87 93be bd4a afbe ce48 6cbe 040f 84be
00000040: 32e3 61be 61d8 91bd 6080 81be 96ae acbe
00000050: d541 b2be cb29 3bbe 6656 523d 3e5f d0be
00000060: ab88 c3be a262 e53c a532 afbe a46e 79be
00000070: 6f78 6abe 8913 05be 71ec 15be ccd9 7bbe

bn3.weight f4 [32]
0.8243159 0.94641006 1.0400943 0.8609156 0.88002914 1.0184366 1.3419118 1.1186607
0.79387796 0.88597065 0.7507218 1.0988784 0.96151847 0.99266535 0.86481017 0.8995037
0.7632187 0.8849729 1.0326617 1.0232273 0.86358887 0.8522202 0.96976644 1.2285953
0.9555455 0.73162085 1.0466334 0.95457274 1.0125364 0.8355156 1.004509 1.0960621
00000000: 5e06 533f ee47 723f cf21 853f f764 5c3f
00000010: 9749 613f 215c 823f c4c3 ab3f 4630 8f3f
00000020: 963b 4b3f f9ce 623f 4e2f 403f 0ca8 8c3f
00000030: 1326 763f 511f 7e3f 3364 5d3f e045 663f
00000040: 4d62 433f 958d 623f 422e 843f 1df9 823f
00000050: 2914 5d3f 1a2b 5a3f 9d42 783f 9c42 9d3f
00000060: a19e 743f 814b 3b3f 15f8 853f e15e 743f
00000070: cb9a 813f 5ae4 553f c093 803f c34b 8c3f

bn3.bias f4 [32]
-0.34453464 0.41681737 -0.27051544 -0.0036466208 -0.14139572 0.07067782 0.41401273 0.17118646
0.10537041 0.24189493 -0.15961896 0.63389176 0.170852 0.16703714 0.20140775 0.059374183
-0.26419252 -0.16153263 0.38008812 0.3141827 -0.4866314 0.24034812 0.08803469 0.065744616
0.18187225 0.13698724 0.00084305514 0.18675394 0.0653377 0.11670285 0.085573584 -0.1794845
00000000: d866 b0be 1669 d53e 0081 8abe 25fc 6ebb
00000010: 0aca 10be 88bf 903d 7af9 d33e 814b 2f3e
00000020: 71cc d73d 4eb3 773e 2773 23be bb46 223f
00000030: d4f3 2e3e c90b 2b3e d53d 4e3e 5832 733d
00000040: 3e44 87be cf68 25be e99a c23e 8edc a03e
00000050: c027 f9be d11d 763e 884b b43d 1da5 863d
00000060: b83c 3a3e 6246 0c3e 7900 5d3a 6d3c 3f3e
00000070: c6cf 853d e701 ef3d 3441 af3d c9ca 37be

bn3.running_mean f4 [32]
0.88483465 0.12548643 0.25061268 0.3906416 0.22176373 0.11071016 0.10564978 0.41731623
1.1587172 0.35074416 0.5996914 0.44287568 0.3143146 0.18097417 0.52601665 0.40403143
1.9339453 0.2886382 0.41643983 0.16362381 0.3432717 0.17942432 3.3246763 0.31645238
0.33628145 1.9674848 0.31366724 0.3757166 0.35542166 0.3300196 0.6356683 0.17503898
00000000: 8684 623f 847f 003e 4e50 803e 2d02 c83e
00000010: 0816 633e 02bc e23d e95e d83d 79aa d53e
00000020: d850 943f bd94 b33e 6085 193f 9ac0 e23e
00000030: d8ed a03e 4b51 393e 07a9 063f 35dd ce3e
00000040: 858b f73f 63c8 933e 9a37 d53e 008d 273e
00000050: 4fc1 af3e 02bb 373e 7fc7 5440 0c06 a23e
00000060: 152d ac3e 8bd6 fb3f fe98 a03e ed5d c03e
00000070: d4f9 b53e 54f8 a83e 28bb 223f 6b3d 333e

bn3.running_var f4 [32]
0.71851724 0.5135695 1.1527857 1.0466862 0.9572391 0.35230199 0.7160583 2.534803
1.0676873 0.6968968 2.0768812 2.0781817 1.3613161 0.73104864 4.1451902 0.68039256
1.7044768 1.0656008 2.2609627 1.203314 2.5556324 0.2683931 3.0811481 1.8509154
1.2279596 1.4274354 3.177211 1.3507926 1.6630976 2.035708 1.4506444 0.94819534
00000000: bff0 373f 4a79 033f 7b8e 933f d0f9 853f
00000010: 9f0d 753f ed60 b43e 994f 373f 363a 2240
00000020: faa9 883f d467 323f 9feb 0440 ee00 0540
00000030: 9b3f ae3f 0126 3b3f 66a5 8440 352e 2e3f
00000040: 4c2c da3f 9b65 883f 9db3 1040 3106 9a3f
00000050: 7b8f 2340 d26a 893e 8831 4540 ccea ec3f
00000060: c82d 9d3f 34b6 b63f 6d57 4b40 c6e6 ac3f
00000070: 62e0 d43f 0a49 0240 b7ae b93f eebc 723f

conv4.weight f4 [64, 32, 3, 3]
-0.005468432 0.07969495 0.19649857 0.0023911563 -0.23641253 -0.025047172 0.1293726 0.17996635
0.018105663 -0.005483527 -0.06843216 -0.12904964 -0.09417524 -0.152431 -0.006917809 0.08923256
0.073069416 0.01339112 -0.03059446 -0.12395772 -0.129642 0.0836773 -0.015140643 -0.06140047
0.101632066 0.06486657 0.03284381 -0.0020328143 -0.08731986 0.08735523 0.2004902 0.13453063
0.11185833 0.1058974 -0.12621427 -0.27385214 0.17633843 0.061325204 0.0824521 0.022781184
-0.18385147 -0.12995248 -0.07149814 0.13468443 0.1302347 -0.0081512155 -0.09604422 -0.09680345
-0.05281702 -0.06712003 0.049297627 -0.0031508654 -0.20121029 -0.016163029 -0.263456 0.14534922
0.038899235 0.13601181 0.1401744 0.07678569 -0.22874263 -0.09758454 0.120458804 -0.093994774
-0.24461135 -0.4695304 0.079568595 0.35614812 0.30746028 -0.22022136 -0.00029989585 -0.047353987
-0.107412726 0.105296366 -0.10860686 -0.016560925 -0.18601337 -0.22514485 0.09813942 0.03992913
0.098875865 -0.15395692 -0.01939639 0.0814081 -0.2902813 -0.11414657 -0.09524709 -0.020647904
-0.15207762 0.09462364 0.14508107 0.019639188 -0.058013942 0.17419522 0.04500968 -0.13582191
-0.24469501 0.0040359953 -0.030713607 -0.17574795 -0.030004792 -0.22395071 -0.13022465 -0.05207653
-0.09997571 -0.27230105 -0.45736164 -0.38612735 0.10609972 0.11352506 0.17206082 0.104168475
-0.006312125 -0.23781672 -0.1857045 -0.14200561 -0.18144749 0.09951546 0.0047222637 -0.10400853
0.10169604 0.20529537 0.013611306 0.12106631 0.16087309 0.179963 0.049641114 -0.09745379
0.07492032 -0.121317305 -0.09730114 -0.12083573 -0.16329375 -0.112248 -0.08913264 -0.21316586
-0.034224845 -0.08916249 -0.15251052 -0.087434314 0.097008124 0.17066263 -0.05994576 0.0446406
-0.10608764 0.051327575 -0.043745764 -0.120589726 -0.09666708 0.13272703 0.18234347 0.16163716
-0.04683789 -0.00095690886 -0.01778501 -0.032360654 0.1880132 -0.105691224 -0.004984646 -0.15822509
0.08551682 0.10664388 0.18083824 -0.022958325 -0.03404971 0.088861704 -0.07953006 -0.12840222
-0.03361662 0.006307458 -0.009021409 -0.12696712 0.05532873 0.025664108 -0.26212934 -0.23466265
-0.26767465 0.0203158 0.017747011 0.07230024 0.06278356 0.12413456 0.17224652 -0.007343794
0.13228787 0.18503892 0.07810238 -0.029786924 0.08082872 -0.05966226 -0.09611206 -0.105260275
-0.26391557 -0.03602798 -0.09002524 -0.15090434 -0.24069352 -0.053346857 0.064762846 -0.11571168
-0.04569713 -0.02082486 -0.029455673 -0.11100181 0.08604234 0.11372331 0.054892447 0.0041054953
0.07355667 -0.0034323893 -0.08268902 0.08440118 0.20626959 0.010757068 -0.01893261 0.009932611
-0.04311646 -0.20716366 -0.08058009 -0.11023318 -0.108241744 0.16863248 -0.24297652 -0.24151766
-0.27537844 0.1628932 0.08257391 0.013202545 0.005520489 -0.15233889 -0.071088746 0.15064016
0.10646911 -0.002233801 -0.10888351 0.0767 -0.06530061 0.17494085 0.10227496 -0.019709693
-0.076508515 0.04174002 0.0059380005 -0.13731506 -0.4417433 -0.6132972 0.03421177 0.026803434
0.1066379 -0.086229876 -0.099589035 -0.08941411 -0.1358287 -0.020257616 0.017379573 2.3632024e-06
00000000: 8830 b3bb 1b37 a33d ec36 493e f2b4 1c3b
00000010: 2016 72be ba2f cdbc 407a 043e 1949 383e
00000020: 5452 943c 29af b3bb 2926 8cbd 9725 04be
00000030: f3de c0bd df16 1cbe caae e2bb 8fbf b63d
00000040: 6ba5 953d 6e66 5b3c 3ca1 fabc 8cdd fdbd
00000050: dfc0 04be 015f ab3d 7610 78bc 0f7f 7bbd
00000060: 7924 d03d c4d8 843d 3b87 063d f738 05bb
00000070: c1d4 b2bd 4ce7 b23d 4e4d 4d3e 66c2 093e
00000080: fb15 e53d bce0 d83d 503e 01be 5936 8cbe
00000090: 1092 343e 2330 7b3d a6dc a83d 9b9f ba3c
000000a0: 8f43 3cbe 4312 05be 9e6d 92bd b7ea 093e
000000b0: 3f5c 053e ad8c 05bc d5b2 c4bd e340 c6bd
000000c0: a956 58bd 3a76 89bd 4fec 493d c07e 4ebb
000000d0: 120a 4ebe 5468 84bc b4e3 86be 6dd6 143e
000000e0: ce54 1f3d ae46 0b3e e189 0f3e d141 9d3d
000000f0: 823b 6abe 67da c7bd 1bb3 f63d 5580 c0bd
00000100: 667b 7abe 4a66 f0be dcf4 a23d 0c59 b63e
00000110: 6f6b 9d3e b581 61be 573b 9db9 41f6 41bd
00000120: 34fb dbbd 9fa5 d73d 466d debd c7aa 87bc
00000130: 4a7a 3ebe 5f8c 66be 52fd c83d ba8c 233d
00000140: 6e7f ca3d e2a6 1dbe 2ee5 9ebc 4ab9 a63d
00000150: c09f 94be adc5 e9bd e810 c3bd cb25 a9bc
00000160: 3cba 1bbe 0aca c13d 2290 143e 5de2 a03c
00000170: 07a0 6dbd 3b60 323e 125c 383d e614 0bbe
00000180: 5491 7abe 6240 843b 1a9b fbbc 45f7 33be
00000190: 9ccc f5bc 5653 65be 9c59 05be 334e 55bd
000001a0: 11c0 ccbd 0b6b 8bbe 4e2b eabe 7cb2 c5be
000001b0: cf4a d93d d47f e83d b630 303e 4856 d53d
000001c0: f1d5 cebb 3a86 73be 5229 3ebe eb69 11be
000001d0: 5fcd 39be c3ce cb3d 38bd 9a3b 6d02 d5bd
000001e0: 0346 d03d f338 523e f501 5f3c 9df1 f73d
000001f0: eabb 243e 3848 383e 7b54 4b3d da95 c7bd
00000200: d36f 993d 3575 f8bd d245 c7bd b978 f7bd
00000210: 7a36 27be 48e2 e5bd 2c8b b6bd 2748 5abe
00000220: 5a2f 0cbd d39a b6bd b82b 1cbe c310 b3bd
00000230: 32ac c63d 2fc2 2e3e af89 75bd 10d9 363d
00000240: 7a44 d9bd dd3c 523d c22e 33bd bff7 f6bd
00000250: 64f9 c5bd 98e9 073e 3fb8 3a3e 3684 253e
00000260: 16d9 3fbd 11d9 7aba dfb1 91bc 9b8c 04bd
00000270: 8886 403e a474 d8bd 3e56 a3bb c205 22be
00000280: 7123 af3d 1b68 da3d a92d 393e 1913 bcbc
00000290: b577 0bbd 20fd b53d a8e0 a2bd df7b 03be
000002a0: 95b1 09bd cbae ce3b 88ce 13bc ab03 02be
000002b0: 61a0 623d 893d d23c d135 86be 684b 70be
000002c0: a70c 89be 526d a63c 2e62 913c 2612 943d
000002d0: ab94 803d 433a fe3d 6461 303e 36a4 f0bb
000002e0: 7976 073e d87a 3d3e 24f4 9f3d b503 f4bc
000002f0: 8789 a53d 6a60 74bd 66d6 c4bd b392 d7bd
00000300: f11f 87be 1392 13bd 275f b8bd ab86 1abe
00000310: 5d78 76be 3c82 5abd 62a2 843d 3ffa ecbd
00000320: ea2c 3bbd e698 aabc 064d f1bc eb54 e3bd
00000330: f736 b03d c4e7 e83d e7d6 603d 6487 863b
00000340: e1a4 963d f0f1 60bb dc58 a9bd 87da ac3d
00000350: 5638 533e 6a3e 303c 9018 9bbc 64bc 223c
00000360: e39a 30bd b622 54be 2d07 a5bd efc1 e1bd
00000370: d9ad ddbd fead 2c3e d6ce 78be 6850 77be
00000380: 67fe 8cbe 7acd 263e 831c a93d 7d4f 583c
00000390: 38e5 b43b bafe 1bbe fa96 91bd 6a41 1a3e
000003a0: 7a0c da3d f664 12bb 51fe debd e414 9d3d
000003b0: 54bc 85bd b223 333e 8975 d13d 3976 a1bc
000003c0: 7fb0 9cbd 95f7 2a3d 8f93 c23b 529c 0cbe
000003d0: 2e2c e2be 0c01 1dbf a421 0c3d e092 db3c
000003e0: f964 da3d 4a99 b0bd 56f5 cbbd bf1e b7bd
000003f0: ae16 0bbe 4df3 a5bc 9b5f 8e3c 8297 1e36

conv4.bias f4 [64]
-0.20205878 -0.38180095 -0.2081948 -0.3051676 -0.30994108 -0.110585086 -0.34160388 -0.16102931
-0.32112637 -0.41509202 -0.039787155 -0.18848555 -0.116091795 -0.476643 -0.3044079 -0.18210068
-0.09746751 -0.060586717 -0.2503406 -0.15244715 -0.25943288 -0.08571356 -0.19314067 -0.20705211
-0.17985982 -0.33118218 -0.26029077 -0.41876405 -0.45597148 -0.30429307 -0.05562236 -0.28914472
-0.33075464 -0.31255677 -0.1635705 -0.13224228 -0.32121834 -0.11992113 -0.19537866 -0.17653532
-0.3098928 -0.2647702 -0.32433024 -0.37687215 -0.3810445 -0.0703547 -0.22249973 -0.10201631
-0.32988197 -0.18791908 -0.25733343 -0.11173046 -0.32110286 -0.27081075 -0.2929951 0.0025255787
-0.20667914 -0.2721445 -0.17507176 -0.18901555 0.38643053 -0.23396079 -0.5595242 -0.17407972
00000000: 7fe8 4ebe 6a7b c3be 0531 55be ed3e 9cbe
00000010: 99b0 9ebe 6f7a e2bd b4e6 aebe dee4 24be
00000020: ad6a a4be f186 d4be dbf7 22bd 5b02 41be
00000030: 89c1 edbd 8d0a f4be 5adb 9bbe 9a78 3abe
00000040: 0c9d c7bd c729 78bd a52c 80be 1b1b 1cbe
00000050: 63d4 84be 978a afbd abc6 45be 7805 54be
00000060: 2c2d 38be b690 a9be d544 85be 3e68 d6be
00000070: 1875 e9be 4dcc 9bbe 46d4 63bd c70a 94be
00000080: ac58 a9be 7107 a0be 067f 27be 856a 07be
00000090: bb76 a4be 3699 f5bd 5811 48be adc5 34be
000000a0: 45aa 9ebe f68f 87be 9d0e a6be 63f5 c0be
000000b0: 4418 c3be 2016 90bd f8d6 63be eded d0bd
000000c0: 4ae6 a8be dc6d 40be 35c1 83be f0d2 e4bd
000000d0: 9867 a4be b5a7 8abe 7403 96be 2e84 253b
000000e0: b2a3 53be 8656 8bbe 0346 33be 4b8d 41be
000000f0: 39da c53e 6b93 6fbe fa3c 0fbf f441 32be

bn4.weight f4 [64]
3.2278535 3.4735577 4.1858025 3.2426403 3.22787 4.0162935 3.6384997 3.728977
3.362665 3.445713 1.5554531 3.0896926 2.2125268 3.858526 3.501439 3.2441974
2.9214144 2.4365642 3.7460861 3.254024 4.059836 3.617688 3.1984942 2.6640112
2.0894926 3.5395696 4.041965 4.001241 3.866373 3.4053278 2.4548962 3.5543764
4.2878633 4.4637446 3.6075165 2.9052773 3.755034 1.6968306 3.6162944 2.746193
3.6191525 3.852051 3.9901216 4.631296 4.1660504 2.6697478 3.9579127 1.6233784
4.384344 2.6672993 3.535878 2.7785268 3.827305 3.4112165 4.1091647 1.5373592
3.6245284 3.5362384 3.5496113 3.2776525 1.8010865 4.243096 1.9895793 2.7502606
00000000: 2795 4e40 c54e 5e40 18f2 8540 6b87 4f40
00000010: 6c95 4e40 7a85 8040 2edd 6840 8fa7 6e40
00000020: e735 5740 9086 5c40 1619 c73f 86bd 4540
00000030: 0a9a 0d40 17f2 7640 9417 6040 eea0 4f40
00000040: 74f8 3a40 abf0 1b40 e0bf 6f40 ee41 5040
00000050: 2dea 8140 3388 6740 21b4 4c40 297f 2a40
00000060: 3fba 0540 4f88 6240 c757 8140 2b0a 8040
00000070: a872 7740 e4f0 5940 051d 1d40 e77a 6340
00000080: 2d36 8940 ffd6 8e40 8de1 6640 10f0 3940
00000090: 7a52 7040 bf31 d93f 5e71 6740 a0c1 2f40
000000a0: 32a0 6740 0188 7640 275e 7f40 9433 9440
000000b0: 4950 8540 26dd 2a40 714e 7d40 ddca cf3f
000000c0: 8c4c 8c40 08b5 2a40 d34b 6240 62d3 3140
000000d0: 91f2 7440 5f51 5a40 477e 8340 30c8 c43f
000000e0: 46f8 6740 bb51 6240 d52c 6340 0fc5 5140
000000f0: 018a e63f 71c7 8740 89aa fe3f 4504 3040

bn4.bias f4 [64]
-0.25006247 -0.10945072 -0.24058303 -0.27595732 0.10100466 0.3456102 -0.4020947 -0.23967655
0.114417404 -0.117245995 -0.1882128 0.13901308 0.26356852 0.16209568 0.12822856 0.15537934
0.15103132 0.10478139 0.11468195 0.19660752 0.18627094 0.368792 0.10199237 0.19236943
0.3125337 0.17474453 0.4077241 -0.19167687 -0.19712967 -0.16801952 0.14334227 -0.11528369
-0.2316611 -0.24442665 0.12433857 0.15377986 -0.17418332 -0.1776482 0.16871099 0.06678473
0.19459128 -0.14287034 0.20577823 -0.16267541 0.21653372 0.20097663 -0.19873434 -0.17907698
-0.23040527 0.1678388 0.176013 0.30093697 -0.36065552 -0.09829633 -0.31037137 0.2805967
-0.2158135 0.17070553 -0.19999275 -0.23728278 0.28947958 0.19875011 0.27811554 0.15025905
00000000: 3008 80be b327 e0bd 665b 76be 474a 8dbe
00000010: 88db ce3d d2f3 b03e 5bdf cdbe c56d 75be
00000020: ac53 ea3d ab1e f0bd dbba 40be 7259 0e3e
00000030: 74f2 863e 69fc 253e 594e 033e c31b 1f3e
00000040: f4a7 1a3e a097 d63d 5fde ea3d 7b53 493e
00000050: cfbd 3e3e 4ed2 bc3e 60e1 d03d 7efc 443e
00000060: 6b04 a03e 3bf0 323e 37c1 d03e f146 44be
00000070: 5cdc 49be 4f0d 2cbe 51c8 123e db19 ecbd
00000080: 9138 6dbe fb4a 7abe 38a5 fe3d 7878 1d3e
00000090: 1d5d 32be 69e9 35be 93c2 2c3e 6fc6 883d
000000a0: f042 473e 9a4c 12be 87b7 523e 6294 26be
000000b0: 04bb 5d3e d1cc 4d3e 0481 4bbe f55f 37be
000000c0: 5cef 6bbe efdd 2b3e c03c 343e 6914 9a3e
000000d0: d7a7 b8be 964f c9bd ffe8 9ebe 5faa 8f3e
000000e0: 37fe 5cbe 6ecd 2e3e e6ca 4cbe 42fa 72be
000000f0: ab36 943e 2685 4b3e 2965 8e3e 82dd 193e

bn4.running_mean f4 [64]
0.028230738 0.011005613 0.010776542 0.13546169 0.07922711 0.090786524 0.036597304 0.04134664
0.06464869 0.022554906 0.3484105 0.0641224 0.1670824 0.029554764 0.019159641 0.0594671
0.13162372 0.17602386 0.020079587 0.093591616 0.055022378 0.052112687 0.037583467 0.045203485
0.04840592 0.036941502 0.0043002153 0.014587216 0.019016057 0.012517189 0.22694805 0.03474563
0.029035373 0.016418593 0.032482583 0.13183136 0.02288276 0.09275413 0.03535544 0.056732263
0.04498975 0.040374264 0.0104653565 0.006921602 0.008519801 0.04397204 0.022390828 0.15551482
0.022359556 0.02374421 0.08189731 0.0511387 0.01830903 0.013977332 0.030044882 0.4626436
0.024075722 0.036160138 0.024271742 0.0478179 1.6424708 0.022284763 0.094996795 0.12614442
00000000: 2644 e73c e350 343c 1890 303c 78b6 0a3e
00000010: d341 a23d 49ee b93d 0ee7 153d 185b 293d
00000020: 8866 843d 11c5 b83c dc62 b23e 9b52 833d
00000030: a617 2b3e d51c f23c aef4 9c3c c693 733d
00000040: 5ec8 063e 993f 343e f27d a43c f6ac bf3d
00000050: 255f 613d 1d74 553d 1ff1 193d 4a27 393d
00000060: 4945 463d f94f 173d d2e8 8c3b 38ff 6e3c
00000070: 90c7 9b3c e514 4d3c 1265 683e 6f51 0e3d
00000080: 97db ed3c 4980 863c 750c 053d cdfe 063e
00000090: a074 bb3c e1f5 bd3d ded0 103d 1760 683d
000000a0: 2c47 383d 7c5f 253d e376 2b3c 9bce e23b
000000b0: a396 0b3c 071c 343d f86c b73c 473f 1f3e
000000c0: 632b b73c 3883 c23c c7b9 a73d d076 513d
000000d0: d2fc 953c 2e01 653c af20 f63c 9fdf ec3e
000000e0: 733a c53c a71c 143d 88d5 c63c b4dc 433d
000000f0: 7c3c d23f 898e b63c ae8d c23d 012c 013e

bn4.running_var f4 [64]
0.08829556 0.036221977 0.013508791 0.41285983 0.272954 0.1675592 0.09702926 0.10364357
0.13997488 0.057851046 0.48575187 0.104151644 1.05773 0.08603445 0.061869025 0.18055663
0.6930813 0.28030258 0.061548073 0.17139007 0.1729426 0.15317093 0.13116698 0.14421986
0.06710797 0.1251276 0.0079012485 0.052352976 0.059156522 0.027322354 0.35481814 0.117594175
0.07291543 0.038092926 0.10067367 0.35161582 0.055504147 0.08086785 0.14698653 0.13468686
0.0995151 0.10928093 0.027845968 0.022668017 0.029415425 0.14201473 0.040623292 0.14615582
0.09993262 0.07322802 0.21234505 0.14770964 0.044991743 0.020956127 0.08678821 0.3397364
0.049657743 0.091780625 0.02957983 0.13018648 2.085147 0.06610141 0.22879589 0.29418865
00000000: 4dd4 b43d 7f5d 143d fa53 5d3c 5d62 d33e
00000010: a0c0 8b3e a494 2b3e 47b7 c63d 1443 d43d
00000020: 9355 0f3e 38f5 6c3d 78b4 f83e 754d d53d
00000030: b263 873f d432 b03d 606a 7d3d d6e3 383e
00000040: c76d 313f d283 8f3e d519 7c3d e180 2f3e
00000050: dd17 313e d7d8 1c3e a350 063e 5fae 133e
00000060: e76f 893d 7321 003e 3d74 013c 1370 563d
00000070: 1c4e 723d 21d3 df3c b9aa b53e 37d5 f03d
00000080: af54 953d 5407 1c3d ff2d ce3d fd06 b43e
00000090: 5158 633d 0b9e a53d a383 163e 5aeb 093e
000000a0: 93ce cb3d aece df3d 3a1d e43c 47b2 b93c
000000b0: 9ef8 f03c 4f6c 113e 9c64 263d dfa9 153e
000000c0: 79a9 cc3d 92f8 953d fb70 593e 3241 173e
000000d0: 4349 383d 2fac ab3c 04be b13d eef1 ad3e
000000e0: eb65 4b3d 7bf7 bb3d 6651 f23c 9b4f 053e
000000f0: 0c73 0540 2d60 873d 7849 6a3e e59f 963e

lin.weight f4 [10, 64]
0.39436492 -0.8357003 -0.4073563 -0.19470233 0.93400955 -1.1388587 0.7566373 -0.022150572
1.0797131 -1.5412582 -0.257478 0.9458531 0.26635253 0.65212464 1.2716786 0.5966607
0.08378834 0.29161984 1.7036129 -0.82726985 1.2153625 -0.819623 0.88263 0.72890013
-0.3094766 0.8026854 -0.31445152 -0.9189632 -0.960609 -0.09508537 0.5204771 -1.4273107
-0.21288756 -0.12474433 1.6283875 0.54888254 -1.3500446 -0.38597515 0.238686 1.1545995
0.73564035 -0.55911756 -0.7560083 -1.1251376 -0.89904946 -0.3821691 -0.5477209 -0.31351322
-0.8989048 0.84216994 0.019527154 0.016606858 1.1556131 -0.81932765 0.12158879 0.06995028
-0.15602559 0.5156183 -0.3319239 0.46120283 -0.08091747 -1.092562 0.10586025 0.5321974
-0.9518718 -0.80054164 0.25619066 -0.17810664 0.8234054 0.055005517 -0.32373384 -0.8675157
0.25601307 0.73815125 0.02364859 -0.22028188 -0.61866295 -0.73694074 -1.6465305 0.136091
0.90495276 0.46953544 -0.5518515 0.7503511 -0.15296642 -0.40417567 0.7665813 -1.1913309
0.3576905 -1.0292033 -0.15251446 1.9894263 0.7653348 -0.73995745 0.32157123 0.9729669
-0.8877718 -0.90885377 -0.51902914 -0.011173886 0.53444785 -0.09818719 1.325137 0.069660306
-0.21954641 -0.21059667 1.5214028 2.2602096 1.5525093 0.797105 -0.58726865 -0.07027807
-0.07871485 -0.49053717 0.25524056 -1.0259546 -0.45962757 -0.61896634 -0.04345572 -0.043039802
-0.87959653 -0.6970513 0.41052574 -0.9715454 0.26834574 1.4999076 0.022781525 0.33749118
0.27893117 -0.1757749 1.5008175 -0.09385806 -1.2304422 0.13063803 0.12549247 -0.5212663
-1.8498096 0.251395 0.35071546 -2.2007856 0.4146368 -0.6289399 0.5100352 -1.8704592
-0.6716802 -1.742175 0.05030859 -1.9960341 0.8764427 0.3967935 -1.0733773 0.16298921
0.3642116 0.49831355 0.91075575 -0.25003624 -0.68446994 1.6527123 0.65198785 0.05222408
-0.75714564 -0.12779613 0.86934817 -2.2231634 0.75485224 -0.015098505 -0.89553225 -1.5695409
0.85889626 2.634046 -1.1391078 0.09688245 -0.0862953 0.29709446 -0.24250188 0.00582698
-0.45335048 0.37209103 -1.6500868 0.53635335 -0.51868397 1.7671021 1.6499904 0.4300599
-0.10085197 -1.2963904 1.5052438 0.63937944 -0.10332053 -1.040117 -0.74929017 -1.5786539
0.33931375 1.8571547 -0.59040105 -0.6404863 -0.5886462 0.780515 -0.8149993 1.8042402
0.08392686 0.5986215 -0.46453804 0.4979947 -0.100179255 -1.0463308 0.34866434 0.7478398
0.043929018 -0.3353042 -0.77204 0.47917673 -2.2130933 0.68241304 -0.9180193 0.28069744
-0.24285409 -1.1691405 0.6863479 -0.56003743 -0.5591618 0.48554537 -1.0612212 1.0968773
0.53722167 -0.38736612 -1.5860801 0.70045555 -0.18813397 -0.35759196 -0.53038204 -0.97860044
0.60945594 -0.42225316 -0.7578679 -0.90054256 -0.38997695 0.26756653 2.0136273 -0.27241898
1.5930935 -0.5541532 1.2241031 0.25609887 -0.518678 0.8572274 -0.739875 0.18502799
1.6362792 1.0819646 -0.7346801 -0.033390388 -0.16608329 0.27643675 0.59957945 0.4653984
00000000: 33ea c93e 74f0 55bf 0191 d0be 0c60 47be
00000010: 401b 6f3f 1fc6 91bf fbb2 413f 1e75 b5bc
00000020: 0a34 8a3f f347 c5bf 28d4 83be 6e23 723f
00000030: 5c5f 883e a4f1 263f 5dc6 a23f c1be 183f
00000040: 3999 ab3d 324f 953e fd0f da3f f5c7 53bf
00000050: 0091 9b3f d0d2 51bf 0af4 613f 3399 3a3f
00000060: b873 9ebe ca7c 4d3f caff a0be 2c41 6bbf
00000070: 79ea 75bf 1ebc c2bd fd3d 053f 1eb2 b6bf
00000080: 32ff 59be f579 ffbd 006f d03f 9183 0c3f
00000090: 43ce acbf 899e c5be 1a6a 743e ebc9 933f
000000a0: ed52 3c3f 5422 0fbf c389 41bf 8204 90bf
000000b0: 1b28 66bf abab c3be 7037 0cbf ce84 a0be
000000c0: a01e 66bf 7398 573f 69f7 9f3c 1b0b 883c
000000d0: 21eb 933f 75bf 51bf 8b03 f93d 1842 8f3d
000000e0: 2cc5 1fbe 90ff 033f eef1 a9be c722 ec3e
000000f0: 0fb8 a5bd 12d9 8bbf 42cd d83d 173e 083f
00000100: dfad 73bf 4cf0 4cbf 6c2b 833e 9661 36be
00000110: b2ca 523f 774d 613d 71c0 a5be 8215 5ebf
00000120: 2514 833e 7bf7 3c3f b0ba c13c 9391 61be
00000130: b260 1ebf 26a8 3cbf 83c1 d2bf 705b 0b3e
00000140: fcaa 673f f366 f03e 2446 0dbf 0217 403f
00000150: 3ba3 1cbe 1df0 cebe ac3e 443f 887d 98bf
00000160: 3623 b73e efbc 83bf c02c 1cbe 85a5 fe3f
00000170: fbec 433f da6d 3dbf fca4 a43e 5c14 793f
00000180: 0345 63bf a4aa 68bf 18df 04bf ad12 37bc
00000190: 93d1 083f 5e16 c9bd 179e a93f 10aa 8e3d
000001a0: c6d0 60be a7a6 57be 54bd c23f 46a7 1040
000001b0: a0b8 c63f 130f 4c3f 3d57 16bf f3ed 8fbd
000001c0: 4035 a1bd b027 fbbe e4ae 823e 7b52 83bf
000001d0: 4e54 ebbe 9474 1ebf a0fe 31bd 814a 30bd
000001e0: 3d2d 61bf f471 32bf 6e30 d23e 33b7 78bf
000001f0: 9d64 893e f9fc bf3f 52a0 ba3c a5cb ac3e
00000200: 11d0 8e3e 56fe 33be ca1a c03f a838 c0bd
00000210: 217f 9dbf fac5 053e 1981 003e b571 05bf
00000220: 90c6 ecbf d8b6 803e fa90 b33e acd9 0cc0
00000230: 464b d43e 3502 21bf ab91 023f 356b efbf
00000240: 3cf3 2bbf 97ff debf 6110 4e3d 0c7e ffbf
00000250: 8c5e 603f 8528 cb3e 6d64 89bf a5e6 263e
00000260: f179 ba3e f422 ff3e 4a27 693f c004 80be
00000270: 6c39 2fbf 148c d33f ade8 263f ebe8 553d
00000280: 4cd4 41bf fddc 02be 9a8d 5e3f 4f48 0ec0
00000290: ff3d 413f b85f 77bc 9a41 65bf b7e6 c8bf
000002a0: a0e0 5b3f 3694 2840 49ce 91bf 4e6a c63d
000002b0: 97bb b0bd c41c 983e 6a52 78be 40f0 be3b
000002c0: 8e1d e8be b782 be3e 0b36 d3bf 744e 093f
000002d0: 79c8 04bf 6730 e23f e332 d33f d030 dc3e
000002e0: 7a8b cebd 1ff0 a5bf d4ab c03f 5fae 233f
000002f0: b799 d3bd 8e22 85bf 7bd1 3fbf 5511 cabf
00000300: 88ba ad3e 3fb7 ed3f 8624 17bf e9f6 23bf
00000310: 84b1 16bf d5cf 473f cba3 50bf 58f1 e63f
00000320: d8e1 ab3d 423f 193f eed7 edbe 29f9 fe3e
00000330: c82a cdbd 2bee 85bf 2284 b23e 6e72 3f3f
00000340: eaee 333d feac abbe 6aa4 45bf a756 f53e
00000350: 52a3 0dc0 9fb2 2e3f 5003 6bbf 93b7 8f3e
00000360: beae 78be 65a6 95bf 7fb4 2f3f 9d5e 0fbf
00000370: 3a25 0fbf 6799 f83e 19d6 87bf 7a66 8c3f
00000380: 5c87 093f da54 c6be ac04 cbbf 0e51 333f
00000390: 31a6 40be 4b16 b7be 1ec7 07bf 8f85 7abf
000003a0: 4e05 1c3f 9131 d8be a103 42bf f589 66bf
000003b0: 0fab c7be 7bfe 883e 45df 0040 807a 8bbe
000003c0: 7dea cb3f fcdc 0dbf 69af 9c3f 641f 833e
000003d0: 15c8 04bf 4173 5b3f 7368 3dbf fa77 3d3e
000003e0: 9971 d13f d17d 8a3f ff13 3cbf 5cc4 08bd
000003f0: bd11 2abe 1e89 8d3e 0a7e 193f b348 ee3e

lin.bias f4 [10]
0.0057306355 0.048931185 0.14925656 0.039417606 0.08610655 -0.22238964 -0.41976038 -0.260645
-0.19083497 -0.33393148
00000000: 0ec8 bb3b 116c 483d b6d6 183e 5b74 213d
00000010: a258 b03d 1cba 63be d5ea d6be 4373 85be
00000020: 3e6a 43be 11f9 aabe
