NCC_Code/Models/2022-07-08_18-45-21_model.pt (torch, 115275 bytes, 50 tensors)

conv1.weight f4 [8, 2, 5, 5]
0	0x3e984040	0.2973652
1	0x3e47eaf9	0.19523229
2	0x3d1e5215	0.0386525
3	0xb8dacbe7	-0.0001043303
4	0x3d366d1b	0.044537645
5	0x3e710bf9	0.23539723
6	0x3e500d2f	0.20317529
7	0x3df59535	0.119913496
8	0x3ea58abb	0.32332405
9	0x3e80226d	0.25026265
10	0x3aa49cb9	0.0012558914
11	0x3dd5184e	0.104050264
12	0xbe2be03a	-0.16784754
13	0xbbdce9f4	-0.0067417566
14	0x3db4fe39	0.088375516
15	0xbcb784da	-0.022402216
16	0xbe039fbf	-0.12853907
17	0xbde8e74c	-0.113722414
18	0xbe4670fc	-0.19379038
19	0x3d0179ec	0.031610414
20	0x3de5f9a4	0.11229256
21	0xbe07cb25	-0.13261087
22	0xbcffdc9e	-0.031233128
23	0xbe4aa3f7	-0.1978911
24	0xbe521912	-0.20517376
25	0xbe2eb26f	-0.17060255
26	0xbcbaaec3	-0.022788411
27	0x3e0b60f0	0.13611197
28	0x3eb59f04	0.35472882
29	0x3e6af797	0.2294601
30	0x3e3386e2	0.17531922
31	0x3e7e8f8d	0.24859448
32	0x3e479725	0.19491251
33	0x3ea3176f	0.31853816
34	0x3e5d7b2c	0.21629018
35	0xbdf36ec8	-0.11886364
36	0xbe2ef3ca	-0.17085186
37	0x3e302331	0.17200924
38	0x3d20aa62	0.03922499
39	0xbd874ce8	-0.066064656
40	0x3cdf7e64	0.027281947
41	0x3c49cc00	0.012316704
42	0xbdf739be	-0.1207156
43	0x3a9e063e	0.0012056304
44	0xbb89ceb4	-0.004205549
45	0xbe97baf7	-0.2963483
46	0xbe2caa1d	-0.16861768
47	0xbe5d4c77	-0.216112
48	0xbd09ed22	-0.033673413
49	0x3d0d896d	0.034554888
50	0x3daaacc2	0.08333732
51	0x3d92e263	0.07172086
52	0x3e223d19	0.1584362
53	0x3c97e1f9	0.01854037
54	0x3d5ac127	0.05340686
55	0xbe0fb556	-0.14034018
56	0xbdb65ce7	-0.089044385
57	0x3d214fc2	0.039382704
58	0x3d31b2a9	0.043383274
59	0xbef9299a	-0.48664552
60	0x3ec45d3c	0.38352382
61	0x3e496b3f	0.19669817
62	0x3eb4a0ab	0.3527883
63	0x3db9639b	0.09052201
64	0x3cd7af1a	0.026328612
65	0xbcebae7a	-0.02876972
66	0xbe1f9eab	-0.15587871
67	0xbd37b6fb	-0.04485224
68	0xbe2c92d3	-0.16852884
69	0xbd6db91b	-0.05803786
70	0xbef38d65	-0.47568813
71	0xbe8cb7fd	-0.27484122
72	0xbeea2e33	-0.45738372
73	0xbe4905db	-0.1963114
74	0xbe9ec3cf	-0.31008765
75	0x3dd7576b	0.105147205
76	0xbd323387	-0.04350617
77	0xbe587eb9	-0.21142091
78	0x3e8c82d4	0.27443564
79	0x3bdea3ee	0.0067944443
80	0x3e076900	0.13223648
81	0x3e57836c	0.21046227
82	0x3e1adace	0.1512253
83	0xbe5bc776	-0.21462807
84	0x3e59d135	0.21271212
85	0xbe0c7f3c	-0.13720411
86	0x3e864523	0.26224622
87	0xbe03c011	-0.12866236
88	0x3e29f341	0.165967
89	0x3e5c4aa8	0.21512854
90	0x3d58cf28	0.052931935
91	0x3e876969	0.2644761
92	0x3c94399c	0.018093877
93	0x3dbdc920	0.09266877
94	0x3d0edebc	0.034880385
95	0x3d3cd73f	0.046103712
96	0xbede5916	-0.43427342
97	0xbe0e19d3	-0.13877039
98	0xbe9855d5	-0.29752985
99	0xbccb446d	-0.024812901
100	0x3d137b8d	0.0360065
101	0x3e7ec101	0.24878313
102	0x3e890312	0.26760155
103	0xbe496dac	-0.19670743
104	0xbed5c312	-0.4175039
105	0x3e59c7bc	0.21267599
106	0x3d42e5e1	0.04758251
107	0x3ddb99d7	0.10722702
108	0x3d344ffb	0.044021588
109	0xbe7e663f	-0.24843691
110	0xbe11186a	-0.1416947
111	0x3e071dfe	0.13195035
112	0xbd9ff02f	-0.07809483
113	0xbdefab03	-0.1170254
114	0x3d88eae4	0.06685427
115	0x3db18d77	0.086695604
116	0x3db3e89d	0.08784602
117	0xbdff5e49	-0.12469155
118	0xbee83d66	-0.45359343
119	0xbed4a6c0	-0.4153347
120	0x3e148930	0.14505458
121	0x3e3fa13f	0.18713854
122	0xbdb91606	-0.09037404
123	0xbdeb569f	-0.11491131
124	0xbe9bb6b2	-0.30412823
125	0x3e9a3cfc	0.30124652
126	0x3eb00b07	0.34383413
127	0x3daab4c6	0.08335261
128	0xbde9105d	-0.11380074
129	0x3d842683	0.06452658
130	0x3e7cc6af	0.24685167
131	0x3e1bace2	0.15202668
132	0x3e9ef499	0.31045988
133	0xbe5d4571	-0.21608521
134	0xbdb6d4fd	-0.08927343
135	0x3d96261e	0.07331489
136	0xbe93c9cb	-0.28864893
137	0xbdcf2f9d	-0.101165034
138	0xbe4e943e	-0.20173737
139	0xbe87bc2c	-0.2651075
140	0xbe713ef5	-0.23559172
141	0xbd1d29fc	-0.038370118
142	0xbd8d1fa6	-0.06890802
143	0xbdb4374a	-0.08799608
144	0xbdfc5984	-0.12321761
145	0xbdea33f4	-0.114356905
146	0x3da8c9ba	0.08241601
147	0x3dedad62	0.11605336
148	0xbea90416	-0.3301093
149	0xbd4edce3	-0.050503623
150	0x3e49fb87	0.19724856
151	0x3d7bc387	0.061465766
152	0x3e7c358d	0.24629803
153	0xbcf7a1cd	-0.03022852
154	0xbbdb0b4f	-0.0066846977
155	0x3e6f7e57	0.23388039
156	0xbde06967	-0.10957604
157	0xbd1e8aba	-0.03870652
158	0xbd9631bb	-0.07333704
159	0xbd99d8d6	-0.07512061
160	0x3d98fff6	0.07470696
161	0x3d9cb0f2	0.07650937
162	0x3e5362fd	0.2064323
163	0x3ef3f6be	0.47649187
164	0x3e3f2f2e	0.18670341
165	0xbde41f70	-0.11138809
166	0xbde3220c	-0.11090478
167	0x3dd28f47	0.10281234
168	0x3e695ab4	0.22788507
169	0xbc520f7e	-0.012821076
170	0x3e4da4b5	0.20082362
171	0x3eed4259	0.46339682
172	0x3ea48a3d	0.32136717
173	0x3f068900	0.52552795
174	0x3e7d869b	0.24758379
175	0xbe65ba77	-0.22434412
176	0xbe2d0095	-0.16894753
177	0xbe46878a	-0.19387642
178	0x3e295fa2	0.16540387
179	0x3dc863ea	0.09784682
180	0xbdd686c5	-0.10474924
181	0x3f071317	0.52763504
182	0x3e22c29e	0.15894553
183	0x3e1c6c46	0.15275678
184	0x3e9b673e	0.30352205
185	0x3e3ac084	0.18237501
186	0x3e0cc8dd	0.13748498
187	0xbddae93b	-0.106890164
188	0xbe512520	-0.20424318
189	0x3e6bf8d7	0.23044144
190	0x3e838ea1	0.25694755
191	0x3e9c3df1	0.30516008
192	0x3e054a42	0.13016608
193	0x3d1bdb5c	0.038050994
194	0x3db2e27b	0.08734604
195	0x3e98816f	0.2978625
196	0x3d225cdc	0.03963934
197	0x3d080824	0.03321089
198	0x3dfbbf60	0.12292361
199	0x3e6eb8e0	0.23312712
200	0x3daf7105	0.08566479
201	0x3d424503	0.047429096
202	0x3bcf55c1	0.0063273613
203	0xbe3d6278	-0.18494594
204	0xbcfa3503	-0.030542856
205	0x3d8d4196	0.06897275
206	0x3d346b94	0.044047907
207	0xbd642e5f	-0.055708285
208	0x3d6c90fe	0.057755463
209	0xbda26a47	-0.07930427
210	0x3ee4319e	0.44569105
211	0x3d8e0d82	0.0693617
212	0x3e2b2a6a	0.16715398
213	0x3ef8c26b	0.4858583
214	0x3e9a1bd3	0.30099353
215	0x3cf2379b	0.02956753
216	0xbe0f7de9	-0.14012875
217	0xbe0dcecd	-0.1384842
218	0x3d86d110	0.06582844
219	0x3df70054	0.120606095
220	0xbb473521	-0.0030396658
221	0x3c009547	0.0078480905
222	0xbdac283e	-0.08406113
223	0x3dc97502	0.098367706
224	0xbc405f38	-0.011741452
225	0xbe7d2c7e	-0.24724004
226	0xbe61f22e	-0.2206504
227	0xbdc97c1b	-0.09838124
228	0x3ca6209d	0.020279223
229	0xbddcf1f8	-0.107883394
230	0xbe2770c4	-0.1635161
231	0xbe270ff9	-0.16314687
232	0xbd74dcdf	-0.05978095
233	0xbe5ef7cf	-0.21774219
234	0xbd699d3e	-0.057034723
235	0x3e669518	0.22517812
236	0x3f21d9b2	0.632228
237	0x3e8f3f97	0.27978203
238	0x3e59d2b8	0.21271789
239	0x3d84d152	0.06485237
240	0xbe51f679	-0.20504178
241	0x399c9ab0	0.0002986989
242	0x3e070423	0.13185172
243	0xbe4f7d21	-0.20262577
244	0xbe340114	-0.17578536
245	0xbd17126a	-0.036882795
246	0xbdc56dbe	-0.09640072
247	0xbd1dcfc4	-0.03852822
248	0xbe4ae38d	-0.19813366
249	0xbde2f764	-0.11082342
250	0x3c8c33f0	0.01711461
251	0xbe8cc880	-0.2749672
252	0x3beb30dc	0.0071774554
253	0xbe6c7a7f	-0.23093604
254	0x3e3dae3f	0.18523501
255	0xbe641cfe	-0.22276685

conv1.bias f4 [8]
0	0xbeba2114	-0.36353362
1	0x3e9ec7de	0.31011862
2	0x3d613677	0.054983582
3	0xbea955a1	-0.33073142
4	0xbf3a22d5	-0.727094
5	0xbe8c479d	-0.27398387
6	0xbd14c5ee	-0.036321573
7	0xbef867b7	-0.48516628

bn1.weight f4 [8]
0	0x3f8c8587	1.0978249
1	0x3f2184a4	0.6309302
2	0x3f49469b	0.7862336
3	0x3f8091c8	1.0044489
4	0x3f8d6180	1.104538
5	0x3f8e7e64	1.1132321
6	0x3f5d474f	0.86436933
7	0x3f6b1dbc	0.91842246

bn1.bias f4 [8]
0	0x3e4c4c40	0.19950962
1	0xbece53f0	-0.40298414
2	0xbd6350a3	-0.055496823
3	0xbdb8281f	-0.089920275
4	0xbea38850	-0.31939936
5	0xbe9a5599	-0.3014343
6	0xbeb2c8d1	-0.34918836
7	0xbf10be48	-0.56540346

bn1.running_mean f4 [8]
0	0x3ee1bf0a	0.44091064
1	0x3f1845d9	0.5948158
2	0x3f3c9d0c	0.73677135
3	0x3faa4026	1.3300827
4	0x3def0b87	0.116721205
5	0x3e8f8724	0.28032792
6	0x3f0da2de	0.5532664
7	0x3f1e3218	0.61795187

bn1.running_var f4 [8]
0	0x3fa8baad	1.3181969
1	0x3eebf76c	0.46087205
2	0x3f5c74ab	0.8611552
3	0x4135bc64	11.358494
4	0x3e8a2cba	0.2698725
5	0x3ef4f2a5	0.47841373
6	0x3feacc73	1.8343643
7	0x4022c5f3	2.5433319

conv2.weight f4 [16, 8, 3, 3]
0	0xbe1f5963	-0.15561442
1	0xbdc87ab3	-0.09789028
2	0x3c812263	0.015763467
3	0x3e4d4bcb	0.20048444
4	0x3e0095ff	0.12557219
5	0x3db33c58	0.08751744
6	0xbe870ab1	-0.26375344
7	0xbd23bbc8	-0.039974004
8	0xbe469b9a	-0.19395295
9	0xba8bc767	-0.0010664285
10	0xbea00bfe	-0.3125915
11	0xbc42559a	-0.011861229
12	0x3d4943f5	0.049137075
13	0xbe2e5d6b	-0.17027824
14	0xbe41350b	-0.1886789
15	0xbe13a7e0	-0.14419508
16	0x3e234198	0.15942991
17	0xb99b7e67	-0.0002965808
18	0xbd594708	-0.053046256
19	0xbe3ec648	-0.18630326
20	0xbdb8ff2f	-0.090330474
21	0xbd54412b	-0.05181996
22	0xbebe1060	-0.37121868
23	0xbe82d7da	-0.25555307
24	0x3dcd24d6	0.100167915
25	0x3e0fb572	0.1403406
26	0xbe7fa690	-0.24965882
27	0xbdfd14e9	-0.12357504
28	0xbd8bf66b	-0.0683411
29	0x3eb02e7a	0.3441046
30	0xbde16f83	-0.11007597
31	0x3de1124e	0.109898195
32	0x3e792e80	0.24334145
33	0xbd574f48	-0.052565843
34	0x3f0a4aa5	0.5402015
35	0x3e8d631e	0.27614683
36	0x3dc892be	0.09793614
37	0x3c6f8f0e	0.014621509
38	0x3d9af2b0	0.0756582
39	0xbe41f232	-0.18940046
40	0x3b5512a4	0.0032512331
41	0x3d848c90	0.06472123
42	0x3e733287	0.23749743
43	0x3e9d7075	0.3074986
44	0x3e68a4ea	0.2271916
45	0xbe80e87b	-0.2517737
46	0xbe8bc5b3	-0.2729927
47	0xbecf146a	-0.40445262
48	0xbdc64286	-0.09680657
49	0xbda397f9	-0.07987971
50	0xbdd84d00	-0.105615616
51	0x3e7a7e72	0.24462298
52	0x3e51e96b	0.20499198
53	0x3e373ea5	0.1789499
54	0x3e0e16c8	0.13875878
55	0x3deeb1cf	0.11655008
56	0x3e9b27f2	0.30303913
57	0x3e1dac85	0.15397842
58	0x3e280013	0.16406278
59	0x3e515c22	0.20445302
60	0x3e38557b	0.18001358
61	0xbd3c721a	-0.046007253
62	0x3de1f702	0.11033441
63	0xbd4c7e3a	-0.049925067
64	0x3e26d7d6	0.16293272
65	0x3e884328	0.26613736
66	0xbe576389	-0.21034063
67	0x3dcf1790	0.10111916
68	0x3d5f7ad8	0.054560512
69	0x3e3c5f9f	0.18395852
70	0x3e91df1a	0.28490525
71	0x3d9badf6	0.0760154
72	0x3d73dac0	0.059534788
73	0xbdd93b96	-0.10607068
74	0xbe464d52	-0.19365433
75	0xbd9e51fc	-0.07730481
76	0xbe589dfa	-0.21154013
77	0xbe6782d3	-0.22608499
78	0x3e69503e	0.22784516
79	0x3ece950b	0.40348086
80	0xbd28c61a	-0.04120455
81	0xbca8afc1	-0.020591618
82	0xbbd5d800	-0.0065259933
83	0x3defe409	0.11713416
84	0x3dea81f1	0.114505656
85	0x3e7b10f4	0.24518186
86	0xbd741f25	-0.059600014
87	0x3da0b892	0.07847704
88	0xbe2e1699	-0.17000808
89	0x3dc3b1b0	0.095553756
90	0x3e725ac3	0.23667435
91	0x3e654ae5	0.22391851
92	0x3e95257c	0.2913016
93	0x3e688659	0.227075
94	0x3e2070db	0.15668051
95	0x3d5b0c62	0.053478606
96	0xbc0fef08	-0.008785017
97	0xbd0704a8	-0.032963425
98	0xbdd0f4dc	-0.10202953
99	0x3e136183	0.14392667
100	0x3e1646a6	0.14675388
101	0x3dba841e	0.091072306
102	0x3da32d56	0.079676315
103	0xbce580f9	-0.0280156
104	0x3db1b767	0.08677559
105	0xbc1cc62b	-0.009568731
106	0x3dd307b9	0.10304207
107	0x3df815de	0.12113546
108	0x3e912954	0.28351843
109	0x3e58b203	0.21161656
110	0x3e477ed5	0.19481976
111	0xbe4a0a17	-0.19730411
112	0xbe84e0e2	-0.25952822
113	0xbe0d6dd3	-0.13811426
114	0x3e00e050	0.12585568
115	0x3e3b4b2f	0.18290399
116	0x3ec475a0	0.3837099
117	0x3dade4dc	0.08490917
118	0xbe4aa017	-0.19787632
119	0x3ce3fbf8	0.027830109
120	0x3e463705	0.19356926
121	0x3d97f4eb	0.07419761
122	0x3f12eb82	0.57390606
123	0x3e43df85	0.19128235
124	0x3e18a777	0.14907633
125	0xbd3b3e9c	-0.045714006
126	0x3e1a0bed	0.15043612
127	0x3cb12482	0.021623854
128	0x3e782f20	0.24236727
129	0xbe54536c	-0.20734948
130	0x3e8b4532	0.2720123
131	0xbcde1a14	-0.027112044
132	0x3e53f921	0.20700504
133	0xbd9e98fd	-0.07744024
134	0x3d029a3e	0.031885378
135	0x3e75437f	0.23951529
136	0x3e2789e6	0.16361198
137	0xbcba8fe5	-0.022773692
138	0xbca6e4fc	-0.02037286
139	0x3e17a001	0.1480713
140	0x3e6e2b6a	0.23258749
141	0x3dccb2ee	0.09995066
142	0x3e3bcdec	0.18340272
143	0x3e123b32	0.14280394
144	0xbdf8ab4e	-0.12142049
145	0xbeaef540	-0.34171486
146	0xbefe8bed	-0.4971613
147	0xbea31996	-0.31855458
148	0xbf288770	-0.6583166
149	0xbeb9d72d	-0.3629698
150	0xbd4d0489	-0.050053153
151	0x3d524dea	0.051343836
152	0xbd19caa0	-0.037546754
153	0xbe136bf0	-0.14396644
154	0xbe66d451	-0.2254193
155	0xbe2ddb07	-0.16978084
156	0x3da1c013	0.078979634
157	0x3e70e416	0.23524508
158	0x3e0d00d0	0.13769841
159	0x3ea7b558	0.32755542
160	0x3e3df9d7	0.18552338
161	0x3cb3cdb6	0.021948677
162	0x3c86a184	0.016434439
163	0x3e84dd67	0.25950167
164	0xbc7e31a8	-0.015514769
165	0xbd292217	-0.041292276
166	0x3dce2796	0.10066144
167	0x3dc65ce1	0.09685684
168	0xbd8efa95	-0.069813885
169	0x3cfad0e9	0.030617194
170	0x3e395738	0.18099678
171	0xbe56dbe2	-0.20982316
172	0xbdf9ed21	-0.12203432
173	0xbeb88e8e	-0.3604626
174	0xbe6bf0e4	-0.23041111
175	0xbe4404bd	-0.19142433
176	0xbe0488c6	-0.129428
177	0x3e6867ca	0.22695842
178	0xbe59f97b	-0.21286575
179	0xbd73947f	-0.05946779
180	0x3e9726a3	0.29521665
181	0x3cb5caa1	0.022191348
182	0xbe57c57c	-0.21071428
183	0x3cdffa51	0.02734104
184	0x3e116a62	0.14200738
185	0xbe03792d	-0.12839194
186	0x3ec5b0fc	0.3861159
187	0x3ec2ad91	0.38023046
188	0xbd090f46	-0.03346183
189	0xbd8a0038	-0.06738323
190	0xbd6d1309	-0.05787948
191	0xbce84b00	-0.028356075
192	0x3ebdc76d	0.37066212
193	0x3e9e5885	0.3092691
194	0xbd2608e1	-0.04053581
195	0x3e837ea2	0.2568255
196	0xbe1f1e6e	-0.15538952
197	0x3db1a6cb	0.08674391
198	0xbca85b34	-0.020551302
199	0x3e368d80	0.17827415
200	0xbd5e62a7	-0.0542933
201	0x3e91b165	0.28455654
202	0x3e32bfde	0.17456004
203	0xbe4fba44	-0.20285898
204	0x3e701a55	0.23447545
205	0x3dcd74ba	0.100320294
206	0x3e74c831	0.23904492
207	0xbe38bcab	-0.18040721
208	0xbc48bf42	-0.012252631
209	0x3d9277e4	0.071517736
210	0xbe25ca70	-0.16190505
211	0x3e342aa6	0.17594394
212	0xbd9235d8	-0.07139176
213	0x3e2ba7c7	0.1676322
214	0x3e1d24f2	0.15346125
215	0xbe11dab8	-0.14243591
216	0x3e21e2cf	0.15809177
217	0x3e6d3660	0.23165274
218	0xbd0e213d	-0.034699667
219	0xbe318fc0	-0.17339993
220	0x3da669b0	0.08125627
221	0xbe24c4a5	-0.16090639
222	0xbe8d51b2	-0.2760139
223	0xbe5c2025	-0.21496637
224	0xbc5439b2	-0.012953209
225	0x3d990777	0.07472127
226	0xbc5399db	-0.0129151
227	0x3e24c1c6	0.16089544
228	0xbe21fbb6	-0.15818676
229	0x3e3dd2ba	0.18537417
230	0xbe36bfb7	-0.17846571
231	0xbcb0a4f8	-0.021563038
232	0x3d2addf4	0.041715577
233	0x3e457786	0.19283876
234	0xbdb3ac83	-0.087731384
235	0x3d32a34c	0.043612763
236	0xbc12fb05	-0.0089709805
237	0xbe76d1ae	-0.24103424
238	0xbe50b90b	-0.20383088
239	0xbd15306b	-0.036423128
240	0xbdf16d42	-0.117884174
241	0xbe264cbb	-0.16240208
242	0xbe1124db	-0.14174215
243	0x3ce0b344	0.02742923
244	0xbcacbb7f	-0.021085499
245	0xbd26e2da	-0.040743686
246	0x3d2be1fa	0.041963555
247	0xbc5fd3b0	-0.01366131
248	0xbd453309	-0.048144374
249	0x3e0d912e	0.13824913
250	0x3e7b109e	0.24518058
251	0x3e8c2531	0.27372125
252	0xbeaaf8db	-0.33392987
253	0xbe7f677b	-0.24941818
254	0xbe233458	-0.15937936
255	0x3eb6d5e0	0.3571005

conv2.bias f4 [16]
0	0x3c2cc891	0.010545866
1	0xbeb54c81	-0.3540993
2	0xbd644725	-0.05573191
3	0xbd480d89	-0.048841033
4	0xbea8fce4	-0.3300544
5	0xbe3439eb	-0.17600219
6	0xbe84174c	-0.25799024
7	0xbdbc8bc9	-0.092063494
8	0xbee85775	-0.45379224
9	0x3dff8df5	0.12478248
10	0xbca48f40	-0.020087838
11	0xbe9539da	-0.291457
12	0xbe87db44	-0.26534474
13	0xbeb088c7	-0.34479353
14	0x3afabae1	0.0019129181
15	0xbda001fc	-0.078128785

bn2.weight f4 [16]
0	0x3f53bd05	0.82710296
1	0x3f81552d	1.0104119
2	0x3f590f32	0.8478881
3	0x3f8ae966	1.0852478
4	0x3f8626a6	1.0480545
5	0x3f8fac05	1.1224371
6	0x3f838a2d	1.0276543
7	0x3f8273e4	1.0191617
8	0x3f8d9e99	1.1064025
9	0x3f4b254b	0.7935378
10	0x3f6d9c5d	0.92816716
11	0x3f776021	0.96631056
12	0x3f77eb62	0.9684354
13	0x3f7838e0	0.96961784
14	0x3f308a92	0.6896144
15	0x3f5f8aa5	0.8732093

bn2.bias f4 [16]
0	0x3f02c708	0.5108495
1	0xbdd5a24f	-0.104313485
2	0x3ebcf9fe	0.3690948
3	0xbd9dcf54	-0.0770556
4	0x3d27d7dd	0.040977348
5	0xbc74207e	-0.014900325
6	0x3e496ede	0.19671199
7	0xbe04c057	-0.12963997
8	0xbc9bda07	-0.019024862
9	0x3e3db6d8	0.1852678
10	0x3ed2fb99	0.4120758
11	0xbe3ccee3	-0.18438296
12	0xbe70f6c5	-0.23531635
13	0x3e1f70f1	0.15570427
14	0x3ef025c8	0.46903825
15	0x3df2e4a5	0.11860017

bn2.running_mean f4 [16]
0	0x3f182e4e	0.59445655
1	0x3ef90502	0.48636633
2	0x3e2cf72a	0.1689116
3	0x3ec66e37	0.38755962
4	0x3e854f9a	0.26037294
5	0x3f3ea7a6	0.7447456
6	0x3ea86761	0.32891372
7	0x3f1cf35f	0.61308855
8	0x3dc8058c	0.09766683
9	0x3ff475d3	1.9098457
10	0x403639d8	2.8472805
11	0x3ebd8b2d	0.37020245
12	0x3e607fe0	0.2192378
13	0x3dccc154	0.09997812
14	0x3f946814	1.1594262
15	0x3e609fa5	0.219359

bn2.running_var f4 [16]
0	0x40617f6d	3.5234025
1	0x40748b43	3.8209999
2	0x3f480819	0.78137356
3	0x404d621e	3.2091136
4	0x3fae8324	1.3633771
5	0x409f3733	4.975488
6	0x3fdfedc7	1.7494439
7	0x4008f1db	2.1397617
8	0x3edb86e7	0.4287636
9	0x3f69b046	0.91284597
10	0x4029b6ca	2.6517816
11	0x3fab39c1	1.3377
12	0x3fb8aefb	1.44284
13	0x3e92de32	0.28685147
14	0x3f592b55	0.84831744
15	0x3f3ed777	0.74547523

conv3.weight f4 [32, 16, 3, 3]
0	0xbe932f52	-0.2874704
1	0x3ac4d54b	0.001501718
2	0xbc42909d	-0.011875299
3	0xbe088f0b	-0.13335817
4	0x3e2a4a94	0.16630012
5	0x3cfa7637	0.030573947
6	0x3e893a3e	0.26802248
7	0xbe458de6	-0.19292411
8	0xbe0de679	-0.1385745
9	0xbdbe4b49	-0.09291703
10	0x3e305b2f	0.17222284
11	0xbddf7d12	-0.10912527
12	0x3e00e354	0.12586719
13	0xbd4a0c7c	-0.049328312
14	0x3e87435d	0.26418582
15	0x3e14c531	0.14528348
16	0x3e9b1d3c	0.30295742
17	0x3e5001ba	0.20313159
18	0x3ced1c8f	0.028944282
19	0x3e5c34ff	0.21504591
20	0x3e051d99	0.12999572
21	0xbda14490	-0.078744054
22	0xbe4f9e9b	-0.20275347
23	0x3d3ba53e	0.045811884
24	0x3dd92bb7	0.10604041
25	0xbde9642b	-0.11396059
26	0xbe3769c4	-0.1791144
27	0x3e078a39	0.13236322
28	0x3d84ed62	0.0649059
29	0x3d4deeef	0.050276693
30	0xbe096651	-0.13417937
31	0xbddd69c3	-0.10811188
32	0x3dc4895b	0.09596511
33	0xbd2e25ae	-0.042516403
34	0xbdd02069	-0.10162432
35	0xbe23d95d	-0.16000886
36	0x3b951490	0.0045495704
37	0xbd00b33e	-0.03142094
38	0xbd82fb5f	-0.063956015
39	0xbdfec5ae	-0.12440048
40	0x3d037f74	0.03210397
41	0xbe215755	-0.15755971
42	0x3e103e6b	0.1408631
43	0x3e00935f	0.12556218
44	0x3e21daa7	0.15806065
45	0x3e361698	0.17782056
46	0xbd9dc438	-0.077034414
47	0xbd9cb233	-0.07651176
48	0x3dfb7362	0.12277867
49	0xbbc3ad5c	-0.005971594
50	0xba0a7c80	-0.0005282834
51	0xbd4c5b33	-0.04989166
52	0x3d20bbf8	0.03924176
53	0x3e3153b0	0.1731708
54	0xbcfa382c	-0.030544363
55	0xbc72a13d	-0.01480895
56	0xbcefb72c	-0.029262148
57	0xbd25eec1	-0.040510897
58	0xbe8b6dbd	-0.2723216
59	0xbcb61e0f	-0.02223113
60	0xbe5f3ab0	-0.21799731
61	0x3c0c44e5	0.008561348
62	0x3dbbcb27	0.091696076
63	0x3e8188fc	0.25299823
64	0x3e236d32	0.15959623
65	0x3e78645d	0.24257036
66	0xbe448829	-0.19192566
67	0xbe9ffe01	-0.31248477
68	0xbad0e513	-0.001593741
69	0xbd2520f1	-0.04031462
70	0xbd425ed8	-0.04745373
71	0xbdc53397	-0.096289806
72	0x3da83906	0.08214001
73	0x3e276907	0.16348659
74	0x3c5d2589	0.013497719
75	0xbe963483	-0.29336938
76	0x3d2ec761	0.04267061
77	0xbc632bdc	-0.013865437
78	0x3c994391	0.018708976
79	0xbe14b3fe	-0.14521787
80	0x3e2577ac	0.16158932
81	0x3e8f3ee7	0.27977678
82	0x3e7bde44	0.24596506
83	0x3cbba030	0.022903532
84	0x3c8d9ce0	0.017286718
85	0x3cff7ade	0.031186517
86	0xbdb1cefa	-0.08682056
87	0x3c8cf39b	0.017206004
88	0x3d40bde2	0.047056086
89	0x3d648b6d	0.05579703
90	0xbe5add36	-0.21373448
91	0xbe0ca2c1	-0.1373396
92	0x3d0bc9d6	0.034128033
93	0xbe457811	-0.19284083
94	0x3dace2d9	0.08441705
95	0xbed53a91	-0.41646245
96	0xbcb62488	-0.022234216
97	0xbdf04e59	-0.11733694
98	0xbe508f6b	-0.2036721
99	0x3bbedaa1	0.0058244024
100	0xbd3e096c	-0.046395704
101	0xbe3e34bf	-0.18574809
102	0x3db179ee	0.08665834
103	0x3d7fa638	0.062414378
104	0x3e898d71	0.26865724
105	0x3e4fcc40	0.20292759
106	0x3e871d81	0.26389697
107	0x3e6f9288	0.23395741
108	0x3bc4ceeb	0.006006112
109	0x3c88ceee	0.016700234
110	0x3e020332	0.12696531
111	0xbdd7f0f0	-0.10544002
112	0x3dd3d179	0.10342688
113	0x3ca79da2	0.020460907
114	0x3d93404f	0.0719
115	0x3d1bc2c9	0.03802756
116	0x3ab578fb	0.0013845259
117	0x3e8c7dbf	0.27439687
118	0x3e46527f	0.19367407
119	0x3e607727	0.21920453
120	0x3b50efb7	0.0031881162
121	0xbd8b55f8	-0.068035066
122	0x3d735fa1	0.05941737
123	0x3d829351	0.063757546
124	0x3d5ad9ff	0.053430554
125	0x3dbe9d76	0.09307377
126	0xbe28527f	-0.1643772
127	0x3d19e0ea	0.03756801
128	0xbda542dc	-0.08069393
129	0xbe0198ce	-0.12655947
130	0xbe4573c8	-0.19282448
131	0xbe33b30d	-0.17548771
132	0x3e194d37	0.14970861
133	0x3ddc28fd	0.107500054
134	0x3c813aa1	0.015775027
135	0xbd207347	-0.039172437
136	0xbe1cfb4f	-0.15330242
137	0xbdeb28e0	-0.11482406
138	0x3e1b1a7d	0.15146823
139	0x3e66d279	0.22541226
140	0x3e090acd	0.13383026
141	0x3e52c941	0.20584585
142	0x3e374337	0.17896734
143	0x3d24fd0f	0.040280398
144	0xbcca0264	-0.024659343
145	0x3c794542	0.015214266
146	0x3dc9ca84	0.0985308
147	0x3c3b0c78	0.011416547
148	0xbbad7703	-0.0052937283
149	0x3dc91e2b	0.09820207
150	0xbe25991a	-0.16171685
151	0xbe17b944	-0.14816767
152	0xbd53175e	-0.051535957
153	0x3de44f69	0.11147959
154	0x3c248ca9	0.010043302
155	0xbd0e8782	-0.0347972
156	0x3df7dc47	0.121025614
157	0x39f7e8a0	0.0004728483
158	0x3d109f0f	0.03530794
159	0xbe8b283a	-0.27179128
160	0xbeaf92ae	-0.34291595
161	0xbda3ea18	-0.08003634
162	0x3cef6b1a	0.029225875
163	0xbdae38c2	-0.085069194
164	0xbda9dac7	-0.082936816
165	0xbd8e3d9f	-0.06945347
166	0x3d283dea	0.04107467
167	0x3d8952a1	0.06705213
168	0xbdaaa5c0	-0.083323956
169	0xbd554a21	-0.052072648
170	0xbdcc3731	-0.099714644
171	0x3dd9c3aa	0.10633023
172	0x3e576589	0.21034826
173	0x3d202704	0.03909971
174	0x3bbe4c97	0.00580747
175	0xbd7d336d	-0.06181662
176	0x3c50f5ad	0.012753886
177	0x3e86c7f8	0.2632444
178	0x3d8fe5be	0.07026242
179	0x3df80c35	0.12111703
180	0x3dbdb9f3	0.092639826
181	0x3d867c2b	0.06566652
182	0x3e0133d0	0.12617421
183	0xbcbd7a5e	-0.023129638
184	0xbe4b8c15	-0.19877656
185	0xbe641f61	-0.22277595
186	0x3d74191e	0.059594266
187	0x3e5c7429	0.21528687
188	0x3c90b7f7	0.017665846
189	0x3ba2eb17	0.0049718725
190	0x3bc2b087	0.005941454
191	0xbde8b78c	-0.11363134
192	0x3eba1c0c	0.36349523
193	0x3e37b237	0.17939077
194	0x3e391984	0.1807614
195	0xbdb73c6a	-0.0894707
196	0xbda81b16	-0.08208291
197	0xbe81cd61	-0.25352004
198	0x3dc4946a	0.0959862
199	0x3de332d8	0.11093682
200	0x3d9ed401	0.0775528
201	0xbd918de9	-0.07107145
202	0xbe069bf1	-0.13145424
203	0xbd114100	-0.03546238
204	0x3e453243	0.19257455
205	0x3ec3b67c	0.38225162
206	0x3e870987	0.26374456
207	0x3e3438fb	0.17599861
208	0x3bedb600	0.007254362
209	0x3ccb724b	0.024834773
210	0xbd59099a	-0.052987672
211	0x3d9c2a0c	0.07625207
212	0x3dda4287	0.1065722
213	0xbda41b93	-0.08013072
214	0xbd4eed8f	-0.050519522
215	0x3d862578	0.06550115
216	0x3da6c73b	0.08143469
217	0x3d24984d	0.040184308
218	0xbdd85ada	-0.105642036
219	0x3e24f636	0.16109547
220	0x3e33b5dd	0.17549844
221	0x3d56f029	0.05247513
222	0x3d08f414	0.033435896
223	0xbd695d14	-0.05697353
224	0xbd645d3e	-0.055752985
225	0x3e1e7524	0.15474373
226	0x3d9b1c63	0.07573774
227	0x3dcba185	0.09942917
228	0xbe336699	-0.17519607
229	0x3c6159c4	0.013754312
230	0x3df7ac12	0.12093367
231	0xbc7446c0	-0.014909446
232	0xbe269d2b	-0.16270892
233	0xbe233c8c	-0.15941066
234	0xbcee4726	-0.02908666
235	0xbc9c5022	-0.019081179
236	0x3c21d1d4	0.009876687
237	0xbdad1373	-0.08450975
238	0x3e04a3c6	0.129531
239	0x3e2f92a5	0.17145784
240	0xbc8bfa06	-0.017086994
241	0xbe31a227	-0.17347012
242	0x3e01c0ec	0.1267125
243	0xbcb88051	-0.022522124
244	0x3e22f16f	0.15912412
245	0x3cfe240f	0.031023053
246	0xbdacd0bd	-0.08438251
247	0xbe013879	-0.12619199
248	0xbe2c495c	-0.1682486
249	0xbe499d9a	-0.19689026
250	0xbe1d9304	-0.15388113
251	0xbe105c2d	-0.14097662
252	0x3db8ccd1	0.09023441
253	0xbcc62da3	-0.024191683
254	0xbe18e714	-0.149319
255	0x3e468460	0.19386435

conv3.bias f4 [32]
0	0xbd665259	-0.056230877
1	0xbe0202f9	-0.12696446
2	0xbea10fe4	-0.31457436
3	0xbd054862	-0.032539733
4	0xbe2f7095	-0.1713279
5	0xbe8aa3a8	-0.27077985
6	0xbef48e3b	-0.47764763
7	0xbe2004f1	-0.15626885
8	0xbeec7155	-0.46180215
9	0xbec772a5	-0.38954654
10	0xbee7e923	-0.45295057
11	0xbd7e33e9	-0.062061224
12	0xbe2dc405	-0.16969307
13	0xbe8252fd	-0.2545394
14	0xbe2964fe	-0.16542432
15	0xbdb75bc9	-0.089530535
16	0xbda6316f	-0.081148975
17	0xbe85526a	-0.2603944
18	0xbe689258	-0.22712076
19	0xbde2af28	-0.11068565
20	0xbdba0135	-0.090822615
21	0xbf023599	-0.50863034
22	0xbd932aa1	-0.07185865
23	0xbed28476	-0.41116685
24	0xbe0eaa79	-0.13932218
25	0xbe275f78	-0.16345012
26	0xbdf1b922	-0.118028894
27	0x3d2caa62	0.042154677
28	0xbe57aa4a	-0.21061054
29	0xbec95c54	-0.39328253
30	0x3f0e282d	0.55530053
31	0xbef8229f	-0.48463914

bn3.weight f4 [32]
0	0x3f633cb3	0.88764495
1	0x3f77c864	0.96790147
2	0x3f885bb4	1.0652986
3	0x3f7266bd	0.94688016
4	0x3f4b0f8a	0.79320586
5	0x3f61a73f	0.8814582
6	0x3f8186ff	1.0119323
7	0x3f69753f	0.9119453
8	0x3f93dc6c	1.1551642
9	0x3f858f60	1.043438
10	0x3f8b33c6	1.0875175
11	0x3f71a6f2	0.94395363
12	0x3f6848f3	0.9073631
13	0x3f845842	1.0339434
14	0x3f431f80	0.7621994
15	0x3f5b1edc	0.8559396
16	0x3f8cbf32	1.0995848
17	0x3f803e8a	1.0019085
18	0x3f7e3116	0.9929365
19	0x3f3098e6	0.68983305
20	0x3f617812	0.8807384
21	0x3f81e175	1.0146929
22	0x3f7e2e74	0.9928963
23	0x3f8d30f1	1.1030561
24	0x3f81cbd5	1.014033
25	0x3f926de1	1.1439782
26	0x3f60a634	0.87753606
27	0x3f66be3b	0.9013402
28	0x3f8a2c2f	1.0794734
29	0x3f7c534e	0.9856461
30	0x3f676d0d	0.90400773
31	0x3f6cce12	0.9250194

bn3.bias f4 [32]
0	0xbebf3a25	-0.37349048
1	0x3e90ea6f	0.2830386
2	0xbd8fc06e	-0.07019125
3	0x3dd9ae49	0.106289454
4	0xbd021a44	-0.03176333
5	0x3e9ff0c4	0.31238377
6	0x3e924526	0.2856838
7	0x3ed22546	0.41044062
8	0x3ea20850	0.31646967
9	0x3dcbb45a	0.09946509
10	0x3e75b74d	0.23995705
11	0xbcba7db5	-0.02276502
12	0xbe7bf563	-0.24605326
13	0x3ea9b8ef	0.33148906
14	0xbe88dc57	-0.26730606
15	0x3e152460	0.14564657
16	0xbe83a0b9	-0.2570856
17	0xbd5ffdc3	-0.054685365
18	0x3e6a8080	0.22900581
19	0x3ef3474f	0.47515342
20	0x3e794d8e	0.24345991
21	0x3ec00c7f	0.37509534
22	0xbdd3df1a	-0.103452876
23	0x3d7a590f	0.06112009
24	0x3afb2175	0.0019159751
25	0x3ed0abdc	0.40756118
26	0xbe88a805	-0.2669069
27	0x3e638380	0.22218132
28	0xbe83a624	-0.25712693
29	0x3ddec2e1	0.10877014
30	0xbd338101	-0.0438242
31	0xbe109d71	-0.14122559

bn3.running_mean f4 [32]
0	0x3f02f3af	0.5115308
1	0x3e5b716f	0.2142999
2	0x3eab4c5b	0.33456692
3	0x3f0fbe5f	0.5614986
4	0x3edc4384	0.4302026
5	0x3e2878cd	0.16452332
6	0x3dcf2aaa	0.101155594
7	0x3da4a8a4	0.08039978
8	0x3e2962d8	0.16541612
9	0x3dd772aa	0.10519917
10	0x3e399490	0.18123078
11	0x3f109140	0.56471634
12	0x3f5a8f07	0.8537449
13	0x3e8b1d6c	0.27170885
14	0x3f44233e	0.76616275
15	0x3e01bd07	0.12669764
16	0x3e6e8a10	0.23294854
17	0x3d4123ef	0.04715341
18	0x3ecbd63f	0.39811894
19	0x3f808c9a	1.0042908
20	0x3dcb05f0	0.09913242
21	0x3de7b0a4	0.113129884
22	0x3ed68255	0.4189631
23	0x3e26bac1	0.16282178
24	0x3e5b17cf	0.21395801
25	0x3e81eecc	0.253775
26	0x3e8ff076	0.28113145
27	0x3d8393bc	0.064246625
28	0x3e57a4a4	0.21058899
29	0x3f391372	0.72295296
30	0x3fe84269	1.8145267
31	0x3e2a01dd	0.16602273

bn3.running_var f4 [32]
0	0x403638e4	2.8472223
1	0x3f3cc58e	0.73738945
2	0x3fb2f1f2	1.3980086
3	0x401171e0	2.2725754
4	0x3ff392d8	1.9029188
5	0x3eafd309	0.34340695
6	0x3f09d513	0.5384075
7	0x3de9938a	0.11405094
8	0x3f2e7c6d	0.6815861
9	0x3eceff63	0.4042922
10	0x3f2efe87	0.6835713
11	0x3fb0d4cd	1.3814942
12	0x40df539e	6.978957
13	0x3fa03a72	1.2517836
14	0x3ea4c2cf	0.32179877
15	0x3ebcc06b	0.36865553
16	0x3f3174ff	0.69319147
17	0x3dd554f8	0.10416597
18	0x3fd0de6f	1.6317881
19	0x3f262be3	0.64910716
20	0x3e5f210d	0.21789952
21	0x3f084f61	0.5324612
22	0x3fbb9754	1.4655557
23	0x3f1be677	0.60898536
24	0x3f35cad1	0.710126
25	0x3f8219ab	1.0164083
26	0x3f8dc072	1.1074355
27	0x3e0084eb	0.12550704
28	0x3f53f9fb	0.82803315
29	0x3f533da5	0.8251594
30	0x3f558ff3	0.83422774
31	0x3f1ecfbf	0.62035745

conv4.weight f4 [64, 32, 3, 3]
0	0x3d9b1435	0.075722136
1	0x3e0afbcb	0.13572614
2	0x3d82a3a4	0.06378868
3	0x3bf8eee1	0.007596836
4	0x3e050eef	0.12993978
5	0x3ce84bfd	0.028356547
6	0x3d4a77d1	0.049430672
7	0x3e04dd90	0.12975144
8	0x3e2035b7	0.1564549
9	0x3e3485de	0.17629191
10	0x3e4af1a9	0.19818749
11	0x3e7161a2	0.235724
12	0x3d41985f	0.047264453
13	0x3caec599	0.021334456
14	0x3cc7a18e	0.024369027
15	0x3c8d4a81	0.01724744
16	0x3d753bff	0.05987167
17	0x3d39f17a	0.045396306
18	0xbd1c179a	-0.038108446
19	0xbe34f322	-0.17670873
20	0xbe1c75b7	-0.1527928
21	0xbba51378	-0.0050377212
22	0x3d81b4d9	0.06333322
23	0x3d066410	0.03281027
24	0x3db32da9	0.08748943
25	0x3d764c73	0.0601315
26	0x3ccb4021	0.024810852
27	0x3e0f70dd	0.14007898
28	0x3e4c8895	0.19973977
29	0x3e330362	0.17481759
30	0x3dc69a00	0.09697342
31	0xbd59ae1e	-0.053144567
32	0xba84f03f	-0.00101424
33	0xbc40bbda	-0.011763537
34	0x3bf5ce3b	0.007501391
35	0xbc3bddcd	-0.011466456
36	0xbd6b0090	-0.057373583
37	0xbdc7d140	-0.09756708
38	0xbd82a02c	-0.063782066
39	0x3e078876	0.1323565
40	0x3db8dbd8	0.09026307
41	0x3dd5b2b3	0.10434475
42	0x3c35ff95	0.011108299
43	0xbccc5cb1	-0.024946542
44	0xbd2256fa	-0.03963373
45	0x3dcadd2d	0.09905467
46	0xbd4cccbc	-0.049999937
47	0x3d4fa838	0.050697535
48	0xbd971ecf	-0.07378923
49	0x3a96c24c	0.0011501997
50	0xbe1e67f8	-0.15469348
51	0xbe10abb1	-0.14127995
52	0xbdec7aad	-0.11546836
53	0xbdebc90b	-0.11512955
54	0x3de623c2	0.11237289
55	0x3c8ba50d	0.017046476
56	0x3df47cf1	0.11937893
57	0xbdcbd0d8	-0.09951943
58	0xbe286af0	-0.16447043
59	0xbc9df4cc	-0.019281767
60	0x3d0f4313	0.034976076
61	0x3e068259	0.13135661
62	0x3e2c8c0b	0.16850297
63	0x3b916e76	0.004438217
64	0xbe24a557	-0.16078697
65	0xbdb0d46c	-0.08634266
66	0xbe014b2e	-0.12626335
67	0xbe0a6591	-0.13515307
68	0xbd2972a9	-0.041369114
69	0xbcf15c0a	-0.029462833
70	0x3d830f7b	0.06399437
71	0xbb38821c	-0.0028153723
72	0xbe8ad44b	-0.27115092
73	0xbe42f6b9	-0.1903943
74	0xbdedcf88	-0.11611849
75	0x3d99e3be	0.075141415
76	0x3dddaeac	0.10824332
77	0x3d77ff2a	0.060546078
78	0x3e04cdc3	0.12969117
79	0xbda2f2b1	-0.07956446
80	0x3b43816b	0.0029831778
81	0x3d885e3e	0.066586
82	0xbc1c1a37	-0.0095277345
83	0xbd67eb7f	-0.05662107
84	0xbde8d7b2	-0.113692656
85	0xbd5f8983	-0.0545745
86	0x3d7f9853	0.062401127
87	0xbecfd6c0	-0.4059353
88	0xbed40f50	-0.41417933
89	0xbe7d7a92	-0.24753788
90	0xbe014f5a	-0.12627926
91	0xbe1f0df9	-0.15532674
92	0xbda60835	-0.08107034
93	0xbc73331f	-0.014843731
94	0xbe797555	-0.24361165
95	0xbc787a2d	-0.015165848
96	0xbd95e879	-0.07319731
97	0xbddd580b	-0.108078085
98	0xbe011776	-0.12606606
99	0x3d87a9d3	0.06624188
100	0x3db177a8	0.08665401
101	0x3dfb64c1	0.12275077
102	0xbd35690e	-0.04428964
103	0xbbf35f38	-0.0074271224
104	0xbe14d603	-0.14534764
105	0x3d2dc24c	0.042421624
106	0x3c920444	0.0178243
107	0x3d82ff7d	0.06396387
108	0xbc62f312	-0.013851898
109	0x3dd8900c	0.1057435
110	0x3d9e251f	0.07721924
111	0xbbf54486	-0.0074849753
112	0xbdc0e25f	-0.09418177
113	0xbdb44a50	-0.088032365
114	0x3e4195c6	0.1890479
115	0x3d9560b2	0.07293834
116	0x3df3d4ec	0.11905846
117	0xbdb734ec	-0.08945641
118	0xbe93658a	-0.28788406
119	0xbeaae772	-0.33379704
120	0xbdea159d	-0.11429904
121	0xbe2e961a	-0.17049447
122	0xbe17f9a7	-0.14841329
123	0xbe2c7ffc	-0.16845697
124	0xbdb1455d	-0.08655808
125	0xbdb2c1bc	-0.08728358
126	0xbe2ce4f0	-0.16884208
127	0xbdc8bfc0	-0.098021984
128	0xbe057ad0	-0.1303513
129	0x3e2c4c09	0.1682588
130	0x3e2523de	0.16126963
131	0x3dddd4b2	0.10831584
132	0x3d9c4b51	0.07631553
133	0x3d9e32b2	0.07724513
134	0x3d176dc8	0.03696993
135	0xbd1d4a92	-0.038401194
136	0xbe2d366a	-0.16915289
137	0xbe11de35	-0.14244922
138	0x3d0b9e1b	0.034086328
139	0x3d55c0fb	0.052185994
140	0x3dbb94f8	0.09159273
141	0xbbdb2d33	-0.006688738
142	0xbd71bf11	-0.059020106
143	0xbcd55dcc	-0.026045702
144	0x3cf4bf59	0.029876398
145	0x3e123b47	0.14280425
146	0x3e05ee71	0.1307924
147	0x3c3924e5	0.0113003
148	0x3dbfd916	0.09367578
149	0x3e52476a	0.20535055
150	0x3e344f39	0.17608346
151	0x3e5a1ef3	0.21300869
152	0x3e6966fc	0.22793192
153	0xbdb94c47	-0.09047752
154	0xbde8733c	-0.11350104
155	0xbd6d7a05	-0.057977695
156	0x3dbf836b	0.09351238
157	0x3e187045	0.14886577
158	0x3d6476d2	0.05577738
159	0xbe115172	-0.14191225
160	0xbe1749f1	-0.147743
161	0xbe6b89cd	-0.23001786
162	0xbd158b73	-0.036509942
163	0x3c2f5b3e	0.010702906
164	0xbcebb6e3	-0.02877373
165	0xbde481b7	-0.11157554
166	0xbd9a6a09	-0.07539756
167	0xbd9e0646	-0.0771604
168	0xbe143532	-0.14473417
169	0xbe2c6c5b	-0.1683821
170	0xbd927ad6	-0.07152335
171	0xbbffd1cc	-0.007806992
172	0xbe1bc4b4	-0.15211755
173	0x3d733b6e	0.05938285
174	0xbb3a0624	-0.0028385008
175	0x3d98a21c	0.07452795
176	0x3de2a1ae	0.11065994
177	0x3cfdef8f	0.03099802
178	0x3da44c0b	0.080223165
179	0x3cd4b5bf	0.02596557
180	0x3d7b5397	0.061359014
181	0x3c0e1a00	0.008673191
182	0xbc030909	-0.00799776
183	0x3d99f5f4	0.07517615
184	0x3d440b7d	0.04786252
185	0x3e18793c	0.14889997
186	0x3de964d1	0.11396182
187	0x3e32f7d9	0.17477359
188	0x3df2c7bf	0.11854505
189	0x3e5612dc	0.20905632
190	0x3e83c0a0	0.257329
191	0x3e5d2293	0.2159522
192	0xbe2c7bf3	-0.16844158
193	0xbe9c8bd3	-0.30575427
194	0xbe98333f	-0.29726598
195	0x3e03bfac	0.12866086
196	0x3dec10ff	0.11526679
197	0x3e3c6620	0.18398333
198	0xbdff8acb	-0.124776445
199	0xbe034013	-0.12817411
200	0xbe1df910	-0.15427041
201	0x3db25525	0.08707646
202	0x3e0c560f	0.13704704
203	0x3e605a24	0.21909386
204	0x3c4179ef	0.011808856
205	0x3dabca2f	0.08388173
206	0xbc42e353	-0.011895019
207	0x3d3320c0	0.043732405
208	0x3b0dc723	0.0021633587
209	0x3d3596bb	0.0443332
210	0x3e74fdcf	0.23924945
211	0x3e608d6e	0.21928951
212	0x3e2b0389	0.16700567
213	0x3c969ee9	0.018386321
214	0x3d79211f	0.060822602
215	0x3c611f12	0.013740318
216	0xbd11450e	-0.035466246
217	0xbd1265fb	-0.035741787
218	0xbd4862ed	-0.048922468
219	0xbee33b9f	-0.44381425
220	0xbefe9345	-0.49721733
221	0xbee6bc9f	-0.4506578
222	0x3e62af5b	0.22137205
223	0x3dea6023	0.11444118
224	0x3d9bcb0b	0.07607087
225	0xbda042e7	-0.078252606
226	0xbe048294	-0.12940437
227	0xbe0ab0fc	-0.13544077
228	0xbdf8280e	-0.12117015
229	0xbdb21506	-0.08695416
230	0xbda64a33	-0.08119621
231	0xbd80f42a	-0.062965706
232	0xbe320519	-0.17384757
233	0xbe4902b4	-0.19629937
234	0xbd731de8	-0.059354693
235	0x3dfab928	0.12242347
236	0x3d3f113f	0.046647307
237	0x3ddaf343	0.1069093
238	0x3ca7f43d	0.020502204
239	0x3cc9f412	0.024652515
240	0x3e2b7113	0.16742353
241	0x3d5fb121	0.054612283
242	0x3ca5c1e7	0.020234061
243	0x3d59f328	0.053210407
244	0xbb0a1f0d	-0.0021075637
245	0xbcb0a327	-0.021562172
246	0xbc06b75f	-0.00822243
247	0xbca4e594	-0.020129003
248	0xbd9f43e1	-0.07776619
249	0xbd1f8d62	-0.038953193
250	0xbc337a9d	-0.010954526
251	0xbd851af2	-0.0649928
252	0xbd8927f6	-0.06697075
253	0xbdbd2995	-0.09236447
254	0xbe172525	-0.14760263
255	0xbd8b4e5d	-0.06802056

conv4.bias f4 [64]
0	0xbe65cafd	-0.22440715
1	0xbe9f0123	-0.31055555
2	0x3c9e6ecb	0.01933994
3	0xbe981c93	-0.297093
4	0xbe365f87	-0.17809878
5	0xbe7fc2ea	-0.24976698
6	0xbe875466	-0.26431578
7	0xbeba152e	-0.36344284
8	0xbe8a23a0	-0.26980305
9	0xbe99f139	-0.3006685
10	0x3ddd44a3	0.10804107
11	0xbe938bb7	-0.2881753
12	0xbdcb2976	-0.099200174
13	0xbd4cbacd	-0.049982835
14	0xbd1ee143	-0.038789045
15	0xbe8246a7	-0.25444528
16	0xbe5d2d93	-0.21599416
17	0xbe304fc2	-0.17217925
18	0x3bc5755f	0.0060259546
19	0xbd273a95	-0.040827353
20	0xbe884914	-0.26618254
21	0x3da7d5aa	0.0819505
22	0xbe8987d8	-0.26861453
23	0xbd924d1d	-0.071436144
24	0xbe127089	-0.14300741
25	0xbe81d54d	-0.25358048
26	0xbd71f617	-0.05907258
27	0xbde03e90	-0.10949433
28	0xbe67b3af	-0.22627138
29	0xbd2cdf2f	-0.042205032
30	0x3c9da785	0.019244919
31	0x3e424619	0.18972053
32	0x3d953957	0.07286327
33	0x3d9b73d4	0.07590452
34	0xbe18cec4	-0.14922625
35	0xbd462fd6	-0.048385464
36	0x3d497a9f	0.049189206
37	0xbe2053b4	-0.1565693
38	0xbe97c958	-0.296458
39	0xbdbdd519	-0.09269161
40	0x3c285235	0.010273506
41	0xbea50e20	-0.3223734
42	0xbe610327	-0.21973859
43	0xbe93699f	-0.2879152
44	0xbe1dc9df	-0.15409039
45	0xbe6505d2	-0.22365502
46	0xbd4fb05b	-0.050705295
47	0x3cfeaaf2	0.031087372
48	0x3e079811	0.13241602
49	0xbee6d793	-0.45086345
50	0xbee5cf8a	-0.44884902
51	0x3dd657f5	0.10465995
52	0xbd9517ad	-0.072799064
53	0xbeb45936	-0.35224313
54	0x3ecb9021	0.397584
55	0x3e9384d1	0.28812268
56	0xbdec6c67	-0.115441136
57	0xbe9f1f3c	-0.31078517
58	0xbe3fd414	-0.18733245
59	0xbe0261af	-0.12732576
60	0xbeb834b5	-0.35977712
61	0xbed383f3	-0.41311607
62	0xbe08aba9	-0.13346733
63	0x3ea1445a	0.3149746

bn4.weight f4 [64]
0	0x4070bda4	3.7615747
1	0x406ffa74	3.7496614
2	0x3fd952a2	1.6978343
3	0x4084d73f	4.151275
4	0x406f3f3f	3.7382352
5	0x4085f2a4	4.185869
6	0x4042f30a	3.046084
7	0x4073393b	3.800368
8	0x4081627d	4.0432725
9	0x40722fe5	3.7841733
10	0x3ff7ca4c	1.9358611
11	0x4083d6c2	4.1199656
12	0x405073b9	3.2570632
13	0x4010ef8e	2.2646213
14	0x4049b589	3.151705
15	0x406df762	3.718224
16	0x405fc550	3.496418
17	0x40694c11	3.6452677
18	0x4008c75e	2.1371684
19	0x4075a3f9	3.838133
20	0x40714272	3.7696805
21	0x3fea5a65	1.8308836
22	0x4080b2e3	4.0218368
23	0x4062d31b	3.5441349
24	0x405f7b36	3.4918952
25	0x4066c31b	3.6056583
26	0x403717ce	2.860828
27	0x4029e8ad	2.6548264
28	0x4049b6a1	3.1517718
29	0x404fbb24	3.2457972
30	0x3ffa6eb8	1.9565039
31	0x40045fd9	2.06835
32	0x3ff65527	1.9244736
33	0x402b5daa	2.6775918
34	0x40794b2e	3.8952136
35	0x405946cd	3.3949463
36	0x4022435b	2.535361
37	0x4060d7ee	3.5131793
38	0x4066970a	3.6029687
39	0x405c4cde	3.4421916
40	0x4042e57c	3.0452566
41	0x4083f124	4.123186
42	0x407f73f7	3.991453
43	0x40771202	3.860474
44	0x407a5aae	3.9117846
45	0x404bec8d	3.186313
46	0x3fceee71	1.6166517
47	0x3febe912	1.8430502
48	0x3febc249	1.8418666
49	0x40779231	3.8682978
50	0x4084ab13	4.145883
51	0x4000d2e9	2.012873
52	0x4061a083	3.5254219
53	0x4089a468	4.301319
54	0x3fd91453	1.6959327
55	0x3fedd9bb	1.8582071
56	0x40686dc1	3.6316988
57	0x4085194b	4.1593375
58	0x405e6c76	3.47537
59	0x4056dac1	3.3571017
60	0x4081dcb5	4.058192
61	0x4089d6e7	4.307483
62	0x4052caff	3.29364
63	0x40074cea	2.1140695

bn4.bias f4 [64]
0	0xbe9b7b94	-0.3036772
1	0xbe0b9072	-0.1362932
2	0x3e9d1348	0.30678773
3	0x3e91b264	0.28456414
4	0x3e16f1ea	0.1474072
5	0x3e793719	0.24337424
6	0x3e87a971	0.2649646
7	0xbe47c943	-0.19510369
8	0x3e6c34a6	0.23066959
9	0x3e04bbee	0.12962314
10	0xbe225a3b	-0.15854733
11	0xbe3f3c1f	-0.18675278
12	0x3dc56dbc	0.09640071
13	0x3e83c00c	0.25732458
14	0x3e15bbc6	0.14622411
15	0xbe5320f3	-0.20618038
16	0x3e213290	0.15741944
17	0x3e69b14b	0.22821538
18	0xbe3510b0	-0.17682147
19	0x3e41f8c7	0.18942557
20	0xbe0ff1b5	-0.14057048
21	0xbdc93f9b	-0.09826585
22	0xbddd74fc	-0.108133286
23	0x3e058662	0.13039544
24	0xbdd9696c	-0.10615811
25	0xbeab2ac7	-0.33431074
26	0x3e9f5810	0.31121874
27	0xbea4579e	-0.32098097
28	0xbdd87deb	-0.10570892
29	0x3def9ef5	0.117002405
30	0xbe045df1	-0.12926461
31	0xbe25ae2d	-0.16179724
32	0xbe7b5850	-0.24545407
33	0x3e770f53	0.2412694
34	0xbdccc34c	-0.099981874
35	0x3e8c80f4	0.27442133
36	0x3e1976b8	0.14986694
37	0xbd6158db	-0.05501638
38	0x3e082a31	0.13297345
39	0xbea2b379	-0.31777552
40	0x3e105be4	0.14097553
41	0xbe8cf4ff	-0.27530667
42	0xbe27034e	-0.16309854
43	0xbe3359c4	-0.17514712
44	0xbe607880	-0.21920967
45	0x3e1cfc61	0.1533065
46	0xbe26bbc4	-0.16282564
47	0x3e054ca8	0.13017523
48	0x3eb384f8	0.35062385
49	0x3de5c8c5	0.112199344
50	0xbe0ede57	-0.13952003
51	0x3e454c5b	0.19267409
52	0xbe36e065	-0.17859037
53	0xbe20acd3	-0.15690927
54	0xbdf3aa24	-0.11897686
55	0x3eb9bdc8	0.36277604
56	0x3e102671	0.14077164
57	0xbe1a49c7	-0.15067206
58	0x3e79b14a	0.24384037
59	0xbe25d62d	-0.16194983
60	0xbe372de6	-0.17888603
61	0xbeb67149	-0.35633305
62	0xbeb8a5c5	-0.36063972
63	0xbe0710e0	-0.13190031

bn4.running_mean f4 [64]
0	0x3db136a9	0.08653004
1	0x3d81ab50	0.063315034
2	0x3f80c88d	1.0061203
3	0x3d45cf04	0.04829313
4	0x3d78b1f0	0.06071657
5	0x3d014b62	0.03156603
6	0x3dc33f3a	0.09533544
7	0x3cce1702	0.025157455
8	0x3ca13641	0.01967919
9	0x3d46e447	0.048557546
10	0x3fd59f0f	1.6689166
11	0x3d2216a4	0.039572373
12	0x3da22032	0.07916297
13	0x3e838fbc	0.25695598
14	0x3e376f09	0.1791345
15	0x3d0c342a	0.034229435
16	0x3de618e2	0.11235215
17	0x3d956119	0.072939105
18	0x3fc83b19	1.5643035
19	0x3dbe4b87	0.092917494
20	0x3d1ae39e	0.03781473
21	0x3fcde70b	1.6086134
22	0x3d92dbb5	0.07170812
23	0x3dd4fba8	0.10399562
24	0x3d39701a	0.045272924
25	0x3cfadfdf	0.030624328
26	0x3e0cd775	0.13754065
27	0x3f55e9db	0.8355996
28	0x3d005893	0.03133447
29	0x3e033f13	0.1281703
30	0x3fb97964	1.449017
31	0x3fea035b	1.8282274
32	0x3f865f9e	1.049793
33	0x3faf2838	1.3684149
34	0x3d9e7f03	0.07739069
35	0x3df27a67	0.11839753
36	0x3e881f7f	0.2658653
37	0x3cee8345	0.029115329
38	0x3d8a80f2	0.067628756
39	0x3d4a1f8c	0.04934649
40	0x3e43fc9c	0.19139332
41	0x3cebe24d	0.028794432
42	0x3d8cfdd0	0.068843484
43	0x3cedfefe	0.029052254
44	0x3d5bc34b	0.053653043
45	0x3d8b6900	0.068071365
46	0x3f6fc7ff	0.93664545
47	0x3f8c1845	1.0944906
48	0x3ee96601	0.45585635
49	0x3d62c106	0.055359863
50	0x3cd0a899	0.025471019
51	0x401417bd	2.3139489
52	0x3dd259cb	0.10271033
53	0x3c5db2d0	0.013531402
54	0x4045b9d0	3.089466
55	0x3f2aab23	0.66667384
56	0x3dad405d	0.08459542
57	0x3c8162ad	0.015794123
58	0x3d80f26c	0.06296238
59	0x3d487361	0.04893816
60	0x3d058f9e	0.032607667
61	0x3d860a08	0.06544882
62	0x3d26db03	0.04073621
63	0x3ff9f334	1.9527345

bn4.running_var f4 [64]
0	0x3e9a8c82	0.30185324
1	0x3e91e542	0.28495222
2	0x3f17f417	0.59356827
3	0x3e1a2f72	0.15057161
4	0x3e4ada5e	0.19809863
5	0x3df932c1	0.12167884
6	0x3ec4bd65	0.38425747
7	0x3d6fb84a	0.05852536
8	0x3d89bbd1	0.06725276
9	0x3e0c8b6a	0.13725057
10	0x3f87219d	1.0557133
11	0x3dd704f1	0.104989894
12	0x3ea54187	0.32276556
13	0x3f851fbe	1.0400312
14	0x3f47d2ec	0.78056216
15	0x3dc17f30	0.09448087
16	0x3ea12e95	0.31480852
17	0x3e99562f	0.29948565
18	0x3fc70b91	1.5550405
19	0x3e9af0de	0.30261892
20	0x3dd095af	0.101848
21	0x3f891fce	1.0712831
22	0x3e88ca02	0.2671662
23	0x3edc5322	0.43032175
24	0x3dbbec2c	0.091759056
25	0x3d917660	0.07102656
26	0x3f284417	0.65728897
27	0x3f46488f	0.77454466
28	0x3ddbeed1	0.1073891
29	0x3ee71208	0.45130944
30	0x3f81b9ae	1.013479
31	0x3fb78262	1.4336665
32	0x3f56ff87	0.83983654
33	0x3fe92fd9	1.8217727
34	0x3e86baeb	0.26314482
35	0x3ec13631	0.37736657
36	0x3f34dfba	0.7065388
37	0x3dc72a0d	0.097248174
38	0x3e7a2352	0.24427536
39	0x3df136e8	0.11778051
40	0x3f19a8e6	0.60023344
41	0x3dbb22f8	0.09137529
42	0x3e7234f2	0.2365301
43	0x3dd8e987	0.10591417
44	0x3e1ad686	0.15120897
45	0x3e3ff55c	0.18745941
46	0x3f135380	0.57549286
47	0x3fb9c10f	1.4512042
48	0x3f49286f	0.7857732
49	0x3e65be23	0.22435813
50	0x3db86a63	0.09004667
51	0x401e1eec	2.4706373
52	0x3e2e2cec	0.17009324
53	0x3d4b92f6	0.0497007
54	0x40108db6	2.2586493
55	0x3f8419b7	1.0320348
56	0x3e77f877	0.24215876
57	0x3d97b7cd	0.07408104
58	0x3e7aa389	0.24476446
59	0x3dd6c670	0.10487068
60	0x3df2da6f	0.11858069
61	0x3e73bd3e	0.23802659
62	0x3e144285	0.144785
63	0x3fdc89ab	1.7229513

lin.weight f4 [10, 64]
0	0x3f1a3c7f	0.6024856
1	0xbf9ced34	-1.2259889
2	0xbe8074ee	-0.2508921
3	0xbf86ff0e	-1.0546587
4	0x3f941805	1.156983
5	0xbf760438	-0.9610019
6	0x3e8a3ae9	0.2699807
7	0xbe3a1846	-0.18173322
8	0xbf6ac7a5	-0.91710883
9	0x3f4b16b3	0.7933151
10	0xbe9d3e69	-0.30711678
11	0xbf0a4845	-0.54016525
12	0x3fa13b47	1.2596215
13	0x3e9cc7c9	0.30621174
14	0x3f19ff5f	0.6015529
15	0xbe74d43f	-0.2390909
16	0x3f3efb11	0.74601847
17	0x3f3f0bc4	0.7462733
18	0x3e2b38fa	0.16720954
19	0x3e1dea2b	0.15421359
20	0xbf069876	-0.52576387
21	0xbec204ca	-0.3789428
22	0xbfab71f8	-1.3394156
23	0x3f74d0c6	0.95631063
24	0xbf328546	-0.6973461
25	0x3f5c3e03	0.8603212
26	0x3e975a16	0.29560918
27	0x3e9d753a	0.307535
28	0xbf311237	-0.6916842
29	0x3f861a19	1.0476714
30	0xbed29a0a	-0.41133147
31	0xbd7ffbf4	-0.06249614
32	0xbd20582d	-0.03914659
33	0xbd586fed	-0.052841116
34	0xbfcfe8f7	-1.624297
35	0xbe06cc2e	-0.13163826
36	0x3e4f4769	0.20242085
37	0xbfa6fe73	-1.3046402
38	0x3fb2e96d	1.3977486
39	0x3cef567d	0.029216046
40	0x3f2ef431	0.68341357
41	0x3e133e67	0.14379273
42	0xbf90ddb3	-1.1317657
43	0xbf41bba0	-0.7567692
44	0xbf702e4d	-0.9382065
45	0x3fa3f354	1.2808633
46	0xbeea8dc3	-0.4581128
47	0x3f0db95f	0.5536098
48	0xbe7abe0c	-0.2448656
49	0x3ffdfba5	1.9842421
50	0xbf7a9de0	-0.9789715
51	0x3eb777a4	0.35833466
52	0xbf263e91	-0.6493922
53	0xbf7b3b6c	-0.98137546
54	0xbe9a31c0	-0.3011608
55	0xbe9aad73	-0.30210456
56	0x3f5d4613	0.8643505
57	0xbf3fcf0c	-0.74925303
58	0xbe988894	-0.297917
59	0xbeba7be5	-0.3642265
60	0xbf81c59a	-1.0138428
61	0x3f745b73	0.9545204
62	0x3f733198	0.9499755
63	0xbe7f995a	-0.24960843
64	0xbfa16a9e	-1.2610662
65	0x3fd33a73	1.6502212
66	0x3e80710c	0.25086248
67	0x3f5a1735	0.8519166
68	0x3d17ddc9	0.037076745
69	0x3f98573e	1.1901624
70	0xbfb32bed	-1.399778
71	0xbeb0bc84	-0.34518826
72	0x3fc24325	1.5176741
73	0xbf85a9b5	-1.0442415
74	0xbe72de0d	-0.23717518
75	0xbeddb774	-0.43304026
76	0x3e816657	0.25273392
77	0x3e6e3960	0.23264074
78	0x3f382f1a	0.7194687
79	0xbf6ad220	-0.91726875
80	0xbecd0a09	-0.4004672
81	0xbf4ec8fa	-0.80775416
82	0xbe9f1f7e	-0.31078714
83	0x3ce7957a	0.028269518
84	0xbf41c7f8	-0.75695753
85	0xbe9cef29	-0.30651215
86	0x3eacb6b8	0.33733153
87	0x3f76406b	0.96192044
88	0xbe023c00	-0.127182
89	0xbf1cc984	-0.6124499
90	0xbf4aa51f	-0.79158205
91	0xbe999d6e	-0.30002922
92	0x3b79adc1	0.003809795
93	0xbe600a78	-0.21878994
94	0xbe9e550d	-0.30924264
95	0xbe95fb91	-0.29293492
96	0x3d5939b0	0.05303353
97	0xbe6fd422	-0.23420766
98	0x3e8559d6	0.26045102
99	0x3e3bc23a	0.1833581
100	0x3f11e437	0.56988853
101	0x3e001df6	0.12511429
102	0xbef3b708	-0.4760058
103	0xbea8b95f	-0.32953927
104	0x3d7717ab	0.060325306
105	0xbf9dc33f	-1.2325209
106	0x3ee1b7c1	0.44085506
107	0x3ff218a0	1.8913765
108	0x3e2f7034	0.17132646
109	0xbe5df5e1	-0.21675827
110	0x3e767485	0.24067886
111	0xbe60fde4	-0.21971852
112	0x3e32582c	0.17416447
113	0xbe37a2ce	-0.17933199
114	0xbf89b30b	-1.0757765
115	0xbebf4171	-0.37354615
116	0xbe9c6e15	-0.30552736
117	0x400380dd	2.0547402
118	0xbe6bc65f	-0.23024891
119	0x3e376328	0.17908919
120	0x3f760c56	0.96112573
121	0x4014ed60	2.3269882
122	0x3f57191c	0.8402269
123	0x3f4da498	0.80329275
124	0x3fee3f23	1.8613018
125	0xbf853b4a	-1.0408719
126	0xbd868647	-0.0656858
127	0xbea9551c	-0.33072746
128	0xbef63d3c	-0.48093593
129	0xbedac016	-0.42724675
130	0x3e476ccd	0.19475098
131	0xbfb714d2	-1.4303229
132	0x3f6f0b55	0.93376666
133	0xbf89ef5d	-1.0776173
134	0x3ee602a9	0.44923905
135	0x400059bc	2.005477
136	0xbf086ede	-0.5329417
137	0xbfc0f756	-1.5075481
138	0x3f6b53b3	0.9192459
139	0x3ed8bec1	0.42333034
140	0xbfaa1e7b	-1.3290552
141	0x3f0ba624	0.54550385
142	0xbf5767d4	-0.84142804
143	0xbe98577f	-0.29754254
144	0xbf9e0635	-1.2345644
145	0x3f663323	0.8992178
146	0x3fb7c667	1.4357423
147	0xbfe3eb0b	-1.7806104
148	0x4014500b	2.3173854
149	0x3f939699	1.1530334
150	0x3f1153eb	0.56768674
151	0xbf51e96b	-0.8199679
152	0x400e0f1f	2.219673
153	0x3e7faea6	0.24968967
154	0x3f286f16	0.65794504
155	0x3f5aaf41	0.85423666
156	0x3fe9f3e0	1.827755
157	0xbfb3e210	-1.4053364
158	0x3f4a73fb	0.7908322
159	0x3fbf30db	1.4936785
160	0x3f1751ac	0.59108996
161	0xbf9c85e2	-1.2228358
162	0xbf2476ab	-0.6424357
163	0x3e1b381f	0.15158127
164	0xc007e310	-2.1232338
165	0x3fd8252e	1.6886346
166	0xbf1e93f8	-0.6194453
167	0xbebb1419	-0.3653877
168	0xbfba8074	-1.4570451
169	0xbf06d9c7	-0.5267605
170	0x3f4c70e8	0.7985978
171	0xbebefe07	-0.37303182
172	0xbefd7f10	-0.49511003
173	0x3ec9c5cf	0.39408728
174	0x3d94ff25	0.072752275
175	0x3f2aaf2d	0.6667355
176	0xbe8521eb	-0.2600244
177	0xbf832884	-1.0246739
178	0xbf592879	-0.8482738
179	0xbe51caba	-0.2048749
180	0xbeb4c84a	-0.35309058
181	0x3df369a7	0.11885386
182	0x3f8415c9	1.0319148
183	0x3e65c423	0.22438101
184	0xbf9e59c8	-1.2371149
185	0xbe91e9be	-0.28498644
186	0xbf0a7481	-0.5408402
187	0x3f7e1c38	0.9926181
188	0xbeced9ea	-0.4040063
189	0xbd62fe5f	-0.05541837
190	0xbee1064a	-0.4395011
191	0x3fc2923b	1.5200876
192	0x3f502995	0.8131345
193	0x3f17c38d	0.5928276
194	0xbe9316d0	-0.28728342
195	0x3ee2ad83	0.44273004
196	0xbfc0b286	-1.5054481
197	0x3f2a471a	0.6651474
198	0x3f4de895	0.80433017
199	0x3e8802e0	0.26564693
200	0xbdd75c1d	-0.10515616
201	0x3f71742f	0.9431791
202	0xbec3c5cc	-0.38236845
203	0xbe912eb8	-0.28355956
204	0xbee428de	-0.4456243
205	0xbf2dd5b0	-0.67904186
206	0xbe061541	-0.13094045
207	0x40080662	2.1253896
208	0x3f77bbc7	0.967709
209	0x3ebb1055	0.36535898
210	0xbef89155	-0.4854838
211	0x3f99b979	1.2009727
212	0x3f339504	0.70149255
213	0x3daeedf1	0.085414775
214	0x3fe04df7	1.7523793
215	0xbfa9aa72	-1.3255141
216	0x3e6df3c6	0.23237523
217	0xbeeca1b0	-0.46217108
218	0x3efb9fd5	0.4914538
219	0xbe967a01	-0.29389957
220	0x3ed75092	0.42053658
221	0x3ec751d3	0.38929614
222	0xbd39be0c	-0.04534726
223	0xbeacbcaa	-0.3373769
224	0xbf10a91a	-0.5650803
225	0x3d9c594e	0.07634221
226	0x400e9b5d	2.2282326
227	0x3f689f3d	0.9086798
228	0x3d912ac6	0.070882365
229	0x3fb0ab9b	1.380237
230	0xbdbc0cc5	-0.09182123
231	0xbf1fabc2	-0.62371457
232	0x3efdf886	0.4960367
233	0x3fec4233	1.8457702
234	0x3f80403b	1.0019602
235	0xbf5fa569	-0.8736177
236	0x3fe9879a	1.8244507
237	0xbfe2e0a4	-1.7724805
238	0xbec24e92	-0.3795057
239	0xbe3ff046	-0.18744001
240	0x3e96558e	0.29362148
241	0xbff4bfc2	-1.912102
242	0x3fdc2673	1.7199234
243	0xbe6d4094	-0.23169166
244	0xbdcc9513	-0.09989371
245	0xbf3ed571	-0.74544436
246	0xbebaf392	-0.36513954
247	0x3df2d079	0.11856169
248	0xbfd6b488	-1.6773844
249	0xbf71c359	-0.944387
250	0x3f0de070	0.5542059
251	0xbf5900ab	-0.84766644
252	0xbf35c992	-0.71010697
253	0xbdd9bd87	-0.106318526
254	0xbed3bde5	-0.41355816
255	0xbe816812	-0.25274712

lin.bias f4 [10]
0	0x3da66110	0.08123982
1	0x3e7bf756	0.2460607
2	0x3e5b61a0	0.2142396
3	0x3d7f68c9	0.06235579
4	0x3d3a80be	0.045532934
5	0xbed48d10	-0.41513872
6	0xbe8848ab	-0.2661794
7	0xbe4c3cf9	-0.19945134
8	0xbe89c3a6	-0.2690708
9	0xbe859bd4	-0.2609545
