NCC_Code/Models/2022-08-15_14-51-55_model.pt (torch, 115275 bytes, 50 tensors)

conv1.weight f4 [8, 2, 5, 5]
0.26142982 0.13402951 0.062031873 -0.08372067 0.20781665 -0.058046088 -0.0142044695 0.011124602
-0.15903993 -0.2717688 0.13241172 -0.116124764 -0.30071086 -0.026605375 0.11982488 -0.104303256
-0.31277704 0.048510637 -0.28296426 -0.1565816 -0.13806716 -0.17095293 -0.38773802 -0.37755018
0.014123781 0.0523611 0.29383937 0.26932326 0.33358482 0.122194394 -0.09705207 -0.051487792
-0.14641456 -0.100756206 0.030551003 -0.07744405 0.031408116 0.12666152 -0.17104433 -0.21004444
-0.24183612 -0.08185778 -0.29239723 -0.016667092 -0.09233086 0.08802221 0.05126851 0.019093024
0.029192295 -0.17545296 0.08320204 0.19236699 0.1789252 0.21600495 -0.03624444 -0.0071258005
-0.34827375 -0.3406973 -0.25214788 -0.15068704 0.00093099894 0.33291072 0.30952427 0.291122
-0.022848004 -0.06361311 -0.072346225 0.2135402 0.19836833 0.018080994 0.30866408 0.28161037
0.25258407 -0.114762746 0.14932068 0.026178824 -0.10953459 -0.12460666 -0.20162879 -0.0074200137
0.013723709 -0.20743982 -0.06330876 -0.2366327 -0.23374738 0.30824387 0.22788036 0.22770922
0.23028298 0.2621095 0.0019572384 0.12358754 -0.064161226 0.22913241 0.18318918 -0.12182395
-0.13056444 -0.16480392 0.20816155 0.011776724 -0.0038956646 -0.2418861 -0.28091237 -0.06677771
-0.33494362 0.12148478 -0.050193377 -0.042224336 -0.12682141 -0.5228955 -0.0020848187 0.22258031
-0.21983005 -0.358046 0.005519819 0.23079206 0.28018773 0.30902725 0.52159566 0.22250327
0.4554664 -0.045600694 0.52457625 0.07513798 -0.021693517 0.039707623 0.24336226 0.106685154
-0.08940658 -0.020330984 -0.1422137 0.047191918 -0.047154058 0.0007789327 -0.3375624 -0.045959685
-0.294234 0.16304389 0.07874037 0.24423853 0.28461444 0.15839246 0.4704086 0.613114
0.036313906 -0.25720286 0.25747088 -0.24213566 0.3160025 -0.09920318 0.24159351 0.17373851
0.11964959 -0.13823894 -0.2179821 0.34405285 0.21185672 0.022692846 -0.036650762 0.19783565
0.02784041 0.09659864 -0.1959985 -0.20856541 -0.12475671 -0.06762742 -0.061865453 -0.045883663
-0.27902147 -0.044259265 0.16903728 0.052027874 0.029217048 -0.33856443 -0.28766912 0.04205471
0.25842312 0.21814895 0.03219295 -0.1626979 0.06578296 0.5214082 0.33396867 0.21775003
-0.104528286 0.22754921 0.091576576 0.36441162 -0.04304847 -0.26687995 -0.23640484 -0.30823034
-0.48138103 -0.31771407 -0.29612082 0.020430371 0.040497992 0.074507944 0.11475006 -0.069068275
-0.4703375 0.23170158 -0.24791269 -0.20616645 -0.2925991 -0.022155851 -0.00039864727 -0.19018556
-0.20023173 -0.23385078 0.16188672 0.23108548 0.021149276 0.36264426 0.23116119 0.06242402
-0.18202208 -0.121686876 -0.1519478 -0.19347088 -0.0017966015 0.15883844 -0.18748534 -0.051023483
0.0991044 0.10252894 -0.5464349 0.013365123 -0.068319224 0.07744551 0.0755742 -0.14727736
-0.043720674 -0.018593764 0.088729374 0.20146449 0.535576 0.62676376 0.39881432 0.22988047
-0.07716317 -0.1105609 -0.07577444 -0.28092554 -0.22678915 0.048852317 0.018335022 0.29303524
0.10132487 -0.07510681 0.014155119 0.31354523 0.11913537 -0.05803158 0.1289115 -0.031993873
00000000: 21da 853e 083f 093e 2215 7e3d be75 abbd
00000010: e3cd 543e bcc1 6dbd ddb9 68bc f643 363c
00000020: 5ddb 22be 4825 8bbe f096 073e d2d2 edbd
00000030: c6f6 99be 84f3 d9bc bf66 f53d f29c d5bd
00000040: 5024 a0be 17b3 463d b1e0 90be ed56 20be
00000050: 7a61 0dbe 490e 2fbe 9985 c6be 424e c1be
00000060: 6e67 673c 9878 563d 1d72 963e bde4 893e
00000070: a1cb aa3e 0e41 fa3d 3cc3 c6bd dde4 52bd
00000080: b3ed 15be 4559 cebd 1946 fa3c fc9a 9ebd
00000090: cca5 003d 8fb3 013e 3f26 2fbe e415 57be
000000a0: e3a3 77be 0da5 a7bd 17b5 95be 6d89 88bc
000000b0: f617 bdbd fd44 b43d eefe 513d f968 9c3c
000000c0: ae24 ef3c f1a9 33be d565 aa3d dafb 443e
000000d0: 2b38 373e 6730 5d3e 0d75 14bd 8c7f e9bb
000000e0: f050 b2be e06f aebe 8719 81be b44d 1abe
000000f0: 480e 743a 4673 aa3e f779 9e3e f10d 953e
00000100: bd2b bbbc 9747 82bd 422a 94bd 48aa 5a3e
00000110: 1121 4b3e 981e 943c 3809 9e3e 3c2f 903e
00000120: b352 813e bb08 ebbd 85e7 183e f974 d63c
00000130: ac53 e0bd c731 ffbd c777 4ebe 9623 f3bb
00000140: 68d9 603c 1b6b 54be 06a8 81bd d84f 72be
00000150: 795b 6fbe 24d2 9d3e 7859 693e 9b2c 693e
00000160: 4dcf 6b3e 3733 863e 0345 003b 771b fd3d
00000170: f666 83bd b0a1 6a3e f295 3b3e d67e f9bd
00000180: afb2 05be 5cc2 28be 4d28 553e 29f3 403c
00000190: 684e 7fbb fdb0 77be bfd3 8fbe c1c2 88bd
000001a0: bb7d abbe 03cd f83d 9297 4dbd 6df3 2cbd
000001b0: 79dd 01be 7bdc 05bf 74a1 08bb 18ec 633e
000001c0: 211b 61be ce51 b7be 99df b43b c154 6c3e
000001d0: c474 8f3e d238 9e3e 4b87 053f e6d7 633e
000001e0: e432 e93e cbc7 3abd a14a 063f f1e1 993d
000001f0: 9ab6 b1bc 76a4 223d f533 793e bf7d da3d
00000200: cc1a b7bd 2a8d a6bc 78a0 11be 504c 413d
00000210: 9d24 41bd 4a31 4c3a fbd4 acbe 3940 3cbd
00000220: d7a5 96be faf4 263e a242 a13d aa19 7a3e
00000230: fcb8 913e a231 223e 65d9 f03e 0af5 1c3f
00000240: e4bd 143d 18b0 83be 39d3 833e 69f2 77be
00000250: 14cb a13e 092b cbbd 4a64 773e 82e8 313e
00000260: d80a f53d 828e 0dbe b336 5fbe b227 b03e
00000270: f8f0 583e 59e6 b93c 1c1f 16bd 6e95 4a3e
00000280: 9211 e43c 82d5 c53d d5b3 48be 2c92 55be
00000290: 7280 ffbd 3f80 8abd a166 7dbd 82f0 3bbd
000002a0: e7db 8ebe 3449 35bd 1c18 2d3e 2e1b 553d
000002b0: 9758 ef3c 5158 adbe 5e49 93be 8f41 2c3d
000002c0: 0950 843e 7062 5f3e c1dc 033d 479a 26be
000002d0: 37b9 863d 027b 053f f1fd aa3e ddf9 5e3e
000002e0: ed12 d6bd a902 693e 808c bb3d 2994 ba3e
000002f0: 9853 30bd 7da4 88be 1c14 72be 5ed0 9dbe
00000300: 9377 f6be 6bab a2be 269d 97be 985d a73c
00000310: 39e1 253d 9f97 983d 1402 eb3d ab73 8dbd
00000320: 14d0 f0be 2e43 6d3e d3dc 7dbe 4c1d 53be
00000330: 8dcf 95be 3080 b5bc 8801 d1b9 01c0 42be
00000340: 8c09 4dbe 9476 6fbe a2c5 253e aca1 6c3e
00000350: 3f41 ad3c 82ac b93e 85b5 6c3e 54b0 7f3d
00000360: ff63 3abe f836 f9bd 3498 1bbe 3b1d 46be
00000370: f17b ebba 8ba6 223e 28fc 3fbe 00fe 50bd
00000380: 3ff7 ca3d b1fa d13d 28e3 0bbf 64f9 5a3c
00000390: f3ea 8bbd c09b 9e3d a5c6 9a3d e0cf 16be
000003a0: 7314 33bd f351 98bc bfb7 b53d b54c 4e3e
000003b0: 821b 093f 9773 203f 6431 cc3e c965 6b3e
000003c0: b907 9ebd c16d e2bd a12f 9bbd 79d5 8fbe
000003d0: 6a3b 68be 5e19 483d 5433 963c b708 963e
000003e0: 6a83 cf3d 99d1 99bd dfea 673c 0089 a03e
000003f0: 3ffd f33d 86b2 6dbd 6001 043e 020c 03bd

conv1.bias f4 [8]
0.53172356 -0.07726255 -0.049535412 -0.018502505 0.25588697 -0.21821024 0.27273104 0.03685109
00000000: 091f 083f d43b 9ebd a5e5 4abd 9192 97bc
00000010: 9e03 833e 8172 5fbe 67a3 8b3e 2bf1 163d

bn1.weight f4 [8]
0.8095257 1.0081505 0.91988915 1.1887747 0.95907223 1.1556884 0.8496629 0.9773597
00000000: 143d 4f3f 130b 813f db7d 6b3f c529 983f
00000010: c285 753f 99ed 933f 8283 593f 3f34 7a3f

bn1.bias f4 [8]
-0.011166252 -0.038558822 -0.16169654 -0.044624552 0.07533278 -0.11537325 -0.059076402 0.034919787
00000000: a8f2 36bc dbef 1dbd c793 25be 3cc8 36bd
00000010: 1348 9a3d cf48 ecbd 19fa 71bd 0d08 0f3d

bn1.running_mean f4 [8]
1.0479949 0.44001713 0.8335676 0.49808094 0.4764762 0.635957 1.7869701 0.9573475
00000000: b224 863f ed49 e13e b064 553f 7704 ff3e
00000010: b0f4 f33e 14ce 223f 70bb e43f ba14 753f

bn1.running_var f4 [8]
0.8059087 1.1056567 4.7488575 0.9324695 1.002777 2.0928798 3.2390397 4.0589066
00000000: 0850 4e3f 2986 8d3f a4f6 9740 52b6 6e3f
00000010: ff5a 803f bef1 0540 6d4c 4f40 90e2 8140

conv2.weight f4 [16, 8, 3, 3]
0.022099156 -0.16114144 -0.061673384 -0.05915573 -0.180956 0.018027315 -0.18980773 -0.1271344
0.028541459 -0.12535892 -0.12068288 -0.21580188 -0.013332256 0.014791157 -0.22090025 0.13420217
-0.07771485 0.18376373 0.11413983 0.061736308 -0.04276637 -0.15040912 -0.06251477 0.18568262
0.35826677 0.14715086 -0.14776629 0.27086467 0.3762653 0.22909941 0.10697475 0.30124658
0.3230087 0.052582867 -0.0064325104 0.048593372 0.15645266 -0.14288391 -0.05437306 -0.08076488
-0.44043165 -0.050927006 -0.30902535 -0.09567997 -0.1914361 -0.19842023 -0.13319385 -0.48177412
0.27231458 0.03359919 -0.19989337 0.21604571 0.14242405 -0.28960088 -0.11054232 -0.09240923
0.18893632 -0.2864556 -0.12113147 0.21992275 -0.0853016 -0.10176346 0.24203712 -0.028980691
0.09425309 -0.3381551 -0.1440294 0.06282946 0.06699435 -0.16030252 0.19107534 0.065071754
-0.127981 -0.01824899 -0.11651059 0.14580598 -0.062334996 -0.043682884 0.21044245 0.21284117
0.102954686 0.022705004 0.10052247 0.07325431 0.5061982 0.27680597 0.23492093 0.31084332
0.24194327 0.087600194 0.13284315 0.07401427 0.06686804 0.32692626 0.2455691 0.12326123
0.34025133 -0.016114265 0.11313596 -0.061510738 -0.025417335 0.077815525 -0.25253785 -0.38633224
-0.32272077 0.08413422 -0.18893252 -0.001137928 0.06660883 -0.06708971 0.1897133 -0.33471724
-0.30183974 -0.2524014 -0.18913713 0.2262553 0.007986642 0.12222134 0.2864773 0.4404233
-0.13311085 -0.31072024 0.2557739 0.30991626 0.04607682 0.054545507 0.031587623 0.0936998
0.25182655 0.12848191 0.038164873 -0.1538528 0.41620022 -0.17800578 0.24222898 0.17858978
-0.21129897 0.2112774 -0.005612557 -0.40112957 0.27909833 0.08584663 -0.13896023 0.025469782
0.29812834 0.04394307 -0.1063308 -0.17630701 -0.25572985 -0.3318192 -0.14823721 0.0127923805
-0.20018627 -0.097636245 0.1260173 -0.13499345 -0.21883434 -0.25203252 -0.002180402 0.10349606
0.01613483 0.19516216 -0.1437735 -0.054208092 0.20482995 -0.043889694 -0.05557608 0.048973124
0.113932416 0.23645785 0.52859074 0.17330506 0.11953642 0.060356393 0.2262105 0.29745206
0.02331745 0.115018465 0.3126951 0.28047603 0.33427635 0.21237312 -0.16416164 0.2939281
0.032525193 0.20092353 -0.20585337 0.14843908 -0.12814504 0.06615691 0.053295013 0.00289755
0.020283446 -0.025369007 -0.21111804 -0.109337434 0.05301633 0.16490613 0.1576263 0.054668423
0.23190866 0.07252069 0.25902325 0.035543185 0.17570707 0.04222754 -0.18899216 0.19001019
0.23084332 0.2703507 0.34294447 0.3708477 0.11300095 -0.13974205 -0.05402967 -0.17848337
-0.0023024376 0.0868082 0.24814822 -0.13287634 -0.02481977 -0.0345765 -0.21740797 -0.073610574
-0.3201626 -0.13370289 -0.047320362 0.010516464 0.11461391 0.15439823 0.040789396 0.06961047
-0.09904401 -0.050879188 0.11385615 0.08279578 0.28536057 0.15807642 -0.12651503 -0.013212844
-0.12186899 0.10012943 -0.30408835 -0.4039409 -0.4576821 -0.26431853 0.19877888 0.16218837
0.08448106 0.0325879 -0.023695344 0.018818244 -0.011670487 -0.13049433 -0.071488194 -0.035023294
00000000: 4a09 b53c 4302 25be 3b9d 7cbd 474d 72bd
00000010: 884c 39be 05ae 933c f55c 42be 852f 02be
00000020: c7cf e93c 175e 00be 9628 f7bd 2bfb 5cbe
00000030: 896f 5abc 9c56 723c ad33 62be 4b6c 093e
00000040: f728 9fbd 8f2c 3c3e 25c2 e93d 36df 7c3d
00000050: ca2b 2fbd d904 1abe be07 80bd 9623 3e3e
00000060: be6e b73e b7ae 163e 0c50 17be c6ae 8a3e
00000070: d8a5 c03e 0999 6a3e 9415 db3d fe3c 9a3e
00000080: 6561 a53e 2261 573d cfc7 d2bb d809 473d
00000090: 2035 203e 2950 12be 49b6 5ebd 0f68 a5bd
000000a0: 4280 e1be d698 50bd 9238 9ebe dcf3 c3bd
000000b0: d307 44be ac2e 4bbe f863 08be 19ab f6be
000000c0: d16c 8b3e 4e9f 093d d9b0 4cbe 163b 5d3e
000000d0: 9cd7 113e 9146 94be 0364 e2bd 0d41 bdbd
000000e0: 8678 413e 4faa 92be c713 f8bd 6e33 613e
000000f0: 9bb2 aebd 5c69 d0bd 94d8 773e ea68 edbc
00000100: c407 c13d aa22 adbe 717c 13be bbac 803d
00000110: 5534 893d 5826 24be 41a9 433e 5744 853d
00000120: 740d 03be e87e 95bc 1b9d eebd 2a4e 153e
00000130: fb52 7fbd d3ec 32bd 3a7e 573e 09f3 593e
00000140: e8d9 d23d d8ff b93c bade cd3d 5b06 963d
00000150: 3596 013f 83b9 8d3e 1d8f 703e db26 9f3e
00000160: fabf 773e bb67 b33d 0908 083e cb94 973d
00000170: 1cf2 883d e162 a73e 7776 7b3e 6270 fc3d
00000180: 6c35 ae3e 1002 84bc d4b3 e73d aff2 7bbd
00000190: 0438 d0bc bf5d 9f3d a44c 81be 57cd c5be
000001a0: a83b a5be 904e ac3d 8777 41be 8726 95ba
000001b0: 366a 883d 5466 89bd 3444 423e 0f60 abbe
000001c0: bd8a 9abe c23a 81be 2aad 41be 78af 673e
000001d0: 68da 023c 2f4f fa3d 27ad 923e 2a7f e13e
000001e0: 364e 08be b916 9fbe ccf4 823e 58ad 9e3e
000001f0: 0cbb 3c3d 1c6b 5f3d 0662 013d aee5 bf3d
00000200: 69ef 803e c390 033e c552 1c3d 978b 1dbe
00000210: 3218 d53e 2647 36be e00a 783e 3de0 363e
00000220: c25e 58be 1a59 583e 8ae9 b7bb db60 cdbe
00000230: fae5 8e3e 5cd0 af3d 974b 0ebe 01a6 d03c
00000240: 47a4 983e a6fd 333d f6c3 d9bd d389 34be
00000250: 06ef 82be 35e4 a9be 7fcb 17be 2297 513c
00000260: a1fd 4cbe 83f5 c7bd ae0a 013e b93b 0abe
00000270: 1c16 60be 680a 81be 13e5 0ebb bef5 d33d
00000280: 312d 843c 97d8 473e 5c39 13be 4e09 5ebd
00000290: f1be 513e aec5 33bd bea3 63bd 0b98 483d
000002a0: 6655 e93d 0222 723e b951 073f e276 313e
000002b0: 83cf f43d 4438 773d baa3 673e a34b 983e
000002c0: 3d04 bf3c cd8e eb3d 9219 a03e 8e9a 8f3e
000002d0: 4526 ab3e 5778 593e fd19 28be be7d 963e
000002e0: 2339 053d e6be 4d3e 3acb 52be 6a00 183e
000002f0: 7438 03be 467d 873d df4b 5a3d d2e4 3d3b
00000300: 7829 a63c aad2 cfbc 542f 58be 4eec dfbd
00000310: a727 593d 27dd 283e ca68 213e ffeb 5f3d
00000320: 7779 6d3e ba85 943d b29e 843e bb95 113d
00000330: 8eec 333e c9f6 2c3d 2987 41be 0892 423e
00000340: 3162 6c3e 686b 8a3e 6b96 af3e c0df bd3e
00000350: 0b6d e73d 8a18 0fbe 374e 5dbd 58c4 36be
00000360: 7ee4 16bb 7fc8 b13d 911a 7e3e bc10 08be
00000370: d552 cbbc 17a0 0dbd 32a0 5ebe 24c1 96bd
00000380: 5aec a3be 69e9 08be ffd2 41bd 3f4d 2c3c
00000390: b3ba ea3d 921a 1e3e c812 273d ef8f 8e3d
000003a0: 96d7 cabd b266 50bd 6a2d e93d d590 a93d
000003b0: c81a 923e c9de 213e 288d 01be af7a 58bc
000003c0: 7396 f9bd a910 cd3d 78b1 9bbe 57d1 cebe
000003d0: 4f55 eabe c254 87be b18c 4b3e b514 263e
000003e0: 6804 ad3d e47a 053d bd1c c2bc b828 9a3c
000003f0: 9235 3fbc 4ea0 05be 6768 92bd 9674 0fbd

conv2.bias f4 [16]
0.048050396 -0.26740023 -0.4511151 -0.30116102 -0.0070260735 -0.0106685925 -0.1382023 0.21591988
0.083634615 0.13154857 -0.052691486 -0.024303429 0.18705796 -0.11691073 -0.049338974 -0.3993614
00000000: 7ed0 443d afe8 88be 8ff8 e6be c731 9abe
00000010: fa3a e6bb 52cb 2ebc e784 0dbe 1a1a 5d3e
00000020: a048 ab3d abb4 063e 07d3 57bd fc17 c7bc
00000030: 1f8c 3f3e e56e efbd aa17 4abd 1979 ccbe

bn2.weight f4 [16]
0.9683968 0.96809745 1.0806944 1.1095933 1.0317572 0.78626984 0.9438806 1.1238673
1.0052718 0.93154615 0.8486458 0.95411295 0.9324116 1.0369672 0.9327378 1.0119987
00000000: dae8 773f 3cd5 773f 3254 8a3f 2707 8e3f
00000010: 9f10 843f fb48 493f 29a2 713f e2da 8f3f
00000020: bfac 803f cf79 6e3f da40 593f bf40 743f
00000030: 87b2 6e3f 57bb 843f e8c7 6e3f 2c89 813f

bn2.bias f4 [16]
-0.41963813 -0.15307392 0.2088157 -0.08901249 0.0029799365 -0.021904327 -0.07062552 0.16500756
0.32329762 0.46880215 -0.00047558307 0.21939926 0.14873663 -0.20202532 -0.043549046 -0.14907305
00000000: cfda d6be 69bf 1cbe c8d3 553e 2e4c b6bd
00000010: 0a4b 433b b470 b3bc 1da4 90bd bef7 283e
00000020: 4487 a53e d606 f03e ae57 f9b9 33aa 603e
00000030: 6a4e 183e badf 4ebe 7c60 32bd 9ba6 18be

bn2.running_mean f4 [16]
0.5107009 0.75764906 0.41209933 0.27946728 0.99405605 0.7364882 0.40337154 0.5135531
1.0821857 1.3654497 1.0073539 0.50658834 0.6243315 0.4814507 0.6486338 0.44217464
00000000: 4bbd 023f 4af5 413f affe d23e 5616 8f3e
00000010: 757a 7e3f 7e8a 3c3f b786 ce3e 3778 033f
00000020: 1085 8a3f 0ec7 ae3f f9f0 803f c6af 013f
00000030: 30d4 1f3f b580 f63e dd0c 263f b764 e23e

bn2.running_var f4 [16]
1.3383405 4.317652 1.8234254 0.56190825 2.2057395 2.36624 0.77568847 1.5401242
1.8682857 1.1060749 2.3472414 0.7084347 0.9887423 1.5007721 0.8173211 1.6225297
00000000: be4e ab3f 352a 8a40 0166 e93f 38d9 0f3f
00000010: d62a 0d40 7a70 1740 8593 463f ca22 c53f
00000020: fc23 ef3f dd93 8d3f 3439 1640 fa5b 353f
00000030: 371e 7d3f 4d19 c03f f53b 513f 0eaf cf3f

conv3.weight f4 [32, 16, 3, 3]
-0.116731435 -0.04639993 0.0149429515 0.17003626 0.1415148 0.037468027 -0.0039052065 -0.0053540007
-0.16375254 0.052010994 0.067512356 -0.036501575 0.25886327 0.18148705 0.13305832 -0.003611941
0.0004590842 -0.1060438 -0.3555005 -0.09560285 -0.043596957 0.11948362 0.26017353 0.17580974
0.055210143 0.109244816 -0.05038456 0.053718567 -0.080198675 -0.37585115 -0.015956983 -0.057311233
-0.20962258 0.23730226 0.15160212 0.09361515 -0.07990229 0.0038602825 -0.075607315 -0.057130788
-0.090712 -0.055917207 0.14496933 0.18112259 0.22894965 -0.1802906 -0.042877555 -0.124259084
0.042423144 -0.10250352 0.04120173 0.30673805 0.06968285 -0.013093096 -0.08785356 -0.09210948
-0.033079278 0.10739928 0.04713006 0.035784062 -0.012567599 0.08924231 0.040000673 0.2910457
0.20239511 0.07166506 0.11996032 0.06625131 0.069026746 -0.06946306 0.04251507 0.14156267
-0.23200221 -0.32122093 -0.31607392 0.005247082 0.20189135 0.071119554 0.08769351 -0.2047867
-0.32274613 0.12954639 0.034456752 0.16749825 -0.1013006 -0.051658172 -0.23543178 -0.062480453
-0.11824048 0.019142475 0.024822831 0.05455823 0.0625475 -0.084302105 0.09279331 0.2155263
0.016227877 0.20205443 0.07137831 -0.028343152 0.14300258 0.27315727 0.07019857 0.10201623
0.0021142645 0.29275924 0.25785226 0.23008448 0.17577982 -0.06681456 -0.04435209 0.032292772
-0.118200146 -0.052138753 0.13824306 -0.056945097 0.13480456 -0.08988456 -0.030444708 0.044224665
-0.09044035 -0.1620848 -0.033161484 -0.08186067 -0.20942478 -0.033072606 0.09035215 0.09784811
-0.0032764506 0.17308038 0.18149942 0.11553062 0.016827235 0.27354783 0.31077152 0.12282113
0.16185333 0.3122237 -0.007041388 0.03311584 -0.11060787 0.107429415 0.24571551 0.10439626
-0.21197255 0.00988195 0.004556597 0.18714428 0.3245411 0.24069783 0.124949396 0.10089251
0.18188326 -0.19642967 0.09107326 0.056524046 0.33682194 0.14753364 0.022026695 -0.16827905
-0.20967382 -0.041148808 0.026115559 0.00949931 0.033807795 -0.1699824 -0.08918249 -0.039509274
0.30180758 0.012263732 -0.06863266 -0.011064751 0.00874617 -0.18232635 0.1526905 -0.23317012
-0.030980907 0.0048018866 0.036661334 -0.09314782 0.21423537 0.11928887 -0.072062396 0.13151193
0.18306595 0.17621401 0.057687093 0.09305393 0.13732873 -0.085829385 -0.16750434 0.0669009
-0.06830571 0.043533072 -0.30752254 0.0232949 -0.2142663 -0.022891542 -0.01934725 -0.08209415
-0.0057282997 -0.27651763 -0.18168516 -0.18454546 0.061742526 -0.117068455 -0.09928836 0.02731987
0.20303996 0.12394212 -0.3331575 -0.284026 -0.51766783 -0.13304643 -0.15322697 -0.15479892
-0.15441284 -0.12857059 -0.15018864 -0.15037738 0.032426365 0.025832707 0.117778845 -0.09063875
-0.016255885 0.07510469 0.012108474 0.047796544 0.15425982 -0.10118843 0.16522375 -0.21728016
-0.039935183 -0.10554485 0.40628153 0.11468397 0.028527362 0.022681974 0.1406027 0.006902983
-0.1128574 0.07047889 0.05446969 0.32235384 0.3791766 0.4306485 -0.32090333 -0.05857818
-0.2527283 -0.16682734 -0.08140177 0.01842346 0.21914972 0.08070559 0.0006309586 0.10142948
00000000: e410 efbd da0d 3ebd 48d3 743c fc1d 2e3e
00000010: 41e9 103e 1378 193d 7eee 7fbb 9d70 afbb
00000020: bfae 27be 7b09 553d eb43 8a3d ad82 15bd
00000030: ba89 843e bed7 393e 7140 083e 50b6 6cbb
00000040: 3db1 f039 7e2d d9bd 2904 b6be 6dcb c3bd
00000050: b992 32bd d4b3 f43d 7735 853e 7807 343e
00000060: 0824 623d bfbb df3d 0a60 4ebd 0008 5c3d
00000070: 343f a4bd 906f c0be 38b8 82bc 2fbf 6abd
00000080: 4da7 56be 5dff 723e 963d 1b3e 4db9 bf3d
00000090: d0a3 a3bd cbfc 7c3b 02d8 9abd f901 6abd
000000a0: 37c7 b9bd 7109 65bd d772 143e 3378 393e
000000b0: c771 6a3e 199e 38be 60a0 2fbd 8c7b febd
000000c0: e4c3 2d3d 5eed d1bd 25c3 283d c50c 9d3e
000000d0: e2b5 8e3d 6d84 56bc 91ec b3bd e5a3 bcbd
000000e0: 237e 07bd 27f4 db3d 730b 413d 4f92 123d
000000f0: 55e8 4dbc acc4 b63d bfd7 233d f103 953e
00000100: aa40 4f3e 22c5 923d c2ad f53d c4ae 873d
00000110: e55d 8d3d a642 8ebd 4824 2e3d cef5 103e
00000120: fd91 6dbe 1277 a4be 71d4 a1be b7ef ab3b
00000130: 9bbc 4e3e 21a7 913d a898 b33d 9bb3 51be
00000140: fb3e a5be cfa7 043e 8622 0d3d a984 2b3e
00000150: b076 cfbd 8597 53bd 0715 71be 81eb 7fbd
00000160: 1128 f2bd aed0 9c3c 4059 cb3c 7378 5f3d
00000170: e718 803d 95a6 acbd 6b0a be3d edb2 5c3e
00000180: 53f0 843c 5be7 4e3e cb2e 923d e62f e8bc
00000190: 456f 123e 45db 8b3e 45c4 8f3d e3ed d03d
000001a0: 798f 0a3b 8ae4 953e 3605 843e 449b 6b3e
000001b0: a0ff 333e 12d6 88bd 8aaa 35bd 6d45 043d
000001c0: eb12 f2bd 728f 55bd 978f 0d3e 433f 69bd
000001d0: 350a 0a3e 6515 b8bd 2e67 f9bc ec24 353d
000001e0: ca38 b9bd 8ff9 25be 56d4 07bd 91a6 a7bd
000001f0: 7373 56be 2477 07bd 8c0a b93d 9764 c83d
00000200: b8b9 56bb fc3b 313e fcda 393e 519b ec3d
00000210: 45d9 893c 760e 8c3e 721d 9f3e a589 fb3d
00000220: e1bc 253e c9db 9f3e 72bb e6bb 7aa4 073d
00000230: 6186 e2bd f403 dc3d d99c 7b3e b5cd d53d
00000240: 550f 59be e7e7 213c 824f 953b c0a2 3f3e
00000250: 402a a63e 7e79 763e 78e5 ff3d bba0 ce3d
00000260: 9b3f 3a3e dc24 49be 9e84 ba3d c285 673d
00000270: ed73 ac3e 0f13 173e 5471 b43c 5851 2cbe
00000280: bcb4 56be a78b 28bd 4cf0 d53c fea2 1b3c
00000290: 0b7a 0a3d de0f 2ebe 4fa5 b6bd 7ad4 21bd
000002a0: 8686 9a3e d2ed 483c 488f 8cbd ee48 35bc
000002b0: 194c 0f3c c2b3 3abe e65a 1c3e 26c4 6ebe
000002c0: accb fdbc 2559 9d3b 322a 163d 49c4 bebd
000002d0: 8460 5b3e b94d f43d 7395 93bd 10ab 063e
000002e0: a475 3b3e 7271 343e 4d49 6c3d 0f93 be3d
000002f0: e79f 0c3e 51c7 afbd 4286 2bbe 5703 893d
00000300: dde3 8bbd bc4f 323d 9873 9dbe f2d4 be3c
00000310: a068 5bbe 0b87 bbbc 207e 9ebc fa20 a8bd
00000320: 76b4 bbbb b893 8dbe ad0b 3abe 7cf9 3cbe
00000330: bbe5 7c3d 96c1 efbd b257 cbbd eccd df3c
00000340: b5e9 4f3e 5ed5 fd3d 9f93 aabe db6b 91be
00000350: e185 04bf 533d 08be 88e7 1cbe 9c83 1ebe
00000360: 661e 1ebe 02a8 03be 0dcb 19be 87fc 19be
00000370: 82d1 043d 1d9f d33c 0936 f13d cfa0 b9bd
00000380: 102b 85bc 7dd0 993d 9f62 463c 4fc6 433d
00000390: 49f6 1d3e e13b cfbd 6a30 293e b17e 5ebe
000003a0: 1393 23bd e627 d8bd 2204 d03e 6edf ea3d
000003b0: 37b2 e93c 8ccf b93c 27fa 0f3e 6b32 e23b
000003c0: c821 e7bd 3c57 903d 9c1b 5f3d 900b a53e
000003d0: 6f23 c23e f67d dc3e 714d a4be acef 6fbd
000003e0: 9b65 81be c9d4 2abe f9b5 a6bd ccec 963c
000003f0: c968 603e f948 a53d ea66 253a 42ba cf3d

conv3.bias f4 [32]
-0.31802768 -0.044462897 -0.1745143 -0.07175749 -0.3393209 -0.2731085 -0.12120344 -0.077700995
-0.39328375 -0.35301602 -0.19578095 -0.33051106 -0.029787533 -0.1411678 -0.17578204 -0.16260928
-0.2205037 0.012875202 0.14211681 -0.101600915 -0.3241814 -0.23790868 -0.028763104 -0.13327831
-0.17489308 -0.31048092 -0.3409301 -0.06876028 -0.29845023 -0.13153169 -0.328178 -0.051973537
00000000: 86d4 a2be ba1e 36bd e0b3 32be 97f5 92bd
00000010: 78bb adbe e1d4 8bbe 8239 f8bd b321 9fbd
00000020: 7d5c c9be 84be b4be cd7a 48be bf38 a9be
00000030: fc04 f4bc 4b8e 10be 3500 34be 0c83 26be
00000040: b9cb 61be 83f2 523c 1287 113e 2414 d0bd
00000050: 1bfb a5be 559e 73be 9aa0 ebbc 1c7a 08be
00000060: 2c17 33be 5bf7 9ebe 648e aebe 31d2 8cbd
00000070: 78ce 98be 3eb0 06be f206 a8be 34e2 54bd

bn3.weight f4 [32]
0.99895865 0.84887064 0.9599094 0.91436505 1.0478067 0.9822566 1.045171 0.97483844
1.048532 0.9654481 0.97223866 1.0451809 0.98998636 0.93559545 0.88127476 1.1235511
1.0189829 0.79566777 0.8539304 0.96660995 1.0174737 0.92941713 0.9158372 0.88797206
0.8466094 1.02475 0.82611966 1.1465851 1.0621139 0.89185965 0.92720914 0.9777515
00000000: c1bb 7f3f 964f 593f 9fbc 753f d413 6a3f
00000010: 881e 863f 2b75 7b3f 2ac8 853f 038f 793f
00000020: 4c36 863f 9b27 773f a2e4 783f 7dc8 853f
00000030: bf6f 7d3f 2f83 6f3f 399b 613f 86d0 8f3f
00000040: 086e 823f e2b0 4b3f 2f9b 5a3f c073 773f
00000050: 943c 823f 48ee 6d3f 4f74 6a3f 2352 633f
00000060: 65bb 583f 022b 833f 947c 533f 4dc3 923f
00000070: 59f3 873f ea50 643f 945d 6d3f ec4d 7a3f

bn3.bias f4 [32]
0.42956805 0.3710376 0.056749996 0.15505975 0.11441035 -0.25279891 0.36096114 -0.43746457
0.43273774 0.40210408 0.04776083 -0.114167735 0.48565477 0.17382428 0.3232072 0.346701
-0.43116325 -0.26350412 -0.12459548 -0.3668329 0.17963831 0.10746826 -0.11770096 -0.2612863
-0.49755472 0.2076077 -0.09666461 0.033411648 0.19532612 0.23521028 0.3073667 -0.34371325
00000000: 58f0 db3e a4f8 bd3e af72 683d fcc7 1e3e
00000010: f94f ea3d dc6e 81be e6cf b83e 5bfb dfbe
00000020: cd8f dd3e 96e0 cd3e dca0 433d c6d0 e9bd
00000030: bea7 f83e fefe 313e 6a7b a53e cb82 b13e
00000040: 6ec1 dcbe 03ea 86be ea2b ffbd 86d1 bbbe
00000050: 1bf3 373e 5218 dc3d 330d f1bd 51c7 85be
00000060: 7ebf febe 1d97 543e 18f8 c5bd a7da 083d
00000070: 9203 483e f7da 703e 2b5f 9d3e 2ffb afbe

bn3.running_mean f4 [32]
0.45911255 0.6026147 0.1905583 0.48522857 0.2292188 0.9379027 0.3974832 0.5820404
0.57991976 0.93850136 0.39873847 0.517005 0.6404271 0.6352235 0.83646077 0.43316594
0.44550782 0.6806954 0.17890686 0.51770097 0.33399233 0.25946435 1.2916445 0.27770928
0.35131812 0.27391586 0.14082374 0.4335598 0.36517775 0.8208701 0.22311586 0.5753994
00000000: cd10 eb3e f544 1a3f b721 433e e16f f83e
00000010: 55b8 6a3e 641a 703f eb82 cb3e 9a00 153f
00000020: 9f75 143f a041 703f 7327 cc3e 715a 043f
00000030: 08f3 233f 029e 223f 4b22 563f edc7 dd3e
00000040: 9a19 e43e 0e42 2e3f 5c33 373e 0d88 043f
00000050: 0b01 ab3e 83d8 843e 9b54 a53f e92f 8e3e
00000060: f8df b33e b33e 8c3e 1934 103e 8dfb dd3e
00000070: 94f8 ba3e 8b24 523f 7c78 643e 604d 133f

bn3.running_var f4 [32]
1.4760863 0.884322 0.4436569 1.5009876 0.8246772 1.3331072 1.2817484 1.1807065
2.2375128 3.7465613 1.3980699 1.3750124 1.4611651 1.2710681 2.1079872 1.0722678
1.3612461 0.8893847 0.41425496 1.1548145 1.0387704 1.0611031 1.2648371 0.468913
1.1413581 0.74582845 0.32705468 1.0364826 1.0473447 1.0753602 0.65672594 1.3141978
00000000: 65f0 bc3f ed62 623f ff26 e33e 5d20 c03f
00000010: 0c1e 533f 42a3 aa3f 5510 a43f 6421 973f
00000020: 6933 0f40 a9c7 6f40 f4f3 b23f 6800 b03f
00000030: 7507 bb3f 5cb2 a23f 43e9 0640 1240 893f
00000040: 503d ae3f b7ae 633f 3a19 d43e f6d0 933f
00000050: 6ef6 843f 3ad2 873f 2fe6 a13f 5d15 f03e
00000060: 0618 923f 9dee 3e3f b673 a73e 76ab 843f
00000070: 640f 863f 67a5 893f 311f 283f a237 a83f

conv4.weight f4 [64, 32, 3, 3]
0.012524539 -0.09544477 0.008802164 -0.027010055 0.10720523 -0.075143605 -0.012657571 -0.027985375
0.0895751 -0.04541388 -0.099421114 0.045902226 -0.058589935 -0.110313274 -0.01628532 -0.1397478
-0.15353268 -0.028716117 -0.22500975 -0.36001018 -0.18866053 0.08841996 0.08010415 -0.07431982
-0.19797477 -0.08927705 0.09679487 -0.0132589955 -0.033018466 -0.01794772 -0.14334752 -0.16858123
-0.104090706 -0.085645236 0.05606602 0.08129516 0.019931985 -0.030108735 0.039709378 -0.09580607
-0.07849257 0.043352056 0.17029722 0.07737418 0.15359852 -0.12999399 0.08402399 0.049093027
0.067968674 -0.0115684485 -0.14618209 -0.17618844 -0.02863107 -0.055208113 0.017827956 -0.041280486
-0.1164022 0.19345787 0.1351542 0.24534793 -0.041576847 -0.014025128 0.05141649 0.17407537
0.10377795 0.17582901 0.044441923 -0.076063186 -0.044236097 0.19565088 0.15147005 0.114809856
-0.091093235 -0.0532684 0.008786352 -0.19275638 -0.2230002 -0.11074314 -0.27512854 -0.24735452
-0.20399855 -0.06763876 -0.045089323 0.00821621 -0.30541936 -0.21344703 -0.08994621 -0.03331899
-0.005519668 0.07216516 0.050743643 -0.0033442483 -0.41297615 0.015504243 0.13381107 -0.05691201
-0.05197077 -0.0699486 -0.00010410727 0.071721025 0.10698146 0.06815051 0.07337027 -0.012942695
-0.00024988662 -0.063343555 -0.007217597 0.18832105 0.116313025 0.001392709 0.10135435 -0.033751752
0.09204754 -0.08409255 -0.00784462 -0.042812172 0.022464018 0.15973717 0.07666119 0.06140674
0.25291094 0.28922728 0.13770992 0.1475821 0.035448585 -0.0032372759 0.07006618 -0.08892695
0.04500715 0.07414091 -0.20362484 -0.20666558 -0.11285504 -0.20280397 -0.25218794 0.08996308
0.10796772 0.20487246 -0.0032507784 0.039296538 0.027894545 0.093843095 0.071040034 0.044492096
-0.111141 0.105185136 0.1173733 0.08960767 -0.19445668 -0.00986158 0.16008319 0.17222959
0.15269493 0.017596683 0.034839626 0.21838987 0.03574877 -0.05577279 0.10758851 0.12563677
0.08935693 0.09960536 0.07882686 0.031463753 -0.0002885352 -0.010404272 -0.04373278 0.07228183
-0.079346955 -0.023494488 0.02310094 0.016388895 -0.040532123 -0.022695508 -0.08745141 0.027655743
-0.05713569 0.18659386 0.06631102 -0.09403402 0.014190744 0.014566928 -0.06109279 0.24831267
0.16365126 0.16185941 -0.08270648 -0.0875017 -0.020138698 0.051588118 -0.016115589 0.103342235
-0.13785738 -0.18547547 -0.16763732 -0.045902424 0.050155487 0.041459896 -0.065526016 0.17151791
0.20455043 -0.26846832 -0.21242943 0.06316495 0.024291404 0.024912028 -0.091483586 -0.3032127
-0.3064413 -0.1767298 0.20159055 0.07090803 0.10666422 -0.1754406 -0.058085836 0.060515497
0.19848803 0.1948118 0.13558976 0.010178871 -0.03046731 -0.023092657 0.17306751 0.2763691
0.18375601 -0.25662056 -0.26075327 -0.388251 0.07456993 0.1332765 0.01553234 0.12272484
0.0847293 -0.11554005 -0.006620394 0.015474612 0.024502225 0.034164976 0.073853485 -0.04496325
-0.10499068 -0.04691293 -0.036311053 0.07416947 -0.053243134 -0.35803607 -0.058457725 -0.09090472
-0.09112791 -0.35377565 -0.34853047 -0.24890068 0.13105883 0.14584774 0.16346237 0.112272404
00000000: b933 4d3c 8c78 c3bd f436 103c 3144 ddbc
00000010: 6a8e db3d e4e4 99bd b361 4fbc 9641 e5bc
00000020: 2673 b73d e803 3abd 4c9d cbbd f903 3c3d
00000030: 00fc 6fbd edeb e1bd cb68 85bc 0c1a 0fbe
00000040: ac37 1dbe 103e ebbc f568 66be 4153 b8be
00000050: 3a30 41be 8615 b53d a50d a43d fd34 98bd
00000060: e6b9 4abe e3d6 b6bd 643c c63d 423c 59bc
00000070: 5f3e 07bd 1907 93bc b1c9 12be 8fa0 2cbe
00000080: 822d d5bd c566 afbd 7ca5 653d 147e a63d
00000090: 6748 a33c 98a6 f6bc 4da6 223d f935 c4bd
000000a0: b6c0 a0bd ed91 313d 6562 2e3e 5b76 9e3d
000000b0: ee48 1d3e 251d 05be c514 ac3d c515 493d
000000c0: 2933 8b3d 9789 3dbc c2b0 15be be6a 34be
000000d0: b58b eabc e721 62bd ef0b 923c ba15 29bd
000000e0: 4764 eebd d219 463e dd65 0a3e 7d3c 7b3e
000000f0: 7c4c 2abd a7c9 65bc 199a 523d d040 323e
00000100: 8989 d43d 850c 343e bc08 363d 04c7 9bbd
00000110: e930 35bd b458 483e f71a 1b3e 6e21 eb3d
00000120: 178f babd f72f 5abd a2f4 0f3c ee61 45be
00000130: 2a5a 64be 4dcd e2bd a6dd 8cbe 814a 7dbe
00000140: ffe4 50be 3186 8abd 95af 38bd 489d 063c
00000150: ed5f 9cbe dc91 5abe b835 b8bd 7e79 08bd
00000160: 55de b4bb 54cb 933d 91d8 4f3d 2d2b 5bbb
00000170: 9c71 d3be 8205 7e3c c505 093e 911c 69bd
00000180: 4ddf 54bd 3641 8fbd 2a54 dab8 79e2 923d
00000190: 1819 db3d 7f92 8b3d 2743 963d 990d 54bc
000001a0: 3703 83b9 44ba 81bd 9881 ecbb 3cd7 403e
000001b0: 8635 ee3d 8f8b b63a df92 cf3d 473f 0abd
000001c0: 6c83 bc3d b738 acbd b986 00bc d15b 2fbd
000001d0: 7606 b83c 2492 233e 8b00 9d3d a285 7b3d
000001e0: 8b7d 813e 9915 943e d403 0d3e c31f 173e
000001f0: 8932 113d 7a28 54bb db7e 8f3d 551f b6bd
00000200: 6b59 383d 30d7 973d 0883 50be 24a0 53be
00000210: 8b20 e7bd d8ab 4fbe c71e 81be 903e b83d
00000220: 2e1e dd3d 16ca 513e 030b 55bb 68f5 203d
00000230: 1a83 e43c cf30 c03d 707d 913d 583d 363d
00000240: e59d e3bd 4e6b d73d 6a61 f03d 3a84 b73d
00000250: a71f 47be 7792 21bc d9ec 233e f45c 303e
00000260: 0f5c 1c3e eb26 903c ffb3 0e3d 98a1 5f3e
00000270: 4d6d 123d 0272 64bd 5d57 dc3d eda6 003e
00000280: c400 b73d e5fd cb3d fa6f a13d 23e0 003d
00000290: 8a46 97b9 ae76 2abc 2521 33bd 7f08 943d
000002a0: a880 a2bd 8377 c0bc 2f3e bd3c 0142 863c
000002b0: 0305 26bd eeeb b9bc ba19 b3bd 4c8e e23c
000002c0: 1d07 6abd 7612 3f3e 12ce 873d e994 c0bd
000002d0: 4b80 683c 20aa 6e3c 6f3c 7abd ad45 7e3e
000002e0: 3294 273e 79be 253e 0462 a9bd 1734 b3bd
000002f0: e9f9 a4bc 104e 533d d704 84bc 18a5 d33d
00000300: 7c2a 0dbe 48ed 3dbe 1ea9 2bbe 2e04 3cbd
00000310: d76f 4d3d dad1 293d 8132 86bd 64a2 2f3e
00000320: ab75 513e ae74 89be 1a87 59be a05c 813d
00000330: c4fe c63c 4f14 cc3c bf5b bbbd b23e 9bbe
00000340: e0e5 9cbe a8f8 34be c16d 4e3e 3b38 913d
00000350: c572 da3d b3a6 33be 6aeb 6dbd 19df 773d
00000360: 7240 4b3e bf7c 473e 0bd8 0a3e 48c5 263c
00000370: 9596 f9bc d02c bdbc 9c38 313e 4080 8d3e
00000380: 892a 3c3e c563 83be 7481 85be d6c8 c6be
00000390: 1fb8 983d a379 083e 5b7b 7e3c 2957 fb3d
000003a0: 8e86 ad3d 43a0 ecbd e4ef d8bb 3a89 7d3c
000003b0: e4b8 c83c 93f0 0b3d 7f40 973d 632b 38bd
000003c0: 5b05 d7bd c627 40bd e6ba 14bd 2ae6 973d
000003d0: 7915 5abd 8150 b7be 5e71 6fbd 412c babd
000003e0: 45a1 babd 1522 b5be 9672 b2be d2df 7ebe
000003f0: 4934 063e 1c59 153e ae62 273e 13ef e53d

conv4.bias f4 [64]
-0.3957601 -0.5410247 -0.0904948 -0.3756386 -0.35969335 -0.3475693 -0.2577185 -0.2697475
-0.18764943 -0.17180762 -0.12518977 -0.09994642 -0.17227708 -0.22335425 -0.17269556 -0.31234258
-0.12198756 0.09442519 -0.2699385 -0.24487601 -0.34734577 -0.2486914 -0.21339282 -0.27083954
-0.23566395 -0.20492971 -0.108988106 -0.21912456 -0.00077073864 -0.39287487 -0.014323349 -0.4530587
-0.43307906 -0.1609952 -0.2987075 -0.23942494 -0.41044468 -0.14067858 -0.14382222 -0.15553215
-0.027165174 -0.15903246 -0.33797866 -0.15802547 -0.15280269 -0.26118988 -0.2589119 -0.34433642
-0.1786624 -0.32191896 -0.065475225 -0.023607748 -0.43448684 -0.19689895 -0.31095034 -0.33463603
-0.43789098 -0.10647356 -0.13057302 -0.41032106 -0.2008354 -0.30498096 -0.10226547 -0.2518722
00000000: 11a1 cabe 9880 0abf 5655 b9bd b453 c0be
00000010: ba29 b8be 9af4 b1be aef3 83be 581c 8abe
00000020: 2c27 40be 56ee 2fbe bf31 00be b5b0 ccbd
00000030: 6769 30be fab6 64be 1bd7 30be 5eeb 9fbe
00000040: 9dd4 f9bd fe61 c13d 6135 8abe c7c0 7abe
00000050: 4ed7 b1be f5a8 7ebe a683 5abe 7bab 8abe
00000060: e451 71be 18d9 51be 2835 dfbd 3062 60be
00000070: 650b 4aba e526 c9be 7bac 6abc 4ff7 e7be
00000080: 8abc ddbe eddb 24be 30f0 98be d02b 75be
00000090: ce25 d2be 0c0e 10be 2246 13be d243 1fbe
000000a0: 8089 debc 68d9 22be 8a0b adbe 6ed1 21be
000000b0: 4f78 1cbe aeba 85be 1a90 84be dd4c b0be
000000c0: 47f3 36be 90d2 a4be e017 86bd 0965 c1bc
000000d0: 0f75 debe e19f 49be e234 9fbe 6a55 abbe
000000e0: 3f33 e0be cf0e dabd efb4 05be 9a15 d2be
000000f0: cca7 4dbe 7726 9cbe 8f70 d1bd 65f5 80be

bn4.weight f4 [64]
3.100163 3.450444 2.4068851 3.4750462 3.2452633 3.8163507 3.33796 2.5839899
3.0815043 2.9920168 2.9223075 2.954478 3.3133433 2.7057018 3.3573666 3.3118687
3.7719336 2.5117705 3.301381 3.2549531 3.3935032 2.0707176 3.1265724 3.508936
3.351463 3.0425453 2.8924313 3.418546 2.548855 3.4649851 2.74385 3.1271422
3.4157 3.3057306 3.4421787 3.204601 3.370209 3.219787 3.5647786 3.147767
2.7272909 3.6837597 3.5897331 3.069879 3.2917392 3.135673 3.3088484 2.8991034
3.3252468 2.9967 2.9845862 2.7976148 3.6368768 2.9923313 3.598925 3.492899
3.269667 3.0620348 2.7985377 3.338159 3.0973225 3.332975 3.3142543 3.845697
00000000: 1269 4640 13d4 5c40 680a 1a40 2867 5e40
00000010: 65b2 4f40 173f 7440 23a1 5540 1760 2540
00000020: 5e37 4540 347d 3f40 1607 3b40 2b16 3d40
00000030: d10d 5440 382a 2d40 18df 5640 a8f5 5340
00000040: 5c67 7140 d9c0 2040 d449 5340 2751 5040
00000050: 282f 5940 a386 0440 c319 4840 6892 6040
00000060: 5f7e 5640 10b9 4240 981d 3940 75c9 5a40
00000070: 7120 2340 51c2 5d40 3d9b 2f40 1923 4840
00000080: d49a 5a40 1791 5340 a84c 5c40 2f18 4d40
00000090: 81b1 5740 fd10 4e40 5525 6440 0475 4940
000000a0: ef8b 2e40 b8c2 6b40 30be 6540 e678 4440
000000b0: dbab 5240 deae 4840 2cc4 5340 e98a 3940
000000c0: d8d0 5440 efc9 3f40 7603 3f40 1f0c 3340
000000d0: 97c2 6840 5b82 3f40 ca54 6640 a88b 5f40
000000e0: 3942 5140 61f8 4340 3e1b 3340 66a4 5540
000000f0: 883a 4640 764f 5540 be1c 5440 e61f 7640

bn4.bias f4 [64]
0.1323169 -0.08164444 -0.110423 0.118695885 -0.0082933465 -0.04385608 -0.042384703 0.017104467
0.0045727785 0.17870188 -0.07878065 -0.045707084 -0.18767284 0.028800158 0.05450854 -0.14568542
0.04752932 0.029525878 -0.14671019 -0.10302989 0.16693889 -0.009330365 0.18066096 -0.008670304
-0.1560272 0.122421734 0.09164935 -0.0682403 0.06474586 0.22348042 -0.013092684 -0.10040802
-0.11584126 -0.06529658 0.1265214 -0.110090874 -0.06658354 -0.09060089 0.08753969 0.054859705
0.037190516 -0.029883945 0.15206638 0.13681741 -0.17210062 0.123615965 -0.05889595 -0.055033393
0.1300809 -0.1431715 -0.099900804 0.033726476 0.0049127047 -0.19685332 0.017407272 -0.12583563
-0.0050658714 -0.037318554 0.001976818 0.19728476 -0.07051037 0.13807689 0.13030684 -0.09540528
00000000: 157e 073e 3335 a7bd 7425 e2bd d416 f33d
00000010: d1e0 07bc 6fa2 33bd 959b 2dbd ab1e 8c3c
00000020: 3fd7 953b a0fd 363e c057 a1bd 5a37 3bbd
00000030: 4f2d 40be 4fee eb3c 5944 5f3d 8f2e 15be
00000040: 1bae 423d 41e0 f13c 323b 16be 5601 d3bd
00000050: 07f2 2a3e 63de 18bc 30ff 383e e40d 0ebc
00000060: 98c5 1fbe 3fb8 fa3d a8b2 bb3d 92c1 8bbd
00000070: 7a99 843d 0dd8 643e b282 56bc b8a2 cdbd
00000080: 2f3e edbd 37ba 85bd d38e 013e 5377 e1bd
00000090: f35c 88bd f68c b9bd 0248 b33d 92b4 603d
000000a0: 1555 183d 2dcf f4bc 4ab7 1b3e dd19 0c3e
000000b0: 253b 30be 5e2a fd3d e13c 71bd b26a 61bd
000000c0: ed33 053e 8d9b 12be cb98 ccbd c624 0a3d
000000d0: c1fa a03b eb93 49be b299 8e3c 0edb 00be
000000e0: 9cff a5bb 57db 18bd 818d 013b 0405 4a3e
000000f0: be67 90bd 0764 0d3e 286f 053e d863 c3bd

bn4.running_mean f4 [64]
0.09676389 0.05678229 0.24080183 0.06747387 0.055478636 0.047879018 0.080145456 0.14576726
0.085822985 0.18661465 0.043589536 0.21753715 0.03288111 0.109204836 0.032507576 0.036529344
0.08277158 0.7975661 0.06436836 0.09085695 0.10699233 0.72522795 0.0964747 0.060303584
0.03678017 0.10772038 0.12145892 0.0485656 0.14208937 0.09863483 0.17845593 0.049149927
0.070154004 0.13158572 0.11003573 0.045496188 0.024819395 0.09801858 0.13375719 0.11852158
0.094952874 0.05494957 0.1405438 0.042934276 0.08198007 0.098612174 0.08364143 0.09074763
0.060236115 0.13385862 0.08960448 0.14850853 0.033238288 0.065528095 0.14022166 0.0883291
0.05935029 0.040175978 0.11625197 0.10226478 0.10640339 0.112053454 0.12570383 0.06032863
00000000: 252c c63d 8c94 683d c194 763e be2f 8a3d
00000010: 913d 633d ca1c 443d 4d23 a43d 0344 153e
00000020: f6c3 af3d e917 3f3e f18a 323d 0fc2 5e3e
00000030: 58ae 063d c9a6 df3d aa26 053d cb9f 153d
00000040: 2584 a93d 4b2d 4c3f 8fd3 833d 3513 ba3d
00000050: cb1e db3d 8aa8 393f 8794 c53d e400 773d
00000060: cea6 163d 819c dc3d 74bf f83d b9ec 463d
00000070: e07f 113e 0f01 ca3d 27bd 363e 6f51 493d
00000080: e7ac 8f3d 68be 063e 6a5a e13d 365a 3a3d
00000090: 0b52 cb3c f7bd c83d a5f7 083e 71bb f23d
000000a0: a776 c23d cd12 613d b7ea 0f3e dadb 2f3d
000000b0: 2be5 a73d 2ef5 c93d 334c ab3d e5d9 b93d
000000c0: 25ba 763d 3c12 093e 8e82 b73d 9f12 183e
000000d0: df24 083d 9833 863d 4496 0f3e e3e5 b43d
000000e0: 4a19 733d 918f 243d 8315 ee3d 3270 d13d
000000f0: 05ea d93d 487c e53d 81b8 003e 271b 773d

bn4.running_var f4 [64]
0.26525626 0.16569266 0.39885852 0.15473667 0.119879 0.15412891 0.14426719 0.3247693
0.20744967 0.45149624 0.07861132 0.5113493 0.06276828 0.22497202 0.080207855 0.07653576
0.18422888 1.2259705 0.15361606 0.15621547 0.21081103 1.1785399 0.20365828 0.1527924
0.0732545 0.23955247 0.24537751 0.07508326 0.21660303 0.210294 0.37373105 0.105820686
0.17322774 0.31689063 0.3099565 0.107350074 0.038757063 0.17196724 0.27617297 0.29613203
0.19965872 0.13866107 0.32721514 0.075903326 0.18031134 0.18642646 0.17339532 0.28221467
0.12669893 0.27870053 0.16374099 0.3096848 0.06276443 0.12681939 0.3214053 0.18690279
0.17326471 0.06515502 0.22418755 0.22401953 0.19696012 0.25972956 0.20061348 0.11300651
00000000: abcf 873e 56ab 293e 2f37 cc3e 4a73 1e3e
00000010: 1f83 f53d f8d3 1d3e c7ba 133e 2948 a63e
00000020: b06d 543e 842a e73e f9fe a03d cae7 023f
00000030: a88c 803d 115f 663e 0444 a43d c8be 9c3d
00000040: 7fa6 3c3e 9aec 9c3f 874d 1d3e f3f6 1f3e
00000050: d9de 573e 65da 963f cc8b 503e 9c75 1c3e
00000060: 7506 963d 3e4d 753e 3e44 7b3e 41c5 993d
00000070: 2fcd 5d3e 4f57 573e ad59 bf3e 84b8 d83d
00000080: 9d62 313e 7d3f a23e 9eb2 9e3e 5bda db3d
00000090: babf 1e3d 2e18 303e 8b66 8d3e 9e9e 973e
000000a0: 5673 4c3e 2bfd 0d3e be88 a73e 3473 9b3d
000000b0: 89a3 383e 94e6 3e3e 8b8e 313e 717e 903e
000000c0: 5dbd 013e d6b1 8e3e b8ab 273e 028f 9e3e
000000d0: a38a 803d f1dc 013e 3c8f a43e 7263 3f3e
000000e0: 4e6c 313e ff6f 853d 6c91 653e 6065 653e
000000f0: eaaf 493e 46fb 843e 9f6d 4d3e f56f e73d

lin.weight f4 [10, 64]
0.16741188 1.3957697 -0.29671305 -1.435667 -0.52261573 -1.3058869 -0.2850637 0.3441414
-0.44483212 0.33123872 -0.36466184 0.061109908 -0.57538885 1.1664494 -1.1331573 0.6176614
0.9542657 0.22787993 -0.6223563 -0.63346875 0.6146455 -0.14777875 0.30416152 0.69834274
-0.16151759 -0.14750597 0.3211159 -1.0227207 0.02422832 0.23721868 0.18601702 -0.12341918
-0.6299557 0.63698417 1.1364893 -0.7798046 -0.8106202 -0.008658906 0.054841146 -0.34500843
-0.5414292 -1.3141161 0.82533294 0.60282254 -0.5617496 0.36708233 1.5728903 0.46642908
-0.52065367 0.21848324 -0.49635437 -0.0055184127 1.4879192 -0.7066316 -0.8778747 -0.9306684
-0.37581876 0.24844287 0.2565692 0.7685175 -0.5814731 0.84839326 0.28459525 -0.9791449
-1.1946791 0.20624915 -0.056012068 0.05141483 1.4367481 -0.33223134 1.3631048 0.07000918
-0.26405483 -1.4171036 -0.7272332 0.42316422 1.9782879 -0.9914168 -1.0116866 -0.4538324
-1.2416747 -0.82958394 -0.28501225 -0.38827372 -0.53116804 0.1282484 -0.6597927 1.3139888
0.15277734 0.06998334 -1.0020785 -0.1476818 -0.6887193 -0.5059863 0.43018267 -0.593098
-0.71653676 0.69989944 -0.45663965 -0.16833104 -0.93725145 -0.4758412 -0.8289217 0.043494422
-0.11464187 -0.537937 0.109459616 -0.4649579 -0.4015983 0.71565944 0.93568385 -0.5635731
0.7889176 -0.7041727 0.8984926 -0.08644166 -1.1178393 -0.05831554 1.1115698 -0.18230821
-0.46742868 1.123695 0.37597093 -1.5058535 -0.2174078 0.960931 1.1390308 0.2774403
0.015811712 -1.02156 -0.6718905 -1.1920326 -1.249581 0.3314853 -0.0033845976 0.53305423
0.5292904 -0.017301472 0.40649188 0.7330187 -0.58669364 0.0030074418 1.3181202 -0.67152125
-0.6140813 0.13076314 -0.6692604 1.3341073 -1.0850329 0.45949134 -0.1345277 -0.21424341
0.22071505 0.7921769 0.13170874 -0.9656519 0.48979604 0.7790372 0.9448077 1.703728
0.8009573 -0.367257 0.8886576 -0.71020186 1.4486524 -0.8156427 -0.85242945 0.97334313
-0.15789324 -0.22901653 -0.4581808 1.1198723 -0.45661414 0.23726965 -0.9017462 -0.7745446
0.5686396 -0.3689346 -0.18108907 -0.32595637 -1.1679896 0.18607108 0.36496928 0.12633997
-0.7505682 -0.40276814 0.83251995 -0.7815088 -0.46497583 0.33684397 -0.032559995 -0.30693826
-0.36951777 -0.6231872 0.40272665 0.2458077 -0.34603062 -0.8196835 -0.9663777 0.9538245
-1.0924058 -0.8282083 -0.2687308 0.1327121 0.14331323 -0.8834169 -0.54398185 -0.006013174
1.196817 0.46729127 0.24660422 -0.7781058 -0.30994338 0.2025628 -0.13536358 0.3916957
-1.2246972 -0.70462245 -0.6714803 0.7876144 0.08366014 -0.6767069 -0.007866919 -0.34392703
-0.13706586 -1.4699575 -0.45095778 -0.22750366 0.17241797 0.72082525 1.0316064 0.5331377
0.46248725 1.1143621 -1.154743 -0.7163741 -0.6127084 -0.54931784 -0.30236065 -0.3872275
-1.313455 0.6040542 0.9329607 0.6621155 -0.43718904 0.19346881 0.7054481 1.3334914
1.5530661 1.3166821 0.5508408 -0.8917406 -0.514672 -1.1076732 -1.1967521 -0.5702884
00000000: 056e 2b3e 95a8 b23f c6ea 97be f0c3 b7bf
00000010: 25ca 05bf 4d27 a7bf dff3 91be 4d33 b03e
00000020: 09c1 e3be 1f98 a93e f5b4 babe 624e 7a3d
00000030: af4c 13bf 374e 953f 4c0b 91bf 0f1f 1e3f
00000040: c24a 743f 5b59 693e be52 1fbf 022b 22bf
00000050: 6859 1d3f 5053 17be 0fbb 9b3e 97c6 323f
00000060: de64 25be ce0b 17be 4e69 a43e 83e8 82bf
00000070: 787a c63c 74e9 723e 3f7b 3e3e 32c3 fcbd
00000080: c744 21bf 6511 233f 7b78 913f 46a1 47bf
00000090: ce84 4fbf 16de 0dbc 1ca1 603d f2a4 b0be
000000a0: 1b9b 0abf f534 a8bf 0549 533f 9452 1a3f
000000b0: d2ce 0fbf 37f2 bb3e 7854 c93f cbcf ee3e
000000c0: 8f49 05bf 12ba 5f3e 2922 febe cdd3 b4bb
000000d0: 2374 be3f cfe5 34bf 65bc 60bf 4940 6ebf
000000e0: 516b c0be cf67 7e3e 0a5d 833e 90bd 443f
000000f0: 6cdb 14bf 4d30 593f 78b6 913e 3da9 7abf
00000100: 3feb 98bf fa32 533e e96c 65bd 5b98 523d
00000110: 5de7 b73f 3a1a aabe 387a ae3f f960 8f3d
00000120: 3232 87be a763 b5bf f42b 3abf fba8 d83e
00000130: 8a38 fd3f 7ecd 7dbf f27e 81bf b85c e8be
00000140: 32ef 9ebf 9d5f 54bf 20ed 91be d0cb c6be
00000150: a1fa 07bf 8c53 033e 2de8 28bf c930 a83f
00000160: aa71 1c3e 6d53 8f3d 1c44 80bf e639 17be
00000170: e84f 30bf 5188 01bf e740 dc3e 45d5 17bf
00000180: f46e 37bf 9c2c 333f accc e9be f95e 2cbe
00000190: b6ef 6fbf 75a1 f3be 3634 54bf 3527 323d
000001a0: 5bc9 eabd 3db6 09bf 5d2c e03d f60e eebe
000001b0: 4b9e cdbe 7535 373f fa88 6f3f 5446 10bf
000001c0: 81f6 493f a944 34bf 9c03 663f 5308 b1bd
000001d0: 5c15 8fbf 47dc 6ebd eb47 8e3f 01af 3abe
000001e0: d052 efbe 3dd5 8f3f 437f c03e cfbf c0bf
000001f0: 26a0 5ebe 93ff 753f c3cb 913f a80c 8e3e
00000200: 9087 813c 7ac2 82bf 0401 2cbf 8694 98bf
00000210: 45f2 9fbf 71b8 a93e 20d0 5dbb 3e76 083f
00000220: 937f 073f d1bb 8dbc b41f d03e 1da7 3b3f
00000230: 8e31 16bf 8018 453b 2ab8 a83f d1e8 2bbf
00000240: 6f34 1dbf c6e6 053e a654 2bbf 07c4 aa3f
00000250: 5ce2 8abf 7342 eb3e a1c1 09be a062 5bbe
00000260: 2003 623e 1bcc 4a3f a8de 063e f734 77bf
00000270: 8cc6 fa3e fb6e 473f ebde 713f c213 da3f
00000280: 8a0b 4d3f 1c09 bcbe 117f 633f cacf 35bf
00000290: 716d b93f f6cd 50bf d138 5abf 042d 793f
000002a0: c4ae 21be 4f83 6abe ac96 eabe fa57 8f3f
000002b0: 54c9 e9be d1f6 723e d7d8 66bf 8e48 46bf
000002c0: 5d92 113f ffe4 bcbe 6a6f 39be c1e3 a6be
000002d0: af80 95bf 6b89 3e3e 41dd ba3e 445f 013e
000002e0: 3d25 40bf a037 cebe 0720 553f f610 48bf
000002f0: 5011 eebe d076 ac3e a15d 05bd 0327 9dbe
00000300: 6f31 bdbe 3289 1fbf 3032 ce3e 04b5 7b3e
00000310: ed2a b1be c7d6 51bf 8764 77bf d82d 743f
00000320: f4d3 8bbf 7605 54bf 1597 89be aee5 073e
00000330: b4c0 123e 9c27 62bf 6542 0bbf 290a c5bb
00000340: 4d31 993f cd40 ef3e d185 7c3e f131 47bf
00000350: e6b0 9ebe 9f6c 4f3e c09c 0abe 578c c83e
00000360: e1c2 9cbf 2362 34bf 22e6 2bbf 19a1 493f
00000370: 0256 ab3d aa3c 2dbf 40e4 00bc 3417 b0be
00000380: fe5a 0cbe 9127 bcbf f0e3 e6be b8f6 68be
00000390: 568e 303e 0188 383f ae0b 843f b67b 083f
000003a0: 21cb ec3e 6ba3 8e3f 9ece 93bf 4b64 37bf
000003b0: 75da 1cbf 18a0 0cbf 04cf 9abe af42 c6be
000003c0: 4b1f a8bf 4ca3 1a3f 83d6 6e3f 6780 293f
000003d0: 3ed7 dfbe b01c 463e 3f98 343f d9af aa3f
000003e0: dfca c63f 0a89 a83f e703 0d3f 1d49 64bf
000003f0: 8bc1 03bf 3cc8 8dbf 2c2f 99bf 6cfe 11bf

lin.bias f4 [10]
0.08825184 -0.1661679 0.056662064 -0.028119909 -0.043962177 -0.24557322 -0.119476266 -0.0241001
0.14905588 -0.069481164
00000000: 61bd b43d eb27 2abe 7b16 683d b95b e6bc
00000010: af11 34bd 8c77 7bbe f9af f4bd 936d c5bc
00000020: 1ba2 183e 244c 8ebd
