NCC_Code/Models/2022-07-10_16-32-32_model.pt (torch, 115275 bytes, 50 tensors)

conv1.weight f4 [8, 2, 5, 5]
000000 16 ee 2a be 58 8c 8b 3c 90 13 86 be bb 10 f1 bc
       -0.16692385 0.017034695 -0.261868 -0.029426923
000010 70 4f 99 3d 18 ff 63 bd d6 65 7d 3b 66 3f 90 bd
       0.074858546 -0.0556632 0.0038665435 -0.07043342
000020 a3 7a 8a be e8 03 fa bd dc d0 bc bd 9e f4 66 be
       -0.2704669 -0.12207776 -0.09219524 -0.22554252
000030 60 89 9b bd b8 ec c5 bd 1b c8 67 be fc b1 bd 3e
       -0.075945616 -0.09664291 -0.22634928 0.37049854
000040 d0 36 a1 3e c4 f5 60 3d 54 9b 1e 3f a5 72 40 3f
       0.3148713 0.05492188 0.6195576 0.75174934
000050 96 fa d5 3d 29 3f 9c 3d 75 d5 a5 3d bb 15 99 bb
       0.10448186 0.07629234 0.08097354 -0.00467178
000060 f0 16 d6 3d f7 cb 0f 3c d5 f7 ce bd e3 3b 52 3e
       0.10453594 0.008776656 -0.10105864 0.20530657
000070 f1 b9 ae bb b8 12 92 bd eb 6d 6b 3d 69 93 f8 bd
       -0.0053322245 -0.071324766 0.057477873 -0.12137491
000080 af 13 61 bd 71 2e 66 3d 06 7c 53 bd 06 69 66 be
       -0.054950412 0.056196634 -0.05163195 -0.22501001
000090 2a c0 61 bd 70 52 21 be cf e3 95 be 49 73 20 bd
       -0.055114903 -0.15754104 -0.29275367 -0.039172444
0000a0 7e 7d 5a 3e 69 59 fc 3e 88 b1 0c 3f 30 5b d9 3e
       0.21336934 0.49286965 0.5495839 0.42452383
0000b0 d0 56 ca bd a5 5d b6 bd a8 82 39 3d db a3 b8 3d
       -0.098798394 -0.0890458 0.04529062 0.09015628
0000c0 17 dc a7 3d 2e 93 4a bd f6 5b d2 bd 55 f5 9b 3e
       0.08196276 -0.049456768 -0.102714464 0.3046061
0000d0 8f 2d a7 3d 97 23 a4 be 80 b7 cf be e3 48 d1 bc
       0.081629865 -0.32058403 -0.40569687 -0.02554745
0000e0 3b 7a ea 3d 47 0b 9b bd e1 57 9f be a3 87 7e bd
       0.11449095 -0.0757051 -0.31121734 -0.062141072
0000f0 39 d5 34 be 6a 65 23 3e f2 0b 94 be 51 2a 0d bf
       -0.17659463 0.15956655 -0.28915364 -0.55142695
000100 6b de 06 bf 75 8f 53 be 7f 9b e2 3e ed ea 9f 3c
       -0.5268313 -0.20660193 0.4425926 0.019521201
000110 f3 32 81 be 48 d8 8c be 51 9d 65 3e 77 73 bb be
       -0.25234184 -0.2750876 0.22423293 -0.3661153
000120 d7 fb 9c 3e ce b0 bf bd 4b 89 92 be 30 0c df 3e
       0.3066089 -0.09359895 -0.2862037 0.43563986
000130 9b f3 fa bc 07 1c 82 be 80 67 0d be a3 89 80 be
       -0.030633738 -0.25412008 -0.13809013 -0.25105008
000140 c2 fa c2 3c 6a 80 3e bc 3c d7 1e 3e 42 21 83 be
       0.023801211 -0.011627296 0.15511793 -0.2561131
000150 7a 0d bd be 85 33 0c 3e e0 77 57 be 5c 99 4c 3e
       -0.36924344 0.13691528 -0.21041822 0.19980377
000160 ce 1b 32 3e f2 82 b4 3e 44 66 66 3c f8 1d 20 3e
       0.17393419 0.35256153 0.014062468 0.15636432
000170 9b 05 09 be 13 79 32 be 67 b0 94 be 16 e3 13 3f
       -0.13381045 -0.17428999 -0.29040834 0.5776838
000180 48 61 d4 3e 55 a3 b2 bc e3 85 05 bf c0 5f cc be
       0.4148047 -0.021806398 -0.5215742 -0.399168
000190 2f 63 ad 3c 3f 15 a6 3e d8 d5 9b 3e d9 48 f1 3d
       0.021165458 0.32438084 0.30436587 0.11781473
0001a0 4b 68 0b 3e e4 53 34 3f a8 14 4e 3d f7 1f de 3e
       0.13614003 0.70440507 0.050312668 0.43383762
0001b0 1d dd 4d 3e be 0f 85 3e 7e 7a 43 3c 39 62 a0 be
       0.2010388 0.25988573 0.01193106 -0.31324938
0001c0 ff c7 8d 3d 9f 91 f0 3e 00 e4 a1 3e f7 36 f2 bd
       0.06922912 0.469861 0.31619263 -0.1182689
0001d0 ed 47 05 3e ac fc 78 be 62 a4 25 be 99 ee d0 bd
       0.13015719 -0.24315137 -0.16175988 -0.10201759
0001e0 b9 f7 91 bd 80 92 da be f3 ad f6 be 38 9a fe be
       -0.071273275 -0.42689896 -0.48179588 -0.49727035
0001f0 e1 9e 9b 3d 0b e1 78 3d 3d ce d9 3d 07 c7 c4 3d
       0.07598663 0.060761493 0.1063504 0.09608274
000200 f2 f0 c6 3e 6a d2 bb 3e a8 58 fc bd f0 40 06 3f
       0.38855702 0.3668397 -0.12321597 0.52442837
000210 ae cc af 3a 00 9d 90 3e d6 19 fe 3b eb f7 d6 3c
       0.001341244 0.28244781 0.0077545447 0.026241263
000220 db 2b 94 3e 6d 6d 9b 3d 6d d8 0d 3e 1f 01 97 3d
       0.2893971 0.07589231 0.13852091 0.07373261
000230 db 35 ce 3d 66 7c aa 3d dc 3d da 3e 45 dc 7c 3c
       0.10068866 0.08324508 0.4262532 0.015433376
000240 50 5e 7f bb bc ab 5d bd 84 3f ad 3c 52 0c 20 bd
       -0.0038966127 -0.054118857 0.02114845 -0.03907425
000250 8f d5 09 3e ce c9 6a be b0 d2 2a be 9c 37 da 3d
       0.13460372 -0.22928545 -0.16681933 0.10655138
000260 bd 79 1a 3e 73 81 35 bd 40 b3 02 bf 86 75 00 3e
       0.15085502 -0.044312906 -0.51054764 0.12544832
000270 00 96 61 be 38 c3 5f 3e 86 69 ee be 68 e9 32 be
       -0.22029877 0.21851814 -0.46564883 -0.1747185
000280 fb d3 73 bb 44 1a 49 be f0 9c db bd e4 9f a4 be
       -0.0037205208 -0.19638926 -0.10723293 -0.32153237
000290 1d 92 37 3c d6 05 e9 bd b4 d5 cb be 37 7a 0f be
       0.01120427 -0.11378066 -0.3981148 -0.14011465
0002a0 d7 d1 1b be 39 76 f2 bd 4d 6c 57 be a3 cd 01 bd
       -0.15216766 -0.118389554 -0.21037407 -0.03169025
0002b0 da 36 4c be f5 8c 96 be 97 73 0c bf 54 b2 f7 3d
       -0.19942799 -0.29404417 -0.54863876 0.1209456
0002c0 cd 48 05 3d 38 9d a1 be 51 1b 04 be fe bb 0c 3e
       0.03254013 -0.3156526 -0.12901045 0.13743588
0002d0 07 1c ee bc 6d 9e a3 bd 6b 6e af be 20 49 3e be
       -0.029066099 -0.07989202 -0.3426393 -0.18582582
0002e0 26 8e e5 bd 5d 11 23 be 62 8d 06 be d8 b3 a2 bd
       -0.11208753 -0.15924592 -0.13139871 -0.07944459
0002f0 45 c0 45 3e d9 5b 84 3e ac 77 3c 3d f9 f2 72 3d
       0.19311626 0.25851324 0.046012565 0.059313748
000300 8b ce 15 be f3 88 aa 3d 71 fb 0d 3d 60 33 a0 3d
       -0.14629571 0.08326902 0.03466362 0.07822299
000310 58 93 72 bd f6 be 34 be 2f 53 9a bc 1b 2c 6e bd
       -0.05922255 -0.17650971 -0.018838493 -0.05814753
000320 4b 1f 06 be c4 d1 32 be 5d 16 b7 3e b4 c5 d0 bd
       -0.13097875 -0.17462832 0.3575925 -0.10193959
000330 b2 c2 34 be 0d f2 f0 be f9 e3 46 3d 4f cd 53 bc
       -0.17652395 -0.4705967 0.048557255 -0.012927367
000340 94 1c ac bd cd b0 87 be 77 55 6d 3d c2 b2 79 3d
       -0.08403888 -0.26502076 0.057942834 0.060961492
000350 06 22 68 3c 75 65 fb bd b4 63 ec 3d 83 a3 ad 3c
       0.014168268 -0.12275211 0.11542454 0.021196133
000360 ed 46 00 be c1 58 52 be de 9c 1f be 4a 0a 38 bb
       -0.12527056 -0.2054167 -0.15587184 -0.0028082305
000370 5e 05 46 3a 55 e3 c8 3e b2 5f 2c 3e 00 3b 7d 3e
       0.00075539004 0.3923594 0.1683338 0.24729538
000380 90 9d 1c 3f b6 b0 1e bd f2 ab 9b bd 35 de 12 bf
       0.6117792 -0.038742743 -0.07601155 -0.5737031
000390 04 98 9d be 95 86 dd bd f7 14 6c 3e 90 ed 94 bd
       -0.3078004 -0.10816685 0.23054872 -0.07271874
0003a0 61 5b 2d 3d eb 9e 0b 3c 09 74 10 3e 39 16 46 bc
       0.042323474 0.008521776 0.14106764 -0.012090259
0003b0 7d 90 96 bd 62 d0 e7 3c ed 83 81 3e c9 dd 16 bd
       -0.07351778 0.028297607 0.25295964 -0.036832605
0003c0 db d3 30 3c 4f e2 47 bd c5 f4 dd bd 52 ab 21 3b
       0.010792698 -0.04879981 -0.10837702 0.0024668765
0003d0 b8 59 fe bd bd 06 ed 3d 1f 05 0c 3e 4d 34 81 3e
       -0.12419456 0.11573551 0.13673829 0.25235215
0003e0 92 69 8a 3e 47 0b 94 3e 97 0e 7b bd d0 2f 5d be
       0.2703367 0.28914854 -0.06129321 -0.2160027
0003f0 1a e7 21 be fc 47 80 be 03 94 d4 3d 74 3e 40 3c
       -0.15810814 -0.2505492 0.103797935 0.01173364

conv1.bias f4 [8]
000000 78 ce 34 be 0c f6 fc 3d 04 7b af be 13 b7 81 3e
       -0.17656887 0.12351617 -0.3427354 0.25334987
000010 e1 2d 9d 3b 61 69 35 bf ed e2 8a 3e 21 86 17 bf
       0.004796729 -0.7086392 0.27126256 -0.5918904

bn1.weight f4 [8]
000000 7e f7 93 3f e8 2e 7d 3f 5c 45 8c 3f a4 69 41 3f
       1.1559904 0.988997 1.0958667 0.7555182
000010 4c 80 57 3f c2 32 7c 3f 84 85 41 3f 81 cb 6f 3f
       0.8418014 0.9851495 0.75594354 0.936699

bn1.bias f4 [8]
000000 06 f3 f0 be 67 7d aa 3d f2 01 81 be dc 4a 80 3d
       -0.47060412 0.083247 -0.25196797 0.06264278
000010 14 21 be 3c b4 3f f4 bd cf ce ce 3e 8b 92 bb be
       0.023209132 -0.11926213 0.40392157 -0.3663524

bn1.running_mean f4 [8]
000000 92 94 fe 3e aa 37 8c 3f 1b f4 74 3f 6d 6a ad 3f
       0.49722725 1.0954487 0.95684975 1.3548104
000010 ec e2 b6 3e 65 35 24 3e 41 16 f9 3f 3c 90 7a 3e
       0.35720003 0.16035993 1.9459916 0.24469084

bn1.running_var f4 [8]
000000 b6 9b b8 3f c9 68 bb 3f 10 dd d1 40 c2 15 a0 3f
       1.4422519 1.4641353 6.558235 1.250664
000010 66 23 ea 3e 24 58 9a 3e 0e 0a 34 40 16 ce d7 3e
       0.45730132 0.3014537 2.8131137 0.4214942

conv2.weight f4 [16, 8, 3, 3]
000000 44 69 06 be 5d 86 0b be a4 df 97 bc f0 9b 97 3e
       -0.13126093 -0.13625474 -0.018539257 0.29611158
000010 dc 77 72 3e d8 2a b8 3e 3c 5d 53 3e fc d9 f9 3c
       0.23678535 0.35970187 0.20641035 0.03049945
000020 95 c2 39 3e ba 27 eb 3c 62 1c 1f 3e 89 45 94 3d
       0.18140633 0.028705467 0.15538171 0.07239825
000030 f4 27 14 bd d8 73 95 3d 5a ef e4 bd 58 b0 1f be
       -0.036170915 0.07297486 -0.11178465 -0.15594614
000040 c1 53 58 be 3e c6 81 bd 75 9d 34 bd 32 1a a9 3d
       -0.211257 -0.0633664 -0.044095475 0.082569495
000050 87 f4 90 3d c6 a3 d0 3d 47 ee c3 3d 21 02 25 bd
       0.0707789 0.10187487 0.09566932 -0.040285233
000060 fb 5b a4 3e 97 45 e2 3e 28 0b 40 3e 61 ce c3 bb
       0.32101426 0.44193718 0.18754256 -0.00597553
000070 c8 64 5e bd 0d f7 b7 bd 1b f0 23 3e bf 14 e6 bd
       -0.05429533 -0.08982668 0.16009562 -0.11234426
000080 74 21 78 bd ba 97 5d 3d e1 68 0e 3e a2 c3 a0 be
       -0.06057878 0.054099776 0.13907196 -0.31399256
000090 a1 ed d7 3c 35 25 67 3e 10 4b 75 3e 66 27 6c be
       0.026358427 0.22572787 0.23954415 -0.23061904
0000a0 12 3d 55 be fc 96 a6 be 21 78 a5 bc 4d 04 6b 3e
       -0.20824078 -0.32537067 -0.020198883 0.2295086
0000b0 4a e7 86 3e 47 18 4f 3d 9f 97 10 3e 2f 89 c4 bc
       0.26348335 0.050560262 0.14120339 -0.023991195
0000c0 8f 02 14 be 11 5c b1 be 3b 78 82 bd 48 05 8d bc
       -0.14454101 -0.34640554 -0.063705884 -0.017214432
0000d0 5c c9 bc 3d 51 eb 11 3e 4e ef 26 3d 17 cd 9a 3d
       0.09218094 0.14249922 0.040755562 0.07558649
0000e0 25 18 fe bd 09 46 14 be 0b 62 5d 3e 8b 52 c7 be
       -0.12406949 -0.14479841 0.21619432 -0.38930163
0000f0 c1 e1 30 3e 4b a6 41 bc b2 64 ff bd f9 4f fa bd
       0.17273618 -0.0118194325 -0.12470378 -0.12222285
000100 99 bb 3a be fc 50 99 3c 1d 13 dc bc fd b1 5f be
       -0.18235625 0.018715374 -0.026864583 -0.21845241
000110 76 b8 25 be 72 75 3c 3e 47 08 f7 3d ad 9b 79 3c
       -0.16183648 0.18404177 0.12062126 0.01523487
000120 2f a6 2d be ca 9a 9f bd 59 db 4c 3e cf ad d7 3b
       -0.16957925 -0.077931955 0.2000555 0.006581999
000130 c7 99 fa bd 6e 39 36 be 86 4a d4 3d 33 75 5c 3d
       -0.12236362 -0.17795345 0.10365777 0.053822707
000140 8b 08 76 3e 55 d4 1d 3d 3c 39 6b bd 35 5b 91 bd
       0.24026696 0.038532574 -0.05742763 -0.070974745
000150 0b 8e 62 be 58 04 a5 3d 1e b8 18 bc ad 12 84 bd
       -0.22124498 0.08057469 -0.009321241 -0.064488746
000160 9b f1 f2 3d 55 e3 11 3e 3c 89 87 3e fb cf fb bc
       0.11862489 0.14246877 0.2647189 -0.030738821
000170 74 a9 2a 3e 45 72 17 be b1 76 fc 3c 02 c0 b1 3d
       0.16666204 -0.14789684 0.030818315 0.08679201
000180 af 80 90 3d a5 60 c4 3d 87 c0 18 3e 33 a7 2f bd
       0.070557944 0.09588746 0.14917193 -0.042884063
000190 f1 56 9c 3e fd 50 d5 3e 62 10 7c 3e e6 9b 01 be
       0.3053508 0.41663352 0.24615625 -0.12657127
0001a0 e8 fc 42 3e d4 4a 1f 3e 90 ad 60 3e c6 55 92 3d
       0.19041789 0.15555888 0.21941209 0.07145266
0001b0 ae 76 53 be 5b 0a 2b 3e 28 a2 6a 3e d7 04 61 bd
       -0.20650741 0.16703169 0.2291342 -0.054936256
0001c0 12 6d 2a bd 98 10 3d bd 7b 44 55 3e 3e d0 a1 3e
       -0.041607924 -0.046158403 0.20826904 0.3160419
0001d0 d8 05 8d 3e 8d e5 ec 3d 6a 51 d0 3d 93 9b 74 3d
       0.2754352 0.11567221 0.101717785 0.05971868
0001e0 7e 73 b0 be b1 6a 4e be a5 fe c7 be 28 74 1b 3f
       -0.34463114 -0.20157887 -0.39061466 0.60724115
0001f0 f2 fd d3 3e 75 b3 8f 3e d1 a0 49 3e 4a 79 a5 bd
       0.41404682 0.28066602 0.19690253 -0.08079775
000200 70 21 9b bd 80 1f 06 bd 75 b7 1e be 2c 61 6c be
       -0.07574737 -0.032744884 -0.15499671 -0.23083943
000210 98 b4 9a be 00 ea 83 3e 4b 00 67 3e 82 05 be 3d
       -0.30215907 0.25764465 0.22558706 0.09278394
000220 d1 c1 62 3d 18 1e 42 3e 2c d5 90 3c a5 0f 98 3a
       0.05536062 0.18956792 0.017679773 0.0011601342
000230 3f a5 98 bd 14 d2 9c 3e 41 a1 64 3e 94 94 33 3e
       -0.07453393 0.30629027 0.22327138 0.17537147
000240 30 e0 07 be 74 a4 6f be 9e 08 9a be fd a9 41 be
       -0.13269114 -0.23402578 -0.300847 -0.18912502
000250 40 79 8f bc 63 fd d8 bc 7f 2e 64 3e 5a ca 69 bd
       -0.017513871 -0.026488012 0.22283362 -0.057077743
000260 10 3b d3 3d e3 75 d4 bd 85 e9 47 be a6 6d 42 be
       0.10314 -0.103740476 -0.19522674 -0.1898714
000270 fc 58 8a bc 5e 75 c6 bd d0 6b 2b be 45 12 1f be
       -0.016888134 -0.09690355 -0.16740346 -0.15534313
000280 3d 47 ee bd e9 7e e5 bd bb e3 72 3e 3f 16 64 3e
       -0.116346814 -0.11205847 0.23719685 0.22274111
000290 3e cd d2 3d 6b d3 33 bd d0 6f 51 bd 55 b5 54 bd
       0.10293053 -0.043902796 -0.051132023 -0.051930744
0002a0 82 84 2a 3e eb 08 04 be 34 5b 47 3d f6 5c e7 bd
       0.1665211 -0.12894027 0.048670962 -0.11297028
0002b0 67 bb 48 bc 25 67 c2 3b 4f f1 64 be 06 9f 87 3d
       -0.012251711 0.005932706 -0.22357677 0.06622128
0002c0 03 70 b7 bd a6 5b 94 be ff 18 04 be 9c f7 a2 bd
       -0.089569114 -0.28976172 -0.1290016 -0.07957384
0002d0 1a 3b 94 3d dd 16 10 3e a0 39 91 bc 72 af ef bd
       0.07237835 0.14071222 -0.017727673 -0.117033854
0002e0 c3 14 bf bc ec 73 17 3e 2b 3b 71 be 1f 39 0b be
       -0.02332533 0.14790314 -0.23557727 -0.13596009
0002f0 16 3d 3a be e2 9c 8c be 67 22 27 bd e1 f4 d3 bd
       -0.18187365 -0.27463442 -0.040804293 -0.10349441
000300 5f 7d 2a 3e 74 b6 d6 bd 88 d9 9a bd 4c 1b 13 be
       0.16649388 -0.10484019 -0.07561022 -0.14365882
000310 22 ac 2f be b8 d5 0b be e5 34 ee bd e9 c2 92 bd
       -0.17155507 -0.13655746 -0.116311826 -0.071660824
000320 76 e4 22 be 06 6d 9a be 75 f4 ab be 86 c8 96 bd
       -0.15907463 -0.30161303 -0.33584943 -0.073624656
000330 76 cf 16 be 43 08 bc bd dc ec 91 be 8d 3b 6b be
       -0.14727578 -0.09181263 -0.28501022 -0.22971936
000340 c5 b7 89 be 1a 26 b1 be 57 c1 cd 3e fa d9 a0 3e
       -0.26898018 -0.34599382 0.4018657 0.31416303
000350 27 a6 4b 3e 65 bc 09 3b e5 f0 95 bc 41 6a 44 3d
       0.19887601 0.0021016833 -0.018303344 0.047952894
000360 0f e3 2f 3e 47 4d 4c 3d 10 97 2e 3d 34 b3 29 3e
       0.1717646 0.049878385 0.042624533 0.16572267
000370 7b e8 7b 3e 8b 6d 90 3e 0d 02 98 bc c6 78 85 3d
       0.24600403 0.28208575 -0.018555665 0.06517176
000380 c2 4a a1 bd ef 5a 13 bd c7 97 cb bd a3 6a 30 3d
       -0.07875587 -0.035975393 -0.099410586 0.043070447
000390 ba ca 06 3e 98 a8 1f 3e 9c 5f b8 3d e3 bf 8c 3d
       0.13163272 0.15591657 0.09002611 0.06872537
0003a0 fb d4 26 be d1 13 d0 bd e6 c0 92 3c 89 42 4a bd
       -0.16292183 -0.1016003 0.017914247 -0.04937986
0003b0 73 19 01 3e f3 56 5a be 63 85 8e ba f7 be 2e be
       0.12607364 -0.21322231 -0.0010873493 -0.17065035
0003c0 86 62 f1 3c ce 31 25 bb 18 bd 38 3e e9 9b c6 bc
       0.029465925 -0.0025206688 0.18040884 -0.024244266
0003d0 66 38 24 3e 31 9d bd bc 45 c7 2d be 80 40 d3 3d
       0.1603714 -0.023146244 -0.16970547 0.10315037
0003e0 72 07 6a be ce 4b 91 be 19 89 e9 bd 07 0f 45 bb
       -0.22854403 -0.28378147 -0.114031024 -0.0030068771
0003f0 0f 5d 74 3b 7a 29 e0 3d 3d b5 3c 3e 49 79 a0 bd
       0.0037286913 0.10945411 0.18428512 -0.07835633

conv2.bias f4 [16]
000000 0b fd 14 3d 1d c8 d7 be b0 4b 4b be a1 56 89 be
       0.036374133 -0.42144862 -0.19853091 -0.26823905
000010 40 39 b0 be 78 30 72 be 83 fd b2 be 42 15 b4 bd
       -0.34418678 -0.23651302 -0.3495904 -0.08793117
000020 23 62 70 be d7 9b 94 be d7 e9 de bd a5 12 64 be
       -0.23474936 -0.29025146 -0.10884445 -0.22272737
000030 c6 4b 6f bd 14 0e 1e be a1 d1 5b 3e 35 6b ce b9
       -0.058421873 -0.15435058 0.21466686 -0.00039371257

bn2.weight f4 [16]
000000 3f b5 85 3f 65 63 79 3f b5 36 66 3f 84 e7 82 3f
       1.0445937 0.9741729 0.89927226 1.0226903
000010 f9 6d 86 3f 6a 6d 42 3f c7 84 84 3f 79 10 78 3f
       1.0502311 0.759482 1.035302 0.96900135
000020 07 a3 44 3f 87 ed 94 3f 32 3d 80 3f 2e 32 78 3f
       0.7681126 1.1634988 1.0018675 0.9695157
000030 eb f0 36 3f 4a 6d 71 3f 7c 1a 4a 3f b1 c2 6f 3f
       0.7146136 0.94307387 0.7894666 0.9365645

bn2.bias f4 [16]
000000 ae 4d 8b 3e 5d f9 86 3d 27 60 2b 3c 56 87 c0 bc
       0.27207702 0.06590531 0.010459936 -0.023502033
000010 46 12 02 be 6e f3 38 3f 3e e2 f3 3e 48 19 38 be
       -0.12702283 0.72246444 0.47633547 -0.17978394
000020 f7 aa 86 be 5b 0a 40 be 68 7d 95 3e 52 9a 30 be
       -0.2630231 -0.1875395 0.2919724 -0.17246369
000030 3f ef 0d 3f 64 6e 89 be f1 ad df be f8 5f 06 3e
       0.55443186 -0.26842034 -0.43687394 0.13122547

bn2.running_mean f4 [16]
000000 11 7e 01 3f 73 0e 99 3e 84 c1 f6 3e ce 89 b3 3e
       0.5058299 0.29893836 0.48194516 0.35066074
000010 78 34 cd 3e b2 41 b2 3e 3f 41 72 3e 18 3e 14 3f
       0.40079093 0.34815747 0.23657702 0.5790725
000020 69 4b 84 3e f9 fa 13 3f 4e a3 18 3f c9 0c d4 3e
       0.25838783 0.5780483 0.59624183 0.41416004
000030 f9 ea 8f 3e 76 88 16 3f bd 2e d8 3f d0 b5 c3 3e
       0.28108957 0.5880197 1.6889263 0.3822465

bn2.running_var f4 [16]
000000 79 18 06 40 d8 80 ac 3f 75 e5 9f 3f cb e4 21 40
       2.0952437 1.347682 1.24919 2.5295894
000010 61 6a c0 3f 66 80 00 40 54 63 4f 3f 19 d7 78 40
       1.5032464 2.0078368 0.8101094 3.8881285
000020 15 01 46 3f a2 76 09 40 0c ed 02 40 81 93 10 40
       0.773454 2.1478658 2.0457182 2.259003
000030 56 1a 36 3f b7 a4 33 40 dd 40 b1 3f ee 80 59 3f
       0.71133935 2.8069284 1.384792 0.84962356

conv3.weight f4 [32, 16, 3, 3]
000000 ff ef bd 3d 11 3b 0e 3e a0 19 08 3c 08 e5 16 be
       0.09274291 0.1388972 0.008306891 -0.14735806
000010 01 94 d6 bd 2d 25 74 bd b0 ad 95 3d c9 92 13 3b
       -0.10477448 -0.059605766 0.07308519 0.002251791
000020 f5 5c 96 3d 68 66 96 bd 6f ea 27 bd 95 7b 53 be
       0.07341949 -0.07343751 -0.040995058 -0.20652612
000030 f0 5c 0f be 83 34 2a 3d b5 5e e1 bd 15 98 66 3c
       -0.14000297 0.041553985 -0.11004392 0.014074345
000040 83 21 5c bd 42 c1 46 be c7 91 86 bd ac 8a f1 3c
       -0.053742897 -0.1940966 -0.065707736 0.02948507
000050 f2 83 3a 3e de b7 36 3e 09 a7 84 3e 5f 55 b5 3d
       0.18214396 0.17843577 0.25908688 0.08854174
000060 a4 b2 d7 bd 4f 63 3e bd 86 b4 1c bd 89 12 98 3e
       -0.1053212 -0.046481427 -0.038258098 0.2970164
000070 ac 58 52 3a be 66 f1 3d 8f ba 8f be f1 5f 16 be
       0.00080240774 0.11787175 -0.2807202 -0.14685036
000080 a1 33 55 be ab d4 a6 3c f8 9d 3c be ad 32 3b be
       -0.20820476 0.02036508 -0.18419635 -0.1828105
000090 87 4f 40 bb 39 de 06 3e 55 ba 86 3d 4f 6c 10 3e
       -0.0029344277 0.13170709 0.06578509 0.14103816
0000a0 1c 94 13 3e 26 c1 0a 3e 6c e1 ef bd c6 2d 8f bd
       0.14411968 0.13550243 -0.11712918 -0.069911525
0000b0 fd d7 00 3e ef 89 b1 3d a8 b8 44 3c ed 24 61 bd
       0.12582393 0.08668887 0.012006916 -0.054966856
0000c0 a0 57 7f be 16 a8 18 bf d0 80 8e be 1f aa 0c 3e
       -0.2493577 -0.5963148 -0.2783265 0.13736771
0000d0 ae 27 93 3d 9e 5f 0d 3e fb cf 5f be 05 86 a4 bd
       0.07185303 0.13806006 -0.21856682 -0.08033375
0000e0 2e 91 1d bb b5 8a 50 3e 9c 96 27 3e c5 56 2c 3e
       -0.0024042833 0.20365413 0.16366047 0.16829975
0000f0 c7 d5 38 3d 6b 3e 7c bc 5a 9c 0b bd 9e a2 7f 3e
       0.04512575 -0.015395741 -0.034084655 0.24964377
000100 73 82 29 3d b7 63 7e 3e 38 0c c1 bd 92 4b c2 bd
       0.04138417 0.24842726 -0.09426159 -0.0948707
000110 22 29 0b be 56 02 34 be d2 e5 60 be 17 69 af bd
       -0.1358991 -0.17579016 -0.2196267 -0.08564966
000120 10 61 20 bd 71 ed 77 bc 0e 7e 9a bd 4a 09 36 be
       -0.039155066 -0.015132294 -0.07543574 -0.17776981
000130 a4 e4 9e bd e3 46 96 bc 2b 92 a1 3d 04 0d ff bd
       -0.077584535 -0.018344348 0.078892075 -0.124536544
000140 18 ee 90 3d 9a 91 a1 3e a1 ef 39 3e 5d 35 98 3e
       0.07076663 0.31556398 0.18157817 0.29728213
000150 69 0f f7 bd 9c 74 56 bd 0c 99 a4 bd 57 43 88 3c
       -0.12063486 -0.0523573 -0.08037004 0.016633673
000160 02 77 35 3d 17 2e f5 bd b5 08 03 be 6c 5a 4f bd
       0.044302948 -0.119716816 -0.1279629 -0.050623342
000170 a8 fc 0c be 6e 5d 2b 3e bc f5 81 3d 2a a5 17 3e
       -0.13768256 0.1673486 0.06345698 0.14809099
000180 90 39 5e bd 89 61 4a 3e eb ee 3c be e9 a3 81 3e
       -0.054254115 0.19763769 -0.18450515 0.25320366
000190 75 d3 00 3e d1 19 3f 3c 1a 2b cf bd 00 fe 2f 3d
       0.12580664 0.01166387 -0.10115643 0.042966843
0001a0 cf db d8 3b 87 b1 45 be 2e 77 df 3b 60 c7 f1 bd
       0.006618 -0.19306003 0.0068196272 -0.11805606
0001b0 ac 22 f8 3d b0 48 92 3e 14 41 12 3e 2f 92 5f bd
       0.12115988 0.2857108 0.14282638 -0.05458277
0001c0 b5 f4 19 be d8 0e 7a be c8 c8 d6 3c 98 4b bf 3c
       -0.15034755 -0.24419725 0.026218787 0.023351476
0001d0 f9 f2 1c be d4 6c f9 3d 4c 3b 37 3e 41 fd 20 3c
       -0.15327062 0.121789604 0.17893714 0.009826005
0001e0 36 7d 0c 3e 84 9c 76 bd 18 3c 92 bd 25 22 0b 3e
       0.13719639 -0.06020786 -0.07140368 0.13587244
0001f0 a8 cd 3b 3e c6 5e 33 3e a3 ec 8c bd f6 2a 30 be
       0.1834017 0.17516622 -0.06881072 -0.17203888
000200 50 83 24 be 5c c4 11 be 47 70 fd bd 01 17 b8 bd
       -0.16065717 -0.14235061 -0.12374931 -0.08988763
000210 a8 7e 50 bd a8 96 62 be 54 61 ba bb 4c 65 82 be
       -0.05090204 -0.22127783 -0.005687872 -0.25467908
000220 5b 15 1a be e6 c5 2b bd b9 2e a9 be 5a 23 00 bf
       -0.15047209 -0.041936778 -0.3304346 -0.5005394
000230 de e7 98 be e9 a0 22 3d b2 bf 9c bd a9 30 94 3a
       -0.298644 0.039704237 -0.076537505 0.0011306006
000240 da 45 97 be 7b e4 ad be 06 db 91 be 9d f0 c8 bd
       -0.2954548 -0.3396338 -0.28487414 -0.09811518
000250 2f 21 47 be 94 1e 7f 3d 29 d2 b4 bd 22 30 63 3c
       -0.19446252 0.06228502 -0.08829147 0.013866456
000260 67 a0 11 3e 39 91 1a be 39 04 a8 bd 00 c5 2d be
       0.14221345 -0.1509446 -0.082039304 -0.16969681
000270 73 3a 89 bb 16 4e 1a 3e 4d 08 e6 3d cf 0d 1f bd
       -0.004187876 0.1506885 0.11232052 -0.03883153
000280 2a eb 33 bd 67 ac 24 3e e6 51 30 be 1f 28 2e bc
       -0.04392544 0.16081391 -0.17218742 -0.010629683
000290 8c 87 e6 bc 44 6d 5b 3d df 0d 73 3c 69 cc f8 3c
       -0.028140806 0.053571 0.01483485 0.030370908
0002a0 27 f8 c6 3b d2 ff 8f 3d e0 14 d2 3d 84 c1 3a be
       0.0060720625 0.07031216 0.10257888 -0.18237883
0002b0 b1 60 e8 3d 94 9b 23 3d 7c 25 dc 3d e2 fb de 3d
       0.113465674 0.039943293 0.10749337 0.108878866
0002c0 a0 2e a0 3d 3a 6b 87 3d 1b 0f 93 3d c5 ef 17 3e
       0.07821393 0.06612249 0.071806155 0.14837559
0002d0 86 b9 b4 3a 53 f1 dd 3d f7 ec 2e 3e fe 5e ae 3d
       0.00137882 0.108370446 0.17082582 0.08514212
0002e0 91 97 99 bd dd 59 d8 3d b7 f5 dd 3d d5 4a 9b 3c
       -0.07499612 0.10564015 0.10837882 0.018956581
0002f0 ec d2 fc 3d a4 b0 ac 3d 2b a0 d7 3a c9 30 93 bd
       0.12344918 0.08432129 0.0016450932 -0.071870394
000300 e9 40 5d 3e 02 3b b5 3c 6e b6 1b bd dd 5a fd 3d
       0.21606793 0.022122864 -0.038015775 0.123708464
000310 00 de 5a bd 7b f1 ba 3d 36 d4 23 3c de 6f 30 3d
       -0.053434372 0.0912809 0.0099993255 0.043075435
000320 07 d1 39 3e aa f7 44 be d8 26 82 be 6e 18 69 be
       0.18146144 -0.19235101 -0.2542026 -0.22763225
000330 5a 6e 8f be 5f 13 39 be 85 f0 ca bd 5e 5f c4 3d
       -0.2801388 -0.18073796 -0.09909157 0.09588502
000340 cc de e5 3d c7 ec 10 bd e8 44 da 3d bb b6 c1 bc
       0.11224136 -0.03538206 0.10657674 -0.023646703
000350 c8 15 04 3e 69 19 b7 3d 5b cc 6f 3e e4 03 14 3e
       0.12898934 0.089403935 0.23417799 0.14454609
000360 90 21 1a 3e 83 62 bc 3e f8 c7 9f 3e d2 36 f2 bc
       0.15051866 0.36793908 0.31207252 -0.029567156
000370 71 fd 7e 3d 7b 98 70 3c 9e e1 b9 bd a1 42 8b bd
       0.06225342 0.014684792 -0.09076236 -0.06799818
000380 e7 35 13 3e 4c 7c 8c 3e 17 77 bd 3e 91 db 60 3e
       0.14376031 0.2743858 0.3700492 0.21958758
000390 22 32 8d be 8a de 5a be 84 f7 1f be a4 86 d0 bd
       -0.2757731 -0.21373954 -0.15621763 -0.10181931
0003a0 49 51 f2 3d 20 50 1f 3e 26 d9 b5 be 85 cf c5 be
       0.1183191 0.15557909 -0.35517234 -0.38634887
0003b0 75 87 15 be 2e 4b 1f be b8 44 bb be 3c 09 c9 3c
       -0.14602454 -0.15556023 -0.36575866 0.024540536
0003c0 ff cf fe 3d 83 8f d3 3c 6b b3 18 3e 79 96 1a be
       0.12442016 0.025825268 0.14912193 -0.15096463
0003d0 b1 27 a7 be d0 83 a7 bd fe ab 00 3d 27 85 30 bd
       -0.3264747 -0.08179438 0.031414025 -0.043095734
0003e0 9a b9 36 3c cf e9 56 3c 0a 53 20 3e c0 2b 29 3d
       0.011152649 0.013117268 0.15656677 0.04130149
0003f0 0a ea 86 3c 4b a9 f4 3c 76 5b 5c bc c4 f1 9b bd
       0.01646902 0.029865881 -0.01344954 -0.076144725

conv3.bias f4 [32]
000000 aa c7 a7 bd 55 00 ba be 95 7f bf be 8c 72 e8 bb
       -0.0819238 -0.36328378 -0.37402025 -0.007093733
000010 0f 23 e8 bc cc 53 2a 3b be 3f 8a be 55 50 40 be
       -0.02833703 0.0025989888 -0.27001756 -0.18780644
000020 ed ed 5e 3c fc c5 94 be 2d f2 84 be b2 e0 1f be
       0.013606531 -0.290573 -0.25966015 -0.15613058
000030 77 86 48 be 86 b6 1e be b2 38 12 bf 91 f1 d1 bd
       -0.19582544 -0.15499315 -0.5711776 -0.10251153
000040 3f 15 34 be ab d4 8c be 0a 71 f4 bd 8f 73 86 be
       -0.1758623 -0.27506003 -0.11935623 -0.2626004
000050 e5 a8 fd bd 84 0e 9e be 70 14 03 be 28 e7 9b 3d
       -0.1238573 -0.3087045 -0.12800765 0.07612449
000060 f4 68 fd be 84 f0 b7 be 85 df f6 bd 66 9f ba 3a
       -0.49494135 -0.35925686 -0.12054352 0.0014238178
000070 52 bd cf be d4 4d 7e be d1 5b c6 be fd ef 7d be
       -0.40574127 -0.24834377 -0.38741925 -0.2479858

bn3.weight f4 [32]
000000 c7 67 7c 3f 9c 7c 90 3f 86 5a 7f 3f 9e 2f 7b 3f
       0.9859585 1.1288028 0.997475 0.98119533
000010 61 6b 7c 3f cf 55 7e 3f 90 12 7b 3f 40 aa 80 3f
       0.9860135 0.99349684 0.980752 1.0051956
000020 5a 0a 39 3f fb d5 83 3f bc 87 64 3f fe 40 6c 3f
       0.7228142 1.0299677 0.89269614 0.9228667
000030 1e 6b 83 3f 20 b8 72 3f 8f 69 83 3f 0b d2 65 3f
       1.0267065 0.948122 1.0266589 0.89773625
000040 d2 7e 7a 3f 6d e9 7d 3f 0d 50 5c 3f 04 99 60 3f
       0.9784976 0.99184304 0.8605965 0.87733483
000050 cd 40 76 3f df 2e 85 3f 7e 3a 55 3f ca 07 87 3f
       0.9619263 1.0404929 0.83292377 1.0549252
000060 bd 34 91 3f 28 8b 63 3f 62 91 82 3f 37 af 48 3f
       1.134422 0.8888421 1.0200617 0.78392357
000070 96 11 83 3f 6b dd 83 3f 72 ff 5f 3f 4c 11 84 3f
       1.0239742 1.0301946 0.87499154 1.0317779

bn3.bias f4 [32]
000000 5e 83 31 3f 70 00 a0 bb 01 30 2d 3d 24 9e 5a 3d
       0.69341075 -0.0048828647 0.04228211 0.05337347
000010 7e 78 84 3e c0 a3 80 3c cf e9 e5 3b 7d ba dc 3d
       0.25873178 0.015703082 0.0070163975 0.10777757
000020 c6 0b 20 3f 1e ab 2e 3c 4f 02 6e bd 88 6e 3d be
       0.62517965 0.010660915 -0.05810767 -0.18499196
000030 45 df fb be 8b 78 06 3e 1b 1c 17 3f 86 ef f0 bb
       -0.4919378 0.13131921 0.5902726 -0.007352772
000040 91 b3 13 be 8c 53 84 3e 88 df 98 bd c0 2a f3 be
       -0.14423968 0.2584499 -0.0746451 -0.47493553
000050 03 21 46 be 3d e0 59 be a2 6a 9b be 48 4c 8e 3e
       -0.1934853 -0.21276946 -0.30354792 0.27792573
000060 84 95 0b 3e 03 22 96 3e 2e 60 a5 3e 8f e4 01 3f
       0.13631254 0.29322824 0.32299942 0.5073938
000070 d5 42 c6 3e 88 f3 20 be 33 76 00 3e c2 86 4c 3e
       0.38722864 -0.157179 0.1254509 0.19973281

bn3.running_mean f4 [32]
000000 c8 2f bc 3e 00 87 e8 3d 1b 5a 92 3d f4 88 14 3e
       0.36755204 0.11353874 0.071460925 0.14505368
000010 dc 59 b8 3f 23 07 ad 3e a1 3a 61 3e 22 75 53 3e
       1.4402423 0.33794507 0.21995021 0.20650151
000020 37 53 5c 3d a8 89 18 3e 0a 55 fd 3c e0 43 0b 3f
       0.053790297 0.14896262 0.030924339 0.54400444
000030 ee c2 13 3f 57 21 29 3e f9 3c cf 3d 5b 1a c0 3e
       0.57719314 0.16516624 0.101190515 0.37520108
000040 85 85 e6 3e 72 52 bb 3c 93 b6 89 3d 33 aa 45 3e
       0.45023742 0.022866461 0.067242764 0.19303207
000050 3a 35 75 3e 26 c3 a9 3d 33 46 04 3e 78 92 71 3f
       0.23946086 0.08289175 0.12917404 0.9436412
000060 4a cf 05 3e 06 b8 b0 3e c8 83 67 3e 80 4d 76 3e
       0.13067356 0.345154 0.22608864 0.24053001
000070 47 dc 6c 3d 37 9b 02 3e 7b 4b 6b 3d ba 8a 90 3d
       0.05782726 0.12754522 0.05744503 0.0705771

bn3.running_var f4 [32]
000000 3d b1 da 3f a7 8e fc 3e 30 7b 81 3e a2 14 d8 3e
       1.7085339 0.49327585 0.25289297 0.42203242
000010 e3 ec 8c 3f cf 32 bb 3e e8 38 5a 3f 81 ce 89 3f
       1.1009792 0.365622 0.8524308 1.0766145
000020 25 0c 3b 3e 72 06 1b 3f fd cd 98 3d db 6b 62 40
       0.18266352 0.6055671 0.07461164 3.537833
000030 14 a9 ba 40 0e 86 4d 3f 54 1d f9 3e 96 92 b2 3f
       5.8331394 0.80282676 0.48655188 1.3950984
000040 20 e0 d2 3f df bf 34 3d 0b af f3 3d 4a 05 87 3f
       1.6474648 0.044128295 0.11898621 1.0548489
000050 65 2e 89 3f 47 a5 b8 3e 49 0a 23 3f 4c f7 51 40
       1.0717283 0.36063597 0.6368757 3.2807188
000060 c9 92 21 3f c0 22 02 40 9c 6c 5f 3f 65 48 20 3f
       0.631146 2.033371 0.872751 0.62610465
000070 de 36 18 3e db 98 10 3f 1a 87 2b 3e f2 ae 44 3e
       0.1486468 0.5648324 0.16750756 0.19207361

conv4.weight f4 [64, 32, 3, 3]
000000 cc d7 d6 3c 1f 5e 5b 3b 11 af f7 bd 9f 30 16 be
       0.026225947 0.0033472849 -0.12093938 -0.14666985
000010 6a 11 97 be 8d 19 b4 be c0 32 90 3d 98 e1 43 bd
       -0.29505473 -0.35175744 0.0704093 -0.047822565
000020 88 5e ae 3d 9e 2a 14 be 9a ff 90 3d 5d 5e 67 3e
       0.08514124 -0.14469382 0.07080002 0.2259459
000030 c3 28 35 be 74 a1 28 be dc 8d d6 bd 8f bd 3f 3e
       -0.1769133 -0.1646784 -0.10476276 0.18724655
000040 dd 85 0a 3d 39 3b 74 3b 3e c2 99 3b 28 0e 64 bd
       0.03381907 0.0037266745 0.004692345 -0.055677563
000050 bf f1 b2 bd d6 27 20 be fa 18 2b bd 95 ed f8 bc
       -0.08737516 -0.15640196 -0.041771866 -0.030386725
000060 13 d1 d2 3d 86 7b 6e 3d 3d ff b2 3d f2 8e 24 be
       0.10293784 0.05822327 0.08740089 -0.16070154
000070 d2 f5 87 bd 79 fa 1d be c7 19 c2 bd dd 9d 00 be
       -0.066386834 -0.15427579 -0.09477573 -0.1256022
000080 7b 64 61 bd 15 4b 42 bd 78 34 f2 bd 90 80 1b bd
       -0.055027466 -0.047434885 -0.11826414 -0.037964404
000090 ea 08 b8 bd ac 79 62 be c3 18 5d be cc a5 ba 3d
       -0.08986075 -0.22116727 -0.21591477 0.091136545
0000a0 b6 3d 9b bb 1c 1c 8a 3d 6d 19 ad 3c 68 1b 05 be
       -0.004737581 0.06743643 0.021130288 -0.12998736
0000b0 7d a0 b0 3b 60 a0 21 3d 51 df 4f 3c 4c 8d cf 3d
       0.0053902254 0.039459586 0.01268752 0.10134372
0000c0 88 6c 0a bd e4 10 97 bc 61 bb 90 bd d7 3a 79 3c
       -0.03379491 -0.018440671 -0.0706699 0.015211782
0000d0 52 ac d5 bc c1 ff 36 bc 8b 70 e1 bd 09 4f e2 bd
       -0.026083145 -0.011169375 -0.11007794 -0.11050231
0000e0 13 79 17 be 87 69 8a bd a6 a4 a2 bc 42 d1 36 3c
       -0.1479228 -0.06758409 -0.019853901 0.011158289
0000f0 b9 ae 43 be 7e 74 a4 bd 42 e7 ea 3c 0b 81 00 be
       -0.1910962 -0.080300316 0.028674725 -0.12549226
000100 6f bb a0 bd 5f fa a5 bc b1 e1 0a 3e 04 86 79 3e
       -0.0784825 -0.020260988 0.13562657 0.24367529
000110 db 71 07 3e c7 f8 3f bd 0f ca 20 3c 38 9f 05 3e
       0.13227026 -0.046868112 0.0098137995 0.13049018
000120 c2 bf a4 3d af cd e8 3c 8e ff a0 bc f2 2e a6 3d
       0.080443874 0.02841839 -0.019653108 0.08114423
000130 e5 0d 62 3d 99 23 ea 3c 70 eb 8e bc 4d 98 5c bd
       0.055189032 0.028581427 -0.01744625 -0.053856183
000140 99 4d 9d bd 22 04 b4 3c ae 4f 5f ba 2b cc 26 3c
       -0.07680816 0.021974627 -0.0008518648 0.010180513
000150 b8 57 d4 be fe 83 1e be b8 31 f5 bd 3f e1 39 3e
       -0.41473174 -0.15480039 -0.11972374 0.18152331
000160 6b eb 62 3e 1e 2d 0e 3e f1 85 0c be 12 f9 8a be
       0.22160117 0.13884398 -0.1372297 -0.2714315
000170 39 5e 0b be 5a f3 48 3e da 75 15 3e 39 fb d0 3c
       -0.13610162 0.19624081 0.14595738 0.025510417
000180 49 e4 c2 3d d9 0b ce 3c f6 95 89 3d 7d 9a 32 3e
       0.09516198 0.025152134 0.06718056 0.17441745
000190 a7 9e a2 3d dc 9c bd 3d f8 af e5 ba e3 aa 82 3d
       0.07940417 0.09258434 -0.0017523756 0.0638025
0001a0 b9 34 13 3e 91 98 02 3b 0d f8 3f 3c be b6 1b 3c
       0.14375581 0.0019927362 0.011716855 0.009504018
0001b0 d7 20 57 bd 9d 1b 35 bd d5 b7 37 bc 8f 32 83 3c
       -0.052521553 -0.044215787 -0.011213263 0.01601532
0001c0 76 fc a6 3c e3 0d 13 3e 49 14 81 be 65 fd 52 be
       0.020384055 0.14360766 -0.2521079 -0.20604475
0001d0 a9 51 97 bd c3 d7 0b 3d f6 e9 31 3d 21 ca 48 bd
       -0.07388622 0.034141313 0.043436013 -0.04902089
0001e0 ca 40 cb 3d 82 ac 98 3c fb 8e 7c 3c f7 1e 3f 3d
       0.09924467 0.018636946 0.015414949 0.04666039
0001f0 e2 8e 67 be 14 de 61 bd 88 ab 7c 3d 06 d8 40 3c
       -0.22613099 -0.05514343 0.061687022 0.011770254
000200 a3 5b 97 3d 61 a9 dc 3d 92 6f 3e 3e 65 02 a4 3d
       0.07390525 0.10774494 0.18597248 0.08008269
000210 9d fd a7 be df 1e bc be 02 2f 83 be d3 22 57 bc
       -0.3281068 -0.36742303 -0.25621802 -0.013130861
000220 3a a1 14 3d 62 e8 45 3b a8 c6 5e 3d d4 72 40 3e
       0.03628657 0.0030198325 0.054388672 0.18793803
000230 3d 2e df 3d 70 95 d6 bc 37 0f b3 3c 2c 1a be 3d
       0.10897491 -0.026194304 0.021857841 0.09282336
000240 96 47 ae 3c 9f 86 05 be 6a d6 04 be dc e7 9f bd
       0.02127437 -0.13039635 -0.12972417 -0.078078955
000250 6c 8f d7 bd 43 10 71 bd 91 c4 cb 3d 1a 70 a9 3d
       -0.105254024 -0.0588534 0.099496014 0.08273335
000260 3f f1 fc bc 33 2d 3a 3e b0 3d 43 3e 73 ef 10 3e
       -0.030876754 0.18181305 0.190665 0.14153843
000270 21 af 98 bd 5c 4e c8 bd 09 0c 8b bd f3 5b 20 3d
       -0.07455278 -0.09780571 -0.06789405 0.03915019
000280 21 8d 0b 3e 80 91 18 3e fd 09 e4 3c 22 01 aa 3d
       0.13628055 0.14899254 0.027836794 0.08300997
000290 84 94 09 3e 87 be e0 3b b0 61 cf bd dd 56 9b bc
       0.1343556 0.00685865 -0.10126054 -0.018962318
0002a0 41 62 b3 3d 1a 88 6e 3d 12 ab c2 bd 88 7c 2d 3e
       0.08758975 0.058235265 -0.09505285 0.16942036
0002b0 a0 71 44 3e e6 d2 32 3e 78 16 47 3d da 08 4a be
       0.1918397 0.17463264 0.048605412 -0.19729939
0002c0 ed 2a 71 be c6 3d 98 bd 75 f0 8a bd db 08 de bc
       -0.23551531 -0.07433657 -0.06784145 -0.027103832
0002d0 e5 34 9e 3b f1 3c 3e bd f5 32 66 bd 92 db 22 bd
       0.004828083 -0.046444837 -0.05620094 -0.03976018
0002e0 38 a0 ea bd 00 39 8f be b0 74 86 bd 14 12 fc bb
       -0.114563406 -0.27973175 -0.06565225 -0.007692585
0002f0 f8 99 fb 3c 97 98 3a be e5 75 1e be e6 e5 e8 bd
       0.030713066 -0.18222271 -0.1547466 -0.11371975
000300 03 87 5e 3e 6b b9 27 3e 02 b7 1e 3e 40 14 02 3e
       0.2173119 0.16379325 0.154995 0.12703037
000310 89 c8 9a bc 4d df c4 3d 5b 47 80 bd 69 c6 0b be
       -0.01889445 0.09612904 -0.0626361 -0.13649906
000320 43 45 b6 bd d2 cc 23 3e cb 0a d7 3d c8 a9 96 bd
       -0.088999294 0.15996101 0.105001055 -0.07356602
000330 19 84 5a 3e 38 8c 29 3e 37 01 d3 3c 28 5a 79 3e
       0.21339454 0.16557395 0.025757415 0.24350798
000340 98 11 ec 3d 05 06 39 3d dd b7 d3 3c 02 ba a6 3b
       0.11526793 0.045171756 0.025844509 0.005088092
000350 84 ce 0c 3e 51 10 ad be 97 98 86 be c0 23 b1 be
       0.13750654 -0.3380151 -0.26288292 -0.34597588
000360 00 54 e1 3c 67 46 9e bd 97 8c 36 be 5f 83 ed 3c
       0.027505875 -0.07728272 -0.17827068 0.028993307
000370 1b a6 8b 3c fb dc 9e 3d 37 4a 77 3d dd 3c b3 3d
       0.017046979 0.077569924 0.06037351 0.08751843
000380 db a4 2c 3e b5 e8 85 3e d6 de 02 3e 5c 38 14 bd
       0.16859762 0.26154104 0.12780318 -0.03618656
000390 8f 7c 24 3e ed 97 33 3d c7 84 8e 3d 8b 2d 67 3d
       0.1606314 0.04384606 0.06958919 0.056439918
0003a0 77 29 cb 3c ab 62 18 bd ac 5f 63 3e 29 3a 29 3e
       0.024800045 -0.037203472 0.22204465 0.16526093
0003b0 ca 8c 65 3e 76 80 d6 bd b0 02 62 be 2f c8 6c be
       0.22416988 -0.10473721 -0.22071338 -0.23123239
0003c0 56 f1 98 be 7e 67 39 be b5 60 1b be 66 a5 f8 3d
       -0.29871625 -0.18105885 -0.1517361 0.12140922
0003d0 cd 60 0e 3e 94 8e e2 3d 83 86 3e 3e d6 ab 9e 3d
       0.13904114 0.11062351 0.18606 0.07747619
0003e0 d8 b5 9e bc a8 c2 6b be af 26 14 be 18 c6 84 bd
       -0.01937382 -0.23023474 -0.14467882 -0.06483096
0003f0 67 24 38 be f8 f8 a7 be ab c3 a3 be 81 41 9e bc
       -0.17982636 -0.32807136 -0.3198522 -0.019318344

conv4.bias f4 [64]
000000 28 6c 58 bd 77 aa e7 bd 47 7f ca bd 7d f2 a8 bd
       -0.05283752 -0.113118105 -0.098875575 -0.08249376
000010 9b 8a d1 bb 4e 77 70 3d 16 47 a7 be 11 78 4a be
       -0.006394697 0.058707528 -0.32671422 -0.19772364
000020 46 8f 1d 3e 02 76 3a bd 61 fc 86 be a3 c8 25 be
       0.15386686 -0.045522697 -0.26364425 -0.16189818
000030 53 1b 40 3d 48 00 43 be 67 f0 be 3e 2a 74 8f bd
       0.04690106 -0.19043076 0.37292787 -0.070045784
000040 70 9e 2f be 25 74 6b be 7d 39 af be 32 26 80 3d
       -0.17150283 -0.22993524 -0.34223548 0.06257285
000050 cb 6e a5 bd d8 1f 4a 3d 28 96 94 be 79 3d ea 3d
       -0.08077773 0.049346775 -0.2902081 0.11437506
000060 08 59 9b be 31 2b e4 bd 51 a2 9a 3e 7c 13 69 be
       -0.30341363 -0.111410506 0.30201963 -0.22761339
000070 38 5f e6 bd b4 fd c2 bd 67 a6 cc be 2b 78 22 be
       -0.1124863 -0.09521046 -0.39970705 -0.15866153
000080 43 6c be 3e 66 e4 6f be 72 84 c5 be 82 10 e2 bd
       0.37191972 -0.23426971 -0.3857761 -0.11038305
000090 66 30 fa be f6 a5 8f be 3a 7a 9b bd 42 6f 0e bd
       -0.4886505 -0.28056306 -0.07591672 -0.034774072
0000a0 cf d5 2e 3e 56 e1 c8 bd f3 50 16 bf af 6e 87 bd
       0.17073749 -0.098086044 -0.5871727 -0.06612908
0000b0 84 ac 9f be 33 7a 29 be 1d 2f 0c 3d f6 6c 81 3d
       -0.31186306 -0.16550522 0.03422462 0.06319611
0000c0 c5 ea 44 3d 64 55 aa be 12 e7 68 be b0 98 c6 be
       0.048075456 -0.33268273 -0.22744396 -0.38788366
0000d0 e2 f8 d7 be 85 47 e5 bd 90 2c a7 be 21 58 16 be
       -0.4218207 -0.11195282 -0.32651186 -0.14682056
0000e0 dc 8a 57 be 8e b3 00 bf 6b 3f 9e be f3 56 c5 3d
       -0.21049064 -0.5027398 -0.3090776 0.09635725
0000f0 83 d6 fb bd de 9f 9c be ca 8e dc be 32 e1 bc be
       -0.12296774 -0.3059072 -0.4307769 -0.3689056

bn4.weight f4 [64]
000000 4c d3 40 40 1d 1a 86 40 09 0a 40 40 d7 b5 3e 40
       3.0128965 4.1906877 3.0006125 2.9798486
000010 7f 30 3c 40 db 87 25 40 20 2b 5a 40 07 25 5d 40
       2.94046 2.586417 3.4088821 3.455385
000020 be 5f 16 40 51 91 26 40 22 94 65 40 42 35 7a 40
       2.3495936 2.6026194 3.5871663 3.9095006
000030 7e 04 23 40 47 b5 48 40 aa 52 09 40 8a 1d 07 40
       2.5471492 3.1360643 2.1456704 2.111178
000040 6b e6 60 40 8b f0 e9 3f b3 0b 6e 40 66 51 32 40
       3.5140636 1.8276533 3.719464 2.7862182
000050 00 5e 51 40 40 fc 08 40 e6 8d 84 40 f3 24 47 40
       3.2713623 2.140396 4.1423216 3.1116302
000060 25 1e 67 40 c9 3d 77 40 da cc 0c 40 ea 44 59 40
       3.6112149 3.863146 2.2000031 3.3948312
000070 38 da 92 40 7c 5a 69 40 bf 65 88 40 24 7e 75 40
       4.589138 3.6461477 4.26242 3.835824
000080 20 60 10 40 3e 76 80 40 65 84 54 40 a2 f6 34 40
       2.255867 4.014434 3.3205807 2.8275533
000090 27 fb 84 40 03 cd 78 40 c4 14 3c 40 83 e7 11 40
       4.1556582 3.887513 2.9387674 2.2797554
0000a0 fe d2 0c 40 6b 96 62 40 9d 1f 92 40 a8 81 2a 40
       2.200378 3.5404308 4.566359 2.6641636
0000b0 0b 7e 48 40 2e 83 5b 40 b5 5a 1e 40 70 b4 26 40
       3.132693 3.4298816 2.4742863 2.604763
0000c0 66 ff 34 40 be e4 87 40 4d 7e 84 40 03 20 8c 40
       2.8280883 4.2466726 4.1404176 4.3789077
0000d0 cf 69 8c 40 bf 24 68 40 80 e8 96 40 9a 06 8b 40
       4.387916 3.6272428 4.7158813 4.344556
0000e0 a2 06 70 40 d3 d4 87 40 14 cc 85 40 dc 37 18 40
       3.7504048 4.2447295 4.181162 2.3784094
0000f0 ea ac 3b 40 48 12 7a 40 21 5a 5f 40 af 77 84 40
       2.9324288 3.9073658 3.489876 4.13961

bn4.bias f4 [64]
000000 2c b6 24 be 20 a6 66 be 11 9e 86 be 5a 06 84 3e
       -0.16085118 -0.22524309 -0.2629247 0.25786096
000010 b9 66 fa bd de f8 2f be ef d7 7a 3e 26 85 70 be
       -0.12226624 -0.17184779 0.24496435 -0.23488292
000020 8a e9 8f be dd 86 24 be df d5 48 be a8 49 9b be
       -0.28107864 -0.16067071 -0.19612835 -0.30329633
000030 c9 bb f4 3d b1 f3 1e 3e b6 19 4e 3e 8a e3 26 3e
       0.1194988 0.15522648 0.20126995 0.16297737
000040 3f 66 d8 3d 2c fd 31 be 38 45 1e 3e 9b f1 b2 3e
       0.10566377 -0.17381734 0.15456092 0.34949955
000050 db a3 3a be 90 f3 4d 3e e7 c0 27 3e 0b 4e bf 3e
       -0.18226568 0.20112443 0.1638218 0.3736423
000060 bd 6e 55 be ad a8 5f 3e 16 65 80 3e c4 38 47 be
       -0.20843025 0.21841688 0.25077122 -0.19455248
000070 a7 36 ad 3e 6d 3b 5e 3e 7b 7c 86 be 42 7c 68 3e
       0.3383076 0.21702357 -0.26266846 0.2270365
000080 33 0d 9b 3e 3b c4 c8 3d a1 20 23 be 9a 70 09 3e
       0.30283508 0.09803053 -0.15930416 0.1342186
000090 e0 ea 38 be a4 61 ed 3d 19 30 50 3e 70 1c 56 3e
       -0.18058348 0.11590889 0.20330848 0.20909286
0000a0 46 a1 08 be 13 0d 43 be 1d ba 25 3e 06 6f 42 be
       -0.13342771 -0.19047956 0.16184278 -0.18987665
0000b0 65 99 ee 3d be db 6c 3e fe 61 35 3e 10 3b 73 3e
       0.116503514 0.231307 0.17713162 0.23753
0000c0 d3 e1 54 3e 6d 2c 54 be ed c1 2a be f4 2f 8c 3e
       0.2078927 -0.20720072 -0.1667554 0.27380335
0000d0 a7 f3 27 be 5f 67 44 be 9a 4d c9 be fe f4 f9 bd
       -0.1640154 -0.19180058 -0.39317018 -0.12204932
0000e0 ba 19 25 be 65 76 56 be e5 5a 8c be 25 09 43 3e
       -0.16123095 -0.20943601 -0.27413097 0.19046457
0000f0 ab 43 03 3e 75 40 f4 bd 18 b2 1d 3e df 0c 87 be
       0.12818782 -0.11926357 0.15399969 -0.26377007

bn4.running_mean f4 [64]
000000 25 c0 e5 3d 95 62 35 3d 09 94 08 3f 80 38 7b 3d
       0.11218289 0.04428347 0.53350884 0.06133318
000010 d0 35 c5 3d c4 33 25 40 6f 93 85 3d 3d 7c 4d 3d
       0.096294045 2.5812845 0.06522261 0.05016731
000020 75 2a d4 3f 5a 5f 59 3f a3 4d 01 3d a6 e5 fc 3c
       1.6575457 0.8491112 0.03156818 0.030871224
000030 8c 10 0b 3f db fb 0c 3e 88 bc 09 40 fd 61 78 3e
       0.54322124 0.1376795 2.152132 0.2425613
000040 27 e8 a2 3d 29 50 5c 3d ce 6c 2f 3d be ed 98 3f
       0.07954436 0.053787384 0.042828374 1.1947553
000050 81 39 ec 3c a1 11 4b 3f 16 b6 c3 3c b1 a9 21 3f
       0.028836014 0.79323775 0.023890536 0.63149554
000060 91 6d 68 3d e0 75 05 3e bb 4b 7a 40 d1 33 be 3d
       0.056745116 0.13033247 3.9108722 0.09287227
000070 15 5e eb 3c 16 8c 9a 3d ab 9b ec 3c e1 c5 34 3d
       0.028731385 0.075462505 0.028882822 0.044134025
000080 54 96 ec 3f b8 d8 99 3d 84 c2 75 3d 98 5b 9e 3d
       1.8483377 0.07512039 0.059999958 0.07732314
000090 5f fe 1e 3d 66 d4 98 3d b9 f4 03 3e aa e8 13 3e
       0.038816806 0.07462387 0.12886323 0.14444223
0000a0 75 0e d3 3f 20 cd 21 3d f8 4a 7d 3c e9 4e 6a 3e
       1.6488787 0.039502263 0.0154597685 0.22881664
0000b0 c8 85 95 3d 30 5b ad 3d 23 30 f3 3e 66 4e 8d 3f
       0.073009074 0.08464658 0.47497663 1.103955
0000c0 e1 cc 5c 3e 0d bf de 3c 17 dc 5a 3d 91 16 02 3d
       0.2156253 0.02719071 0.05343255 0.031759802
0000d0 fd 82 af 3c ef 2b 58 3d 0a a2 56 3d 70 49 00 3d
       0.021424765 0.052776273 0.052400626 0.031320035
0000e0 04 df 35 3d 00 3d 4f 3d ca 03 ec 3c 25 89 88 3f
       0.044402137 0.050595284 0.0288104 1.0666853
0000f0 fa 03 0f 3e b1 ee 34 3d 8a ca 76 3d f7 6c 12 3d
       0.1396636 0.044172946 0.06025175 0.03574845

bn4.running_var f4 [64]
000000 a3 48 85 3e fa 4c 44 3e d3 38 5d 3f ff c2 75 3e
       0.2603198 0.19169989 0.8641483 0.24000166
000010 ce 0b c1 3e 4b 4d f5 3f 64 45 5c 3e c3 11 33 3e
       0.3770432 1.9164213 0.21510845 0.17487244
000020 11 82 c9 3f d2 91 71 3f b2 0e cd 3d ff 99 f2 3d
       1.5742818 0.9436313 0.100125685 0.11845779
000030 c5 7f 1d 3f 76 90 25 3f f6 88 f5 3f 56 89 46 3f
       0.61523086 0.64673555 1.9182422 0.7755331
000040 74 dc 6d 3e a0 88 15 3e 38 8d 30 3e f7 3b 6c 3f
       0.23228627 0.146029 0.1724137 0.92279
000050 53 93 dd 3d a0 e2 e7 3f 9f 17 4c 3d b8 31 17 3f
       0.108191155 1.8116035 0.049827214 0.5906024
000060 89 27 43 3e 1b 69 0b 3f 56 a7 2a 40 1a 9a 87 3e
       0.1905805 0.54457253 2.6664634 0.26484758
000070 ed 0f bb 3d ab df 90 3e a3 b0 bc 3d 9f cd 4d 3e
       0.09133897 0.28295645 0.09213378 0.2009797
000080 82 4f ae 3f 0b 65 b2 3e fd 5a 8d 3e aa cd 95 3e
       1.3618014 0.34842715 0.2760848 0.29258472
000090 fd e6 18 3e c9 c6 b9 3e c0 a9 d7 3e 8a db e2 3e
       0.14931865 0.36284474 0.42121696 0.4430812
0000a0 b9 24 94 3f 84 6f 3b 3e 37 48 84 3d 34 cd a1 3e
       1.1573707 0.18304259 0.064590864 0.3160187
0000b0 1d b6 a6 3e 7c 51 48 3e a2 53 44 3f db f5 8d 3f
       0.32560816 0.19562334 0.76690114 1.1090654
0000c0 30 bd 74 3f e1 47 e7 3d d3 8d 61 3e a4 5d f3 3d
       0.9560118 0.11293007 0.22026758 0.11883095
0000d0 84 da be 3d e6 ec 31 3e cd d3 3e 3e f1 3f af 3d
       0.09319022 0.17375526 0.18635483 0.08557118
0000e0 3f 5d 37 3e 1e 48 6f 3e ad 74 b0 3d 0e c5 8a 3f
       0.17906664 0.23367354 0.08616004 1.0841386
0000f0 35 0c ec 3e 65 e9 20 3e 1a c1 76 3e 3f 10 1e 3e
       0.46103063 0.15714033 0.240971 0.15435885
