NCC_Code/Models/2022-08-28_12-51-57_model.pt (torch, 115275 bytes, 50 tensors)

conv1.weight f4 [8, 2, 5, 5]
-0.1659698 -0.13898216 0.048480414 -0.4147873 -0.5191935 0.9092315 1.1400067 1.161699
0.19920102 -0.501781 0.108408384 0.3171846 0.6434846 -1.0086105 -0.7021744 0.49414098
0.42947024 0.61992127 -0.88287824 -1.4118822 1.1107016 1.5500891 0.9591726 -1.086092
-2.0326707 -0.16522753 -0.014664059 0.07273264 -0.460924 -0.44622037 0.75563884 1.3152529
1.0552076 0.113969386 -0.3706003 0.09466678 0.41433877 0.41313127 -0.28847507 -0.8837201
0.10267018 0.75933164 0.7091507 -0.8449352 -1.4522332 0.81764567 1.7936223 1.3672694
-0.9338511 -1.8990037 -0.6131141 -0.89771813 -1.0491235 -1.7212489 -1.3360349 -0.14660814
-0.18929668 0.05899435 0.20583431 0.33250287 -0.29404804 -0.2637226 -0.053660978 1.0267464
0.53619975 0.0016361362 -0.5435236 -0.6665403 -0.18709424 -0.34892932 1.4031473 1.9552562
1.6853583 1.7340167 0.14394806 -0.5645466 -0.8896572 -1.2796223 -1.4482974 -1.331056
0.16851617 0.04907734 0.115286395 0.38526216 0.20106222 -0.48216432 -0.14576122 0.14062044
0.58305514 0.608959 -0.13689867 -0.2961534 -0.601144 -0.27727315 -0.31703198 1.4343245
1.6853799 1.953461 1.8503962 0.31341583 1.025807 1.0087558 0.98469687 0.45339316
-0.54986876 -1.262976 -1.7759278 -1.5058032 -1.2416248 -0.84837705 0.23015106 -0.124442
0.12910458 -0.07027938 -0.46189377 0.36018956 0.71968055 0.77151704 -0.10095557 -0.2651414
0.38748923 1.2284266 1.4644 -0.027397983 -0.2539133 1.0487823 1.4238155 1.0634133
0.11051652 -0.67916465 -1.323189 -1.5844612 -1.6243529 -1.5430872 -1.0233616 0.07345303
0.009510097 0.29086432 -0.48484412 -0.41526344 0.69278747 0.7907585 0.5566818 0.06254693
-0.36681876 0.63042235 1.5447688 1.4048183 -0.060802083 -0.46185234 0.37472954 0.72092503
0.015285697 0.10613998 -0.08681729 -0.03356249 -0.15046304 -0.14127661 -0.5229464 -0.51419866
0.021346174 -0.4087082 -0.6243095 -0.87948096 -1.1502151 -0.22458787 -0.31122506 0.18192804
0.6180423 0.7107242 -1.4471346 -0.37422752 1.2766258 2.6705434 1.835275 0.33036324
0.45152327 0.624892 -0.2002084 0.6216913 0.1718648 -0.15503871 -0.45168775 -0.44832072
-0.2018155 -0.18273155 -0.8917228 -0.5926877 -0.98980033 -0.89277726 -0.20712718 -0.30710465
0.46225092 0.72633696 0.5495484 -1.9224195 -0.8701566 1.1761631 2.3825946 2.3183677
-0.19812188 -0.406765 -0.032251652 0.5574052 0.60550076 -0.7389931 -1.1413293 -1.1222879
-0.7018485 -0.47079146 0.9720439 1.5758775 1.331807 -0.24192807 -0.8057477 0.74619025
1.475143 2.0047271 0.5037092 -1.1197453 0.12846546 -0.54397607 -1.1456722 -1.1996953
-0.6574975 0.18270828 -0.34441647 -0.3654801 1.0730253 0.80619293 -0.61171186 -0.83692396
-0.880196 -0.97014 -0.40437314 0.79099345 1.5560541 1.3588406 0.05155582 -1.0266182
0.74207646 1.576414 1.9389716 0.3695558 -0.8074084 0.10441733 -0.63061136 -1.0000466
-1.3383836 -0.72660524 -0.30699062 -0.62988734 -0.46181583 -0.48175323 -0.45402318 0.4590534
00000000: fdf3 29be 5751 0ebe 6693 463d 005f d4be
00000010: dde9 04bf 65c3 683f bdeb 913f 8eb2 943f
00000020: 5afb 4b3e b874 00bf 3705 de3d 0566 a23e
00000030: 68bb 243f 261a 81bf b4c1 33bf 0c00 fd3e
00000040: 86e3 db3e 29b3 1e3f 4f04 62bf 8eb8 b4bf
00000050: 782b 8e3f 5269 c63f 568c 753f 1005 8bbf
00000060: 4717 02c0 6831 29be 8541 70bc daf4 943d
00000070: 3bfe ebbe ff76 e4be 8c71 413f 355a a83f
00000080: 0b11 873f c868 e93d 53bf bdbe a8e0 c13d
00000090: 3624 d43e f185 d33e 01b3 93be 7b3b 62bf
000000a0: be44 d23d 8f63 423f e68a 353f ac4d 58bf
000000b0: c7e2 b9bf 3a51 513f 6a95 e53f af02 af3f
000000c0: de10 6fbf 8e12 f3bf 0cf5 1cbf dbd0 65bf
000000d0: ae49 86bf e251 dcbf 3103 abbf 7220 16be
000000e0: fdd6 41be 0fa4 713d 3bc6 523e d13d aa3e
000000f0: 778d 96be a606 87be 9dcb 5bbd 6d6c 833f
00000100: 6344 093f 9f73 d63a 5d24 0bbf 63a2 2abf
00000110: a295 3fbe dda6 b2be 559a b33f d645 fa3f
00000120: d2b9 d73f 42f4 dd3f 1f67 133e 2086 10bf
00000130: 93c0 63bf aaca a3bf cf61 b9bf 0b60 aabf
00000140: 818f 2c3e 5205 493d 461b ec3d 1541 c53e
00000150: 41e3 4d3e 3ede f6be 6e42 15be cefe 0f3e
00000160: 1a43 153f bde4 1b3f 2a2f 0cbe 6ba1 97be
00000170: 93e4 19bf bff6 8dbe 0452 a2be f297 b73f
00000180: 87ba d73f 030b fa3f c8d9 ec3f 0a78 a03e
00000190: a54d 833f e91e 813f 1815 7c3f 2623 e83e
000001a0: 33c4 0cbf 33a9 a1bf 9a51 e3bf 29be c0bf
000001b0: 90ed 9ebf 3d2f 59bf b8ac 6b3e 73db febd
000001c0: fe33 043e a3ee 8fbd 577d ecbe c46a b83e
000001d0: fc3c 383f 2482 453f cbc1 cebd 9dc0 87be
000001e0: fd64 c63e 153d 9d3f 7671 bb3f bc71 e0bc
000001f0: ed00 82be 803e 863f 963f b63f ed1d 883f
00000200: 7c56 e23d bcdd 2dbf 425e a9bf a0cf cabf
00000210: ccea cfbf e283 c5bf 83fd 82bf 8b6e 963d
00000220: 3dd0 1b3c 2bec 943e 7d3d f8be 699d d4be
00000230: 855a 313f 266f 4a3f b382 0e3f 9b18 803d
00000240: abcf bbbe 5c63 213f fcba c53f 16d1 b33f
00000250: 9b0b 79bd e977 ecbe 8ddc bf3e 8b8e 383f
00000260: dc70 7a3c eb5f d93d 43cd b1bd d278 09bd
00000270: fc12 1abe d1aa 10be d1df 05bf 86a2 03bf
00000280: 2cde ae3c 3442 d1be bfd2 1fbf aa25 61bf
00000290: 403a 93bf 5dfa 65be e458 9fbe 584b 3a3e
000002a0: 0538 1e3f 05f2 353f b53b b9bf c09a bfbe
000002b0: 7968 a33f 2fea 2a40 4bea ea3f 5f25 a93e
000002c0: 0f2e e73e ecf8 1f3f 6e03 4dbe 2927 1f3f
000002d0: 53fd 2f3e 78c2 1ebe 9e43 e7be 4b8a e5be
000002e0: b9a8 4ebe fb1d 3bbe f247 64bf 62ba 17bf
000002f0: 8e63 7dbf 0d8d 64bf 2619 54be d23c 9dbe
00000300: 27ac ec3e 38f1 393f 34af 0c3f d811 f6bf
00000310: 95c2 5ebf 838c 963f 6e7c 1840 2360 1440
00000320: 76e0 4abe 8143 d0be 4f1a 04bd 1bb2 0e3f
00000330: 1902 1b3f a72e 3dbf 1417 92bf 21a7 8fbf
00000340: 58ac 33bf 940b f1be ded7 783f 5bb6 c93f
00000350: a778 aa3f febb 77be 7b45 4ebf 5306 3f3f
00000360: 7cd1 bc3f 734d 0040 16f3 003f d053 8fbf
00000370: 738c 033e 0442 0bbf 63a5 92bf 9e8f 99bf
00000380: c251 28bf e117 3b3e 5b57 b0be 3520 bbbe
00000390: e558 893f a962 4e3f 2699 1cbf a640 56bf
000003a0: 8654 61bf 185b 78bf ff09 cfbe 8c7e 4a3f
000003b0: c82c c73f 7dee ad3f 322c 533d 3a68 83bf
000003c0: b9f8 3d3f efc7 c93f 3930 f83f 6b36 bd3e
000003d0: 51b2 4ebf c1d8 d53d bf6f 21bf 8701 80bf
000003e0: 2750 abbf cd02 3abf e02d 9dbe 4c40 21bf
000003f0: 2073 ecbe 5ca8 f6be ba75 e8be 0c09 eb3e

conv1.bias f4 [8]
-1.0896907 -1.7904674 -0.66772807 -3.4343588 -0.743695 -0.7074349 0.2626631 1.056261
00000000: fc7a 8bbf 092e e5bf 3af0 2abf 89cc 5bc0
00000010: cc62 3ebf 741a 35bf c77b 863e 8f33 873f

bn1.weight f4 [8]
1.1694714 1.6869836 1.2309585 1.3099333 2.0738988 1.1690239 2.0700321 1.0993135
00000000: 3db1 953f 14ef d73f 0c90 9d3f e5ab a73f
00000010: c2ba 0440 93a2 953f 687b 0440 4eb6 8c3f

bn1.bias f4 [8]
-0.7045795 0.25887868 -0.5105212 0.3084358 0.19005547 0.12912059 0.2843244 0.24163882
00000000: 525f 34bf bf8b 843e 84b1 02bf 4ceb 9d3e
00000010: e79d 423e 3038 043e f892 913e 2b70 773e

bn1.running_mean f4 [8]
1.771344 1.2260982 1.4558047 0.6471726 1.5324394 1.1184806 2.818752 3.4016657
00000000: 66bb e23f c9f0 9c3f cf57 ba3f 1aad 253f
00000010: f926 c43f 5f2a 8f3f 6f66 3440 e4b4 5940

bn1.running_var f4 [8]
20.802347 9.128977 9.52465 7.204792 13.08639 5.888114 26.019741 24.106676
00000000: 356b a641 4a10 1241 f764 1841 a88d e640
00000010: da61 5141 6e6b bc40 6e28 d041 79da c041

conv2.weight f4 [16, 8, 3, 3]
1.254878 2.7563093 2.61525 0.5382065 1.3305475 0.9260166 1.297118 0.53511393
0.27358082 0.080004394 0.24474354 -0.62100494 -1.3904285 -1.949634 -1.8571793 -1.2504439
-2.1886623 -1.8251903 -1.184459 -0.8269941 -0.5609717 -1.0089824 -1.1444077 -1.0366033
0.022784755 0.08860737 0.075880475 1.0731038 1.0519748 -0.20588188 -1.046635 -0.46813247
1.0475053 -0.29326293 -0.48731834 -1.0413493 0.31296536 0.15985428 0.47050288 0.60000086
1.153057 0.5602498 -0.68509376 -1.1826048 -0.8045827 1.4860098 1.1088777 0.7202801
0.62920994 0.098429 -0.35522348 -1.2624041 -0.76402515 -0.9873774 -0.57303345 -0.4444592
-0.21882151 1.1715162 1.3999797 1.1314492 0.30893603 0.0874693 -0.5485259 0.034699745
0.29045686 0.64734936 -1.7708502 -1.2462683 -0.7662539 -0.29297838 0.09899164 0.26221257
-0.06775973 -0.22140056 -0.7311076 1.3466713 1.2215323 0.66064113 1.6042067 2.3355856
1.107244 0.34891954 -0.37739193 -1.2562816 -1.0557103 -0.73905826 -1.3226321 0.66378
0.59321856 -0.5479321 -0.6685498 -0.5581775 -0.48110062 2.1115704 1.8641505 0.8429309
0.17538694 -0.090174936 -0.5529421 1.3783857 1.3278393 -1.0658029 0.8564033 1.2896122
-2.136312 0.69280857 1.2055107 -2.6684837 0.31829673 0.08341705 0.59918344 0.5227246
0.751535 -0.44227785 0.83457494 -0.092600115 -0.7783815 -0.6784399 -1.1670527 -1.5758924
-0.069805354 -0.30315 -0.78650016 -0.050672945 -0.2522702 -1.5455327 0.8614732 0.48666266
-0.07722457 0.2181363 0.88236284 0.8911341 -0.4810947 -1.2505516 -1.0579894 -0.07857012
-0.31959862 0.16264857 -2.6632588 -2.1935673 -0.63103145 -1.3172593 -2.12089 -1.7628825
-0.103870146 -0.5188833 -0.25047505 2.1482818 2.2030783 2.29365 0.20473501 1.5271465
1.7951909 -1.2807041 -1.7755653 -1.5344207 -0.7288529 -0.5182407 -0.5662106 0.7418704
0.9735425 0.3859071 -0.46615627 -1.2460345 -1.5934957 0.6396498 1.203696 1.3030868
-1.0513828 -0.68852013 -0.4882541 -1.2260499 -1.2943127 -0.9659984 1.4740539 2.8047605
1.958272 -0.7309869 -0.09476108 0.060208507 -0.039523456 0.61255324 0.73492414 -0.7623759
-1.3590612 -1.8536795 0.17840287 0.98983717 0.73752654 0.88192856 0.6748083 0.8714725
0.09615561 -0.37320173 -0.27816492 0.49243402 0.6061735 0.45012864 1.0843136 1.1384578
1.1428548 -1.0541112 -0.2973982 0.5018228 -0.4566924 -0.6257696 -0.34318432 -0.6933065
-0.61966574 -0.6283702 -1.6293386 -1.8870755 -0.057020538 -1.1148069 -0.69880503 -0.4317965
0.0048724026 0.16384533 0.07227272 0.6299334 1.1106187 0.5407554 0.9354123 1.0095857
0.73267514 -0.1380637 0.10841482 0.37695047 -0.94057965 -1.1784203 -0.8849424 -1.4635991
-1.0870942 -0.5540739 0.87110054 1.4966418 1.2574971 0.48423362 0.2958836 -0.122269444
-1.9877355 -1.9669966 -1.3645397 0.08585386 0.7037339 1.0966003 -0.5005691 -0.28790605
-0.15120788 -0.12867542 -0.011495681 -0.91482645 -0.5588023 -0.8045773 -0.2230079 1.7067589
00000000: d89f a03f 5f67 3040 4260 2740 e7c7 093f
00000010: 614f aa3f 6d0f 6d3f f607 a63f 3afd 083f
00000020: c912 8c3e 58d9 a33d 0d9e 7a3e 2efa 1ebf
00000030: 90f9 b1bf 9b8d f9bf 0db8 edbf 8c0e a0bf
00000040: 0b13 0cc0 d69f e9bf 5a9c 97bf e3b5 53bf
00000050: d79b 0fbf 5626 81bf f47b 92bf 6baf 84bf
00000060: 18a7 ba3c c877 b53d 3967 9b3d 775b 893f
00000070: 1ca7 863f b3d2 52be 23f8 85bf 0faf efbe
00000080: a714 863f 8f26 96be ca81 f9be ef4a 85bf
00000090: ff3c a03e d7b0 233e c1e5 f03e a899 193f
000000a0: 5f97 933f 886c 0f3f 4e62 2fbf 985f 97bf
000000b0: 22f9 4dbf 9235 be3f b4ef 8d3f 4764 383f
000000c0: e713 213f 2595 c93d dadf b5be 7596 a1bf
000000d0: 2797 43bf c4c4 7cbf 52b2 12bf 2890 e3be
000000e0: bf12 60be 3ef4 953f 8932 b33f 54d3 903f
000000f0: dd2c 9e3e 1b23 b33d 326c 0cbf 5221 0e3d
00000100: c3b6 943e b0b8 253f 38ab e2bf b885 9fbf
00000110: 3729 44bf 4301 96be 21bc ca3d ba40 863e
00000120: 9dc5 8abd d4b6 62be de29 3bbf ba5f ac3f
00000130: 2c5b 9c3f c71f 293f a556 cd3f 3c7a 1540
00000140: 2cba 8d3f 95a5 b23e 8439 c1be d6cd a0bf
00000150: 8421 87bf ec32 3dbf 024c a9bf 7ced 293f
00000160: 2cdd 173f 4745 0cbf 1426 2bbf b8e4 0ebf
00000170: d252 f6be f823 0740 7c9c ee3f 52ca 573f
00000180: a298 333e a3ad b8bd 9d8d 0dbf f16e b03f
00000190: a3f6 a93f 3b6c 88bf 3f3d 5b3f 0312 a53f
000001a0: 56b9 08c0 e75b 313f 2d4e 9a3f 70c8 2ac0
000001b0: caf7 a23e 8fd6 aa3d 1664 193f 48d1 053f
000001c0: 9964 403f 3e72 e2be b4a6 553f 21a5 bdbd
000001d0: 0344 47bf 3dae 2dbf fc61 95bf d8b6 c9bf
000001e0: 1cf6 8ebd 7a36 9bbe 1358 49bf 6f8e 4fbd
000001f0: 8f29 81be 04d4 c5bf 8289 5c3f d92b f93e
00000200: ea27 9ebd 1f5f 5f3e 88e2 613f 5d21 643f
00000210: 0b52 f6be 1312 a0bf 326c 87bf 5fe9 a0bd
00000220: 6ea2 a3be 598d 263e d572 2ac0 6863 0cc0
00000230: 478b 21bf f49b a8bf a9bc 07c0 22a6 e1bf
00000240: dfb9 d4bd 89d5 04bf 443e 80be 737d 0940
00000250: 3cff 0c40 29cb 1240 0ea6 513e 8979 c33f
00000260: d1c8 e53f 1dee a3bf b945 e3bf e667 c4bf
00000270: 1b96 3abf 6cab 04bf 2ef3 10bf 38eb 3d3f
00000280: 153a 793f 9e95 c53e 09ac eebe 0f7e 9fbf
00000290: abf7 cbbf 17c0 233f b612 9a3f 8ccb a63f
000002a0: b693 86bf db42 30bf 71fc f9be 34ef 9cbf
000002b0: 0aac a5bf ac4b 77bf ccad bc3f 3281 3340
000002c0: a8a8 fa3f f521 3bbf 1912 c2bd 329d 763d
000002d0: 59e3 21bd 4ad0 1c3f fd23 3c3f 112b 43bf
000002e0: b8f5 adbf 5f45 edbf 3eaf 363e f865 7d3f
000002f0: 8ace 3c3f 12c6 613f 3dc0 2c3f d218 5f3f
00000300: 3ced c43d 4c14 bfbe a26b 8ebe 5020 fc3e
00000310: 302e 1b3f 4377 e63e caca 8a3f fcb8 913f
00000320: 1149 923f 1eed 86bf 9444 98be 7677 003f
00000330: 96d3 e9be 7032 20bf dbb5 afbe 897c 31bf
00000340: 6aa2 1ebf dfdc 20bf 2b8e d0bf b18b f1bf
00000350: 5e8e 69bd feb1 8ebf e3e4 32bf 6e14 ddbe
00000360: ada8 9f3b 12c7 273e b803 943d 5143 213f
00000370: c128 8e3f f26e 0a3f 2e77 6f3f 1b3a 813f
00000380: 9990 3b3f 9260 0dbe 9708 de3d a7ff c03e
00000390: d4c9 70bf 7ad6 96bf 968b 62bf 3757 bbbf
000003a0: e725 8bbf cad7 0dbf 7200 5f3f f591 bf3f
000003b0: aaf5 a03f 78ed f73e 0e7e 973e 6768 fabd
000003c0: 1e6e febf 8bc6 fbbf 3da9 aebf 26d4 af3d
000003d0: e827 343f 665d 8c3f 4c25 00bf 6c68 93be
000003e0: 3dd6 1abe 7dc3 03be 6158 3cbc 1132 6abf
000003f0: ab0d 0fbf c7f8 4dbf 2f5c 64be 1377 da3f

conv2.bias f4 [16]
-0.19466375 1.210991 -2.328996 -0.009665041 -2.2898362 0.7928621 -2.6090474 -0.10204947
0.2824462 1.5958704 -1.7811434 -0.3313993 -0.9002795 -1.5788051 -0.5058575 0.13643168
00000000: ef55 47be c101 9b3f 450e 15c0 1f5a 1ebc
00000010: ad8c 12c0 03f9 4a3f a2fa 26c0 50ff d0bd
00000020: ca9c 903e 7b45 cc3f 82fc e3bf 2bad a9be
00000030: b878 66bf 4916 cabf e17f 01bf bfb4 0b3e

bn2.weight f4 [16]
1.7843666 1.6857048 1.5834466 2.2933266 1.4473624 1.5839053 1.3507382 1.4469951
1.3008686 1.676977 1.6531174 1.2939051 1.4711541 1.0350971 2.1279683 1.2896295
00000000: 2066 e43f 2dc5 d73f 61ae ca3f ddc5 1240
00000010: 2c43 b93f 69bd ca3f fde4 ac3f 2337 b93f
00000020: dd82 a63f 2fa7 d63f 5a99 d33f af9e a53f
00000030: c74e bc3f 107e 843f a230 0840 9412 a53f

bn2.bias f4 [16]
-0.3093092 -0.45398936 0.2377207 0.07312244 0.11954994 -0.12980835 0.6895187 0.32537532
0.6017801 -0.2797602 -0.11659539 0.76390296 -0.36556917 0.031983506 0.7534262 -0.1988462
00000000: c75d 9ebe 4b71 e8be 0e6d 733e 38c1 953d
00000010: 99d6 f43d 7bec 04be 4c84 303f 9897 a63e
00000020: 430e 1a3f bb3c 8fbe 90c9 eebd 258f 433f
00000030: e22b bbbe 2301 033d 8ae0 403f 579e 4bbe

bn2.running_mean f4 [16]
2.421237 2.3798962 2.6916585 4.755907 0.92148775 3.6895332 3.2953188 2.7215478
4.653112 7.733939 1.3781183 5.5445323 1.3372431 0.8593753 4.398319 1.9251939
00000000: 8cf5 1a40 3850 1840 2244 2c40 6430 9840
00000010: 9fe6 6b3f 5021 6c40 81e6 5240 d72d 2e40
00000020: 4be6 9440 6e7c f740 2e66 b03f cf6c b140
00000030: c82a ab3f 0500 5c3f 07bf 8c40 c16c f63f

bn2.running_var f4 [16]
65.84224 76.91732 83.39153 133.39687 17.812948 104.59248 56.924145 73.531876
85.5252 94.4665 35.11018 159.79155 30.53626 16.052097 167.82745 40.30336
00000000: 3aaf 8342 abd5 9942 77c8 a642 9965 0543
00000010: eb80 8e41 5a2f d142 53b2 6342 5210 9342
00000020: e70c ab42 d9ee bc42 d370 0c42 a3ca 1f43
00000030: 434a f441 b26a 8041 d4d3 2743 a436 2142

conv3.weight f4 [32, 16, 3, 3]
-0.17675255 0.3807909 0.31115 -0.9586862 -1.9879714 -1.4453228 0.07665445 0.79795986
0.3282186 0.18903975 1.2476935 1.0690287 -0.02057914 0.09591996 0.88563365 -0.4710686
0.19310026 1.1039648 0.33076608 0.5921955 0.1843934 1.593269 1.9654332 2.0386682
0.21902676 -0.39210647 -0.59349793 -0.12761274 0.123493955 1.1525978 -2.9057791 -3.9925008
-2.4722953 -0.021476414 0.025037037 0.7632927 -0.049806543 0.10697407 -0.692286 -1.2177459
-1.9264364 -1.6579221 0.79949605 1.0828307 0.76538235 0.5848582 -0.47213143 0.27484465
-0.4763603 -0.7082718 -1.2545276 -2.05368 -2.0237374 -1.0274497 -1.4645922 -1.6651902
-1.0452262 -0.17995118 -0.26947042 -0.016366916 0.949398 0.6551243 0.39604113 -0.02113611
0.5867884 0.17875619 0.42658556 0.86970896 0.87730587 1.4002292 1.0554587 0.4789515
0.96879494 0.57407045 0.4890885 -0.5566385 -0.0638496 0.11178413 -0.58122784 -0.7751091
-1.4838631 0.61460036 -0.23908468 -0.5579053 0.8617235 0.6795771 0.4724741 -0.9089966
-0.9496107 0.3199023 1.7145013 2.200283 1.0069256 -0.4677824 -0.49989456 -0.7046702
0.45900792 1.773823 1.0071064 -0.35986125 -0.3330482 -0.3586749 -1.5501633 -1.684115
-0.524202 0.38995212 1.0970482 0.09331168 0.12984619 -0.10876201 -0.15491155 0.6293009
0.767438 0.56761736 -0.20711039 -0.5553319 -0.010812004 0.05601732 -0.53329206 -0.38360563
0.097243674 1.0118552 1.9205129 -0.039347183 0.20503889 -0.2069468 -1.4188677 -0.9181491
0.2983569 0.35527492 0.55697155 -0.6724515 -0.751881 -1.6246161 -0.56906956 1.0974832
1.087034 1.2010658 0.45784354 1.028592 0.8587267 -0.18182707 -1.913417 -2.671249
0.040744655 -0.31515378 0.25326654 0.69227356 1.7051568 1.5465013 -0.55213875 -0.9818378
-0.77263814 -1.2445613 -0.6109136 -0.73121727 -1.0542778 -1.2389404 -1.9110886 0.25885475
0.91846216 0.21730964 -0.679542 -0.7744346 -0.38027412 0.12441259 0.3128377 0.37201944
0.5585108 0.62024146 0.44824666 -0.3300294 0.7344441 0.47199696 -1.1386511 -1.6475395
-0.4071652 -0.6055081 1.3302373 0.8737328 -1.444378 -1.5854708 -0.29533324 -0.13568182
0.36888185 0.13861184 0.119064555 -0.13638434 -0.04834444 0.3615342 0.5633811 1.6942217
-0.0021776776 0.22485152 0.050488483 0.3782641 -0.09792309 -0.15019889 0.32132375 0.9249153
0.21122216 -0.60410345 -1.9238206 -1.8066916 -1.4242781 -0.9799642 -0.16580872 0.55365396
0.4336558 0.6045463 -0.26358074 -0.090664074 0.2811862 0.330347 0.21626917 0.28081596
-0.20828018 0.58761966 0.9885998 1.346662 2.286489 3.1994305 -0.41493014 -1.0723101
-0.01746513 -0.48730615 -0.4204205 0.1642147 2.1866822 2.357998 0.9489305 -0.018302517
0.1567258 0.39896524 -1.895001 -2.566894 -2.0065238 -0.21536532 -0.9351679 -0.4887688
-0.36093807 -1.5383977 -2.109454 0.7300447 0.61936474 0.70960546 -2.7369092 -0.98876154
-1.7767898 1.2360742 0.94358057 -0.4803913 0.4358597 0.2177584 0.766588 -0.9106542
00000000: 9ffe 34be 06f7 c23e 0e4f 9f3e 756c 75bf
00000010: d975 febf 5600 b9bf 02fd 9c3d 1947 4c3f
00000020: 450c a83e a393 413e 6cb4 9f3f efd5 883f
00000030: 9695 a8bc af71 c43d e3b8 623f e72f f1be
00000040: 13bc 453e b84e 8d3f 2c5a a93e 209a 173f
00000050: a0d1 3c3e 3df0 cb3f 5193 fb3f 8a79 0240
00000060: 8d48 603e 2ec2 c8be 7bef 17bf eaac 02be
00000070: 66ea fc3d 5388 933f 49f8 39c0 2285 7fc0
00000080: 163a 1ec0 4eef afbc 791a cd3c 2667 433f
00000090: f201 4cbd 3915 db3d a839 31bf 19df 9bbf
000000a0: 7895 f6bf cb36 d4bf c6ab 4c3f 329a 8a3f
000000b0: 19f0 433f 44b9 153f 36bb f1be 70b8 8c3e
000000c0: 7fe5 f3be 4d51 35bf 5c94 a0bf 7e6f 03c0
000000d0: ea84 01c0 7983 83bf c277 bbbf f424 d5bf
000000e0: f9c9 85bf 1f45 38be 07f8 89be e913 86bc
000000f0: bf0b 733f 3ab6 273f e7c5 ca3e a325 adbc
00000100: c437 163f dd0b 373e 6c69 da3e 3fa5 5e3f
00000110: 1e97 603f b63a b33f 4519 873f 2239 f53e
00000120: f202 783f 48f6 123f cf69 fa3e dc7f 0ebf
00000130: 94c3 82bd 14ef e43d 59cb 14bf 8d6d 46bf
00000140: 3aef bdbf 7356 1d3f 9dd2 74be e2d2 0ebf
00000150: e999 5c3f c4f8 2d3f 20e8 f13e 00b4 68bf
00000160: b019 73bf 3cca a33e c774 db3f 70d1 0c40
00000170: f0e2 803f 2d81 efbe 2ef2 ffbe 4465 34bf
00000180: 1603 eb3e a20c e33f dde8 803f bc3f b8be
00000190: 4b85 aabe 3da4 b7be c06b c6bf 1591 d7bf
000001a0: 1a32 06bf cea7 c73e 136c 8c3f 321a bf3d
000001b0: 66f6 043e 9ebe debd 22a1 1ebe dd19 213f
000001c0: d176 443f 5f4f 113f bf14 54be 3b2a 0ebf
000001d0: d524 31bc 6b72 653d d485 08bf f567 c4be
000001e0: b127 c73d 7984 813f 5ed3 f53f 832a 21bd
000001f0: b7f5 513e dde9 53be 759d b5bf d20b 6bbf
00000200: 3cc2 983e 98e6 b53e b095 0e3f c825 2cbf
00000210: 467b 40bf 6cf3 cfbf 8bae 11bf 547a 8c3f
00000220: ee23 8b3f 86bc 993f 786a ea3e e7a8 833f
00000230: 83d5 5b3f e030 3abe d9ea f4bf bef5 2ac0
00000240: dee3 263d d65b a1be 27ac 813e d738 313f
00000250: 9442 da3f c1f3 c53f f758 0dbf b959 7bbf
00000260: 9dcb 45bf c94d 9fbf d564 1cbf 0e31 3bbf
00000270: 93f2 86bf 9995 9ebf 8d9e f4bf 9c88 843e
00000280: 5620 6b3f 6b86 5e3e 77f6 2dbf 5941 46bf
00000290: 4ab3 c2be 07cc fe3d 432c a03e 5579 be3e
000002a0: 90fa 0e3f 25c8 1e3f 9680 e53e 9df9 a8be
000002b0: 8704 3c3f 96a9 f13e 52bf 91bf 93e2 d2bf
000002c0: f577 d0be 9402 1bbf 3745 aa3f f4ac 5f3f
000002d0: 61e1 b8bf b5f0 cabf eb35 97be 2df0 0abe
000002e0: 15de bc3e 43f0 0d3e 1ed8 f33d 56a8 0bbe
000002f0: d204 46bd 031b b93e be39 103f 42dc d83f
00000300: 5eb7 0ebb 7a3f 663e 03cd 4e3d d5ab c13e
00000310: e78b c8bd bdcd 19be 8c84 a43e 40c7 6c3f
00000320: 9f4a 583e 86a6 1abf c13f f6bf ac41 e7bf
00000330: bf4e b6bf efde 7abf c3c9 29be 44bc 0d3f
00000340: 2208 de3e 8cc3 1a3f 0ef4 86be 16ae b9bd
00000350: a3f7 8f3e 3e23 a93e aa75 5d3e 1cc7 8f3e
00000360: 6647 55be 3e6e 163f e014 7d3f 6c5f ac3f
00000370: d655 1240 78c3 4c40 b971 d4be 7541 89bf
00000380: 0813 8fbc 3180 f9be 5b41 d7be e627 283e
00000390: 9af2 0b40 70e9 1640 1ced 723f 29ef 95bc
000003a0: ba7c 203e 2c45 cc3e 658f f2bf fe47 24c0
000003b0: e36a 00c0 ba88 5cbe 2a67 6fbf e73f fabe
000003c0: e0cc b8be 37ea c4bf 4b01 07c0 36e4 3a3f
000003d0: b08e 1e3f b4a8 353f 8529 2fc0 7a1f 7dbf
000003e0: d96d e3bf ae37 9e3f 7f8e 713f d9f5 f5be
000003f0: 0129 df3e 0ffc 5e3e 1c3f 443f a220 69bf

conv3.bias f4 [32]
-0.21104461 -1.374857 -0.6654464 2.3355062 -1.705073 0.16169873 -2.2109706 -1.834058
-1.8327166 -0.94349045 -0.8970059 -1.2868413 -0.02009695 0.22062519 -2.6349301 -0.048572224
-2.6798499 -0.17980836 0.19929981 -0.89307964 -0.04645837 -1.3570256 -1.5842707 -0.61728483
-0.3021972 -1.6126568 -1.8297567 0.29388237 -0.16250469 -1.1355149 -1.5484872 -0.27869365
00000000: 141c 58be 50fb afbf b25a 2abf ef78 1540
00000010: d53f dabf 5a94 253e 8b80 0dc0 6ac2 eabf
00000020: 7596 eabf 9788 71bf 2ea2 65bf 37b7 a4bf
00000030: 5ca2 a4bc 92eb 613e b2a2 28c0 abf3 46bd
00000040: a982 2bc0 af1f 38be 4015 4c3e dea0 64bf
00000050: 224b 3ebd 04b3 adbf 62c9 cabf 6106 1ebf
00000060: 97b9 9abe 8a6b cebf 7835 eabf c077 963e
00000070: a167 26be 8d58 91bf d434 c6bf efb0 8ebe

bn3.weight f4 [32]
1.4235897 1.4701623 1.6593001 2.395531 1.7929317 1.4752223 1.4355838 1.7187548
1.4713767 1.8909774 1.5732639 2.07226 1.418294 1.8674444 1.8418754 1.2798153
1.8345689 1.8416022 1.8326952 1.4268354 1.1969718 1.6188879 1.7749518 1.4347843
2.0136464 1.7391212 1.4229534 1.4557372 2.1560717 1.9780635 1.8889682 1.7703663
00000000: 3038 b63f 472e bc3f f263 d43f 6150 1940
00000010: c97e e53f 16d4 bc3f 36c1 b73f 2800 dc3f
00000020: 1256 bc3f 8c0b f23f b660 c93f e89f 0440
00000030: a88a b53f 6b08 ef3f 93c2 eb3f fdd0 a33f
00000040: 27d3 ea3f 9fb9 eb3f c295 ea3f 8ba2 b63f
00000050: 5f36 993f b837 cf3f 9f31 e33f 03a7 b73f
00000060: 95df 0040 869b de3f 5623 b63f 9955 ba3f
00000070: 14fd 0940 2f31 fd3f b6c9 f13f 5d9b e23f

bn3.bias f4 [32]
-0.73106474 0.09763542 0.39519376 1.3854586 -0.4820433 0.21297899 0.15199374 1.1052401
0.014423168 0.55877906 0.37301832 0.2084426 -0.11826999 1.2782867 0.377007 -0.457035
1.4905288 0.3871574 0.01381091 -0.04616284 -0.5852426 -0.07406776 -0.60974705 -0.7262342
0.2657597 1.1076174 0.101153284 -0.7579729 0.7499369 1.065832 -0.009221094 0.3072882
00000000: 0f27 3bbf 14f5 c73d d656 ca3e b556 b13f
00000010: 61ce f6be 2a17 5a3e 3fa4 1b3e 8278 8d3f
00000020: 274f 6c3c 250c 0f3f 42fc be3e fa71 553e
00000030: 8937 f2bd e69e a33f 1007 c13e 7e00 eabe
00000040: a6c9 be3f 7f39 c63e 2847 623c 3f15 3dbd
00000050: 76d2 15bf d6b0 97bd 6218 1cbf 7cea 39bf
00000060: a811 883e 68c6 8d3f 7429 cf3d 830a 42bf
00000070: ddfb 3f3f 2f6d 883f 1214 17bc e154 9d3e

bn3.running_mean f4 [32]
4.1036243 7.405389 3.9149268 17.625889 5.9077454 2.919302 2.0244763 1.4607317
1.5336604 5.23852 1.6315048 5.049319 6.1727195 7.257447 3.0238206 1.7010361
3.0019815 3.6579494 5.1231017 5.5303464 8.519064 4.609673 2.7193127 2.3252187
2.263812 10.783769 1.349982 2.0888357 3.4287333 3.6632426 3.6838222 2.426899
00000000: e450 8340 f2f8 ec40 298e 7a40 d201 8d41
00000010: 400c bd40 d8d5 3a40 0591 0140 42f9 ba3f
00000020: fc4e c43f f5a1 a740 26d5 d03f 0594 a140
00000030: eb86 c540 013d e840 4786 4140 8dbb d93f
00000040: 7720 4040 d81b 6a40 73f0 a340 99f8 b040
00000050: 164e 0841 7182 9340 3809 2e40 62d0 1440
00000060: 4ce2 1040 518a 2c41 36cc ac3f 7caf 0540
00000070: 5e70 5b40 9172 6a40 bec3 6b40 5052 1b40

bn3.running_var f4 [32]
140.38152 316.8871 145.89896 213.61389 146.18385 82.95629 93.29498 51.73983
63.596905 166.89548 71.46821 157.27774 108.3909 362.86942 167.53226 54.90722
166.3682 115.70724 154.49316 212.72182 110.18024 167.76439 163.67067 94.41903
146.61626 131.0944 55.06693 75.4005 259.7545 168.44615 154.15921 126.619194
00000000: ab61 0c43 8c71 9e43 22e6 1143 289d 5543
00000010: 112f 1243 9fe9 a542 0897 ba42 96f5 4e42
00000020: 3b63 7e42 3ee5 2643 b9ef 8e42 1a47 1d43
00000030: 24c8 d842 496f b543 4288 2743 fea0 5b42
00000040: 425e 2643 1b6a e742 407e 1a43 c9b8 5443
00000050: 485c dc42 afc3 2743 b1ab 2343 8bd6 bc42
00000060: c39d 1243 2b18 0343 8944 5c42 0ecd 9642
00000070: 93e0 8143 3772 2843 c228 1a43 073d fd42

conv4.weight f4 [64, 32, 3, 3]
-0.34565037 0.6690585 0.9553355 0.41410357 0.37128347 -0.51998335 0.09568654 -0.4242174
0.2184606 0.69300586 1.6584071 0.9528723 0.07833518 0.15667616 1.2731367 -0.43590426
-0.66106004 0.48829454 -0.008266864 0.4618128 1.3688655 -2.617083 -1.4364133 0.4453093
0.5124649 0.57884836 -1.462252 -1.1840888 -0.42680323 1.1731877 -0.2117719 -0.9702631
-1.4164503 0.8698074 0.6927768 -0.38140014 -0.27784374 0.083262116 -0.08594101 1.3119533
1.4999834 2.0471766 0.40217078 -0.20246351 -1.534342 -2.0206835 0.7763826 0.84185505
-0.742338 -0.62038237 -0.5599671 -0.4351217 -0.0023721661 0.23819385 0.5137634 -0.14171323
0.47049022 0.076199174 0.4495457 0.41269884 1.464556 1.0436188 -0.6426584 -1.74529
-1.251442 0.8580888 -0.27909794 -0.66097635 -0.53527117 0.15918063 -0.25900915 0.6726892
-1.663176 0.6636917 0.48256373 0.5763808 0.44609785 1.1329484 -1.089239 -2.2400563
-1.0348597 0.52472717 0.62881833 0.72702754 0.2976014 -0.36525306 -1.0490065 -1.3289211
-0.5390257 1.0281904 0.26362818 0.914108 0.6200989 1.1034589 0.9410955 1.2605247
1.334744 1.3929429 0.35957143 -2.2151954 -1.4574528 -0.22907338 0.05848769 -1.1391914
-1.2863477 1.3075444 0.581224 -1.2308536 -0.554516 -0.41165182 -0.41033483 1.0684266
0.31835523 0.055783864 1.1216787 -0.0668597 -0.2743272 -0.42545176 -1.4562023 0.18741928
0.46373934 1.0578889 0.84968877 0.9257229 -0.932364 -1.2437874 0.5933025 1.0936515
0.41220132 -0.68346155 -0.93188643 1.6310667 -0.13202856 0.32470366 0.15059845 1.753505
0.70724964 -0.6464026 -0.25373876 -1.2625924 -0.78709346 0.1716822 2.5101583 -0.18471836
-1.3813782 -1.4868087 -1.0491077 0.86330706 0.33584332 -0.006068907 -0.009924881 -0.9470491
-1.3540475 -3.1641195 -0.18598576 0.50631016 0.76047313 0.6698441 0.16510527 0.7772975
1.039916 0.21945994 0.7165399 0.065209 -1.2456908 1.7204955 1.9821362 0.8555946
1.3233073 1.2006518 0.46777627 0.6234116 1.0631398 0.8757511 0.19751835 -0.6598162
-0.09865182 -0.88917345 -0.60493124 0.25650433 0.89438343 -0.0058275145 -0.09101924 1.2899714
1.4402453 2.2527068 0.16631933 -0.9076091 -1.7322869 -0.11961441 -1.6622652 -0.19961005
-1.5000798 -1.4015002 0.14389078 0.21076366 -1.223963 -0.7077714 -1.2841648 -0.9751862
0.09704735 -0.46423432 0.027131272 1.2143489 1.5267085 0.9324942 0.41513634 1.2566857
0.57896507 0.48293355 -0.15840514 0.9213055 1.9805903 0.76721793 0.9721367 -0.8357295
-3.237964 -0.33140802 0.2934286 -0.47278285 -1.6446143 -0.9094059 -0.93282676 -2.1763048
-1.9069253 1.2306963 0.22635701 -1.5428377 0.15698063 0.24761356 -0.17233147 -0.8583123
0.75160056 0.17473006 -1.4718659 -1.4821136 -0.7291293 -0.7070719 -2.104809 -0.20397969
-0.9489722 -1.2533407 -1.7646269 -1.4447491 0.66145873 0.72707176 -0.09650097 -0.80780846
-0.838261 0.54954267 -0.20756732 0.21019225 -0.55505294 -0.42362022 -0.31490728 -0.11629242
00000000: 16f9 b0be 6b47 2b3f de90 743f 6205 d43e
00000010: de18 be3e a11d 05bf 4ef7 c33d 0633 d9be
00000020: 23b4 5f3e d568 313f af46 d43f 70ef 733f
00000030: 326e a03d b76f 203e 25f6 a23f d82e dfbe
00000040: 3b3b 29bf be01 fa3e be71 07bc ba72 ec3e
00000050: fc36 af3f 4a7e 27c0 64dc b7bf 95ff e33e
00000060: e630 033f 682f 143f 132b bbbf 3990 97bf
00000070: f485 dabe 042b 963f bcda 58be 2a63 78bf
00000080: 3e4e b5bf b3ab 5e3f d259 313f e146 c3be
00000090: 8941 8ebe 5485 aa3d d701 b0bd 16ee a73f
000000a0: 75ff bf3f f104 0340 54e9 cd3e 9852 4fbe
000000b0: 5265 c4bf e152 01c0 03c1 463f d083 573f
000000c0: dd09 3ebf 61d1 1ebf 015a 0fbf 45c8 debe
000000d0: 5876 1bbb 17e9 733e 0086 033f 461d 11be
000000e0: 18e4 f03e 500e 9c3d db2a e63e 434d d33e
000000f0: 9276 bb3f 4d95 853f 4385 24bf aa65 dfbf
00000100: 402f a0bf b5ab 5b3f ede5 8ebe bf35 29bf
00000110: 8807 09bf 3f00 233e d99c 84be 5c35 2c3f
00000120: f3e2 d4bf b3e7 293f 9812 f73e b18d 133f
00000130: f066 e43e 7404 913f 2f6c 8bbf 155d 0fc0
00000140: 4876 84bf 8554 063f 3dfa 203f 7a1e 3a3f
00000150: 365f 983e 7302 bbbe d845 86bf 161a aabf
00000160: 97fd 09bf be9b 833f 46fa 863e fb02 6a3f
00000170: cdbe 1e3f 243e 8d3f a2eb 703f e058 a13f
00000180: e4d8 aa3f f44b b23f bf19 b83e c3c5 0dc0
00000190: d08d babf 3692 6abe ca90 6f3d 06d1 91bf
000001a0: 0ba7 a4bf 9d5d a73f 19cb 143f 9c8c 9dbf
000001b0: c3f4 0dbf 07c4 d2be 6817 d2be 34c2 883f
000001c0: 75ff a23e 9f7d 643d 2b93 8f3f bded 88bd
000001d0: 9d74 8cbe d0d4 d9be d664 babf d7ea 3f3e
000001e0: 3e6f ed3e e768 873f 3485 593f 2dfc 6c3f
000001f0: 68af 6ebf 6d34 9fbf ace2 173f c6fc 8b3f
00000200: 0d0c d33e 56f7 2ebf 1c90 6ebf cbc6 d03f
00000210: 7f32 07be 8f3f a63e 7b36 1a3e da72 e03f
00000220: 500e 353f a47a 25bf 0cea 81be a19c a1bf
00000230: f57e 49bf 75cd 2f3e 6fa6 2040 cf26 3dbe
00000240: 00d1 b0bf bf4f bebf 2949 86bf b101 5d3f
00000250: a8f3 ab3e afdd c6bb f89b 22bc cf71 72bf
00000260: 6e51 adbf ef80 4ac0 0d73 3ebe 8b9d 013f
00000270: 5eae 423f e77a 2b3f 5b11 293e f8fc 463f
00000280: f81b 853f 1bba 603e 296f 373f 4c8c 853d
00000290: cc72 9fbf 3239 dc3f a4b6 fd3f 3f08 5b3f
000002a0: 2262 a93f f5ae 993f 5f80 ef3e e797 1f3f
000002b0: f714 883f 3931 603f 4042 4a3e b7e9 28bf
000002c0: f709 cabd dfa0 63bf c6dc 1abf 8954 833e
000002d0: 50f6 643f bcf4 bebb 4c68 babd c81d a53f
000002e0: f559 b83f 592c 1040 9d4f 2a3e 1259 68bf
000002f0: 94bb ddbf 66f8 f4bd 1bc5 d4bf 9466 4cbe
00000300: 9d02 c0bf 5c64 b3bf 1b58 133e 6ed2 573e
00000310: d2aa 9cbf 8230 35bf 835f a4bf cea5 79bf
00000320: c3c0 c63d 1fb0 edbe 6742 de3c c96f 9b3f
00000330: 2f6b c33f f1b7 6e3f c08c d43e 14db a03f
00000340: 0e37 143f 1143 f73e f534 22be adda 6b3f
00000350: fc83 fd3f 6568 443f f3dd 783f 5ef2 55bf
00000360: cd3a 4fc0 50ae a9be 463c 963e 9810 f2be
00000370: b982 d2bf d3ce 68bf bccd 6ebf 9448 0bc0
00000380: 2116 f4bf 7587 9d3f 22ca 673e b57b c5bf
00000390: 88bf 203e 698e 7d3e a977 30be 5bba 5bbf
000003a0: e568 403f 70ec 323e 1a66 bcbf e6b5 bdbf
000003b0: 38a8 3abf aa02 35bf 31b5 06c0 0de0 50be
000003c0: d8ef 72bf 786d a0bf 4bdf e1bf 8aed b8bf
000003d0: 5c55 293f 6021 3a3f 4da2 c5bd 89cc 4ebf
000003e0: 4698 56bf d4ae 0c3f 878c 54be a33c 573e
000003f0: f317 0ebf c0e4 d8be 873b a1be b82a eebd

conv4.bias f4 [64]
-0.50311345 -2.184824 -1.5178074 -0.53947824 -1.0080776 -0.23224816 -2.3953564 -0.4426927
-1.3413476 -0.5938699 -0.4242483 0.019331342 -0.23477522 -1.8861998 -1.4782122 0.4085565
-1.1297172 -2.019211 -0.19127181 -0.98234594 -1.8994133 -1.4394839 -1.2007542 -2.0499077
-1.0331453 -0.85789704 -0.5816384 -0.71715546 -1.4333991 -1.6574136 -0.93274 -1.6925384
-1.5784153 -1.9804144 0.23222613 0.030604726 -0.7277883 -0.22207668 -0.7241337 -0.229146
-0.8883508 -1.530034 -1.3930739 -2.1914062 -1.1168609 -1.8988582 -0.9925969 -1.2185807
-1.9521191 -1.6603163 -0.81133455 -1.6337056 -1.7628689 -1.1010271 -0.25966424 -1.8151113
-0.2026908 -0.7660048 -1.2963123 -1.0149081 -2.713673 -0.5892066 -2.6706479 -1.4633448
00000000: 0bcc 00bf 28d4 0bc0 8347 c2bf 3f1b 0abf
00000010: b008 81bf 76d2 6dbe 854d 19c0 9ea8 e2be
00000020: 47b1 abbf dc07 18bf 1337 d9be c35c 9e3c
00000030: ea68 70be ff6e f1bf 0f36 bdbf 512e d13e
00000040: 939a 90bf c13a 01c0 c2dc 43be 067b 7bbf
00000050: fa1f f3bf 0241 b8bf 50b2 99bf b031 03c0
00000060: 1b3e 84bf 249f 5bbf 41e6 14bf 8097 37bf
00000070: 9f79 b7bf 2126 d4bf 0cc8 6ebf 19a5 d8bf
00000080: 8309 cabf 387e fdbf b0cc 6d3e c3b6 fa3c
00000090: 5650 3abf 1268 63be d360 39bf 40a5 6abe
000000a0: f56a 63bf 27d8 c3bf 3f50 b2bf 0040 0cc0
000000b0: 4cf5 8ebf c90d f3bf d51a 7ebf 74fa 9bbf
000000c0: 0adf f9bf 3f85 d4bf 9fb3 4fbf 441d d1bf
000000d0: b0a5 e1bf 75ee 8cbf b6f2 84be 9155 e8bf
000000e0: 2d8e 4fbe e418 44bf 90ed a5bf 82e8 81bf
000000f0: d2ac 2dc0 3ed6 16bf e5eb 2ac0 e24e bbbf

bn4.weight f4 [64]
3.0236702 3.3889093 4.1013837 4.270927 3.8455272 2.7379313 3.535937 4.255539
3.6592216 3.8892486 3.8013713 3.1996264 2.6377182 3.8663344 3.5443494 2.3909574
4.61989 4.0995245 2.8418522 4.068026 3.9248433 4.279749 3.5494647 4.144424
3.4744284 3.8270242 4.1676917 4.386945 4.5838504 3.4575784 4.0891166 4.2254596
4.4635925 3.4785674 2.494858 2.612707 2.969777 4.059386 4.529878 4.140532
3.5407948 4.5117807 4.13429 3.6569145 3.6651943 4.0308175 2.3842688 4.1179585
3.8618286 4.0160236 2.0378947 4.3545237 4.1531105 4.3473816 3.3132942 4.0798078
3.0027337 3.6503239 3.6594079 4.2128 4.351127 3.8071613 4.55738 3.607975
00000000: d083 4140 e4e3 5840 893e 8340 6fab 8840
00000010: 1e1d 7640 443a 2f40 cb4c 6240 602d 8840
00000020: b030 6a40 73e9 7840 ab49 7340 aec6 4c40
00000030: 60d0 2840 0672 7740 9fd6 6240 7205 1940
00000040: 24d6 9340 4e2f 8340 e8e0 3540 452d 8240
00000050: a230 7b40 b4f3 8840 6e2a 6340 1f9f 8440
00000060: 095d 5e40 f7ed 7440 bb5d 8540 da61 8c40
00000070: e7ae 9240 f748 5d40 0bda 8240 f736 8740
00000080: c0d5 8e40 d9a0 5e40 c1ab 1f40 9736 2740
00000090: d410 3e40 7de6 8140 c3f4 9040 3d7f 8440
000000a0: 629c 6240 8260 9040 1b4c 8440 e30a 6a40
000000b0: 8b92 6a40 75fc 8040 dc97 1840 51c6 8340
000000c0: 3328 7740 4483 8040 de6c 0240 4258 8b40
000000d0: 48e6 8440 c01d 8b40 030d 5440 c98d 8240
000000e0: ca2c 4040 e89e 6940 bd33 6a40 42cf 8640
000000f0: 6f3c 8b40 88a8 7340 0fd6 9140 10e9 6640

bn4.bias f4 [64]
0.27909002 0.27126235 0.29653704 -0.086621724 0.1401304 -0.2291245 0.17262186 0.17589587
0.1324298 0.019981269 -0.062430955 0.17125452 0.09399427 0.16803794 0.09713736 0.1609144
0.24482663 0.21343759 0.21232645 0.31746262 0.116974816 0.078966185 0.084894635 0.1353741
0.033157274 0.23991607 0.2957517 -0.15986204 -0.16939262 0.1400005 0.06978366 0.037392233
-0.012774525 0.13977903 0.13272554 0.09759042 0.27326894 0.10563633 0.02379706 0.07319116
0.45103994 0.009084886 0.19257475 0.058260746 0.2061277 0.10934996 0.0813153 0.28823248
0.039404966 0.1896901 0.06734957 -0.0038553746 -0.06263221 0.29169887 0.06524149 0.08562599
0.2778162 0.25206858 0.09116059 0.052269146 0.13520424 -0.04738836 -0.085694045 0.35978064
00000000: e3e4 8e3e e6e2 8a3e b4d3 973e bb66 b1bd
00000010: 587e 0f3e 9d9f 6abe c9c3 303e 0c1e 343e
00000020: ad9b 073e c2af a33c 9ab7 7fbd 585d 2f3e
00000030: 1180 c03d 2312 2c3e f4ef c63d bfc6 243e
00000040: d5b3 7a3e 628f 5a3e 1b6c 593e 768a a23e
00000050: 7e90 ef3d 06b9 a13d 3ddd ad3d 829f 0a3e
00000060: eccf 073d 8fac 753e c46c 973e e0b2 23be
00000070: 4275 2dbe 4b5c 0f3e bcea 8e3d 9928 193d
00000080: 3e4c 51bc 3c22 0f3e 34e9 073e 7cdd c73d
00000090: e8e9 8b3e dc57 d83d 0df2 c23c 3fe5 953d
000000a0: b5ee e63e c6d8 143c 5132 453e d2a2 6e3d
000000b0: 2413 533e dff2 df3d a388 a63d 3593 933e
000000c0: 1a67 213d 1f3e 423e 92ee 893d 74aa 7cbb
000000d0: 5145 80bd 8e59 953e 559d 853d ae5c af3d
000000e0: ed3d 8e3e 220f 813e 67b2 ba3d 2c18 563d
000000f0: fb72 0a3e 4c1a 42bd 5c80 afbd 2b35 b83e

bn4.running_mean f4 [64]
4.7669168 4.438521 3.7953918 3.078882 1.6343727 2.429467 0.7230297 2.4047942
2.4042554 2.1727908 3.3571944 5.205671 3.1618712 1.9382509 2.3160043 7.7560983
2.9801707 1.8752966 4.635185 5.127139 2.340801 4.0655613 1.2491484 1.4640762
1.5477241 1.9276052 3.4873352 2.1311834 1.5361195 2.9347613 1.7601432 1.9411248
4.242354 5.61405 10.284099 3.826559 7.7420897 3.5949113 1.92906 2.4646115
7.30907 2.341768 3.179644 1.9548241 5.0501714 4.0924983 4.3645105 3.8126667
0.82191443 2.4627159 2.6721785 3.502346 1.7246125 2.5668714 1.552999 2.375486
8.617834 5.4058037 3.1250985 2.4762063 2.1137605 2.1130433 2.6948934 3.099141
00000000: 958a 9840 5d08 8e40 b3e7 7240 670c 4540
00000010: 2033 d13f 637c 1b40 7918 393f 26e8 1940
00000020: 52df 1940 010f 0b40 46dc 5640 db94 a640
00000030: 195c 4a40 9b18 f83f 6a39 1440 f531 f840
00000040: 1ebb 3e40 b809 f03f 6f53 9440 8611 a440
00000050: afcf 1540 1419 8240 18e4 9f3f d966 bb3f
00000060: d31b c63f c4bb f63f 8030 5f40 4f65 0840
00000070: 909f c43f 21d3 3b40 5f4c e13f c776 f83f
00000080: 5dc1 8740 4ca6 b340 ab8b 2441 58e6 7440
00000090: 33bf f740 0713 6640 70eb f63f 32bc 1d40
000000a0: e7e3 e940 87df 1540 4a7f 4b40 ad37 fa3f
000000b0: 019b a140 bff5 8240 12aa 8b40 bb02 7440
000000c0: fc68 523f 239d 1d40 f904 2b40 7026 6040
000000d0: 1ac0 dc3f 9f47 2440 acc8 c63f f607 1840
000000e0: a6e2 0941 58fc ac40 9d01 4840 2a7a 1e40
000000f0: da47 0740 1a3c 0740 2279 2c40 5358 4640

bn4.running_var f4 [64]
247.2925 358.8227 229.87411 164.00476 83.494095 65.88148 39.57049 107.62866
130.92935 107.258255 145.70947 184.7493 94.25308 91.69607 146.1901 218.84816
128.92755 116.37152 286.51486 426.54907 116.199036 324.13193 63.696804 88.92682
57.19232 83.628624 183.77654 101.03508 72.06209 153.47482 97.47089 111.01954
337.2164 428.6673 489.45627 147.60052 253.32124 192.41664 84.79536 154.30367
495.23425 128.1567 237.58922 111.62787 279.94186 213.62616 222.4699 299.8295
40.859543 144.58115 98.3376 227.93109 88.5381 156.29828 58.47607 143.98886
412.74908 277.16733 159.3301 155.0522 154.75993 80.15454 171.6311 172.25986
00000000: e14a 7743 4e69 b343 c6df 6543 3801 2443
00000010: fafc a642 51c3 8342 2f48 1e42 e041 d742
00000020: eaed 0243 3a84 d642 a0b5 1143 d2bf 3843
00000030: 9481 bc42 6364 b742 aa30 1243 21d9 5a43
00000040: 74ed 0043 38be e842 e741 8f43 4846 d543
00000050: e865 e842 e310 a243 87c9 7e42 88da b142
00000060: f0c4 6442 db41 a742 cbc6 3743 f611 ca42
00000070: ca1f 9042 8e79 1943 18f1 c242 010a de42
00000080: b39b a843 6a55 d643 67ba f443 bc99 1343
00000090: 3d52 7d43 a96a 4043 3997 a942 bd4d 1a43
000000a0: fc9d f743 1d28 0043 d796 6d43 7841 df42
000000b0: 8ff8 8b43 4ca0 5543 4b78 5e43 2dea 9543
000000c0: 2c70 2342 c694 1043 daac c442 5cee 6343
000000d0: 8213 b142 5c4c 1c43 7fe7 6942 26fd 0f43
000000e0: e25f ce43 6b95 8a43 8154 1f43 5d0d 1b43
000000f0: 8bc2 1a43 204f a042 90a1 2b43 8642 2c43

lin.weight f4 [10, 64]
0.10436772 1.3442887 0.7524611 -0.98095775 -0.05583341 -0.68075246 -0.8222746 -1.050831
0.96790105 0.52710545 -0.55508256 0.21837214 0.7726514 1.0550948 1.1190815 0.40391582
0.46062264 0.43359703 0.4368923 0.5290857 1.5273618 -0.32734537 0.9424374 0.50284356
-0.016593333 0.038441535 0.22248672 -1.5040735 -0.44851673 0.5767153 -1.50636 0.5354515
-1.9420507 0.7898355 -0.052740205 -0.36608306 0.59831595 0.53235674 -1.2171842 -1.217562
0.55532295 -1.1018142 1.1304814 1.2447499 0.85322213 -1.5377359 0.16132893 0.34866136
-0.19536708 1.2132937 0.09485664 0.03551415 -1.178775 -1.2500529 -1.0402808 -0.7589852
-0.13017257 1.3021431 -1.4346871 -2.0261984 -0.684378 0.33949342 -1.2551616 1.4258685
0.60133445 0.09955532 1.2047963 1.1662184 -1.2554562 -0.9045417 1.0069586 1.2373108
-2.1478393 -1.9387364 -0.5232366 -1.6134576 -1.3131908 -0.89612263 -1.5276006 0.495352
-0.90247685 1.3500919 0.35308203 -0.4482487 0.035676017 -1.5246962 -1.306868 -1.4192861
-0.6856018 -0.25402215 1.5669943 -0.8581052 0.26892227 -1.8843455 0.9804231 -0.34708026
1.46254 -0.04348299 0.30432186 0.10877945 0.026905714 -1.3207209 2.0444639 0.64547
0.6558474 0.27117705 -0.6517711 -1.1364979 -1.7928936 2.2300048 0.43772063 1.5415319
1.7594218 -0.59534425 -0.7511239 -0.6910343 -0.48067266 1.3344644 0.63635373 1.5879586
0.50505877 0.10841006 1.6916248 0.73618877 -1.4820081 -0.73098296 -0.7763991 -0.09229036
-4.3033934 -1.4063622 -0.59105855 0.39466155 -0.15475817 -0.9270417 -0.95403314 -0.77897036
-0.34372687 1.3764648 2.2291408 -0.010203875 0.674922 1.7652984 -0.27460864 0.6082747
1.9285909 -0.54167014 -3.09665 -4.637102 -0.4868534 -0.7200558 -1.912443 -0.06664579
-0.4959833 -4.2251573 0.73454463 1.9839505 3.7543225 1.5359963 -1.4105262 -0.94998896
-0.7162808 -0.14380641 -1.6426907 -2.8637624 -1.108549 -0.98096937 0.61090285 2.4342372
-3.7472155 -1.9522253 1.4318451 0.11672525 -1.2658582 0.27696013 -0.73031765 -2.9008114
-0.20818175 0.1426725 0.4039167 1.5290296 0.49993262 0.30278397 -0.9456492 -1.5527078
-2.363091 1.0362235 -0.779388 2.0011668 -1.0674422 1.6328241 0.7171148 -1.6696272
0.15145431 -1.6456597 -3.0967677 -1.0824327 1.7957044 1.4120252 -0.18759854 1.4413846
0.8013867 0.7769599 0.9613247 1.4476852 -0.8259106 -1.8656108 -0.2572921 -1.5321251
0.8331531 -2.968349 -0.04860759 0.21665232 -1.5020965 1.647333 0.11107885 1.6829605
1.4925562 1.5077478 -1.0723088 0.61826956 -0.050958823 -0.32355115 0.26026046 -1.0523393
0.77571636 -2.064898 0.81031436 0.95418006 0.29254466 1.527634 -1.2576586 0.8716051
0.30021873 0.40108234 -2.202052 -0.96247923 1.2688302 -0.039796293 0.06390653 -2.4435399
-1.2948889 -2.5876176 0.66396385 -1.0927228 2.783744 0.62385184 1.3173922 -0.44446692
1.2129151 -2.2706702 0.30825198 -0.7116317 2.1434512 -1.1830276 2.4555879 -0.76583797
00000000: bebe d53d a711 ac3f 4aa1 403f 0c20 7bbf
00000010: 93b1 64bd cb45 2ebf 9780 52bf a181 86bf
00000020: 5dc8 773f 62f0 063f e419 0ebf f29c 5f3e
00000030: 7bcc 453f 590d 873f 103e 8f3f 0ece ce3e
00000040: bbd6 eb3e 6e00 de3e 59b0 df3e 2972 073f
00000050: 9780 c33f d099 a7be 9443 713f 5bba 003f
00000060: beee 87bc df74 1d3d 8fd3 633e 7b85 c0bf
00000070: fca3 e5be 9da3 133f 68d0 c0bf 5913 093f
00000080: 1e95 f8bf a932 4a3f 1d06 58bd 3d6f bbbe
00000090: 3c2b 193f 8848 083f b1cc 9bbf 12d9 9bbf
000000a0: a529 0e3f 3f08 8dbf 9db3 903f f753 9f3f
000000b0: c46c 5a3f 88d4 c4bf 6933 253e be83 b23e
000000c0: 4f0e 48be 354d 9b3f 3344 c23d 4977 113d
000000d0: 19e2 96bf bc01 a0bf ec27 85bf db4c 42bf
000000e0: f54b 05be a0ac a63f d4a3 b7bf 3cad 01c0
000000f0: 6633 2fbf 15d2 ad3e 23a9 a0bf dc82 b63f
00000100: 0ef1 193f a9e3 cb3d c436 9a3f a546 953f
00000110: cab2 a0bf 0b90 67bf 05e4 803f 3360 9e3f
00000120: 3376 09c0 8428 f8bf d5f2 05bf c785 cebf
00000130: a316 a8bf 4b68 65bf 6b88 c3bf c79e fd3e
00000140: b908 67bf d0cf ac3f 2bc7 b43e db80 e5be
00000150: 0421 123d 3f29 c3bf 7347 a7bf 2bab b5bf
00000160: 9983 2fbf 310f 82be 4593 c83f c8ac 5bbf
00000170: 2eb0 893e 3c32 f1bf 02fd 7a3f 81b4 b1be
00000180: 8334 bb3f 381b 32bd 13d0 9b3e c3c7 de3d
00000190: 5f69 dc3c 620d a9bf 7fd8 0240 863d 253f
000001a0: 9de5 273f b8d7 8a3e 79da 26bf c378 91bf
000001b0: 8a7d e5bf 66b8 0e40 eb1c e03e eb50 c53f
000001c0: bc34 e13f 7b68 18bf a849 40bf a0e7 30bf
000001d0: ba1a f6be bbcf aa3f 14e8 223f 3a42 cb3f
000001e0: 884b 013f 1806 de3d 2987 d83f de76 3c3f
000001f0: 71b2 bdbf b321 3bbf 17c2 46bf ba02 bdbd
00000200: 66b5 89c0 ad03 b4bf 9d4f 17bf 1411 ca3e
00000210: ed78 1ebe 9b52 6dbf 843b 74bf 9a6a 47bf
00000220: f8fc afbe 0030 b03f 3eaa 0e40 272e 27bc
00000230: b0c7 2c3f 4cf5 e13f 8199 8cbe e4b7 1b3f
00000240: 11dc f63f e5aa 0abf 832f 46c0 2463 94c0
00000250: d944 f9be 9455 38bf efca f4bf 977d 88bd
00000260: 86f1 fdbe 7d34 87c0 1e0b 3c3f 17f2 fd3f
00000270: d246 7040 879b c43f 1f8c b4bf 7a32 73bf
00000280: 2e5e 37bf fd41 13be b043 d2bf e247 37c0
00000290: efe4 8dbf cf20 7bbf 2164 1c3f 8bca 1b40
000002a0: 61d2 6fc0 85e2 f9bf b346 b73f a60d ef3d
000002b0: a407 a2bf b8cd 8d3e 19f6 3abf e5a6 39c0
000002c0: 992d 55be bd18 123e 2bce ce3e 3eb7 c33f
000002d0: 2bf7 ff3e 8006 9b3e 1116 72bf 21bf c6bf
000002e0: e23c 17c0 f9a2 843f f985 47bf 1e13 0040
000002f0: f2a1 88bf 6100 d13f d694 373f 58b6 d5bf
00000300: d716 1b3e faa4 d2bf 7131 46c0 288d 8abf
00000310: a4d9 e53f 3ebd b43f d519 40be 4a7f b83f
00000320: ae27 4d3f d8e6 463f 6019 763f c04d b93f
00000330: e16e 53bf 56cc eebf cabb 83be ad1c c4bf
00000340: 8649 553f 6ef9 3dc0 c118 47bd 1bda 5d3e
00000350: b344 c0bf cfdb d23f 4f7d e33d 406b d73f
00000360: 150c bf3f e1fd c03f 6a41 89bf ea46 1e3f
00000370: 33ba 50bd 7fa8 a5be dc40 853e 0eb3 86bf
00000380: 5995 463f 4a27 04c0 c370 4f3f 2545 743f
00000390: 6ac8 953e 8389 c33f f5fa a0bf 8321 5f3f
000003a0: 45b6 993e aa5a cd3e 6cee 0cc0 0a65 76bf
000003b0: 0769 a23f 7001 23bd 6de1 823d f562 1cc0
000003c0: ebbe a5bf 879b 25c0 89f9 293f 57de 8bbf
000003d0: dd28 3240 c1b4 1f3f 4fa0 a83f 2b91 e3be
000003e0: cd40 9b3f a952 11c0 34d3 9d3e 7f2d 36bf
000003f0: 4e2e 0940 736d 97bf 5a28 1d40 f50d 44bf

lin.bias f4 [10]
0.23725381 0.020497134 -0.896639 0.044981066 -0.59457034 -12.556064 -12.539786 -12.572547
-12.528054 -12.604533
00000000: aaf2 723e 9be9 a73c 228a 65bf 113e 383d
00000010: c335 18bf a3e5 48c1 f7a2 48c1 2729 49c1
00000020: e972 48c1 2bac 49c1

conv.0.weight f4 [8, 2, 5, 5]
-0.1659698 -0.13898216 0.048480414 -0.4147873 -0.5191935 0.9092315 1.1400067 1.161699
0.19920102 -0.501781 0.108408384 0.3171846 0.6434846 -1.0086105 -0.7021744 0.49414098
0.42947024 0.61992127 -0.88287824 -1.4118822 1.1107016 1.5500891 0.9591726 -1.086092
-2.0326707 -0.16522753 -0.014664059 0.07273264 -0.460924 -0.44622037 0.75563884 1.3152529
1.0552076 0.113969386 -0.3706003 0.09466678 0.41433877 0.41313127 -0.28847507 -0.8837201
0.10267018 0.75933164 0.7091507 -0.8449352 -1.4522332 0.81764567 1.7936223 1.3672694
-0.9338511 -1.8990037 -0.6131141 -0.89771813 -1.0491235 -1.7212489 -1.3360349 -0.14660814
-0.18929668 0.05899435 0.20583431 0.33250287 -0.29404804 -0.2637226 -0.053660978 1.0267464
0.53619975 0.0016361362 -0.5435236 -0.6665403 -0.18709424 -0.34892932 1.4031473 1.9552562
1.6853583 1.7340167 0.14394806 -0.5645466 -0.8896572 -1.2796223 -1.4482974 -1.331056
0.16851617 0.04907734 0.115286395 0.38526216 0.20106222 -0.48216432 -0.14576122 0.14062044
0.58305514 0.608959 -0.13689867 -0.2961534 -0.601144 -0.27727315 -0.31703198 1.4343245
1.6853799 1.953461 1.8503962 0.31341583 1.025807 1.0087558 0.98469687 0.45339316
-0.54986876 -1.262976 -1.7759278 -1.5058032 -1.2416248 -0.84837705 0.23015106 -0.124442
0.12910458 -0.07027938 -0.46189377 0.36018956 0.71968055 0.77151704 -0.10095557 -0.2651414
0.38748923 1.2284266 1.4644 -0.027397983 -0.2539133 1.0487823 1.4238155 1.0634133
0.11051652 -0.67916465 -1.323189 -1.5844612 -1.6243529 -1.5430872 -1.0233616 0.07345303
0.009510097 0.29086432 -0.48484412 -0.41526344 0.69278747 0.7907585 0.5566818 0.06254693
-0.36681876 0.63042235 1.5447688 1.4048183 -0.060802083 -0.46185234 0.37472954 0.72092503
0.015285697 0.10613998 -0.08681729 -0.03356249 -0.15046304 -0.14127661 -0.5229464 -0.51419866
0.021346174 -0.4087082 -0.6243095 -0.87948096 -1.1502151 -0.22458787 -0.31122506 0.18192804
0.6180423 0.7107242 -1.4471346 -0.37422752 1.2766258 2.6705434 1.835275 0.33036324
0.45152327 0.624892 -0.2002084 0.6216913 0.1718648 -0.15503871 -0.45168775 -0.44832072
-0.2018155 -0.18273155 -0.8917228 -0.5926877 -0.98980033 -0.89277726 -0.20712718 -0.30710465
0.46225092 0.72633696 0.5495484 -1.9224195 -0.8701566 1.1761631 2.3825946 2.3183677
-0.19812188 -0.406765 -0.032251652 0.5574052 0.60550076 -0.7389931 -1.1413293 -1.1222879
-0.7018485 -0.47079146 0.9720439 1.5758775 1.331807 -0.24192807 -0.8057477 0.74619025
1.475143 2.0047271 0.5037092 -1.1197453 0.12846546 -0.54397607 -1.1456722 -1.1996953
-0.6574975 0.18270828 -0.34441647 -0.3654801 1.0730253 0.80619293 -0.61171186 -0.83692396
-0.880196 -0.97014 -0.40437314 0.79099345 1.5560541 1.3588406 0.05155582 -1.0266182
0.74207646 1.576414 1.9389716 0.3695558 -0.8074084 0.10441733 -0.63061136 -1.0000466
-1.3383836 -0.72660524 -0.30699062 -0.62988734 -0.46181583 -0.48175323 -0.45402318 0.4590534
00000000: fdf3 29be 5751 0ebe 6693 463d 005f d4be
00000010: dde9 04bf 65c3 683f bdeb 913f 8eb2 943f
00000020: 5afb 4b3e b874 00bf 3705 de3d 0566 a23e
00000030: 68bb 243f 261a 81bf b4c1 33bf 0c00 fd3e
00000040: 86e3 db3e 29b3 1e3f 4f04 62bf 8eb8 b4bf
00000050: 782b 8e3f 5269 c63f 568c 753f 1005 8bbf
00000060: 4717 02c0 6831 29be 8541 70bc daf4 943d
00000070: 3bfe ebbe ff76 e4be 8c71 413f 355a a83f
00000080: 0b11 873f c868 e93d 53bf bdbe a8e0 c13d
00000090: 3624 d43e f185 d33e 01b3 93be 7b3b 62bf
000000a0: be44 d23d 8f63 423f e68a 353f ac4d 58bf
000000b0: c7e2 b9bf 3a51 513f 6a95 e53f af02 af3f
000000c0: de10 6fbf 8e12 f3bf 0cf5 1cbf dbd0 65bf
000000d0: ae49 86bf e251 dcbf 3103 abbf 7220 16be
000000e0: fdd6 41be 0fa4 713d 3bc6 523e d13d aa3e
000000f0: 778d 96be a606 87be 9dcb 5bbd 6d6c 833f
00000100: 6344 093f 9f73 d63a 5d24 0bbf 63a2 2abf
00000110: a295 3fbe dda6 b2be 559a b33f d645 fa3f
00000120: d2b9 d73f 42f4 dd3f 1f67 133e 2086 10bf
00000130: 93c0 63bf aaca a3bf cf61 b9bf 0b60 aabf
00000140: 818f 2c3e 5205 493d 461b ec3d 1541 c53e
00000150: 41e3 4d3e 3ede f6be 6e42 15be cefe 0f3e
00000160: 1a43 153f bde4 1b3f 2a2f 0cbe 6ba1 97be
00000170: 93e4 19bf bff6 8dbe 0452 a2be f297 b73f
00000180: 87ba d73f 030b fa3f c8d9 ec3f 0a78 a03e
00000190: a54d 833f e91e 813f 1815 7c3f 2623 e83e
000001a0: 33c4 0cbf 33a9 a1bf 9a51 e3bf 29be c0bf
000001b0: 90ed 9ebf 3d2f 59bf b8ac 6b3e 73db febd
000001c0: fe33 043e a3ee 8fbd 577d ecbe c46a b83e
000001d0: fc3c 383f 2482 453f cbc1 cebd 9dc0 87be
000001e0: fd64 c63e 153d 9d3f 7671 bb3f bc71 e0bc
000001f0: ed00 82be 803e 863f 963f b63f ed1d 883f
00000200: 7c56 e23d bcdd 2dbf 425e a9bf a0cf cabf
00000210: ccea cfbf e283 c5bf 83fd 82bf 8b6e 963d
00000220: 3dd0 1b3c 2bec 943e 7d3d f8be 699d d4be
00000230: 855a 313f 266f 4a3f b382 0e3f 9b18 803d
00000240: abcf bbbe 5c63 213f fcba c53f 16d1 b33f
00000250: 9b0b 79bd e977 ecbe 8ddc bf3e 8b8e 383f
00000260: dc70 7a3c eb5f d93d 43cd b1bd d278 09bd
00000270: fc12 1abe d1aa 10be d1df 05bf 86a2 03bf
00000280: 2cde ae3c 3442 d1be bfd2 1fbf aa25 61bf
00000290: 403a 93bf 5dfa 65be e458 9fbe 584b 3a3e
000002a0: 0538 1e3f 05f2 353f b53b b9bf c09a bfbe
000002b0: 7968 a33f 2fea 2a40 4bea ea3f 5f25 a93e
000002c0: 0f2e e73e ecf8 1f3f 6e03 4dbe 2927 1f3f
000002d0: 53fd 2f3e 78c2 1ebe 9e43 e7be 4b8a e5be
000002e0: b9a8 4ebe fb1d 3bbe f247 64bf 62ba 17bf
000002f0: 8e63 7dbf 0d8d 64bf 2619 54be d23c 9dbe
00000300: 27ac ec3e 38f1 393f 34af 0c3f d811 f6bf
00000310: 95c2 5ebf 838c 963f 6e7c 1840 2360 1440
00000320: 76e0 4abe 8143 d0be 4f1a 04bd 1bb2 0e3f
00000330: 1902 1b3f a72e 3dbf 1417 92bf 21a7 8fbf
00000340: 58ac 33bf 940b f1be ded7 783f 5bb6 c93f
00000350: a778 aa3f febb 77be 7b45 4ebf 5306 3f3f
00000360: 7cd1 bc3f 734d 0040 16f3 003f d053 8fbf
00000370: 738c 033e 0442 0bbf 63a5 92bf 9e8f 99bf
00000380: c251 28bf e117 3b3e 5b57 b0be 3520 bbbe
00000390: e558 893f a962 4e3f 2699 1cbf a640 56bf
000003a0: 8654 61bf 185b 78bf ff09 cfbe 8c7e 4a3f
000003b0: c82c c73f 7dee ad3f 322c 533d 3a68 83bf
000003c0: b9f8 3d3f efc7 c93f 3930 f83f 6b36 bd3e
000003d0: 51b2 4ebf c1d8 d53d bf6f 21bf 8701 80bf
000003e0: 2750 abbf cd02 3abf e02d 9dbe 4c40 21bf
000003f0: 2073 ecbe 5ca8 f6be ba75 e8be 0c09 eb3e

conv.0.bias f4 [8]
-1.0896907 -1.7904674 -0.66772807 -3.4343588 -0.743695 -0.7074349 0.2626631 1.056261
00000000: fc7a 8bbf 092e e5bf 3af0 2abf 89cc 5bc0
00000010: cc62 3ebf 741a 35bf c77b 863e 8f33 873f
