NCC_Code/Models/2022-07-10_16-29-44_model.pt (torch, 115275 bytes, 50 tensors)

conv1.weight f4 [8, 2, 5, 5]
0.14416125 -0.07485675 -0.22550797 -0.085493274 0.1967605 -0.3467591 -0.36355636 -0.33590534
-0.18847464 -0.0077634975 0.37305033 0.44513822 -0.1016772 -0.03711502 0.3299374 0.087135404
-0.023144865 -0.092092246 -0.1792556 0.28914043 -0.00398458 -0.1995194 -0.3031455 0.15709607
-0.10390756 -0.19152692 0.022668079 0.072222 -0.07560181 -0.2770638 -0.14459167 -0.35654148
-0.19313926 -0.24696177 -0.26233107 -0.11185126 -0.033030685 0.4335847 0.14723235 -0.15628138
-0.04801042 0.18757178 0.16563986 0.36315182 -0.23479317 0.079820216 -0.0052637067 0.16660824
-0.2816396 -0.042844642 0.30103838 0.38145396 0.18101408 0.21997736 -0.20592716 -0.15622601
-0.10137017 -0.061617002 0.11442863 -0.17333852 -0.26196396 0.20099248 -0.074426174 -0.08683823
-0.030565336 0.22466318 0.026024163 -0.14225933 0.15149336 0.06275173 -0.035405524 -0.09772304
-0.19685842 -0.08739103 -0.16906396 0.06876783 0.18482634 0.28266415 0.05198573 0.21489988
0.22975187 -0.0139053 -0.11925155 -0.20900345 0.07426022 -0.11756499 -0.51306 -0.1651585
-0.36449957 -0.13843271 -0.26870397 -0.14813435 0.06241541 -0.12447314 -0.015933732 -0.068796195
-0.14933822 -0.043625265 -0.36277035 -0.17404321 0.36713335 0.11066312 0.2711035 0.36687928
0.23033318 0.51963925 0.5602076 0.1174804 0.46890587 0.27459386 -0.17495343 -0.08112161
0.04695358 -0.085432276 -0.15699238 -0.11536971 0.17221695 -0.12063772 -0.16771571 -0.22569434
0.09825961 -0.10495816 -0.16725829 -0.45802686 -0.032755323 -0.17465398 0.18270633 0.17002383
-0.2012055 -0.20347068 0.23371895 0.23655434 0.23861703 0.65073746 0.15574963 0.044696864
-0.24071684 -0.10418043 -0.09352771 -0.07623228 -0.08816667 -0.37097886 -0.22966473 -0.21252182
-0.14676873 -0.015436823 0.029069347 0.011948905 0.116676465 -0.31391785 0.11987994 0.28421676
0.58988094 0.25057027 0.22895248 0.074368745 0.19026029 -0.19823089 -0.1488911 0.18203314
0.016727092 0.019428035 -0.36263826 -0.31042498 -0.29825124 -0.06818345 0.15349706 -0.03808555
-0.04801572 0.055682905 -0.027410107 -0.11688404 0.18473855 0.26843265 -0.34894967 0.08061563
0.4162475 0.20706493 0.37454137 0.11905128 0.08558571 -0.33790213 -0.20952167 -0.19918641
-0.33519852 -0.063000076 -0.19864152 0.14670445 -0.18775244 -0.078564554 0.21698074 -0.21017778
0.05069719 0.05641696 -0.050571043 0.048507936 0.23023286 -0.14247905 -0.17338628 0.45344138
-0.16871655 -0.55570704 -0.05606852 -0.18847276 -0.15550278 -0.054249134 0.28385898 -0.012785347
0.2954203 0.08456226 -0.16472787 0.16601938 -0.11299186 0.047354527 0.37836954 0.087685354
-0.233554 -0.16350427 -0.48699722 -0.38690746 -0.11542204 -0.31855428 -0.32664415 -0.014634571
-0.050295353 -0.3108419 -0.17418702 -0.39517102 -0.47585145 -0.44275516 0.32352763 0.02653623
0.09739852 0.060103692 0.19739479 0.045278534 0.14755611 0.531601 0.26014346 0.023917029
-0.10354141 -0.19138959 -0.3162319 -0.11244561 -0.060845 -0.25331417 0.047478452 -0.060188476
-0.21494976 -0.10465287 0.021874502 -0.29139838 -0.037639037 -0.07303035 0.019744989 0.065567374
00000000: 029f 133e 7f4e 99bd 90eb 66be 1917 afbd
00000010: 967b 493e 698a b1be 0f24 babe c9fb abbe
00000020: 7fff 40be f064 febb 7400 bf3e 28e9 e33e
00000030: 233c d0bd eb05 18bd 8eed a83e 0c74 b23d
00000040: 4d9a bdbc dc9a bcbd c88e 37be 370a 943e
00000050: 1491 82bb d04e 4cbe e335 9bbe cbdd 203e
00000060: 7dcd d4bd a21f 44be 68b2 b93c 21e9 933d
00000070: 1fd5 9abd 4edb 8dbe d70f 14be 9b8c b6be
00000080: 4cc6 45be 8ce3 7cbe 4250 86be 4612 e5bd
00000090: 2f4b 07bd d0fe dd3e 14c4 163e 3a08 20be
000000a0: 93a6 44bd d112 403e 7f9d 293e 09ef b93e
000000b0: 9f6d 70be c878 a33d 2c7b acbb 5a9b 2a3e
000000c0: 1133 90be dd7d 2fbd b421 9a3e ef4d c33e
000000d0: c15b 393e bf41 613e 92de 52be b6f9 1fbe
000000e0: 2a9b cfbd 1c62 7cbd 8f59 ea3d a77f 31be
000000f0: 2420 86be f9d0 4d3e c06c 98bd 3ed8 b1bd
00000100: 2864 fabc 1b0e 663e a030 d53c 6eac 11be
00000110: 1321 1b3e fb83 803d 6205 11bd 0423 c8bd
00000120: 4195 49be 11fa b2bd 1a1f 2dbe 26d6 8c3d
00000130: 1e43 3d3e 5bb9 903e fdee 543d b70e 5c3e
00000140: 1344 6b3e 0ed3 63bc 283a f4bd 0005 56be
00000150: be15 983d eac5 f0bd e657 03bf 4f1f 29be
00000160: b09f babe 4ec1 0dbe 9193 89be 88b0 17be
00000170: 4da7 7f3d c6eb febd 7587 82bc 05e5 8cbd
00000180: 1eec 18be 68b0 32bd 09bd b9be 6238 32be
00000190: e7f8 bb3e 59a3 e23d 14ce 8a3e 9ad7 bb3e
000001a0: 76dc 6b3e 1407 053f c469 0f3f 9099 f03d
000001b0: 6e14 f03e 9197 8c3e fe26 33be 1623 a6bd
000001c0: 6652 403d 1ef7 aebd 9cc2 20be f446 ecbd
000001d0: a459 303e e910 f7bd abbd 2bbe 6b1c 67be
000001e0: 563c c93d 4ef4 d6bd c245 2bbe 7f82 eabe
000001f0: 722a 06bd 7ed8 32be 5e17 3b3e ba1a 2e3e
00000200: d108 4ebe 9e5a 50be 0554 6f3e 4d3b 723e
00000210: 0658 743e bb96 263f d57c 1f3e 0f14 373d
00000220: 7a7e 76be 8d5c d5bd 758b bfbd ab1f 9cbd
00000230: ba90 b4bd f1f0 bdbe 3b2d 6bbe 529f 59be
00000240: 8b4a 16be baea 7cbc d722 ee3c 57c5 433c
00000250: 12f4 ee3d d7b9 a0be 9d83 f53d dc84 913e
00000260: 7002 173f bf4a 803e 8572 6a3e a44e 983d
00000270: 98d3 423e 0afd 4abe e976 18be e566 3a3e
00000280: 4107 893c 8b27 9f3c b9ab b9be 06f0 9ebe
00000290: 63b4 98be c4a3 8bbd 552e 1d3e 98ff 1bbd
000002a0: 22ac 44bd c213 643d 298b e0bc e660 efbd
000002b0: 1a2c 3d3e 0170 893e 88a9 b2be cf19 a53d
000002c0: 641e d53e d408 543e e3c3 bf3e 28d1 f33d
000002d0: 9047 af3d 8201 adbe d98c 56be 86f7 4bbe
000002e0: 249f abbe 2f06 81bd af68 4bbe b139 163e
000002f0: 2d42 40be 74e6 a0bd 3330 5e3e d838 57be
00000300: dba7 4f3d 7815 673d 9523 4fbd 42b0 463d
00000310: 2ac2 6b3e 07e6 11be 2c8c 31be 7829 e83e
00000320: 08c4 2cbe d142 0ebf 1ba8 65bd 01ff 40be
00000330: 1f3c 1fbe 5734 5ebd f755 913e a279 51bc
00000340: 5441 973e fa2e ad3d 6cae 28be fc00 2a3e
00000350: 4768 e7bd d2f6 413d a7b9 c13e 6194 b33d
00000360: c828 6fbe aa6d 27be b357 f9be bc18 c6be
00000370: 6462 ecbd 8c19 a3be e73d a7be d7c5 6fbc
00000380: 8002 4ebd ab26 9fbe 155e 32be db53 cabe
00000390: cda2 f3be ceb0 e2be 6aa5 a53e 8262 d93c
000003a0: e078 c73d 4a2f 763d dc21 4a3e fc75 393d
000003b0: f318 173e 0117 083f 8631 853e a5ed c33c
000003c0: 850d d4bd a2fb 43be 26e9 a1be e249 e6bd
000003d0: 9b38 79bd 65b2 81be c478 423d 3188 76bd
000003e0: ca1b 5cbe 3e54 d6bd 2832 b33c 2b32 95be
000003f0: 642b 1abd f090 95bd 3ec0 a13c 3048 863d

conv1.bias f4 [8]
0.43369576 0.29508078 -0.085532725 0.019263534 -0.105245516 0.11717345 0.2559866 -0.2804086
00000000: 5f0d de3e d414 973e c82b afbd 8fce 9d3c
00000010: f68a d7bd a2f8 ef3d ad10 833e b791 8fbe

bn1.weight f4 [8]
0.8838861 1.0304648 1.0184278 1.0554289 0.9542895 0.94268435 0.78193575 1.2003181
00000000: 5c46 623f 45e6 833f d85b 823f 4b18 873f
00000010: 514c 743f c353 713f f12c 483f 06a4 993f

bn1.bias f4 [8]
-0.15046707 -0.03578284 0.040803228 -0.09494966 0.010406038 -0.11765131 -0.1339449 0.061543882
00000000: 0a14 1abe 0791 12bd 4921 273d f874 c2bd
00000010: 167e 2a3c 2cf3 f0bd da28 09be 7015 7c3d

bn1.running_mean f4 [8]
0.8017795 0.8225633 0.6589949 0.4699732 1.1219525 0.85838616 1.1909047 0.9363211
00000000: 6c41 4d3f 8293 523f e4b3 283f 54a0 f03e
00000010: 249c 8f3f 32bf 5b3f 916f 983f bdb2 6f3f

bn1.running_var f4 [8]
0.4503763 0.51176924 1.8842787 1.046498 2.04723 3.2831702 1.7794322 3.692607
00000000: b997 e63e 4f03 033f 0b30 f13f a5f3 853f
00000010: d105 0340 761f 5240 6fc4 e33f ac53 6c40

conv2.weight f4 [16, 8, 3, 3]
0.18893401 -0.015194701 0.312937 0.028059084 0.020501956 0.108198225 0.27513096 0.31763425
0.44683072 0.15796253 0.2719433 0.39264286 0.007464683 0.16258134 -0.17860308 -0.20921081
-0.045595687 -0.042922925 -0.10045103 0.12437808 0.17544739 0.33262846 0.1074172 0.1306659
-0.31184244 -0.11090847 -0.10668503 0.008928869 -0.01377654 -0.094791435 0.020703029 -0.094402455
0.18997586 -0.0064218715 -0.038614668 -0.080513954 -0.16779587 0.057063427 -0.24083571 0.19482091
0.047959436 0.08971147 0.07990631 -0.005330619 -0.025824236 0.14402273 -0.004473319 -0.13859105
-0.09231039 -0.035962 -0.3013004 0.009572764 -0.07802147 -0.13952583 0.027451525 0.02578998
0.25022215 -0.009625624 0.052984737 0.050825957 0.15408742 0.115436725 0.21158879 0.32033578
0.17471369 -0.099401556 0.18572795 0.2873411 0.013846449 -0.28235438 0.14050907 0.15152183
-0.3158581 0.051597722 -0.22304308 -0.14076751 -0.5416896 -0.28870714 -0.05352483 0.109680966
0.2013064 -0.19960383 -0.19940692 -0.35694245 0.04536094 -0.034023635 0.16261992 -0.13006954
0.10710957 0.054129656 -0.013987955 0.037266135 0.15196142 -0.13220401 0.04431963 -0.23798008
0.15872796 0.15656243 0.3463237 0.19163823 0.006528041 -0.026538642 -0.3253658 -0.34554094
-0.22105291 0.06748198 -0.06497791 0.06693923 -0.02150025 0.037898373 -0.15471673 -0.12713115
-0.05515583 0.26879647 -0.1425565 0.38405904 -0.08763067 -0.13393676 -0.26722598 0.086441725
0.04698409 -0.0028914677 0.18574426 -0.05941979 0.17441137 0.037035137 -0.18622273 -0.15159987
0.0070966543 -0.17065395 -0.20844153 -0.2091395 -0.19104931 -0.030313676 -0.17596444 0.29765552
0.26977655 0.12519568 0.016512437 -0.41168955 0.037823357 -0.046595875 -0.15405574 0.38601047
0.3526974 0.17183846 0.16818698 -0.053208593 -0.07826398 -0.34769857 0.23071335 0.24850114
0.27310088 -0.2152851 -0.067232706 -0.11824048 0.14148286 0.19172627 0.023646927 -0.0345203
0.0786 -0.047462866 -0.09085589 -0.073621385 0.18086292 0.14210853 0.21875235 0.06423303
-0.09425094 -0.28055438 -0.02968769 -0.057579204 0.019282315 -0.13125907 -0.33091363 -0.17456703
-0.06642132 0.24346934 0.017304448 0.07318269 -0.14244366 -0.120550826 -0.085452795 0.27015772
0.17161994 0.38817748 0.07069404 0.20245664 0.16977976 0.28366703 0.06278214 0.1161091
0.10733393 0.2696793 -0.058049817 -0.16959833 -0.3061757 0.1316341 0.31588334 -0.013493396
0.2652579 -0.18009208 -0.034866843 -0.2442721 0.12952423 0.12599277 0.27610326 0.3257574
-0.38184816 0.10682745 -0.05995642 0.2808809 0.20410872 -0.38367265 0.11736481 -0.044388644
0.010609889 -0.042467404 0.027865928 -0.02063269 -0.19754493 -0.3152928 -0.16554253 -0.034790248
-0.020208014 -0.09241053 -0.064481534 0.06718447 -0.010291184 -0.1141962 -0.20961022 -0.044523742
0.18311803 0.19525002 -0.2931973 -0.3245447 -0.19997051 0.40332982 0.47021198 0.20520869
-0.3932725 -0.20333068 0.04711566 -0.24710593 -0.30176902 -0.35964704 0.18729903 0.24339165
0.11268495 0.10318208 0.047985654 0.17301223 -0.14649186 0.22905184 -0.13992248 -0.049057044
00000000: eb77 413e 32f3 78bc 4739 a03e 2adc e53c
00000010: b8f3 a73c 0897 dd3d f7dd 8c3e f5a0 a23e
00000020: ffc6 e43e eec0 213e 273c 8b3e 7c08 c93e
00000030: 4d9a f43b b97b 263e bae3 36be 5c3b 56be
00000040: 8bc2 3abd f3cf 2fbd 45b9 cdbd efb9 fe3d
00000050: 7ba8 333e 474e aa3e 8dfd db3d 48cd 053e
00000060: d0a9 9fbe fb23 e3bd ae7d dabd 644a 123c
00000070: ffb6 61bc 0322 c2bd 6699 a93c 1356 c1bd
00000080: 0889 423e 906e d2bb 6a2a 1ebd 80e4 a4bd
00000090: aed2 2bbe 57bb 693d a39d 76be 227f 473e
000000a0: 1d71 443d a6ba b73d eba5 a33d 79ac aebb
000000b0: 598d d3bc b27a 133e eb94 92bb d0ea 0dbe
000000c0: 3b0d bdbd e44c 13bd 0c44 9abe 15d7 1c3c
000000d0: b8c9 9fbd dcdf 0ebe 05e2 e03c 8245 d33c
000000e0: 1e1d 803e cbb4 1dbc 8606 593d e12e 503d
000000f0: 18c9 1d3e 176a ec3d bbaa 583e 0d03 a43e
00000100: 25e8 323e 0b93 cbbd 782f 3e3e 5f1e 933e
00000110: 37dc 623c c190 90be 9ce1 0f3e 8a28 1b3e
00000120: 27b8 a1be 2258 533d 6865 64be 5c25 10be
00000130: 2bac 0abf 6cd1 93be da3c 5bbd 6aa0 e03d
00000140: 4423 4e3e f264 4cbe 5431 4cbe 29c1 b6be
00000150: 65cc 393d 5e5c 0bbd d685 263e f330 05be
00000160: 435c db3d 0fb7 5d3d bc2d 65bc 60a4 183d
00000170: c69b 1b3e 7d60 07be 8088 353d 0db1 73be
00000180: 9589 223e e751 203e 5751 b13e d03c 443e
00000190: 2de9 d53b 9167 d9bc 5996 a6be beea b0be
000001a0: b25b 62be fe33 8a3d 2313 85bd 6f17 893d
000001b0: 4b21 b0bc 533b 1b3d 106e 1ebe ab2e 02be
000001c0: 14eb 61bd b19f 893e 55fa 11be 63a3 c43e
000001d0: b577 b3bd b826 09be d8d1 88be 5c08 b13d
000001e0: 6472 403d c77e 3dbb be33 3e3e 2a62 73bd
000001f0: e598 323e 28b2 173d 2cb1 3ebe ff3c 1bbe
00000200: 0d8b e83b e9bf 2ebe b271 55be aa28 56be
00000210: 6ea2 43be 6354 f8bc 0630 34be 4e66 983e
00000220: 2720 8a3e 4c33 003e 1745 873c f9c8 d2be
00000230: aaec 1a3d 51db 3ebd cac0 1dbe 2aa3 c53e
00000240: c194 b43e 6cf6 2f3e 3539 2c3e 41f1 59bd
00000250: de48 a0bd 8c05 b2be 1f40 6c3e 1577 7e3e
00000260: e1d3 8b3e b273 5cbe 4db1 89bd 1128 f2bd
00000270: e2e0 103e e453 443e 33b7 c13c 2865 0dbd
00000280: 09f9 a03d 6c68 42bd a712 babd cfc6 96bd
00000290: 2134 393e e684 113e 9e00 603e 9b8c 833d
000002a0: a306 c1bd d3a4 8fbe 9933 f3bc 2cd8 6bbd
000002b0: f2f5 9d3c c768 06be 836d a9be b3c1 32be
000002c0: e707 88bd 0750 793e 0fc2 8d3c cee0 953d
000002d0: c0dc 11be 5ae3 f6bd e001 afbd 1d52 8a3e
000002e0: 23bd 2f3e 33bf c63e 09c8 903d cb50 4f3e
000002f0: bfda 2d3e ce3c 913e ec93 803d 9cca ed3d
00000300: e4d1 db3d 6813 8a3e a5c5 6dbd 2fab 2dbe
00000310: 10c3 9cbe 17cb 063e 76bb a13e 6813 5dbc
00000320: e2cf 873e 0f6a 38be 89d0 0ebd 7722 7abe
00000330: 00a2 043e 4004 013e 685d 8d3e adc9 a63e
00000340: 9a81 c3be 5ac8 da3d dd94 75bd 9fcf 8f3e
00000350: e001 513e be70 c4be f65c f03d ded0 35bd
00000360: 1ad5 2d3c 4df2 2dbd 1647 e43c e305 a9bc
00000370: 3849 4abe 0f6e a1be fb83 29be 3880 0ebd
00000380: 478b a5bc bb41 bdbd e50e 84bd 0398 893d
00000390: 5b9c 28bc b3df e9bd 10a4 56be 875e 36bd
000003a0: 4b83 3b3e 9fef 473e f51d 96be b92a a6be
000003b0: 12c5 4cbe 3f81 ce3e a0bf f03e 3a22 523e
000003c0: 035b c9be eb35 50be 5afc 403d 5609 7dbe
000003d0: 7881 9abe a823 b8be 51cb 3f3e a93b 793e
000003e0: 5ec7 e63d 2051 d33d 9b8c 443d 1e2a 313e
000003f0: f601 16be 918c 6a3e d747 0fbe 0af0 48bd

conv2.bias f4 [16]
0.050216243 0.036932345 -0.37012523 -0.16834997 -0.12798825 -0.071425915 -0.072169006 -0.04592615
0.22387484 -0.0436689 -0.36882982 -0.120965086 -0.07235345 0.11604474 -0.09425994 0.005151016
00000000: 8caf 4d3d 5f46 173d 0e81 bdbe ef63 2cbe
00000010: 5a0f 03be c047 92bd 58cd 93bd 0f1d 3cbd
00000020: 723f 653e 29de 32bd 43d7 bcbe 8bbc f7bd
00000030: 0c2e 94bd dda8 ed3d 5b0b c1bd dbc9 a83b

bn2.weight f4 [16]
0.873407 0.7907429 0.87355274 1.1834131 0.86806154 0.8893414 1.0769314 0.87938297
1.0895237 0.9353565 0.9230631 1.1043289 1.0262917 0.95839727 1.0455039 0.9758796
00000000: 9a97 5f3f 206e 4a3f 27a1 5f3f 157a 973f
00000010: 4839 5e3f e1ab 633f e3d8 893f 3e1f 613f
00000020: 8375 8b3f 8673 6f3f dd4d 6c3f a65a 8d3f
00000030: 875d 833f 8659 753f 12d3 853f 3fd3 793f

bn2.bias f4 [16]
0.00043539586 -0.042967428 0.48744056 0.044341926 0.1438338 0.34975377 -0.15274091 -0.14321825
0.03598037 -0.31105563 -0.20515779 0.2786669 0.17465271 0.28832313 0.104157075 -0.0006805678
00000000: d845 e439 9dfe 2fbd cf91 f93e e19f 353d
00000010: 2b49 133e ed12 b33e 1d68 1cbe cea7 12be
00000020: 2760 133d af42 9fbe e214 52be 6ead 8e3e
00000030: 29d8 323e 179f 933e 4e50 d53d 2268 32ba

bn2.running_mean f4 [16]
0.69612664 1.1651877 0.39894423 0.6793564 0.40724036 1.0185347 0.83525056 0.8773112
1.0012381 0.33103505 0.57682383 0.6767549 0.7380877 0.86057264 0.6747818 0.700683
00000000: 5b35 323f df24 953f 6b42 cc3e 4dea 2d3f
00000010: cf81 d03e 585f 823f fbd2 553f 7897 603f
00000020: 9228 803f 6d7d a93e baaa 133f cf3f 2d3f
00000030: 51f3 3c3f 7d4e 5c3f 80be 2c3f f65f 333f

bn2.running_var f4 [16]
1.1001108 3.0660193 0.5954573 1.5559103 0.745819 1.2238812 2.7904127 1.9163076
1.621218 0.7480318 1.503318 3.5295782 1.7211924 2.7729475 2.0063996 1.4417793
00000000: 6ed0 8c3f a939 4440 e46f 183f 1228 c73f
00000010: feed 3e3f 24a8 9c3f 1f96 3240 9149 f53f
00000020: 1284 cf3f 037f 3f3f b96c c03f 9ce4 6140
00000030: 0850 dc3f f977 3140 da68 0040 398c b83f

conv3.weight f4 [32, 16, 3, 3]
0.07107906 0.09915083 -0.1647171 0.040660392 -0.04711846 -0.16834453 0.008630516 0.0014762941
0.021677818 -0.18223968 -0.15426771 0.11176259 0.0075683063 -0.20287243 0.22472176 0.020546144
0.089563474 -0.13270843 0.19045961 0.0916941 0.1684953 -0.0139887985 -0.037053086 -0.114007965
0.10509212 -0.017454615 -0.19381303 0.13608137 0.12282948 0.14296512 0.07356235 0.08872261
-0.0606335 -0.03996708 -0.17233938 -0.24271905 0.03748152 -0.042900138 -0.093849786 0.20894483
0.08030592 -0.09519015 -0.08853994 -0.25413004 -0.16509512 -0.15356816 0.13270412 -0.08702937
0.18885091 0.20737678 0.24663828 -0.4149972 -0.162277 -0.15725763 -0.0062666256 0.049669027
0.194063 -0.02331484 0.123203374 0.10767229 0.08417805 0.05437817 0.05372269 0.113126606
0.11525998 -0.05427047 0.16421005 -0.11896591 -0.21667707 0.047309317 0.104945295 0.11507504
0.30734077 -0.12649736 0.15679044 -0.18280086 -0.3635726 -0.13117182 0.23130804 0.14252956
0.12992546 0.011825298 0.24649654 0.33759865 -0.010337456 -0.19125369 -0.07529437 0.37506846
0.2799991 0.040908236 -0.10219265 0.060485754 0.09537823 0.039152835 0.04490431 0.0044893087
-0.02932962 -0.014396926 0.113008104 -0.07455208 -0.11716533 0.12434284 -0.11802934 0.008684291
0.12600982 0.13651699 -0.26192203 -0.20921987 0.11203651 0.036808882 0.0076392903 -0.05862479
0.13558218 0.1834137 -0.17849064 0.08757918 0.06968151 -0.29923448 -0.1885205 -0.22416738
0.07632004 0.17527068 -0.013439704 0.05384942 -0.11516661 -0.1623512 0.34299225 -0.12006398
0.13437682 0.256229 0.18335307 0.19874218 0.041293975 0.10450012 -0.19616593 0.11997223
0.09322328 -0.05203907 -0.112517804 -0.060702216 0.10056565 -0.13904111 -0.08585759 0.031653725
-0.054352548 0.020242212 0.03349632 -0.1631794 0.06558079 0.105344675 0.10267987 0.028408116
0.06797504 0.28293544 0.04509386 0.19878988 -0.1822824 -0.14445105 -0.24726403 -0.070814125
0.19212596 0.03958527 0.12645946 -0.10417686 0.12736446 -0.04824273 -0.12263696 -0.045715593
0.33148903 0.23326387 0.0081128245 -0.35712212 -0.091992825 0.14369743 -0.066718176 0.06756597
0.17495415 0.25194818 0.018654367 -0.1827029 0.16027245 -0.086499296 0.096061386 0.15275754
0.19303529 0.16771783 0.10205617 0.04129371 -0.14274216 0.16204098 0.19820164 -0.03389744
0.17643037 -0.028326146 0.20179167 0.04564621 -0.07509252 -0.011571353 0.17973721 0.23450151
0.28816885 -0.08344458 -0.06637858 -0.1909174 -0.18219508 -0.027671458 0.003296057 -0.11305886
0.058399126 -0.052598186 0.0743857 0.2597867 0.17845581 -0.2129412 -0.18208128 -0.030399807
0.010043569 0.09754445 0.014697511 -0.18965895 -0.28221834 -0.23202239 0.1393331 0.29450154
0.1647032 -0.017891517 -0.03190824 -0.014870417 0.07939031 0.1515881 0.11126036 0.30143154
0.0782975 -0.20144252 -0.095524505 -0.0036903822 0.18581197 -0.10954352 -0.006820678 -0.06413044
-0.086975545 -0.0740781 -0.09499395 -0.1611097 0.1267787 -0.0780949 -0.07156824 -0.07391608
-0.059501287 -0.41893393 -0.4364982 -0.07459633 -0.03650648 0.16868976 0.13791372 -0.12911546
00000000: e691 913d 970f cb3d 99ab 28be 838b 263d
00000010: 49ff 40bd 8262 2cbe 0267 0d3c 3680 c13a
00000020: ae95 b13c 0a9d 3abe 5bf8 1dbe c9e3 e43d
00000030: 8eff f73b cabd 4fbe 761d 663e 6350 a83c
00000040: 0e6d b73d b8e4 07be d807 433e 1eca bb3d
00000050: 088a 2c3e 4631 65bc fac4 17bd 027d e9bd
00000060: 8a3a d73d fbfc 8ebc ec76 46be ea58 0b3e
00000070: 068e fb3d 7365 123e dba7 963d 33b4 b53d
00000080: d55a 78bd 85b4 23bd bc79 30be 588b 78be
00000090: 3986 193d 0eb8 2fbd 5134 c0bd a2f5 553e
000000a0: 6e77 a43d 0ef3 c2bd 6e54 b5bd 551d 82be
000000b0: b20e 29be f940 1dbe 97e3 073e 743c b2bd
000000c0: 2262 413e 945a 543e bf8e 7c3e 837a d4be
000000d0: f12b 26be 2508 21be 4458 cdbb c071 4b3d
000000e0: 73b8 463e c3fe bebc 0d52 fc3d 4a83 dc3d
000000f0: 8b65 ac3d a5bb 5e3d 530c 5c3d ecae e73d
00000100: 6d0d ec3d b64a 5ebd ae26 283e 66a4 f3bd
00000110: 98e0 5dbe 6ac7 413d 8fed d63d 76ac eb3d
00000120: c55b 9d3e 8688 01be ac8d 203e 2630 3bbe
00000130: 3026 babe e851 06be 04dc 6c3e 45f3 113e
00000140: 2e0b 053e e5be 413c 9769 7c3e bbd9 ac3e
00000150: 6f5e 29bc 02d8 43be ef33 9abd f908 c03e
00000160: 0b5c 8f3e 658f 273d 614a d1bd e9bf 773d
00000170: a955 c33d b95e 203d 95ed 373d 0d1b 933b
00000180: ac44 f0bc 16e1 6bbc cb70 e73d c3ae 98bd
00000190: 60f4 efbd 75a7 fe3d 5eb9 f1bd 8e48 0e3c
000001a0: b808 013e 1ccb 0b3e a51a 86be bc3d 56be
000001b0: 6673 e53d e9c4 163d 0353 fa3b 8c20 70bd
000001c0: 0ed6 0a3e cdd0 3b3e 40c6 36be b75c b33d
000001d0: 2eb5 8e3d 4335 99be 850b 41be 228c 65be
000001e0: ae4d 9c3d 287a 333e 3432 5cbc 3691 5c3d
000001f0: 79dc ebbd 653f 26be ae9c af3e 1be4 f5bd
00000200: 149a 093e 7330 833e e8c0 3b3e 1283 4b3e
00000210: df23 293d 2904 d63d b9df 48be 00b4 f53d
00000220: d9eb be3d eb26 55bd bc6f e6bd e3a2 78bd
00000230: 5df5 cd3d cb60 0ebe 1bd6 afbd 56a7 013d
00000240: c7a0 5ebd ffd2 a53c 7033 093d 8018 27be
00000250: 394f 863d f3be d73d d349 d23d 23b8 e83c
00000260: 7f36 8b3d eadc 903e 57b4 383d 938f 4b3e
00000270: 3da8 3abe faea 13be c832 7dbe ff06 91bd
00000280: abbc 443e 2a24 223d 977e 013e ad5a d5bd
00000290: d46b 023e 2b9a 45bd 1629 fbbd 4640 3bbd
000002a0: eeb8 a93e b9dc 6e3e a7eb 043c b6d8 b6be
000002b0: bc66 bcbd 6b25 133e 8aa3 88bd 0760 8a3d
000002c0: 2e27 333e 5aff 803e 0bd1 983c 7816 3bbe
000002d0: 761e 243e 8b26 b1bd d5bb c43d 796c 1c3e
000002e0: 0bab 453e 39be 2b3e d302 d13d 9823 293d
000002f0: 002b 12be 12ee 253e 5ff5 4a3e 0bd8 0abd
00000300: 2aaa 343e 3c0c e8bc 7aa2 4e3e 85f7 3a3d
00000310: 1bca 99bd c695 3dbc 080d 383e 2a21 703e
00000320: de8a 933e fee4 aabd 7ef1 87bd da7f 43be
00000330: 5991 3abe 41af e2bc a902 583b 678b e7bd
00000340: ec33 6f3d 3271 57bd 8857 983d c302 853e
00000350: 1fbd 363e 420d 5abe 8473 3abe 0409 f9bc
00000360: c88d 243c 62c5 c73d d4cd 703c f535 42be
00000370: ec7e 90be 4797 6dbe 56ad 0e3e e8c8 963e
00000380: f5a7 283e 3b91 92bc 37b2 02bd 0da3 73bc
00000390: 6397 a23d e939 1b3e 79dc e33d 3c55 9a3e
000003a0: 715a a03d f346 4ebe 5aa2 c3bd 57da 71bb
000003b0: 7e45 3e3e 5a58 e0bd fe7f dfbb d256 83bd
000003c0: 3c20 b2bd 42b6 97bd 308c c2bd f1f9 24be
000003d0: 47d2 013e 38f0 9fbd 5f92 92bd 5061 97bd
000003e0: 9fb7 73bd 827e d6be b17c dfbe f6c5 98bd
000003f0: d287 15bd 02bd 2c3e 4139 0d3e d836 04be

conv3.bias f4 [32]
-0.07458054 -0.15341407 -0.25128812 -0.10726083 -0.18009153 0.03917296 -0.17782417 -0.106264405
-0.20542963 -0.19367991 -0.38222033 -0.09632116 -0.14358671 -0.27961406 -0.1037519 -0.18162449
-0.30629745 -0.17228578 -0.07553343 -0.34209162 -0.050780877 -0.24055474 0.031168906 -0.113206424
-0.17113271 -0.24068563 -0.06670465 -0.36761752 -0.2008955 -0.08126876 -0.22690721 0.0699718
00000000: afbd 98bd 9418 1dbe d6a8 80be 91ab dbbd
00000010: ea69 38be d373 203d 8a17 36be 27a1 d9bd
00000020: 255c 52be 0754 46be 62b2 c3be 0744 c5bd
00000030: 6508 13be 9329 8fbe e07b d4bd c5fb 39be
00000040: 05d3 9cbe af6b 30be 45b1 9abd a226 afbe
00000050: 9cff 4fbd fb53 76be ef55 ff3c c5d8 e7bd
00000060: 6a3d 2fbe 4b76 76be 739c 88bd 5d38 bcbe
00000070: 8db7 4dbe 3c70 a6bd 5d5a 68be 604d 8f3d

bn3.weight f4 [32]
0.9327633 0.9084489 1.0594765 1.0445333 1.0049652 0.77378064 0.981774 0.9582736
0.96513575 1.0751413 1.0227733 1.0968534 0.9344017 1.0083945 0.8643555 0.8565693
1.089712 0.93848115 1.0541764 1.0100445 0.87535185 1.0254443 0.9246081 0.82858443
0.94620997 1.058123 0.9687823 0.8094716 0.8835818 0.7960153 0.97841394 1.1647747
00000000: 93c9 6e3f 1b90 683f ed9c 873f 44b3 853f
00000010: b3a2 803f 7d16 463f 8a55 7b3f 6b51 753f
00000020: 2313 773f 3b9e 893f 3cea 823f b165 8c3f
00000030: f334 6f3f 1213 813f 6746 5d3f 2048 5b3f
00000040: af7b 8b3f 4d40 703f 41ef 863f 2349 813f
00000050: 0f17 603f c241 833f 1eb3 6c3f 1c1e 543f
00000060: d13a 723f 9370 873f 1e02 783f 8839 4f3f
00000070: 6b32 623f a9c7 4b3f 5679 7a3f 5617 953f

bn3.bias f4 [32]
0.13886262 0.08988756 -0.22032781 -0.028452568 0.44637075 -0.22692786 0.27971357 0.3412637
-0.051810842 0.30228925 -0.16774823 0.35294345 0.23549534 0.29573664 0.7903948 -0.10852038
0.13034815 0.33753794 0.18099502 -0.037971254 0.09632046 -0.058740076 0.52622265 -0.2629814
-0.34310806 0.14120388 0.14542657 -0.14358893 -0.34984115 -0.50505036 0.21038799 0.23864414
00000000: 0132 0e3e f816 b83d 9d9d 61be 5c15 e9bc
00000010: b58a e43e c75f 68be 9e36 8f3e 1eba ae3e
00000020: 9b37 54bd a8c5 9a3e 31c6 2bbe 01b5 b43e
00000030: b125 713e cb6a 973e 5057 4a3f ef3f debd
00000040: fc79 053e c6d1 ac3e c256 393e bf87 1bbd
00000050: a943 c53d 6f99 70bd 87b6 063f 80a5 86be
00000060: dcab afbe c097 103e b4ea 143e fa08 13be
00000070: 611e b3be fb4a 01bf f36f 573e 215f 743e

bn3.running_mean f4 [32]
0.3795568 0.75072134 0.11026549 0.4274775 0.33044305 0.9086064 0.4523541 0.60487443
0.29857978 0.4029826 0.3663841 0.7542713 0.8986741 0.41027078 0.8508648 0.4914199
0.5680594 0.35975412 0.99376905 0.2504141 0.58475 0.3304906 0.6869103 0.36032468
0.18811867 0.5138951 0.9620828 0.42428553 0.63848925 0.909659 0.15718672 0.86590534
00000000: 4555 c23e 462f 403f e0d2 e13d 55de da3e
00000010: d52f a93e 6e9a 683f f59a e73e 0dd9 1a3f
00000020: 73df 983e bc53 ce3e b296 bb3e ed17 413f
00000030: 810f 663f 030f d23e 47d2 593f 649b fb3e
00000040: 576c 113f b131 b83e a667 7e3f 4736 803e
00000050: 2db2 153f 1036 a93e 5ad9 2f3f 7a7c b83e
00000060: 2ea2 403e a18e 033f 0f4b 763f f43b d93e
00000070: 0874 233f 6adf 683f 8ef5 203e f9ab 5d3f

bn3.running_var f4 [32]
0.72974175 1.0695531 0.18920983 0.96755874 0.48736054 1.1668757 0.9828189 1.4826857
0.55167425 0.8904187 0.77601415 1.3698406 1.8197714 1.144781 1.1772594 0.98922986
0.9624293 0.70625377 1.4974743 0.5947146 0.7328035 0.6613973 1.6864206 0.63493717
0.36855125 1.5552849 2.9426217 0.9209583 1.3818887 1.9521197 0.36316758 1.3923125
00000000: 5bd0 3a3f 1ee7 883f 39c0 413e eeb1 773f
00000010: 5287 f93e 2f5c 953f 059a 7b3f a5c8 bd3f
00000020: 863a 0d3f 7bf2 633f dda8 463f f056 af3f
00000030: 45ee e83f 2f88 923f 70b0 963f 2b3e 7d3f
00000040: c461 763f 0ccd 343f 3dad bf3f 373f 183f
00000050: 0399 3b3f 5551 293f a1dc d73f 3e8b 223f
00000060: c0b2 bc3e 9313 c73f ea53 3c40 ecc3 6b3f
00000070: bbe1 b03f 0fdf f93f 1af1 b93e 4c37 b23f

conv4.weight f4 [64, 32, 3, 3]
0.15397358 0.13219988 0.0211049 -0.013760402 0.010352893 -0.15573527 -0.01461812 -0.13720685
0.10290229 -0.06517444 -0.0353542 -0.12015206 -0.0486806 0.082678795 0.117317796 0.024578044
-0.07198764 0.07336542 0.076568335 0.14446796 0.04262189 0.17123614 -0.002939971 0.023273915
0.087063976 0.06264211 0.1451226 -0.3461601 -0.2705075 -0.14259775 0.015336793 0.008096545
0.10074432 -0.13518313 -0.23150805 -0.16720401 -0.032842435 -0.05673221 -0.40606543 0.06974901
0.038498487 -0.019243924 0.034015525 -0.010459888 -0.06790136 0.057030044 0.062376752 -0.04799813
0.116593786 0.10819093 0.019721435 0.026704183 0.0079685105 -0.095479086 -0.009366771 0.007308321
-0.0710987 -0.27756226 -0.153941 -0.19617534 0.12558572 0.039456233 -0.009018036 -0.19684446
-0.23492856 -0.044073835 0.018318797 -0.07752975 -0.131219 -0.005661511 0.03581162 -0.113720655
0.21644491 0.034382246 0.112284616 0.20147415 0.08292817 0.048088603 0.026685406 0.111756995
0.14036153 0.09550754 0.0029399742 0.024231207 -0.028367136 -0.05795726 0.085754775 -0.18707828
-0.20908599 -0.13668014 0.15963821 0.21511447 0.17007466 0.22529097 0.12616418 0.09683732
-0.060546 0.039250065 0.20880587 -0.109049834 -0.16850513 -0.061589915 -0.035230715 -0.15086743
0.017966961 0.13385966 0.11424075 0.0260471 0.07286062 -0.09215276 -0.06682425 -0.024727983
0.106658764 0.1332646 -0.14852601 -0.19932108 -0.11169504 -0.116393685 -0.26034313 -0.22827683
0.017085586 0.13826619 0.014681337 -0.07590894 -0.13907346 -0.2532861 -0.31625924 0.033429913
-0.09667402 -0.026318906 0.042577885 0.054498084 -0.08974804 -0.11884477 0.0047888337 0.062371638
0.18763584 0.15519893 0.13499188 0.08025954 0.17151769 0.03328179 -0.106874466 0.020704553
-0.036944453 0.018165635 0.12896746 -0.0150152445 -0.20389335 -0.109358706 -0.035065312 -0.0029620645
0.050896335 -0.11379899 0.06376102 0.012349394 0.11797962 -0.015131485 -0.15135224 0.036106404
0.07694465 -0.05919203 -0.26288497 -0.41879204 -0.18448293 -0.26165655 -0.35757172 -0.24074775
-0.37263772 -0.14823456 -0.104465365 0.011977867 0.0064508123 0.059481855 0.17864652 0.045319263
0.14805788 -0.036438726 -0.1920858 -0.15519115 0.07932385 0.109522164 0.13844635 0.0071809534
-0.044300236 -0.08657409 0.048548467 -0.033941656 -0.016106881 0.007250169 -0.014965363 0.050027672
-0.39031217 -0.13708033 -0.19551912 0.013720655 -0.15923433 -0.05234427 -0.07928437 0.026223961
-0.14136891 -0.16168338 -0.10833766 -0.2294736 0.059650823 0.08526187 0.10000444 -0.03326523
0.0609043 0.046999592 -0.00118117 -0.19187197 0.026211536 0.04836611 0.06814481 -0.13993247
0.0441322 0.020168265 -0.02370665 0.059549935 -0.065781556 -0.19515908 0.07616456 0.12225922
0.16783844 0.058035824 0.11366596 0.1336228 -0.15828483 -0.17868885 -0.3055468 0.077763334
-0.0076882076 0.0062064216 0.1014207 0.04373296 -0.062406603 -0.031995494 0.17181683 0.09680005
0.07811479 -0.042825736 -0.023488577 -0.06648996 0.066087455 -0.022210011 0.20741427 0.08390063
0.093843505 -0.22076583 -0.18858266 -0.13845947 0.014787586 0.09005061 -0.0140705295 0.008145799
00000000: 40ab 1d3e 685f 073e 2fe4 ac3c 4f73 61bc
00000010: 2e9f 293c 1179 1fbe d780 6fbc f47f 0cbe
00000020: 70be d23d 2d7a 85bd 91cf 10bd 4912 f6bd
00000030: 4f65 47bd 8053 a93d 5044 f03d e557 c93c
00000040: 416e 93bd 9c40 963d dccf 9c3d 69ef 133e
00000050: 4a94 2e3d 8758 2f3e 87ac 40bb f0a8 be3c
00000060: 994e b23d 824a 803d 059b 143e e63b b1be
00000070: f67f 8abe 2505 12be 2c47 7b3c 5fa7 043c
00000080: 0a53 ce3d 726d 0abe 7210 6dbe 8737 2bbe
00000090: ca85 06bd 0960 68bd cfe7 cfbe 92d8 8e3d
000000a0: 97b0 1d3d 6fa5 9dbc dd53 0b3d f35f 2bbc
000000b0: de0f 8bbd 5698 693d c47e 7f3d b099 44bd
000000c0: b9c8 ee3d 3593 dd3d d98e a13c bbc2 da3c
000000d0: 5b8e 023c 8a8a c3bd 1677 19bc a47a ef3b
000000e0: 329c 91bd a41c 8ebe b6a2 1dbe 30e2 48be
000000f0: 8b99 003e dc9c 213d 62c0 13bc 9891 49be
00000100: 1d91 70be c486 34bd 4d11 963c ebc7 9ebd
00000110: 465e 06be 3284 b9bb 35af 123d 60e6 e8bd
00000120: bca3 5d3e 66d4 0c3d 7af5 e53d 3d4f 4e3e
00000130: 3fd6 a93d 8ef8 443d 5a9b da3c dae0 e43d
00000140: efba 0f3e 7599 c33d 95ac 403b 8680 c63c
00000150: 3262 e8bc 9864 6dbd 33a0 af3d 7391 3fbe
00000160: a31a 56be e1f5 0bbe 3378 233e f846 5c3e
00000170: 0d28 2e3e adb2 663e 2f31 013e a552 c63d
00000180: 15ff 77bd adc4 203d 35d1 553e 8555 dfbd
00000190: 9c8c 2cbe b545 7cbd 154e 10bd fe7c 1abe
000001a0: 732f 933c 8212 093e 0ef7 e93d ba60 d53c
000001b0: f337 953d 96ba bcbd 27db 88bd 5792 cabc
000001c0: e96f da3d 8476 083e 3417 18be d31a 4cbe
000001d0: 5ec0 e4bd d05f eebd b24b 85be 67c1 69be
000001e0: 12f7 8b3c a795 0d3e fe89 703c 2576 9bbd
000001f0: 4669 0ebe b7ae 81be bbec a1be ceed 083d
00000200: 07fd c5bd bf9a d7bc 2666 2e3d 6239 5f3d
00000210: d2cd b7bd e364 f3bd a6eb 9c3b 6779 7f3d
00000220: 9c23 403e 78ec 1e3e 503b 0a3e 1d5f a43d
00000230: 55a2 2f3e 7c52 083d 00e1 dabd 989c a93c
00000240: 1153 17bd 19d0 943c 0c10 043e 8002 76bc
00000250: 6bc9 50be 75f7 dfbd a5a0 0fbd 321f 42bb
00000260: ad78 503d 720f e9bd 2395 823d 1d55 4a3c
00000270: 4d9f f13d 0cea 77bc 15fc 1abe 4fe4 133d
00000280: 2895 9d3d 5873 72bd dc98 86be e96b d6be
00000290: 18e9 3cbe d9f7 85be a413 b7be 9486 76be
000002a0: 5fca bebe cdca 17be f0f1 d5bd d13e 443c
000002b0: 5661 d33b 3fa3 733d 1def 363e b1a0 393d
000002c0: 7c9c 173e c640 15bd 24b2 44be 6eea 1ebe
000002d0: 8b74 a23d 284d e03d e1c4 0d3e 344e eb3b
000002e0: 2a74 35bd c24d b1bd c2da 463d 6806 0bbd
000002f0: 94f2 83bc d392 ed3b 4831 75bc d1e9 4c3d
00000300: ffd6 c7be c95e 0cbe 2a36 48be 99cc 603c
00000310: 530e 23be f266 56bd d85f a2bd a2d3 d63c
00000320: 03c3 10be 5490 25be 23e0 ddbd 21fb 6abe
00000330: 6c54 743d c69d ae3d 21cf cc3d 1f41 08bd
00000340: ca76 793d a582 403d 7dd1 9aba 167a 44be
00000350: 93b9 d63c 8b1b 463d 828f 8b3d 754a 0fbe
00000360: f7c3 343d eb37 a53c 7334 c2bc a2ea 733d
00000370: 7bb8 86bd c8d7 47be 2afc 9b3d 0b63 fa3d
00000380: d7dd 2b3e f9b6 6d3d b3c9 e83d 6ad4 083e
00000390: 6b15 22be 36fa 36be a170 9cbe 6242 9f3d
000003a0: 5ced fbbb 3d5f cb3b a8b5 cf3d 5521 333d
000003b0: 119e 7fbd b50d 03bd c0f0 2f3e 1b3f c63d
000003c0: a6fa 9f3d 0a6a 2fbd 1e6b c0bc e32b 88bd
000003d0: dc58 873d c5f1 b5bc 6864 543e 18d4 ab3d
000003e0: 0631 c03d 7010 62be d01b 41be 52c8 0dbe
000003f0: a247 723c 746c b83d 1488 66bc f575 053c

conv4.bias f4 [64]
-0.27769864 -0.30211046 -0.19452426 0.047332466 -0.18894552 -0.1926525 -0.24244326 -0.24946845
0.15497252 -0.30529806 -0.16668801 -0.013495594 0.030203652 -0.094465576 -0.010527388 0.25720355
-0.31965104 -0.20794621 -0.51893914 -0.33167422 -0.30878788 -0.07604256 -0.41604826 -0.16756298
-0.23158464 0.04503499 -0.3415767 -0.3081908 -0.19028409 0.117797665 0.030730978 0.07955373
-0.4532049 -0.07549208 -0.111562006 -0.008875054 -0.11880786 -0.3016893 -0.18800043 -0.18073477
-0.45000753 -0.22374345 -0.31004456 -0.31071934 0.061236728 -0.3161825 -0.3553584 -0.19127384
-0.4292926 -0.3812844 -0.05406051 -0.37260723 -0.3567001 -0.0390976 -0.23231032 -0.36494344
-0.24087174 0.2754119 -0.4583417 -0.39912674 -0.31232035 -0.5223576 -0.024288027 -0.27239442
00000000: 842e 8ebe 39ae 9abe 5e31 47be b0df 413d
00000010: ef7a 41be b246 45be 0c43 78be a874 7fbe
00000020: 1eb1 1e3e 0750 9cbe 43b0 2abe a01c 5dbc
00000030: a66d f73c 2b77 c1bd 117b 2cbc 2fb0 833e
00000040: 4da9 a3be daef 54be 32d9 04bf 34d1 a9be
00000050: 7219 9ebe 34bc 9bbd 4704 d5be a195 2bbe
00000060: 8624 6dbe 9c76 383d 24e3 aebe 2fcb 9dbe
00000070: d5d9 42be e73f f13d 88bf fb3c 11ed a23d
00000080: 790a e8be 979b 9abd 9f7a e4bd ad68 11bc
00000090: 8951 f3bd 0577 9abe 2f83 40be 8912 39be
000000a0: 6367 e6be 011d 65be 29be 9ebe 9b16 9fbe
000000b0: 5dd3 7a3d ace2 a1be 89f1 b5be 4add 43be
000000c0: 3dcc dbbe b537 c3be 8e6e 5dbd 60c6 bebe
000000d0: 65a1 b6be ce24 20bd c2e2 6dbe ded9 babe
000000e0: 15a7 76be ca02 8d3e c3ab eabe 575a ccbe
000000f0: 74e8 9fbe 3ab9 05bf aff7 c6bc 4877 8bbe

bn4.weight f4 [64]
2.8515167 2.4800975 2.4671047 2.5686562 2.534283 2.4598625 2.330019 2.9656546
2.1319203 2.728208 3.0735366 2.873679 2.1402206 2.964282 2.3866553 2.49695
2.3895948 3.2151167 2.8725588 3.0341082 2.5136929 2.6152287 3.6507113 2.5391855
2.6978996 2.1230824 3.4239364 2.6446805 2.2083173 2.2568626 2.740082 2.0694003
3.0644543 2.904504 2.4543097 2.6962242 2.8176262 2.3518422 2.952324 2.7595296
2.900418 2.7558713 3.3797333 3.164486 2.0340257 2.6841989 2.3824446 2.6895802
2.514816 2.7667696 2.6683547 3.512854 2.5959823 2.7274818 3.1569715 3.3107028
2.7784858 2.35208 2.8930714 2.383659 2.92278 2.7007484 1.9964247 2.1379077
00000000: 407f 3640 ebb9 1e40 0be5 1d40 dd64 2440
00000010: b131 2240 636e 1d40 081f 1540 49cd 3d40
00000020: 6271 0840 f69a 2e40 d3b4 4440 5bea 3740
00000030: 60f9 0840 ccb6 3d40 f6be 1840 07ce 1f40
00000040: 1fef 1840 79c4 4d40 01d8 3740 d42e 4240
00000050: 58e0 2040 e85f 2740 41a5 6940 0482 2240
00000060: 63aa 2c40 95e0 0740 c621 5b40 7242 2940
00000070: 1255 0d40 7070 1040 815d 2f40 0e71 0440
00000080: 0520 4440 65e3 3940 6913 1d40 f08e 2c40
00000090: fd53 3440 9584 1640 e0f2 3c40 229c 3040
000000a0: 73a0 3940 3260 3040 8d4d 5840 f086 4a40
000000b0: 7a2d 0240 eac9 2b40 f979 1840 1522 2c40
000000c0: bff2 2040 c112 3140 53c6 2a40 9ad2 6040
000000d0: 9324 2640 108f 2e40 d20b 4a40 8ee2 5340
000000e0: b6d2 3140 7b88 1640 1528 3940 de8d 1840
000000f0: d40e 3b40 10d9 2c40 d88a ff3f 7bd3 0840

bn4.bias f4 [64]
-0.26262054 0.17185816 -0.1839719 0.21030262 -0.32316476 -0.24270819 0.12903747 -0.16863954
0.21392283 -0.2507038 0.3200759 0.19974083 0.23295297 -0.102105334 0.20050152 0.29475605
0.19749932 0.2773793 -0.15949222 -0.18403685 -0.27785423 0.27611965 -0.26485297 0.1306951
0.10605793 -0.22040354 0.23189129 -0.1494657 -0.18583202 -0.28097367 0.30382332 -0.25627548
-0.12893455 0.2335936 0.2225831 0.29578984 -0.28734636 0.12690358 0.16207942 0.2794196
0.20445503 -0.1592319 -0.20413467 -0.28073022 -0.27426142 -0.18332733 0.16617994 -0.09429935
0.26185894 0.1708401 -0.20419224 -0.21055236 -0.28126612 0.19725569 -0.12360463 0.26170245
-0.21400899 0.24751 -0.17197905 -0.21842717 0.18786365 -0.27301744 -0.23808604 -0.2785887
00000000: 3376 86be 96fb 2f3e 2163 3cbe 9259 573e
00000010: da75 a5be 7f88 78be 6622 043e d8af 2cbe
00000020: 960e 5b3e 405c 80be fde0 a33e dc88 4c3e
00000030: 398b 6e3e 9a1c d1bd 4550 4d3e 44ea 963e
00000040: 433d 4a3e a904 8e3e ee51 23be 2874 3cbe
00000050: e942 8ebe 8e5f 8d3e cf9a 87be f0d4 053e
00000060: e634 d93d 77b1 61be e974 6d3e 890d 19be
00000070: c04a 3ebe c8db 8fbe bb8e 9b3e 8a36 83be
00000080: 6b07 04be 2933 6f3e d3ec 633e c471 973e
00000090: 101f 93be 03f3 013e 26f8 253e 1610 8f3e
000000a0: a95c 513e b00d 23be ae08 51be dfbb 8fbe
000000b0: fe6b 8cbe 29ba 3bbe 132b 2a3e 0520 c1bd
000000c0: 6012 863e b5f0 2e3e c517 51be 0a9b 57be
000000d0: 1d02 90be 65fd 493e 6d24 fdbd ddfd 853e
000000e0: 2c25 5bbe 4373 7d3e 471b 30be 5fab 5fbe
000000f0: 545f 403e f1c8 8bbe d4cc 73be 2ea3 8ebe

bn4.running_mean f4 [64]
0.07565406 0.120011546 0.15851296 0.33068988 0.16748242 0.13503267 0.121057354 0.08934505
0.43134716 0.12580524 0.10579064 0.12146319 0.5606498 0.1303072 0.43923932 0.909673
0.1934586 0.03278574 0.08175024 0.103767015 0.15355608 0.18949778 0.04404761 0.20562632
0.16312459 0.7494757 0.11608089 0.07664604 0.2095098 1.7880571 0.16589634 1.3630849
0.036925163 0.29774213 0.20006076 0.15866949 0.19753101 0.3528737 0.09114868 0.05792771
0.10982991 0.109099165 0.05867905 0.08356775 1.226103 0.064869255 0.08351013 0.09422663
0.17617865 0.17265083 0.19005884 0.061185353 0.09726815 0.39501852 0.12378249 0.06573119
0.0914207 1.4969095 0.06586919 0.20659292 0.072536856 0.11896125 1.1174512 0.3003042
00000000: 84f0 9a3d 9dc8 f53d 3951 223e 2f50 a93e
00000010: 8380 2b3e 0146 0a3e ebec f73d 8afa b63d
00000020: 89d9 dc3e 17d3 003e c3a8 d83d b1c1 f83d
00000030: bf86 0f3f 406f 053e fae3 e03e 54e0 683f
00000040: 031a 463e 574a 063d ab6c a73d cd83 d43d
00000050: ce3d 1d3e b50b 423e 446b 343d b58f 523e
00000060: 220a 273e a4dd 3f3f d1bb ed3d 99f8 9c3d
00000070: bd89 563e 0edf e43f bbe0 293e 9179 ae3f
00000080: d73e 173d a871 983e badc 4c3e 417a 223e
00000090: 9245 4a3e ddab b43e 29ac ba3d 9b45 6d3d
000000a0: 81ee e03d 626f df3d 7259 703d 9225 ab3d
000000b0: f1f0 9c3f 2cda 843d 5c07 ab3d e4f9 c03d
000000c0: 2d68 343e 61cb 303e c99e 423e 7e9d 7a3d
000000d0: 8634 c73d de3f ca3e ad81 fd3d 139e 863d
000000e0: c73a bb3d bb9a bf3f 6de6 863d 188d 533e
000000f0: 348e 943d f5a1 f33d a408 8f3f 79c1 993e

bn4.running_var f4 [64]
0.16559447 0.24676043 0.24311739 0.66791517 0.3732044 0.24083678 0.2690789 0.1455579
0.6826384 0.26502237 0.18439342 0.19876716 0.99599946 0.22344537 0.80950534 1.2395762
0.41688082 0.041164998 0.20660582 0.15312296 0.26838493 0.401486 0.069768734 0.35069492
0.32421032 0.98588127 0.18350436 0.17569596 0.26693434 2.1163592 0.28386265 1.8590708
0.07137456 0.46982932 0.31487006 0.32976237 0.41940302 0.72582436 0.16402636 0.088868804
0.22007386 0.2550129 0.117160864 0.13349529 1.4504638 0.101179324 0.20639274 0.21496592
0.4955297 0.3410826 0.3247976 0.10688705 0.1905642 0.6660308 0.25427297 0.088602535
0.1513182 1.6420476 0.15983754 0.43351674 0.122217864 0.29060316 1.6839889 0.77473265
00000000: 9991 293e c4ae 7c3e c4f3 783e 7dfc 2a3f
00000010: a614 bf3e eb9d 763e b6c4 893e 210d 153e
00000020: 64c1 2e3f 03b1 873e a1d1 3c3e 9e89 4b3e
00000030: d2f9 7e3f ddce 643e be3b 4f3f 6faa 9e3f
00000040: 6771 d53e a19c 283d 7a90 533e 44cc 1c3e
00000050: c069 893e 938f cd3e e9e2 8e3d 498e b33e
00000060: e5fe a53e b762 7c3f 91e8 3b3e a4e9 333e
00000070: 9eab 883e 6e72 0740 7256 913e 08f6 ed3f
00000080: d32c 923d 788d f03e a636 a13e 9dd6 a83e
00000090: febb d63e a0cf 393f 87f6 273e d900 b63d
000000a0: 0b5b 613e 0d91 823e 09f2 ef3d fdb2 083e
000000b0: cca8 b93f 1b37 cf3d 9e58 533e 0720 5c3e
000000c0: 12b6 fd3e 61a2 ae3e df4b a63e 99e7 da3d
000000d0: 4323 433e ff80 2a3f 1130 823e 3f75 b53d
000000e0: 29f3 1a3e 9e2e d23f 74ac 233e e8f5 dd3e
000000f0: 5c4d fa3d f0c9 943e f38c d73f e154 463f

lin.weight f4 [10, 64]
0.13642502 0.87030804 -0.53809285 0.6733345 0.09925683 -0.49118695 0.9106205 -1.0289866
0.26987323 -0.16248807 -0.77174735 0.79307365 0.34191224 -1.2287912 0.6078228 -0.18326262
0.5884487 -0.72724146 -0.45535672 -1.026958 0.2768066 -0.62961954 0.5070858 1.1000396
1.0515933 -0.3404076 0.6558921 -0.84632856 -0.48210925 -0.114874475 -0.8337695 -0.17815074
-1.0783349 0.20865081 0.2621924 -0.46981305 0.46164754 0.987163 1.1097218 -0.33277762
0.66462016 -1.0405434 -0.5886909 -0.55748415 -0.19331099 -0.8072149 1.1044272 -0.93995243
-0.56532925 0.41586939 -0.6064119 -0.80978024 0.92144126 0.64384085 -1.2547064 -0.3213519
-0.23677106 0.07021039 -0.8732722 -0.26762447 0.48573008 0.25772747 -0.31125835 0.28297913
0.771434 -0.53625786 0.67030555 0.5722784 -0.57678306 -0.46611017 -1.1294999 -0.018113947
0.4289497 0.78201467 0.27857983 0.4104718 0.33163276 0.56701523 0.45954612 0.40076095
-1.2976408 0.5514512 1.2474597 0.71462655 -0.7217601 0.97654015 -0.45512316 -0.22564009
-1.056263 -0.4942735 0.2602037 1.1045723 -0.43892917 -0.20850725 0.3058243 -0.48904875
0.30617157 0.5758127 -0.45780036 0.47254154 0.42511854 -0.54063123 0.1839139 0.89731365
-1.2496667 0.92201674 -0.8867895 -0.4573137 -0.5244243 1.154178 -0.53309125 1.0186553
1.0963056 -0.8460586 0.35802191 -0.7096636 -0.67206806 0.6007148 0.9887455 1.2496744
-0.64421237 0.13512588 1.0494289 -0.30309007 -0.815696 0.41563165 -0.30015898 -0.64155364
-0.29324082 -0.6426194 0.6786373 -0.47441134 0.028592877 0.33093044 0.2537413 0.013257561
-1.5523908 -0.31465593 0.511445 -0.92243797 -0.59276956 -0.2643641 -0.51929367 0.31503183
-0.043756936 -0.38798034 -0.23498261 0.022322003 0.6951172 0.61714953 2.067443 -1.1766156
0.90754914 0.762128 1.1848164 0.10292892 1.3654377 0.61644936 0.1584187 0.6109846
-0.5257202 -0.58593196 -0.44339967 0.39617386 -0.14090484 0.4397259 -1.0086963 -0.2534697
-0.39647487 -0.022108193 0.7606401 -0.30272868 0.30167606 -0.44575602 -0.50968295 0.43101504
-0.5340055 -1.739088 0.8267539 -0.9156549 -0.24478804 -0.44372308 -0.7235463 -0.8494292
1.83207 0.21268186 -0.085082 1.6984702 -1.4556707 -0.050115045 0.9670116 0.42760468
-0.9685426 0.23105906 -0.7098266 -0.7203295 -0.25607938 0.11760585 -0.48402655 1.5392349
0.23522358 -0.8765755 0.8098188 -1.3261168 0.23277484 1.3155938 -0.36306024 -0.8245731
0.63071185 -0.55396914 -0.7830003 -0.34468126 -0.46890423 -0.51524085 -0.72466344 -0.9403209
-0.20923539 -0.1693005 -0.94502896 -0.28705132 0.180092 -0.59705603 0.35367638 -0.39510334
1.5544367 -1.1983978 -0.33739543 0.5589994 -0.8447742 -0.9541205 -1.5052625 0.12533805
0.89484096 0.24776201 1.6674191 0.46284443 -0.19920477 0.15289213 -0.38446775 0.3582865
-0.5472774 0.7963377 -0.68702364 1.5347478 -0.4986006 -0.93365157 0.4873022 -1.0331978
0.36283556 -0.9999428 0.17509635 -0.35947302 0.9357087 -1.0202385 -0.4254165 -0.20404479
00000000: 00b3 0b3e 82cc 5e3f 74c0 09bf a65f 2c3f
00000010: 2a47 cb3d db7c fbbe 6d1e 693f d5b5 83bf
00000020: d32c 8a3e 4663 26be 3c91 45bf e006 4b3f
00000030: 1f0f af3e 0849 9dbf 469a 1b3f 32a9 3bbe
00000040: 93a4 163f 7f2c 3abf 8424 e9be 5c73 83bf
00000050: 98b9 8d3e bf2e 21bf 60d0 013f 19ce 8c3f
00000060: 9c9a 863f e849 aebe 8be8 273f fda8 58bf
00000070: 06d7 f6be 4f43 ebbd eb71 55bf 266d 36be
00000080: e106 8abf 8fa8 553e 153e 863e 568b f0be
00000090: 115d ec3e b7b6 7c3f 5d0b 8e3f d461 aabe
000000a0: 8c24 2a3f 8730 85bf 72b4 16bf 48b7 0ebf
000000b0: 51f3 45be a3a5 4ebf df5d 8d3f b9a0 70bf
000000c0: 6bb9 10bf d5ec d43e cf3d 1bbf c24d 4fbf
000000d0: 93e3 6b3f c1d2 243f 389a a0bf 3c88 a4be
000000e0: 1d74 72be 77ca 8f3d c48e 5fbf 1306 89be
000000f0: 9db1 f83e dbf4 833e 415d 9fbe a4e2 903e
00000100: b37c 453f 3248 09bf 2599 2b3f d680 123f
00000110: 0ea8 13bf fea5 eebe 7493 90bf b363 94bc
00000120: 4c9f db3e 1d32 483f 04a2 8e3e 5c29 d23e
00000130: c5cb a93e e927 113f a149 eb3e 8a30 cd3e
00000140: 1819 a6bf e82b 0d3f c2ac 9f3f c4f1 363f
00000150: 45c5 38bf 89fe 793f e705 e9be 320e 67be
00000160: a033 87bf 6b11 fdbe 6b39 853e a062 8d3f
00000170: 53bb e0be ed82 55be 0195 9c3e 9964 fabe
00000180: 85c2 9c3e 7668 133f cf64 eabe f7f0 f13e
00000190: 23a9 d93e cf66 0abf ed53 3c3e 59b6 653f
000001a0: 14f5 9fbf 4a09 6c3f a304 63bf 0525 eabe
000001b0: ac40 06bf 1bbc 933f ab78 08bf 4c63 823f
000001c0: be53 8c3f 4c97 58bf a64e b73e 84ac 35bf
000001d0: a70c 2cbf 72c8 193f 6d1e 7d3f 55f5 9f3f
000001e0: 1aeb 24bf 705e 0a3e b053 863f 9f2e 9bbe
000001f0: 74d1 50bf accd d43e 70ae 99be dc3c 24bf
00000200: a923 96be b482 24bf 2dbb 2d3f 0be6 f2be
00000210: 9c3b ea3c b76f a93e 61ea 813e 3e36 593c
00000220: beb4 c6bf 951a a1be 0fee 023f e524 6cbf
00000230: bfbf 17bf bb5a 87be 6ef0 04bf da4b a13e
00000240: 793a 33bd 5ca5 c6be 489f 70be a2dc b63c
00000250: 33f3 313f 83fd 1d3f fc50 0440 579b 96bf
00000260: 2455 683f d21a 433f 10a8 973f 66cc d23d
00000270: aac6 ae3f a0cf 1d3f 8338 223e 7d69 1c3f
00000280: 9995 06bf a3ff 15bf 4805 e3be 4dd7 ca3e
00000290: 5c49 10be c123 e13e f61c 81bf c8c6 81be
000002a0: c1fe cabe 3e1c b5bc 4fb9 423f 41ff 9abe
000002b0: 4975 9a3e 223a e4be 957a 02bf 01ae dc3e
000002c0: 96b4 08bf 709a debf 25a6 533f 5c68 6abf
000002d0: b7a9 7abe ac2f e3be 553a 39bf 3174 59bf
000002e0: 4581 ea3f 46c9 593e 793f aebd 7967 d93f
000002f0: 6b53 babf 6f45 4dbd 128e 773f 00ef da3e
00000300: 68f2 77bf bf9a 6c3e 32b7 35bf 8467 38bf
00000310: d61c 83be 56db f03d 54d2 f7be a605 c53f
00000320: 73de 703e 4167 60bf 4950 4f3f 32be a9bf
00000330: 875c 6e3e 6165 a83f 08e3 b9be 3917 53bf
00000340: 5576 213f ecd0 0dbf b572 48bf 107a b0be
00000350: 3714 f0be d3e6 03bf 8b83 39bf dfb8 70bf
00000360: cd41 56be 1c5d 2dbe 6bed 71bf 64f8 92be
00000370: 0a6a 383e aad8 18bf 1215 b53e fc4a cabe
00000380: c8f7 c63f 1965 99bf 18bf acbe 961a 0f3f
00000390: 1f43 58bf 3e41 74bf 71ac c0bf 9e58 003e
000003a0: 4c14 653f 53b5 7d3e fd6d d53f f2f9 ec3e
000003b0: 56fc 4bbe c18f 1c3e f5d8 c4be 5471 b73e
000003c0: 5f1a 0cbf cadc 4b3f c8e0 2fbf 9e72 c43f
000003d0: 9448 ffbe ca03 6fbf ad7f f93e d33f 84bf
000003e0: 95c5 b93e 40fc 7fbf 754c 333e d90c b8be
000003f0: 9b8a 6f3f 2d97 82bf 31d0 d9be 1ef1 50be

lin.bias f4 [10]
0.115778156 0.086326145 0.06938141 -0.009219492 -0.1143566 -0.23906432 -0.2040756 -0.24144174
-0.23710462 -0.20710796
00000000: 191d ed3d c3cb b03d d717 8e3d 5a0d 17bc
00000010: cb33 eabd 47cd 74be 32f9 50be 813c 77be
00000020: 8ecb 72be 1c14 54be
