NCC_Code/Models/2022-08-30_13-51-05_model.pt (torch, 115275 bytes, 50 tensors)

conv1.weight f4 [8, 2, 5, 5]
000000 68 c4 56 3e bd 13 f0 bd 41 a3 a6 be 65 dc ed be
       0.2097336 -0.11722515 -0.32546428 -0.4645721
000010 8d 4b 21 bf a1 36 c5 3d 03 54 aa bd 12 a5 76 be
       -0.63005906 0.0962956 -0.08316805 -0.24086407
000020 fc 91 b1 be df cb a1 be 6d 5d 38 be f9 f2 ca be
       -0.3468169 -0.31600854 -0.18004389 -0.39638498
000030 7f 85 ea be 00 0c af 3d ff 88 34 bd f0 da 93 be
       -0.45804974 0.08547211 -0.044075962 -0.28877974
000040 66 17 e7 be 99 bb 1d bf 18 86 44 bf 14 84 08 bf
       -0.4513504 -0.61614376 -0.7676711 -0.53326535
000050 79 a0 c3 3f 70 3a 36 40 a9 cc 26 40 bc 02 0d 40
       1.5283347 2.8473167 2.6062415 2.203292
000060 a9 a1 2d be 9e 5f 68 3e a6 2e 0a bf 51 c5 66 be
       -0.169562 0.22692725 -0.5397743 -0.22536208
000070 6f 2b 23 bf 12 e3 1e bf a3 ad c9 3c 2c 4c 29 be
       -0.6373815 -0.6206523 0.02461893 -0.16532964
000080 83 08 87 be 2c e6 77 be c2 11 17 bf 65 ae fc 3c
       -0.2637368 -0.24208897 -0.5901147 0.030844877
000090 c1 00 12 bf 34 0b d6 be 08 54 14 be 9b eb 0f bb
       -0.570324 -0.41805422 -0.1448518 -0.00219605
0000a0 0f 6f 7a be f5 70 20 bf ea 87 17 bf be 34 0d bf
       -0.24456428 -0.6267236 -0.59191763 -0.55158603
0000b0 92 4d 24 bf e0 2c d6 3f 74 9d 2f 40 be c0 2c 40
       -0.6418086 1.6732445 2.7439852 2.699264
0000c0 0d 58 ef 3f 63 ac b9 bd 03 8d 27 bf 96 24 b1 bf
       1.8698746 -0.09066083 -0.6544954 -1.383929
0000d0 12 2e 42 bf b4 69 de be ca 43 30 bf 83 27 ac 3f
       -0.7585155 -0.4344002 -0.6885344 1.3449558
0000e0 59 43 10 40 5b 13 1e 40 f7 5f 09 40 19 36 48 3f
       2.2541106 2.4699314 2.1464822 0.78207546
0000f0 5b 72 a1 be 8c 4d 2a be 14 01 ef bd bf 95 5f be
       -0.3153256 -0.16631144 -0.116701275 -0.21834467
000100 df a3 28 bf 37 15 84 be a6 40 3c bf c0 e1 31 bf
       -0.6587505 -0.25797436 -0.73536146 -0.6948509
000110 f5 00 8f be 33 cb ea be 74 33 fb 3e d5 01 05 3f
       -0.27930418 -0.45858154 0.49062693 0.5195592
000120 66 63 b1 3e c0 db 61 bd 80 6f 1d bf c0 63 3c bf
       0.34646147 -0.05514121 -0.6149826 -0.73589706
000130 23 fe 96 bf 2b ed 37 bf b0 50 f7 be 0f d2 1a bf
       -1.1796306 -0.71846265 -0.48303747 -0.60476774
000140 55 a9 99 3f 08 02 fc 3f 25 e2 07 40 ea 00 20 40
       1.2004801 1.968812 2.1231778 2.5000558
000150 ab 69 52 3f e1 7a 11 3e c2 c8 22 be 45 6b 08 be
       0.82192487 0.14207031 -0.15896896 -0.1332217
000160 00 e3 aa be 6a 2f 3f bf 65 ee ce be 71 d7 14 bf
       -0.33376312 -0.74681723 -0.40416256 -0.5814124
000170 32 e7 1d bf 43 e2 28 bf a2 4c fb be 56 d3 bd 3e
       -0.616809 -0.6597025 -0.49081904 0.370753
000180 5e 99 92 3e ba 32 7c 3e d6 4a d9 3e ed b4 02 bf
       0.28632635 0.24628726 0.42439908 -0.5105732
000190 83 0a 7a bf 27 77 0a be 30 c8 85 be d0 c6 23 be
       -0.9767229 -0.13522016 -0.26129293 -0.1599381
0001a0 f6 8a 10 3f 2b a6 01 bc bb 84 08 3e 85 fd 1a be
       0.5646204 -0.007913153 0.13331883 -0.15135773
0001b0 d2 b3 04 3f 72 e5 d6 3f 6f 63 cc 3e 49 6e 99 3f
       0.51836884 1.6788771 0.39919612 1.1986781
0001c0 79 78 b8 3e 11 a7 f2 3f f5 5d 25 40 e5 54 bc be
       0.36029413 1.8957235 2.5838597 -0.3678352
0001d0 35 f4 1e be f9 4d 3e bf ad fa aa bf e8 b3 9f bf
       -0.15522845 -0.74337727 -1.335775 -1.2476778
0001e0 8a ae 83 3f 6e 91 b2 3d 40 2d bb be c7 b3 59 bf
       1.028764 0.08719145 -0.3655796 -0.85039943
0001f0 8e 72 56 bf 23 a3 03 be a3 aa 3b bf d2 46 28 bd
       -0.83768547 -0.128552 -0.73307246 -0.041083165
000200 8e 8b f1 bd ff b4 05 3f 17 40 ac be 80 74 9c be
       -0.11794196 0.52229303 -0.33642647 -0.30557632
000210 b7 eb 3b be f8 6c c2 3e 3d e5 ee 3f e6 4e d5 3d
       -0.18351637 0.37973762 1.8663708 0.10415439
000220 82 f7 69 3f 93 6c f4 3e 33 a6 f6 3f 21 57 3b 40
       0.9139329 0.47739086 1.926947 2.927193
000230 0a c3 9b be 3b 8d 1f be 6d a8 54 bf 23 de bc bf
       -0.3042224 -0.15581219 -0.830695 -1.4755291
000240 c7 6c 92 bf 53 8f 30 3f 25 66 ba 3e 66 fe c8 be
       -1.1439446 0.68968695 0.36406055 -0.3925659
000250 d0 eb 80 bf 22 36 33 bf ee 4f a5 3f a7 63 d5 3f
       -1.0071964 -0.70004475 1.2915018 1.6671036
000260 4c b8 ec 3f fe 2e d6 3f c6 55 e3 3e b2 85 94 bf
       1.8493743 1.6733091 0.44401377 -1.16033
000270 f4 28 eb bf 6a fb 8a bf 13 e0 af bf e7 d4 8d bf
       -1.8371873 -1.0857975 -1.3740257 -1.1080598
000280 e0 3c 6f 3e a8 9c 1d 3f d2 41 b9 3e f8 3e 0d 3e
       0.23363066 0.61567163 0.3618303 0.13793552
000290 04 06 24 bf bd d9 b6 3e fa d1 5f 3f 74 0e c6 3e
       -0.6407168 0.35712996 0.87429774 0.38682902
0002a0 c5 68 8b 3e 3e 98 64 3d ac be 97 be 51 d5 6e be
       0.2722837 0.055809252 -0.2963766 -0.23323561
0002b0 1c a0 b3 be dd 4a 0a bf 8b 2c cb be 5d 0a 78 3f
       -0.3508309 -0.5402048 -0.3968242 0.96890813
0002c0 10 bf c3 3f 30 9f d2 3f 61 f4 cf 3f 54 f4 4e 3f
       1.5292683 1.645483 1.6246454 0.80841565
0002d0 bc 37 90 bf be 57 d6 bf fc 18 bf bf 2b 74 a6 bf
       -1.1267009 -1.6745527 -1.49295 -1.3004202
0002e0 f8 0b 81 bf 62 73 c2 3e f1 68 99 3e d3 88 d5 3e
       -1.0081778 0.37978655 0.29962876 0.4170595
0002f0 26 69 56 3e 3c 26 01 bf 1d 7f ce 3e d9 57 de 3e
       0.20938548 -0.50448966 0.40331355 0.43426397
000300 1a 9d 24 3f 9c 1e 95 3e 0c dd 6c 3b 70 54 5e be
       0.6430222 0.29124916 0.0036142496 -0.21711898
000310 7a d7 e9 be 0d bd a1 be c5 12 53 be d8 82 91 be
       -0.45672208 -0.31589547 -0.20612629 -0.28420138
000320 25 dd fa 3e 78 e4 bb 3e cd f9 96 be 54 6c b1 bf
       0.48996845 0.36697745 -0.29487458 -1.3861184
000330 04 70 bf bf 45 78 be be a4 b6 3d 3e 0c a8 4f 3f
       -1.495606 -0.37201133 0.18526703 0.81115794
000340 ff fa 23 3f d0 72 55 3e df b1 85 bf 02 a6 8f bf
       0.64054865 0.20844579 -1.0444907 -1.1222537
000350 8e 47 27 3e 88 21 09 40 7c bc f1 3f 31 d8 01 bf
       0.1633589 2.1426716 1.8885646 -0.50720507
000360 73 19 16 bf da b7 0b bf 74 f5 04 3f e4 10 a1 3e
       -0.5863258 -0.5457741 0.5193703 0.314582
000370 cd 26 59 be b8 9a 9a 3e ac d7 58 3f d4 11 95 3e
       -0.21206208 0.30196166 0.8470409 0.29115164
000380 8e de 1e 3e ca 64 04 3f dc 8a dd 3e 75 6d 10 bf
       0.15514585 0.5171629 0.43270004 -0.5641702
000390 58 27 8d bf e2 ff ee bf c0 d7 63 be 12 b1 1a 3e
       -1.1027632 -1.8671839 -0.22250271 0.1510661
0003a0 a8 b3 a7 3e 58 03 0e 3f ba 57 74 3e 7b 22 66 bf
       0.32754254 0.5547385 0.2386159 -0.89896363
0003b0 11 6c 97 bf 91 84 61 bd ac c4 e9 3f ca 2a ce 3f
       -1.1829854 -0.055058066 1.8263144 1.6106808
0003c0 11 80 dc be bb 7e 44 bf 9c 2f 08 bf fe 1a df 3e
       -0.43066457 -0.76755875 -0.53197646 0.4357528
0003d0 c1 c3 bd 3e a6 ba df bd fe 0c 66 3f 1e 00 74 3f
       0.3706341 -0.10924272 0.89863575 0.9531268
0003e0 e5 25 19 3e ed b7 7e 3e 2d 85 3e 3e 7f 0a 2d 3e
       0.14955862 0.2487485 0.1860549 0.16898535
0003f0 da ae 92 3e 2b f2 46 37 fe f4 f3 3d ea 77 c6 3e
       0.28649026 1.1858104e-05 0.11911963 0.38763362

conv1.bias f4 [8]
000000 d6 fe c0 bf ed 91 a7 bf 9e 41 6a bf ba 1a 69 3f
       -1.507777 -1.3091408 -0.91506374 0.91056406
000010 e7 1a 68 c0 5e f5 1d 40 17 9d 87 bf a3 65 26 bf
       -3.626642 2.468101 -1.0594815 -0.64998835

bn1.weight f4 [8]
000000 70 df da 3f 57 95 e6 3f 15 68 87 3f 10 3c b5 3f
       1.7099438 1.8014325 1.0578638 1.4158955
000010 06 f0 b8 3f 8f 57 c4 3f 3b ac 83 3f 2e d1 ec 3f
       1.4448249 1.5339221 1.0286936 1.8501337

bn1.bias f4 [8]
000000 62 55 90 be e3 9f 8f be 20 60 d0 3e b3 ef ce 3e
       -0.28190142 -0.2805167 0.40698338 0.4041725
000010 56 84 0e bf 5a 5f fb bd 59 42 38 bf 6a 7a 43 bf
       -0.5567068 -0.12274046 -0.7197624 -0.76358664

bn1.running_mean f4 [8]
000000 c0 75 de 3f a8 2b 8f 3f 97 f8 0d 40 c9 88 19 40
       1.7379684 1.1185198 2.2182977 2.3989737
000010 ed 2d 12 3f 66 29 72 40 0a 14 ed 40 4b 2f f0 3f
       0.5710133 3.7837768 7.408696 1.8764433

bn1.running_var f4 [8]
000000 c8 3c 44 41 d0 70 cf 40 b2 8e 87 41 37 f3 34 41
       12.264839 6.482521 16.944675 11.309379
000010 a8 ee b0 40 27 5b d0 41 a6 64 17 43 f4 80 87 41
       5.529133 26.044508 151.39316 16.937965

conv2.weight f4 [16, 8, 3, 3]
000000 2d b4 3f 3e e0 38 b3 bc d2 ad d9 be f6 f4 91 bf
       0.18721075 -0.021877706 -0.42515427 -1.1402881
000010 64 ba 81 bf 86 10 a4 bf 7d 5b bf 3f a3 0c b5 3f
       -1.0135007 -1.2817543 1.4949795 1.4144481
000020 63 7c e6 3f 63 eb c5 3e 4e 92 24 3e 8f 9e 09 bd
       1.800671 0.38656148 0.16071436 -0.03359848
000030 35 39 3e 3f 5e 24 1d 3f e0 e2 14 3f a9 50 bd 3e
       0.7430604 0.61383617 0.58158684 0.369756
000040 dc 6e 96 3e 89 c0 40 3f 4c 75 c0 3e ec 7f 8b 3e
       0.29381454 0.75293785 0.3758949 0.27246034
000050 32 ee 39 3f 70 cc eb 3e b2 03 40 3e b7 8b ad 3f
       0.7262908 0.4605441 0.1875141 1.3558263
000060 da b9 f5 be 7f e2 a6 bf 9a d4 6d bf 03 96 ea be
       -0.47993356 -1.3037871 -0.9290253 -0.45817575
000070 92 74 54 bf 8e 80 e9 be dd d0 61 3f fd d8 4b 3e
       -0.8299037 -0.45605892 0.88209325 0.19906993
000080 3b f5 17 3d 05 39 ee 3e cb e5 14 3e 84 43 06 be
       0.037099104 0.46527877 0.14540784 -0.13111693
000090 bc 11 eb be 48 95 a2 bf 5b 13 01 3c 70 a0 92 be
       -0.45911968 -1.2701807 0.00787815 -0.2863803
0000a0 29 aa a1 bf 6c ac 19 bf ae 30 c3 3f d9 6f 41 3f
       -1.2630054 -0.6002872 1.5249231 0.7556129
0000b0 1d 31 a7 3f 1f 0e 83 3f d2 d8 2e 3f f9 e7 a2 3e
       1.3061863 1.0238684 0.6829959 0.31817606
0000c0 db d3 b3 3f ab 2c b0 3f ba 47 d9 3f 38 36 09 bf
       1.4049028 1.3763632 1.6975014 -0.53598356
0000d0 23 59 30 bf 76 a0 16 c0 cb fc a9 3f 66 53 d3 3f
       -0.6888601 -2.3535438 1.3280271 1.6509826
0000e0 3b 4d e2 3f 16 be fb 3f 33 cf f1 3f b2 e2 0c 40
       1.7679819 1.9667385 1.8891357 2.2013364
0000f0 be 24 e7 bd a9 85 cb be c5 34 fa 3e bd f5 69 3e
       -0.11286305 -0.39750412 0.48868385 0.22847648
000100 79 75 59 bf 4c 38 86 be 59 a6 7a be 85 2a 0a bf
       -0.84944874 -0.26214826 -0.24477519 -0.5397113
000110 41 00 06 3e cf 7d 2f bf 71 18 91 bf e1 e1 41 bf
       0.13086034 -0.68551344 -1.1335584 -0.7573529
000120 20 62 71 be 7f 40 81 3e 81 ca 1f 3e 51 7a 96 3e
       -0.23572588 0.2524452 0.15604593 0.29390195
000130 cc 71 7d 3e 04 91 8a 3e b1 31 75 3f 55 11 3f 3f
       0.24750441 0.27063763 0.9577895 0.7463582
000140 79 01 81 3f 8f 95 7c be 36 e6 ce 3e f7 33 b5 be
       1.0078574 -0.24666427 0.40410012 -0.3539121
000150 be 90 0f 3f 91 44 6a 3f d0 3b 9b 3f ca f5 46 c0
       0.56080234 0.91510874 1.2127628 -3.1087518
000160 1a db 48 c0 23 73 e4 bf b0 a8 c4 3e 97 c8 15 bf
       -3.138373 -1.7847637 0.38409948 -0.585092
000170 37 8e 8c 3e 98 2e 1c 3f 6b 61 24 3f 54 49 30 3f
       0.2745225 0.61008596 0.6421115 0.6886189
000180 31 ee 3d bf 20 93 aa bf c5 0a f3 bf 2a 10 02 3e
       -0.74191576 -1.3326149 -1.8987662 0.12701479
000190 7f 88 12 3f 43 ae 4c bd da 99 29 bf c4 3b 18 bf
       0.57239527 -0.049970876 -0.66250384 -0.59466195
0001a0 bd a7 2a bf 7d 5b f1 3f 13 6a df 3f 0d 55 e8 3f
       -0.666622 1.8856045 1.7454246 1.8150955
0001b0 72 91 23 bf 7e 56 90 bf 85 28 c2 bf 94 ab f1 be
       -0.63893807 -1.1276395 -1.5168616 -0.47201216
0001c0 1a 00 a5 bf 35 d3 09 bf 61 c2 d7 be 72 f5 a5 bf
       -1.2890656 -0.538379 -0.42140487 -1.2965529
0001d0 b2 dd f2 bf e3 57 c0 3e 8b 30 0c 3f d1 25 3e 3f
       -1.8973906 0.37567052 0.5476157 0.74276453
0001e0 bd c6 1a bf 03 8f 45 be ce 81 14 be 63 a7 a3 3f
       -0.604595 -0.19292836 -0.14502642 1.2785457
0001f0 73 e6 1d 3f c9 1c 27 3e 67 14 af bd 8e c8 26 bf
       0.6167976 0.16319574 -0.08548813 -0.6514977
000200 cf 79 ff be 56 38 23 3f 78 9a 17 3e fa 84 e1 3e
       -0.4989762 0.63757837 0.14805019 0.44046766
000210 9c ce 33 be 26 a8 4f bf 36 50 90 bf 3a 07 c9 bf
       -0.17559284 -0.8111595 -1.1274478 -1.570533
000220 e9 04 a1 bf 4e 3f fb be b8 66 1b c0 83 09 31 c0
       -1.2579623 -0.49071735 -2.4281445 -2.7662055
000230 43 2b 02 c0 4b 5d f7 3e 56 70 a5 3e 78 cf 2d be
       -2.0338905 0.48313364 0.32312268 -0.16973674
000240 d9 de d5 bf 65 90 6a 3e f6 53 77 3f 38 27 b7 bf
       -1.6708633 0.22906645 0.9661249 -1.4308844
000250 5f 2d a4 bf 72 02 05 bf dd 3b 51 bf c1 b2 bc be
       -1.2826346 -0.51956856 -0.8173197 -0.36855128
000260 e3 fb 81 be 31 d8 7b 3d f8 97 e0 3e 05 4f 85 3f
       -0.25387487 0.061485473 0.43865943 1.041474
000270 df a8 61 bf 93 1c c8 b9 64 01 5a 3f 33 4b b2 be
       -0.881483 -0.00038168262 0.8515837 -0.34822997
000280 d4 bd 5e bc 4b 7a 2c bf f3 49 01 bf 45 ff 15 bf
       -0.013595063 -0.67374104 -0.5050346 -0.58592635
000290 54 0d e9 3e e4 43 3b bf 39 1e a5 3f a3 d2 d5 3f
       0.4551798 -0.7315047 1.2899848 1.6704906
0002a0 21 6f ff be a8 44 18 3f 39 fa 0a 3f 75 d5 9d be
       -0.49889472 0.5947976 0.5428806 -0.30826917
0002b0 78 2c b0 be 63 c3 17 bf d6 78 b5 bf aa d2 4e bf
       -0.34408927 -0.5928251 -1.4177501 -0.807902
0002c0 58 52 5d bf 73 09 86 bf dc 81 f3 be 17 af c3 3e
       -0.8645377 -1.0471634 -0.47560012 0.3821952
0002d0 f1 2e d6 3e d0 0f cc 3f dc de 08 40 35 7c 2a bf
       0.41832688 1.5942326 2.1386023 -0.66595775
0002e0 4a 2a a4 be a5 bc 1e 3f ae ed a9 bf 21 e6 c9 bf
       -0.32063514 0.620066 -1.3275659 -1.5773355
0002f0 8b 5e 66 bf ee 8d b3 be 31 c5 18 be 9a 4c a4 be
       -0.8998801 -0.3506922 -0.14918973 -0.32089692
000300 d5 95 e2 be 08 ca fb 3e 36 1e 76 3f b9 47 f4 3e
       -0.44254938 0.49177575 0.9613985 0.4771097
000310 2b 00 5f 3f 54 04 9d 3e bb 31 6c be 8f 3b cf 3e
       0.8710963 0.30667365 -0.23065846 0.40475127
000320 66 58 60 3f a9 2a 9d 3e 51 22 f8 3f 07 4a 04 40
       0.87634885 0.3069661 1.9385473 2.0670183
000330 75 9e 09 3f 15 8a 00 40 e9 38 09 40 94 5f 49 c0
       0.5375741 2.0084279 2.1440985 -3.1464586
000340 a0 4f d0 3f e6 87 ae 3f e5 31 8f be 9f 80 23 3f
       1.62743 1.3635223 -0.27967754 0.63868135
000350 aa 24 a0 3e 31 8a da be 4d 02 a3 bf 7a ba 93 bf
       0.31277972 -0.42683557 -1.2735077 -1.1541283
000360 f3 5e ca bf b6 0b c4 bf 75 49 79 bf 39 00 01 40
       -1.5810226 -1.5316074 -0.9737771 2.0156386
000370 2f d9 06 40 e4 f4 a4 3f 72 af 5c 3e 5d b0 b3 3e
       2.1070058 1.2887235 0.21551302 0.35095492
000380 34 d2 3a bf 5d 44 c0 3d ca 3b 0f bb ca 80 3d 3d
       -0.72976995 0.09388039 -0.0021855705 0.0462654
000390 fa f3 a9 bd a7 ad 82 3e 00 25 14 3e 55 9c 95 3e
       -0.08298488 0.2552311 0.1446724 0.29220834
0003a0 9d 7d a4 3e 30 ca cd bd 74 11 90 3c a2 41 23 3f
       0.32127085 -0.1004833 0.017586447 0.6377202
0003b0 2f fe 8a 3e 02 fd 31 bf c0 f4 15 bf 21 61 9f bf
       0.27147052 -0.69526684 -0.58576584 -1.2451516
0003c0 7b a5 22 3f 20 4f 7b 3f b7 2f b9 bf 6c 74 10 3e
       0.63533753 0.9816761 -1.4467686 0.14106911
0003d0 51 a7 92 be a9 fd 4f 3e ed eb 0e 3e 44 4e 1e 3d
       -0.28643277 0.20311607 0.13957186 0.03864886
0003e0 fa 82 23 3f 56 e9 86 bf 62 ab be bd 8d a5 ec be
       0.6387173 -1.0539958 -0.093100324 -0.46220055
0003f0 02 72 0f 3e 53 1c 57 bd f6 56 05 be c6 45 71 be
       0.14008334 -0.052517246 -0.13021454 -0.23561773

conv2.bias f4 [16]
000000 e3 70 1d c0 c9 af 92 3e b8 0d 0d c0 a3 e8 a4 bf
       -2.460015 0.28649738 -2.2039623 -1.2883495
000010 5a da 8f bf 3d 1b bd 3f d1 8d d6 3c 06 80 a9 bf
       -1.1238511 1.4773937 0.02619067 -1.3242195
000020 3f 16 42 bf b8 1f e2 3f ca 41 f3 be 2d 7d 4e bf
       -0.75815195 1.766593 -0.4751113 -0.80659753
000030 73 be a5 bf d6 c3 3d 40 dd 02 e8 bf 75 c4 80 bf
       -1.2948745 2.9650779 -1.8125874 -1.0059954

bn2.weight f4 [16]
000000 17 b9 e6 3f 4f 29 a4 3f e9 ca c3 3f 8f 13 0f 40
       1.8025235 1.2825106 1.5296298 2.2355688
000010 63 4e dd 3f da f3 86 3f dc a1 aa 3f f4 85 d0 3f
       1.7289547 1.0543168 1.3330646 1.6290879
000020 51 da cf 3f 89 6a f0 3f f5 cd a9 3f 1a a5 c2 3f
       1.62385 1.8782512 1.3265978 1.5206635
000030 1f 39 a3 3f da 8f d3 3f 46 4c 99 3f 1c a6 ee 3f
       1.2751807 1.6528275 1.1976402 1.8644443

bn2.bias f4 [16]
000000 88 ca 15 3f 40 41 ab bd bb 22 88 bf 2b 02 18 bf
       0.58512163 -0.08362055 -1.0635599 -0.5937831
000010 18 c3 b9 3c 78 44 84 bd 1f 53 83 be f2 9e 0d 3f
       0.022676036 -0.06458372 -0.25649354 0.55320656
000020 fc f3 3b 3e e6 f8 8d 3e fc 86 bf 3d 48 6f 4a be
       0.18354791 0.27728957 0.09351918 -0.19769013
000030 8f 71 54 3e 69 32 c0 3e 8f 79 c1 bf c8 33 47 bd
       0.20746444 0.3753846 -1.5115222 -0.048633367

bn2.running_mean f4 [16]
000000 3e 39 8d 40 d5 7d a5 41 1c 67 13 40 e7 1a 31 40
       4.4132376 20.686441 2.3031683 2.767267
000010 26 09 db 3f 73 ab 29 41 6e dd f9 40 df ea 42 40
       1.7112167 10.604358 7.80828 3.0455854
000020 8e ad 53 40 87 99 3c 41 39 7c 57 40 af 3b 2e 40
       3.307468 11.787482 3.366957 2.7223928
000030 e7 d3 00 40 b9 db b5 40 bb 3b 72 40 14 c2 99 40
       2.0129335 5.6830716 3.7848957 4.804941

bn2.running_var f4 [16]
000000 0d 0a 0f 43 58 09 2d 43 61 51 79 42 8c c0 dd 42
       143.03926 173.0365 62.32947 110.87607
000010 4c 26 87 42 09 6e 96 42 89 78 65 42 e4 d1 ae 42
       67.5748 75.21491 57.36771 87.40994
000020 c0 2c b5 42 ab 11 f8 42 ad 17 a9 42 88 d7 9a 42
       90.5874 124.03451 84.54624 77.42096
000030 c9 c3 8e 42 b8 35 2d 43 34 ec 0f 43 25 5d 06 43
       71.38239 173.20984 143.92267 134.36385

conv3.weight f4 [32, 16, 3, 3]
000000 9e 30 e1 be aa c9 3a bf f9 11 21 c0 36 c2 c8 3f
       -0.43982404 -0.72963965 -2.516722 1.5684268
000010 c7 7b d9 3f 7b 0a 4c 3e 5f 81 41 3e 26 a6 2b 3e
       1.6990899 0.19925873 0.18897007 0.167626
000020 15 00 e7 3e 91 a8 27 3d c2 bc f7 bd c7 b8 07 3f
       0.4511725 0.04093224 -0.120965496 0.5301632
000030 dd b5 04 3f 67 a2 29 3e a2 f9 78 3f 85 82 0e 3e
       0.5184 0.16565858 0.9725591 0.13916977
000040 f5 02 73 3f bb 48 89 3f 57 e4 b4 3f 43 6f 80 3f
       0.9492639 1.072532 1.4132184 1.0033954
000050 e2 c8 39 3f 3d 3a 1b 3e 71 0c 4f be 95 87 c7 be
       0.7257215 0.15158935 -0.2021959 -0.38970628
000060 5a 85 a6 3e 48 ee da 3f 7c 85 f0 be 2d 0b 41 bf
       0.32523614 1.7103968 -0.4697684 -0.7540768
000070 26 db 9d bf 85 5c 81 bf a7 9c bf bf df 3d e7 bf
       -1.2332504 -1.010636 -1.4969682 -1.8065757
000080 3d e0 01 c0 fc ea 19 be 81 94 30 3f a0 e1 88 3e
       -2.0293114 -0.15031046 0.689766 0.26734638
000090 10 37 c7 3e fb de c5 3f 69 ce 1a 3f 53 e7 35 bf
       0.38909197 1.5458673 0.60471207 -0.710561
0000a0 c6 ec 85 bf bb 78 28 3d 94 9c 2a be 84 74 a5 bf
       -1.0462883 0.041130763 -0.16661292 -1.2926183
0000b0 11 c7 01 bf ea 79 30 3f 05 a8 26 3f e8 fd 1e bf
       -0.50694376 0.68936026 0.6510013 -0.6210618
0000c0 27 2a 27 bd c9 ce a2 bf fb b9 f9 bf 9e b5 c7 3e
       -0.040811684 -1.2719356 -1.9509882 0.3900575
0000d0 46 08 10 be 68 7a 9d be 8b e9 5f bf 5a 7f 77 be
       -0.14065656 -0.3075745 -0.87465733 -0.24169675
0000e0 36 43 7f 3e 6a 04 1b bf 25 42 51 3e c8 fb 6b 3f
       0.24927983 -0.6055361 0.20435388 0.9218106
0000f0 1e bd bf bf c1 cf cb bf 31 6c 5f bf a1 07 f7 3e
       -1.4979589 -1.5922776 -0.8727446 0.48248008
000100 1c 98 c0 3f 5c 0e a3 3f 43 96 cb be 18 dc 8c 3e
       1.504642 1.2738757 -0.39763078 0.27511668
000110 1a 97 b9 3e 45 da 93 3e 24 77 40 3f a7 e6 2f 3f
       0.36248094 0.28877464 0.75181794 0.6871132
000120 91 33 64 bf 1a 70 c5 be a7 36 89 be 0a 12 60 3d
       -0.89141184 -0.3856209 -0.2679951 0.054704703
000130 3c ac d2 3e cf 55 0a 3f f5 6a 68 3f 60 d8 9f 3f
       0.4114703 0.54037184 0.90788203 1.2487907
000140 be dc 1e 40 f3 d9 e2 be 79 da ef 3e 82 1e 86 3f
       2.482223 -0.44306907 0.4684637 1.047806
000150 d3 5e d2 bf 4c 0b 36 be 2f 91 9e be c9 a0 3b bf
       -1.6435188 -0.17777747 -0.3097014 -0.73292214
000160 16 95 83 bd 5d 12 22 bf 7c 9f 9b 3f fd 78 86 3e
       -0.0642492 -0.6330927 1.2158046 0.26264182
000170 02 d8 4f bf a8 c7 04 be 45 1c af be 76 a9 76 bf
       -0.81188977 -0.12966788 -0.34201255 -0.96352327
000180 07 51 d7 3e 59 c0 0b 3d 80 bc ea 3e e2 50 5d be
       0.42054006 0.034118984 0.4584694 -0.21612886
000190 04 2b 61 3f 11 67 05 40 85 56 22 c0 04 89 17 c0
       0.8795626 2.0844157 -2.5365307 -2.3677378
0001a0 d4 95 8c bf e6 9c 50 3d dc 02 0e 40 a1 59 37 40
       -1.0983224 0.05093088 2.2189245 2.8648455
0001b0 47 6c c5 3e 77 5e 02 be 4b 29 0d 3e a0 7b 84 3e
       0.38559172 -0.12731348 0.13785283 0.25875568
0001c0 c9 79 65 3f c3 c8 6f 3f f0 5b 57 3e f4 c1 f0 bd
       0.89638954 0.93665713 0.21031165 -0.117557436
0001d0 29 9f 96 bf 60 cf 02 c0 f6 a9 bc bf 35 64 a9 bf
       -1.1767322 -2.0439072 -1.4739368 -1.3233706
0001e0 2d 6a 8c 3e 96 a0 26 bf 6d a6 5d be 1a cd b8 3d
       0.27424756 -0.65088785 -0.21645518 0.09023495
0001f0 8e 1e 9c 3e cf f7 15 3f 2b 42 82 3f 69 43 03 40
       0.3049206 0.5858125 1.0176443 2.0509894
000200 d6 87 32 3f 23 41 68 3f 78 be b5 3f 59 9c a1 3f
       0.6973852 0.9072439 1.4198751 1.2625839
000210 13 b4 6f 3f 1b 10 02 3f 3e 93 37 3e 21 e9 47 3f
       0.93634146 0.50805825 0.17927262 0.780901
000220 5b 76 ae bf 61 28 c3 bf d1 70 cf 3e 83 17 80 3f
       -1.3629869 -1.5246698 0.4051576 1.0007175
000230 0f 88 d8 be 44 f7 b3 bd 31 30 9e be 24 e1 82 bf
       -0.42291304 -0.087873966 -0.30896142 -1.0224957
000240 23 c2 0b 3f c3 d1 49 3f b9 3d 00 3b b3 32 be be
       0.54593104 0.78835696 0.001956804 -0.37148055
000250 77 82 dd bd 56 d2 38 bd b0 29 4c be 00 62 62 bf
       -0.108159 -0.045122467 -0.19937778 -0.88430786
000260 8e 08 d0 bf a3 70 c1 bf 9d c5 00 c0 4a 15 c3 bf
       -1.6252611 -1.5112499 -2.0120614 -1.5240872
000270 d3 88 94 bf 3e a1 83 bf 65 97 b3 3f 6f ae 0b bf
       -1.1604255 -1.0283582 1.4030577 -0.5456304
000280 d8 69 26 bf 00 96 7d 3d 77 a5 0b 3e 6f 11 8f 3f
       -0.65005255 0.06191063 0.13637339 1.1177195
000290 51 fb 5f bd 56 a1 9a 3f 67 06 9b 3f 7b 44 96 3f
       -0.054683033 1.2080486 1.2111329 1.1739649
0002a0 41 e5 eb bd a6 74 c9 bc d1 7a 2a bf c6 0e bf bd
       -0.11518336 -0.024591755 -0.6659365 -0.0932899
0002b0 1b 2f 91 bf 36 c7 78 bf a8 de b4 3f fd 03 ca 3f
       -1.13425 -0.9717897 1.4130449 1.5782467
0002c0 33 59 84 3f 18 a4 f9 3e 33 82 51 be c2 15 af bf
       1.0339721 0.48758006 -0.20459823 -1.3678515
0002d0 f3 38 ed 3e bc a7 77 3f c0 44 fb 3f 18 2c 0d 3f
       0.4633251 0.9674032 1.9630356 0.55145407
0002e0 f3 32 17 3f 00 71 05 3f 0a 4b bb be 59 9d e9 bf
       0.5906212 0.5212555 -0.36580688 -1.8251144
0002f0 99 55 21 c0 8f 76 a0 3e 08 12 21 bf 89 ef 84 3e
       -2.5208495 0.31340453 -0.6291814 0.25964
000300 e8 8f 21 3f 5a 5e fb 3e 96 ec b1 3f 68 55 f0 bf
       0.6311021 0.49095422 1.3900325 -1.8776064
000310 c0 2a 16 c0 42 76 e5 bf 69 79 75 bf c6 4b 3d bf
       -2.3463593 -1.7926714 -0.9588838 -0.73943746
000320 18 16 a9 3d 68 60 a7 bf 01 62 6f bf e1 7b 90 bf
       0.08256167 -1.3076296 -0.9350892 -1.1287805
000330 40 65 9b 3f 94 82 9d 3e 5b 7d 1a be f6 f9 34 bf
       1.2140274 0.30763686 -0.15086882 -0.7069391
000340 22 c6 2c be b9 97 aa bd 95 75 86 3f 4a a9 4f 3f
       -0.16872457 -0.0832972 1.0504633 0.8111769
000350 66 a9 a5 3f c8 9b 97 bf 8f e2 5e bf 28 8d ce bf
       1.2942321 -1.1844416 -0.8706445 -1.6136827
000360 bc c1 b8 3f 5e 85 8d 3f 52 86 9b 3f 6b 8b 25 bf
       1.4434123 1.1056325 1.2150366 -0.6466586
000370 dd 99 11 be cd 01 5e 3f b9 a5 a6 be 5e de 1d bf
       -0.1421885 0.867215 -0.3254831 -0.6166743
000380 38 11 a8 bf 76 09 b3 bf ae ac e3 bf c5 0c b4 bf
       -1.3130255 -1.3987262 -1.7787073 -1.4066397
000390 91 7f 2a 3f a3 5d 68 3f 83 7f 85 3e 65 53 15 c0
       0.666009 0.9076788 0.26073846 -2.333215
0003a0 2a a4 08 c0 34 51 34 c0 f8 fc 85 be 32 34 38 3e
       -2.1350198 -2.8174562 -0.26169562 0.17988661
0003b0 df e0 90 3f bb 67 2e 3e 18 21 44 be 66 0f 0f bf
       1.1318625 0.17031758 -0.1915325 -0.5588287
0003c0 bb a1 6a 3f 70 85 8e 3f cc 0f 06 3e 9b 65 26 3f
       0.9165303 1.1134472 0.13091964 0.6499879
0003d0 57 39 87 bd 03 dc 73 3d c5 bf 01 bf 4a c4 4c bf
       -0.066027336 0.05953599 -0.5068324 -0.79987013
0003e0 3a 71 05 3e ba fd c6 bf 54 7b 32 c0 d1 20 ab bf
       0.13031474 -1.5546181 -2.7887774 -1.336939
0003f0 16 bb 45 bc 07 99 80 3d 3e 6f 39 3f f0 88 24 be
       -0.012068531 0.06279188 0.7243537 -0.16067863

conv3.bias f4 [32]
000000 fc b9 77 bf 69 c9 8c bf b6 9e 3f c0 dc 79 32 bf
       -0.96768165 -1.0998966 -2.994062 -0.6971719
000010 33 80 c6 bf ff 8c 68 3e 59 b2 05 c0 0b cc da be
       -1.5507873 0.22710036 -2.0890105 -0.42733797
000020 7d c9 23 bf b9 46 c3 3e d6 82 9b 3f e5 9f 3d bf
       -0.6397932 0.38139895 1.2149303 -0.74072105
000030 4b 16 e4 bf 7f b4 af bf 6f ed d7 bf 4e da bf bf
       -1.7819303 -1.3726958 -1.6869334 -1.4988496
000040 9c 46 d6 bf 1a 2a c2 be 1d 35 94 bf 1d 75 91 bf
       -1.6740298 -0.37922746 -1.1578709 -1.1363865
000050 61 1a f5 bf ba d5 11 bf 62 48 0c c0 0b 9c 09 bf
       -1.9148675 -0.56966746 -2.191918 -0.5375373
000060 ba 45 06 bf 48 4f 41 3e 97 be cd bf 7b bf 2a bd
       -0.52450144 0.188779 -1.6073788 -0.041686516
000070 3f 51 0d 3d f5 07 e7 be fd 1b 10 3e 5c b7 de bf
       0.03450131 -0.45123258 0.14073177 -1.7399707

bn3.weight f4 [32]
000000 d9 ea ad 3f 2e d1 a9 3f fe 27 15 40 17 4f f5 3f
       1.3587295 1.3266962 2.330566 1.9164761
000010 55 0c c8 3f 98 88 a1 3f 2a cd db 3f 3b 02 d6 3f
       1.5628763 1.261981 1.7171986 1.6719431
000020 ed 4e f2 3f 3f ff bb 3f c5 17 b5 3f cf dd a8 3f
       1.8930336 1.468727 1.4147879 1.3192691
000030 45 65 cc 3f 14 5e d0 3f f0 bf 02 40 26 ba d3 3f
       1.5968405 1.627871 2.042965 1.6541183
000040 68 77 c3 3f 34 83 be 3f 01 05 b1 3f 32 28 c9 3f
       1.5270815 1.488379 1.3829652 1.5715392
000050 b7 b8 d4 3f 26 cf ed 3f 3c 24 c7 3f e4 14 e6 3f
       1.661887 1.8578842 1.5557933 1.7975125
000060 60 db aa 3f ef 7a ac 3f 29 0d a5 3f 43 e4 c4 3f
       1.3348198 1.3475016 1.2894641 1.538216
000070 e8 e3 a2 3f eb 54 d8 3f 66 38 dd 3f 72 a7 fd 3f
       1.2725801 1.6900915 1.7282836 1.9816725

bn3.bias f4 [32]
000000 db 84 c6 be 8f 64 b4 be ff a1 80 3f 3d 2b 28 3f
       -0.38773236 -0.3523297 1.0049437 0.65690976
000010 52 15 da 38 e0 3e a4 bd 39 f2 8d 3e 15 1d 6f 3e
       0.00010399021 -0.08019805 0.27723864 0.23350938
000020 f4 50 58 3f f6 1c d8 3e 93 24 d3 3d f6 9b be 3e
       0.84498525 0.42209595 0.1030971 0.37228364
000030 d6 c5 60 3d fc 94 6e 3e 53 21 4e 3f 1b cf 84 3e
       0.05487617 0.2329902 0.805196 0.2593926
000040 0c 25 fc be fa 70 7c 3e 1f f7 92 be f0 94 b7 3e
       -0.49247015 0.24652472 -0.28704163 0.35855818
000050 01 fd 45 3e 2a 00 2d 3f 0d 03 c4 3f ca 23 33 3e
       0.19334795 0.67578375 1.5313431 0.17494121
000060 17 a0 29 bf 2d 29 63 bf fd e4 e2 be 41 d3 09 bf
       -0.662599 -0.88734704 -0.4431533 -0.5383797
000070 a4 1b 97 bf 42 a0 96 3e b4 56 84 bf 09 52 14 3f
       -1.180531 0.29419142 -1.033896 0.57937676

bn3.running_mean f4 [32]
000000 83 3d 9e 40 ab 9a 50 40 98 58 0d 40 1a d5 ea 3f
       4.9450088 3.2594402 2.2085323 1.8346283
000010 23 40 14 40 65 fc b4 40 e0 3b 56 40 5e c8 88 40
       2.3164146 5.65581 3.3474045 4.274459
000020 28 91 ea 40 48 15 73 41 0b f9 e1 3f ad 0d 5c 40
       7.3302193 15.192696 1.7654127 3.4383347
000030 1d 93 6f 40 48 38 8d 40 cc ba 17 40 75 b8 0c 40
       3.743354 4.4131203 2.3707762 2.1987584
000040 e3 9d ce 40 84 94 33 40 40 b5 7d 40 cd ec fd 3f
       6.4567733 2.8059397 3.9641876 1.9837891
000050 a2 06 46 40 86 19 bb 41 63 a7 1c 40 6c 43 d0 40
       3.0941548 23.387463 2.4477165 6.50823
000060 c8 7e 36 41 88 fa 37 40 27 de e1 3f 4b 01 43 40
       11.405952 2.8746662 1.764592 3.046954
000070 74 24 41 41 8a 97 d6 3f 5f e6 4a 40 d4 d0 3e 40
       12.0714 1.6764996 3.1703107 2.9814959

bn3.running_var f4 [32]
000000 8b 18 3b 43 1d e2 0b 43 b3 82 20 43 60 54 c6 42
       187.09587 139.88326 160.51054 99.164795
000010 7f a3 04 43 ef c0 f1 42 ac 7c 34 43 7a 97 1d 43
       132.63866 120.87682 180.487 157.5917
000020 c3 a2 84 43 35 ea 52 43 1c f5 5c 42 64 7c 21 43
       265.27158 210.91487 55.239365 161.4859
000030 fb c0 03 43 de 5d 1b 43 66 d4 d9 42 91 4d cb 42
       131.75383 155.36667 108.91484 101.6515
000040 10 be 7d 43 95 e0 25 43 68 e7 12 43 4e 1d c6 42
       253.74243 165.87727 146.90393 99.057236
000050 a8 82 27 43 70 d3 c7 43 53 6b f9 42 43 dc 5e 43
       167.51038 399.65186 124.70962 222.8604
000060 f1 70 18 43 ea 82 c3 42 7f 53 b3 42 4c ea d4 42
       152.44118 97.75569 89.66308 106.45761
000070 66 15 30 43 70 11 a4 42 43 44 06 43 43 8f 05 43
       176.08359 82.03406 134.26665 133.55962

conv4.weight f4 [64, 32, 3, 3]
000000 33 44 ea be 5a 5e 9c 3e 00 f4 a5 3d f9 47 c1 bf
       -0.45755157 0.30540735 0.0810318 -1.5100089
000010 0e 16 ad bf d4 c4 5c bf 63 b5 d1 3f b2 25 eb 3f
       -1.3522356 -0.86237836 1.638348 1.8370879
000020 1f 67 c0 3f 11 a5 bb 3f 0c 72 44 3f 6c 59 5c 3e
       1.503147 1.4659749 0.7673652 0.21518487
000030 13 3e 19 bf 08 ad f1 be 6b ac 81 3e 44 d9 2e 3e
       -0.5986034 -0.47202325 0.25326857 0.17075068
000040 8e de ae bf cb d6 8d bf 76 ab 11 bf 71 bf 60 3c
       -1.3661668 -1.1081175 -0.56902254 0.013717518
000050 eb 07 fe 3e c2 be 3a 3f a8 41 ec 3e 2a ec 4b 3f
       0.49615416 0.72947323 0.46143842 0.7965723
000060 d2 8f b1 bf a3 d3 20 c0 48 c5 13 c0 48 ff 90 3f
       -1.3872015 -2.5129173 -2.308916 1.1327906
000070 2d df 5c be 68 7d 3e be 72 5f 2e bf 2a 05 41 bf
       -0.2156951 -0.18602526 -0.6811439 -0.75398505
000080 87 c1 7d bf ae 74 b6 3f d4 c9 f6 3f f8 94 f4 3f
       -0.99123424 1.4254358 1.9280343 1.9107962
000090 02 32 3f bf 30 30 9d 3e cd 80 a3 be 04 f9 e8 be
       -0.7468568 0.30700827 -0.31934205 -0.45502484
0000a0 78 10 2d 3e 4c 14 1f 3f 43 ed 41 3f b0 8f c6 3f
       0.16900814 0.62140346 0.7575266 1.55126
0000b0 94 32 24 3f 31 c4 c1 bd 62 52 04 3f 32 3e b7 be
       0.64139676 -0.09461249 0.51688206 -0.3578964
0000c0 84 99 6e 3f 8d d4 4a 3f 4f 0e 33 3f a2 14 b5 3c
       0.93202996 0.79230577 0.6994371 0.022104565
0000d0 38 be 13 3e 67 ac 33 be 8a f4 15 3e c4 c4 9f bf
       0.14428031 -0.17546235 0.14644065 -1.2481923
0000e0 e8 9f a0 be 05 3a ef 3e 0d 6d 70 bd 41 f8 35 bf
       -0.31372 0.46723953 -0.05869775 -0.7108193
0000f0 19 87 d2 bf 7e 42 d8 bf 28 b2 00 3f 24 98 8e bf
       -1.6447479 -1.6895292 0.50271845 -1.114018
000100 7f 02 2e bf cf 0f 15 3f 77 4b bd bf 7a 2a b2 bf
       -0.6797256 0.58227247 -1.4788655 -1.3919213
000110 b8 76 ea be 8c 96 4c bf 11 47 95 bf ce 22 8e bf
       -0.457937 -0.79917216 -1.1662313 -1.1104372
000120 17 df 04 c0 50 c7 18 bf 63 51 ff 3e ff 29 d3 3e
       -2.0761163 -0.59679127 0.4986678 0.41242978
000130 cd 75 1c 3f 74 8f c3 3e 02 cc 43 be 1a 04 92 3e
       0.6111725 0.38195384 -0.19120792 0.28518754
000140 a7 34 19 be 46 7d 56 3f ae 10 b8 3f b6 10 07 3f
       -0.14961492 0.837849 1.438009 0.52759874
000150 d2 43 7d 3d c7 2b 41 3d 0b 2a 88 3e fb 23 36 3e
       0.061832257 0.04716089 0.26594576 0.17787163
000160 41 0c c7 be 30 22 11 3e c3 c5 8e 3f 1a 72 24 bc
       -0.38876536 0.14173198 1.1154102 -0.01003697
000170 39 f2 63 3d b7 21 79 bf 11 a9 04 3e 62 ad 74 bf
       0.055650923 -0.9731707 0.12955119 -0.9557706
000180 c7 f0 9b be 57 50 89 bf 2f 1f 9e bf c3 bb 7a bc
       -0.30457136 -1.0727643 -1.2353266 -0.015303555
000190 b1 55 05 c0 f3 16 16 bf 51 70 86 3f 20 51 45 3e
       -2.0833552 -0.5862877 1.0503026 0.19269228
0001a0 7a b9 d2 3f fa 58 e2 3e e2 48 8a bd 91 3c 5a 3f
       1.6462853 0.4420851 -0.067521825 0.85248667
0001b0 60 1c d0 bf a8 5e ee be 55 e6 8f be 1e f6 8c 3f
       -1.6258659 -0.46556592 -0.28105417 1.1012609
0001c0 a3 05 5b bd ac b0 16 3b 07 95 9a 3f 64 e5 b6 3f
       -0.053472172 0.0022993488 1.207673 1.4288754
0001d0 b8 bc fc 3f b9 16 0d c0 f2 6d 95 bf b3 ab 1d bf
       1.9745092 -2.204512 -1.1674178 -0.6159012
0001e0 0e cc 1d bc 02 42 1c 3f b1 36 12 3e 41 20 bb 3f
       -0.00963117 0.6103822 0.14278676 1.4619218
0001f0 b8 d2 44 3f 29 8d 43 3f 12 f8 c5 3e 09 df f4 3e
       0.7688403 0.7638727 0.38665825 0.47826412
000200 99 df 3f 3e ee d2 44 c0 9f 1e d8 bf c4 b8 af bf
       0.1873764 -3.0753741 -1.6884345 -1.3728261
000210 7d 4b 04 bf ac 27 93 bf 88 45 a3 be 9a b6 26 3f
       -0.51677686 -1.1496482 -0.31888986 0.6512238
000220 40 aa 82 3f 21 3b 59 3f da 11 0c 3f d2 cc 53 3f
       1.0208206 0.8485585 0.5471474 0.82734406
000230 80 ff 10 be dd 70 f0 3e 9d cd ea 3e a4 dc 90 3e
       -0.14159966 0.46961108 0.45859995 0.28293335
000240 ae c4 c6 bf 15 1e c0 bf 01 4b fb bf 59 05 5d 40
       -1.5528772 -1.500918 -1.9632264 3.4534514
000250 d3 a7 61 40 62 b6 3f 40 1d e6 9e bf 35 b0 50 bf
       3.5258682 2.9955068 -1.2413975 -0.8151887
000260 54 f7 19 bf aa e5 5c bf 52 88 d1 be dd f3 b1 be
       -0.6014302 -0.8628794 -0.40924317 -0.34756365
000270 46 0e e2 bf 82 36 db bf 6c 6b 5e bd 19 10 00 3e
       -1.7660606 -1.712601 -0.054301664 0.12506141
000280 e3 09 2f 3e 65 58 4a 3f 05 dd 39 c0 ac 3a 9d bf
       0.17093615 0.7904113 -2.904115 -1.228353
000290 75 31 7b bf 62 50 ac bf f4 d7 e8 bf 8a b4 c0 3d
       -0.9812234 -1.3462031 -1.8190904 0.09409435
0002a0 6b af 78 bf 45 3b 56 3f 25 fd 25 3f 93 ef 73 3f
       -0.97142667 0.8368419 0.6483939 0.95287436
0002b0 4b e1 1a 3e 58 ff 78 be 65 6a d9 bf 82 ec 74 3f
       0.15125005 -0.24316156 -1.6985594 0.9567338
0002c0 3c 50 99 3e 66 63 4f 3f 8a 26 a8 3f 2c 34 b7 3f
       0.29944026 0.81011045 1.3136761 1.4312797
0002d0 5f 2c 60 bf b7 24 44 bf f8 28 9b 3e a9 56 21 3d
       -0.87567705 -0.7661852 0.30304694 0.039389286
0002e0 08 1f 15 3e 1e 0d 25 3f b6 52 31 3f 07 34 1b 3e
       0.14562619 0.6447314 0.6926683 0.15156566
0002f0 47 4a 3b bd 3c dc 70 3f 32 53 86 be e0 aa 82 3f
       -0.045725133 0.9408605 -0.26235348 1.0208397
000300 c0 dd af bf 1c c7 59 bf fe 39 f4 be cc a4 fa 3f
       -1.3739548 -0.8506944 -0.47700495 1.9581542
000310 1a 93 ce 3f 24 1c be 3f 9d 5c 85 3f e7 86 c7 3e
       1.6138642 1.4852338 1.0418888 0.3897011
000320 33 a8 36 3f 7a f1 bf 3e 9b 22 19 3f c9 00 6d 3f
       0.713504 0.3748892 0.5981843 0.92579323
000330 f4 53 76 bf 9e 8d 49 bf 90 8a 36 be fa 19 17 3f
       -0.9622185 -0.78731716 -0.17826295 0.5902401
000340 6d 2a a2 3f 55 19 b0 3f 37 80 4b bf 3f f2 20 3f
       1.2669197 1.3757731 -0.79492515 0.6286964
000350 d7 1b 9a 3f 94 0f 07 3f a4 80 98 bf 80 39 ef be
       1.2039746 0.52758145 -1.1914258 -0.46723557
000360 ae ab e7 3e 07 b2 0c be 91 3e 88 3e fd 87 2f 3e
       0.4524817 -0.13739787 0.26610234 0.17141719
000370 df 16 93 3e 1e 39 33 be 87 20 cf 3f b3 6a 6f 3f
       0.28728387 -0.17502257 1.6181802 0.93522185
000380 fc 80 d0 3d 2f 18 f6 3f c5 63 89 3f 7f ad a6 3e
       0.10180852 1.922613 1.0733572 0.32554242
000390 88 df 71 bf 3f 01 eb bf 0e 21 6b bf 1a e2 6a 3f
       -0.94481707 -1.8359755 -0.9184731 0.91751254
0003a0 2a ce 59 3f 2e 46 cb 3c 93 07 c8 bf b4 2a eb be
       0.85080206 0.024813738 -1.5627311 -0.45931017
0003b0 c5 82 ad be 9c c0 0f 3e e8 89 19 3f 7f 78 f7 3e
       -0.33888832 0.14038318 0.59976053 0.4833412
0003c0 08 da 8f 3f c4 58 c3 3e b3 82 5a be 23 dc c5 3f
       1.1238413 0.3815366 -0.2133892 1.5457805
0003d0 b7 ed 95 3f 23 4a 2c 3f 81 3b ac 3e d4 c4 72 3f
       1.171317 0.67300624 0.33639148 0.94831586
0003e0 58 91 7c 3f 0a 16 07 3f ec c8 76 3d 43 98 b5 3e
       0.98659277 0.52768004 0.060250208 0.3546773
0003f0 19 28 55 bf df 69 1e bf 24 7e 03 bf 20 9b a6 3f
       -0.8326431 -0.61880296 -0.5136435 1.301609

conv4.bias f4 [64]
000000 ba 46 82 bf e3 42 03 c0 cf 88 1a c0 ea 94 00 3f
       -1.0177834 -2.0509574 -2.4146001 0.50227225
000010 da 43 00 c0 fb 03 4c be 40 10 37 bf e3 aa a9 bf
       -2.0041413 -0.19923393 -0.7150917 -1.3255275
000020 d8 27 99 bf 47 50 d8 bf b4 35 66 be d2 1d b8 bf
       -1.1965284 -1.6899499 -0.22481424 -1.43841
000030 ac b0 8e be e0 fb 61 3e e6 a3 f4 bf 3a 50 40 bf
       -0.27869165 0.22068739 -1.9112518 -0.75122416
000040 1f 8c 1c c0 e5 6b b7 bd 84 4d 1b 3e 99 d1 25 bf
       -2.4460523 -0.08956126 0.15166289 -0.64772946
000050 95 97 5c bf 63 50 8a be db 10 3d bf d2 23 c9 bf
       -0.86168796 -0.27014455 -0.73853844 -1.5714056
000060 96 f0 8e be 3b 30 13 3f 67 c2 84 bf 41 cc 08 c0
       -0.27917928 0.5749547 -1.0371827 -2.1374667
000070 75 5f cc bf 05 95 07 c0 98 42 06 c0 0e 35 ac bf
       -1.5966631 -2.1184704 -2.0978146 -1.3453691
000080 97 50 84 be 25 51 0a bf fe 48 cb be f5 32 09 bf
       -0.25842735 -0.54030067 -0.39704126 -0.5359338
000090 9c 8d 20 be 58 fa f7 bf 98 00 96 3f 86 4b a4 be
       -0.1567902 -1.9373274 1.1718931 -0.3208887
0000a0 a3 7c d5 bf 3a ef 2e bf 2c 4f 6a bf 01 07 d3 bf
       -1.6678661 -0.6833378 -0.91527057 -1.6486512
0000b0 0f e4 0d bf f7 db b0 be 1b fa 8f bf ab 23 ba bf
       -0.55426115 -0.3454282 -1.1248201 -1.4542135
0000c0 0a a4 27 bf ab a8 82 bf 75 84 ab bf f4 e6 87 bf
       -0.6548468 -1.0207723 -1.3399798 -1.0617356
0000d0 fd 09 a8 bf fb f0 c3 bf e3 ab 0a 3e 56 b5 1e bf
       -1.3128048 -1.5307916 0.13542132 -0.61995447
0000e0 58 8c 13 bf 2f 95 6e 3f b6 0f d0 be 62 96 ea bf
       -0.5763602 0.93196386 -0.40636986 -1.8327143
0000f0 18 c4 12 c0 3b 2e c6 bd 93 17 8e bf 4f ee d3 bf
       -2.2932186 -0.096767865 -1.1100944 -1.6557101

bn4.weight f4 [64]
000000 7d 85 8f 40 d6 83 96 40 cc ec 88 40 d2 ed 7a 40
       4.485045 4.7035933 4.278906 3.9207654
000010 31 81 a5 40 6a f4 7b 40 41 9d 85 40 dd db 9a 40
       5.1720204 3.9367929 4.175446 4.839339
000020 b3 60 83 40 1f 53 9e 40 23 ad 6c 40 d1 d8 76 40
       4.105554 4.9476466 3.6980674 3.8569834
000030 2f af 7a 40 b2 5d a6 40 9f ac a6 40 34 8d 93 40
       3.9169424 5.1989374 5.208572 4.6109867
000040 b8 8a 98 40 1e 22 72 40 71 d3 59 40 89 19 8d 40
       4.7669334 3.7833323 3.4035304 4.409367
000050 c8 8c a1 40 a1 53 83 40 04 45 6e 40 eb d5 93 40
       5.048435 4.1039586 3.7229624 4.619863
000060 cc 75 8f 40 b0 fd 5c 40 06 59 90 40 63 e4 90 40
       4.4831295 3.4529839 4.510867 4.527879
000070 5e 98 a1 40 b3 e1 9b 40 2b 85 97 40 f0 b4 7d 40
       5.0498495 4.871301 4.735006 3.9641685
000080 a6 67 96 40 0f 11 96 40 6c 5f 8e 40 5e 80 8e 40
       4.7001524 4.6895823 4.449148 4.45317
000090 36 77 81 40 bc 69 8c 40 70 64 39 40 1d 49 80 40
       4.045802 4.387907 2.8967552 4.008925
0000a0 da 4a 91 40 03 28 95 40 c5 9c 58 40 0d 10 99 40
       4.540387 4.6611342 3.3845685 4.7832093
0000b0 8d af 8e 40 3d 78 5d 40 59 9c 9b 40 61 7e 69 40
       4.4589295 3.4604638 4.8628354 3.6483386
0000c0 5b e0 77 40 65 9f 7f 40 d0 a5 91 40 a3 57 91 40
       3.8730686 3.9941037 4.551491 4.541948
0000d0 5a 75 ab 40 fd cb 8e 40 6c 6a 82 40 10 d1 83 40
       5.358075 4.462401 4.075491 4.1192703
0000e0 33 5f 99 40 fc ea 78 40 07 0a 89 40 48 2a 93 40
       4.792871 3.8893423 4.282474 4.5989113
0000f0 7f 11 8b 40 69 e5 4e 40 71 21 9b 40 9e 98 86 40
       4.3458858 3.232752 4.847832 4.20613

bn4.bias f4 [64]
000000 5d df b9 3e d0 c1 e9 bd 66 16 87 3e c0 18 f1 bd
       0.36303225 -0.1141392 0.26384276 -0.11772299
000010 a8 a6 c3 3d ca fb c2 3d 67 22 27 3e 85 33 7b 3e
       0.095532715 0.09520681 0.16321717 0.24531372
000020 7e f8 1d 3e cc 14 b2 3e 56 e6 3d bd 03 aa 50 3e
       0.15426823 0.34781492 -0.046362244 0.20377354
000030 c4 6d 7f 3e dd 14 73 3d cf 85 ad 3d 95 57 9f 3d
       0.24944216 0.05934607 0.084727876 0.07780377
000040 1a 7b 95 3e d8 8a a6 3e 6a 55 ff bd ad bc 3c 3d
       0.29195482 0.32527804 -0.12467463 0.046078373
000050 19 93 84 3e 80 b2 57 3c 81 8f c9 3d 11 f6 c4 3e
       0.25893477 0.013165116 0.09841824 0.38468984
000060 7b 49 44 3e 38 6d 83 3e 6e 34 0d 3e 9c 7d 59 3e
       0.19168656 0.25669265 0.13789532 0.21239322
000070 e2 46 d1 3d 05 1c 8a 3d bc 1c 64 3e 57 48 c3 39
       0.10218598 0.067436256 0.22276586 0.00037247196
000080 ce ce ac bd e1 05 9b 3d f9 44 17 3e 61 98 ed 3d
       -0.08437882 0.07569481 0.14772405 0.116013296
000090 44 e1 17 3e ac f2 b8 3e 9f 04 2a bd d5 90 6f 3e
       0.14832026 0.36122644 -0.041508313 0.23395093
0000a0 d8 95 81 3e 56 50 cd 3d fd ba b9 3d 74 2b b3 3e
       0.25309634 0.100250885 0.09068868 0.3499409
0000b0 c5 81 95 3e fc 16 fa 3c c1 3d 77 bc d9 f8 46 3e
       0.2920057 0.030528538 -0.015090407 0.19430865
0000c0 31 48 e7 3d b8 ba 2f 3e ba 6d e8 3d 50 f5 12 3e
       0.11293066 0.17161071 0.11349054 0.14351392
0000d0 4e 81 67 3e b6 f1 30 3d f5 84 40 3e cf 50 10 bd
       0.2260792 0.043199264 0.18800719 -0.035233315
0000e0 6e 5e 9e 3e ad 4f af 3e 9e 8d d3 3c 73 28 a5 3e
       0.3093142 0.34240475 0.025824364 0.32257423
0000f0 23 24 45 bc b2 d9 10 3e 16 11 9c 3d 00 7a 91 3e
       -0.012032541 0.14145544 0.076204464 0.2841339

bn4.running_mean f4 [64]
000000 bf 8e 18 40 f7 b0 c0 3f 36 47 31 40 cc ef 25 40
       2.3837125 1.5054005 2.7699714 2.592761
000010 48 cd 01 40 56 1f ae 3f d2 4f a8 40 77 be f3 3f
       2.0281544 1.3603313 5.2597437 1.90425
000020 49 b4 f1 3f 58 ea 2e 40 6c ea 83 40 fb 57 b2 40
       1.8883144 2.7330532 4.122366 5.57324
000030 f5 7e de 40 48 ec 63 40 45 85 ce 3f cd df 0f 40
       6.9529977 3.5612965 1.6134421 2.2480347
000040 aa 85 f4 3f 75 00 63 40 3a 35 d2 40 aa c3 cb 3f
       1.9103291 3.546903 6.5689974 1.5919087
000050 45 8b 41 40 74 31 03 41 0a 91 ff 40 c7 74 7f 40
       3.0241253 8.1995735 7.986455 3.9915025
000060 23 61 17 40 da fb 51 41 10 0b 0b 40 a0 17 0c 40
       2.3653038 13.123987 2.1725502 2.188942
000070 c6 94 16 40 da f4 0e 40 d7 a0 e1 3f ed e5 d8 3f
       2.3528304 2.2336946 1.762721 1.6945168
000080 d0 c7 ff 3f 5f da d9 3f 6f c1 13 40 e7 ae bc 3f
       1.9982853 1.7019767 2.3086812 1.4740876
000090 16 f9 9a 40 b8 0b 7a 40 50 b2 81 41 cd 82 dd 3f
       4.842906 3.9069653 16.212067 1.7305542
0000a0 d1 3c 04 40 16 ed b4 3f ee 8c a2 40 23 45 45 40
       2.066212 1.4134853 5.0797033 3.0823448
0000b0 70 1f 7c 40 04 74 65 3f 51 0c 86 40 b0 06 a1 3f
       3.9394188 0.8963015 4.1890035 1.2580166
0000c0 8d d3 38 40 cd 8d a7 3f 77 03 08 40 cf 7b ca 3f
       2.887912 1.3090149 2.1252115 1.5819033
0000d0 35 ca 4c 40 fb 7e 4a 40 ae cc b3 40 a7 be 42 40
       3.1998417 3.1640003 5.6187353 3.0428865
0000e0 6c 32 1b 40 7f 98 0f 41 be 6c 62 3f 37 7d 09 40
       2.4249525 8.9747305 0.8844718 2.1482675
0000f0 3a 43 ba 3f 99 07 bc 40 98 01 3a 40 36 c8 a5 3f
       1.4551766 5.8759274 2.9063473 1.2951725

bn4.running_var f4 [64]
000000 0c dd eb 42 94 12 b5 42 de 64 3c 43 70 20 ea 42
       117.93173 90.536285 188.39401 117.063354
000010 13 66 13 43 07 13 8b 42 67 18 32 43 17 4f 9b 42
       147.39873 69.53716 178.09532 77.65447
000020 75 29 d8 42 44 d0 5b 43 0d 56 05 43 d5 0b 57 43
       108.08097 219.81354 133.33614 215.04622
000030 cb 40 c6 43 34 e8 33 43 c7 98 a8 42 0f 98 c8 42
       396.5062 179.90704 84.29839 100.29699
000040 40 79 1c 43 14 b4 21 43 fa da 40 43 98 b7 6d 42
       156.47363 161.70343 192.85538 59.42929
000050 1b 5e 59 43 92 c4 36 43 e1 94 77 43 57 a3 a5 43
       217.3676 182.76785 247.58156 331.2761
000060 6a e3 96 42 84 ee d3 43 88 44 05 43 eb f6 e4 42
       75.44417 423.8634 133.2677 114.48226
000070 dd ac fe 42 3e 3f 0d 43 80 0e d3 42 44 2e b1 42
       127.33762 141.24704 105.52832 88.59036
000080 1c fa bd 42 ec 1e 85 42 d0 05 cd 42 04 f7 65 42
       94.988495 66.560394 102.51135 57.491226
000090 f5 9f 6e 43 c8 6c 90 43 f3 79 9e 43 b8 e9 7c 42
       238.62483 288.84985 316.95273 63.22824
0000a0 f7 1b c7 42 28 6b 61 42 2f 4f 34 43 33 d9 3d 43
       99.55462 56.354645 180.30931 189.84843
0000b0 ab 38 19 43 0a f9 07 42 c1 99 84 43 85 53 4f 42
       153.22136 33.993202 265.2012 51.831562
0000c0 1c 42 b0 42 0b 2a 52 42 a8 b8 10 43 d1 11 b0 42
       88.12912 52.541058 144.72131 88.0348
0000d0 d6 dd 41 43 80 80 1c 43 b3 d0 45 43 9f 7a ff 42
       193.86655 156.50195 197.81523 127.739494
0000e0 7f bc f8 42 14 98 a3 43 85 80 03 42 c8 45 0b 43
       124.36816 327.1881 32.875507 139.27258
0000f0 99 0b 9d 42 16 68 8c 43 96 12 24 43 20 cc 85 42
       78.52265 280.81317 164.0726 66.89868

lin.weight f4 [10, 64]
000000 70 8b de 3c a0 f6 13 bf f0 ce c6 3f 8d 1d ec be
       0.027166098 -0.57798195 1.5531902 -0.46116295
000010 f3 b6 c8 3f 50 87 b3 bf 1a 83 9d 3f 64 ca d6 bf
       1.5680832 -1.4025669 1.2305634 -1.6780515
000020 d4 14 9d 3f 69 49 f3 bf 5d 0d 33 bf ee fe 1f 3f
       1.2271981 -1.9006778 -0.69942266 0.62498367
000030 11 f0 84 3f b6 10 0d c0 a4 e7 d8 3f d3 57 bc bf
       1.0385762 -2.204145 1.6945691 -1.4714302
000040 3b 8f 1e bf 21 69 72 3f e4 df 37 bf fd f9 87 be
       -0.619373 0.94691664 -0.71826005 -0.26557913
000050 7d ec de 3e a8 a4 0a bf b8 72 a4 3d fd 85 23 c0
       0.435398 -0.54157495 0.08029693 -2.555053
000060 8c 89 83 3f 0a 81 49 3f 5a 6e 3c bf 66 7a be bf
       1.0276351 0.78712523 -0.73605883 -1.4881103
000070 ba a7 2c bf 77 69 88 bf d7 48 fb be d4 31 97 3f
       -0.6744343 -1.0657185 -0.4907901 1.1812081
000080 ff 74 e0 bf 5e 1b 64 bf f0 fb c1 3f 4f 4c d4 bf
       -1.7535704 -0.8910426 1.515501 -1.6585788
000090 8f e5 25 3f 93 7c 08 40 f1 1c 7e 3e 35 e6 e3 bd
       0.64803404 2.1326034 0.24815728 -0.11127893
0000a0 02 72 6b be f2 b5 4b 3e c5 54 51 3f 2c 96 ea 3e
       -0.2299271 0.19893625 0.81769973 0.45817697
0000b0 fc 47 03 3f 0d 1a 78 3f b0 33 a5 be 0a c7 82 3f
       0.51281714 0.9691475 -0.32265997 1.0216992
0000c0 03 ed d8 3f 6a 52 51 be 1d 4e 22 40 31 5e de 3e
       1.694733 -0.20441595 2.5360177 0.43431237
0000d0 d7 72 31 c0 cb 3f b6 bf 0f d8 20 3f 98 c9 02 c0
       -2.7726343 -1.4238218 0.6282968 -2.0435543
0000e0 50 62 e1 3e 9f e3 2f 3f f5 a6 df be 26 0a 79 bf
       0.4402032 0.687067 -0.43682066 -0.9728111
0000f0 37 d1 83 bf 36 cd 39 3f 0b e2 4e 3d 26 98 33 be
       -1.0298222 0.7257875 0.05050854 -0.17538509
000100 05 5d 75 3b 34 f2 4b 40 e2 5a be bf af 2b 8d 3e
       0.0037439477 3.186658 -1.4871485 0.2757239
000110 48 c4 1f bf ef 12 e8 bf b3 01 09 40 5e 90 38 3e
       -0.62408876 -1.8130778 2.1407287 0.18023822
000120 c6 2d dc be bd 29 9a 3f b9 fc 55 3f 0f 9c c1 bf
       -0.43003672 1.2043988 0.8358875 -1.512575
000130 0d ee 7c bf 56 09 a9 3f c0 5c 88 bf 98 b3 d5 bf
       -0.98800737 1.3205974 -1.0653305 -1.6695433
000140 6e 2b a8 bf 8b bc 5f 3f 13 a5 5b 3f d4 22 a3 3f
       -1.3138254 0.8739707 0.8579876 1.2745004
000150 6e 0f 27 c0 75 36 48 bf c5 37 a5 be 1a cd 11 c0
       -2.6103168 -0.78208095 -0.3226911 -2.2781434
000160 c1 ab aa 3e fd ce a4 bf 81 ed ac bf 6b 55 69 bf
       0.33334163 -1.2875668 -1.350998 -0.9114596
000170 bd 63 0d 3f 11 65 b2 3e 73 78 e6 3f e0 c4 06 3e
       0.55230314 0.34842733 1.8005508 0.1316104
000180 a7 ed 14 3f ec aa 86 3f f1 a4 79 c0 b3 99 c9 bf
       0.5817513 1.0520911 -3.9006922 -1.575003
000190 c7 57 87 3f bd c6 c8 bf 0a e4 a4 bf 79 cd 48 bf
       1.0573663 -1.568565 -1.2882092 -0.78438526
0001a0 d0 93 29 40 54 1d f0 3f 76 b3 8d 3f d8 aa 34 3f
       2.6496468 1.875895 1.1070392 0.70573187
0001b0 41 91 d9 bf 58 53 1c c0 b2 9e 48 3f 9c fd d8 bf
       -1.6997453 -2.442587 0.7836715 -1.6952395
0001c0 fa cf 11 bf 1a 5d af 3f c1 b1 84 3f d1 f5 d6 bf
       -0.5695797 1.3700287 1.0366746 -1.6793767
0001d0 b1 60 87 bf 48 6b 9a 3e c9 8a 21 3f 84 9c a5 3e
       -1.0576383 0.30159974 0.63102394 0.32345974
0001e0 6a db 55 3e 95 49 5b 3e c5 5a c6 bf 67 5b c2 3e
       0.20884481 0.21414788 -1.5496451 0.3796036
0001f0 29 14 09 40 4c b6 dd bf 61 cd 8d 3d d2 d0 4a c0
       2.1418555 -1.7321258 0.069239385 -3.1689954
000200 57 ee e5 bf 06 f2 eb bf a4 86 ad bf 1b e5 d2 bf
       -1.796336 -1.8433235 -1.3556714 -1.6476167
000210 48 0a 9e be a7 ea 99 3f 43 1b 66 bf b8 27 1b 3f
       -0.3086722 1.2024735 -0.8988535 0.6060748
000220 58 5e 2b 3f ac e4 43 3f 27 22 97 3f aa eb 6d bf
       0.6694083 0.765208 1.1807297 -0.9293772
000230 c0 38 87 bf 45 85 c6 3d 83 ab 12 c0 d4 76 b1 bc
       -1.0564194 0.09693388 -2.2917182 -0.021663107
000240 84 43 cb bf 42 8c 03 3f b6 17 69 3e 32 2a 22 bf
       -1.5879979 0.5138589 0.22762951 -0.63345635
000250 90 ac 11 40 88 1f a0 3e 10 24 91 3f 40 c7 70 3f
       2.2761574 0.31274056 1.133913 0.9405403
000260 d1 ed 65 bf 17 18 00 3f 0a f6 54 bf bd cf 68 3f
       -0.89816004 0.5003676 -0.83187926 0.90941983
000270 67 54 ad be fa e7 3a bf e5 c3 69 bf 51 39 7a be
       -0.33853456 -0.7301022 -0.91314536 -0.24435927
000280 b4 18 c3 3f 8c 1e e4 3f 61 6c c2 3c aa 57 01 40
       1.5241914 1.7821822 0.02373332 2.0209756
000290 17 45 03 bf d8 c8 9f bf c9 b5 b2 be ae 1f 23 c0
       -0.512773 -1.2483168 -0.34904316 -2.5488086
0002a0 7b 8a 0b 3f a7 42 86 3e d2 2a 2b 3f 6f f7 9e 3f
       0.5450818 0.26222727 0.66862214 1.2419261
0002b0 ce 35 8c 3f 81 30 af bd 34 90 a3 bf 6e f5 fb bf
       1.095392 -0.08554173 -1.2778382 -1.9684274
0002c0 9f 32 1c c0 cc 65 ab bf 18 3d 87 bf 7e f0 3e 3d
       -2.4405897 -1.3390441 -1.0565519 0.04661607
0002d0 9a fb 61 bf 15 19 13 3f 38 b9 94 be a3 69 a3 bf
       -0.8827454 0.5746015 -0.2904756 -1.2766613
0002e0 4b 0c 44 be 42 9c 61 3f ee 0a b1 bf f6 3b fa 3f
       -0.19145314 0.88129056 -1.383146 1.9549549
0002f0 b8 51 d8 3f 4b 21 1b 3f fa 82 ed 3f 3a f3 a2 3f
       1.6899939 0.60597676 1.8555596 1.2730477
000300 7b 35 1d c0 09 65 95 3e 9f e0 10 bf ac b8 bc 3f
       -2.4563892 0.29178646 -0.56592745 1.4743857
000310 d0 95 df bc e6 83 ea 3f d0 4d 2f 3f ee 47 aa bf
       -0.027293116 1.8321502 0.6847811 -1.3303201
000320 ba d9 14 40 e5 f4 96 3f bb 57 40 3f 92 74 fb bf
       2.325789 1.1793486 0.75133866 -1.964495
000330 4d 9e 1e 40 c7 51 30 40 46 1d 2d bd 8f c1 90 bf
       2.478412 2.7549913 -0.042264245 -1.1309069
000340 bb d0 01 3f 00 d4 0e 3f 6f 16 4c 3f 20 af d7 bf
       0.5070912 0.55792236 0.7972173 -1.6850319
000350 15 ce cd 3f e2 e7 cd be 41 66 ac bf f1 11 7d 3f
       1.6078516 -0.40215975 -1.3468705 0.988555
000360 14 48 1a bf cd 25 db be dc 3b 12 c0 a6 ab ad bf
       -0.6026623 -0.42802277 -2.2849035 -1.3568008
000370 03 93 b7 3f 50 5e 21 bf 79 53 e4 be 0e 1e 1c bf
       1.434174 -0.63034534 -0.44594935 -0.6098336
000380 40 42 cb bf 98 bf f8 bf 5a 73 28 bf 60 6f 94 3f
       -1.5879593 -1.943347 -0.6580101 1.1596489
000390 ee f4 2e c0 64 23 9f bf b7 8f 10 3f 2e 80 db be
       -2.7336993 -1.2432675 0.5646929 -0.4287123
0003a0 9d 14 89 bf 09 d7 43 bf 5b 58 88 3e ea 92 ee bf
       -1.0709416 -0.7649999 0.2662991 -1.8638585
0003b0 8a 54 11 c0 a0 42 ef 3d 14 66 14 bf 50 14 1b 3f
       -2.2707849 0.116826296 -0.5796826 0.6057787
0003c0 5f 66 bf 3f 25 e1 8b bf e9 a6 e0 bf 66 08 bf bf
       1.4953116 -1.0928084 -1.7550937 -1.4924438
0003d0 94 55 e6 3f 82 e8 29 40 b0 35 12 c0 0a f2 bd 3f
       1.7994866 2.6548162 -2.2845268 1.483949
0003e0 c9 1a e8 3f 98 e5 26 3f fb f8 83 3f 88 76 87 be
       1.8133174 0.6519408 1.0310358 -0.2645762
0003f0 65 70 8d bf 1d 8d 9e bf 9d 00 94 bf a9 ac a6 bf
       -1.1049925 -1.2386814 -1.1562687 -1.3021442

lin.bias f4 [10]
000000 2d c8 57 3e b6 57 8a be 3f 53 35 bd 3d 41 08 bf
       0.21072455 -0.27020043 -0.044268843 -0.53224546
000010 ab 27 2a bf 38 27 fa bf bb 97 be bf f6 79 a9 bd
       -0.6646678 -1.9543219 -1.4890054 -0.08275215
000020 7e 13 21 3e 49 ce e5 be
       0.15730092 -0.44883946
