NCC_Code/Models/2022-07-10_11-59-26_model.pt (torch, 115275 bytes, 50 tensors)

conv1.weight f4 [8, 2, 5, 5]
0	0x3c859e3e	0.016310807
1	0xbdc17a46	-0.0944715
2	0x3e0708de	0.13186976
3	0xbeb3e1f6	-0.35133332
4	0xbdf8f277	-0.121556215
5	0xbe180f54	-0.14849597
6	0xbd52b0dc	-0.051438197
7	0xbe571222	-0.21003011
8	0x3dc19b1f	0.09453415
9	0xbbff37c6	-0.007788631
10	0xbeed52e9	-0.46352318
11	0xbe2cd231	-0.16877057
12	0xbe3761d7	-0.17908417
13	0xbec69530	-0.38785696
14	0xbe9b65fa	-0.3035124
15	0xbe94c2b9	-0.29054812
16	0xbeb2ad37	-0.34897777
17	0xbd96e0bb	-0.07367083
18	0xbeb969cc	-0.3621353
19	0xbe19b525	-0.15010507
20	0x3e2df9c0	0.16989803
21	0xbd15c098	-0.036560625
22	0x3e5a160b	0.21297471
23	0x3d787094	0.060654238
24	0xbd2a21ec	-0.041536257
25	0x3e1a2d41	0.15056325
26	0x3d98967a	0.07450576
27	0xbe67e252	-0.22644928
28	0x3e435d59	0.19078578
29	0xbe5f6569	-0.21816029
30	0xbd8f81ac	-0.07007155
31	0x3db53ed4	0.08849874
32	0x3dafa843	0.08577015
33	0xbe1502fa	-0.14551917
34	0xbbfd202a	-0.0077247815
35	0x3dfdaa69	0.12386019
36	0xbf0b1a33	-0.5433685
37	0xbe5f0d3e	-0.21782395
38	0xbe1e8b1b	-0.15482752
39	0x3da5004d	0.08056698
40	0xbe08929c	-0.13337177
41	0x3e1b86f1	0.15188195
42	0xbef583b1	-0.47952035
43	0xb981de92	-0.00024770625
44	0xbe69b73f	-0.22823809
45	0x3d8a3d25	0.06749944
46	0x3d423edd	0.047423232
47	0x3dfc0663	0.12305906
48	0x3db98948	0.090593874
49	0x3e37976b	0.17928855
50	0x3b9699fa	0.004595992
51	0x3b36d6bf	0.0027898995
52	0x3e046c72	0.12931994
53	0xbe3bdc86	-0.18345842
54	0x3d938f28	0.07205039
55	0xbc065c31	-0.008200691
56	0xbd9aa82c	-0.075516075
57	0x3d326a21	0.043558244
58	0xbeb08e87	-0.3448374
59	0x3d7b2a03	0.061319362
60	0x3d6954e9	0.056965742
61	0xbe4607b4	-0.19338876
62	0xbd9ac7ae	-0.07557617
63	0xbe9a4db3	-0.30137405
64	0xbeb5bec0	-0.35497093
65	0xbe80711b	-0.25086293
66	0x3e92321c	0.28553855
67	0x3de48a96	0.11159246
68	0x3e214191	0.15747668
69	0xbd7d27b2	-0.061805435
70	0xbdb215df	-0.08695578
71	0x3e433dd1	0.1906655
72	0xbcf07205	-0.029351244
73	0x3e03670d	0.1283228
74	0xbc92d94a	-0.017925877
75	0xbdca7ed6	-0.09887473
76	0xbe2366a2	-0.1595712
77	0xbed4b9af	-0.41547915
78	0x3d6b4a9f	0.05744421
79	0xbd406f9d	-0.046981443
80	0xbed69e99	-0.41917875
81	0xbe8b6d95	-0.27232042
82	0xbebc6dd9	-0.36802557
83	0xbdd624ec	-0.10456261
84	0xbe818f06	-0.2530443
85	0x3d9bfce1	0.07616592
86	0xbe27ada3	-0.16374831
87	0xbe82f32e	-0.25576156
88	0xbd756417	-0.059909906
89	0xbdcfd9ed	-0.10148988
90	0x3e73a4b6	0.23793301
91	0x3e22f8cc	0.15915221
92	0x3e464635	0.1936272
93	0x3d12edb6	0.03587123
94	0x3f067919	0.5252853
95	0x3dc8af7e	0.097990975
96	0xbe98b6f4	-0.29827082
97	0xbc461617	-0.012090228
98	0xbdc5de4e	-0.09661542
99	0xbc616a00	-0.0137581825
100	0xbd88e712	-0.06684698
101	0xbe890171	-0.26758912
102	0xbd1508ec	-0.03638546
103	0xbea28504	-0.31742108
104	0x3dfbdcff	0.12298011
105	0xbd6eb842	-0.05828119
106	0xbe5bdc6c	-0.21470803
107	0xbcd28916	-0.025700133
108	0xbb944da0	-0.004525855
109	0xbeb2f312	-0.34951073
110	0xbdce941c	-0.10086843
111	0xbe8bb4d0	-0.27286386
112	0xbe8241ab	-0.25440726
113	0xbe249084	-0.16070753
114	0xbebf0a80	-0.37312698
115	0x3d8d2287	0.06891351
116	0x3ea2d241	0.31801036
117	0xbe1aa12b	-0.15100543
118	0xbda8d8eb	-0.08244499
119	0xbc33bddd	-0.01097056
120	0x3e7dc251	0.24781157
121	0x3ea86ba7	0.32894632
122	0x3effd0f2	0.499641
123	0xbe019a6a	-0.1265656
124	0xbe065fc8	-0.13122475
125	0xbd4bd61d	-0.04976474
126	0x3e804c6a	0.250583
127	0xbe7d32b3	-0.24726371
128	0xbd7f144f	-0.062275227
129	0xbe98bf23	-0.29833326
130	0x3e3ade96	0.18248972
131	0x3e187462	0.14888147
132	0x3ea90e43	0.33018693
133	0xbb5a34f0	-0.0033295713
134	0x3d6333fe	0.055469505
135	0x3de11031	0.109894164
136	0x3d9d0271	0.07666481
137	0x3e1389c9	0.1440803
138	0xbec93b4a	-0.39303046
139	0xbd73620e	-0.059419684
140	0xbb372d1f	-0.0027950478
141	0xbd2a2237	-0.041536536
142	0x3dce8475	0.10083858
143	0x3e67c164	0.22632366
144	0xbcbee78e	-0.023303773
145	0x3e98afe5	0.29821697
146	0x3e8a2b49	0.2698615
147	0x3eb4767a	0.3524664
148	0x3ebf7339	0.37392595
149	0x3c757a30	0.014982745
150	0xbe5cc156	-0.21558127
151	0xbe99db1f	-0.3004999
152	0xbe043387	-0.12910281
153	0xbf10389c	-0.5633638
154	0xbea0f1fa	-0.31434613
155	0x3e028604	0.12746435
156	0x3da317aa	0.07963498
157	0x3d8121a4	0.063052446
158	0x3ec138f1	0.37738755
159	0xbe6b329d	-0.22968526
160	0xbe2977f3	-0.16549663
161	0xbe26e3be	-0.16297814
162	0xbe017600	-0.1264267
163	0x3e278d89	0.16362585
164	0xbdc29237	-0.095005445
165	0x3e19eeb6	0.15032467
166	0x3e2d8de9	0.16948666
167	0x3e2d945d	0.16951127
168	0x3def295f	0.11677813
169	0x3eba2cb2	0.36362225
170	0x3e4561f6	0.1927565
171	0x3e0da993	0.13834219
172	0x3d6dcb41	0.058055166
173	0xbb893122	-0.0041867653
174	0xbceb319e	-0.028710183
175	0xbefc28e2	-0.4924994
176	0xbed11ef9	-0.40843943
177	0xbe44c59e	-0.1921601
178	0xbe51e97a	-0.2049922
179	0xbeca6037	-0.3952653
180	0x3e3bc751	0.18337752
181	0x3e04e4ff	0.1297798
182	0xbe8fae44	-0.28062642
183	0xbe1842f0	-0.14869285
184	0x3e53daef	0.20688985
185	0x3e1b8658	0.15187967
186	0x3e1960d4	0.14978343
187	0x3ee8b4e0	0.45450497
188	0xbc57eaa5	-0.013178502
189	0x3e8f9ab8	0.2804773
190	0xbe81b763	-0.25335225
191	0x39db2a5a	0.0004180249
192	0xbc6e9582	-0.014562013
193	0xbd2828af	-0.041054424
194	0x3e6653ab	0.22492854
195	0xbd7d72db	-0.061877113
196	0x3dc2ef67	0.095183186
197	0xbe04cafa	-0.12968054
198	0x3d659c3b	0.056057196
199	0xbc933f29	-0.017974453
200	0x3d790c14	0.060802534
201	0x3ca6f1bd	0.020378942
202	0x3bd22b0a	0.006413822
203	0x3e24f02b	0.16107242
204	0x3eb61eb0	0.35570288
205	0x3e0ca415	0.13734467
206	0x3ebb06ab	0.36528525
207	0x3eb0231b	0.34401783
208	0x3e92ca31	0.28669885
209	0x3e150349	0.14552034
210	0xbd4586bb	-0.048224192
211	0xbe03424d	-0.1281826
212	0xbe19f9a2	-0.15036634
213	0x3d74c875	0.059761483
214	0xbc4548f2	-0.012041317
215	0x3dc36418	0.09540576
216	0x3d85b04b	0.06527766
217	0x3ebd9fcf	0.37035987
218	0xbe4156db	-0.18880789
219	0xbeaeffae	-0.34179443
220	0xbe9300d5	-0.28711572
221	0x3e66cccd	0.22539063
222	0xbd6c067d	-0.057623375
223	0xbe35268a	-0.17690483
224	0xbd92f6de	-0.071759924
225	0xbd71b763	-0.05901278
226	0x3db73505	0.089456595
227	0x3e4a42e7	0.19752084
228	0x3eb26432	0.34842068
229	0x3d5075d9	0.05089364
230	0xbc2ce527	-0.010552681
231	0x3dedc880	0.11610508
232	0x3e01f5f1	0.12691475
233	0x3e0137ac	0.12618893
234	0x3e946f68	0.28991246
235	0xbdbfe682	-0.09370138
236	0xbe2b7bf3	-0.16746502
237	0xbe816814	-0.25274718
238	0xbef7a7a4	-0.48370087
239	0xbe83f924	-0.25776017
240	0xbe104e91	-0.1409247
241	0xbe56fa49	-0.20993914
242	0xbea676eb	-0.32512602
243	0xbd91256f	-0.07087218
244	0x3cd9052c	0.026491724
245	0x3e86db16	0.26339024
246	0xbe83c5a1	-0.25736716
247	0xbc02193a	-0.007940585
248	0x3e020e55	0.1270078
249	0x3b88e987	0.0041782293
250	0x3e6fa12d	0.23401327
251	0x3e3fc2b1	0.18726613
252	0x3eae2e26	0.34019583
253	0xb9c43273	-0.0003742162
254	0xbe06792c	-0.13132161
255	0x3d969cad	0.07354102

conv1.bias f4 [8]
0	0x3e8b9b7a	0.27267057
1	0x3edd4d50	0.43223047
2	0xbe86bf0b	-0.2631763
3	0xbf3c963d	-0.73666745
4	0x3e5306a2	0.20607999
5	0x3ee167a5	0.44024387
6	0xbe588a08	-0.21146405
7	0x3e0c710c	0.13714999

bn1.weight f4 [8]
0	0x3f3674d3	0.7127201
1	0x3f817791	1.0114614
2	0x3f879346	1.0591819
3	0x3f8c0266	1.0938232
4	0x3f8600e7	1.0469025
5	0x3f4efff8	0.8085933
6	0x3f8bd719	1.0925018
7	0x3f870f3b	1.0551523

bn1.bias f4 [8]
0	0xbd969e93	-0.073544644
1	0xbdf23126	-0.118257806
2	0x3d981c22	0.07427241
3	0x3deef33f	0.11667489
4	0xbd88ed05	-0.06685833
5	0xbc17d2e7	-0.009266592
6	0xbd86e704	-0.065870315
7	0xbc04a467	-0.008095837

bn1.running_mean f4 [8]
0	0x3fa9c391	1.3262807
1	0x3f8f69cd	1.1204163
2	0x3ef002e1	0.46877196
3	0x3eb42f20	0.35192204
4	0x3f0b3a0a	0.54385436
5	0x3f614dc7	0.88009304
6	0x3f4d425b	0.80179375
7	0x3f1ac892	0.60462296

bn1.running_var f4 [8]
0	0x3fe20baa	1.765981
1	0x3fe796f5	1.8092943
2	0x401c0245	2.4376385
3	0x4080600b	4.011724
4	0x3f6ba545	0.92049056
5	0x3f0f4ead	0.55979425
6	0x4059324e	3.3936954
7	0x3f8a7409	1.0816661

conv2.weight f4 [16, 8, 3, 3]
0	0x3e9e54fc	0.30924213
1	0x3d9a7a6b	0.075428806
2	0xbdf26c81	-0.11837102
3	0xbdce4743	-0.10072186
4	0x3d941da8	0.07232219
5	0xbe966789	-0.29375866
6	0x3d59f0f1	0.053208295
7	0xbdc6c314	-0.09705177
8	0x3ea1f91c	0.31635368
9	0xbd1fb58d	-0.0389915
10	0x3df7cff9	0.121002145
11	0x3e0fe8f0	0.14053702
12	0x3d80891b	0.06276151
13	0xbc0429b3	-0.0080665825
14	0xbdf51ed3	-0.1196877
15	0x3eba1720	0.36345768
16	0x3e7f1699	0.24910964
17	0x3ec46bd9	0.3836353
18	0x3ecc7178	0.3993032
19	0x3dfd7acd	0.12376938
20	0x3e5b002e	0.21386787
21	0xbce064d1	-0.027391823
22	0xba25116f	-0.00062968483
23	0xbdb64959	-0.08900709
24	0xbe939844	-0.28827107
25	0xbd851250	-0.064976335
26	0x3d979725	0.074018754
27	0xbe0a18ae	-0.13485977
28	0xbdc8a6f0	-0.09797466
29	0xbd9bd73b	-0.07609411
30	0x3ce068ed	0.027393783
31	0x3d53df83	0.05172683
32	0x3e241c97	0.16026531
33	0xbe71ec72	-0.23625353
34	0xbe3aeffd	-0.18255611
35	0xbe499a24	-0.19687706
36	0xbe16aee8	-0.14715159
37	0xbdd8cd6b	-0.10586055
38	0x3dfce6aa	0.12348683
39	0xbda301db	-0.07959338
40	0xbe11087a	-0.1416339
41	0xbe841529	-0.25797394
42	0x3e569dc3	0.20958619
43	0x3eba0607	0.36332723
44	0x3e8a96ea	0.27068263
45	0xbbc50dea	-0.0060136216
46	0x3cffbafe	0.031217095
47	0x3d1f1e7f	0.038847443
48	0x3b29b315	0.0025894095
49	0xbe1416f5	-0.14461882
50	0xbd286a77	-0.041117158
51	0x3e9ad210	0.3023839
52	0x3e8f36f0	0.279716
53	0xbd861d30	-0.06548536
54	0xbc5c27ec	-0.0134372525
55	0x3ca4422c	0.020051084
56	0x3ec2a4e0	0.38016415
57	0x3eae40cc	0.3403381
58	0x3e8f11bf	0.27943227
59	0x3eeb0dc0	0.45908928
60	0x3cdc6b7c	0.026906721
61	0xbdd1d79c	-0.10246202
62	0xbe7be28f	-0.24598144
63	0x3cae5eaa	0.021285374
64	0x3e9b3e21	0.30320838
65	0x3ea64b8a	0.32479507
66	0xbdd259a3	-0.10271003
67	0xbe8c10f8	-0.27356696
68	0xbe2b2bf0	-0.1671598
69	0x3e150621	0.14553119
70	0x3a88ecf3	0.0010446593
71	0xbdc75443	-0.097328685
72	0x3d650304	0.05591108
73	0x3d831576	0.06400578
74	0x3d84f45b	0.064919196
75	0xbe35e02a	-0.17761293
76	0xbd86c185	-0.0657988
77	0x3e7fc313	0.24976759
78	0x3c0e7185	0.008694057
79	0xbe51aa84	-0.20475203
80	0x3ddcfc78	0.10790342
81	0xbe31bf4b	-0.17358129
82	0xbec04ef3	-0.37560233
83	0xbe323249	-0.17401995
84	0xbc878281	-0.016541721
85	0x3e158cd2	0.146045
86	0x3e251dea	0.16124693
87	0xbea8efd5	-0.32995477
88	0x3b6545f1	0.0034984315
89	0x3dfb1057	0.12258976
90	0x3e057bae	0.13035461
91	0xbc3de4d1	-0.011590199
92	0xbe459ef7	-0.19298922
93	0x3db935c0	0.09043455
94	0xbda7fae0	-0.082021475
95	0x3e2c9829	0.1685492
96	0x3e2e647d	0.1703052
97	0x3be92a30	0.007115625
98	0xbcfae3ed	-0.030626262
99	0xbe8f78eb	-0.2802194
100	0x3cf76161	0.030197801
101	0xbd887b8e	-0.06664191
102	0x3e32b9ce	0.17453691
103	0x3e3d6b6c	0.1849801
104	0x3e80ee0e	0.2518162
105	0x3e24c43b	0.16090481
106	0xbdba11dd	-0.090854384
107	0x3d5c3457	0.053760853
108	0x3d5cd5f8	0.053914994
109	0x3e045a92	0.12925175
110	0x3cd35928	0.025799349
111	0x3dc56e94	0.09640232
112	0xbbbb7bb9	-0.005721536
113	0xbcf16209	-0.029465692
114	0xbccfde4b	-0.025374552
115	0x3d1cbda9	0.03826681
116	0x3e29584b	0.16537587
117	0x3dcbbe99	0.09948463
118	0x3e67bcd8	0.22630632
119	0x3e17546c	0.14778298
120	0x3dc5e255	0.0966231
121	0x3d7cad2b	0.061688583
122	0x3e889fe2	0.2668448
123	0xbeb24bbe	-0.34823412
124	0xbd0103fb	-0.031497937
125	0xbdc9f121	-0.09860445
126	0xbe60495b	-0.21902983
127	0xbed0efd5	-0.40807977
128	0xbde3311c	-0.11093351
129	0xbeaaf216	-0.33387822
130	0xbd25cc26	-0.040477894
131	0xbe614385	-0.21998413
132	0xbe887a7a	-0.26655942
133	0xbde1f298	-0.11032599
134	0xbc8a20a8	-0.016861275
135	0xbdd407c9	-0.103530474
136	0x3dfe2f1d	0.1241133
137	0x3e385dae	0.18004486
138	0xbf036c66	-0.5133728
139	0xbee2c344	-0.442896
140	0xbe6d35a0	-0.23164988
141	0x3d95b0fe	0.07309149
142	0x3e3aaeac	0.18230695
143	0x3e024f91	0.12725665
144	0xbce46e0a	-0.027884502
145	0x3d33b24e	0.043871216
146	0x3ead44d6	0.3384158
147	0xbe91d7ab	-0.28484854
148	0xbe126feb	-0.14300506
149	0xbcb8a8c6	-0.022541415
150	0xbe5f7dc9	-0.21825327
151	0x3dae05df	0.084972136
152	0x3cbfdded	0.023421252
153	0x3d760147	0.060059812
154	0xbc8b4043	-0.016998416
155	0xbe308432	-0.17237929
156	0xbe0df605	-0.1386338
157	0x3bc324c6	0.0059553115
158	0x3e200078	0.15625179
159	0xbdb1b702	-0.08677484
160	0x3e2a307b	0.16620056
161	0x3e8cf54a	0.2753089
162	0xbdfbe265	-0.12299041
163	0xbc8629ce	-0.016377356
164	0xbe2d8647	-0.16945754
165	0xbe1479a0	-0.14499521
166	0xbea105ff	-0.31449887
167	0xbc1c7a66	-0.009550666
168	0xbe5d4403	-0.21607976
169	0xbe257fe7	-0.16162072
170	0xbc5174dc	-0.012784209
171	0x3dffcbac	0.12490019
172	0xbe935852	-0.2877832
173	0xbee65418	-0.44986033
174	0x3e51f661	0.20504142
175	0x3d6d7652	0.057974167
176	0x3d247a60	0.04015577
177	0xbe32a4c9	-0.17445673
178	0x3e7e4fc8	0.24835122
179	0x3e9b26a9	0.30302933
180	0xbda801b2	-0.08203448
181	0x3d076792	0.033057757
182	0xbdb740c8	-0.08947903
183	0x3cec3feb	0.028839072
184	0xbd54dabf	-0.051966425
185	0x3e06bf70	0.13158965
186	0xb9aac908	-0.00032574707
187	0x3e4b61d5	0.19861539
188	0x3e4a1626	0.19735011
189	0x3c7fbb42	0.015608611
190	0x3d6cabe7	0.057781126
191	0x3d91c40b	0.0711747
192	0xbe538898	-0.20657575
193	0xbe43c528	-0.19118178
194	0x3e417139	0.18890847
195	0xbda2d079	-0.07949919
196	0xbe06d06e	-0.13165447
197	0x3e04567b	0.12923615
198	0x3d9d59e2	0.076831594
199	0x3d354720	0.044257283
200	0xbdd4d4e2	-0.10392167
201	0x3e1dea56	0.15421423
202	0x3d72cbbc	0.059276327
203	0x3e5b2499	0.2140068
204	0x3e5453bf	0.20735072
205	0x3e3707cd	0.1787407
206	0x3e4625b5	0.19350322
207	0xbe602b3a	-0.2189149
208	0xbec441b2	-0.38331372
209	0xbf0339c5	-0.51260024
210	0x3edb269c	0.42802894
211	0x3e9aa275	0.3020207
212	0x3e41a4d5	0.18910535
213	0x3c9ba18f	0.018997936
214	0xbcc412e5	-0.02393479
215	0xbdbe293f	-0.09285211
216	0x3c59907d	0.013279078
217	0x3dcae7fd	0.099075295
218	0x3eae6635	0.34062353
219	0xbe879240	-0.26478767
220	0xbde61f3a	-0.11236425
221	0xbe595e36	-0.21227345
222	0xbe744d2c	-0.23857564
223	0xbe6b04a1	-0.22950985
224	0xbee5ad57	-0.4485881
225	0x3e52a196	0.20569453
226	0xbcffb8b0	-0.031215996
227	0x3de076d0	0.10960162
228	0x3dffe739	0.12495274
229	0xbb74d84b	-0.0037360366
230	0x3e3fc802	0.1872864
231	0x3db1aa16	0.086750194
232	0xbea59755	-0.3234202
233	0x3e4185dd	0.18898721
234	0x3da3d9c6	0.08000521
235	0xbe7f2ac3	-0.24918656
236	0x3e7b0408	0.24513257
237	0xbe184514	-0.14870101
238	0x3e22e437	0.1590737
239	0x3e6229b6	0.22086224
240	0xbef21958	-0.4728496
241	0xbf1eeefc	-0.6208341
242	0xbf0f0e26	-0.55880964
243	0xbd3a780c	-0.045524642
244	0x3e079c12	0.1324313
245	0x3e1a87c5	0.15090854
246	0xbdcaca11	-0.09901822
247	0x3e1ef207	0.15522014
248	0x3e5da702	0.2164574
249	0xbeadab2a	-0.3391965
250	0xbe65b17f	-0.2243099
251	0xbefc275b	-0.49248776
252	0xbeba38ad	-0.36371365
253	0xbe043d6e	-0.12914059
254	0xbe9a2a4c	-0.30110395
255	0x3c7a2bf5	0.015269269

conv2.bias f4 [16]
0	0x3d0ff738	0.035147876
1	0x3dc59add	0.096486785
2	0xbd8cf7b3	-0.068831824
3	0x3d913006	0.07089238
4	0x3e5bdcf7	0.2147101
5	0x3e21e81a	0.15811196
6	0xbd9a2178	-0.07525915
7	0xbe2c6180	-0.16834068
8	0xbd81bc11	-0.06334699
9	0x3d78f376	0.060779057
10	0xbd97f7e7	-0.074203305
11	0xbe26831d	-0.16260953
12	0x3e4c3fc7	0.19946204
13	0xbe771fbe	-0.24133202
14	0xbe8f507e	-0.27991098
15	0xbdff004c	-0.124512285

bn2.weight f4 [16]
0	0x3f8e082f	1.1096247
1	0x3f6bd6a5	0.92124397
2	0x3f7ad490	0.97980595
3	0x3f73fbd8	0.9530616
4	0x3f67a8e2	0.9049207
5	0x3f4f013b	0.8086125
6	0x3f821894	1.0163751
7	0x3f5699a8	0.8382821
8	0x3f57a8b9	0.84241825
9	0x3f8c8079	1.0976707
10	0x3f65b920	0.89735603
11	0x3f66115a	0.89870226
12	0x3f7a9acb	0.97892445
13	0x3f7f0702	0.9962007
14	0x3f8ba8bf	1.0910872
15	0x3f8d8f6c	1.1059394

bn2.bias f4 [16]
0	0x3e5eb0ee	0.21747181
1	0x3db8462a	0.08997758
2	0xbea9c511	-0.33158162
3	0xbe9e2a5e	-0.308917
4	0xbe5dc2b6	-0.21656308
5	0xbd0103ed	-0.031497885
6	0xbd95991c	-0.07304594
7	0x3e3d22e2	0.18470338
8	0xbe623427	-0.22090207
9	0x3d660f7f	0.056167122
10	0xbe9e7c96	-0.30954427
11	0x3d3d2ebd	0.04618715
12	0x3e8df788	0.27727914
13	0xbdc053ac	-0.09390959
14	0x3ec4b6ce	0.3842072
15	0xbe82bee7	-0.25536272

bn2.running_mean f4 [16]
0	0x3edf90b3	0.43665084
1	0x3f8a9cb1	1.0829068
2	0x3e9a3cc9	0.301245
3	0x3f273476	0.65314424
4	0x3f1135dc	0.5672281
5	0x3f77e3a9	0.96831757
6	0x3f813cfc	1.0096736
7	0x3f14beeb	0.5810382
8	0x3ea3e134	0.32007754
9	0x3f0e9662	0.55698216
10	0x3edfa811	0.43682912
11	0x3f9e2233	1.2354187
12	0x3fb1d98b	1.3894514
13	0x3f14dd7d	0.58150464
14	0x3f07abcb	0.5299651
15	0x3e9f186a	0.31073314

bn2.running_var f4 [16]
0	0x3f70d9e7	0.9408249
1	0x3fcf3705	1.6188666
2	0x3f31bc89	0.69428307
3	0x40227fdc	2.539054
4	0x3f76323b	0.96170396
5	0x3fbcf1a8	1.4761248
6	0x408dd18f	4.431831
7	0x3f57a794	0.8424008
8	0x3f10698c	0.5641105
9	0x3fd31b60	1.6492729
10	0x3fb888ce	1.441675
11	0x4095e520	4.6842194
12	0x401fd92b	2.49763
13	0x3fd38840	1.6525955
14	0x3fba325a	1.4546616
15	0x3f06b2cf	0.5261659

conv3.weight f4 [32, 16, 3, 3]
0	0xbdb40ac6	-0.08791117
1	0xbd829e49	-0.06377847
2	0x3d3733d3	0.044727158
3	0x3dd1154a	0.10209139
4	0x3def86e6	0.11695652
5	0x3db18aa0	0.08669019
6	0xbe02691f	-0.12735413
7	0xbdb2ebb9	-0.08736367
8	0xbd003618	-0.031301588
9	0x3dc05b32	0.09392394
10	0x3d95dd50	0.07317603
11	0xbd61308e	-0.054977946
12	0x3e441454	0.1914838
13	0x3ed81d04	0.42209637
14	0x3db64738	0.08900303
15	0xbd8d3355	-0.068945564
16	0x3df08f64	0.117460996
17	0x3e25e52d	0.16200705
18	0x3d30a685	0.043127555
19	0xbd9b89d9	-0.07594652
20	0x3da19d72	0.078913584
21	0x3c87bba7	0.016568972
22	0x3db76122	0.089540735
23	0x3dde9495	0.108681835
24	0xbe9265b5	-0.2859322
25	0xbd9bb49b	-0.07602807
26	0x3d120626	0.035650395
27	0x3cc47582	0.023981813
28	0x3db4223e	0.08795594
29	0x3c3f0f43	0.0116613535
30	0xbda330d7	-0.079683
31	0xbdb66a85	-0.08907036
32	0x3dcbd377	0.09952443
33	0xbeb942f6	-0.361839
34	0xbe800cc5	-0.25009742
35	0xbe59223f	-0.2120447
36	0x3b63f02c	0.0034780605
37	0x3d98ef4a	0.07467516
38	0x3da77c77	0.08178037
39	0xbe45c136	-0.19311985
40	0xbe8243c0	-0.25442314
41	0xbe95fb8a	-0.29293472
42	0x3e217e90	0.15770936
43	0x3c876f3d	0.016532535
44	0xbca748b6	-0.020420413
45	0x3dacea1b	0.084430896
46	0xbe2735b0	-0.16329074
47	0xbd5183da	-0.051151134
48	0xbd9619d8	-0.07329148
49	0xbe2deb3d	-0.16984268
50	0xbeb69911	-0.35663655
51	0xbe56919e	-0.20953986
52	0xbc91d973	-0.017803883
53	0x3deea38b	0.11652287
54	0xbdfc17a6	-0.12309198
55	0x3b7995ce	0.0038083675
56	0x3c23f652	0.010007458
57	0x3cca02a1	0.024659457
58	0xbd83b1ad	-0.06430373
59	0x3dee1f74	0.11627093
60	0x3d27d46f	0.040974077
61	0x3d238dfa	0.03993032
62	0x3dc1ce42	0.09463169
63	0xbe520960	-0.20511389
64	0x3af026c2	0.0018322098
65	0x3d37779c	0.044791803
66	0x3cf6a640	0.030108571
67	0xbe1c2bd1	-0.1525109
68	0xbdfc1d89	-0.12310321
69	0x3d88e937	0.06685107
70	0xbe39d8b2	-0.18149069
71	0x3d9abb15	0.07555214
72	0xbdaa424f	-0.083134286
73	0x3d76e442	0.060276277
74	0x3dcd78e6	0.10032825
75	0xbe37d777	-0.17953287
76	0xbcfc473d	-0.030795688
77	0x3d55f346	0.052233957
78	0x3d859c82	0.06523992
79	0xbd3adac9	-0.045618806
80	0xbe1d4595	-0.15358575
81	0xbe3b82be	-0.18311593
82	0x3d3022c6	0.043001913
83	0x3e87c7ae	0.2651953
84	0xbd75f749	-0.060050283
85	0x3d0a61c9	0.03378466
86	0x3db0b6cd	0.086286165
87	0xbef9c1b5	-0.487806
88	0xbec5b167	-0.3861191
89	0xbef4d27d	-0.4781684
90	0xbe0e83ae	-0.1391742
91	0x3cba64d1	0.022753151
92	0x3d40a435	0.0470316
93	0xbe442ad3	-0.19156961
94	0xbe48d7dd	-0.19613595
95	0x3e82ffe7	0.25585863
96	0xbe042689	-0.12905325
97	0xbe971a58	-0.29512286
98	0xbeb40122	-0.35157114
99	0x3e4d7968	0.20065844
100	0x3e7b82c8	0.24561608
101	0xbd529f0f	-0.05142122
102	0xbeabdbeb	-0.33566222
103	0xbe71cbdc	-0.23612922
104	0xbdb4b514	-0.088236004
105	0xbb9db4c9	-0.004812811
106	0xbce6cc60	-0.028173625
107	0x3d9bc4c8	0.076058924
108	0xbcc7f339	-0.02440797
109	0x3e1deafa	0.15421668
110	0x3ddeaa56	0.10872333
111	0x3c62b2cf	0.013836577
112	0x3e1e8d69	0.15483631
113	0x3e1152d2	0.1419175
114	0x3c5ff93b	0.013670261
115	0x3e2bbb06	0.16770563
116	0xbe266f9c	-0.16253513
117	0x3e3e14b9	0.18562593
118	0x3c1ccd69	0.009570458
119	0x3dce8491	0.10083879
120	0xbd31d2a2	-0.043413766
121	0xbe1d282d	-0.15347357
122	0x3ddbf2aa	0.10739644
123	0x3d67ddb2	0.05660791
124	0x3e5ff170	0.21869445
125	0x3d7a5229	0.06111351
126	0x3d8b370f	0.06797611
127	0xbc7df15a	-0.015499437
128	0x3db7f114	0.08981529
129	0x3d001253	0.031267475
130	0x3e3b6975	0.18301947
131	0x3e2a1d4d	0.1661274
132	0xbdadd2f2	-0.084875
133	0x3e6b5567	0.22981797
134	0x3d8c6aac	0.068562835
135	0xbdd47870	-0.10374534
136	0x3e04f0e1	0.12982513
137	0x3cf603fa	0.030031193
138	0xbe0a745c	-0.1352095
139	0xbe146419	-0.14491309
140	0xbda8ee9d	-0.08248637
141	0xbe9613f9	-0.29312113
142	0xbea9f19c	-0.33192146
143	0xbe9bd76f	-0.304378
144	0x3e257dbf	0.1616125
145	0x3ac1a164	0.001477283
146	0xbe687d6f	-0.22704099
147	0x3d8595bc	0.065227
148	0x3ced740f	0.028986005
149	0x3d254c33	0.040355872
150	0xbe8d6e8b	-0.276234
151	0x3c875745	0.016521106
152	0x3b8e7712	0.0043476904
153	0xbdb48f5b	-0.088164054
154	0xbe1422ee	-0.1446645
155	0x3d85a712	0.06526007
156	0xbe9b174e	-0.30291218
157	0x3dcdc934	0.10048142
158	0xbd87138a	-0.06595524
159	0x3e0bfb5d	0.13670106
160	0xbde80d8a	-0.11330707
161	0xbe0e7289	-0.13910879
162	0x3e5414b4	0.20711023
163	0x3dd35c63	0.10320356
164	0x3e3c0506	0.18361291
165	0x3e8e6e17	0.27818367
166	0x3ecc8f30	0.39952993
167	0x3ed6c514	0.41947234
168	0x3e765925	0.24057443
169	0xbd362a75	-0.044474084
170	0x3d29280f	0.04129797
171	0x3a9ba1ee	0.001187382
172	0x3c9f01fc	0.019410126
173	0x3e29d6ad	0.16585799
174	0xbc1ce8fb	-0.009577031
175	0xbe11021e	-0.14160964
176	0x3e89fd86	0.26951236
177	0x3da1f1a8	0.079074204
178	0x3d6dbc44	0.058040872
179	0xbccede36	-0.025252443
180	0xbd843a00	-0.06456375
181	0xbe4cc72d	-0.19997855
182	0xbe45c3c0	-0.19312954
183	0x3d3648b6	0.044502936
184	0xbe1ce4ad	-0.15321608
185	0xbd99c929	-0.075090714
186	0x3ddec53a	0.10877462
187	0x3e27ebf1	0.16398598
188	0x3e5fa1a1	0.21839
189	0xbdeab8f4	-0.11461058
190	0x3da235b7	0.079204015
191	0x3cace3ca	0.021104712
192	0x3dcae10e	0.09906207
193	0x3dd69a88	0.10478693
194	0x3d71154d	0.058858205
195	0x3c31df58	0.010856472
196	0x3c33185e	0.010931103
197	0x3dfca8fb	0.12336918
198	0xbe4579a9	-0.19284691
199	0x3e297c3c	0.16551298
200	0xbd514c07	-0.051097896
201	0x3e4f9b25	0.20274027
202	0x3cbe9681	0.023265125
203	0xbca89700	-0.020579815
204	0xbd539c16	-0.051662527
205	0x3ccdc180	0.025116682
206	0x3e5ae7ab	0.21377437
207	0x3beee2ef	0.007290236
208	0xbc9a64f9	-0.018846976
209	0xbc9c9462	-0.019113723
210	0xbe1e5423	-0.15461783
211	0xbeb17df0	-0.34666395
212	0xbed595d1	-0.41715863
213	0x3d4acc84	0.049511448
214	0x3de28365	0.11060218
215	0x3d8106b3	0.06300106
216	0x3e80070f	0.25005385
217	0x3ca16aa1	0.019704165
218	0xbe440856	-0.19143805
219	0xbdde8b60	-0.108664274
220	0xbe278b47	-0.16361724
221	0xbe329cd4	-0.17442638
222	0xbd8cdb73	-0.06877794
223	0xbe8b5060	-0.2720976
224	0xbe0b5796	-0.1360763
225	0xbd8790c7	-0.06619411
226	0x3d8d9a11	0.069141515
227	0xbc40c3d3	-0.011765438
228	0x3e95e774	0.29278147
229	0x3dd56fa0	0.104216814
230	0x3e8055ba	0.25065404
231	0xbde6bdd7	-0.11266678
232	0xbba94f67	-0.005166936
233	0xbdb2ec24	-0.087364465
234	0xbd8f38e5	-0.06993274
235	0xbe452eb3	-0.19256096
236	0xbddf9127	-0.109163575
237	0xbd3e2fc2	-0.046432264
238	0xbe026f6a	-0.12737814
239	0x3da08483	0.078377746
240	0x3ca0eda5	0.019644568
241	0x3d25231b	0.040316682
242	0xbdfd546f	-0.1236962
243	0x3e83b04b	0.25720438
244	0xbcfeba3b	-0.031094661
245	0x3d246ece	0.040144734
246	0xbd8ef428	-0.06980163
247	0xbdd0556d	-0.10172544
248	0x3b638edf	0.003472261
249	0x3e0209cb	0.12699048
250	0x3e15a0fa	0.14612189
251	0x3da0382c	0.07823214
252	0x3bef62a3	0.0073054596
253	0x3d82f085	0.06393532
254	0x3dbb1b36	0.091360494
255	0x3d856a05	0.06514362

conv3.bias f4 [32]
0	0x3dc7c1b3	0.09753742
1	0xbeb0eda1	-0.34556296
2	0xbc43ad22	-0.011943134
3	0xbee3bb93	-0.44479045
4	0xbe1c1a55	-0.1524442
5	0xbe48a0dc	-0.19592613
6	0xbda19eeb	-0.07891639
7	0xbe8e22f6	-0.27761048
8	0xbe29d627	-0.16585599
9	0xbdf59319	-0.11990947
10	0xbede03a9	-0.43362167
11	0xbde5d081	-0.112214096
12	0xbebe995f	-0.37226388
13	0xbe75a193	-0.23987417
14	0x3e436379	0.19080915
15	0xbe5dfebd	-0.21679206
16	0xbdb8d6ad	-0.09025321
17	0xbe25ccbe	-0.16191384
18	0xbe807d8d	-0.25095788
19	0xbe8b8aaf	-0.27254245
20	0xbe1c8990	-0.15286851
21	0xbd564cd8	-0.052319378
22	0xbea05dff	-0.31321713
23	0xbd8fce3a	-0.070217565
24	0xbe6aeba7	-0.22941457
25	0xbe7c5c25	-0.24644525
26	0xbde1f5f9	-0.11033244
27	0x3e2c031a	0.16798058
28	0xbeae399f	-0.34028336
29	0xbe870306	-0.26369494
30	0xbe736e7b	-0.23772614
31	0x3d9459f4	0.0724372

bn3.weight f4 [32]
0	0x3f6d5ecf	0.9272279
1	0x3f85e348	1.0459986
2	0x3f6a6de8	0.91573954
3	0x3f773723	0.96568507
4	0x3f8738fa	1.0564263
5	0x3f8291ab	1.0200704
6	0x3f833d8e	1.025316
7	0x3f71732c	0.94316363
8	0x3f7fc669	0.99912125
9	0x3f8a93a6	1.0826309
10	0x3f69e498	0.9136443
11	0x3f6c044d	0.9219406
12	0x3f6c6174	0.923362
13	0x3f7cc1c6	0.98733175
14	0x3f5f674c	0.87266994
15	0x3f80f16a	1.0073674
16	0x3f52c80b	0.8233649
17	0x3f707b4b	0.9393813
18	0x3f760b22	0.9611074
19	0x3f719641	0.94369894
20	0x3f831c82	1.0243075
21	0x3f55c81d	0.83508474
22	0x3f6a1716	0.91441476
23	0x3f75a84b	0.9595992
24	0x3f5dbdd7	0.866178
25	0x3f6cf2dc	0.92558074
26	0x3f7ecd87	0.9953236
27	0x3f8cc4b0	1.0997524
28	0x3f80fb19	1.0076629
29	0x3f7d4e71	0.9894782
30	0x3f6a4a16	0.91519296
31	0x3f7c4707	0.9854588

bn3.bias f4 [32]
0	0x3ea07e83	0.3134652
1	0x3ed039b0	0.40669012
2	0x3f00a12b	0.5024592
3	0x3e1b3edf	0.15160702
4	0x3c689a25	0.014196907
5	0x3e405005	0.18780525
6	0xbd9bea9b	-0.07613107
7	0x3e6eaba3	0.23307662
8	0x3eb35339	0.3502443
9	0x3e2367eb	0.1595761
10	0xbe8110b1	-0.25208047
11	0x3e8892d7	0.2667453
12	0x3e539674	0.20662862
13	0x3e983611	0.2972875
14	0xbdf59b3e	-0.11992501
15	0xbe5c730c	-0.21528262
16	0x3ec50ad1	0.38484815
17	0x3bd63a92	0.006537744
18	0xbdc0a034	-0.09405556
19	0xbe4feafd	-0.20304485
20	0x3f46eba7	0.77703327
21	0xbe0489c0	-0.12943172
22	0x3d1ac343	0.037783872
23	0x3e86edec	0.26353395
24	0x3d255053	0.040359806
25	0xbdbabe8e	-0.09118377
26	0x3e67718f	0.22601913
27	0x3ebfcbaf	0.37460086
28	0x3e86e5e7	0.26347277
29	0x3ee98921	0.45612434
30	0x3ee5d92f	0.4489226
31	0xbe644e9d	-0.22295614

bn3.running_mean f4 [32]
0	0x40110b8b	2.2663295
1	0x3f290a51	0.66031367
2	0x3f168ae6	0.5880569
3	0x3f0e191b	0.5550706
4	0x3e74ef51	0.23919417
5	0x3ecba232	0.39772183
6	0x3ebb4c26	0.36581534
7	0x3f4828e5	0.781874
8	0x3e67afd4	0.22625667
9	0x3e552de3	0.20818286
10	0x3e3e4ca0	0.18583918
11	0x3eecac5d	0.46225253
12	0x3e6be482	0.23036388
13	0x3eccfd51	0.40037015
14	0x3f8b6687	1.0890664
15	0x3ebddf67	0.37084505
16	0x3df0445f	0.11731791
17	0x3e9dfa45	0.30855003
18	0x3e8bc54d	0.27298966
19	0x3eb50ee1	0.35362914
20	0x3f7f8a88	0.99820757
21	0x3f00ab72	0.50261605
22	0x3efaba75	0.4897038
23	0x3f03876f	0.5137853
24	0x3db91f26	0.09039144
25	0x3f19cf09	0.60081536
26	0x3effa9e4	0.49934304
27	0x3ff767c4	1.9328542
28	0x3db74019	0.089477725
29	0x3de18aef	0.110128276
30	0x3edea935	0.4348847
31	0x3ebcc7cc	0.36871183

bn3.running_var f4 [32]
0	0x4020a0f0	2.5098228
1	0x403fe986	2.9986281
2	0x3f8d7a14	1.105288
3	0x3feb0cc5	1.8363272
4	0x3f57e7b6	0.8433794
5	0x3f84d810	1.0378437
6	0x3f9d3cf3	1.2284225
7	0x404e1c91	3.2204936
8	0x3f28f0ea	0.65992606
9	0x3f4a0568	0.789145
10	0x3f048819	0.5177017
11	0x3f94a4fe	1.1612852
12	0x3f42ed07	0.76142925
13	0x3f8190f0	1.0122356
14	0x3f9f32ef	1.2437419
15	0x3f574664	0.8409178
16	0x3e5394ee	0.20662281
17	0x3f47184e	0.7777146
18	0x3f0c939c	0.54912734
19	0x3f8bc859	1.0920516
20	0x4053b314	3.307805
21	0x3f2af28d	0.66776353
22	0x3fa5aeb0	1.2943935
23	0x3fadc3d3	1.3575386
24	0x3e74f420	0.23921251
25	0x3fd26ce6	1.6439483
26	0x3fc72836	1.5559146
27	0x402e848c	2.72684
28	0x3e566f3e	0.20940873
29	0x3ea3d9a3	0.3200198
30	0x3f629d41	0.885212
31	0x3f27f970	0.65614986

conv4.weight f4 [64, 32, 3, 3]
0	0xbd41ed0e	-0.047345214
1	0xbe1672c8	-0.14692223
2	0xbe1cdbff	-0.15318297
3	0x3ce9245d	0.028459722
4	0xbdacde4f	-0.084408395
5	0xbe7d3698	-0.24727857
6	0xbd3659fb	-0.044519406
7	0xbca2a9da	-0.019856382
8	0xbd41d2ce	-0.04732018
9	0x3dbed3fe	0.09317778
10	0x3e28f411	0.16499354
11	0xbb053bbb	-0.0020329792
12	0xbbc15e62	-0.005901144
13	0xbdb4242e	-0.08795963
14	0xbd7ab462	-0.061207183
15	0x3db5f148	0.08883911
16	0xbcd5655d	-0.02604931
17	0xbcbc03c6	-0.022951018
18	0xbc3b750b	-0.011441479
19	0xbe1c277d	-0.15249439
20	0xbd62325d	-0.05522381
21	0x3c5e85cd	0.013581705
22	0xbd59f800	-0.053215027
23	0xbce348f4	-0.027744748
24	0xbdcab395	-0.09897534
25	0xbd4dc998	-0.050241083
26	0x3d7d8c7c	0.061901554
27	0xbdd102be	-0.10205601
28	0x3d26deeb	0.040739935
29	0x3e122d99	0.14275207
30	0xbe0afd08	-0.13573086
31	0xbdfeb934	-0.124376684
32	0xbcd7fd23	-0.026365822
33	0xbe6ae97e	-0.22940633
34	0xbeab8682	-0.3350106
35	0xbe35bb9c	-0.17747349
36	0xbdc36bc4	-0.09542039
37	0x3d618cc2	0.055065878
38	0x3d056690	0.032568514
39	0xbd03265a	-0.032018997
40	0xbe496567	-0.19667588
41	0xbdfab4d8	-0.122415245
42	0x3d01257f	0.0315299
43	0xbe924d03	-0.2857438
44	0xbe441d10	-0.19151711
45	0x3d159973	0.036523294
46	0xbe751833	-0.23935013
47	0xbe2f34d3	-0.17109995
48	0xbd34d430	-0.04414767
49	0xbdb1446c	-0.086556286
50	0x3c0ce03f	0.008598386
51	0xbdc4ae03	-0.096035026
52	0xbd80df58	-0.062925994
53	0x3e04d501	0.1297188
54	0x3d9d65a7	0.07685404
55	0x3e1fc0e8	0.15600932
56	0x3d87ee98	0.06637305
57	0x3dc58a77	0.09645551
58	0x3d0ee7bf	0.03488898
59	0x3d10ea08	0.03537944
60	0x3e073bf8	0.1320647
61	0xbc745c89	-0.01491464
62	0xbbefd854	-0.0073194895
63	0xbb83d88f	-0.0040236185
64	0xbd52803c	-0.051391825
65	0x3d81f312	0.0634519
66	0xbe7ba175	-0.2457331
67	0xbe01633a	-0.12635508
68	0x3cb9af04	0.022666462
69	0x3cb8bc93	0.022550857
70	0xbc4a5827	-0.012350119
71	0x3e37a783	0.17934994
72	0x3df7db66	0.12102394
73	0x3e331f73	0.17492466
74	0x3e2877c2	0.16451934
75	0xbe0541e3	-0.13013415
76	0xbe7e057c	-0.2480678
77	0xbe04986b	-0.12948768
78	0xbe6a152c	-0.22859639
79	0xbe6d96be	-0.23202035
80	0xbe32b030	-0.17450023
81	0x3da35f3b	0.07977148
82	0xbc8fd7e1	-0.017558994
83	0x3d25081c	0.040290937
84	0x3c5d0b7b	0.013491507
85	0xbe9e25a4	-0.30888093
86	0xbe53584a	-0.20639148
87	0x3e6b5516	0.22981676
88	0xbe60fac9	-0.21970667
89	0x3d02af88	0.03190568
90	0x3d3da054	0.04629548
91	0xbd02a9e7	-0.031900313
92	0x3cc10309	0.023561018
93	0xbe12c6eb	-0.14333694
94	0xbb4fb0c1	-0.0031691047
95	0xbdcf1358	-0.101111114
96	0xbd477644	-0.04869677
97	0xbabbc79f	-0.001432646
98	0x3d1ef9ac	0.038812324
99	0xbd332556	-0.04373678
100	0x3d8aad0e	0.06771289
101	0x3df78fe2	0.1208799
102	0x3da43871	0.08018578
103	0x3d177bce	0.036983304
104	0xbc68bc7b	-0.0142050935
105	0x3cd682aa	0.026185352
106	0xbd348b7e	-0.044078343
107	0x3dddd1ce	0.10831033
108	0xbe8786f7	-0.26470158
109	0xbe590791	-0.21194293
110	0xbe2769db	-0.16348974
111	0x3de88afa	0.11354633
112	0x3d1c5dc9	0.038175378
113	0xbd1bea5a	-0.038065292
114	0x3e8b2da1	0.2718325
115	0x3deaf0f7	0.11471742
116	0xbc9cdc39	-0.01914798
117	0x3c924d2f	0.01785907
118	0x3e1e8141	0.15478994
119	0xbba49dd1	-0.005023696
120	0x3e9023dd	0.28152362
121	0x3e1d1b1a	0.1534237
122	0x3da06901	0.07832528
123	0xbca98468	-0.020693019
124	0x3cdc3480	0.026880503
125	0x3df255c5	0.118327655
126	0x3d664578	0.056218594
127	0xbd1042c3	-0.03521992
128	0x3e312a4f	0.17301296
129	0xbe1fb4a7	-0.15596257
130	0xbdc1d79a	-0.09464951
131	0x3cdf3a8c	0.027249597
132	0x3e47d5a5	0.19515093
133	0x3e0c7a06	0.13718423
134	0x3da97864	0.08274916
135	0x3e700e78	0.2344302
136	0x3d864b2c	0.06557307
137	0x3e88a3ca	0.2668746
138	0xbd95374a	-0.07285936
139	0xbbbf22dc	-0.005833013
140	0xbdc5ead9	-0.09663934
141	0x3d2c3f67	0.042052653
142	0x3ccb7cfc	0.02483987
143	0x3e3afca5	0.18260439
144	0xbeb3c0df	-0.35108086
145	0xbe81b690	-0.25334597
146	0x3d9b4e19	0.07583255
147	0x3d0a87fb	0.033821087
148	0x3e602214	0.21888
149	0x3d1c0644	0.038091913
150	0xbdf3e6c2	-0.11909248
151	0xbe40a4da	-0.18812886
152	0xbdf20652	-0.11817612
153	0x3d33fb5e	0.043940894
154	0x3b0ed0e1	0.0021791982
155	0xbdde2da4	-0.10848549
156	0x3e45e489	0.1932546
157	0x3e4481c8	0.19190133
158	0xbd956a95	-0.072957195
159	0xbcf2f18e	-0.029656198
160	0xbe591cf0	-0.21202445
161	0xbd45dfd1	-0.04830915
162	0x3d7a29e6	0.061075114
163	0x3d55cd72	0.05219788
164	0x3c10ab47	0.008829898
165	0x3e59ccf2	0.21269587
166	0x3d9b2674	0.07575694
167	0xbc19a0a5	-0.00937668
168	0xbe06ede5	-0.13176687
169	0xbdf29b84	-0.118460685
170	0xbe0deba4	-0.13859421
171	0x3d020328	0.03174129
172	0xbd270538	-0.04077646
173	0xbddceb9e	-0.10787128
174	0x3dc5ed8c	0.09664449
175	0x3e394c3e	0.1809549
176	0x3d9e980e	0.07743846
177	0x3d3b40e9	0.0457162
178	0x3e029815	0.12753327
179	0x3e725f68	0.23669207
180	0x3db70819	0.089370914
181	0xbc361b8b	-0.011114965
182	0x3d7e36a4	0.062063828
183	0xbe2fe23c	-0.17176145
184	0xbde101b0	-0.1098665
185	0xbd175770	-0.03694862
186	0xbd903099	-0.07040519
187	0xbdf52173	-0.119692706
188	0xbe123c8f	-0.14280914
189	0xbd0c3d46	-0.034238122
190	0x3d97d467	0.074135594
191	0x3d64f65b	0.055899005
192	0xbdadcc5f	-0.08486246
193	0xbb74dea3	-0.0037364147
194	0xbe112d00	-0.14177322
195	0x3e0b8561	0.13625099
196	0x3e26a158	0.16272485
197	0xbd2e33b4	-0.042529777
198	0xbe47d7a3	-0.19515853
199	0x3d7e2ee6	0.062056445
200	0x3d59916a	0.053117193
201	0xbe45fdf9	-0.19335164
202	0x3d95ec1f	0.07320427
203	0x3d7f51c4	0.062333837
204	0xbe86dba9	-0.26339462
205	0x3dbc10a7	0.09182864
206	0xbcb44386	-0.022004854
207	0x3d945f9f	0.07244801
208	0x3d876ecf	0.06612932
209	0xbe33cfec	-0.17559785
210	0xbe9ca0a9	-0.30591324
211	0xbe919864	-0.28436577
212	0xbde99ecd	-0.11407242
213	0xbe05d773	-0.13070469
214	0xbe86ebc3	-0.26351747
215	0xbddc7313	-0.10764136
216	0xbddd6268	-0.10809785
217	0xbdbd5c35	-0.09246103
218	0xbddbf15a	-0.107393935
219	0xbdbcb4a7	-0.09214144
220	0xbca86319	-0.020555066
221	0xbdb26af3	-0.08711805
222	0x3d89db48	0.06731278
223	0x3e42d014	0.19024688
224	0x3e11b44a	0.14228931
225	0x3ca6d86a	0.020366866
226	0x3d9929b1	0.07478655
227	0xbd90d6ef	-0.07072245
228	0x3d7e0946	0.062020563
229	0xbdb8d9f1	-0.09025944
230	0x3c9b6f7d	0.01897406
231	0x3c7e34f7	0.0155155575
232	0x3e66b567	0.22530137
233	0x3d0046c5	0.03131749
234	0xbe54ed6a	-0.20793691
235	0xbe32a89a	-0.17447129
236	0xbe2aded2	-0.16686562
237	0xbe68964e	-0.22713587
238	0xbd3112b5	-0.04323073
239	0xbe269d51	-0.16270949
240	0x3d98d2c9	0.07462079
241	0xbe09e136	-0.13464817
242	0xbcd02b74	-0.025411345
243	0xbd9d7040	-0.076874256
244	0xbe03e8eb	-0.1288182
245	0x3d00d8b8	0.03145668
246	0xbe036156	-0.128301
247	0xbe5380ea	-0.20654646
248	0x3d31afbe	0.04338049
249	0x3e2c2e08	0.16814435
250	0x3e1ce56b	0.15321891
251	0x3dbf92fd	0.09354208
252	0xbe07b4e8	-0.13252604
253	0xbcf56a4d	-0.029957915
254	0x3d873385	0.066016234
255	0x3d6d1a68	0.05788651

conv4.bias f4 [64]
0	0xbde4a2c4	-0.111638576
1	0xbf0a39f9	-0.5399471
2	0xbea55254	-0.32289374
3	0xbe6bdcf8	-0.23033512
4	0xbea58a1d	-0.32331935
5	0xbeb7409f	-0.3579149
6	0xbe8f2423	-0.27957258
7	0xbe67599d	-0.22592779
8	0xbeedede8	-0.4647057
9	0xbeb6e030	-0.35717916
10	0xbdeb48c2	-0.11488487
11	0x3dafbc7b	0.08580872
12	0xbe9e5862	-0.30926806
13	0xbe7061b7	-0.23474775
14	0xbe81cd89	-0.25352123
15	0xbe6e44aa	-0.23268381
16	0xbe53c5ba	-0.20680895
17	0xbe9c0beb	-0.30477843
18	0xbe7037a7	-0.2345873
19	0xbe98b878	-0.29828238
20	0xbe065292	-0.13117436
21	0xbe2d19cb	-0.1690437
22	0xbe2d55b7	-0.16927229
23	0xbe75a3d4	-0.23988277
24	0xbcaafafc	-0.020871632
25	0x3e0c2fb4	0.13690072
26	0xbe98f79d	-0.29876414
27	0x3d42f580	0.04759741
28	0xbe13ab29	-0.14420761
29	0xbe8f8dfb	-0.2803801
30	0xbed8717f	-0.4227409
31	0xbec6c740	-0.3882389
32	0xbdf1dd49	-0.11809785
33	0xbecb2c25	-0.39682117
34	0x3dd01591	0.101603635
35	0xbe8c37b8	-0.2738626
36	0xbecf6bfe	-0.4051208
37	0xbeb2f2dc	-0.34950912
38	0xbdf9c0ab	-0.121949516
39	0xbeb40939	-0.35163286
40	0xbe481c33	-0.19542007
41	0xbe86d2a1	-0.26332572
42	0xbed34d30	-0.41269827
43	0xbe0b9821	-0.13632251
44	0xbe2f8695	-0.17141183
45	0xbe546573	-0.20741825
46	0xbe56eafb	-0.20988075
47	0xbee0d699	-0.43913725
48	0xbeadb4b0	-0.33926916
49	0xbe62fa32	-0.22165754
50	0xbdd88676	-0.105725214
51	0xbe31efff	-0.17376707
52	0xbeeeab92	-0.46615273
53	0xbe97b0b5	-0.29627004
54	0xbe8ecb0b	-0.27889284
55	0xbe11dc58	-0.1424421
56	0xbda37906	-0.07982068
57	0xbe5c586e	-0.21518108
58	0xbe946621	-0.28984168
59	0xbebb841d	-0.36624232
60	0xbe3dae4d	-0.18523522
61	0xbed481a2	-0.41505152
62	0xbdb18d94	-0.08669582
63	0xbd54a195	-0.05191191

bn4.weight f4 [64]
0	0x4006f144	2.1084757
1	0x4050ebc9	3.2643912
2	0x403a0af6	2.906919
3	0x4033bdcd	2.8084595
4	0x402586c3	2.5863502
5	0x403605d9	2.844107
6	0x403e423d	2.9727929
7	0x403f2835	2.986829
8	0x4022cb20	2.5436478
9	0x403a9245	2.9151776
10	0x40157c99	2.3357298
11	0x4014e4f8	2.3264751
12	0x401cdd55	2.451009
13	0x40499bbe	3.1501307
14	0x402cf2cf	2.7023199
15	0x403c78e4	2.9448786
16	0x4049ecfa	3.155089
17	0x4038075d	2.8754494
18	0x40497c0b	3.148196
19	0x4024387c	2.5659475
20	0x40058961	2.08651
21	0x400720db	2.1113803
22	0x4027d087	2.6221025
23	0x402b4db5	2.6766179
24	0x3ff0e48b	1.8819746
25	0x3fdae1f8	1.710021
26	0x404a5613	3.1615036
27	0x400c2937	2.1900156
28	0x401e727b	2.4757373
29	0x402904bb	2.6409137
30	0x4020f109	2.5147116
31	0x4025eef4	2.5927095
32	0x3ffb24b1	1.9620572
33	0x40397212	2.8975873
34	0x3ff3207f	1.8994292
35	0x4024774a	2.5697808
36	0x4044159e	3.0638194
37	0x40384f00	2.8798218
38	0x4028d4f4	2.6379976
39	0x403f0005	2.9843762
40	0x40129c4d	2.2907898
41	0x4052766b	3.2884777
42	0x4022f7ca	2.5463738
43	0x40223816	2.5346732
44	0x403955d8	2.8958645
45	0x4000eec1	2.0145724
46	0x40430e46	3.0477462
47	0x4026339b	2.5968997
48	0x403018b7	2.7515085
49	0x400bb88a	2.1831384
50	0x401851e7	2.379999
51	0x4017180c	2.3608427
52	0x4050ed6d	3.2644913
53	0x4053c31d	3.3087838
54	0x40341717	2.8139093
55	0x401c1033	2.4384887
56	0x4042740e	3.0383334
57	0x401c0360	2.437706
58	0x4037a174	2.8692293
59	0x403a854a	2.9143853
60	0x403c1482	2.9387517
61	0x407064f4	3.7561617
62	0x400cd5fa	2.20056
63	0x403092dd	2.7589638

bn4.bias f4 [64]
0	0xbe1fc638	-0.15602958
1	0xbe726e98	-0.23675
2	0xbe215817	-0.1575626
3	0xbe483eae	-0.1955516
4	0xbe464b3b	-0.19364636
5	0xbe2f0617	-0.17092167
6	0xbe13e4e6	-0.14442787
7	0xbe905d19	-0.28196028
8	0xbe9c119c	-0.30482185
9	0x3e8591dc	0.26087844
10	0x3e2a751c	0.16646236
11	0x3e37b1e9	0.17938961
12	0xbe3f385f	-0.18673848
13	0x3e0e4c16	0.13896212
14	0xbe33e900	-0.17569351
15	0xbe1b6e98	-0.15178907
16	0xbeafd340	-0.34340858
17	0x3e4d6b64	0.20060498
18	0x3e32ac0a	0.1744844
19	0xbe57aff4	-0.21063215
20	0xbe1e15be	-0.15437981
21	0xbe3c465a	-0.18386212
22	0x3e7a7087	0.24456988
23	0x3e6d81ec	0.23194093
24	0x3e8dc7d9	0.27691534
25	0xbe0b7a3a	-0.13620844
26	0xbe512001	-0.20422365
27	0x3e87b809	0.26507595
28	0xbe1e18d0	-0.15439153
29	0xbe786f86	-0.24261293
30	0xbe282892	-0.16421726
31	0x3e102b1e	0.14078948
32	0xbe0660cd	-0.13122864
33	0xbe384af8	-0.17997348
34	0x3e756638	0.23964775
35	0xbe3cd2b9	-0.1843976
36	0x3e35f184	0.17767912
37	0x3e1c4e51	0.1526425
38	0x3e9c55d2	0.30534226
39	0xbe804740	-0.2505436
40	0xbe1cbe1e	-0.15306899
41	0x3e930e04	0.2872163
42	0xbe4c4b67	-0.19950639
43	0x3e2da5ac	0.1695773
44	0x3e34a5c1	0.17641355
45	0xbe3ef39a	-0.18647614
46	0xbeac20f5	-0.33618894
47	0xbe1d74aa	-0.15376535
48	0xbe3b57eb	-0.18295257
49	0x3e0a7e1e	0.13524672
50	0x3e8dbb0a	0.27681762
51	0xbe17cb2d	-0.14823599
52	0xbe4d7cd9	-0.20067157
53	0xbe4777c0	-0.19479275
54	0xbe189f41	-0.149045
55	0x3e27e461	0.16395713
56	0x3e552141	0.20813467
57	0x3e82c5ab	0.25541434
58	0x3e5cc197	0.21558224
59	0x3e75952a	0.23982683
60	0xbe91612f	-0.28394458
61	0x3e557bd0	0.20848012
62	0xbe5cf4af	-0.21577714
63	0x3e6324d0	0.22182012

bn4.running_mean f4 [64]
0	0x3df35fa4	0.118834764
1	0x3d9334ee	0.0718783
2	0x3d374e50	0.04475242
3	0x3d5c26df	0.053748008
4	0x3cc8c15f	0.024506269
5	0x3d7b5ac1	0.061365847
6	0x3d72c022	0.059265263
7	0x3d3873ad	0.045032192
8	0x3d627389	0.055285964
9	0x3dc13ce4	0.09435442
10	0x3d7c68e1	0.061623458
11	0x3e3c6d57	0.18401085
12	0x3deeeaff	0.11665916
13	0x3d2d2b1b	0.042277437
14	0x3d4d7ce8	0.050167948
15	0x3dd24216	0.10266511
16	0x3d6d2598	0.05789718
17	0x3d3a7352	0.045520134
18	0x3dd36621	0.10322214
19	0x3d6975a5	0.05699696
20	0x3dfd7b01	0.12376977
21	0x3e369001	0.1782837
22	0x3e546893	0.20743017
23	0x3e1a7800	0.15084839
24	0x3eb295ae	0.34879822
25	0x3fb2595c	1.393352
26	0x3c884562	0.016634647
27	0x3f28648f	0.6577844
28	0x3dbb4620	0.09144235
29	0x3d969822	0.07353236
30	0x3d8541b4	0.065066725
31	0x3d93a006	0.072082564
32	0x3ef4ada1	0.47788718
33	0x3d1c8f77	0.038222756
34	0x3f7d9b51	0.9906512
35	0x3d9f7454	0.0778586
36	0x3dea3727	0.11436301
37	0x3da8fd22	0.08251406
38	0x3d69f9da	0.057123043
39	0x3d8c823d	0.068607785
40	0x3dc49670	0.09599006
41	0x3d6bc284	0.05755855
42	0x3d5f2845	0.054481763
43	0x3e91e8a3	0.284978
44	0x3d2b9738	0.04189226
45	0x3e69bb87	0.22825442
46	0x3d6148e0	0.05500114
47	0x3d5b995d	0.053613055
48	0x3cfe9cea	0.031080682
49	0x3ebeb610	0.37248278
50	0x3df5d686	0.12003808
51	0x3db580cb	0.08862456
52	0x3d2536a5	0.040335316
53	0x3cca3fe9	0.024688678
54	0x3cc624aa	0.024187405
55	0x3dc10bf8	0.09426111
56	0x3dc58cd6	0.09646003
57	0x3cccf278	0.025017962
58	0x3d343b4b	0.04400186
59	0x3de01c02	0.10942842
60	0x3da84917	0.08217066
61	0x3d863a83	0.06554129
62	0x3e86ab31	0.26302484
63	0x3df9088a	0.12159832

bn4.running_var f4 [64]
0	0x3e564134	0.2092331
1	0x3e38ee38	0.18059623
2	0x3df4c2d0	0.1195122
3	0x3e1b62e8	0.15174448
4	0x3d6fd39c	0.058551416
5	0x3e117e3d	0.14208312
6	0x3ddcfcff	0.10790443
7	0x3db569fa	0.08858104
8	0x3e074897	0.13211285
9	0x3e7f8b59	0.249555
10	0x3e0066d4	0.12539226
11	0x3e9e1ae4	0.3087989
12	0x3e9ac354	0.3022715
13	0x3d99323e	0.07480286
14	0x3dc02449	0.09381921
15	0x3e566798	0.20937955
16	0x3dc2c4b2	0.09510173
17	0x3d9baeba	0.07601686
18	0x3e28f6c4	0.16500384
19	0x3e003281	0.12519266
20	0x3e64793c	0.22311872
21	0x3e8c2d33	0.27378234
22	0x3ec6a84b	0.38800272
23	0x3ecc85ff	0.3994598
24	0x3f0b012c	0.54298663
25	0x3fdfd298	1.7486143
26	0x3ce63431	0.028101059
27	0x3f4cdfef	0.80029196
28	0x3e28aea4	0.1647287
29	0x3e03f2be	0.12885568
30	0x3e30809f	0.17236565
31	0x3e157ffd	0.14599605
32	0x3f12218c	0.5708244
33	0x3da3216b	0.07965358
34	0x3faecf63	1.3657039
35	0x3e3faa9b	0.18717425
36	0x3e8f17b7	0.2794778
37	0x3e53f5cb	0.20699231
38	0x3df87580	0.12131786
39	0x3e42d74a	0.19027439
40	0x3e24b44e	0.16084406
41	0x3e17ca9a	0.1482338
42	0x3d9e5866	0.077317044
43	0x3f47dd75	0.7807229
44	0x3d98d757	0.07462948
45	0x3f274107	0.653336
46	0x3dfc98ad	0.12333808
47	0x3e171f85	0.14758117
48	0x3d827f6c	0.0637196
49	0x3f7ff8bd	0.9998892
50	0x3e814375	0.25246778
51	0x3e1084d8	0.14113176
52	0x3dd7b498	0.105324924
53	0x3d24201a	0.040069677
54	0x3d23caaf	0.039988216
55	0x3e6f9b55	0.23399098
56	0x3e33c55b	0.17555754
57	0x3d5ea959	0.05436072
58	0x3d8ff4e0	0.07029128
59	0x3e8b1102	0.27161413
60	0x3e25ca54	0.16190463
61	0x3e41b898	0.18918073
62	0x3ed95a86	0.42451876
63	0x3e69ba60	0.22825003

lin.weight f4 [10, 64]
0	0xbf092a18	-0.53579855
1	0xbe80b7e4	-0.25140297
2	0xbf47fb7d	-0.78118116
3	0xbe9fcaef	-0.31209514
4	0xbf02d5c1	-0.5110741
5	0xbe9d172d	-0.30681744
6	0xbf5a250c	-0.8521278
7	0x3f16074e	0.58604896
8	0x3f540d4f	0.8283281
9	0xbf0c926e	-0.54910934
10	0x3f59b873	0.8504707
11	0x3dacd36d	0.08438764
12	0x3de58502	0.1120701
13	0x3fc70c4e	1.555063
14	0xbf748d5e	-0.9552821
15	0xbf8bb20a	-1.0913708
16	0x3f0ef531	0.5584288
17	0x3f791f1a	0.9731308
18	0x3f436714	0.7632916
19	0xbe332da1	-0.17497875
20	0xbea47210	-0.32118273
21	0xbed03c51	-0.40671018
22	0x3d8e0229	0.06934006
23	0xbebee373	-0.37282905
24	0x3e65f06a	0.22454992
25	0xbeace695	-0.3376967
26	0xbe923f0d	-0.2856373
27	0xbe4e3997	-0.20139156
28	0xbf377d36	-0.7167543
29	0xbdb2466e	-0.0870484
30	0xbf5d37c2	-0.86413205
31	0x3f825bcf	1.0184268
32	0xbee2d074	-0.44299662
33	0xbf2ac1f7	-0.66702217
34	0x3ea9b9bd	0.3314952
35	0xbf176844	-0.5914347
36	0x3f90058c	1.1251693
37	0x3f91a8d7	1.1379651
38	0xbf030338	-0.51176786
39	0x3f802474	1.0011125
40	0xbefac115	-0.48975435
41	0xbf768129	-0.9629083
42	0xbf0f915e	-0.5608119
43	0x3f0ad1dc	0.5422647
44	0x3f661b9a	0.89885867
45	0x3d383042	0.044967897
46	0x3f4aaea3	0.79172724
47	0xbf41f608	-0.7576604
48	0xbe980dbb	-0.29697976
49	0x3f487987	0.78310436
50	0xbf43df2f	-0.76512426
51	0xbe9aa747	-0.30205747
52	0xbee06bf4	-0.43832362
53	0xbe562eec	-0.20916337
54	0xbf3f179a	-0.7464539
55	0x3f96bd21	1.1776468
56	0x3d32b48a	0.043629207
57	0xbf08a8dc	-0.5338266
58	0x3e8e5609	0.27800015
59	0x3e8ffd46	0.2812292
60	0x3e2e5eba	0.17028323
61	0x3e710711	0.23537852
62	0x3e60e5bb	0.21962635
63	0x3dc1e30b	0.09467133
64	0xbe037f0f	-0.12841438
65	0xbf65b651	-0.8973132
66	0x3f2685ce	0.6504792
67	0x3f91ad1e	1.1380956
68	0x3f9e1d30	1.2352657
69	0xbf4ed2f9	-0.8079067
70	0x3efc5b42	0.49288374
71	0xbf1c18e0	-0.60975456
72	0xbedfd172	-0.43714482
73	0x3f7b88a4	0.9825537
74	0xbf3389bb	-0.70132035
75	0x3f096e3e	0.5368384
76	0xbf76d69f	-0.96421236
77	0xbeccc471	-0.39993623
78	0x3f353570	0.70784664
79	0x3e1ed34d	0.15510292
80	0x3db4ee78	0.08834547
81	0xbec22d7d	-0.3792533
82	0xbf85d160	-1.0454521
83	0xbe9ac0c9	-0.30225208
84	0xbdbbec03	-0.09175875
85	0xbeb94b5e	-0.36190313
86	0x3f11e5d0	0.5699129
87	0x3f08f796	0.53502786
88	0xbe9a4766	-0.30132598
89	0xbeacd00a	-0.3375247
90	0x3f8ed333	1.1158203
91	0x3f088a23	0.5333578
92	0x3f2d5b57	0.677175
93	0x3f76db8d	0.9642876
94	0x3f708202	0.93948376
95	0xbe0e2cf9	-0.13884343
96	0xbe204b4f	-0.15653728
97	0xbef19a50	-0.47188044
98	0x3e60ee32	0.21965864
99	0x3f523742	0.82115567
100	0x3ead3095	0.33826128
101	0xbe56d192	-0.20978382
102	0x3f0db5f1	0.55355746
103	0xbf58174e	-0.8441056
104	0xbe6cf00b	-0.23138444
105	0x3edb6c84	0.42856228
106	0xbea3c649	-0.31987217
107	0x3f395229	0.7239099
108	0x3ecc2292	0.39870125
109	0xbf361f09	-0.71141106
110	0xbf39a13b	-0.72511643
111	0x3f917177	1.1362752
112	0xbe9cdde5	-0.30638042
113	0x3d90d7a6	0.07072382
114	0xbe1c180c	-0.15243548
115	0xbedad4dc	-0.42740524
116	0xbe905bed	-0.28195134
117	0xbf1f37fa	-0.6219479
118	0x3fa41134	1.281775
119	0xbfb1153c	-1.3834605
120	0x3d4e1fe0	0.050323367
121	0x3f62a0fe	0.88526905
122	0xbe721ef1	-0.23644616
123	0x3f4a4c44	0.7902262
124	0xbeda66f0	-0.4265666
125	0xbfd6cf16	-1.6781948
126	0xbebca4d7	-0.36844513
127	0x3eae38f6	0.34027833
128	0x3f3fcfaa	0.74926245
129	0xbf14366e	-0.57895553
130	0xbe308f7c	-0.17242235
131	0xbca99f80	-0.020705938
132	0xbe6bff0d	-0.23046513
133	0x3f6f0eed	0.9338215
134	0x3fc5c8fb	1.5451959
135	0x3f87f6f8	1.0622244
136	0xbed2517d	-0.41077796
137	0xbe5accdb	-0.21367209
138	0x3e56f766	0.20992813
139	0xbfca7eda	-1.5819962
140	0x3ee8a15c	0.45435607
141	0xbf931411	-1.1490499
142	0xbeccfeca	-0.4003814
143	0xbec848fc	-0.39118183
144	0x3ef210bf	0.472784
145	0x3f0918ca	0.5355345
146	0x3f63971b	0.88902444
147	0x3ed75817	0.42059395
148	0x3fa0336f	1.2515696
149	0xbe920f42	-0.28527266
150	0xbeea05bf	-0.4570751
151	0x3db9ec60	0.09078288
152	0x3eab2ccd	0.33432618
153	0x3f2e0547	0.679768
154	0xbd2f317d	-0.042771805
155	0x3e385df7	0.18004595
156	0x3f7e0e2e	0.99240386
157	0xbe1ae820	-0.15127611
158	0xbce816b6	-0.028331142
159	0xbf855971	-1.041792
160	0x3f94f45f	1.1637076
161	0xbee8c331	-0.4546142
162	0x3e823eb6	0.2543847
163	0xbeffefc7	-0.49987623
164	0xbf2ba344	-0.67046
165	0x3f70b03a	0.940189
166	0x3ed10d14	0.4083029
167	0x3edb9e2a	0.42894107
168	0x3ec87430	0.39151144
169	0x3f70b27f	0.94022363
170	0xbdcbdf5a	-0.0995471
171	0xbf12d4b1	-0.5735579
172	0xbd6667e1	-0.05625141
173	0x3ee26ddf	0.4422445
174	0xbf16d8bc	-0.5892446
175	0xbeb3da1b	-0.3512734
176	0x3fdd0a06	1.7268684
177	0xbf4474a5	-0.76740485
178	0x3e49fc64	0.19725186
179	0x3f327ca0	0.6972141
180	0xbf1e5f5d	-0.6186426
181	0x3fef015f	1.8672293
182	0xbe31d434	-0.17366105
183	0x3db75875	0.08952419
184	0xc012f605	-2.2962658
185	0x3e60bc94	0.21946937
186	0xbf712e05	-0.94210845
187	0xbf9266a2	-1.1437571
188	0xbf1c36fa	-0.6102139
189	0xbfab8c93	-1.3402275
190	0x3f37ec23	0.7184469
191	0xbf97492e	-1.1819208
192	0xbeca5340	-0.3951664
193	0x3fa1894d	1.2620026
194	0x3f945462	1.1588252
195	0xbf3555de	-0.7083415
196	0xbea68c97	-0.32529137
197	0x3f549cc5	0.8305171
198	0x3e3c30bf	0.1837797
199	0xbe9504f5	-0.29105344
200	0xbf094431	-0.53619677
201	0x3eb62740	0.3557682
202	0xbf83794a	-1.027139
203	0x3eb03c52	0.3442102
204	0x3eb6e409	0.35720852
205	0xbf529897	-0.82264084
206	0x3f46ac65	0.77606803
207	0x3f1f9fda	0.6235329
208	0xbf51f61c	-0.8201616
209	0xbf2e36c4	-0.68052316
210	0x3ef31f4c	0.47484815
211	0xbf225f7d	-0.63426954
212	0x3db37555	0.08762614
213	0xbdc680f4	-0.096925646
214	0xbf7404c3	-0.95319766
215	0x3f334a18	0.70034933
216	0xbec3b881	-0.38226703
217	0xbe52c934	-0.20584565
218	0xbf9256e6	-1.1432769
219	0xbf394000	-0.7236328
220	0xbec91078	-0.39270377
221	0xbf56193a	-0.8363224
222	0xbd7ed5e3	-0.062215697
223	0xbd7eedb5	-0.062238414
224	0xbea09840	-0.31366158
225	0x3f681151	0.9065142
226	0xbf3850cc	-0.71998286
227	0xbef907ff	-0.48638913
228	0xbfafade3	-1.3724941
229	0xbfa91204	-1.3208623
230	0xbf300352	-0.68755066
231	0xbeebc4f3	-0.46048698
232	0xbed7755a	-0.4208172
233	0x3f51b0f6	0.81910646
234	0x3fb899aa	1.4421895
235	0xbf08758b	-0.53304356
236	0xbfccd96d	-1.6003853
237	0x3c4cb652	0.01249464
238	0xbe792602	-0.24330905
239	0xbefe6e6b	-0.49693617
240	0xbe8b225d	-0.27174655
241	0x3dd0aa87	0.101887755
242	0x3f1ceacf	0.6129579
243	0xbf059731	-0.52183825
244	0xbf03f851	-0.51550776
245	0x3eb2cb31	0.34920648
246	0xbf31466f	-0.692481
247	0xbed1b8d7	-0.40961334
248	0x3f732e3c	0.94992423
249	0xbed725df	-0.4202108
250	0x3f750277	0.95706886
251	0xbfb42a4c	-1.4075408
252	0x3f9dc3e3	1.2325405
253	0x3fbd748d	1.4801193
254	0xbf1bc99a	-0.60854495
255	0x3f3c89cf	0.7364778

lin.bias f4 [10]
0	0x3d566553	0.052342724
1	0x3da76a9f	0.08174633
2	0x3c719a83	0.014746311
3	0x3d821600	0.063518524
4	0x3d51710f	0.05113321
5	0xbe79d056	-0.2439588
6	0xbea5947f	-0.32339856
7	0xbecb9048	-0.39758515
8	0xbe96108a	-0.29309493
9	0xbeacf7ba	-0.3378275
