NCC_Code/Models/2022-07-13_22-38-23_model.pt (torch, 115275 bytes, 50 tensors)

conv1.weight f4 [8, 2, 5, 5]
0.25085852 0.07107272 -0.024608355 0.024952939 0.11697272 -0.17040591 -0.22584002 -0.11626606
-0.2514465 -0.19456379 0.0916985 0.24602497 0.18669479 -0.17056425 -0.20514908 0.39597479
0.36466476 0.048589703 0.08084349 -0.10170918 0.08940317 0.101069726 0.099153265 -0.25750682
-0.16471326 0.003907728 0.07942941 0.089755416 -0.048874293 0.0011908683 -0.11651781 -0.18398608
-0.2781566 -0.20315132 -0.12044483 0.20877294 0.03333765 0.09570004 -0.07764016 -0.07273128
0.2755416 0.5930702 0.35367826 -0.14114378 -0.24478169 0.06481342 0.11906412 0.27427515
-0.00092326786 -0.26297215 -0.18421887 -0.13190517 -0.15854342 -0.21983556 -0.07428008 -0.00081105204
-0.11309208 -0.19293492 -0.1457493 -0.15564674 0.17842954 0.40219086 0.15060157 0.024288509
0.16382475 0.05759087 0.24933328 0.2893327 0.3022126 0.1761257 -0.122133575 0.016379703
-0.23539263 -0.18492955 -0.06346886 -0.014898738 -0.14564165 -0.15184148 -0.0119166225 -0.23426361
-0.10035618 -0.15518044 -0.016304879 -0.045737173 0.0026475538 -0.0033406953 0.46171534 0.25020128
0.7077919 0.059497822 0.33595365 0.10727717 0.18822311 0.12383229 -0.011095214 -0.15963449
-0.14564249 -0.16893332 -0.06301187 -0.26408386 -0.036670066 -0.20103997 -0.10924399 -0.085304186
-0.19384316 -0.081421554 0.1550377 0.29138094 0.3124695 0.36969087 -0.07632443 0.07474006
0.23635677 0.661019 0.46080104 -0.16518934 -0.120417535 -0.019319212 -0.13660789 -0.07585496
0.024519842 -0.34512466 -0.17708245 -0.03498633 -0.1159733 -0.07768931 -0.07184348 -0.1652125
-0.1704797 -0.011681193 -0.04725843 -0.003765291 0.08260571 0.38261214 0.27302998 0.2974165
0.19538787 0.022621138 0.2220617 0.3696898 -0.10328586 -0.13238776 -0.099526584 -0.092894375
-0.021062024 0.010616509 -0.038255177 -0.17858139 -0.19636236 0.057575434 0.49663198 0.28374436
0.28879595 0.20707095 -0.020480532 0.21101801 0.028112866 -0.0038183923 0.066408604 -0.40820026
0.17883866 0.12983187 0.181574 0.057829432 -0.0042651454 -0.05844424 -0.1476776 -0.07982208
0.033653706 -0.022697054 -0.06294269 -0.1338721 -0.04915717 -0.2665382 -0.3148475 0.16963027
0.7341788 0.4689173 0.17712629 0.14235365 -0.016424067 -0.15907806 -0.092442304 -0.21149118
-0.2157395 0.16213408 0.10181575 0.13470398 0.13599922 -0.04493737 0.10085117 0.029974347
-0.008951812 -0.30123648 -0.35300905 0.06107967 -0.009593031 -0.049027745 -0.34431878 -0.35341126
-0.16078484 -0.2372622 -0.12329364 -0.12536798 -0.052727204 -0.24702065 0.08074937 -0.38063723
-0.42603257 -0.23278774 -0.08354947 0.2636429 -0.11842234 -0.04003064 0.019652663 -0.06509608
0.1528993 0.17385028 -0.16910219 -0.1443523 -0.22923258 -0.117512316 -0.5770387 -0.5925813
-0.08727839 -0.30387518 -0.15314007 -0.42179585 -0.16879596 -0.33853617 0.21152833 0.025961518
-0.06065791 0.29361957 0.40884995 0.119926624 0.013039567 0.23475969 0.023266781 0.37101072
-0.0115114795 -0.025518013 0.10449607 0.14478114 0.3240128 -0.093378074 -0.08387352 -0.019632813
-0.10453302 0.010185892 -0.024024244 -0.126727 -0.23120606 -0.16283605 -0.09811512 -0.027423447
00000000: 8770 803e 938e 913d 7697 c9bc 1b6a cc3c
00000010: 658f ef3d e37e 2ebe 9b42 67be e61c eebd
00000020: 98bd 80be bb3b 47be 6ccc bb3d f8ed 7b3e
00000030: eb2c 3f3e 65a8 2ebe 9a12 52be 35bd ca3e
00000040: 57b5 ba3e ff05 473d 4691 a53d e74c d0bd
00000050: 0219 b73d a5fd ce3d de10 cb3d efd7 83be
00000060: 98aa 28be 660c 803b e3ab a23d b0d1 b73d
00000070: 6930 48bd e916 9c3a e4a0 eebd d966 3cbe
00000080: 8b6a 8ebe e606 50be c7ab f6bd 93c8 553e
00000090: 0f8d 083d 62fe c33d ce01 9fbd 23f4 94bd
000000a0: ca13 8d3e 73d3 173f 5115 b53e ff87 10be
000000b0: 0da8 7abe e6bc 843d e4d7 f33d cb6d 8c3e
000000c0: 7507 72ba 49a4 86be dfa3 3cbe 2612 07be
000000d0: 3559 22be 931c 61be 2820 98bd c89c 54ba
000000e0: d29c e7bd bb90 45be 4e3f 15be dc61 1fbe
000000f0: 3cb6 363e f6eb cd3e 4c37 1a3e b2f8 c63c
00000100: adc1 273e 67e4 6b3d 3951 7f3e 6a23 943e
00000110: 9cbb 9a3e 4c5a 343e 2b21 fabd ba2e 863c
00000120: c40a 71be 2c5e 3dbe f6fb 81bd d619 74bc
00000130: 1623 15be 557c 1bbe f03d 43bc cde2 6fbe
00000140: 8a87 cdbd 9fe7 1ebe cf91 85bc e756 3bbd
00000150: 9582 2d3b 91ef 5abb f465 ec3e 621a 803e
00000160: da31 353f fdb3 733d 1e02 ac3e 22b4 db3d
00000170: 8fbd 403e c99b fd3d b3c8 35bc 3977 23be
00000180: 4e23 15be dbfc 2cbe 5e0c 81bd 0036 87be
00000190: 5a33 16bd 6cdd 4dbe 50bb dfbd f6b3 aebd
000001a0: d27e 46be 58c0 a6bd 34c2 1e3e e22f 953e
000001b0: 01fc 9f3e 1f48 bd3e fc4f 9cbd 5111 993d
000001c0: 8207 723e 8b38 293f 1dee eb3e 6527 29be
000001d0: 789d f6bd 5343 9ebc f0e2 0bbe d859 9bbd
000001e0: d6dd c83c 2eb4 b0be 1a55 35be d34d 0fbd
000001f0: 6983 edbd 931b 9fbd ad22 93bd 772d 29be
00000200: 3b92 2ebe 7962 3fbc 0e92 41bd 1ac3 76bb
00000210: 2f2d a93d bde5 c33e 96ca 8b3e fa46 983e
00000220: c213 483e f74f b93c 2464 633e fb47 bd3e
00000230: 8987 d3bd a890 07be 98d4 cbbd 683f bebd
00000240: 448a acbc def0 2d3c 76b1 1cbd 0ade 36be
00000250: 3713 49be 38d4 6b3d 8c46 fe3e f146 913e
00000260: 10dd 933e 680a 543e cac6 a7bc 1b15 583e
00000270: f44c e63c fe3d 7abb 3c01 883d a0ff d0be
00000280: 7b21 373e a5f2 043e 89ee 393e 8ede 6c3d
00000290: a2c2 8bbb 3a63 6fbd cc38 17be c279 a3bd
000002a0: 78d8 093d 2cef b9bc 19e8 80bd c515 09be
000002b0: 0759 49bd b277 88be b133 a1be 8fb3 2d3e
000002c0: 24f3 3b3f ee15 f03e 9860 353e 28c5 113e
000002d0: c48b 86bc 5ce5 22be 6452 bdbd 2591 58be
000002e0: d1ea 5cbe 7a06 263e c784 d03d d7ef 093e
000002f0: 6143 0b3e 3f10 38bd 0f8b ce3d c38c f53c
00000300: 9faa 12bc ab3b 9abe 9abd b4be ad2e 7a3d
00000310: 172c 1dbc 51d1 48bd 8d4a b0be 52f2 b4be
00000320: c8a4 24be ddf4 72be 6081 fcbd 7760 00be
00000330: 7bf8 57bd fbf2 7cbe ed5f a53d e2e2 c2be
00000340: f120 dabe e95f 6ebe fc1b abbd 34fc 863e
00000350: 6987 f2bd 2bf7 23bd 9ffe a03c 1851 85bd
00000360: a291 1c3e cf05 323e 2029 2dbe 17d1 13be
00000370: f2bb 6abe 4caa f0bd cfb8 13bf 68b3 17bf
00000380: 03bf b2bd 8795 9bbe c0d0 1cbe a0f5 d7be
00000390: d9d8 2cbe 9d54 adbe e29a 583e 40ad d43c
000003a0: 6e74 78bd 4e55 963e c854 d13e 179c f53d
000003b0: e8a3 553c d864 703e fa99 be3c 1ef5 bd3e
000003c0: a59a 3cbc 270b d1bc 0902 d63d 8241 143e
000003d0: 01e5 a53e 013d bfbd e1c5 abbd fed4 a0bc
000003e0: 6815 d6bd bae2 263c 7ece c4bc b9c4 01be
000003f0: 48c1 6cbe 7ebe 26be 94f0 c8bd 23a7 e0bc

conv1.bias f4 [8]
-0.6162573 -0.42530328 -0.45358238 -0.39362407 0.13049677 -0.365788 -0.35909218 -0.00250411
00000000: 0ac3 1dbf 5ac1 d9be f33b e8be 1889 c9be
00000010: f2a0 053e 9148 bbbe eeda b7be ff1b 24bb

bn1.weight f4 [8]
1.0352434 0.8814255 1.0736853 0.9245531 0.68138963 1.1088759 1.097585 0.7751042
00000000: db82 843f 1aa5 613f 856e 893f 83af 6c3f
00000010: 8d6f 2e3f a5ef 8d3f aa7d 8c3f 3b6d 463f

bn1.bias f4 [8]
-0.14930001 -0.15887727 -0.27867433 -0.5766667 -0.22038673 0.3362935 0.1385957 -0.12357727
00000000: 1ae2 18be b9b0 22be 67ae 8ebe 6ea0 13bf
00000010: 0fad 61be a92e ac3e 08ec 0d3e 1416 fdbd

bn1.running_mean f4 [8]
0.28090465 0.24822903 0.35405704 0.41541833 1.0820174 0.3017235 0.4549688 1.6100216
00000000: bcd2 8f3e c02f 7e3e f746 b53e b6b1 d43e
00000010: 8c7f 8a3f 817b 9a3e acf1 e83e 3015 ce3f

bn1.running_var f4 [8]
0.59367156 0.49076557 0.61738163 0.80720276 2.1272812 0.44506055 0.8525067 6.01557
00000000: dcfa 173f a045 fb3e b90c 1e3f d7a4 4e3f
00000010: 6025 0840 fade e33e e13d 5a3f 8d7f c040

conv2.weight f4 [16, 8, 3, 3]
0.03662827 -0.0356472 -0.04667918 0.07774324 0.085468344 0.16157776 0.13634346 0.14373088
0.10477284 -0.016731784 0.052347403 -0.020155823 -0.0438168 -0.098178245 0.022115381 0.20123444
0.15765704 0.3953003 -0.17422666 -0.23252375 -0.14995421 0.0036885375 -0.116087906 -0.1349194
0.12183405 0.104359165 0.036783047 -0.23101369 -0.22608994 -0.2750384 -0.19310713 -0.04377248
0.01532895 0.017671676 -0.08686651 -0.27339116 -0.02284862 0.038292184 -0.18986261 0.12253703
-0.0086514875 0.066132255 0.037001476 -0.09936763 -0.063333675 0.19163065 0.1395487 0.08256879
0.20882422 0.11874204 0.0942949 0.3782689 0.24478377 0.116088025 -0.20585002 -0.23607197
-0.10928044 -0.18217109 -0.113578945 0.060417145 -0.11529564 -0.27000007 -0.114738464 -0.29274687
-0.1708787 -0.11495626 0.06568332 -0.08686617 0.0676993 0.25929964 0.11779304 0.2107701
0.37451488 0.22350553 0.2658065 -0.060909793 0.027620526 -0.04885695 -0.23806454 0.036774006
-0.08024461 0.30356997 0.17156595 0.33426523 -0.004219581 -0.20569772 -0.13336284 -0.36483765
-0.08491291 -0.30656603 0.14962119 -0.14565402 0.032573752 0.06958225 -0.028133018 0.025582816
-0.21054864 0.009172498 -0.21408531 0.065314844 0.1319048 0.052642565 -0.045816816 -0.11571823
0.077068835 0.2786721 0.21311966 0.3163538 0.15797208 -0.05201072 -0.17772523 -0.0142861465
0.03288542 0.07507266 -0.071364224 -0.010683945 0.1921235 -0.027977278 -0.15028112 -0.08375199
-0.0114436075 -0.54279095 -0.5843208 0.13507369 -0.08383877 -0.31406876 -0.16999921 -0.0007076505
-0.17569731 0.2510086 0.11091271 0.2041906 0.007595858 0.31156588 0.109647416 0.20631422
0.23572555 0.014173148 0.39594582 0.12369043 0.22680622 0.1685347 -0.1402255 -0.059471585
0.07639017 0.26579443 0.09081995 0.17807941 0.04237922 0.37956616 0.2582077 0.35253736
-0.08308664 0.14942658 0.23247825 0.14411211 0.08560096 0.05265798 -0.10412971 0.24760453
-0.042410966 0.4721955 0.315955 0.42677593 -0.07795331 0.035455145 -0.25534996 -0.2582805
-0.027454719 -0.17283916 -0.08411934 0.4182129 0.3105958 0.15186143 0.16275606 0.17002016
0.14487658 0.040493593 0.19514374 0.021855248 0.11077578 -0.119366065 -0.053217195 -0.15932845
0.2115693 0.12293606 0.13539721 -0.004076551 0.0105027165 -0.23586765 -0.4248191 -0.1031828
0.41220063 0.21274944 0.11131692 -0.07915062 0.015594361 -0.22518001 0.15165363 0.23608662
-0.1401973 -0.18326049 0.002864768 0.20192596 -0.28912044 -0.32810012 0.0072145085 -0.22257599
0.16283861 -0.0641096 0.22016121 -0.011481126 -0.066890806 0.038465355 -0.26593983 0.2055599
0.1300233 0.23754756 0.05841742 -0.09717489 -0.19809832 -0.046207983 0.03843801 0.0011693531
0.20137003 0.016287735 -0.15790032 0.06383815 0.41194642 0.21161596 0.35099843 0.024053788
0.2150725 -0.13866556 -0.29410654 -0.20167707 -0.38560864 0.39561558 0.34999254 0.4230802
-0.15551221 -0.21721666 -0.1527435 0.16992855 0.16131842 0.10609297 0.0030545082 0.19193506
0.14720143 0.22794493 0.15691535 0.12738511 0.06851266 0.23801062 0.13558707 -0.17370747
00000000: 8607 163d cc02 12bd ab32 3fbd d937 9f3d
00000010: 070a af3d a474 253e 9f9d 0b3e 302e 133e
00000020: 2593 d63d 1811 89bc 3b6a 563d d31d a5bc
00000030: 3f79 33bd ad11 c9bd 512b b53c 6710 4e3e
00000040: d970 213e cd64 ca3e 7968 32be b51a 6ebe
00000050: 998d 19be 64bb 713b 7fbf edbd 5028 0abe
00000060: 2184 f93d 42ba d53d d2a9 163d da8e 6cbe
00000070: 1f84 67be d5d1 8cbe e0bd 45be c64a 33bd
00000080: 4726 7b3c 31c4 903c 12e7 b1bd edf9 8bbe
00000090: 072d bbbc 44d8 1c3d 586b 42be b2f4 fa3d
000000a0: f8be 0dbc 5970 873d dc8e 173d 4281 cbbd
000000b0: 16b5 81bd d33a 443e dbe5 0e3e d319 a93d
000000c0: 04d6 553e 072f f33d af1d c13d 76ac c13e
000000d0: 99a8 7a3e 8fbf ed3d 59ca 52be dabc 71be
000000e0: 6cce dfbd 0f8b 3abe 149c e8bd f877 773d
000000f0: 1f20 ecbd 733d 8abe 00fc eabd ebe2 95be
00000100: d3fa 2ebe 306e ebbd fa84 863d e4e6 b1bd
00000110: eea5 8a3d ecc2 843e 7a3d f13d 1ed4 573e
00000120: 6ac0 bf3e a2de 643e ca17 883e 8c7c 79bd
00000130: 7144 e23c 3a1e 48bd 31c7 73be 57a0 163d
00000140: 4957 a4bd 866d 9b3e fcae 2f3e d024 ab3e
00000150: 6944 8abb 6ca2 52be 4590 08be 00cc babe
00000160: d2e6 adbd 39f6 9cbe 4c36 193e 5426 15be
00000170: 0e6c 053d 2481 8e3d 3777 e6bc 0e93 d13c
00000180: 109a 57be 3f48 163c 2e39 5bbe cac3 853d
00000190: 0d12 073e bb9f 573d 6aaa 3bbd aefd ecbd
000001a0: 44d6 9d3d 1cae 8e3e 0a3c 5a3e 20f9 a13e
000001b0: 6fc3 213e 3109 55bd 9afd 35be 7110 6abc
000001c0: ddb2 063d b2bf 993d 6827 92bd b70b 2fbc
000001d0: 06bc 443e 9b30 e5bc 4be3 19be 2a86 abbd
000001e0: f87d 3bbc 59f4 0abf 0c96 15bf c250 0a3e
000001f0: a9b3 abbd 9fcd a0be 4614 2ebe 9f81 39ba
00000200: ffe9 33be 3384 803e 3426 e33d 5717 513e
00000210: ade6 f83b 9085 9f3e d38e e03d 0944 533e
00000220: 0a62 713e 7e36 683c 69b9 ca3e 6851 fd3d
00000230: e43f 683e 5c94 2c3e 4697 0fbe 7a98 73bd
00000240: 7372 9c3d 3516 883e cfff b93d 735a 363e
00000250: d595 2d3d 7f56 c23e cd33 843e c77f b43e
00000260: 5429 aabd 4803 193e c70e 6e3e 2092 133e
00000270: 8e4f af3d e5af 573d f541 d5bd 0b8c 7d3e
00000280: 1fb7 2dbd 9cc3 f13e dbc4 a13e 6082 da3e
00000290: fca5 9fbd 6a39 113d 3bbd 82be 573d 84be
000002a0: b8e8 e0bc c0fc 30be c346 acbd 0020 d63e
000002b0: 6a06 9f3e 9081 1b3e 86a9 263e c419 2e3e
000002c0: 875a 143e 9cdc 253d c3d3 473e c709 b33c
000002d0: 6ade e23d 3276 f4bd 46fa 59bd ff26 23be
000002e0: 9fa5 583e e7c5 fb3d 91a5 0a3e 9794 85bb
000002f0: 9613 2c3c 4a87 71be e481 d9be 8151 d3bd
00000300: f60b d33e fdda 593e 20fa e33d b819 a2bd
00000310: 7e7f 7f3c 9795 66be 174b 1b3e b1c0 713e
00000320: e28f 0fbe a3a8 3bbe d5be 3b3b aec5 4e3e
00000330: 9807 94be bdfc a7be af67 ec3b f6ea 63be
00000340: 2abf 263e e54b 83bd f171 613e 551b 3cbc
00000350: 0cfe 88bd d98d 1d3d 4429 88be 4b7e 523e
00000360: d424 053e ab3f 733e 1b47 6f3d a103 c7bd
00000370: 49da 4abe 9544 3dbd 2d71 1d3d fb44 993a
00000380: f233 4e3e db6d 853c 9fb0 21be 93bd 823d
00000390: a4ea d23e dbb1 583e 11b6 b33e 730c c53c
000003a0: f73b 5c3e 58fe 0dbe 2295 96be 6f84 4ebe
000003b0: 7f6e c5be 208e ca3e 3932 b33e f89d d83e
000003c0: 983e 1fbe 0b6e 5ebe cb68 1cbe c001 2e3e
000003d0: a830 253e 4547 d93d 252e 483b a08a 443e
000003e0: f9bb 163e 656a 693e 6bae 203e 3e71 023e
000003f0: 5e50 8c3d 0eb9 733e 56d7 0a3e 5fe0 31be

conv2.bias f4 [16]
-0.07477349 -0.15648477 -0.1832248 -0.24301672 -0.5318657 -0.5606884 -0.2638938 -0.31222433
-0.20831648 0.061244078 -0.32845342 -0.355207 -0.09425124 -0.32707226 -0.19872296 -0.06771054
00000000: d822 99bd 8b3d 20be 489f 3bbe 60d9 78be
00000010: 5a28 08bf 4689 0fbf 171d 87be dedb 9fbe
00000020: ea50 55be 12db 7a3d 0c2b a8be b1dd b5be
00000030: cb06 c1bd 0476 a7be 087e 4bbe d3ab 8abd

bn2.weight f4 [16]
1.02784 0.94906336 0.87771875 0.94012165 0.87972164 1.140028 0.85416514 1.0446998
0.9995913 1.0408936 0.9480107 0.9985088 0.90677935 1.0267136 0.86436397 1.0011154
00000000: 4390 833f d1f5 723f 2db2 603f d0ab 703f
00000010: 7035 613f 70ec 913f 91aa 5a3f b9b8 853f
00000020: 37e5 7f3f 003c 853f d4b0 723f 469e 7f3f
00000030: b122 683f 5a6b 833f f546 5d3f 8d24 803f

bn2.bias f4 [16]
-0.029834768 -0.4556208 0.18521084 0.09357744 0.11338652 -0.47061586 -0.5809103 0.15476175
0.5988296 0.0022837764 -0.71722513 -0.29353213 -0.0071662986 -0.27587906 -0.3171499 0.28209102
00000000: 0b68 f4bc 2147 e9be e9a7 3d3e 87a5 bf3d
00000010: 3137 e83d 90f4 f0be 8ab6 14bf dd79 1e3e
00000020: e64c 193f 69ab 153b 119c 37bf d849 96be
00000030: 45d3 eabb 0540 8dbe 7961 a2be 3c6e 903e

bn2.running_mean f4 [16]
1.1790456 0.30423912 0.40787262 0.20487681 0.19791882 0.26375493 0.49202567 0.35600987
0.19753867 0.4078728 0.48749876 0.33427587 0.7609399 0.21472977 0.31698897 0.34403133
00000000: f7ea 963f 3bc5 9b3e aed4 d03e 3acb 513e
00000010: 3bab 4a3e e30a 873e caea fb3e ed46 b63e
00000020: 9447 4a3e b4d4 d03e 7099 f93e 3526 ab3e
00000030: f5cc 423f 1fe2 5b3e 614c a23e e024 b03e

bn2.running_var f4 [16]
1.0165224 1.4938811 2.3965797 0.8750464 0.9470808 1.5902185 1.0224742 0.87268573
0.91105074 2.7380395 5.60994 0.92314935 0.73869234 0.8378006 0.54859877 2.4509945
00000000: 681d 823f 7f37 bf3f 9061 1940 0a03 603f
00000010: e373 723f 488c cb3f 6fe0 823f 5568 5f3f
00000020: 9f3a 693f 0a3c 2f40 a184 b340 8453 6c3f
00000030: f11a 3d3f 1a7a 563f f870 0c3f 18dd 1c40

conv3.weight f4 [32, 16, 3, 3]
-0.07991573 -0.1372536 0.17698075 -0.18890637 0.14787638 0.13615958 -0.015909927 0.037158348
0.16453953 -0.2676171 0.06100999 0.07139177 0.26580092 0.07221118 -0.027975228 0.16730657
0.20311977 0.22757939 -0.3103097 0.03546585 -0.005642452 -0.25804618 0.13606119 -0.13793491
-0.36458662 -0.25069222 -0.24286892 -0.0946863 -0.065096624 0.03381472 -0.07205581 -0.060513265
0.06929268 -0.40073115 -0.070067756 0.06288603 0.003387167 0.14933358 0.2670255 0.058480054
-0.10519446 -0.054480366 -0.13594723 0.06727194 -0.061257847 -0.07973722 0.043174796 0.12099979
0.13505803 0.22769374 0.29885995 -0.09839592 0.07036947 0.14334154 0.1259931 0.032297913
0.09580584 -0.0060568503 0.052406706 -0.08968978 -0.24858567 -0.26727507 0.015643384 -0.111063346
0.25083098 0.31827477 -0.06644116 -0.3502743 -0.4241135 -0.27688533 -0.09030687 0.0134450225
0.19323963 0.14884044 -0.27269652 -0.00894236 -0.026829623 -0.055649906 -0.09672733 -0.0665463
-0.04650767 -0.03875665 0.13825712 -0.13638686 -0.08165332 0.12068681 0.12584408 -0.06288719
-0.07064398 0.044184692 0.10323075 0.17631155 0.26365823 -0.18928307 0.03649855 0.20001316
0.08143386 0.19216096 0.32694572 0.2068098 0.15364254 0.20093445 0.05734139 0.06063422
0.036528144 0.106913194 0.26906577 0.38870913 0.215295 0.0947076 -0.009719643 0.03625887
-0.038760312 -0.22199497 -0.1320613 -0.13429274 0.025948182 -0.022945506 0.13499993 0.10193331
-0.09768774 0.07123136 -0.13225104 -0.19668122 -0.05366396 -0.1750311 -0.027073473 -0.04869547
0.014105319 -0.015559339 0.14224018 0.17777604 0.060123894 0.04972711 0.14673387 -0.309701
-0.16339487 -0.043992948 0.015257283 0.2531654 0.11786875 -0.0114149 -0.043831356 -0.04242411
-0.12874135 0.25275394 -0.003111933 0.12650208 0.28334767 0.36929396 0.028661735 -0.043671656
-0.3868705 -0.08545601 -0.054062083 -0.16670172 -0.05081709 0.0035717117 -0.14477813 0.14401421
0.23825495 0.33337492 0.08328425 0.018867968 0.08530162 0.20160183 0.28745183 0.044833418
-0.27612996 -0.19695356 -0.17878972 -0.053750493 -0.04798306 -0.18475017 0.1523644 0.20857048
-0.031956833 -0.08869615 -0.039984364 0.017237946 -0.006943462 0.033683307 -0.18485159 0.22400752
0.0060486523 -0.12842669 -0.10671979 -0.039934006 -0.06256945 0.015005726 0.13981582 0.102186486
-0.111495495 -0.16455336 -0.19843884 -0.0077056205 -0.059770115 0.17660092 0.08484393 0.036425278
0.16367723 0.21622613 0.06750246 0.32184756 -0.13495426 -0.19532892 -0.2631133 0.28034982
0.34016338 0.100565545 0.0361386 -0.06861209 -0.31461355 0.15617831 0.24910074 0.23510285
0.03215759 -0.025893785 0.066973254 -0.211641 -0.07701556 -0.021926172 -0.050325926 -0.09715286
0.009627101 0.26659465 -0.19248071 0.02579576 0.22428207 -0.1074869 0.022996958 0.16397323
-0.05695696 0.17667763 0.07078917 0.030968126 0.18541974 0.16544595 0.06769402 0.10526351
0.15693398 0.11731772 0.50569075 0.0588976 -0.18809025 -0.21409257 -0.15657932 -0.10530228
-0.30042815 0.092250206 -0.011025705 0.21682827 0.10995561 0.17925763 0.24887438 0.2132532
00000000: dcaa a3bd 358c 0cbe 713a 353e ac70 41be
00000010: e86c 173e 6b6d 0b3e 8955 82bc 5a33 183d
00000020: 0d7d 283e 1c05 89be 9ce5 793d d935 923d
00000030: 0f17 883e 75e3 933d 4e2c e5bc 6a52 2b3e
00000040: a1fe 4f3e 920a 693e eae0 9ebe a444 113d
00000050: 51e4 b8bb a11e 84be a053 0b3e cf3e 0dbe
00000060: 19ab babe bb5a 80be a1b2 78be e4ea c1bd
00000070: 6151 85bd 4e81 0a3d ff91 93bd c2dc 77bd
00000080: 52e9 8d3d a22c cdbe af7f 8fbd 64ca 803d
00000090: 3bfb 5d3b e7ea 183e 91b7 883e c888 6f3d
000000a0: 3170 d7bd ce26 5fbd c035 0bbe dfc5 893d
000000b0: 82e9 7abd 454d a3bd 0ed8 303d bdce f73d
000000c0: a74c 0a3e 8c28 693e 2c04 993e cd83 c9bd
000000d0: de1d 903d 20c8 123e 5604 013e d14a 043d
000000e0: da35 c43d 8b78 c6bb 6aa8 563d 46af b7bd
000000f0: 3e8d 7ebe 47d8 88be 8e26 803c 2e75 e3bd
00000100: eb6c 803e e9f4 a23e 4e12 88bd 2757 b3be
00000110: 6825 d9be eac3 8dbe cff2 b8bd 8348 5c3c
00000120: 9ce0 453e a169 183e e19e 8bbe fa82 12bc
00000130: ccc9 dbbc 28f1 63bd fa18 c6bd 6d49 88bd
00000140: d47e 3ebd 4bbf 1ebd 4693 0d3e ffa8 0bbe
00000150: db39 a7bd a52a f73d 45dd 003e 00cb 80bd
00000160: caad 90bd 02fb 343d a56a d33d 048b 343e
00000170: 36fe 863e 6cd3 41be 817f 153d 40d0 4c3e
00000180: ccc6 a63d d8c5 443e 6e65 a73e f3c5 533e
00000190: 7854 1d3e c3c1 4d3e cede 6a3d 965b 783d
000001a0: 899e 153d 4ef5 da3d fdc2 893e e204 c73e
000001b0: 4b76 5c3e 0ff6 c13d 233f 1fbc 2e84 143d
000001c0: 22c3 1ebd a652 63be 143b 07be 0984 09be
000001d0: 4891 d43c 37f8 bbbc 6c3d 0a3e 69c2 d03d
000001e0: 8310 c8bd bfe1 913d d16c 07be cd66 49be
000001f0: bece 5bbd 5a3b 33be 30c9 ddbc e774 47bd
00000200: ff19 673c 99ec 7ebc 69a7 113e ec0a 363e
00000210: 7944 763d a7ae 4b3d 6741 163e 2191 9ebe
00000220: fc50 27be f331 34bd aff9 793c e59e 813e
00000230: 2c65 f13d 9005 3bbc 8288 33bd e7c4 2dbd
00000240: c6d4 03be f768 813e 92f1 4bbb c389 013e
00000250: f212 913e 1914 bd3e 04cc ea3c 0de1 32bd
00000260: e413 c6be 9003 afbd 3470 5dbd dbb3 2abe
00000270: 9525 50bd 6113 6a3b b840 14be 7678 133e
00000280: 1bf9 733e 1eb0 aa3e ef90 aa3d ff90 9a3c
00000290: 9eb2 ae3d b670 4e3e e32c 933e 3fa3 373d
000002a0: e860 8dbe 32ae 49be a714 37be 7a29 5cbd
000002b0: e389 44bd 262f 3dbe 6a05 1c3e 8093 553e
000002c0: 2be5 02bd 54a6 b5bd a5c6 23bd 9836 8d3c
000002d0: fb85 e3bb 82f7 093d bc49 3dbe 3a62 653e
000002e0: c633 c63b 4982 03be e88f dabd d791 23bd
000002f0: 6924 80bd 94da 753c e12b 0f3e 2647 d13d
00000300: c057 e4bd ad80 28be 8d33 4bbe 6e7f fcbb
00000310: 82d1 74bd dfd6 343e a8c2 ad3d ac32 153d
00000320: 019b 273e 626a 5d3e bb3e 8a3d 34c9 a43e
00000330: 7331 0abe 4e04 48be c9b6 86be 038a 8f3e
00000340: e529 ae3e 4ff5 cd3d 1206 143d 7f84 8cbd
00000350: 0715 a1be 35ed 1f3e 4414 7f3e cdbe 703e
00000360: adb7 033d 341f d4bc 4629 893d 6bb8 58be
00000370: 55ba 9dbd 849e b3bc 8f22 4ebd 14f8 c6bd
00000380: fdba 1d3c 187f 883e aa19 45be a151 d33c
00000390: 33aa 653e 1822 dcbd 1e64 bc3c 99e8 273e
000003a0: b44b 69bd fbea 343e eaf9 903d deb0 fd3c
000003b0: acde 3d3e aa6a 293e 2aa3 8a3d 6594 d73d
000003c0: 4db3 203e 4644 f03d f374 013f 9c3e 713d
000003d0: bb9a 40be 153b 5bbe 5456 20be b9a8 d7bd
000003e0: b8d1 99be aded bc3d 29a5 34bc 3b08 5e3e
000003f0: 6830 e13d 508f 373e edd8 7e3e 0c5f 5a3e

conv3.bias f4 [32]
-0.18452571 -0.34694442 -0.22022903 -0.16379529 -0.38546026 -0.032435644 -0.24520525 -0.29011378
-0.12387865 0.10057487 -0.09879572 -0.37536547 -0.2997736 -0.29198346 -0.5510117 -0.32073852
-0.36531058 -0.119855784 -0.1263822 -0.104281284 -0.46140093 -0.31372294 -0.35615417 -0.64554685
-0.27538058 -0.46663925 -0.22216237 -0.22095369 -0.32087895 -0.053652328 -0.29057887 -0.6681104
00000000: 4ff4 3cbe b3a2 b1be b883 61be f4b9 27be
00000010: 0c5b c5be 3ddb 04bd 1617 7bbe cb89 94be
00000020: 17b4 fdbd 33fa cd3d 6955 cabd e72f c0be
00000030: ed7b 99be db7e 95be 1a0f 0dbf d737 a4be
00000040: fd09 bbbe f376 f5bd 566a 01be 6d91 d5bd
00000050: be3c ecbe 4ba0 a0be d759 b6be 8f42 25bf
00000060: affe 8cbe 57eb eebe 887e 63be af41 62be
00000070: 3f4a a4be 8bc2 5bbd c1c6 94be 4809 2bbf

bn3.weight f4 [32]
1.1641915 1.0134094 0.7837057 1.1604644 1.039005 0.90417486 1.0860257 1.2842146
0.7700411 0.7940603 0.9673145 1.1093211 0.8790778 1.119196 0.9073417 0.7944617
0.78542423 0.9157195 0.90348613 1.0415971 0.99707794 0.7649334 0.9006897 1.0425094
0.9851313 0.93364096 0.8388436 0.8886244 0.81290144 1.1923712 1.2242938 1.1114472
00000000: 3a04 953f 66b7 813f f0a0 483f 198a 943f
00000010: 1efe 843f 0178 673f e402 8b3f 2561 a43f
00000020: 6a21 453f 8947 4b3f eca1 773f 3cfe 8d3f
00000030: 3e0b 613f d141 8f3f 8c47 683f d861 4b3f
00000040: 9011 493f 986c 6a3f de4a 673f 0e53 853f
00000050: 8040 7f3f add2 433f 9a93 663f f370 853f
00000060: 9131 7c3f 1803 6f3f 74be 563f e47c 633f
00000070: 4f1a 503f 9f9f 983f a9b5 9c3f e743 8e3f

bn3.bias f4 [32]
-0.019549068 0.3425033 0.034249626 0.36550003 -0.07862282 0.074965596 -0.35657552 0.55775744
-0.38111556 -0.5592262 0.2233619 -0.41537178 -0.3690964 0.3450805 0.20595963 0.46567348
-0.27416164 0.020423688 0.025134955 -0.06261867 -0.09165406 -0.25364646 0.6808599 0.12096212
-0.33050182 0.102518074 0.15457724 0.12388783 -0.4143311 0.3394841 0.18132064 0.26672846
00000000: 5e25 a0bc 985c af3e 5649 0c3d d222 bb3e
00000010: 0005 a1bd 9087 993d 1191 b6be 31c9 0e3f
00000020: 9421 c3be 7329 0fbf fbb8 643e 9cab d4be
00000030: 34fa bcbe 64ae b03e 15e7 523e c16c ee3e
00000040: ea5e 8cbe 944f a73c d2e7 cd3c 383e 80bd
00000050: 20b5 bbbd f3dd 81be d64c 2e3f fdba f73d
00000060: 8937 a9be fff4 d13d 7f49 1e3e e7b8 fd3d
00000070: 3523 d4be dcd0 ad3e 1eac 393e a290 883e

bn3.running_mean f4 [32]
0.16577159 0.3749747 0.17671245 0.6330162 0.30998036 1.6633844 0.26654023 0.26018164
0.14544724 0.83680797 0.23787639 0.35107213 0.2965255 0.06579134 0.07944761 0.030812308
0.15820663 0.14653157 0.23657565 0.14742449 0.07459432 0.25782555 0.092123464 0.07651506
0.16724847 0.07169072 0.22237226 0.31692886 0.0893901 0.3306537 0.19501372 0.20921586
00000000: 07c0 293e affc bf3e 1cf4 343e 5a0d 223f
00000010: bfb5 9e3e c8e9 d43f f677 883e 8736 853e
00000020: 1ff0 143e 0c39 563f de95 733e babf b33e
00000030: 31d2 973e 9cbd 863d 6eb5 a23d 186a fc3c
00000040: eb00 223e 5f0c 163e e340 723e 72f6 163e
00000050: e8c4 983d b601 843e 3aab bc3d eeb3 9c3d
00000060: 2f43 2b3e 96d2 923d 8eb5 633e 8044 a23e
00000070: 2812 b73d 714b a93e adb1 473e af3c 563e

bn3.running_var f4 [32]
0.851121 3.2155864 0.86332345 1.4678876 1.6192534 2.5085936 1.3095063 1.325331
0.3387399 0.6360878 0.87038636 2.1959875 2.3655252 0.2602468 0.41184834 0.08874713
0.7924289 0.5052668 1.2964215 0.7315625 0.25464898 0.86293566 0.3341156 0.2996532
1.0769181 0.47627315 1.0605372 1.9007394 0.29920352 1.6030929 1.054192 1.0540708
00000000: 11e3 593f 2bcc 4d40 c402 5d3f bee3 bb3f
00000010: b243 cf3f cc8c 2040 e79d a73f 72a4 a93f
00000020: 516f ad3e a6d6 223f a4d1 5e3f 0f8b 0c40
00000030: c464 1740 123f 853e c9dd d23e 0ec1 b53d
00000040: 9fdc 4a3f 2a59 013f 24f1 a53f ae47 3b3f
00000050: 5a61 823e 5ae9 5c3f 3311 ab3e 256c 993e
00000060: 74d8 893f 13da f33e afbf 873f 6e4b f33f
00000070: 3431 993e 2632 cd3f c3ef 863f cbeb 863f

conv4.weight f4 [64, 32, 3, 3]
-0.19926444 -0.4172438 -0.41662008 0.05726863 -0.011143961 0.08315828 -0.121365435 -0.082725175
0.042154424 -0.050307833 -0.118661 0.04244568 -0.12738125 0.0040578577 0.023496367 0.03946935
0.0018617923 0.004187784 -0.21186051 -0.013154948 -0.12707515 -0.24690649 -0.18085413 -0.20234942
0.17068568 0.081510246 0.16541928 -0.033228036 -0.036275405 -0.0257927 -0.082582735 -0.07361498
-0.039312765 -0.14792852 0.03358659 -0.031244293 -0.06341439 0.00387601 -0.017562892 -0.088772856
-0.113287605 -0.15053591 0.067232944 0.15209043 0.06303331 -0.09810538 -0.021058012 0.012484154
0.0816423 -0.15908496 0.030884564 0.13285962 0.085101634 0.13835007 -0.053781874 -0.10532713
-0.024328105 -0.0719095 -0.08371138 -0.021767937 0.060507644 0.025891706 0.028904062 -0.25895017
-0.16709946 -0.2557413 0.21268271 0.098648205 0.10493843 0.16801569 0.17139883 0.1498992
-0.061112877 -0.10154657 -0.11165133 0.014639368 -0.07889345 -0.08288238 -0.02156768 -0.17067209
-0.256418 0.023517039 0.06593089 0.0075287176 -0.11106155 0.077156775 0.014210735 0.009344095
0.03203564 0.060265675 -0.07709253 -0.023914302 -0.11805852 0.012322383 0.032511853 0.005733526
-0.0633612 -0.0041810786 -0.0068666036 0.13352703 0.12333518 0.08359248 -0.15676251 -0.16491264
-0.1534619 -0.22805953 -0.25209865 -0.20489253 0.1328265 -0.037046988 -0.0037676764 -0.081440754
-0.07023095 -0.019321524 0.05624461 -0.124024175 0.039240614 -0.0070335516 0.010372263 -0.03226655
0.14302504 0.1270119 0.06635739 -0.042029463 -0.014348988 0.05894039 -0.006524361 0.054083653
-0.0015801432 0.23247507 0.121659376 0.21678165 -0.42302755 -0.24983202 -0.21921474 -0.19153532
-0.10142268 -0.09298989 -0.027928341 0.0058950717 0.0035666747 0.023338819 -0.034776032 -0.081937
0.013048796 -0.119802274 -0.14806665 -0.061190788 -0.12921584 -0.011804637 0.02725085 -0.08805828
-0.13433333 -0.0036244649 -0.053652413 -0.048560075 -0.09138526 -0.05981056 -0.32147717 -0.031504765
0.04871977 0.05585417 -0.09337513 -0.1496611 -0.14894627 -0.07466137 -0.102037825 -0.22826707
0.003563737 -0.027529804 -0.1900736 -0.16544476 -0.35878417 -0.22763349 0.16359705 0.19773571
0.16816045 -0.20947398 -0.23872082 -0.21928711 0.03286819 0.040537193 0.042519495 -0.25457263
-0.17627226 -0.20877494 0.060445998 0.021159569 0.040905457 -0.08800164 -0.12728228 -0.15842938
0.17555001 0.08974343 -0.021767942 0.029700749 -0.015053271 0.010593551 -0.06315312 -0.09238655
-0.07986246 0.23863932 0.18152836 0.050099943 -0.16364606 -0.11688472 -0.10466687 0.04901154
-0.07703248 0.07069818 0.025114786 -0.023595141 -0.009263954 -0.016273968 0.030498445 -0.006636102
0.009314801 0.025164174 0.017989285 -0.040861193 -0.044443127 0.121715985 -0.011103945 -0.039333757
-0.10785532 0.11824296 0.06427655 0.08749885 0.04903088 0.08130231 0.006558142 0.00140687
-0.103308335 -0.18563025 -0.03285549 0.034108315 -0.10756474 -0.017552186 -0.15151188 0.047337603
-0.061400823 -0.18656163 -0.036009885 -0.23416582 -0.17752384 -0.022152755 -0.18749939 -0.09126007
-0.07150179 -0.08544322 0.015986323 -0.0036428773 0.03367627 0.002901965 -0.030372666 -0.054691102
00000000: fa0b 4cbe fba0 d5be 3a4f d5be 8392 6a3d
00000010: 2995 36bc e34e aa3d 718e f8bd d16b a9bd
00000020: 1eaa 2c3d 960f 4ebd 8a04 f3bd 85db 2d3d
00000030: 3b70 02be c7f7 843b 747b c03c 9daa 213d
00000040: 6207 f43a ae39 893b f6f1 58be da87 57bc
00000050: fd1f 02be 0ed5 7cbe d331 39be b034 4fbe
00000060: 3ac8 2e3e d8ee a63d ac63 293e 1f1a 08bd
00000070: 8595 14bd 364b d3bc 2321 a9bd 73c3 96bd
00000080: 6c06 21bd 937a 17be 1892 093d 08f4 ffbc
00000090: 67df 81bd a804 7e3b 0ee0 8fbc 8bce b5bd
000000a0: 5503 e8bd 1626 1abe 6db1 893d 98bd 1b3e
000000b0: 9c17 813d 79eb c8bd da81 acbc 568a 4c3c
000000c0: 1434 a73d 2be7 22be a001 fd3c 5a0c 083e
000000d0: c449 ae3d a4ab 0d3e 624a 5cbd c0b5 d7bd
000000e0: bc4b c7bc 4a45 93bd df70 abbd ac52 b2bc
000000f0: ddd6 773d d81a d43c 36c8 ec3c 1e95 84be
00000100: 1f1c 2bbe 86f0 82be 7fc9 593e 1208 ca3d
00000110: f6e9 d63d 4e0c 2c3e 2d83 2f3e 2d7f 193e
00000120: 7f51 7abd a6f7 cfbd 74a9 e4bd f6d9 6f3c
00000130: e492 a1bd 3dbe a9bd b4ae b0bc aac4 2ebe
00000140: 3849 83be cea6 c03c c606 873d 76b3 f63b
00000150: 3d74 e3bd 5f04 9e3d 25d4 683c fa17 193c
00000160: ce37 033d 24d9 763d b0e2 9dbd ede7 c3bc
00000170: aac8 f1bd d2e3 493c 262b 053d 4de0 bb3b
00000180: 84c3 81bd 6e01 89bb 3f01 e1bb 4fbb 083e
00000190: 2897 fc3d 8932 ab3d 5a86 20be dcde 28be
000001a0: 1e25 1dbe 7088 69be 1313 81be 59cf 51be
000001b0: ac03 083e 95be 17bd 1feb 76bb 69ca a6bd
000001c0: 3fd5 8fbd 2c48 9ebc c060 663d 6300 febd
000001d0: c4ba 203d b579 e6bb 6df0 293c ee29 04bd
000001e0: 2875 123e 680f 023e 62e6 873d 1627 2cbd
000001f0: 0518 6bbc 7a6b 713d 4fca d5bb d286 5d3d
00000200: cf1c cfba f20d 6e3e 8d28 f93d 02fc 5d3e
00000210: 1197 d8be f7d3 7fbe d479 60be d621 44be
00000220: b2b6 cfbd 7c71 bebd fac9 e4bc 722b c13b
00000230: dfbe 693b 0d31 bf3c 5071 0ebd 96ce a7bd
00000240: 9eca 553c e55a f5bd c99e 17be 31a3 7abd
00000250: 2851 04be 3c68 41bc 2d3d df3c e657 b4bd
00000260: ad8e 09be 6e88 6dbb a2c2 5bbd eee6 46bd
00000270: 3228 bbbd ebfb 74bd a898 a4be 240b 01bd
00000280: 628e 473d 58c7 643d 763b bfbd c240 19be
00000290: 5f85 18be 0fe8 98bd 35f9 d0bd d8be 69be
000002a0: 968d 693b 2f86 e1bc a7a2 42be 5a6a 29be
000002b0: 8fb2 b7be c118 69be fc85 273e 3b7b 4a3e
000002c0: 4132 2c3e 5980 56be 3b73 74be cd8c 60be
000002d0: cca0 063d 540a 263d ec28 2e3d 5857 82be
000002e0: b780 34be 19c9 55be 3996 773d d556 ad3c
000002f0: 7b8c 273d 343a b4bd 4956 02be 503b 22be
00000300: 62c3 333e 67cb b73d af52 b2bc fc4e f33c
00000310: ffa1 76bc 9390 2d3c 6c56 81bd 2935 bdbd
00000320: ee8e a3bd de5d 743e 92e2 393e 9935 4d3d
00000330: d592 27be 4261 efbd 955b d6bd 53c0 483d
00000340: 34c3 9dbd 35ca 903d 86bd cd3c 994a c1bc
00000350: d7c7 17bc fc50 85bc e0d7 f93c a973 d9bb
00000360: 1b9d 183c 1925 ce3c 445e 933c 115e 27bd
00000370: ff09 36bd 3b46 f93d 52ed 35bc 6f1c 21bd
00000380: 40e3 dcbd 5d29 f23d 6da3 833d 9932 b33d
00000390: 9bd4 483d d381 a63d afe5 d63b b966 b83a
000003a0: 5293 d3bd db15 3ebe 7a93 06bd 29b5 0b3d
000003b0: e74a dcbd 9ac9 8fbc ee25 1bbe 13e5 413d
000003c0: 6e7f 7bbd 030a 3fbe 1a7f 13bd 2ac9 6fbe
000003d0: cfc8 35be b279 b5bc d7ff 3fbe 8fe6 babd
000003e0: 886f 92bd dbfc aebd c0f5 823c 57bd 6ebb
000003f0: 21f0 093d e52e 3e3b 19d0 f8bc c703 60bd

conv4.bias f4 [64]
-0.0032093197 -0.111095294 -0.1660618 -0.33756024 -0.23087639 -0.24858424 -0.43751436 -0.24779035
-0.08497007 -0.26143885 -0.43247893 -0.1564343 0.055398386 -0.3111449 -0.4672502 -0.13579983
-0.023578037 -0.23453623 -0.004113574 -0.22415349 -0.15357846 -0.3172919 -0.37261936 -0.2687451
-0.37868398 -0.37878206 -0.47460592 0.056027282 -0.023539433 -0.23730884 -0.06166489 -0.16914594
0.24985898 -0.2002146 0.3012644 -0.29927486 0.17055123 -0.015640043 -0.4477476 -0.38431337
-0.23924358 -0.42476246 -0.05950867 -0.18260217 -0.26379746 -0.1560824 -0.20822738 -0.1310076
-0.26534802 -0.39142388 -0.20786318 0.038711958 -0.029605158 -0.18397833 -0.43102983 -0.22179484
0.014553397 -0.34435776 0.0060697296 0.028928408 0.13995574 -0.48299763 0.07092264 -0.17890075
00000000: 7353 52bb ee85 e3bd 1b0c 2abe b2d4 acbe
00000010: dc6a 6cbe de8c 7ebe e201 e0be c1bc 7dbe
00000020: ca04 aebd 50db 85be e16d ddbe 5030 20be
00000030: 6be9 623d 624e 9fbe 6b3b efbe 1c0f 0bbe
00000040: ba26 c1bc 442a 70be 29cb 86bb 7e88 65be
00000050: ac43 1dbe 1574 a2be f7c7 bebe f598 89be
00000060: dee2 c1be b9ef c1be 8cff f2be dd7c 653d
00000070: c5d5 c0bc 1701 73be 5394 7cbd 9834 2dbe
00000080: 08db 7f3e 0e05 4dbe 543f 9a3e 8e3a 99be
00000090: fba4 2e3e 8c1f 80bc 2c3f e5be b9c4 c4be
000000a0: 45fc 74be 777a d9be 5dbf 73bd 10fc 3abe
000000b0: 7610 87be 11d4 1fbe 8f39 55be db26 06be
000000c0: b2db 87be b668 c8be 16da 54be 6e90 1e3d
000000d0: 8486 f2bc d164 3cbe f1af dcbe 301e 63be
000000e0: 5f71 6e3c a94f b0be 95e4 c63b 45fb ec3c
000000f0: 8f50 0f3e 774b f7be e43f 913d c231 37be

bn4.weight f4 [64]
1.7312545 3.5832043 3.2804844 4.1040597 3.4627914 3.2860372 4.2946935 3.864558
4.6721263 3.1363077 3.9129336 2.4527392 1.4536619 2.5558345 4.0237155 4.046696
2.8622162 3.910833 3.2349737 3.270691 3.6557007 3.768203 3.9939597 4.501607
4.906955 5.190675 3.5613306 4.506473 1.705728 3.4215012 3.7777004 4.7312574
1.8127602 3.2536294 2.2518303 2.6269484 1.9119864 3.2672672 3.8957691 3.744647
5.0561295 3.3102696 2.3488238 3.5396588 3.091299 3.6381016 3.7123613 2.1783926
3.512012 4.183666 4.356715 3.7649465 2.1388812 4.2798157 4.318284 3.5770457
1.4503537 4.1003213 2.3087125 1.3924245 1.8684334 3.994626 2.2748332 3.4597554
00000000: bf99 dd3f 3853 6540 75f3 5140 7554 8340
00000010: 609e 5d40 6f4e 5240 216e 8940 eb54 7740
00000020: 0f82 9540 44b9 4840 816d 7a40 aef9 1c40
00000030: 9811 ba3f cb92 2340 47c2 8040 897e 8140
00000040: 8d2e 3740 164b 7a40 cf09 4f40 0053 5140
00000050: 00f7 6940 3d2a 7140 099d 7f40 2a0d 9040
00000060: c605 9d40 021a a640 d7ec 6340 0735 9040
00000070: 4c55 da3f e0f9 5a40 d8c5 7140 7666 9740
00000080: 8708 e83f 773b 5040 fd1d 1040 ec1f 2840
00000090: f8bb f43f e81a 5140 4854 7940 4ca8 6f40
000000a0: d0cb a140 75db 5340 2153 1640 c589 6240
000000b0: d8d7 4540 a8d6 6840 5497 6d40 c96a 0b40
000000c0: cec4 6040 98e0 8540 366a 8b40 e2f4 7040
000000d0: 6ee3 0840 40f4 8840 622f 8a40 51ee 6440
000000e0: 31a5 b93f d535 8340 f2c1 1340 f73a b23f
000000f0: d328 ef3f f4a7 7f40 de96 1140 a26c 5d40

bn4.bias f4 [64]
-0.15888491 0.16521397 0.1945834 -0.1864546 0.11013221 0.13568759 -0.16653681 -0.26057774
0.3787528 -0.12673026 0.11029256 0.23648003 0.268429 0.21121798 0.12457664 -0.30141214
0.18930577 -0.22980514 0.16796985 -0.19309446 0.1230988 -0.036367513 0.3523168 -0.17902307
0.22316211 -0.4232796 0.11491102 -0.29589653 0.2597477 0.18990467 0.16829145 -0.20223647
0.39817536 0.17642538 0.3934904 -0.17229189 -0.15608498 -0.4753066 -0.22136106 0.12513079
-0.28424037 0.22098209 -0.12817806 0.15054208 -0.17666249 0.13398926 0.19256222 0.30537736
0.48640868 -0.29186225 0.32963738 0.27307132 -0.14939877 -0.16212866 -0.24067245 -0.3326981
-0.19206446 -0.18599471 -0.16212328 0.16797614 0.3863362 -0.2989311 -0.12589611 0.1501664
00000000: bab2 22be da2d 293e df40 473e f4ed 3ebe
00000010: ff8c e13d b0f1 0a3e a088 2abe 726a 85be
00000020: e3eb c13e 94c5 01be 11e1 e13d d227 723e
00000030: 876f 893e 8749 583e 0a22 ff3d b152 9abe
00000040: 5fd9 413e 0a52 6bbe 4a00 2c3e 8eba 45be
00000050: 391b fc3d 1af6 14bd de62 b43e d351 37be
00000060: 9c84 643e 1bb8 d8be 7856 eb3d c07f 97be
00000070: a7fd 843e 5f76 423e 9854 2c3e 1417 4fbe
00000080: a4dd cb3e dba8 343e 9377 c93e 496d 30be
00000090: bed4 1fbe 635b f3be 79ac 62be 4922 003e
000000a0: f487 91be 2149 623e 1c41 03be b427 1a3e
000000b0: 03e7 34be 7b34 093e 082f 453e 6c5a 9c3e
000000c0: 8f0a f93e f86e 95be 3bc6 a83e 01d0 8b3e
000000d0: fefb 18be 0e05 26be d772 76be 6857 aabe
000000e0: 8cac 44be 6675 3ebe a503 26be f001 2c3e
000000f0: dccd c53e 7f0d 99be e9ea 00be 39c5 193e

bn4.running_mean f4 [64]
1.5655553 0.06228252 0.048975598 0.024947446 0.061410613 0.07925948 0.040411755 0.013156389
0.0358236 0.020860456 0.046498682 0.13918431 2.1617527 0.044209298 0.046089757 0.023656325
0.18632817 0.007977083 0.16845873 0.026498728 0.043335043 0.051459096 0.020874487 0.030559452
0.033466704 0.012682702 0.03316255 0.044036116 0.7715399 0.07290324 0.06161447 0.019456478
1.5683813 0.15426216 1.7947283 0.022961166 1.4069992 0.059068404 0.022359554 0.034436796
0.030248784 0.028638382 1.651404 0.051841423 0.028391447 0.04578435 0.022144085 0.25246847
0.020778488 0.011293464 0.041434716 0.06327091 0.09096549 0.030884143 0.032803416 0.032950386
1.4901559 0.029396225 0.36722445 0.8604646 1.4349895 0.020743992 1.904897 0.03385415
00000000: 1e64 c83f f51b 7f3d a39a 483d 965e cc3c
00000010: b289 7b3d cb52 a23d cc86 253d e58d 573c
00000020: c4bb 123d 8ce3 aa3c 6775 3e3d 5586 0e3e
00000030: 285a 0a40 cf14 353d 9dc8 3c3d e9ca c13c
00000040: d0cc 3e3e 50b2 023c 7280 2c3e dc13 d93c
00000050: 1680 313d c6c6 523d f900 ab3c d157 fa3c
00000060: 6214 093d 1ccb 4f3c 74d5 073d 375f 343d
00000070: a483 453f 4b4e 953d 745f 7c3d 3163 9f3c
00000080: b8c0 c83f e6f6 1d3e a8b9 e53f 0e19 bc3c
00000090: 8d18 b43f b6f1 713d 622b b73c 990d 0d3d
000000a0: 4ccc f73c 0a9b ea3c 3561 d33f ac57 543d
000000b0: 2e95 e83c 5f88 3b3d 8367 b53c 8c43 813e
000000c0: a637 aa3c 3908 393c 73b7 293d 2e94 813d
000000d0: 1d4c ba3d be00 fd3c e05c 063d fcf6 063d
000000e0: 6ebd be3f 5ad0 f03c d804 bc3e 6847 5c3f
000000f0: bcad b73f 4eef a93c aad3 f33f a6aa 0a3d

bn4.running_var f4 [64]
1.0931684 0.30981702 0.21208142 0.12095675 0.33183715 0.34031662 0.15606405 0.043062203
0.1855133 0.08517591 0.26982883 0.47596574 1.493918 0.17270198 0.30270183 0.09315785
0.7313372 0.02809453 0.57273716 0.085176386 0.19765711 0.2759109 0.08349061 0.12389406
0.17363192 0.05053044 0.18919672 0.18938613 0.8992677 0.26074514 0.22567117 0.09377016
1.0239553 0.71772426 1.1539577 0.090562485 1.2082989 0.22963421 0.10110502 0.17332955
0.15372212 0.11140709 1.2134209 0.19821171 0.10832758 0.17881544 0.08753135 1.07659
0.08053104 0.03889314 0.1324067 0.22867152 0.38531536 0.17722754 0.1274922 0.1381701
0.89846426 0.12556377 1.2769641 0.55188566 0.8879903 0.075196244 1.3540641 0.12274242
00000000: f1ec 8b3f 56a0 9e3e df2b 593e 2cb8 f73d
00000010: 8fe6 a93e fb3d ae3e 41cf 1f3e fe61 303d
00000020: 33f7 3d3e b570 ae3d 0127 8a3e c8b1 f33e
00000030: b438 bf3f cad8 303e bcfb 9a3e 8bc9 be3d
00000040: ea38 3b3f 8026 e63c e79e 123f f570 ae3d
00000050: a066 4a3e 3244 8d3e 20fd aa3d 2bbc fd3d
00000060: 91cc 313e 02f9 4e3d c9bc 413e 70ee 413e
00000070: 6836 663f 6380 853e 5816 673e 920a c03d
00000080: f810 833f c7bc 373f e3b4 933f d378 b93d
00000090: 8aa9 9a3f 3b25 6b3e 2610 cf3d 4d7d 313e
000000a0: 5569 1d3e 6729 e43d 6051 9b3f 03f8 4a3e
000000b0: dada dd3d 651b 373e a343 b33d b3cd 893f
000000c0: 75ed a43d 6a4e 1f3d 9f95 073e de28 6a3e
000000d0: 0e48 c53e 237b 353e 518d 023e 767c 0d3e
000000e0: c101 663f ca93 003e 8f73 a33f 6148 0d3f
000000f0: 5553 633f 7d00 9a3d f951 ad3f 6160 fb3d

lin.weight f4 [10, 64]
-0.26462483 1.1404312 1.0066 -0.84303266 0.6498912 1.0202403 -0.8349586 0.028110385
-1.056743 -0.5575667 1.3682015 0.37905902 0.12390558 0.4076913 0.8093216 -0.031877648
0.5618773 -0.3557879 0.29887944 0.06930201 0.5915735 0.96992534 -0.66711247 -1.1437359
-1.5193983 -0.3936007 1.2579691 -0.86662364 0.055097274 0.7315203 0.1682997 -1.3993531
-0.22463192 0.7215836 -0.25251848 0.0105570555 -0.32938457 0.4266452 1.0530522 0.5445728
-1.0434856 0.9300198 -0.44509786 1.2572803 -0.22149622 1.2452528 1.3812692 0.19873767
-0.3029133 0.4672454 -0.31178576 -0.62844855 -0.358488 -1.5509653 -0.06034245 0.9860209
0.08922754 -0.61899173 -0.30058447 -0.23398444 -0.27771196 0.80974907 -0.5135764 0.162697
-0.27964723 -1.387057 -0.9161385 -0.5605102 0.8189343 -0.30338565 -0.61466044 -0.24800888
0.79462755 -0.49215654 0.621903 -0.32297993 -0.12011279 -0.8267494 1.0722902 -0.75812036
0.33750418 0.23798054 -0.115021296 -0.59723616 0.88943005 -1.4716705 -0.20574702 -0.092170246
2.138398 1.4186897 0.54271555 0.8864925 0.24501058 -0.1839259 0.51821023 1.4007779
0.09076907 -0.28835633 0.16792561 -0.8112342 -0.08370613 -0.19440427 -0.68212944 1.1301887
1.8987702 -0.83174413 -0.4961375 -0.6560884 -0.31914505 -0.5675822 -0.56966865 -0.39157307
-0.11278615 -1.1523196 -0.26706687 0.6919031 0.16969292 0.6527061 -0.6333576 -0.39502248
-0.2797273 -0.22488472 -0.1646525 0.16193308 -0.06295411 -0.8237386 -0.21258226 1.1616656
0.88938546 0.67562383 -0.9378701 -0.40250784 -1.7463086 -1.7029619 -0.6941449 2.0588968
0.015157657 2.2756684 -0.93740404 0.36888283 0.32259116 0.53096724 -0.4472508 -0.35958079
-1.2466269 2.0400462 -2.2327113 1.827731 -2.29676 -1.4116876 0.24885306 -0.7970046
-0.61351746 -0.13831466 -1.6556246 -0.40247503 0.23423429 -1.304434 -2.6804204 0.25259393
0.21063426 -0.40896824 0.13555278 1.2958845 0.035479743 -0.13444825 -0.24690214 -0.62007177
-0.2701792 0.09559049 0.52316064 -0.39986458 2.005509 -1.0846887 -0.5268144 0.45152423
0.631819 -0.50271726 -1.2653362 -1.4933666 0.11234554 -0.35183677 -0.76390886 -0.40863392
0.19217212 1.4130027 0.22263324 0.07435831 0.056514766 -0.6057898 1.3273133 -1.1610296
-0.30006525 0.32071277 0.274539 2.2615168 -0.2712681 0.53022635 -0.11867831 -0.53753114
0.6169528 0.14753401 -2.0321777 -0.91484094 0.033857714 -0.46331668 -2.4968777 2.072267
0.28671682 -0.4900339 0.98467565 -0.046685368 -0.28588524 0.33938393 1.1995118 1.3718389
-0.46231398 -0.73360634 -1.6219972 1.2826551 -0.40794536 0.6634615 0.8733785 0.36682352
0.15928315 0.7522089 0.26046866 -0.07149499 -0.2592285 -0.16182923 -1.0215802 -1.6466038
-0.44767725 -0.40779006 0.02531507 -0.15815124 -0.2782334 0.11710007 -0.5104502 -0.07686351
0.30053398 1.2369874 0.62012136 0.8597569 -0.3059984 1.3824437 -0.5374775 -0.47236
-0.08056058 1.1552151 -0.35957465 -0.18053153 0.20650806 -0.35843667 -0.16523066 -0.6248927
00000000: e87c 87be a6f9 913f 45d8 803f fdd0 57bf
00000010: 455f 263f 3c97 823f d9bf 55bf c047 e63c
00000020: 5b43 87bf b1bc 0ebf 3a21 af3f 0614 c23e
00000030: 35c2 fd3d eabc d03e b32f 4f3f 2392 02bd
00000040: 31d7 0f3f d529 b6be ba06 993e 36ee 8d3d
00000050: 5c71 173f 074d 783f e2c7 2abf f065 92bf
00000060: a57b c2bf 0886 c9be 2205 a13f 0cdb 5dbf
00000070: aead 613d ea44 3b3f c256 2c3e 011e b3bf
00000080: e905 66be b4b9 383f 1a4a 81be 80f7 2c3c
00000090: 18a5 a8be 3d71 da3e 6aca 863f 1f69 0b3f
000000a0: f090 85bf c715 6e3f dee3 e3be 90ee a03f
000000b0: e8cf 62be 7264 9f3f 6ecd b03f e381 4b3e
000000c0: 7417 9bbe ca3a ef3e 62a2 9fbe 01e2 20bf
000000d0: bd8b b7be 0886 c6bf a529 77bd de6b 7c3f
000000e0: eebc b63d 3e76 1ebf 35e6 99be 9e99 6fbe
000000f0: 4330 8ebe b74b 4f3f be79 03bf 0b9a 263e
00000100: ec2d 8fbe 158b b1bf 0e88 6abf 997d 0fbf
00000110: aea5 513f 5d55 9bbe 635a 1dbf 0af6 7dbe
00000120: b66c 4b3f f1fb fbbe 0935 1f3f a05d a5be
00000130: b2fd f5bd d9a5 53bf ce40 893f 2d14 42bf
00000140: 59cd ac3e 2cb1 733e 4990 ebbd 78e4 18bf
00000150: b0b1 633f b35f bcbf 59af 52be c1c3 bcbd
00000160: 83db 0840 a097 b53f 68ef 0a3f 2cf1 623f
00000170: 0ee4 7a3e 1257 3cbe 6da9 043f b14c b33f
00000180: 22e5 b93d 71a3 93be b1f4 2b3e 0bad 4fbf
00000190: 1f6e abbd ea11 47be 09a0 2ebf 06aa 903f
000001a0: e70a f33f 2fed 54bf bc05 febe 69f5 27bf
000001b0: fb66 a3be 114d 11bf ced5 11bf 447c c8be
000001c0: 6dfc e6bd 357f 93bf fdbc 88be 9020 313f
000001d0: fbc3 2d3e bf17 273f b923 22bf 6340 cabe
000001e0: 6b38 8fbe 2e48 66be aa9a 28be c9d1 253e
000001f0: 16ee 80bd 88e0 52bf 2aaf 59be 75b1 943f
00000200: c4ae 633f aff5 2c3f 4118 70bf 8215 cebe
00000210: 0a87 dfbf a8fa d9bf 7bb3 31bf f7c4 0340
00000220: d257 783c 8da4 1140 b6f9 6fbf 36de bc3e
00000230: ab2a a53e 78ed 073f 0ffe e4be f91a b8be
00000240: 7891 9fbf 1e90 0240 bee4 0ec0 17f3 e93f
00000250: 1efe 12c0 2eb2 b4bf 56d3 7e3e 7e08 4cbf
00000260: 7b0f 1dbf 5ca2 0dbe 82eb d3bf 3511 cebe
00000270: 1ddb 6f3e b1f7 a6bf 028c 2bc0 fe53 813e
00000280: 82b0 573e 4964 d1be 59ce 0a3e 8bdf a53f
00000290: 3553 113d cdac 09be ead3 7cbe 06bd 1ebf
000002a0: ee54 8abe f2c4 c33d dbed 053f 0dbb ccbe
000002b0: 425a 0040 14d7 8abf 4fdd 06bf 2f2e e73e
000002c0: e4be 213f 14b2 00bf 89f6 a1bf a326 bfbf
000002d0: 6b15 e63d f323 b4be 888f 43bf 7738 d1be
000002e0: c5c8 443e 46dd b43f f8f9 633e 2b49 983d
000002f0: 077c 673d 0a15 1bbf 67e5 a93f 9e9c 94bf
00000300: 27a2 99be 7734 a43e 6090 8c3e b1bc 1040
00000310: a7e3 8abe eabc 073f 9d0d f3bd a49b 09bf
00000320: 9ef0 1d3f 2813 173e 330f 02c0 0433 6abf
00000330: 63ae 0a3d d837 edbe d8cc 1fc0 06a0 0440
00000340: 8ccc 923e b9e5 fabe b413 7c3f 2839 3fbd
00000350: 8d5f 92be bbc3 ad3e 9a89 993f 6b98 af3f
00000360: 6bb4 ecbe a0cd 3bbf 9b9d cfbf 0b2e a43f
00000370: 37de d0be 9dd8 293f bc95 5f3f 4bd0 bb3e
00000380: 1f1b 233e c390 403f 265c 853e f76b 92bd
00000390: 99b9 84be 90b6 25be 24c3 82bf eac3 d2bf
000003a0: f435 e5be dcc9 d0be 8d61 cf3c 66f2 21be
000003b0: 9c74 8ebe 29d2 ef3d ddac 02bf 9e6a 9dbd
000003c0: 97df 993e 9a55 9e3f 46c0 1e3f 0719 5c3f
000003d0: d3ab 9cbe eaf3 b03f 2098 09bf 2bd9 f1be
000003e0: f2fc a4bd 17de 933f 2b1a b8be 42dd 38be
000003f0: d976 533e 0385 b7be 3a32 29be f8f8 1fbf

lin.bias f4 [10]
0.061749216 0.065435715 0.0597633 0.06927147 0.010624238 -0.3996737 -0.22344637 -0.18920448
-0.30365387 -0.2021845
00000000: bfec 7c3d 2903 863d 5dca 743d 33de 8d3d
00000010: 4911 2e3c 08a2 ccbe 20cf 64be d2be 41be
00000020: 8578 9bbe 7409 4fbe
