NCC_Code/Models/2022-07-08_18-55-44_model.pt (torch, 115275 bytes, 50 tensors)

conv1.weight f4 [8, 2, 5, 5]
-0.36014968 -0.66236275 -0.23625399 -0.014665997 -0.06167175 -0.18312928 -0.06240667 -0.038606
-0.058157332 0.111685835 0.463734 -0.014518621 -0.07971598 -0.009724123 -0.09067494 -0.40925202
0.18757714 -0.03617078 -0.16014 -0.04749263 -0.39005172 -0.15056343 0.4003782 -0.093527764
-0.1741986 -0.22577146 0.07962521 -0.3241335 -0.019877706 0.12531506 -0.19408533 -0.4802639
0.012467621 -0.11868557 0.04603021 -0.15281588 0.35991612 0.3200559 0.07104545 0.07469937
-0.047790438 -0.22587185 0.036369976 0.16755398 0.21908084 0.039924417 -0.3532842 -0.08655771
0.24332716 -0.037803616 0.37291247 0.15467428 0.043395244 -0.06441605 -0.07949177 -0.0069042193
0.14562213 0.09270643 0.24185246 0.28443456 0.119688906 0.40025476 0.33568817 0.2246666
0.004606863 0.054660782 -0.03554411 0.1560691 -0.3424562 -0.028929958 -0.18730444 -0.020795759
0.044909935 -0.4101661 -0.31998605 -0.25826743 -0.17774515 -0.13027927 -0.06856807 -0.11393876
0.007907697 -0.02908016 -0.011674775 -0.019131485 -0.058681265 0.19291686 0.30193862 0.47612566
0.26890272 0.0610599 -0.1009765 0.08496827 -0.19711094 0.29756367 0.02470584 0.04297233
-0.10601513 -0.2484048 0.05071593 -0.07221854 -0.10330682 -0.06382986 -0.28233975 -0.023958148
-0.24143364 -0.2341492 -0.004636876 -0.07303325 0.077910654 0.2751939 -0.24900618 -0.36020398
-0.098087974 0.0052937223 -0.15781014 -0.3018388 -0.24364203 -0.23699018 -0.2826345 0.025051562
-0.036591522 -0.0953906 0.06733285 -0.17657845 -0.11755078 -0.10575388 -0.42382762 0.14031258
-0.081833184 0.37832922 -0.117576346 -0.20185389 0.012335254 0.14184636 -0.15273438 -0.32850766
-0.17704491 -0.098304585 -0.24083053 -0.10221613 -0.13335395 -0.38785347 0.11292291 -0.06749863
0.00019997777 -0.18194129 -0.09632891 -0.24567163 0.1835206 0.046943534 0.44382724 0.29390043
0.028007496 0.48143756 0.2324655 0.120469056 -0.1042512 -0.30388626 0.005605173 0.17084196
-0.17617847 0.049347363 0.07533415 -0.3228082 0.108926766 0.038709264 -0.20212965 0.1723122
0.050239757 -0.05148653 -0.14664724 0.019240748 0.25238082 -0.42602792 -0.009880852 0.19364981
0.4926432 0.5939847 0.50004894 0.47005063 -0.22499159 -0.04252355 0.18169191 -0.0161313
-0.07195916 0.08734373 -0.19948556 -0.18074103 -0.04162924 -0.4013557 -0.10524334 0.009573699
-0.3588611 -0.14012446 0.0031483776 -0.07697556 -0.13566072 -0.30819532 0.29497647 -0.05376388
-0.025661273 -0.08088729 -0.4089384 -0.21639639 -0.1519186 0.26813823 0.56491196 0.24203871
0.6363475 0.18809162 -0.1013896 0.14145644 -0.100483276 0.10201842 0.21812913 -0.23340265
-0.192672 -0.03974808 0.11019951 -0.08402566 0.17288879 -0.16738166 -0.10801827 0.40833792
-0.2912223 0.03925967 0.11082231 0.37462872 0.22966331 0.17017145 0.36539063 0.25270623
0.44094017 0.15566762 0.26528594 -0.004753599 -0.24017216 0.042815298 -0.27035394 -0.33225423
0.0060015316 -0.1244676 -0.22534114 -0.47081903 -0.15202087 -0.16387352 0.06029988 0.02934301
-0.62439793 0.046524495 -0.012067633 0.04124383 0.12530436 -0.013830102 0.18429625 -0.05909172
00000000: 8a65 b8be 9b90 29bf 91ec 71be a649 70bc
00000010: 849b 7cbd 3e86 3bbe 239e 7fbd 5321 1ebd
00000020: 6236 6ebd 8bbb e43d 8b6e ed3e 83df 6dbc
00000030: 2242 a3bd ee51 1fbc c8b3 b9bd 7b89 d1be
00000040: 3914 403e d027 14bd bdfb 23be a287 42bd
00000050: dcb4 c7be 4d2d 1abe 5ffe cc3e 7c8b bfbd
00000060: 1e61 32be a230 67be 8b12 a33d d3f4 a5be
00000070: 92d6 a2bc 9752 003e 4ebe 46be 26e5 f5be
00000080: fe44 4c3c 6c11 f3bd 2c8a 3c3d c47b 1cbe
00000090: ed46 b83e 5ede a33e 4780 913d fcfb 983d
000000a0: e8bf 43bd f34a 67be aff8 143d 4593 2b3e
000000b0: ba56 603e c987 233d abe1 b4be 2b45 b1bd
000000c0: c12a 793e f7d7 1abd 62ee be3e ef62 1e3e
000000d0: 36bf 313d 90ec 83bd 95cc a2bd ca3c e2bb
000000e0: f81d 153e dedc bd3d 2ca8 773e 68a1 913e
000000f0: 751f f53d 31ee cc3e 52df ab3e 000f 663e
00000100: 2bf5 963b fce3 5f3d b396 11bd 94d0 1f3e
00000110: 6b56 afbe 85fe ecbc bccc 3fbe de5b aabc
00000120: 7bf3 373d 4b01 d2be 36d5 a3be a13b 84be
00000130: d302 36be ee67 05be 6b6d 8cbd b958 e9bd
00000140: 498f 013c 8439 eebc 8e47 3fbc a2b9 9cbc
00000150: c45b 70bd ff8b 453e b397 9a3e bec6 f33e
00000160: 9ead 893e f219 7a3d c4cc cebd d803 ae3d
00000170: 73d7 49be 445a 983e e763 ca3c c103 303d
00000180: 761e d9bd d45d 7ebe 82bb 4f3d 50e7 93bd
00000190: 8792 d3bd 3bb9 82bd d68e 90be e143 c4bc
000001a0: 613a 77be cfc4 6fbe eff0 97bb 7592 95bd
000001b0: 9f8f 9f3d 37e6 8c3e 7afb 7ebe a86c b8be
000001c0: 59e2 c8bd f676 ad3b fb98 21be 9d8a 9abe
000001d0: 4c7d 79be 8ead 72be 78b5 90be ef38 cd3c
000001e0: fee0 15bd 265c c3bd cee5 893d fbd0 34be
000001f0: 77be f0bd 7e95 d8bd efff d8be 1aae 0f3e
00000200: 2898 a7bd 5eb4 c13e decb f0bd c9b2 4ebe
00000210: ce19 4a3c 2c40 113e 6766 1cbe 2832 a8be
00000220: 434b 35be ea53 c9bd 479c 76be b156 d1bd
00000230: f08d 08be bb94 c6be 2044 e73d b93c 8abd
00000240: 20b1 5139 d14e 3abe 1748 c5bd 5891 7bbe
00000250: d3ec 3b3e dd47 403d 533d e33e 1e7a 963e
00000260: fa6f e53c fc7e f63e 700b 6e3e 7bb8 f63d
00000270: a781 d5bd fb96 9bbe 99ab b73b 32f1 2e3e
00000280: 2168 34be 7620 4a3d ca48 9a3d 1e47 a5be
00000290: ff14 df3d 9b8d 1e3d 13fb 4ebe 9c72 303e
000002a0: 34c8 4d3d 8ae3 52bd b22a 16be c69e 9d3c
000002b0: 0f38 813e 5520 dabe 4ce3 21bc 234c 463e
000002c0: bb3b fc3e 620f 183f 3503 003f 7aaa f03e
000002d0: 3264 66be 2d2d 2ebd 720d 3a3e ca25 84bc
000002e0: 535f 93bd 45e1 b23d f145 4cbe 2d14 39be
000002f0: 6c83 2abd 7f7e cdbe d289 d7bd 01db 1c3c
00000300: a4bc b7be c97c 0fbe 0355 4e3b 5da5 9dbd
00000310: a5ea 0abe c7cb 9dbe 2807 973e 8437 5cbd
00000320: 9737 d2bc 3ca8 a5bd 6060 d1be 0497 5dbe
00000330: 8d90 1bbe 6a49 893e 129e 103f ffd8 773e
00000340: abe7 223f 179b 403e 5aa5 cfbd f5d9 103e
00000350: 2dca cdbd 09ef d03d 3e5d 5f3e 1b01 6fbe
00000360: cf4b 45be e2ce 22bd 48b0 e13d a515 acbd
00000370: c209 313e 1966 2bbe af38 ddbd ab11 d13e
00000380: 171b 95be bfce 203d cff6 e23d 56cf bf3e
00000390: dc2c 6b3e 6d41 2e3e 7b14 bb3e b662 813e
000003a0: e9c2 e13e 5567 1f3e 8fd3 873e 14c4 9bbb
000003b0: b1ef 75be 185f 2f3d d56b 8abe 3a1d aabe
000003c0: 7fa8 c43b dee8 febd d4bf 66be 310f f1be
000003d0: 5cab 1bbe 76ce 27be 02fd 763d c160 f03c
000003e0: 8bd8 1fbf 7890 3e3d 52b7 45bc 4aef 283d
000003f0: c94f 003e a797 62bc 28b8 3c3e 290a 72bd

conv1.bias f4 [8]
0.3498756 -0.6012402 0.00313448 -0.35398322 -0.30432296 0.38368157 -0.5151884 0.028879829
00000000: e522 b33e e1ea 19bf d96b 4d3b 4a3d b5be
00000010: 38d0 9bbe e971 c43e 63e3 03bf 6495 ec3c

bn1.weight f4 [8]
0.57713705 0.9411498 0.6383129 1.1005691 1.1278149 0.9003315 1.260603 0.75508016
00000000: 41bf 133f 31ef 703f 7968 233f 73df 8c3f
00000010: 3d5c 903f 207c 663f 705b a13f ef4c 413f

bn1.bias f4 [8]
0.4052022 -0.30034858 0.13065453 0.13448036 -0.07939391 0.02041478 -0.21947497 -0.06718919
00000000: aa76 cf3e 4ac7 99be 4dca 053e 38b5 093e
00000010: 4699 a2bd e63c a73c 0cbe 60be 7c9a 89bd

bn1.running_mean f4 [8]
0.9491372 0.31094536 1.1650816 0.42202437 0.3566772 0.949091 0.9852882 0.44949928
00000000: a8fa 723f 3b34 9f3e 6521 953f 9413 d83e
00000010: 659e b63e a1f7 723f d93b 7c3f c524 e63e

bn1.running_var f4 [8]
0.9403063 0.9457807 1.5210726 1.1985316 0.7565632 0.6797051 8.5842905 0.5609061
00000000: eab7 703f af1e 723f 82b2 c23f 7c69 993f
00000010: 20ae 413f 2701 2e3f 4159 0941 8b97 0f3f

conv2.weight f4 [16, 8, 3, 3]
-0.093244895 0.05160942 0.12537028 -0.09308 -0.18318571 0.1755004 -0.055509113 -0.3733442
-0.23059371 -0.39458978 -0.24438816 -0.23049594 0.16118132 0.19656238 0.023613466 0.36815804
0.37684828 -0.008131165 0.07500149 0.19730978 -0.23978324 0.08825514 0.20028561 -0.26938316
0.12797764 -0.007194709 -0.2526046 -0.1172421 -0.177707 -0.21850184 -0.16893838 -0.25230992
-0.4185049 0.13165577 -0.0959616 -0.087781824 -0.35382175 -0.08248268 -0.0964554 -0.087849475
0.14113107 0.025277754 0.07732984 -0.08630023 -0.16862708 0.058864955 0.3175455 0.30535525
0.29405954 0.029185712 -0.060630374 -0.13097934 0.19305678 -0.10810767 0.09034225 -0.11098446
-0.112697355 0.23404191 0.2529832 0.15372565 0.018365614 0.32743546 -0.16246162 0.013362064
-0.01952147 0.009038022 0.1069209 -0.0870409 0.14249761 0.0839414 0.0076269065 0.20709781
0.008835635 -0.21421568 -0.06963574 0.072607584 0.10014318 -0.06747885 -0.23954496 -0.2707352
-0.17005715 0.009550889 0.03456221 0.14450862 -0.32265788 -0.20648898 -0.15604849 0.42433006
0.22855946 0.36895254 -0.17139825 0.06978993 0.025479848 0.18145984 -0.18261778 0.096555464
-0.049663667 0.43178847 -0.01597262 -0.048744723 -0.1781034 0.0433635 0.09251507 0.047718734
-0.034810018 -0.09237758 -0.17999277 -0.17711115 0.06982978 0.21231861 0.22984579 -0.009898367
-0.059024464 -0.031760823 -0.14212859 -0.22679934 -0.5597173 0.108922824 0.19044441 -0.049366947
-0.02167257 -0.24256425 -0.24713592 0.12534274 0.08747041 0.28942144 0.06556482 0.05894404
-0.10307864 0.26925296 0.120117046 -0.053979088 0.2545948 0.09829371 0.42107263 0.055576365
-0.12835455 -0.17383756 -0.055947587 -0.03213187 0.007172689 0.04092603 0.049586914 0.06952212
0.048887793 0.10441546 0.035493553 -0.07919006 -0.27900347 -0.061187956 -0.3060411 -0.11848703
0.063196376 0.10927013 -0.19191368 -0.19697279 -0.031163812 -0.18770121 -0.021507924 0.07280483
0.18513262 0.23271017 -0.011938058 -0.4220121 -0.030784998 0.07417521 0.2004648 0.019478919
0.053592283 -0.3146209 -0.32047644 0.16529986 0.14527544 -0.06823351 0.011782341 -0.06787912
-0.2540589 0.040103186 -0.1021871 -0.39049762 -0.05376975 -0.045344222 -0.07181525 -0.2886789
-0.28784782 -0.64099365 -0.050905604 -0.013506839 0.006613275 0.10993764 -0.4294953 -0.19222769
-0.0117966905 0.10974791 0.014643803 -0.12231613 0.07628335 -0.18032537 -0.087673664 0.097074226
0.17404704 0.36552313 0.32183465 -0.19201347 0.29373595 0.34991384 0.23956136 -0.25987795
-0.28631058 -0.16660085 -0.22265378 -0.22036815 0.003542871 0.17424366 0.06645948 -0.08418407
0.14317057 -0.10109907 -0.25468665 0.19430412 0.14698222 -0.17462794 0.14874654 0.07424544
0.1172536 0.044240035 0.09208073 0.02125302 -0.066805094 0.026910812 -0.044860125 -0.20729987
-0.082196414 -0.19518282 0.23449333 -0.42052722 -0.31719506 -0.040281456 -0.089411594 0.0674578
-0.068419665 0.06712645 -0.319342 -0.17423908 -0.025338948 -0.4356144 0.2528263 0.24759236
-0.18606277 0.13462102 0.25062275 0.23118116 -0.24206693 -0.19151713 -0.17764072 0.18445903
00000000: 2ef7 bebd 6664 533d 1161 003e baa0 bebd
00000010: 0995 3bbe 60b6 333e 865d 63bd f926 bfbe
00000020: c220 6cbe ac07 cabe e440 7abe 2107 6cbe
00000030: b70c 253e a647 493e 0771 c13c 367f bc3e
00000040: 42f2 c03e 9438 05bc 629a 993d 930b 4a3e
00000050: bd89 75be 1cbf b43d ac17 4d3e 97ec 89be
00000060: 920c 033e 98c1 ebbb 6455 81be a01c f0bd
00000070: d3f8 35be f2be 5fbe 2ffe 2cbe c42e 81be
00000080: 4646 d6be c5d0 063e 8487 c4bd f5c6 b3bd
00000090: 2028 b5be aeec a8bd 698a c5bd 6dea b3bd
000000a0: aa84 103e 4b13 cf3c 1b5f 9e3d 2dbe b0bd
000000b0: 94ac 2cbe 611c 713d 5395 a23e 8657 9c3e
000000c0: f98e 963e e016 ef3c 8e57 78bd 731f 06be
000000d0: adb0 453e 8e67 ddbd 5c05 b93d d24b e3bd
000000e0: dfcd e6bd afa8 6f3e 0487 813e 426a 1d3e
000000f0: 7c73 963c 9fa5 a73e 575c 26be 8fec 5a3c
00000100: 7deb 9fbc 3614 143c 58f9 da3d 8042 b2bd
00000110: e5ea 113e 78e9 ab3d 21eb f93b 7311 543e
00000120: 57c3 103c 5b5b 5bbe 2f9d 8ebd 49b3 943d
00000130: de17 cd3d 5a32 8abd 464b 75be ce9d 8abe
00000140: 7623 2ebe 557b 1c3c 1b91 0d3d 11fa 133e
00000150: 6a33 a5be d971 53be 2dcb 1fbe ca41 d93e
00000160: 7e0b 6a3e 59e7 bc3e 0683 2fbe 06ee 8e3d
00000170: 1dbb d03c 9cd0 393e 2800 3bbe dfbe c53d
00000180: 216c 4bbd 6113 dd3e 03d9 82bc 8ca8 47bd
00000190: bd60 36be ed9d 313d 8b78 bd3d b874 433d
000001a0: f394 0ebd 7530 bdbd 0650 38be a05c 35be
000001b0: ea02 8f3d 0d6a 593e b25c 6b3e c32c 22bc
000001c0: a3c3 71bd a317 02bd 288a 11be 163e 68be
000001d0: a249 0fbf ee12 df3d dc03 433e ff34 4abd
000001e0: ac8a b1bc c362 78be 3311 7dbe d959 003e
000001f0: b023 b33d 0c2f 943e d946 863d 4e6f 713d
00000200: e51a d3bd 86db 893e edff f53d 2d19 5dbd
00000210: 405a 823e 364e c93d d596 d73e 0ba4 633d
00000220: 606f 03be 7902 32be 4c29 65bd b59c 03bd
00000230: e008 eb3b 0ea2 273d a61b 4b3d 9d61 8e3d
00000240: 913e 483d c6d7 d53d b061 113d 662e a2bd
00000250: 8bd9 8ebe 39a0 7abd 6bb1 9cbe 54a9 f2bd
00000260: 1a6d 813d 05c9 df3d 0585 44be 3cb3 49be
00000270: 404b ffbc bf34 40be 6331 b0bc b31a 953d
00000280: 6893 3d3e 934b 6e3e d897 43bc f811 d8be
00000290: d230 fcbc 2ce9 973d a546 4d3e 4192 9f3c
000002a0: 9583 5b3d fe15 a1be 7d15 a4be 5e44 293e
000002b0: 16c3 143e 03be 8bbd b80a 413c 3504 8bbd
000002c0: 0214 82be 3d43 243d 7847 d1bd 4eef c7be
000002d0: ab3d 5cbd ddba 39bd e013 93bd b9cd 93be
000002e0: ca60 93be 2918 24bf 6582 50bd ca4b 5dbc
000002f0: 2cb4 d83b fc26 e13d cfe6 dbbe 56d7 44be
00000300: e846 41bc 83c3 e03d 90ec 6f3c e180 fabd
00000310: 723a 9c3d 37a7 38be 408e b3bd dace c63d
00000320: 6339 323e d925 bb3e 83c7 a43e 2e9f 44be
00000330: 8f64 963e e827 b33e 934f 753e b90e 85be
00000340: 4d97 92be 6a99 2abe 5aff 63be 30a8 61be
00000350: 832f 683b ee6c 323e e81b 883d b368 acbd
00000360: 4e9b 123e 070d cfbd 4a66 82be a9f7 463e
00000370: 8282 163e abd1 32be 0351 183e fe0d 983d
00000380: a822 f03d 0a35 353d d294 bc3d d01a ae3c
00000390: 1cd1 88bd 1074 dc3c 40bf 37bd 6b46 54be
000003a0: 9856 a8bd 01de 47be 051f 703e 584f d7be
000003b0: 6467 a2be 2bfe 24bd 6d1d b7bd 5127 8a3d
000003c0: 9c1f 8cbd 9879 893d cb80 a3be bb6b 32be
000003d0: a093 cfbc da08 dfbe 7372 813e da88 7d3e
000003e0: 3d87 3ebe 18da 093e a051 803e c1ba 6c3e
000003f0: 65e0 77be 111d 44be 73e7 35be d4e2 3c3e

conv2.bias f4 [16]
-0.57017493 -0.3496706 0.037550993 -0.25847438 -0.08034354 -0.31202003 0.0336144 0.03203936
0.059248947 -0.20083207 -0.15843727 0.047133945 0.22555856 -0.318383 -0.085456006 -0.30713072
00000000: fcf6 11bf 0608 b3be 12cf 193d c156 84be
00000010: 278b a4bd 17c1 9fbe 41af 093d b43b 033d
00000020: 06af 723d eca6 4dbe 613d 22be 860f 413d
00000030: d3f8 663e 1903 a3be 8f03 afbd 3d40 9dbe

bn2.weight f4 [16]
0.95463705 1.0513041 1.004958 0.9124261 0.9835332 0.94062084 0.88959813 0.8507473
0.9146285 1.0903434 0.96433663 0.95055014 0.7631336 1.2111442 1.064831 0.7623362
00000000: 1863 743f 2291 863f 77a2 803f c294 693f
00000010: d5c8 7b3f 87cc 703f b4bc 633f 93ca 593f
00000020: 1825 6a3f 5f90 8b3f c4de 763f 4157 733f
00000030: b95c 433f c606 9b3f 624c 883f 7728 433f

bn2.bias f4 [16]
-0.16763611 -0.3306108 0.02502542 0.040805724 -0.2514043 -0.19136526 0.24523833 -0.21720803
-0.50559956 0.4773545 -0.4283652 0.38866004 0.24593855 0.17370626 -0.115911506 -0.5025848
00000000: cda8 2bbe d245 a9be 1c02 cd3c e723 273d
00000010: 10b8 80be 41f5 43be c21f 7b3e c86b 5ebe
00000020: f96e 01bf cf67 f43e af52 dbbe 73fe c63e
00000030: 51d7 7b3e 0ee0 313e 0363 edbd 66a9 00bf

bn2.running_mean f4 [16]
0.11162433 0.15948212 0.48697975 0.5202729 0.52982444 0.5510774 1.4012765 0.44585928
0.80513453 0.43702155 0.31317332 1.0806198 2.230122 0.2880154 1.1381143 0.21351177
00000000: 4c9b e43d 484f 233e 6955 f93e 9b30 053f
00000010: 93a2 073f 6913 0d3f 075d b33f ab47 e43e
00000020: 4c1d 4e3f 4ac1 df3e 4158 a03e c051 8a3f
00000030: 52ba 0e40 c176 933e bbad 913f d4a2 5a3e

bn2.running_var f4 [16]
0.46537703 0.5860041 1.3803349 1.6654907 2.6449592 3.6820118 2.3468516 1.0619663
1.360266 1.2690276 0.5378155 3.8017108 1.2280223 1.4242208 15.344999 0.37272137
00000000: e645 ee3e 5d04 163f d0ae b03f cd2e d53f
00000010: 0347 2940 15a6 6b40 d132 1640 83ee 873f
00000020: 321d ae3f 7f6f a23f 47ae 093f 3b4f 7340
00000030: d62f 9d3f de4c b63f 1e85 7541 56d5 be3e

conv3.weight f4 [32, 16, 3, 3]
0.11869611 0.18268448 0.30448356 -0.1084209 -0.01857666 -0.006195126 -0.19488223 -0.07053535
-0.26074076 0.13686208 0.16576484 0.17203581 -0.020157836 -0.22981937 -0.2317324 0.11287525
0.37428296 0.19515114 0.02574026 0.08165091 0.08628633 -0.04470522 0.0709111 -0.041084632
-0.17471197 -0.18836418 -0.032886088 0.18684918 0.05854217 -0.09199258 0.1518255 0.23898375
0.1493264 -0.03371898 -0.14649972 -0.258429 -0.1309113 0.06458544 -0.1822062 0.19545445
0.2832199 0.17294364 -0.17685114 -0.007925426 -0.14462367 0.037885714 -0.13734157 -0.07752537
0.17727354 -0.24871579 0.004237901 0.1365556 0.19989929 -0.062293302 0.032442544 -0.035546076
0.020058762 0.09520007 -0.061464027 0.26573095 0.03819205 -0.037237972 0.0074127503 -0.0520124
0.050594058 -0.020205723 -0.08374582 -0.090341784 -0.085521474 0.053385735 0.046041775 -0.19578384
0.14912467 0.19791184 0.2802062 -0.13875313 0.044536736 0.04415158 0.18637612 0.0870466
0.058721654 0.16556257 0.020977067 -0.016458293 -0.25506532 -0.22357017 0.016918177 -0.08871876
-0.25462955 -0.09406481 0.13191062 0.19185868 0.16823708 -0.11962337 0.22811376 -0.05554017
-0.3367423 -0.2629303 -0.21117423 -0.013656317 -0.17744789 0.19424456 -0.19638076 0.06375213
0.17388514 -0.15936391 0.022635456 -0.043875396 -0.07690627 -0.043120142 0.022515194 0.2000805
-0.03486559 -0.013500143 0.06262915 -0.09347469 0.06645721 0.0045393268 0.10944281 0.0969537
0.270765 0.12574705 0.3265785 -0.19965406 -0.25405833 -0.30852985 -0.13411155 -0.18316291
-0.18077298 0.14611627 0.34686238 0.1943086 0.06796281 0.26133147 -0.022481391 -0.066758044
0.13560279 0.123259746 -0.1623086 -0.013344216 -0.022847477 -0.13782105 0.03738899 0.0894307
0.26484248 0.09262596 0.079512484 0.13195577 0.20254295 -0.011702977 -0.33577925 -0.4046318
-0.43066266 0.18614781 0.20015089 0.20337197 0.054297235 -0.1260763 -0.09970645 -0.13150781
-0.2766808 -0.12397628 -0.02537464 -0.054808974 0.059153255 -0.0023025281 -0.0368342 -0.12841788
0.014291954 0.10637837 -0.017167846 -0.19343255 -0.08406854 -0.010514866 -0.10331974 -0.24167469
-0.10013924 -0.16696243 -0.09189194 0.039736785 0.047594786 0.13224787 -0.1113235 -0.06634224
0.14765485 0.21371828 0.03380618 -0.056382246 0.029971126 -0.03702931 0.08517629 -0.014061151
-0.057870824 -0.2880354 -0.073448725 0.028921127 -0.007705884 0.14516535 -0.0018629557 0.16388556
-0.17874032 0.12632218 -0.019164221 -0.14288333 0.030881086 0.14499213 -0.08879132 0.19590127
0.15823992 0.14063978 0.09794377 -0.13989072 0.124766886 0.01778158 0.10293886 0.27273837
-0.32017472 -0.16336034 -0.20643269 -0.16583124 -0.049457267 0.17051397 0.08059146 0.20122753
0.23677129 -0.04247757 0.12734991 0.08376018 -0.113796696 -0.1318864 0.012351188 0.055467725
-0.06945753 0.12461104 -0.111312896 -0.21335968 -0.3114773 -0.22434798 -0.3053339 -0.062537365
-0.19304958 -0.1605706 -0.017804243 -0.18807249 0.10093337 0.114019774 -0.1855657 -0.3193713
0.020347834 -0.12797357 -0.12978832 0.12165195 0.03219676 -0.16335951 -0.19614448 -0.0005761323
00000000: f216 f33d a411 3b3e 45e5 9b3e c70b debd
00000010: 142e 98bc 7c00 cbbb 358f 47be d674 90bd
00000020: d07f 85be 9325 0c3e 42be 293e 282a 303e
00000030: 0c22 a5bc c555 6bbe 424b 6dbe 242b e73d
00000040: 04a2 bf3e b3d5 473e 3ddd d23c 9838 a73d
00000050: e3b6 b03d d21c 37bd d739 913d 5c48 28bd
00000060: b2e7 32be 8ae2 40be 90b3 06bd 6455 3f3e
00000070: eac9 6f3d 9b66 bcbd 2578 1b3e 28b8 743e
00000080: 05e9 183e ea1c 0abd 0604 16be ce50 84be
00000090: 9d0d 06be 5f45 843d 4394 3abe 3625 483e
000000a0: 3302 913e 2318 313e 7718 35be a5d9 01bc
000000b0: 3a18 14be 0d2e 1b3d 45a3 0cbe 9fc5 9ebd
000000c0: 3287 353e 5aaf 7ebe 17de 8a3b 3bd5 0b3e
000000d0: 66b2 4c3e 4327 7fbd 79e2 043d c398 11bd
000000e0: 4652 a43c 41f8 c23d b4c1 7bbd e30d 883e
000000f0: 446f 1c3d d886 18bd a8e6 f23b f40a 55bd
00000100: b73b 4f3d 7986 a5bc ee82 abbd 1d05 b9bd
00000110: e225 afbd 00ab 5a3d 4d96 3c3d 8f7b 48be
00000120: 23b4 183e 67a9 4a3e 3077 8f3e 4d15 0ebe
00000130: 276c 363d 4ad8 343d 62d9 3e3e 7d45 b23d
00000140: 1e86 703d 3c89 293e 19d8 ab3c 8bd3 86bc
00000150: ec97 82be 94ef 64be fd97 8a3c 2eb2 b5bd
00000160: ce5e 82be 0da5 c0bd 9413 073e 9a76 443e
00000170: 5746 2c3e 19fd f4bd a796 693e 177e 63bd
00000180: 7d69 acbe cd9e 86be 0f3e 58be bfbe 5fbc
00000190: e6b4 35be 0ce8 463e 0a18 49be 7a90 823d
000001a0: f20e 323e 4b30 23be fe6d b93c b0b6 33bd
000001b0: 0981 9dbd bf9e 30bd c971 b83c e7e1 4c3e
000001c0: 39cf 0ebd b42f 5dbc b643 803d a96f bfbd
000001d0: b81a 883d a2be 943b 8d23 e03d a98f c63d
000001e0: b6a1 8a3e d6c3 003e 4c35 a73e 1d72 4cbe
000001f0: ef13 82be a0f7 9dbe 8a54 09be 0f8f 3bbe
00000200: 8d1c 39be 819f 153e f297 b13e d5f8 463e
00000210: 1630 8b3d 3dcd 853e e52a b8bc 71b8 88bd
00000220: 75db 0a3e 9b6f fc3d 3a34 26be b3a1 5abc
00000230: a22a bbbc f620 0dbe 3325 193d 7127 b73d
00000240: 6f99 873e aeb2 bd3d 71d7 a23d 6a1f 073e
00000250: 6b67 4f3e d8bd 3fbc 42eb abbe e62b cfbe
00000260: d17f dcbe 889d 3e3e 5bf4 4c3e be40 503e
00000270: c766 5e3d 251a 01be e532 ccbd fca9 06be
00000280: 1ba9 8dbe 47e7 fdbd 7ade cfbc 607f 60bd
00000290: af4a 723d 03e6 16bb 75df 16bd fa7f 03be
000002a0: cd28 6a3c e7dc d93d 95a3 8cbc 2f13 46be
000002b0: 202c acbd 8b46 2cbc 4d99 d3bd 9279 77be
000002c0: cd15 cdbd 33f8 2abe d731 bcbd 0ac3 223d
000002d0: c0f2 423d fc6b 073e 93fd e3bd 71de 87bd
000002e0: d532 173e f7d8 5a3e 5978 0a3d 12f1 66bd
000002f0: 0286 f53c 0cac 17bd e870 ae3d be60 66bc
00000300: f509 6dbd 6079 93be 496c 96bd 00ec ec3c
00000310: a481 fcbb 3aa6 143e 6c2e f4ba 9ed1 273e
00000320: b407 37be 9a5a 013e 49fe 9cbc 0250 12be
00000330: 55fa fc3c d178 143e 39d8 b5bd 589a 483e
00000340: a509 223e e003 103e be96 c83d 833f 0fbe
00000350: c885 ff3d adaa 913c 9cd1 d23d 5da4 8b3e
00000360: f1ed a3be ef47 27be 1763 53be aacf 29be
00000370: b493 4abd 379b 2e3e 230d a53d 970e 4e3e
00000380: 2c74 723e f6fc 2dbd 0468 023e 758a ab3d
00000390: 3e0e e9bd 3a0d 07be a35c 4a3c 2032 633d
000003a0: c03f 8ebd 1334 ff3d 04f8 e3bd f67a 5abe
000003b0: f479 9fbe 7abb 65be ba54 9cbe 9713 80bd
000003c0: caae 45be 9f6c 24be 34da 91bc 1396 40be
000003d0: 28b6 ce3d 3383 e93d ef04 3ebe a384 a3be
000003e0: 80b0 a63c 810b 03be 3be7 04be a824 f93d
000003f0: c0e0 033d b747 27be 19da 48be 9607 17ba

conv3.bias f4 [32]
-0.20045343 -0.2703331 -0.2180895 -0.4112358 -0.101784065 -0.04094856 -0.36081833 -0.4534746
-0.36718294 -0.027788792 -0.33497202 -0.36197278 -0.32258618 -0.31078705 -0.0015766661 0.13681991
-0.5090118 -0.33665907 -0.18241602 -0.49007368 -0.49842566 0.025219692 -0.2724331 -0.29535314
-0.3185009 -0.5490344 -0.41242722 -0.24080703 -0.33318913 -0.10404943 -0.37696278 -0.18244763
00000000: aa43 4dbe 1a69 8abe db52 5fbe 808d d2be
00000010: 2a74 d0bd adb9 27bd 2ebd b8be d32d e8be
00000020: 67ff bbbe 52a5 e3bc 7481 abbe 7f54 b9be
00000030: 042a a5be 7b1f 9fbe 23a8 ceba 851a 0c3e
00000040: 994e 02bf 945e acbe 44cb 3abe f0ea fabe
00000050: a631 ffbe 8799 ce3c 5a7c 8bbe 8738 97be
00000060: 8d12 a3be 858d 0cbf a929 d3be 1e96 76be
00000070: c497 aabe de17 d5bd 4401 c1be 8dd3 3abe

bn3.weight f4 [32]
0.9416923 0.9232327 0.9519824 1.0119681 1.0935305 0.95848835 1.023364 0.9849968
0.9154656 0.9384288 0.7976274 1.007971 0.9057829 1.1361008 0.8972067 0.8720158
1.0648559 0.99206746 0.96122366 1.002733 1.0634962 1.0723269 1.1170584 0.7312382
1.0281956 0.93861556 0.9788585 0.8247683 0.8977489 0.6885387 1.1119944 1.0093848
00000000: bf12 713f fa58 6c3f 1eb5 733f 2c88 813f
00000010: cff8 8b3f 7e5f 753f 97fd 823f c028 7c3f
00000020: f45b 6a3f df3c 703f 4f31 4c3f 3205 813f
00000030: 63e1 673f c06b 913f 57af 653f 6d3c 5f3f
00000040: 334d 883f 22f8 7d3f c112 763f 8e59 803f
00000050: a520 883f 0242 893f c5fb 8e3f 6d32 3b3f
00000060: ea9b 833f 1c49 703f 7896 7a3f 0424 533f
00000070: dfd2 653f 1244 303f d555 8e3f 8533 813f

bn3.bias f4 [32]
0.21376887 0.27758572 -0.17908017 0.16998455 -0.028692262 -0.09947108 -0.20761456 -0.16361675
-0.64044523 -0.35958728 -0.61130846 0.19443709 0.23954466 0.08610036 0.23580217 0.33610848
0.21373887 0.23114799 0.60520464 0.24623981 -0.27844217 0.063391685 0.47810167 -0.015910394
0.15316465 -0.040888723 -0.1678139 -0.47058606 0.29774657 -0.43871996 0.15103966 0.28648633
00000000: 3ae6 5a3e b71f 8e3e cb60 37be 6e10 2e3e
00000010: 090c ebbc 7eb7 cbbd e998 54be 268b 27be
00000020: 38f4 23bf d31b b8be b67e 1cbf 841a 473e
00000030: 324b 753e 6355 b03d 2076 713e 6916 ac3e
00000040: 5dde 5a3e 0fb2 6c3e b1ee 1a3f 4a26 7c3e
00000050: f98f 8ebe 80d3 813d bec9 f43e 8456 82bc
00000060: 32d7 1c3e ef7a 27bd 68d7 2bbe a8f0 f0be
00000070: 3d72 983e e79f e0be 24aa 1a3e 56ae 923e

bn3.running_mean f4 [32]
0.3206687 0.45346823 0.16444948 0.14019987 0.7476783 0.926321 0.10974874 0.1888848
0.3427682 0.6924782 0.1659522 0.18744406 0.08224882 0.59690946 0.29534718 1.7353721
0.065548874 0.18388166 0.3544712 0.16770478 0.49692383 0.49386644 0.49464554 0.06587295
0.12100616 0.21478991 0.19052874 0.56900567 0.13966005 0.5065115 0.43781358 0.50943387
00000000: b02e a43e fd2c e83e 7265 283e 8e90 0f3e
00000010: d867 3f3f 6023 6d3f f3c3 e03d 046b 413e
00000020: 507f af3e 4046 313f 60ef 293e 56f1 3f3e
00000030: 1272 a83d 0fcf 183f bf37 973e ac20 de3f
00000040: 7d3e 863d 794b 3c3e 407d b53e cdba 2b3e
00000050: cd6c fe3e 10dc fc3e 2e42 fd3e 66e8 863d
00000060: 14d2 f73d e3f1 5b3e f719 433e 5baa 113f
00000070: 0b03 0f3e bdaa 013f 1a29 e03e 426a 023f

bn3.running_var f4 [32]
2.132421 1.434954 0.7201967 0.74288785 4.2604666 0.8868707 0.5443217 0.70902807
1.4003557 2.731695 0.78904283 0.49760976 0.25347853 2.4935567 0.6527622 1.0845639
0.32798052 0.5415765 0.60636204 0.65877277 3.8356345 1.2693427 1.3446904 0.0709637
0.48100382 1.0433877 0.9920266 4.40758 0.53701895 2.5163894 3.0694091 1.3392012
00000000: 9679 0840 93ac b73f d05e 383f e62d 3e3f
00000010: be55 8840 f509 633f ab58 0b3f dd82 353f
00000020: db3e b33f 17d4 2e40 b6fe 493f b5c6 fe3e
00000030: f0c7 813e 6f96 1f40 6c1b 273f fdd2 8a3f
00000040: 10ed a73e c2a4 0a3f 8b3a 1b3f 55a5 283f
00000050: 097b 7540 d279 a23f d11e ac3f 6b55 913d
00000060: 2246 f63e ba8d 853f 75f5 7d3f e50a 8d40
00000070: 137a 093f 860c 2140 3371 4440 f26a ab3f

conv4.weight f4 [64, 32, 3, 3]
0.028704248 -0.044154506 -0.02785228 -0.36278954 -0.29031742 -0.28441322 -0.042067014 -0.15399398
-0.077525854 0.044410653 -0.040146906 0.025370505 -0.0891985 -0.14747046 -0.20837595 0.06443238
0.058847323 -0.17737198 -0.07466132 0.0051727043 0.022737205 -0.20084725 -0.21257833 0.036468133
0.043208312 0.13419743 -0.043310694 0.10503738 -0.09281813 -0.1957133 -0.09771089 -0.13821794
-0.14097789 -0.23604809 -0.23870175 0.0026972652 -0.03013128 -0.011605817 -0.1565593 -0.046587296
-0.00020594518 0.0055469363 -0.052481636 -0.027729578 -0.04169915 -0.02428835 -0.12056009 -0.078332216
-0.09526787 -0.045584906 -0.019574054 0.10045673 0.012551882 -0.07570677 0.19693623 0.13196948
0.11937235 0.050629307 -0.02240217 -0.018331353 0.08894396 -0.037621528 -0.058701877 0.10188949
0.07529249 0.17822836 -0.10802956 -0.15584242 -0.24001619 0.10733595 0.113625854 0.04261978
0.24506204 0.29264924 0.20414118 -0.12054426 -0.10411258 0.008131385 -0.016432075 0.11590606
0.05718207 0.15253082 0.15911898 0.09339199 0.1481649 -0.014432499 -0.11094305 0.0019018108
0.13475326 -0.03643958 0.055024497 -0.009813988 -0.054674204 0.06213221 0.0033051432 -0.0039949925
0.0760944 -0.05273885 0.10747921 -0.009936288 -0.27082285 -0.08625804 -0.019174255 0.10063067
-0.05930346 -0.24810857 -0.2332259 -0.32621706 -0.21124533 -0.30660215 -0.22318137 0.04896498
0.060791574 0.035762627 0.04508279 0.039068796 -0.028792612 -0.10857398 -0.041909784 0.051032435
-0.0031705063 0.019604716 -0.07871443 -0.29117116 -0.3622889 -0.3370637 0.0038917956 0.00082956534
-0.0918076 -0.13605897 -0.22560981 -0.23061045 -0.15630151 -0.24222739 -0.21901448 -0.15630668
-0.18013926 -0.11667296 0.104114704 0.15247026 0.13345927 0.00028955037 0.094336964 0.06646095
-0.038530473 -0.26666397 -0.0747899 -0.3167806 -0.19740984 -0.19272739 -0.17870887 -0.19071954
-0.13893564 -0.12035112 0.008378369 0.01582074 0.026108954 0.051333744 0.044876028 -0.0640567
-0.07658922 -0.0812087 -0.017362196 0.041078083 0.06654627 -0.02887378 0.002656457 0.099467784
0.016604006 0.05574185 0.1303447 -0.19594765 -0.25488323 -0.20894662 0.0064842934 -0.14101166
-0.08203803 -0.12353662 -0.14696409 -0.07709568 -0.16374761 -0.038953777 0.058011804 -0.10098827
-0.015495031 0.19020638 0.020739837 -0.045132708 -0.0071456423 0.028701566 -0.025013207 0.08142508
0.0857549 -0.011838793 0.057432614 0.07805062 0.028653046 0.027916942 -0.2649099 -0.17972061
-0.1923366 -0.14516218 -0.107972436 -0.13962379 -0.10358798 -0.14654918 -0.16012934 -0.048432246
-0.011264986 -0.006368596 -0.11070833 -0.16991402 -0.24446626 0.061328642 -0.044361826 -0.053758025
-0.16779481 -0.1508223 -0.0896168 -0.03798771 -0.11381824 -0.092239626 -0.13703038 -0.07606033
-0.07886963 -0.043162502 0.033392176 -0.037326068 0.07067234 0.09855675 0.07498631 0.085293934
-0.045004245 0.15516265 -0.1237203 -0.24276862 -0.119016185 0.0016601235 -0.07006084 -0.016493198
0.01242405 -0.086893536 0.043736365 -0.037498698 -0.0127429925 -0.07064245 0.047133915 0.0018907684
-0.04730866 0.001881184 -0.101312175 -0.11342907 -0.20883323 -0.062196817 -0.30863637 -0.44965133
00000000: 2c25 eb3c 5bdb 34bd 772a e4bc 8dbf b9be
00000010: 7ca4 94be 9c9e 91be 764e 2cbd 99b0 1dbe
00000020: e0c5 9ebd f2e7 353d 1571 24bd ced5 cf3c
00000030: b4ad b6bd 7f02 17be 8160 55be 20f5 833d
00000040: e409 713d 00a1 35be 09e8 98bd ca7f a93b
00000050: 6043 ba3c e7aa 4dbe 22ae 59be 9c5f 153d
00000060: 33fb 303d 0d6b 093e 8e66 31bd d61d d73d
00000070: 6f17 bebd 1169 48be a61c c8bd 0189 0dbe
00000080: 825c 10be 97b6 71be 3b6e 74be 9ac4 303b
00000090: e0d5 f6bc 5326 3ebc 1551 20be 52d2 3ebd
000000a0: fdf2 57b9 13c3 b53b fcf6 56bd 2429 e3bc
000000b0: bacc 2abd 5df8 c6bc 35e8 f6bd a46c a0bd
000000c0: cd1b c3bd 3db7 3abd c459 a0bc 42bc cd3d
000000d0: 69a6 4d3c 270c 9bbd a7a9 493e 0223 073e
000000e0: 7e79 f43d ad60 4f3d c184 b7bc a22b 96bc
000000f0: 4028 b63d 0819 1abd 6171 70bd 70ab d03d
00000100: f332 9a3d 7f81 363e 9a3e ddbd 2895 1fbe
00000110: cec6 75be f3d2 db3d acb4 e83d 1492 2e3d
00000120: 8bf1 7a3e 1fd6 953e 630a 513e e9df f6bd
00000130: fa38 d5bd 8039 053c 8f9c 86bc 2860 ed3d
00000140: bf37 6a3d 0a31 1c3e 16f0 223e 4d44 bf3d
00000150: 8ab8 173e 4a76 6cbc 1c36 e3bd 2e46 f93a
00000160: c2fc 093e ab41 15bd 5e61 613d d9ca 20bc
00000170: 0ff2 5fbd 587e 7e3d 1a9b 583b 6de8 82bb
00000180: 61d7 9b3d b104 58bd 0f1e dc3d d0cb 22bc
00000190: 4ba9 8abe 0ea8 b0bd 5413 9dbc 7417 ce3d
000001a0: 2fe8 72bd 2c10 7ebe c5d2 6ebe ec05 a7be
000001b0: b250 58be f5fa 9cbe a889 64be 818f 483d
000001c0: 9600 793d d57b 123d bba8 383d 9a06 203d
000001d0: 7cde ebbc 095c debd 98a9 2bbd 6307 513d
000001e0: 45c8 4fbb 129a a03c 0835 a1bd 6314 95be
000001f0: ee7d b9be 9d93 acbe 7f0d 7f3b 3077 593a
00000200: 9f05 bcbd 0b53 0bbe 4206 67be 2525 6cbe
00000210: 810d 20be 750a 78be 5545 60be dc0e 20be
00000220: 6d76 38be 3cf2 eebd 173a d53d 2a21 1c3e
00000230: 8ca9 083e cbce 9739 bd33 c13d ae1c 883d
00000240: 21d2 1dbd 2e88 88be 722b 99bd 1131 a2be
00000250: ce25 4abe 545a 45be 75ff 36be fc4b 43be
00000260: 2545 0ebe a67a f6bd 6d45 093c 7f9a 813c
00000270: 72e2 d53c 5543 523d edcf 373d 2930 83bd
00000280: cfda 9cbd bf50 a6bd 2a3b 8ebc 7e41 283d
00000290: 6949 883d b588 ecbc f417 2e3b c4b5 cb3d
000002a0: 2005 883c 9151 643d 1579 053e 80a6 48be
000002b0: 0e80 82be 1af6 55be 327a d43b 5c65 10be
000002c0: 8e03 a8bd c400 fdbd c17d 16be 57e4 9dbd
000002d0: 74ad 27be ff8d 1fbd c99d 6d3d f0d2 cebd
000002e0: dfde 7dbc 76c5 423e 97e6 a93c 13dd 38bd
000002f0: fe25 eabb 8c1f eb3c 7fe8 ccbc 31c2 a63d
00000300: 44a0 af3d 7ff7 41bc 763e 6b3d 01d9 9f3d
00000310: cbb9 ea3c 12b2 e43c 45a2 87be ae08 38be
00000320: e3f3 44be 65a5 14be a720 ddbd 8af9 0ebe
00000330: ef25 d4bd fd10 16be f2f8 23be e460 46bd
00000340: c790 38bc a8af d0bb 0dbb e2bd f1fd 2dbe
00000350: 5d55 7abe be33 7b3d bfb4 35bd 6031 5cbd
00000360: 67d2 2bbe 2971 1abe 0389 b7bd 0099 1bbd
00000370: 8a19 e9bd 21e8 bcbd b151 0cbe 85c5 9bbd
00000380: 6786 a1bd 2acb 30bd 3cc6 083d 38e3 18bd
00000390: a9bc 903d 1fd8 c93d 6c92 993d 96ae ae3d
000003a0: 5f56 38bd f5e2 1e3e 1261 fdbd 5698 78be
000003b0: c2be f3bd 8098 d93a 0f7c 8fbd be1c 87bc
000003c0: 3e8e 4b3c 3df5 b1bd e724 333d 3c98 19bd
000003d0: fcc7 50bc fdac 90bd 7e0f 413d a9d3 f73a
000003e0: bac6 41bd 1092 f63a c27c cfbd 804d e8bd
000003f0: 61d8 55be 17c2 7ebd 9605 9ebe b338 e6be

conv4.bias f4 [64]
-0.10417184 -0.42025718 -0.21711372 -0.12563667 0.17530246 -0.3124294 -0.14436837 -0.22075295
-0.1695867 -0.1560724 -0.07977653 0.05289353 -0.44351336 -0.28473955 0.15019247 -0.21268262
-0.37583855 -0.4826078 -0.3382733 -0.3261704 -0.3811772 0.0044841818 -0.3427306 -0.33753526
-0.5297787 -0.20849298 -0.46293062 -0.345109 -0.26643255 -0.024417533 -0.1577187 -0.48542723
0.07905076 -0.3380285 -0.39457697 0.09698158 -0.23525062 -0.15480064 -0.13313267 -0.24909241
-0.54367644 -0.031335305 -0.18479705 -0.39436027 -0.31671423 -0.30376327 0.07890831 -0.09482033
-0.35439697 -0.3302897 0.010374183 -0.28931138 -0.42250195 -0.18809298 -0.3009478 -0.100384556
-0.2967759 -0.2820388 -0.4349448 0.014322626 -0.25444868 -0.03146523 -0.58364487 -0.3019896
00000000: 0c58 d5bd f32b d7be 0f53 5ebe e6a6 00be
00000010: 7d82 333e bff6 9fbe 4dd5 13be 100d 62be
00000020: 23a8 2dbe 71d1 1fbe e161 a3bd e3a6 583d
00000030: 2f14 e3be 62c9 91be 0ecc 193e 79c9 59be
00000040: e96d c0be 5f18 f7be 2832 adbe cfff a6be
00000050: a829 c3be 0bf0 923b 637a afbe 6cd1 acbe
00000060: 949f 07bf 2f7f 55be 3e05 edbe 20b2 b0be
00000070: d969 88be 4707 c8bc 0381 21be eb89 f8be
00000080: 5de5 a13d 1212 adbe fe05 cabe 479e c63d
00000090: 8ae5 70be 0f84 1ebe ee53 08be 1512 7fbe
000000a0: 612e 0bbf 7359 00bd 703b 3dbe 97e9 c9be
000000b0: 5e28 a2be dc86 9bbe ae9a a13d 2931 c2bd
000000c0: 8573 b5be bb1b a9be 7af8 293c 9f20 94be
000000d0: 2d52 d8be 729b 40be d415 9abe 6b96 cdbd
000000e0: 03f3 97be 6467 90be 16b1 debe 73a9 6a3c
000000f0: 1947 82be afe1 00bd c069 15bf 619e 9abe

bn4.weight f4 [64]
3.173454 3.9531407 2.8354573 2.759576 1.38111 4.085535 2.3304465 3.265389
3.1820257 3.5617723 1.98424 1.446233 3.633975 2.82674 1.4989988 3.5709906
3.740093 3.3884776 4.236365 3.8279955 3.8355534 2.8062308 4.3746057 3.946384
4.167746 3.0923688 3.9511838 3.6765108 3.8660588 2.4565344 3.0518353 3.8434637
1.6847372 3.814177 4.463447 1.9111453 3.4444635 3.8985283 2.6308203 3.710041
4.3598957 2.3539062 3.71809 3.257607 3.1301591 3.5456693 3.4296193 2.4714305
3.6485798 3.974839 2.3843331 3.56922 3.648873 3.2247806 3.0858846 3.255927
3.7505677 3.569397 3.748825 1.3568504 3.642007 2.76102 4.331357 3.631712
00000000: df19 4b40 4200 7d40 2278 3540 e59c 3040
00000010: 36c8 b03f b4bc 8240 0926 1540 22fc 5040
00000020: 4fa6 4b40 14f4 6340 94fb fd3f 2a1e b93f
00000030: 0c93 6840 4fe9 3440 31df bf3f 1c8b 6440
00000040: af5d 6f40 d1dc 5840 4d90 8740 e1fd 7440
00000050: b579 7540 4999 3340 c5fc 8b40 8e91 7c40
00000060: 2d5e 8540 5fe9 4540 32e0 7c40 f44b 6b40
00000070: 826d 7740 dc37 1d40 4551 4340 4ffb 7540
00000080: 78a5 d73f 7a1b 7440 8fd4 8e40 69a0 f43f
00000090: 1772 5c40 7d81 7940 5c5f 2840 5071 6d40
000000a0: 4484 8b40 66a6 1640 30f5 6d40 a27c 5040
000000b0: 8754 4840 3fec 6240 e27e 5b40 eb2b 1e40
000000c0: 5582 6940 c363 7e40 ea98 1840 1a6e 6440
000000d0: 2387 6940 ce62 4e40 227f 4540 1c61 5040
000000e0: 4d09 7040 0071 6440 c0ec 6f40 46ad ad3f
000000f0: a516 6940 8db4 3040 7a9a 8a40 f86d 6840

bn4.bias f4 [64]
-0.1641525 0.15428053 0.12795159 -0.25666994 0.27154282 0.2959719 -0.23255742 0.18177374
-0.14403756 -0.2921531 0.20288819 -0.12926057 -0.19158736 -0.11511034 -0.15880325 0.17144507
-0.32196268 -0.32554433 -0.11048019 -0.13255914 -0.19939268 -0.168966 -0.13173763 -0.13033602
-0.27971935 0.14411147 -0.18855712 -0.081460275 -0.15719633 0.1967388 0.16662508 -0.22667204
-0.15203166 0.13985914 -0.24571522 -0.26283398 -0.19050357 0.33186913 0.19569254 -0.12415407
0.27692544 0.32229444 -0.18924014 0.06523747 -0.24691615 0.12479303 0.37853974 -0.20207854
-0.22785755 0.30659977 0.38180095 0.2966676 0.17449343 -0.22685947 0.06900308 -0.1657248
-0.23638055 -0.12064506 0.29832843 -0.22385761 -0.24754432 -0.12220478 -0.21897544 -0.1747756
00000000: 9817 28be b7fb 1d3e be05 033e 3e6a 83be
00000010: a907 8b3e a189 973e 8823 6ebe e522 3a3e
00000020: 957e 13be 1795 95be ecc1 4f3e e25c 04be
00000030: 7a2f 44be f8be ebbd 529d 22be 4c8f 2f3e
00000040: 4bd8 a4be bfad a6be 7043 e2bd 95bd 07be
00000050: 982d 4cbe 6c05 2dbe 3be6 06be ce76 05be
00000060: 6037 8fbe f591 133e 1e15 41be a5d4 a6bd
00000070: 13f8 20be e575 493e c49f 2a3e b71c 68be
00000080: 30ae 1bbe 3c37 0f3e c59c 7bbe 2d92 86be
00000090: 5e13 43be c0ea a93e a063 483e 7d44 febd
000000a0: 2cc9 8d3e c703 a53e 2bc8 41be 399b 853d
000000b0: 96d7 7cbe 7d93 ff3d f6cf c13e aded 4ebe
000000c0: 7d53 69be a5fa 9c3e 6a7b c33e d1e4 973e
000000d0: 68ae 323e d94d 68be 7d51 8d3d c3b3 29be
000000e0: be0d 72be c214 f7bd 81be 983e ee3a 65be
000000f0: 427c 7dbe 8046 fabd 193b 60be 60f8 32be

bn4.running_mean f4 [64]
0.007056331 0.022541188 0.25090265 0.1810173 1.3471476 0.012088428 0.34088713 0.094995774
0.044114236 0.044339612 0.14580475 0.8525371 0.037068367 0.027773045 1.443108 0.034014903
0.046178494 0.035905093 0.020363234 0.012490353 0.024098774 0.07992934 0.016632758 0.02674012
0.010179385 0.14491718 0.009192259 0.03511169 0.00859533 0.16600917 0.20489264 0.033471085
0.18729009 0.025555251 0.025988124 0.9104492 0.0111655835 0.04116706 0.045759898 0.022869138
0.011424434 0.08373969 0.019078784 0.11493397 0.07009662 0.042520475 0.021577869 0.024219487
0.017778356 0.035598822 0.08515374 0.04901639 0.02749718 0.035190534 0.12501454 0.037912928
0.015198618 0.045234185 0.024614679 0.38469395 0.02782702 0.013383779 0.007876483 0.01306474
00000000: cb38 e73b 4ca8 b83c 5076 803e 995c 393e
00000010: 556f ac3f 8b0e 463c c288 ae3e 258d c23d
00000020: 21b1 343d 749d 353d d74d 153e df3f 5a3f
00000030: 00d5 173d 4c84 e33c c3b7 b83f 3653 0b3d
00000040: a925 3d3d 3811 133d ccd0 a63c 56a4 4c3c
00000050: cb6a c53c feb1 a33d 6c41 883c 190e db3c
00000060: 6fc7 263c 2b65 143e 219b 163c 47d1 0f3d
00000070: 6dd3 0c3c 4ffe 293e 60cf 513e fa18 093d
00000080: f9c8 3f3e 3f59 d13c 0ce5 d43c 3313 693f
00000090: daef 363c cb9e 283d bb6e 3b3d 0f58 bb3c
000000a0: 8d2d 3b3c b77f ab3d 1c4b 9c3c 8062 eb3d
000000b0: d18e 8f3d f329 2e3d 12c4 b03c f267 c63c
000000c0: eaa3 913c 12d0 113d 1665 ae3d 69c5 483d
000000d0: c441 e13c f323 103d d003 003e 964a 1b3d
000000e0: a003 793c 7b47 393d b9a4 c93c 9bf6 c43e
000000f0: 7ef5 e33c a347 5b3c 5d0c 013c 7e0d 563c

bn4.running_var f4 [64]
0.010032644 0.06754145 0.74341875 0.48741767 0.9241505 0.043267597 0.9704519 0.33459255
0.13748668 0.10980416 0.6247984 0.68778837 0.18098453 0.071748324 0.7797254 0.11567277
0.11585066 0.09012223 0.04725475 0.054303735 0.098655105 0.22767307 0.046366062 0.079887226
0.03361083 0.4458921 0.02633439 0.1268056 0.025769252 0.28701016 0.6686231 0.12968837
0.18860288 0.06804217 0.08604603 1.0131013 0.02579992 0.13778976 0.107203804 0.063754685
0.04671663 0.08997329 0.06450851 0.42599627 0.19503772 0.17115913 0.06483872 0.03466751
0.056695268 0.12785591 0.1129609 0.15865807 0.1024855 0.13336188 0.39094153 0.13106199
0.04670415 0.1483905 0.0974811 0.4079065 0.086941466 0.018275637 0.028890485 0.02829906
00000000: f55f 243c 2c53 8a3d b150 3e3f cf8e f93e
00000010: 2195 6c3f 5d39 313d 896f 783f b74f ab3e
00000020: 4fc9 0c3e 01e1 e03d caf2 1f3f e612 303f
00000030: 0254 393e c9f0 923d 159c 473f d8e5 ec3d
00000040: 1c43 ed3d 0192 b83d 328e 413d 986d 5e3d
00000050: b00b ca3d 2123 693e 57ea 3d3d ea9b a33d
00000060: 82ab 093d f84b e43e 38bb d73c 54d9 013e
00000070: 0a1a d33c fff2 923e e22a 2b3f 07cd 043e
00000080: 1d21 413e b159 8b3d e738 b03d 4ead 813f
00000090: 5b5a d33c c218 0d3e ab8d db3d d191 823d
000000a0: f059 3f3d eb43 b83d 0a1d 843d 2f1c da3e
000000b0: f8b7 473e 5744 2f3e 2aca 843d 85ff 0d3d
000000c0: 4c39 683d a9ec 023e 0b58 e73d 4377 223e
000000d0: ebe3 d13d 0490 083e 7d29 c83e 1d35 063e
000000e0: da4c 3f3d aef3 173e 2ca4 c73d 1fd9 d03e
000000f0: 5e0e b23d cab6 953c bdab ec3c 6ed3 e73c

lin.weight f4 [10, 64]
-0.32826564 1.6938306 0.7949717 0.17407167 -0.26185644 -0.4789094 -0.06802905 0.3027902
-0.3015256 0.23260115 0.37381908 -0.346199 0.37970892 -1.1311864 -0.30762804 1.3258528
0.38033283 0.674812 -1.3351337 -0.9162416 -0.9192728 0.06337235 -0.6882828 -0.82787997
-0.16662686 0.23290518 -0.95130825 -1.5127499 -0.64991134 0.38558677 0.6449827 0.09593231
-0.3602594 1.7179904 0.24686639 -0.049168862 -0.15230069 -0.93745846 0.7569016 -0.9483356
-1.1991979 -0.3096154 -0.27356866 1.3808336 0.3102671 1.9235415 -0.5145479 0.012981073
-0.33007276 0.29675215 -0.26582453 -0.4157069 1.3782206 0.2579141 1.4833376 -1.1266615
0.21007675 -1.3380429 -0.6590186 -0.064972155 0.65791374 -0.8253941 -0.69939667 -0.42750853
-0.01794656 -0.7233366 0.45763913 -0.6037997 0.26838684 -0.34030524 -0.16496046 -0.02279077
-0.8351832 0.7121094 -0.63680345 0.045531467 1.3275477 0.9006217 -0.053689342 -0.13259108
-0.54688865 -0.80345243 -0.13843311 -0.58906317 1.3832381 -0.7668035 -0.9159391 -0.8113782
1.475299 1.0215025 1.5242065 0.77356297 -0.14881124 0.39515558 0.20063755 -0.92927366
-0.022634821 -0.22729266 -0.83780736 0.004903718 -0.7674234 0.63669056 -0.24896646 -0.51886207
1.5832797 0.4068873 -0.17504054 0.64831805 -0.9138642 -1.3296312 0.39638647 -0.3608427
-0.52740645 -1.2428293 0.38119417 0.09257704 -2.0667286 -0.3875378 0.32992238 0.8182514
-0.5612466 1.1026719 1.0884045 -0.15596126 -0.554544 -0.15795512 1.7770822 0.08036503
1.4398694 -0.34810102 -1.7823385 -0.64444906 0.20289487 -0.13394031 -0.20040773 -1.6915598
0.35671303 -0.689118 0.36301994 0.41640165 -0.3033902 0.74990255 0.42234093 0.7859226
-0.26349932 -0.36660865 -0.5339514 0.30909008 -0.41677505 0.9291066 1.4316362 0.74037874
-0.5876421 -1.4830084 0.057653677 -0.25574762 2.3166661 0.55558544 -1.8680133 -0.3180725
0.17063934 -0.24304749 -0.5906515 0.7192216 0.1277835 0.30174473 0.4785046 -0.3305996
-0.20702289 0.005476274 2.375945 -1.608156 0.3270606 0.34825364 0.55483025 0.9093793
-0.48459616 -0.055349678 0.2144383 -1.147454 0.4267233 1.3781646 -1.5760032 -0.012771152
-0.1862224 -0.4673096 -0.29720628 0.44973525 1.2522651 -0.027703254 -0.35262975 2.1841218
-0.35372382 -0.3071799 0.1602788 0.1628887 -0.020193504 0.33783233 0.72301483 0.9898096
-0.032997966 -0.5282667 -0.08953819 -0.2798092 -1.223308 -0.12953427 -0.22641253 -1.7902964
1.2176719 0.3222926 0.46397725 0.41004232 -0.42019284 -0.30711505 1.8063263 -0.19002096
-0.89443004 0.13570936 -0.6076322 1.5774899 0.18575309 -0.8736369 0.5672838 -0.25106117
-0.35101086 -0.607068 -0.6713527 -0.5919908 1.4261041 0.96394265 -0.79060745 2.364696
-0.12514882 0.048485696 -0.621284 -1.1398575 0.7375725 -1.2036012 0.21838099 -0.37816417
1.7117659 0.9691652 -0.27504006 1.2438605 -0.15726735 -0.84341496 -1.1131707 0.35548937
-0.64495814 1.0679114 -0.07267041 -0.18716075 -0.57796746 0.6535556 -0.77168804 -0.46399552
00000000: 6f12 a8be 71cf d83f 4483 4b3f d83f 323e
00000010: 0c12 86be 9d33 f5be d152 8bbd 5107 9b3e
00000020: 9061 9abe ff2e 6e3e 3765 bf3e ff40 b1be
00000030: 3569 c23e b7ca 90bf 6c81 9dbe 8bb5 a93f
00000040: fcba c23e 7bc0 2c3f a9e5 aabf cf8e 6abf
00000050: 7655 6bbf 5dc9 813d 4d33 30bf f1ef 53bf
00000060: 3ba0 2abe b27e 6e3e f088 73bf caa1 c1bf
00000070: 9760 26bf a16b c53e 961d 253f 2978 c43d
00000080: ec73 b8be 1ce7 db3f 8bca 7c3e 4a65 49bd
00000090: b6f4 1bbe 47fd 6fbf 4ec4 413f 1fc6 72bf
000000a0: 517f 99bf e985 9ebe 3111 8cbe 28bf b03f
000000b0: 54db 9e3e 9c36 f63f 69b9 03bf 91ae 543c
000000c0: 4cff a8be e6ef 973e 271a 88be 89d7 d4be
000000d0: 8869 b03f 510d 843e 02de bd3f 7236 90bf
000000e0: 5c1e 573e fd44 abbf 71b5 28bf 1f10 85bd
000000f0: 096d 283f 074d 53bf a90b 33bf 66e2 dabe
00000100: aa04 93bc 962c 39bf ad4f ea3e 9e92 1abf
00000110: 006a 893e 7d3c aebe 65eb 28be b5b3 babc
00000120: 91ce 55bf cd4c 363f 8d05 23bf 347f 3a3d
00000130: 15ed a93f 258f 663f 5be9 5bbd f5c5 07be
00000140: e500 0cbf 0faf 4dbf 69c1 0dbe d8cc 16bf
00000150: f20d b13f 3c4d 44bf fc7a 6abf 7bb6 4fbf
00000160: 99d6 bc3f 98c0 823f 3319 c33f 3908 463f
00000170: f961 18be d551 ca3e ee73 4d3e e1e4 6dbf
00000180: a96c b9bc 68bf 68be 8b7a 56bf 5eaf a03b
00000190: dc75 44bf 27fe 223f 10f1 7ebe 25d4 04bf
000001a0: e9a8 ca3f 8853 d03e d43d 33be 2cf8 253f
000001b0: 01f3 69bf 5b31 aabf 2bf3 ca3e 60c0 b8be
000001c0: 1c04 07bf 0815 9fbf e22b c33e 0899 bd3d
000001d0: 4845 04c0 5b6b c6be 96eb a83e ec78 513f
000001e0: dbad 0fbf 5a24 8d3f d750 8b3f 4fb4 1fbe
000001f0: 98f6 0dbf fdbe 21be 6e77 e33f 6c96 a43d
00000200: a44d b83f 4c3a b2be ab23 e4bf 9dfa 24bf
00000210: acc3 4f3e a627 09be af37 4dbe 0885 d8bf
00000220: 17a3 b63e 0a6a 30bf c0dd b93e 9932 d53e
00000230: f655 9bbe 9df9 3f3f 123d d83e 3932 493f
00000240: 62e9 86be 21b4 bbbe 0ab1 08bf 0e41 9e3e
00000250: 8a63 d5be eed9 6d3f db3f b73f 7689 3d3f
00000260: b66f 16bf 38d3 bdbf 4326 6c3d 5af1 82be
00000270: 4244 1440 d93a 0e3f 0f1b efbf 66da a2be
00000280: 14bc 2e3e 71e1 78be f034 17bf e81e 383f
00000290: aed9 023e 497e 9a3e 8efe f43e 5a44 a9be
000002a0: cffd 53be 5172 b33b 7c0f 1840 0ed8 cdbf
000002b0: 7d74 a73e 4d4e b23e 5b09 0e3f 15cd 683f
000002c0: fd1c f8be 58b6 62bd b795 5b3e c6df 92bf
000002d0: 7a7b da3e b367 b03f 79ba c9bf 183e 51bc
000002e0: 16b1 3ebe 3443 efbe 6c2b 98be b343 e63e
000002f0: 394a a03f eff1 e2bc e38b b4be a7c8 0b40
00000300: 4a1b b5be af46 9dbe 2020 243e 4ccc 263e
00000310: d96c a5bc 5cf8 ac3e 8017 393f 2964 7d3f
00000320: e028 07bd 7d3c 07bf cc5f b7bd 2743 8fbe
00000330: 5b95 9cbf a2a4 04be b0d8 67be 6f28 e5bf
00000340: acdc 9b3f 8903 a53e 6d8e ed3e 11f1 d13e
00000350: 8423 d7be 2f3e 9dbe b335 e73f db94 42be
00000360: 5ef9 64bf 65f7 0a3e c98d 1bbf 30eb c93f
00000370: 0f36 3e3e aba6 5fbf 8339 113f 178b 80be
00000380: b2b7 b3be cf68 1bbf c5dd 2bbf b68c 17bf
00000390: 948a b63f f2c4 763f 4065 4abf 2e57 1740
000003a0: 0327 00be f098 463d 780c 1fbf dae6 91bf
000003b0: 8dd1 3c3f 9b0f 9abf 449f 5f3e bc9e c1be
000003c0: 251b db3f 361b 783f 0dd2 8cbe d236 9f3f
000003d0: b10a 21be 0bea 57bf 617c 8ebf b402 b63e
000003e0: fa1b 25bf 52b1 883f 39d4 94bd 11a7 3fbe
000003f0: adf5 13bf 6b4f 273f 598d 45bf d290 edbe

lin.bias f4 [10]
0.12960757 0.18615055 0.07783338 0.03411074 0.11800665 -0.37456504 -0.43243444 -0.1668592
-0.42289656 -0.25077322
00000000: d9b7 043e 409e 3e3e 1b67 9f3d b4b7 0b3d
00000010: 78ad f13d fdc6 bfbe 0c68 ddbe 23dd 2abe
00000020: e685 d8be 5965 80be
