NCC_Code/Models/2022-07-10_16-40-40_model.pt (torch, 115275 bytes, 50 tensors)

conv1.weight f4 [8, 2, 5, 5]
0.26069406 0.25914815 0.066486806 0.5739522 0.4350661 0.24801561 0.36169687 0.5041299
0.16313407 0.45342773 -0.01856734 -0.13057785 -0.28213048 -0.1993417 -0.24430102 0.13482575
-0.21724959 -0.13916461 -0.13945885 0.10380934 0.2942645 0.13725631 0.32811478 0.22154427
-0.0077398056 -0.17479262 0.17011088 0.24014421 0.17311163 0.10826415 -0.14621662 0.0079759415
-0.083098106 0.070131846 -0.1525861 -0.038630467 -0.3128902 0.054270577 -0.097798824 -0.13814652
-0.10122045 0.14120209 -0.17023425 -0.18900931 -0.37211972 -0.24322623 -0.053792857 -0.17898728
-0.033334542 0.12106217 0.43348363 -0.023032526 -0.13232581 -0.41164762 -0.41892782 -0.13435648
-0.30472082 -0.1959038 -0.39111313 0.13213025 0.19212475 -0.08952774 -0.11433849 -0.08366589
0.033561196 0.016499411 0.011877953 -0.06823072 -0.054621626 0.08422382 -0.24371241 -0.05654943
-0.10689551 -0.49746704 -0.34411728 -0.10604279 0.18134595 0.24099244 0.24515289 -0.051292438
-0.09210556 -0.10267074 -0.3136301 -0.16879082 -0.43339464 -0.24230045 -0.15997681 -0.19637173
-0.17830516 -0.15827169 0.2263772 0.19021575 0.15380402 0.018767186 -0.111235276 -0.04175095
-0.2127648 -0.20818318 0.09879661 0.027797397 0.18920247 0.19268504 0.09087785 0.2558892
-0.0054081795 0.2775679 0.18543068 0.3593323 0.023555037 -0.15587626 0.014945313 0.08307542
-0.077163056 0.0239596 0.0448726 -0.089204594 -0.41917625 0.14813483 -0.40386713 -0.30774543
0.11493042 -0.1583174 -0.16414624 -0.3597844 -0.27738914 0.08763306 0.04536348 0.16220969
0.06851891 0.16733903 0.17288046 0.28060228 0.021932067 0.26418194 0.27391642 0.15050665
0.16167752 0.07827669 0.0972839 -0.04246853 -0.18711802 -0.14045887 -0.43328145 0.07937708
0.010566383 -0.37413576 -0.008992958 0.005043332 0.091854975 0.1291446 0.036123004 -0.14132394
-0.1294861 -0.2478844 -0.2915465 0.23738086 0.027732711 -0.058721796 -0.0953328 -0.013322474
0.105679594 -0.20259857 0.077825114 0.17177688 -0.105220295 0.067316204 -0.11962486 -0.2664689
0.088110365 0.21031313 0.19691089 0.39727798 0.32705784 0.2471547 0.1073592 -0.049789086
-0.020616794 -0.11464315 -0.05897092 -0.045374736 -0.10919382 0.023733493 0.12845436 0.022085825
0.012442348 -0.039297674 0.1399792 -0.25479117 -0.23039763 0.1188182 -0.26505563 -0.16101553
0.0725806 -0.20908985 -0.2768357 0.20451845 0.22934775 0.1930858 0.117565095 0.0962871
-0.34672132 -0.20069854 -0.37641174 -0.6008719 -0.11218321 -0.21471874 -0.06814739 0.059427112
0.124380134 -0.07166096 -0.022660553 0.15552127 0.4831026 -0.2631624 -0.49591315 -0.26148567
-0.28654352 -0.22774021 0.2512111 -0.13783124 0.0021205894 0.23486145 -0.02489312 -0.053685214
-0.12948841 -0.32593107 -0.71863204 -0.47254413 0.10291019 -0.16448753 -0.21717481 -0.1909276
-0.25883815 -0.117051095 0.33036166 -0.18591763 -0.17553292 -0.35315767 0.10442524 -0.013652142
-0.06328562 -0.16537309 -0.002087009 -0.3913919 -0.06720072 -0.13168877 -0.10746391 0.010009319
-0.12890203 0.068226635 0.025947237 0.029759772 0.11191627 0.21448103 -0.1834873 0.099209376
00000000: b179 853e 11af 843e 3c2a 883d 88ee 123f
00000010: fcc0 de3e cef7 7d3e 5530 b93e a80e 013f
00000020: 9e0c 273e ae27 e83e 891a 98bc 33b6 05be
00000030: 6873 90be 3b20 4cbe 0c2a 7abe c30f 0a3e
00000040: ad76 5ebe 2b81 0ebe 4dce 0ebe fe99 d43d
00000050: d6a9 963e eb8c 0c3e a9fe a73e 80dc 623e
00000060: 329e fdbb d6fc 32be 8c31 2e3e 5de8 753e
00000070: 2d44 313e 98b9 dd3d cfb9 15be 86ad 023c
00000080: 572f aabd 49a1 8f3d 883f 1cbe fb3a 1ebd
00000090: 2533 a0be d34a 5e3d c04a c8bd 4876 0dbe
000000a0: ab4c cfbd 4897 103e e351 2ebe a88b 41be
000000b0: 7a86 bebe 4c10 79be e655 5cbd 7148 37be
000000c0: cd89 08bd 71ef f73d 91f1 dd3e b5ae bcbc
000000d0: 6b80 07be 7ac3 d2be b57d d6be bf94 09be
000000e0: 5e04 9cbe 019b 48be fb3f c8be 274d 073e
000000f0: 5abc 443e 525a b7bd 4c2a eabd 0659 abbd
00000100: 7777 093d c629 873c bf9b 423c 8cbc 8bbd
00000110: edba 5fbd 8a7d ac3d bf8f 79be 60a0 67bd
00000120: 08ec dabd 00b4 febe 2430 b0be f62c d9bd
00000130: c1b2 393e b9c6 763e 5c09 7b3e 0518 52bd
00000140: d7a1 bcbd 0945 d2bd 2094 a0be 80d7 2cbe
00000150: e7e5 ddbe 9c1d 78be f6d0 23be ac15 49be
00000160: a195 36be f911 22be 6dcf 673e ebc7 423e
00000170: cd7e 1d3e a4bd 993c 52cf e3bd 0b03 2bbd
00000180: 04df 59be f92d 55be e155 ca3d 5eb7 e33c
00000190: 4bbe 413e 3a4f 453e 2b1e ba3d e903 833e
000001a0: 1937 b1bb 611d 8e3e 8ae1 3d3e 67fa b73e
000001b0: 7ef6 c03c 079e 1fbe 30dd 743c 7223 aa3d
000001c0: aa07 9ebd ec46 c43c 55cc 373d e6b0 b6bd
000001d0: 459e d6be a8b0 173e acc7 cebe cf90 9dbe
000001e0: a460 eb3d f51d 22be f415 28be a935 b8be
000001f0: f305 8ebe f678 b33d 0ecf 393d 4c1a 263e
00000200: a453 8c3d ec5a 2b3e 9307 313e 1aab 8f3e
00000210: e1aa b33c db42 873e c63e 8c3e 6a1e 1a3e
00000220: cb8e 253e 874f a03d c83c c73d 7bf3 2dbd
00000230: de9b 3fbe 73d4 0fbe 11d7 ddbe 7390 a23d
00000240: 9f1e 2d3c b98e bfbe 3357 13bc 8942 a53b
00000250: 761e bc3d 7b3e 043e b7f5 133d 39b7 10be
00000260: 0198 04be 68d5 7dbe 9545 95be f813 733e
00000270: b62f e33c 4486 70bd d83d c3bd 8246 5abc
00000280: 8b6e d83d 0076 4fbe c662 9f3d 47e6 2f3e
00000290: bd7d d7bd 14dd 893d e1fd f4bd 9d6e 88be
000002a0: 3573 b43d 535c 573e 02a3 493e 0568 cb3e
000002b0: 2074 a73e 1f16 7d3e 24df db3d a4ef 4bbd
000002c0: 8de4 a8bc 07ca eabd 7e8b 71bd dcda 39bd
000002d0: 02a1 dfbd be6c c23c 8a89 033e 55ed b43c
000002e0: fdda 4b3c 99f6 20bd b556 0f3e fd73 82be
000002f0: 5bed 6bbe f556 f33d 5fb5 87be 41e1 24be
00000300: 23a5 943d a61b 56be 69bd 8dbe 496d 513e
00000310: 23da 6a3e 49b8 453e f8c5 f03d 2c32 c53d
00000320: 7585 b1be eb83 4dbe 0ab9 c0be bed2 19bf
00000330: 50c0 e5bd 3bdf 5bbe dc90 8bbd d869 733d
00000340: 03bb fe3d fbc2 92bd a0a2 b9bc f840 1f3e
00000350: 3959 f73e 39bd 86be 54e8 fdbe 73e1 85be
00000360: d5b5 92be bb34 69be be9e 803e a223 0dbe
00000370: 96f9 0a3b 857f 703e a8ec cbbc 07e5 5bbd
00000380: 9c98 04be 70e0 a6be 45f8 37bf 4ef1 f1be
00000390: 94c2 d23d 6b6f 28be 1363 5ebe 8682 43be
000003a0: 6f86 84be 7cb8 efbd 2a25 a93e 3161 3ebe
000003b0: e7be 33be 15d1 b4be e6dc d53d 3cad 5fbc
000003c0: e49b 81bd 9057 29be 33c6 08bb 8564 c8be
000003d0: 88a0 89bd 6cd9 06be 0a16 dcbd 20fe 233c
000003e0: e5fe 03be 68ba 8b3d 4d8f d43c c4ca f33c
000003f0: 5b34 e53d eaa0 5b3e 18e4 3bbe 492e cb3d

conv1.bias f4 [8]
-0.44735056 0.5789719 0.26906955 0.1970769 0.15434258 0.0073591773 0.11563191 -0.0044882167
00000000: 220b e5be 8137 143f 7cc3 893e 87ce 493e
00000010: fb0b 1e3e 4125 f13b 6cd0 ec3d e411 93bb

bn1.weight f4 [8]
0.97811425 0.8851288 1.0163499 1.0552169 0.9204773 1.0181289 0.88527966 1.0957361
00000000: b265 7a3f cd97 623f c117 823f 5911 873f
00000010: 66a4 6b3f 0c52 823f b0a1 623f 1541 8c3f

bn1.bias f4 [8]
-0.2070155 0.011745084 0.11082911 -0.12544917 0.05384404 -0.10637375 0.26142758 -0.089320846
00000000: dffb 53be 746e 403c 5ffa e23d bf75 00be
00000010: 918b 5c3d 7bda d9bd d6d9 853e d9ed b6bd

bn1.running_mean f4 [8]
0.49408126 1.5387107 0.5998997 0.43185323 1.7621591 0.40916517 0.35667458 1.1484373
00000000: 38f8 fc3e 79f4 c43f 0793 193f de1b dd3e
00000010: 6e8e e13f 197e d13e 0d9e b63e feff 923f

bn1.running_var f4 [8]
1.4125823 1.8201854 1.1215192 0.8387484 3.3515623 1.2055779 0.94624835 6.6004624
00000000: 7fcf b43f d6fb e83f f18d 8f3f 37b8 563f
00000010: ff7f 5640 6050 9a3f 553d 723f fd36 d340

conv2.weight f4 [16, 8, 3, 3]
0.07514935 0.19876552 0.11957356 0.15194702 0.24447706 0.19679016 0.16768868 0.020609956
0.051240113 0.3429632 0.16983515 0.22677174 -0.1588609 0.04366092 -0.17408736 0.06308536
-0.19739336 0.033108078 0.09403465 -0.13328756 0.00090430345 0.19856606 0.0055798483 0.32897004
0.3377845 0.06003359 0.085425906 -0.34857047 0.037999082 -0.17079139 0.061502106 0.102529824
-0.15432377 0.0086583765 -0.3646061 -0.1744047 -0.014580293 -0.09641667 -0.113338985 -0.02468619
0.028608117 0.14238031 0.055507455 -0.06097209 -0.21149719 -0.26850817 -0.26244956 -0.50539
0.1406874 0.056814693 -0.038736884 -0.03852163 0.094714634 -0.10188502 -0.23985733 -0.18542236
-0.4222069 0.06433261 -0.16564249 -0.14874987 0.105698 -0.20035963 -0.17924894 0.047129855
0.06768701 0.165457 0.1530019 0.35359976 0.28344917 -0.035429854 -0.104162544 0.021202791
-0.31726453 0.2466921 0.19408886 0.23026182 0.043274786 -0.19368719 0.010630321 0.11554279
0.014276385 0.10506739 0.08999843 0.20984133 -0.01917532 -0.026364984 0.15791297 -0.07900632
0.25360414 0.3507265 -0.008835553 0.060309004 0.1462107 0.09065339 0.10202922 0.23804618
-0.065357156 -0.09702497 0.091484986 0.016703464 0.1608932 -0.04147102 0.09068472 0.11182682
0.029848842 0.2550947 0.0801782 0.13765779 0.19520138 0.2685953 0.05894321 0.08440162
0.12336674 -0.0069064014 0.16004886 -0.10402054 0.15352765 0.15639456 0.12810765 0.21280329
-0.3669939 -0.07549399 -0.18167956 0.2004688 0.2214844 0.32848462 -0.10159834 -0.032916658
-0.029851148 0.0020737855 -0.06584353 0.11512336 0.23000766 0.40642446 0.40133664 -0.02450245
0.31107342 -0.0049125785 0.28414816 0.038459186 -0.018609034 0.10437933 -0.11105463 -0.01340759
0.089872964 0.06973071 -0.064096466 -0.16934822 -0.29969493 -0.2551548 -0.029312644 -0.09357928
0.24567157 0.17868482 -0.035061087 0.4017429 -0.2045284 -0.23699361 -0.25963047 -0.24579996
0.17213112 0.089531735 0.37983382 0.19254306 0.21490447 0.040444173 0.09391258 0.11654433
0.1982926 0.05675275 0.18437152 -0.0273847 -0.3131253 -0.2809908 0.2353564 0.26094684
0.4926295 -0.03053999 -0.27626294 -0.074462496 -0.077947006 -0.29026362 0.0056220484 -0.030267823
-0.09734805 -0.0023455957 0.11707043 0.06279894 -0.0862271 -0.21921618 -0.3355244 -0.34121487
0.09947999 0.17068753 -0.017869331 -0.23127991 -0.3063821 -0.18253613 -0.08299304 0.13940682
-0.12776303 0.08434002 0.04943854 0.1368071 0.071067035 0.28223336 -0.23366313 -0.023232682
-0.15726045 -0.110499464 -0.43077508 -0.17286536 -0.3282361 -0.2880793 -0.08760237 -0.24834801
-0.1719254 -0.22489968 -0.058826037 -0.15493897 -0.10277266 0.25018913 -0.13056101 -0.044807833
-0.23335892 -0.06707171 -0.109226696 -0.256075 -0.056386963 0.007093294 0.24481621 -0.16995418
0.091138564 0.0723535 0.091911934 0.19369291 0.0865824 0.15563558 0.18490268 -0.0031916006
-0.23143493 -0.08084914 -0.047072895 -0.1590707 -0.3198868 -0.20769879 -0.111637846 -0.04051521
-0.23341462 -0.028362364 -0.20014684 -0.1296389 0.105274774 0.20751716 -0.14237465 -0.19379517
00000000: e7e7 993d 3089 4b3e fce2 f43d 0098 1b3e
00000010: 3258 7a3e 5c83 493e 95b6 2b3e 36d6 a83c
00000020: 27e1 513d df98 af3e 44e9 2d3e da36 683e
00000030: 6fac 22be cbd5 323d f543 32be e632 813d
00000040: 7c21 4abe 569c 073d 3d95 c03d 897c 08be
00000050: c70e 6d3a e754 4b3e 29d7 b63b c36e a83e
00000060: 17f2 ac3e c8e5 753d c7f3 ae3d d477 b2be
00000070: eda4 1b3d f0e3 2ebe a2e9 7b3d 28fb d13d
00000080: 0d07 1ebe dddb 0d3c a7ad babe 2597 32be
00000090: 2ee2 6ebc 1a76 c5bd 451e e8bd b13a cabc
000000a0: 925b ea3c 25cc 113e c95b 633d dfbd 79bd
000000b0: b892 58be e779 89be ca5f 86be 3d61 01bf
000000c0: 5c10 103e 86b6 683d 91aa 1ebd dbc8 1dbd
000000d0: bff9 c13d 18a9 d0bd 299d 75be 5cdf 3dbe
000000e0: 812b d8be d1c0 833d 2f9e 29be e351 18be
000000f0: 3178 d83d 132b 4dbe 098d 37be 3c0b 413d
00000100: 7d9f 8a3d 8f6d 293e 88ac 1c3e 070b b53e
00000110: 4020 913e e51e 11bd 2c53 d5bd 7ab1 ad3c
00000120: 7f70 a2be db9c 7c3e 3bbf 463e c1c9 6b3e
00000130: e740 313d ef55 46be cc2a 2e3c b3a1 ec3d
00000140: 80e7 693c 922d d73d 1951 b83d a5e0 563e
00000150: 9015 9dbc 61fb d7bc f0b3 213e 11ce a1bd
00000160: 67d8 813e 6c92 b33e ffc2 10bc 9306 773d
00000170: 42b8 153e 7ca8 b93d b2f4 d03d 61c2 733e
00000180: f9d9 85bd 07b5 c6bd 7b5c bb3d b4d5 883c
00000190: 30c1 243e 84dd 29bd e9b8 b93d 7605 e53d
000001a0: 8f85 f43c c69b 823e 7834 a43d 2af6 0c3e
000001b0: dfe2 473e 5385 893e 6f6e 713d c2da ac3d
000001c0: b4a7 fc3d 184f e2bb d9e3 233e b908 d5bd
000001d0: 5a36 1d3e e525 203e a72e 033e 1be9 593e
000001e0: a0e6 bbbe 989c 9abd 350a 3abe b147 4d3e
000001f0: cecc 623e 232f a83e ca12 d0bd 9ed3 06bd
00000200: 658a f4bc 59e8 073b f9d8 86bd ccc5 eb3d
00000210: 2187 6b3e de16 d03e ff7b cd3e 5db9 c8bc
00000220: 0445 9f3e b2f9 a0bb de7b 913e 6187 1d3d
00000230: f971 98bc d5c4 d53d 9c70 e3bd 82ab 5bbc
00000240: 510f b83d f9ce 8e3d 0245 83bd 9f69 2dbe
00000250: 9d71 99be a6a3 82be 1221 f0bc 7ea6 bfbd
00000260: 5491 7b3e 27f9 363e 379c 0fbd 3fb1 cd3e
00000270: e56f 51be 74ae 72be 49ee 84be fcb2 7bbe
00000280: 2443 303e 6a5c b73d 9479 c23e 022a 453e
00000290: eb0f 5c3e caa8 253d 3d55 c03d cbae ee3d
000002a0: 370d 4b3e 9275 683d e3cb 3c3e e155 e0bc
000002b0: f651 a0be 07de 8fbe 4501 713e d39a 853e
000002c0: ef39 fc3e 002f fabc 5672 8dbe cb7f 98bd
000002d0: aea2 9fbd 6f9d 94be 2939 b83b 3af4 f7bc
000002e0: 6a5e c7bd 91b8 19bb 9fc2 ef3d bb9c 803d
000002f0: d597 b0bd 357a 60be dbc9 abbe b7b3 aebe
00000300: 2abc cb3d b6c8 2e3e b462 92bc a4d4 6cbe
00000310: 1dde 9cbe c0ea 3abe 41f8 a9bd a9c0 0e3e
00000320: 50d4 02be 76ba ac3d 1180 4a3d 2917 0c3e
00000330: 988b 913d e480 903e 6345 6fbe 7752 bebc
00000340: e208 21be 8b4d e2bd 8d8e dcbe 9e03 31be
00000350: 900e a8be 217f 93be df68 b3bd f14e 7ebe
00000360: 360d 30be 1a4c 66be 92f3 70bd 52a8 1ebe
00000370: 797a d2bd ca18 803e c9b1 05be 6b88 37bd
00000380: a4f5 6ebe e55c 89bd 3fb2 dfbd 431c 83be
00000390: 04f6 66bd dd6e e83b 1ab1 7a3e 7808 2ebe
000003a0: dba6 ba3d 122e 943d 533c bc3d 6f57 463e
000003b0: 1d52 b13d ef5e 1f3e 2157 3d3e 2c2a 51bb
000003c0: 47fd 6cbe 3c94 a5bd 82cf 40bd 6ee3 22be
000003d0: 34c8 a3be feae 54be 62a2 e4bd 47f3 25bd
000003e0: 3e04 6fbe 3058 e8bc 4bf3 4cbe 0fc0 04be
000003f0: 4d9a d73d 617f 543e a9ca 11be 3e72 46be

conv2.bias f4 [16]
-0.17946553 -0.08117844 0.104330696 0.3270272 0.034854405 -0.13623962 0.037461244 0.16255623
-0.08021428 -0.054618895 -0.18602382 -0.26856133 -0.019974636 -0.12625259 -0.299427 -0.06434791
00000000: d0c5 37be e240 a6bd 55ab d53d 1c70 a73e
00000010: 7ec3 0e3d 6682 0bbe f670 193d 2475 263e
00000020: 6247 a4bd 10b8 5fbd 077d 3ebe df80 89be
00000030: d9a1 a3bc 5c48 01be 7f4e 99be d6c8 83bd

bn2.weight f4 [16]
1.115169 0.85303175 0.906204 0.9946212 1.0764887 1.0377823 0.91451865 1.0092235
0.9565485 0.8437112 0.87771964 1.1602013 0.8882475 0.9255859 1.0366518 1.1007478
00000000: dcbd 8e3f 4a60 5a3f fcfc 673f 7f9f 7e3f
00000010: 62ca 893f 0dd6 843f e51d 6a3f 3c2e 813f
00000020: 5de0 743f 75fd 573f 3cb2 603f 7a81 943f
00000030: 3064 633f 33f3 6c3f 02b1 843f 4ee5 8c3f

bn2.bias f4 [16]
-0.08527886 0.0891689 -0.16961892 -0.2131025 0.07146103 0.33715314 -0.10465141 0.38938943
0.4135203 0.15554318 0.07599816 0.15367651 0.26080903 0.3113267 -0.06901617 -0.23783596
00000000: afa6 aebd 2f9e b63d 95b0 2dbe 8b37 5abe
00000010: 295a 923d 569f ac3e 7a53 d6bd 0d5e c73e
00000020: efb8 d33e b646 1f3e eca4 9b3d 605d 1d3e
00000030: c388 853e 3766 9f3e 5a58 8dbd 458b 73be

bn2.running_mean f4 [16]
0.52806205 0.6406697 1.3021033 1.3115408 1.193106 0.39944947 0.60233 0.7041612
0.6404799 0.3257669 0.15075946 0.7797639 0.88198566 0.68918556 0.35797733 0.8885181
00000000: 132f 073f ee02 243f 52ab a63f 92e0 a73f
00000010: b3b7 983f a484 cc3e 4d32 1a3f e943 343f
00000020: 7ef6 233f ebca a63e b060 1a3e 9b9e 473f
00000030: d0c9 613f 776e 303f ce48 b73e ec75 633f

bn2.running_var f4 [16]
2.1607769 1.3977176 0.99169046 1.557195 2.9507828 0.85076064 1.8860186 0.9335432
1.0109261 0.38473365 0.24343057 3.7407815 1.5513431 1.2333225 1.0681564 3.121027
00000000: 2b4a 0a40 69e8 b23f 6ddf 7d3f 2a52 c73f
00000010: a0d9 3c40 73cb 593f 0f69 f13f b0fc 6e3f
00000020: 0766 813f cffb c43e dd45 793e f768 6f40
00000030: 6992 c63f 83dd 9d3f 59b9 883f e8be 4740

conv3.weight f4 [32, 16, 3, 3]
-0.112511165 -0.12057382 0.05432494 -0.00014250592 0.0631521 0.12318563 -0.19769698 0.07808611
-0.1281882 -0.104991436 -0.121683866 0.057066686 -0.094328046 0.06936784 0.116211094 -0.059383426
0.23645112 0.33003122 -0.45435157 -0.011338118 0.008395906 -0.19479765 -0.00706786 -0.18289025
-0.018908622 0.101887435 0.34901464 -0.18314913 -0.29322314 -0.0087095685 0.116385184 0.109971374
0.25351155 0.033636343 0.025661534 0.05642019 -0.2781216 -0.2479521 -0.09571604 0.12558442
-0.2123068 -0.066199854 0.067658454 -0.09104803 0.03903043 -0.34536168 -0.06963956 0.03814857
0.24109997 0.10685111 -0.04420983 -0.1427171 -0.02880084 -0.005781667 0.06521924 0.12873225
0.06836811 0.15094712 0.011288733 0.0592163 -0.058090772 -0.011381246 -0.30596125 -0.14182752
-0.043004744 0.07322187 -0.1593065 0.030392209 0.029328331 0.18171957 -0.02347686 -0.048227873
-0.10862794 -0.18148383 -0.013035638 -0.0225117 -0.26252565 -0.24327235 -0.16131233 -0.12953426
-0.035562832 -0.106221974 -0.13336214 -0.08100302 0.013895971 -0.06041837 -0.039220802 -0.21720895
-0.33441272 0.08426726 -0.01261467 0.03579758 0.24306476 0.007932186 -0.08729751 -0.20519929
0.10440115 0.19031073 0.13693497 -0.1391613 -0.32048267 -0.6794419 0.40919665 0.39306423
0.29391506 -0.11330308 -0.009960437 0.23128076 0.1456815 0.10219364 0.15331778 -0.103221044
-0.30034897 0.031867582 -0.06421424 0.012535317 0.061528906 -0.20114814 -0.2529131 -0.06140082
-0.06576195 0.0011616818 -0.12592643 0.1370929 0.1363416 -0.12367065 0.21967097 0.25148848
0.11686422 0.027643528 0.004035461 0.12039291 -0.06052158 0.039014056 0.241445 -0.14393921
-0.1264406 -0.081934735 0.35730755 -0.030723633 0.23084703 -0.04868929 -0.024352927 -0.0328279
0.117019504 -0.06386228 -0.04616439 0.04718763 0.2391634 0.067047924 0.1578638 0.12752844
-0.19193234 -0.14775543 0.1321306 0.19178963 0.075685345 0.30668244 0.010316794 0.037517972
0.26250568 -0.12801641 -0.11747596 -0.02477007 0.10635173 -0.20866778 -0.009589386 0.07185859
-0.20198488 0.036044877 0.049493346 0.032690823 -0.0947401 0.026094994 0.030891182 -0.026702963
-0.24451035 0.14816202 0.1188274 -0.049462244 -0.38141823 -0.17744005 0.029690063 -0.12092504
0.11300127 -0.035784103 -0.14064139 -0.32345998 -0.1937968 0.18223141 -0.015694544 -0.049174603
-0.0514468 -0.19691162 -0.24001612 0.20301326 0.02432 -0.19460183 -0.39287287 0.084954634
0.37068176 -0.14389715 0.13199589 -0.13958962 -0.049705904 -0.09374989 -0.14480208 0.061195455
-0.0041347817 -0.020756532 -0.19690281 -0.20004041 0.065562144 0.059837654 0.21681143 -0.10046524
-0.20826739 -0.14728391 -0.20996943 0.14221309 -0.1435588 -0.15205613 0.12165341 0.122557625
-0.46009982 -0.24704766 -0.1159608 -0.19067249 -0.20511472 -0.13316582 0.040273946 0.042131368
0.1117025 0.12459437 0.027328525 0.14387138 0.03095011 0.07372344 -0.09228742 0.002216412
0.049013544 -0.03448545 -0.122220226 -0.047123145 -0.069683 -0.09157519 -0.004008021 0.21019842
0.015894137 -0.38156313 -0.42258945 -0.011273928 -0.0057762163 0.055753734 0.121351 0.041231405
00000000: 416c e6bd 68ef f6bd d483 5e3d a46d 15b9
00000010: e355 813d bf48 fc3d 1471 4abe 9ceb 9f3d
00000020: c443 03be c005 d7bd 6435 f9bd c2be 693d
00000030: 102f c1bd ba10 8e3d 1500 ee3d 093c 73bd
00000040: 3e20 723e daf9 a83e c5a0 e8be 84c3 39bc
00000050: fb8e 093c 0979 47be 8299 e7bb 9547 3bbe
00000060: 41e6 9abc 5caa d03d 0cb2 b23e 728b 3bbe
00000070: 5821 96be 94b2 0ebc 5b5b ee3d ac38 e13d
00000080: 44cc 813e 43c6 093d 2338 d23c db18 673d
00000090: f465 8ebe 28e7 7dbe c506 c4bd 3499 003e
000000a0: f466 59be ca93 87bd 8490 8a3d 6477 babd
000000b0: 5fde 1f3d 3fd3 b0be 309f 8ebd ad41 1c3d
000000c0: e9e2 763e c1d4 da3d 5e15 35bd 6e24 12be
000000d0: bdef ebbc 2374 bdbb aa91 853d 63d2 033e
000000e0: 9404 8c3d e291 1a3e 61f4 383c ca8c 723d
000000f0: 97f0 6dbd 6878 3abc f4a6 9cbe 3c3b 11be
00000100: be25 30bd 59f5 953d 3e21 23be 15f9 f83c
00000110: f841 f03c b214 3a3e 8b52 c0bc 978a 45bd
00000120: 5378 debd e6d6 39be 6e93 55bc 756a b8bc
00000130: c369 86be 631c 79be 0f2f 25be a1a4 04be
00000140: 55aa 11bd e88a d9bd 1690 08be e9e4 a5bd
00000150: edab 633c 4179 77bd fea5 20bd 066c 5ebe
00000160: 2538 abbe 5094 ac3d c3ad 4ebc 7ca0 123d
00000170: f8e5 783e 00f6 013c 09c9 b2bd c31f 52be
00000180: 45d0 d53d d1e0 423e ae38 0c3e 4d80 0ebe
00000190: 4e16 a4be e8ef 2dbf 3982 d13e b73f c93e
000001a0: 097c 963e 720b e8bd 1a31 23bc ddd4 6c3e
000001b0: 882d 153e e64a d13d 56ff 1c3e 8e65 d3bd
000001c0: 57c7 99be 9587 023d c182 83bd ee60 4d3c
000001d0: bc05 7c3d c7f9 4dbe d37d 81be 6d7f 7bbd
000001e0: 34ae 86bd 9343 983a dcf2 00be 1562 0c3e
000001f0: 229d 0b3e 0a47 fdbd 6df1 603e 19c3 803e
00000200: 8256 ef3d ae74 e23c e73b 843b 8f90 f63d
00000210: 7ae5 77bd 34cd 1f3d 5c3d 773e cd64 13be
00000220: a579 01be 66cd a7bd 04f1 b63e 21b0 fbbc
00000230: 2a63 6c3e 6c6e 47bd ca7f c7bc 8c76 06bd
00000240: eca7 ef3d 3aca 82bd df16 3dbd d147 413d
00000250: 40e7 743e 6c50 893d 0ca7 213e d196 023e
00000260: e989 44be 334d 17be 3e4d 073e 8064 443e
00000270: eb00 9b3d 7b05 9d3e c507 293c 72ac 193d
00000280: 2567 863e bc16 03be 3c97 f0bd 9aea cabc
00000290: f0ce d93d 02ad 55be cd1c 1dbc 992a 933d
000002a0: 20d5 4ebe cba3 133d 89b9 4a3d d0e6 053d
000002b0: 1907 c2bd 2bc5 d53c 810f fd3c 2cc0 dabc
000002c0: ec60 7abe c9b7 173e c85b f33d ec98 4abd
000002d0: 4049 c3be d8b2 35be 9338 f33c 8ca7 f7bd
000002e0: 366d e73d 5a92 12bd 4c04 10be 8c9c a5be
000002f0: ab72 46be df9a 3a3e d891 80bc 4f6b 49bd
00000300: e1b9 52bd 33a3 49be c9c6 75be b5e2 4f3e
00000310: bd3a c73c b445 47be a226 c9be b2fc ad3d
00000320: 00ca bd3e c659 13be ee29 073e 95f0 0ebe
00000330: 6b98 4bbd f1ff bfbd ff46 14be 16a8 7a3d
00000340: 107d 87bb 9a09 aabc e4a0 49be 65d7 4cbe
00000350: 7245 863d 5418 753d d103 5e3e b8c0 cdbd
00000360: 0c44 55be 98d1 16be 3a02 57be 4fa0 113e
00000370: 1401 13be 9ab4 1bbe 6c25 f93d 7eff fa3d
00000380: 3492 ebbe 10fa 7cbe db7c edbd a63f 43be
00000390: 9809 52be 9f5c 08be 4bf6 243d f191 2c3d
000003a0: 48c4 e43d 552b ff3d 12e0 df3c 0553 133e
000003b0: 168b fd3c 51fc 963d 3001 bdbd 3941 113b
000003c0: 6dc2 483d 9d40 0dbd 994e fabd 3304 41bd
000003d0: f6b5 8ebd c68b bbbd b855 83bb 413e 573e
000003e0: 6c34 823c 3e5c c3be a55d d8be 48b6 38bc
000003f0: 6a46 bdbb 075e 643d e086 f83d 43e2 283d

conv3.bias f4 [32]
-0.22706851 -0.2445064 -0.12888944 -0.16478442 -0.16692583 0.18491106 -0.071238406 -0.46425605
0.052441344 -0.004851855 0.040721998 -0.30135024 -0.13932815 -0.060876347 -0.045535367 -0.12659691
0.009361046 -0.20879446 -0.25422615 -0.043610305 -0.119818844 -0.19868065 -0.24166466 -0.16086829
-0.008789579 -0.2949236 -0.17837025 -0.3577237 -0.20204829 -0.10047682 -0.13381156 -0.5211199
00000000: a684 68be e35f 7abe 98fb 03be 3fbd 28be
00000010: 9bee 2abe 5359 3d3e 71e5 91bd f8b2 edbe
00000020: bccc 563d 4ffc 9ebb 1ccc 263d 944a 9abe
00000030: 0aac 0ebe 7a59 79bd 4b83 3abd 9fa2 01be
00000040: 135f 193c 37ce 55be ee29 82be b8a0 32bd
00000050: 9563 f5bd f172 4bbe f176 77be a8ba 24be
00000060: 2b02 10bc 3a00 97be b1a6 36be 9027 b7be
00000070: bfe5 4ebe cac6 cdbd e605 09be 1d68 05bf

bn3.weight f4 [32]
0.94390905 1.0161102 1.0698096 0.8799686 1.0951385 0.85420954 0.9506174 0.97101617
0.8646907 0.9096456 0.9349871 0.9187439 1.0930711 0.9577294 0.9023198 0.8862344
0.93912107 0.9014633 1.027374 1.0757974 0.98006415 1.0293761 0.84867203 1.0192285
0.95442075 0.97533107 0.8615928 1.0545716 0.964943 0.98378766 0.9817949 1.1643997
00000000: 06a4 713f e60f 823f 85ef 883f 9f45 613f
00000010: 802d 8c3f 7aad 5a3f a95b 733f 8494 783f
00000020: 5f5c 5d3f 89de 683f 515b 6f3f cd32 6b3f
00000030: c1e9 8b3f c12d 753f 6efe 663f 42e0 623f
00000040: 3d6a 703f 4dc6 663f fe80 833f bbb3 893f
00000050: 7ce5 7a3f 99c2 833f 9242 593f 1476 823f
00000060: eb54 743f 4caf 793f 5991 5c3f 34fc 863f
00000070: 8106 773f 82d9 7b3f e956 7b3f 0d0b 953f

bn3.bias f4 [32]
-0.24064289 -0.54187024 0.33889627 0.35426906 -0.072436094 0.13664542 0.23482507 -0.17716211
0.13942094 -0.004195903 0.5461067 0.3133016 0.14746225 -0.02996606 0.20547839 -0.40250227
-0.0708071 -0.6125997 0.10550619 0.09054274 0.34967083 0.2751321 -0.10124174 0.17623942
0.36446172 0.22483721 0.122833304 0.21397854 0.61968756 -0.19163595 0.15626302 0.34194598
00000000: 176b 76be 02b8 0abf d083 ad3e c162 b53e
00000010: 6059 94bd c7ec 0b3e fc75 703e fc69 35be
00000020: 5dc4 0e3e c97d 89bb a6cd 0b3f 1169 a03e
00000030: 5800 173e 627b f5bc ed68 523e c714 cebe
00000040: 5003 91bd 55d3 1cbf a113 d83d 796e b93d
00000050: 0e08 b33e 1dde 8c3e d457 cfbd 1b78 343e
00000060: ba9a ba3e ba3b 663e 0790 fb3d 311d 5b3e
00000070: d8a3 1e3f 373c 44be 6a03 203e 8b13 af3e

bn3.running_mean f4 [32]
0.19284607 0.330101 0.49389198 0.22135858 0.66372925 0.98856264 0.39519018 0.42207655
0.5366174 0.75143576 0.96897405 0.12479049 0.3656535 0.44252837 0.17483644 0.4806332
1.1886348 0.65173787 0.39261818 0.29132795 0.98253655 0.43802345 0.40469798 0.19359377
0.32522166 0.25273767 0.19367824 0.41790837 0.8923509 0.2833317 0.54366094 0.43050095
00000000: 7179 453e 0003 a93e 69df fc3e d3ab 623e
00000010: 29ea 293f 7112 7d3f 5e56 ca3e 6b1a d83e
00000020: c25f 093f 185e 403f af0e 783f 2892 ff3d
00000030: f036 bb3e 1493 e23e 5308 333e 8e15 f63e
00000040: 2f25 983f 4bd8 263f 4005 c93e f028 953e
00000050: 8487 7b3f 9c44 e03e 9334 cf3e 723d 463e
00000060: 7483 a63e d566 813e 9753 463e 16f8 d53e
00000070: 1c71 643f da10 913e 5d2d 0b3f 9f6a dc3e

bn3.running_var f4 [32]
0.4626166 0.74661237 1.1779482 0.60122097 3.84962 1.2884425 1.0504395 1.3935201
0.56409365 1.2567773 1.169548 0.26312667 1.1388555 0.60922784 0.27527758 1.2511817
1.6248437 0.8674517 1.0408845 0.7936813 2.2168114 1.3295264 0.8328386 0.5135158
0.903753 0.4152857 0.3367476 1.2746636 0.8667146 0.6365907 0.8345908 1.6697586
00000000: 15dc ec3e fd21 3f3f 02c7 963f 9ee9 193f
00000010: 2d60 7640 afeb a43f cd74 863f de5e b23f
00000020: 7168 103f 14de a03f c0b3 953f 8ab8 863e
00000030: 04c6 913f 5bf6 1b3f 2ff1 8c3e b926 a03f
00000040: e1fa cf3f 5111 5e3f b43b 853f b32e 4b3f
00000050: 3de0 0d40 ec2d aa3f e934 553f c575 033f
00000060: 5b5c 673f 54a0 d43e 2e6a ac3e 2d28 a33f
00000070: 02e1 5d3f 9cf7 223f bea7 553f a6ba d53f

conv4.weight f4 [64, 32, 3, 3]
0.11080602 0.21783738 0.2246728 -0.21829988 -0.22876216 -0.058344685 0.09930949 0.1440079
-0.10633638 -0.016897755 0.014321107 0.1186544 0.082889915 0.089139394 0.18323971 0.118338905
0.18099676 0.23947972 -0.20110883 -0.1413569 -0.11533434 -0.27266133 -0.022481848 -0.1268001
-0.009402096 -0.11534079 -0.06141423 0.030729705 0.0608977 0.021401381 0.0004814108 -0.037781186
-0.05779453 -0.14434373 -0.18297797 -0.041394718 -0.09682216 -0.17905362 -0.040481206 -0.3307624
0.005099255 -0.17635353 -0.37920773 -0.112779126 -0.006812386 -0.10949248 -0.081286155 -0.13051578
-0.21459438 -0.1873495 -0.027806826 -0.0505324 -0.090012774 0.014441685 -0.21263593 -0.08068088
0.07556357 0.056465782 0.039123133 0.11398402 -0.14947014 -0.24719219 -0.1658419 -0.17863193
-0.3348936 -0.15507036 0.06286425 -0.012029093 -0.06069831 -0.06924299 -0.051425166 -0.10678624
-0.043540116 0.08424883 -0.078132264 0.019479264 0.24159469 0.07999824 0.026200252 0.13986035
0.21393451 -0.012412146 -0.042685494 0.06656144 -0.13897184 -0.27598223 -0.25186574 0.1768049
-0.040860094 -0.27775806 -0.071359 0.09380256 0.019797876 0.026533226 0.10179379 -0.05998528
0.11728245 0.052393537 0.20968746 0.19314729 0.18986756 -0.041572317 -0.18145272 -0.20395608
-0.2865646 -0.15620571 0.041488055 0.08696097 0.024163354 0.006955495 -0.035237003 0.25056443
0.14669506 0.037390836 0.0060948892 -0.2494775 -0.080287606 0.03733419 0.19346924 0.18752232
-0.04923935 -0.050139423 0.13981438 0.04449714 0.063502155 0.017756287 0.11562364 0.14585742
0.124263525 0.05544388 0.04244086 0.076398924 0.042118493 0.027785933 -0.07863622 0.21301809
-0.00082211697 -0.012857154 -0.058539573 -0.1635764 -0.067680046 0.07270581 0.21282151 0.046833776
-0.2002099 0.0064666285 0.011445145 -0.106203705 -0.09627266 -0.07963466 0.0022073332 -0.062129114
0.05796341 0.1390675 0.1542378 0.034120455 0.019985886 -0.18178469 -0.057160247 -0.04934914
-0.022571769 0.03824362 0.040894598 -0.050258085 0.07346402 -0.10312976 -0.05450548 -0.28517547
0.15803067 0.0012351325 -0.032405596 -0.08904271 -0.045019664 -0.004449399 0.120276354 -0.0045519723
-0.13866612 0.115885295 0.14804095 0.1791612 -0.048796788 -0.028458007 0.06478901 -0.003346675
-0.08398651 0.15987568 0.027840594 0.064826734 -0.095335364 -0.038701568 -0.27102408 -0.20199184
0.109881856 0.028121913 0.07921543 -0.14687735 -0.054166928 -0.10926571 -0.022367472 -0.030759003
-0.045025434 0.05408474 -0.05611654 0.004474048 0.10013402 0.1319132 0.068478 -0.17919907
0.038668048 0.102928855 -0.26123956 -0.19645962 -0.25154233 -0.11810223 -0.19894654 -0.35367912
0.07694578 0.13129641 0.020692917 -0.42701593 -0.22961976 -0.18682459 0.12040773 0.07594028
0.12275632 0.07829093 0.090166196 0.03515839 -0.12259236 -0.07874019 -0.060372133 0.018103605
0.044005282 -0.009573981 -0.0111551415 0.005900311 -0.050541427 0.027041312 -0.09626005 -0.117373705
-0.14466241 -0.11128667 -0.19815877 -0.019816898 -0.14880674 -0.16529514 -0.06743139 -0.12897025
-0.18124995 -0.3921392 -0.4141177 -0.06608608 -0.013148897 -0.1913571 -0.174354 -0.043260302
00000000: 44ee e23d c310 5f3e a010 663e 018a 5fbe
00000010: a140 6abe d6fa 6ebd c662 cb3d cf76 133e
00000020: e3c6 d9bd 296d 8abc 14a3 6a3c 1401 f33d
00000030: 30c2 a93d b78e b63d 31a3 3b3e ab5b f23d
00000040: 3757 393e 2c3a 753e 79ef 4dbe ddbf 10be
00000050: 6934 ecbd 449a 8bbe da2b b8bc e3d7 01be
00000060: 400b 1abc cb37 ecbd 7d8d 7bbd ddbc fb3c
00000070: de6f 793d f351 af3c dd65 fc39 72c0 1abd
00000080: f5b9 6cbd d8ce 13be 945e 3bbe 828d 29bd
00000090: b24a c6bd d559 37be 9fcf 25bd b059 a9be
000000a0: a717 a73b 0596 34be 8427 c2be bef8 e6bd
000000b0: 703a dfbb 983d e0bd 5b79 a6bd eea5 05be
000000c0: a1be 5bbe 8cd8 3fbe 24cb e3bc 10fb 4ebd
000000d0: 9e58 b8bd d19c 6c3c 3cbd 59be 043c a5bd
000000e0: 13c1 9a3d aa48 673d 943f 203d 7470 e93d
000000f0: b30e 19be f31f 7dbe 76d2 29be 4aeb 36be
00000100: 2d77 abbe c4ca 1ebe f9be 803d ac15 45bc
00000110: cb9e 78bd 45cf 8dbd 32a3 52bd bfb2 dabd
00000120: 1f57 32bd a78a ac3d cf03 a0bd fa92 9f3c
00000130: 9964 773e 1ed6 a33d e9a1 d63c 8d37 0f3e
00000140: a611 5b3e 505c 4bbc fcd6 2ebd 5d51 883d
00000150: a24e 0ebe 8b4d 8dbe 8cf4 80be 580c 353e
00000160: ea5c 27bd 4e36 8ebe ab24 92bd 8e1b c03d
00000170: 282f a23c 355c d93c 4379 d03d 20b3 75bd
00000180: c831 f03d 9b9a 563d 4fb8 563e 67c8 453e
00000190: a46c 423e bc47 2abd bece 39be ddd9 50be
000001a0: 98b8 92be 64f4 1fbe 61ef 293d 9818 b23d
000001b0: 3af2 c53c ecea e33b ad54 10bd fb49 803e
000001c0: 3b37 163e 2227 193d a3b7 c73b 0877 7fbe
000001d0: d46d a4bd bceb 183d cd1c 463e da05 403e
000001e0: 33af 49bd ff5e 4dbd 802b 0f3e a242 363d
000001f0: 6b0d 823d a275 913c 16cc ec3d a65b 153e
00000200: e07d fe3d 1f19 633d 78d6 2d3d 0a77 9c3d
00000210: 7184 2c3d 539f e33c 070c a1bd 6a21 5a3e
00000220: 5683 57ba d0a6 52bc 31c7 6fbd 9280 27be
00000230: d69b 8abd c9e6 943d e2ed 593e c6d4 3f3d
00000240: d303 4dbe 03e6 d33b 6b84 3b3c 5481 d9bd
00000250: 9a2a c5bd 7f17 a3bd e8a8 103b 197b 7ebd
00000260: 0a6b 6d3d b667 0e3e 84f0 1d3e e4c1 0b3d
00000270: 71b9 a33c c425 3abe dd20 6abd 5322 4abd
00000280: 6ee8 b8bc 58a5 1c3d 1881 273d 6cdb 4dbd
00000290: 4e74 963d b235 d3bd 2341 5fbd 8502 92be
000002a0: cbd2 213e 2be4 a13a bbbb 04bd 065c b6bd
000002b0: 8a66 38bd 44cc 91bb 7353 f63d b628 95bb
000002c0: 7efe 0dbe 4555 ed3d 0c98 173e 0976 373e
000002d0: 24df 47bd c420 e9bc 1ab0 843d e453 5bbb
000002e0: 1f01 acbd 73b6 233e f511 e43c e1c3 843d
000002f0: 303f c3bd 8985 1ebd abc3 8abe f3d6 4ebe
00000300: bd09 e13d ed5f e63c b33b a23d 0467 16be
00000310: 24de 5dbd b3c6 dfbd fd3b b7bc 4efa fbbc
00000320: 976c 38bd f687 5d3d 75da 65bd 099b 923b
00000330: 1113 cd3d 4114 073e 323e 8c3d f67f 37be
00000340: 6362 1e3d 5dcc d23d 31c1 85be b62c 49be
00000350: 28ca 80be 95df f1bd a4b8 4bbe 6e15 b5be
00000360: c095 9d3d 9172 063e 3184 a93c d5a1 dabe
00000370: 7121 6bbe f24e 3fbe 5498 f63d 9486 9b3d
00000380: aa67 fb3d ff56 a03d 0ea9 b83d 3e02 103d
00000390: b411 fbbd 8942 a1bd c548 77bd 034e 943c
000003a0: e23e 343d 30dc 1cbc 0ec4 36bc 6557 c13b
000003b0: 8704 4fbd be85 dd3c fd23 c5bd a061 f0bd
000003c0: 6222 14be 44ea e3bd 22ea 4abe 0c57 a2bc
000003d0: cb60 18be 2143 29be 7819 8abd c710 04be
000003e0: 9699 39be 78c6 c8be 3c07 d4be 2458 87bd
000003f0: 796e 57bc 1ef3 43be db89 32be b731 31bd

conv4.bias f4 [64]
-0.17113166 -0.4583314 -0.31125882 -0.21048152 -0.21654531 -0.19722156 -0.06360422 -0.20575832
-0.43490994 -0.3515486 -0.4791735 -0.30301362 -0.09875825 -0.32406127 -0.34890035 -0.017152345
-0.054475047 -0.42646974 -0.19547896 -0.25762314 -0.22572397 -0.37121612 -0.25753668 -0.37553284
-0.1304555 -0.3320649 -0.11101414 -0.29186282 -0.59209126 -0.14785461 -0.09679471 -0.10371771
-0.2384275 -0.30992177 -0.33968738 -0.003381449 -0.30474722 -0.15322363 -0.18087785 -0.43400046
-0.2747639 -0.22778885 -0.09761669 -0.22568966 -0.033417203 -0.19780496 -0.1331869 0.15551665
-0.277858 -0.17826834 -0.40144962 -0.44180143 -0.3969991 -0.14299807 -0.27545938 -0.22974125
-0.15812197 -0.16719432 -0.2975673 -0.34605676 -0.20947601 -0.12067771 -0.38058993 -0.25514108
00000000: 233d 2fbe 6aaa eabe 515d 9fbe 7888 57be
00000010: 0ebe 5dbe 73f4 49be ee42 82bd 4fb2 52be
00000020: 84ac debe 2efe b3be 3b56 f5be 9a24 9bbe
00000030: c441 cabd 5ceb a5be 11a3 b2be 1383 8cbc
00000040: 3a21 5fbd 3e5a dabe a32b 48be 2ee7 83be
00000050: 2f24 67be 0a10 bebe d9db 83be d745 c0be
00000060: 2096 05be 6904 aabe 625b e3bd 0b6f 95be
00000070: 4b93 17bf 3367 17be 4e3c c6bd f369 d4bd
00000080: 5726 74be 11ae 9ebe 81eb adbe 4d9b 5dbb
00000090: d407 9cbe a8e6 1cbe 0b38 39be 4f35 debe
000000a0: dbad 8cbe 7b41 69be 42eb c7bd 311b 67be
000000b0: 7ae0 08bd 628d 4abe 2662 08be c23f 1f3e
000000c0: 6743 8ebe fa8b 36be ce8a cdbe cc33 e2be
000000d0: 7743 cbbe 166e 12be 0309 8dbe 4a41 6bbe
000000e0: baea 21be fd34 2bbe be5a 98be 5a2e b1be
000000f0: e180 56be e025 f7bd afdc c2be daa1 82be

bn4.weight f4 [64]
2.494324 2.8798413 2.528672 2.5335379 2.8460374 2.717387 2.642113 3.0082226
3.5104303 3.3415065 3.0032449 2.8344245 2.2613494 2.9546845 2.7724733 3.0208416
2.8403192 2.8431172 2.845383 2.647899 3.3742945 2.7023566 2.93576 2.3029594
2.4672532 3.157862 2.092634 2.7210357 3.2870936 2.8331797 2.2335014 2.3415713
2.7861156 2.432734 3.1338875 2.4060943 3.1837156 2.5989244 2.9907942 3.057783
2.6072273 2.7048707 2.700699 2.8640635 2.2675326 2.4103653 2.8216636 1.8896382
2.3997774 2.4004898 3.6261792 3.079993 3.015946 2.2867534 2.8782065 2.4408946
2.2021492 2.0291717 2.857462 3.0566435 2.1799736 2.5808191 2.5565104 2.6125722
00000000: 01a3 1f40 524f 3840 c3d5 2140 7c25 2240
00000010: 7a25 3640 abe9 2d40 6118 2940 b886 4040
00000020: e4aa 6040 3edb 5540 2a35 4040 3667 3540
00000030: f3b9 1040 8d19 3d40 3470 3140 7855 4140
00000040: cac7 3540 a2f5 3540 c11a 3640 2d77 2940
00000050: 71f4 5740 69f3 2c40 7ee3 3b40 b063 1340
00000060: 7ae7 1d40 691a 4a40 b7ed 0540 7325 2e40
00000070: be5f 5240 d152 3540 b0f1 0e40 4edc 1540
00000080: b84f 3240 eab1 1b40 9d91 4840 73fd 1940
00000090: ffc1 4b40 c754 2640 2c69 3f40 b7b2 4340
000000a0: d0dc 2640 9a1c 2d40 41d8 2c40 d14c 3740
000000b0: 411f 1140 6d43 1a40 2396 3440 aadf f13f
000000c0: f495 1940 a0a1 1940 5213 6840 9b1e 4540
000000d0: 4205 4140 2b5a 1240 8934 3840 9e37 1c40
000000e0: 03f0 0c40 f3dd 0140 a8e0 3640 0ca0 4340
000000f0: b084 0b40 242c 2540 de9d 2340 6234 2740

bn4.bias f4 [64]
0.17718917 -0.30802265 0.14866126 0.15708591 -0.33069792 -0.24651064 -0.15032318 0.24419363
-0.19108178 0.20589359 0.26768902 -0.1798014 0.16013591 0.16607347 -0.19206731 0.3262226
0.23640124 -0.2074727 0.13326631 -0.13749053 0.30452788 0.1474923 0.18892837 0.01082249
-0.12764746 -0.32769787 0.13706104 -0.19669853 -0.17801887 -0.21679646 0.14857247 -0.18394569
-0.18916616 0.1955537 -0.20743799 -0.19844253 0.21650095 0.16012858 0.14595051 -0.28856954
0.17501812 0.16707516 -0.30112457 -0.27130952 -0.30584657 -0.15651818 0.2154564 0.17805293
-0.14401197 -0.2328783 0.28558186 -0.21547315 -0.29714772 0.16002332 0.21419384 0.1293216
0.10242352 -0.26330698 -0.15307203 -0.3199584 0.17428173 -0.2253136 -0.14843298 -0.19158208
00000000: 1471 353e 25b5 9dbe a83a 183e 21db 203e
00000010: 3d51 a9be 496d 7cbe 52ee 19be e50d 7a3e
00000020: f1aa 43be c5d5 523e 890e 893e dc1d 38be
00000030: abfa 233e 2a0f 2a3e 4bad 44be a606 a73e
00000040: 2b13 723e b973 54be f776 083e 51ca 0cbe
00000050: 14eb 9b3e 3908 173e 7076 413e d050 313c
00000060: 04b6 02be 04c8 a7be bb59 0c3e 576b 49be
00000070: 944a 36be e4ff 5dbe 6223 183e 425c 3cbe
00000080: c6b4 41be 3b3f 483e a06a 54be 8534 4bbe
00000090: 6db2 5d3e bff8 233e 0d74 153e 63bf 93be
000000a0: f337 333e c015 2b3e 002d 9abe 15e9 8abe
000000b0: ec97 9cbe 4d46 20be 9aa0 5c3e 8253 363e
000000c0: e077 13be a677 6ebe c937 923e fea4 5cbe
000000d0: bf23 98be 27dd 233e a155 5b3e e26c 043e
000000e0: 6cc3 d13d 2cd0 86be eabe 1cbe 96d1 a3be
000000f0: e976 323e 9cb8 66be d1fe 17be 182e 44be

bn4.running_mean f4 [64]
0.09733684 0.051443286 0.065387174 0.052896317 0.043548975 0.026209187 0.072316155 0.08287533
0.047834337 0.036550503 0.02989066 0.025455307 0.13213815 0.06223291 0.10010177 0.103459105
0.08980562 0.022118276 0.052234143 0.08803703 0.034000427 0.034461804 0.041940164 0.12695174
0.057511237 0.03738986 0.23309623 0.03498072 0.043966636 0.07310745 0.20823821 0.057165857
0.08573937 0.1015345 0.024357691 0.078807004 0.029719284 0.05202746 0.026002735 0.033364054
0.044555794 0.07670886 0.13760081 0.03089271 0.28964925 0.062370166 0.061037578 1.2410581
0.040244784 0.0727633 0.04494795 0.05984524 0.044597216 0.14628802 0.085997224 0.05713584
0.35288155 0.23856041 0.064758874 0.049990855 0.06822556 0.12791908 0.07704237 0.10092664
00000000: 8a58 c73d 32b6 523d b6e9 853d cfa9 583d
00000010: 6960 323d a6b4 d63c 7e1a 943d 8aba a93d
00000020: f0ed 433d fbb5 153d 42dd f43c a687 d03c
00000030: 394f 073e f0e7 7e3d 2802 cd3d 5ee2 d33d
00000040: 02ec b73d 6331 b53c 78f3 553d c24c b43d
00000050: 0844 0b3d d227 0d3d 73c9 2b3d a3ff 013e
00000060: e790 6b3d 1c26 193d c7b0 6e3e f247 0f3d
00000070: 5c16 343d 5cb9 953d 663c 553e bf26 6a3d
00000080: 1f98 af3d 52f1 cf3d c889 c73c 9165 a13d
00000090: db75 f33c bf1a 553d b003 d53c bfa8 083d
000000a0: 2380 363d 8919 9d3d 3ae7 0c3e b512 fd3c
000000b0: e84c 943e dc77 7f3d 8a02 7a3d feda 9e3f
000000c0: b7d7 243d ed04 953d 571b 383d 4820 753d
000000d0: 92ab 363d 87cc 153e 501f b03d 4507 6a3d
000000e0: e4ac b43e 2e49 743e 4da0 843d 36c3 4c3d
000000f0: d8b9 8b3d 38fd 023e 64c8 9d3d a0b2 ce3d

bn4.running_var f4 [64]
0.16695532 0.14668696 0.17262782 0.069088064 0.11803648 0.049296603 0.10409027 0.1601807
0.14803033 0.07056058 0.074557915 0.042740706 0.2543239 0.15332663 0.27348983 0.17821033
0.15670776 0.0429453 0.10901459 0.19522324 0.074576 0.075692825 0.08812037 0.27705112
0.1076241 0.08959929 0.54709077 0.0633037 0.11218198 0.16858214 0.50333154 0.09955561
0.14575894 0.22964747 0.039129958 0.112147614 0.046761896 0.09320706 0.044389695 0.07343847
0.11325189 0.14070769 0.3932381 0.05436803 0.7472631 0.106531516 0.12254122 2.16158
0.058881603 0.13691103 0.08129952 0.15964393 0.08020311 0.2721257 0.1644215 0.11076901
1.0100168 0.40980762 0.11549473 0.08167073 0.090168916 0.24258031 0.18566303 0.20771739
00000000: 56f6 2a3e 1b35 163e 59c5 303e 0b7e 8d3d
00000010: 1cbd f13d 3ceb 493d 482d d53d 6906 243e
00000020: 4395 173e 1182 903d d2b1 983d e110 2f3d
00000030: be36 823e a801 1d3e dc06 8c3e c57c 363e
00000040: 0078 203e 69e7 2f3d 0b43 df3d 9ae8 473e
00000050: 4dbb 983d d704 9b3d 7478 b43d a5d9 8d3e
00000060: 066a dc3d d57f b73d 240e 0c3f 5fa5 813d
00000070: aabf e53d cca0 2c3e 56da 003f d0e3 cb3d
00000080: d541 153e b528 6b3e bc46 203d a6ad e53d
00000090: 6789 3f3d 58e3 be3d f8d1 353d e966 963d
000000a0: 9bf0 e73d ad15 103e 8156 c93e 03b1 5e3d
000000b0: a24c 3f3f 322d da3d e4f6 fa3d 5457 0a40
000000c0: d62d 713d 6832 0c3e 5d80 a63d b379 233e
000000d0: 8741 a43d 0f54 8b3e 1c5e 283e ddda e23d
000000e0: 3b48 813f 4ed2 d13e 8088 ec3d fc42 a73d
000000f0: 7baa b83d f966 783e 731e 3e3e deb3 543e

lin.weight f4 [10, 64]
0.2808233 0.7686217 1.1206031 0.7228121 0.74182254 -0.10714134 -0.90693897 -0.61087734
-0.58377427 0.25694245 -0.6528808 -0.37380156 0.5487701 1.3267632 -0.590233 -0.11695615
-0.22253662 -0.52088815 0.8693009 -0.73541194 -1.2706081 1.0754471 0.6720002 1.1126059
-0.6806103 0.9550213 0.8384106 -0.02360827 -0.8381233 0.2970019 0.44680083 -0.29748878
-0.6380771 0.72709656 -0.2537919 -0.28250325 0.8115106 0.24449511 0.5587432 0.56210464
0.9707836 1.0512846 0.33133584 -0.34235343 -0.044263292 -0.8752678 -0.11894248 0.32743347
-0.7907041 -0.30620727 -0.51085454 -0.56666356 -0.2626875 0.72897303 0.32829398 0.6028769
0.31846058 0.0787187 -0.59435874 0.48346645 0.6860158 -0.5263567 -0.6035544 -0.6660602
0.28412598 -0.6793685 -0.06566574 -0.16059871 -0.33137086 -0.47154355 -0.06420643 0.7518012
-0.81365705 -0.9700904 1.2115288 -0.30023333 0.02034027 -0.5981781 1.4155129 0.07832756
0.009168514 -0.88510233 -0.15947701 0.97562885 0.6017733 -0.01629188 0.68748105 -0.9641418
0.63105154 -0.51680374 -1.2078763 -0.12185118 -0.6433301 -0.73330075 0.48448375 -0.78338754
0.11866288 -1.5477742 0.10730043 -0.42397457 -0.3569041 0.067220286 0.8429144 -1.0221101
-1.0945358 -0.6705045 0.57952493 -0.46653384 0.5321898 0.8838945 0.84689903 0.25933582
1.3234155 -0.64694595 -0.64084834 1.4175736 -0.37567076 0.14857356 -0.5407218 0.55383635
0.77449167 -0.37284604 0.71598977 -0.7949563 -0.010467227 1.0418749 -0.40259627 0.42228067
-1.4838513 0.37753338 0.090071134 -1.5183187 -0.46830967 1.0707397 0.17953047 -0.34028223
0.63616914 -1.2704841 -0.21473011 1.9488955 -0.7932417 -1.1426125 -0.27982572 0.10106397
-1.697824 -0.32374087 0.9835214 -0.3033367 0.63677394 -0.9528459 0.6425171 0.44415402
1.1081772 -0.20249449 -0.061051182 1.497394 -0.59563076 0.64300627 -1.4861935 0.82221633
-0.22482933 0.1712052 1.8406172 0.35655954 0.7788143 -0.85863763 -1.171733 -0.34171313
0.62035084 0.16321567 -0.37544438 -0.1362213 -0.6053687 -0.22651072 0.43649462 -0.741477
-0.07647074 0.08149882 0.6729064 -0.074152306 -0.757087 -0.8022932 -2.1640856 -0.7217273
-0.30220634 1.1389419 0.5651485 -0.4567609 0.30518526 -0.50749385 0.42139584 -0.07274917
-0.3635509 -0.41602165 -1.1235057 0.5114599 -0.27495274 0.18415111 0.2958048 0.62292284
1.6585536 1.0201795 -0.29583567 -0.4629846 0.4056788 -0.45719212 -0.6096863 -0.8517858
1.1365045 1.5698645 -0.54359144 0.6514153 0.7499569 -0.5622089 -1.4344306 -0.40324363
-0.41864067 -0.6589041 -0.1773706 -0.81680524 1.1549231 -0.6997495 0.23704559 0.4076948
-0.4014879 0.2500152 -0.4854716 -0.51664186 -0.11343745 0.85917205 -1.099705 0.32139888
-0.73281837 -1.2416351 -0.79167926 1.2663542 -0.24931091 0.5338497 -0.26689196 0.20211151
-0.0991353 1.098794 1.4064089 -0.4432552 0.37497076 -0.27500024 0.7166962 -0.52655095
-0.6082899 -0.43481663 -0.9588164 0.6270458 -0.8014258 0.06390796 -0.066707246 -0.4851342
00000000: 12c8 8f3e 64c4 443f ec6f 8f3f 370a 393f
00000010: 15e8 3d3f eb6c dbbd 272d 68bf 7562 1cbf
00000020: 3b72 15bf f68d 833e 3223 27bf eb62 bfbe
00000030: 337c 0c3f 60d3 a93f 8319 17bf b586 efbd
00000040: a4e0 63be ed58 05bf 818a 5e3f f543 3cbf
00000050: 49a3 a2bf 40a8 893f 3508 2c3f df69 8e3f
00000060: 7a3c 2ebf 477c 743f 14a2 563f 2166 c1bc
00000070: 408f 56bf a210 983e 14c3 e43e 7350 98be
00000080: 0559 23bf 0023 3a3f 03f1 81be 44a4 90be
00000090: 29bf 4f3f ed5c 7a3e cb09 0f3f 17e6 0f3f
000000a0: 4685 783f 7e90 863f daa4 a93e f348 afbe
000000b0: 6d4d 35bd 8d11 60bf 1d98 f3bd 5ca5 a73e
000000c0: 956b 4abf 33c7 9cbe 5dc7 02bf dd10 11bf
000000d0: fa7e 86be fa9d 3a3f 2616 a83e 2456 1a3f
000000e0: 440d a33e 4537 a13d e527 18bf ea88 f73e
000000f0: bb9e 2f3f 50bf 06bf 8b82 1abf ec82 2abf
00000100: f678 913e 18eb 2dbf c27b 86bd fd73 24be
00000110: 71a9 a9be 286e f1be a97e 83bd 0b76 403f
00000120: d44b 50bf d857 78bf 6013 9b3f 2fb8 99be
00000130: a3a0 a63c 3322 19bf 872f b53f 336a a03d
00000140: 8937 163c 1196 62bf f14d 23be d0c2 793f
00000150: d10d 1a3f 8c76 85bc c2fe 2f3f ffd1 76bf
00000160: 988c 213f 404d 04bf b19b 9abf 1d8d f9bd
00000170: 48b1 24bf 99b9 3bbf 410e f83e 168c 48bf
00000180: 8605 f33d 771d c6bf 54c0 db3d 3213 d9be
00000190: 22bc b6be caaa 893d 3dc9 573f 81d4 82bf
000001a0: c019 8cbf 2fa6 2bbf bf5b 143f 86dd eebe
000001b0: 973d 083f e946 623f 60ce 583f aac7 843e
000001c0: ae65 a93f 409e 25bf a30e 24bf 0d73 b53f
000001d0: eb57 c0be ab23 183e be6c 0abf 38c8 0d3f
000001e0: 1645 463f ade5 bebe 1b4b 373f 4282 4bbf
000001f0: bb7e 2bbc 285c 853f 1921 cebe 2c35 d83e
00000200: d7ee bdbf 0e4c c13e 3777 b83d 4458 c2bf
00000210: 49c6 efbe 000e 893f d6d6 373e 7939 aebe
00000220: fbdb 223f 399f a2bf 36e2 5bbe 6875 f93f
00000230: e311 4bbf 2041 92bf 5145 8fbe a0fa ce3d
00000240: 4c52 d9bf 5dc1 a5be 0fc8 7b3f f34e 9bbe
00000250: 9e03 233f b5ed 73bf 007c 243f 2868 e33e
00000260: c0d8 8d3f b75a 4fbe ce10 7abd 9baa bf3f
00000270: 427b 18bf 0f9c 243f 973b bebf c57c 523f
00000280: a939 66be 6a50 2f3e 5899 eb3f f98e b63e
00000290: 6060 473f adcf 5bbf 59fb 95bf 06f5 aebe
000002a0: 50cf 1e3f 0222 273e 3f3a c0be 997d 0bbe
000002b0: 71f9 1abf 6df2 67be 397c df3e 70d1 3dbf
000002c0: b19c 9cbd dae8 a63d 9843 2c3f 2add 97bd
000002d0: 74d0 41bf 1663 4dbf 6180 0ac0 1fc3 38bf
000002e0: caba 9abe d9c8 913f 92ad 103f 91dc e9be
000002f0: 3e41 9c3e 1eeb 01bf 32c1 d73e 84fd 94bd
00000300: 5823 babe ca00 d5be 09cf 8fbf 09ef 023f
00000310: 9bc6 8cbe 1c92 3c3e ba73 973e df77 1f3f
00000320: 7c4b d43f 3e95 823f c677 97be 510c edbe
00000330: 22b5 cf3e 1615 eabe 6714 1cbf a20e 5abf
00000340: fb78 913f 52f1 c83f cf28 0bbf 27c3 263f
00000350: 2dfd 3f3f ecec 0fbf 6c9b b7bf f375 cebe
00000360: 1258 d6be f0ad 28bf a3a0 35be 261a 51bf
00000370: 85d4 933f c922 33bf 14bc 723e 5fbd d03e
00000380: d28f cdbe fe01 803e bc8f f8be a442 04bf
00000390: e551 e8bd b3f2 5b3f 22c3 8cbf 658e a43e
000003a0: fc99 3bbf e6ed 9ebf 7eab 4abf e517 a23f
000003b0: 5c4b 7fbe 60aa 083f 10a6 88be 52f6 4e3e
000003c0: 7307 cbbd 48a5 8c3f 3505 b43f 58f2 e2be
000003d0: 2bfc bf3e d5cc 8cbe 6779 373f 0bcc 06bf
000003e0: e3b8 1bbf 49a0 debe fe74 75bf 1386 203f
000003f0: 3e2a 4dbf 2de2 823d cf9d 88bd 8363 f8be

lin.bias f4 [10]
-0.016408116 0.110343315 -0.021799663 -0.00562571 -0.037788574 -0.3716436 -0.36930618 -0.20134722
-0.27113006 -0.3040831
00000000: 506a 86bc adfb e13d 3595 b2bc e057 b8bb
00000010: 31c8 1abd 1248 bebe b315 bdbe f72d 4ebe
00000020: 8fd1 8abe c8b0 9bbe
