NCC_Code/Models/2022-08-28_13-55-45_model.pt (torch, 115275 bytes, 50 tensors)

conv1.weight f4 [8, 2, 5, 5]
000000 de ce 0a 3d 80 77 94 bd 92 76 d2 3d d2 6c 26 be
       0.03388869 -0.07249355 0.10276522 -0.16252449
000010 ee 83 47 be 5a 69 2b 3e a2 10 84 3e 9b f7 87 3e
       -0.19483921 0.16739407 0.2579394 0.26556095
000020 42 3c af 3d 0e 32 cc bd 8e 91 02 bd fc 0c db bd
       0.08556415 -0.09970485 -0.031877093 -0.10695836
000030 e7 fd b2 bd 7d cf 9a be bc e0 c1 be b7 95 86 3d
       -0.08739834 -0.30236426 -0.3786677 0.065715246
000040 eb e6 58 3d 2a 3a b9 bb 0a 72 aa 3b b3 d0 d3 bd
       0.052954596 -0.0056526856 0.005201583 -0.103425406
000050 dd 13 79 3d bb 5a a1 3e 67 73 05 3f c1 44 82 3e
       0.06080996 0.31514534 0.52129215 0.2544308
000060 40 e3 68 3e 67 91 bf bc 86 fb 95 3d 3b f0 42 bd
       0.22742939 -0.023384763 0.07323365 -0.047592383
000070 b6 f9 f3 bc 9b b5 15 be d4 c4 1e 3e 4c 84 6d 3e
       -0.029782157 -0.14620058 0.15504771 0.23194999
000080 5a 5a 3d 3e cd b9 28 3e 2d 57 d9 3d 4e b2 76 3d
       0.18491498 0.16477127 0.106123306 0.06022864
000090 48 ef d6 bd a8 86 4f be 60 41 a6 be e6 87 8c be
       -0.10494858 -0.20266211 -0.32471752 -0.27447432
0000a0 d7 c1 ab bc 34 1f c4 bd 78 8c 2e be ae 03 81 be
       -0.020966453 -0.09576264 -0.17045772 -0.2519812
0000b0 0b d9 4a bd cc 3a b0 3d 08 34 49 3e 19 b2 a1 3e
       -0.049523395 0.086049646 0.19648755 0.3158119
0000c0 b8 6e f5 3e f3 ae 0c 3e 42 d6 78 3c 4d 49 2d 3d
       0.47936034 0.13738613 0.015187802 0.042306233
0000d0 25 87 8e 3c 6b 21 98 3d 9b ea 01 be da da 50 bd
       0.017398426 0.07428249 -0.12687151 -0.050989963
0000e0 c9 d5 9f be e6 2f 6c 3d 4b 6b 0b bd 41 8c b0 bd
       -0.31217793 0.057662867 -0.03403787 -0.08620501
0000f0 7a 82 1c bd 56 e9 3a 3e d5 9e 54 bd 99 e8 ae 3a
       -0.03821037 0.18253073 -0.051909287 0.0013344466
000100 a1 ab 84 3b a1 5c 4c 3e fa 90 95 3e 1b 91 e0 3e
       0.00404878 0.1995721 0.2921217 0.43860707
000110 d5 86 83 3e d3 6f 98 3e 1d d0 88 3c df 70 54 be
       0.25688806 0.29772815 0.016700799 -0.20746182
000120 2a 18 81 be 4e 5f 6b be b1 3d 99 be 3a 5b f9 3d
       -0.25213748 -0.22985575 -0.2992988 0.12175603
000130 a7 c5 0b bd 18 c8 a9 bd 02 a4 c8 bd cc 5e b8 bd
       -0.034124043 -0.08290118 -0.09796907 -0.09002456
000140 fb bd 07 be 59 16 98 3d 30 0f 22 be ff 07 7e bd
       -0.13256066 0.074261375 -0.15826106 -0.062019344
000150 f5 64 0d 3d 9f 2e 0d 3e a1 7a 3f be 75 eb c5 3c
       0.03452011 0.13787316 -0.18699123 0.024160126
000160 a6 0c a7 3c 7a 76 b1 bd 19 04 e4 3e eb 13 23 3f
       0.020391773 -0.08665176 0.44534376 0.6370227
000170 09 7f 50 3e 02 b9 58 3e 0d fe 08 3d b6 01 ed be
       0.2036096 0.21164325 0.033445407 -0.46290368
000180 b8 d3 d3 be 30 96 a9 be f6 1c 8f be e0 d0 c0 bd
       -0.41372466 -0.33122396 -0.27951783 -0.0941484
000190 23 a3 ca be 5f 9f dc be ad 2c ab be a8 14 8c be
       -0.39577588 -0.4309034 -0.33432522 -0.2735951
0001a0 0a 22 56 be f4 06 96 bc ba 38 ef 3d da c7 09 3e
       -0.20911422 -0.018313862 0.116807416 0.13455144
0001b0 18 12 09 be 13 cf 7a 3e 1c 20 4f bd 4c 54 b5 bd
       -0.13385808 0.24493055 -0.05056773 -0.08853969
0001c0 d7 19 a0 3d 19 ac 04 3c aa 5e 2e be 3f e4 0b 3c
       0.078174286 0.008097672 -0.17028299 0.008538305
0001d0 b0 2d e0 3e ba e6 97 3e 62 cc 81 3e 8f 54 01 3e
       0.43784857 0.29668218 0.25351244 0.12629913
0001e0 73 66 25 3e f1 05 09 3f 25 b6 74 3e d0 3f 43 be
       0.16152363 0.5352469 0.23897608 -0.19067311
0001f0 65 a5 ae be 49 f4 d7 bd a8 45 a8 be 57 d7 35 be
       -0.3411056 -0.105446406 -0.32865644 -0.17757927
000200 8a c5 30 bb d5 f3 e1 bd f6 46 c3 bd 95 78 d2 bd
       -0.0026973211 -0.110328354 -0.09535019 -0.102769054
000210 87 08 a9 3c 21 9f d2 3d 3a c8 cb bd f0 bb 0c 3e
       0.020633949 0.10284258 -0.099502996 0.13743567
000220 f5 05 33 3e 5d d5 7f 3e d2 e7 02 3d ec 23 4a be
       0.17482741 0.24983735 0.031959362 -0.19740266
000230 74 c7 f8 3e 3d 3a bc 3e 44 9d 78 3d cb f6 c3 bb
       0.4858967 0.36763182 0.060696855 -0.0059803477
000240 0f 59 fe 3d 8e b8 ee 3e 35 81 b2 bd 39 45 86 3c
       0.1241933 0.4662518 -0.087160505 0.01639043
000250 61 7a ea bc 59 02 4a be 1c 15 04 3e 52 b6 27 3e
       -0.028622808 -0.19727458 0.12898678 0.16378143
000260 41 f1 52 3e ce bb 47 be 67 fc 1e be 9e e1 ed bd
       0.20599844 -0.19505236 -0.15525971 -0.11615299
000270 1c 4e f9 bd d8 d3 81 be 93 08 80 be 98 c1 fd bd
       -0.12173101 -0.25356936 -0.25006542 -0.12390441
000280 08 39 98 bd 7c cc a5 bd 24 a0 f7 bc 95 18 8d bd
       -0.07432753 -0.08095643 -0.030227728 -0.06889454
000290 10 ac 21 be 6a 08 23 3e ab eb 65 bd 41 14 f5 bd
       -0.15788293 0.15921178 -0.056132954 -0.11966754
0002a0 33 52 cc bd fd 9b 16 3e 56 04 8c 3e 27 76 da 3e
       -0.09976616 0.14707942 0.27347058 0.42668268
0002b0 15 ca eb 3e ea f2 28 3e 2c 8e a5 3b 76 63 a0 3d
       0.46052614 0.16498914 0.0050523486 0.07831471
0002c0 ea 41 a9 3d e0 1b 1c be 5f 62 88 3d 81 28 9f bd
       0.08264525 -0.15245008 0.06659388 -0.077713974
0002d0 58 6d f5 bd 69 78 95 bd dd 9b 83 be 71 dc 9b be
       -0.11983746 -0.07298357 -0.25704852 -0.3044162
0002e0 7e 01 08 be d6 34 02 be 55 94 fb bd b6 1b 6f be
       -0.13281819 -0.12715468 -0.122841515 -0.23350415
0002f0 8e 31 17 be 00 c0 68 be 6a 72 bf bb fc fa c2 3d
       -0.14764997 -0.22729492 -0.0058424966 0.09520528
000300 98 76 da bd f1 dc 83 be 0b 5a 76 3d c6 3d 91 3e
       -0.10667151 -0.25754502 0.060144465 0.28367442
000310 e8 a5 0c 3e 39 b2 17 3e 9a 71 a8 3e ea 7c 8a bd
       0.13735163 0.1481408 0.3289917 -0.06762107
000320 a9 e6 bb be dd 62 5a be 19 c5 40 3c 31 f4 bb be
       -0.36699417 -0.21326776 0.011765742 -0.3670974
000330 e3 d4 38 bb 03 40 2b bc 75 20 25 3c 33 1c 08 3e
       -0.0028203062 -0.010452273 0.010078539 0.13292007
000340 6c 71 e2 bc b4 79 9e be 3c 30 39 be b4 64 0b bd
       -0.027641974 -0.30952227 -0.18084806 -0.034031585
000350 c0 97 6f 3d 99 96 4f be 2b 87 a1 bd 3e 6d 76 bd
       0.05849433 -0.20272292 -0.07887109 -0.060162775
000360 09 d7 68 3e 63 b0 72 be 18 16 04 3e ee 81 b5 3d
       0.2273828 -0.23700099 0.12899053 0.08862673
000370 a1 dd b5 3d 86 af 9f be 7d 57 ea bd a5 32 37 be
       0.08880163 -0.311886 -0.11442468 -0.17890413
000380 9d 62 5b 3d 38 49 65 bd 96 e6 1f bf f7 9f 9c 3d
       0.05356084 -0.05597803 -0.6246122 0.076476984
000390 96 83 91 be e7 bf c3 be ce c3 5e be a8 97 94 3c
       -0.28420705 -0.38232347 -0.21754381 0.018138722
0003a0 6b ff e6 3c 7f 84 42 be ed 4e 4c be 6e 9e 0e bd
       0.028197965 -0.18995856 -0.19951983 -0.03481906
0003b0 b1 36 90 3b d1 5c 7c be 85 78 2d 3e ba 17 3d 3e
       0.004401051 -0.24644782 0.16940506 0.18466082
0003c0 19 ba b9 bc 24 5d 49 bc 16 2f b8 bc e4 d6 4d be
       -0.022671746 -0.012290273 -0.02248339 -0.20101506
0003d0 9c b0 2c be c6 66 a2 bc 6a 8c 0c 3e 05 e3 65 bd
       -0.16864246 -0.019824397 0.13725439 -0.056124706
0003e0 a4 8e 80 3e 51 a9 71 3d c6 ec 5f bd 00 df d3 bd
       0.25108826 0.058999363 -0.054669164 -0.10345268
0003f0 99 70 94 bd 42 5c 72 be de 86 c9 be 21 bb 51 3e
       -0.07248039 -0.23668006 -0.39360708 0.2048154

conv1.bias f4 [8]
000000 3c c2 04 bf d0 77 93 3e ab 25 f9 be 15 83 45 3d
       -0.5185888 0.28802347 -0.4866155 0.048220713
000010 f4 9d 22 3e 92 8a 4c be 5a 6c ba 3e a8 50 d2 3d
       0.15880567 -0.19974735 0.3641079 0.1026929

bn1.weight f4 [8]
000000 f3 a6 8d 3f 66 54 76 3f 69 53 9f 3f e4 17 48 3f
       1.1066574 0.9622253 1.244733 0.78161454
000010 a1 16 41 3f b2 01 8e 3f fb 8f 4f 3f 14 18 7a 3f
       0.75425154 1.1094267 0.8107907 0.9769299

bn1.bias f4 [8]
000000 27 0d d8 bd 53 32 48 3b f5 02 27 be 71 7e b2 3b
       -0.105493836 0.0030547574 -0.16309722 0.005447202
000010 1d 96 32 be 9b 15 d2 be 2e c3 3a be 5a de 41 bd
       -0.17440076 -0.4103211 -0.18238518 -0.04733119

bn1.running_mean f4 [8]
000000 70 c9 8f 3e ba cf 02 3f af 29 ac 3e 7c 69 02 3f
       0.28083372 0.51098216 0.33625552 0.50942206
000010 8d a1 b1 3f 07 09 e5 3e 2c b2 26 3f 2f c0 14 3f
       1.3877426 0.4473345 0.6511562 0.5810575

bn1.running_var f4 [8]
000000 62 c0 f2 3e 29 51 f1 3e 3d ea 62 3f 25 ce f3 3e
       0.474124 0.47132233 0.8863867 0.47618213
000010 fe 22 54 40 85 34 33 3f 29 e2 65 3f d8 a8 79 3f
       3.3146358 0.70002013 0.8979822 0.9752326

conv2.weight f4 [16, 8, 3, 3]
000000 02 b8 89 3e f4 a3 c3 3d 81 0c e7 3d 8c 77 29 3e
       0.268982 0.09552756 0.11281682 0.1654951
000010 1a 90 48 3e 43 cd 17 be 4c 86 a5 3e 57 d5 8c 3e
       0.1958622 -0.14824395 0.32329023 0.27506515
000020 50 19 0d 3e 10 03 4f bd 5f 76 69 3c 04 ad ba bd
       0.13779187 -0.05054003 0.014249413 -0.09115031
000030 02 98 0c 3d 32 ec 5f 3d a8 08 02 be 7a 40 b7 bb
       0.034324653 0.054668613 -0.12698615 -0.005592403
000040 f0 1f 69 be d8 94 50 3b 85 57 7b 3b 87 be 91 3e
       -0.2276609 0.0031827 0.0038351726 0.28465673
000050 0c a8 53 3d 3d 90 94 3d 0f bc 23 3d f9 9c 92 3e
       0.051673934 0.07254074 0.03997427 0.28635386
000060 93 56 17 3e 2d 23 b5 3e ca 1c 67 bd 77 ad 69 3c
       0.14779119 0.353784 -0.05642394 0.014262549
000070 44 8b d1 3d 1c 8c cc 3c e5 4e 6b be c5 62 9f be
       0.10231641 0.024969153 -0.22979315 -0.31130043
000080 52 c9 c2 bd c4 9d a2 3e 9d be 00 be 98 70 b5 3d
       -0.09511055 0.3176099 -0.12572713 0.08859366
000090 02 b1 a2 bd 58 81 55 bd bd 09 12 3d 8e 06 63 be
       -0.07943918 -0.052125305 0.03565382 -0.22170469
0000a0 2b b2 1b bd f8 99 62 3e 5f 87 46 be ba cb 06 be
       -0.03801171 0.22129047 -0.19387577 -0.13163653
0000b0 4f b8 8e 3c 69 7c 96 be 4d 2e ec bd cf b4 6b be
       0.01742187 -0.29391792 -0.11532269 -0.23018192
0000c0 93 99 a3 bc 61 b2 ef 3c e7 87 93 be 23 11 25 be
       -0.01997069 0.029259862 -0.28814623 -0.16119818
0000d0 d3 07 e1 bd c2 9b 0a bf e8 b1 9a be 85 78 82 be
       -0.109878205 -0.5414392 -0.30213857 -0.25482574
0000e0 fe 47 a8 bd 7a 08 e4 bc eb a5 89 be 78 c9 00 bc
       -0.082168564 -0.027836073 -0.26884398 -0.007860534
0000f0 31 5e 4e 3e d5 df 1a 3e 57 d5 f8 3d 1d 45 a5 3d
       0.20153119 0.15124448 0.12150066 0.08069823
000100 6e 43 bc bd a5 a8 7f 3d 3a 54 91 3d d2 6e 79 3e
       -0.09192549 0.06241669 0.07096143 0.24358681
000110 0f 98 96 3e 84 e3 84 3c 12 a2 9a 3e 45 77 91 bd
       0.29412887 0.01622177 0.30201775 -0.07102827
000120 ad 8c 33 be 7a 43 1a bd 1b 74 11 bd eb 94 86 bd
       -0.17534132 -0.037662007 -0.035511117 -0.065713726
000130 07 30 3c be 62 b9 e2 bd bf ff a5 be cc 91 8a 3e
       -0.18377696 -0.11070515 -0.3242168 0.2706436
000140 ae b9 68 3d c1 2d 04 3e 1a 38 29 ba 27 4a 8b be
       0.056817703 0.12908079 -0.0006455198 -0.2720501
000150 c5 fe 97 be a8 68 96 3d 7a 63 03 3d 9e 2b 12 3e
       -0.2968656 0.0734418 0.03207729 0.14274451
000160 3c 46 ab 3e 9b 70 81 3e f8 7c 8a bc c4 e3 15 3d
       0.33452022 0.25281224 -0.016905293 0.036594167
000170 a4 07 f4 3c aa d5 b0 3e 4f bc b6 3d 50 04 51 3e
       0.0297888 0.34538013 0.08922636 0.20411801
000180 80 b4 b1 bd 31 33 48 3d 2f 3a bd 3d 0b 31 1f 3e
       -0.08677006 0.048876945 0.09239613 0.15546052
000190 0a ac 05 3e 0e 70 0a 3e 12 5f 8c be 6c 94 4c bd
       0.13053909 0.13519308 -0.27416283 -0.049946234
0001a0 04 86 06 be 30 15 d4 3d 2d 92 68 bd 5f 94 84 3d
       -0.1313706 0.10355604 -0.05678003 0.06473612
0001b0 07 b8 04 bd 87 67 01 3e 08 bb 67 3e d2 17 c1 3d
       -0.032402065 0.12637149 0.2262994 0.094283715
0001c0 38 6d 51 be 42 bc 80 3d 3c 3f f7 3c 37 01 bd bd
       -0.2045182 0.06285907 0.03018152 -0.09228747
0001d0 b7 25 cb 3d ba 1d 14 bf 7d 7f 23 be 64 72 bd be
       0.09919303 -0.5785786 -0.15966602 -0.37001336
0001e0 b6 a9 ba bd 32 fa 24 bd 22 b9 51 3e de 40 d9 bc
       -0.09114401 -0.040277667 0.20480779 -0.026520189
0001f0 cb 51 92 bd fe f4 85 3e d3 fd 66 bd dd fa 0c be
       -0.07144507 0.26163477 -0.05639441 -0.13767572
000200 bd 2e b3 bd aa b3 39 be c7 f9 d1 3d d3 d6 5f be
       -0.08749149 -0.18134943 0.10252719 -0.21859293
000210 83 c3 a0 be 58 fc 6f be 85 55 c5 be 2c ae 42 be
       -0.31399164 -0.23436105 -0.3854181 -0.19011754
000220 41 bf 2d 3e 81 45 9d bd cb 5f f9 bd 07 b1 c9 3d
       0.16967489 -0.076792724 -0.12176474 0.098482184
000230 fe 33 f3 bc 5e 52 01 be fa 73 79 3e 27 11 7a 3e
       -0.029687878 -0.12629077 0.24360648 0.24420606
000240 48 8d 91 3e 63 0e 74 3e ae 55 85 3e 23 d5 2d be
       0.28428102 0.23833613 0.2604193 -0.16975836
000250 d3 51 97 be e0 c4 ba be 72 74 02 bd 39 b9 cd bd
       -0.29554614 -0.3647833 -0.031849332 -0.10045094
000260 25 12 1f bd 90 02 46 be 07 eb 3e be 15 36 0d be
       -0.038835663 -0.19336915 -0.18644343 -0.13790162
000270 07 2f c6 3d 3f 52 e5 3d f6 c4 ac 3e c4 5f 60 be
       0.096769385 0.11197328 0.3374402 -0.21911532
000280 b5 4c 09 be 08 38 00 be b4 28 83 bd 5f 31 3a be
       -0.13408168 -0.12521374 -0.06404248 -0.18182896
000290 dd 41 e4 bd e1 50 b8 bd c8 79 f7 bd 29 f1 45 bd
       -0.11145375 -0.089998014 -0.12083775 -0.04832569
0002a0 30 59 65 bd d6 a9 80 bd f1 34 9d bd 5e 9d f7 3d
       -0.05599326 -0.06282394 -0.076761134 0.12090562
0002b0 f0 bd c4 3d 4b 73 0e bd 20 42 8a 3d 1f 5c be bd
       0.0960654 -0.03477792 0.067508936 -0.092949145
0002c0 43 45 1f 3d 93 49 9e 3d 91 2e c5 3d 39 b9 94 be
       0.038884412 0.07728877 0.096280225 -0.29047564
0002d0 e6 bb 0c be 1f 2b 9e 3e 84 bb 95 3c 37 3a 4d bc
       -0.13743553 0.30892274 0.018277891 -0.0125260865
0002e0 3b 87 4d 3d 5e f7 c2 3d 98 03 c3 3c 21 9b 59 be
       0.050177794 0.09519838 0.023805425 -0.21250583
0002f0 3b ca 04 be 07 a0 74 3d 56 6e 39 3e 06 96 3d 3e
       -0.1296777 0.059722926 0.18108496 0.1851426
000300 40 39 2e 3e 45 61 01 3e cc f3 86 3d ba 16 cd 3e
       0.17014027 0.12634762 0.06589469 0.40056401
000310 45 74 9b 3d 85 8f 35 be e8 f8 0d be 49 75 95 bc
       0.07590536 -0.1773053 -0.13864481 -0.018244402
000320 c0 87 3e bc 24 7c ef 3c 35 c9 93 3d df ad db 3d
       -0.011629045 0.029234 0.072161116 0.10726523
000330 8c 1c 00 3e 37 d0 b3 3d 40 67 07 3e 50 54 06 bd
       0.1251089 0.08779948 0.1322298 -0.03279525
000340 e1 9d 10 3d da 90 66 be a7 00 a0 be df 9b a9 be
       0.035306815 -0.22516194 -0.31250498 -0.33126733
000350 1c 8a 67 be 0f 71 22 3e 6c 75 61 3c 19 25 cf bd
       -0.22611278 0.15863441 0.013760906 -0.10114498
000360 17 a1 f1 3d fa 61 6f 3e af a7 0c 3e 94 62 c4 3e
       0.117983036 0.23377219 0.13735841 0.3835646
000370 48 9e 90 3e 3f 46 34 3e a8 a9 0b be 0c ef 54 be
       0.2824576 0.17604922 -0.13638937 -0.20794314
000380 8c f2 ef bd 6a f5 31 3c 4d 2f 80 bc 05 27 33 be
       -0.11716184 0.010861734 -0.015647555 -0.17495354
000390 18 77 2a be 62 93 1b be bc 1e 3b be 29 0d 30 3e
       -0.16646993 -0.15192941 -0.18273443 0.1719252
0003a0 f1 c8 36 bd 06 d7 3d bd fb fc 80 3d 16 56 a1 3d
       -0.044625226 -0.04634764 0.06298252 0.07877748
0003b0 b7 64 71 3d 55 ca 74 be d2 96 76 bc f1 c4 4a be
       0.05893394 -0.23905309 -0.015050607 -0.1980169
0003c0 78 6c 0e 3e 8b 11 81 bb 4b 15 9f 3e 18 5a 94 3c
       0.13908565 -0.003938859 0.31070933 0.018109366
0003d0 5a 48 0c be 0f 65 86 bd fd 12 10 be 8b df be be
       -0.13699475 -0.06562244 -0.14069743 -0.37279925
0003e0 d5 fe cb bd c1 96 9b 3d 2e b6 e4 3d 90 84 86 bc
       -0.09960715 0.075971134 0.111675605 -0.016420633
0003f0 c9 0d a4 be 89 a9 1f 3d 55 c3 fc bd dc fc 8e 3a
       -0.32041767 0.03898004 -0.12341944 0.0010909098

conv2.bias f4 [16]
000000 9d ac 32 bd 1f a0 5f bc 3c 02 b0 bd f1 1e 18 3d
       -0.043621648 -0.013649016 -0.08594176 0.037138883
000010 0c 06 c2 bd 6c d3 b8 3d 12 04 74 bd a6 b4 8b 3d
       -0.094738096 0.090247005 -0.059574194 0.06821565
000020 67 96 0d 3d 9b 34 2f be 4b c4 14 be b3 a5 ab bd
       0.034567263 -0.17109911 -0.14528005 -0.08381214
000030 81 92 87 3d 76 ea 1d 3e da 9a 77 bd 59 cb fc 3d
       0.0661974 0.15421471 -0.060450412 0.12343473

bn2.weight f4 [16]
000000 f5 eb 83 3f 59 67 53 3f ae cd 92 3f 70 85 77 3f
       1.0306383 0.8257957 1.1469018 0.96687984
000010 ba 8f 4f 3f 16 98 49 3f e4 f0 54 3f dd f1 5b 3f
       0.81078684 0.7874769 0.8318007 0.8591593
000020 9c fe 7e 3f c1 6b 8b 3f c4 4b 98 3f 76 c3 85 3f
       0.99607253 1.0892259 1.1898122 1.0450275
000030 ee 51 5b 3f 99 19 80 3f 02 cc 83 3f f1 63 77 3f
       0.8567189 1.0007812 1.0296633 0.96636873

bn2.bias f4 [16]
000000 8b e1 90 be 15 78 be 3d 32 af 73 bd 1e 88 9c 3e
       -0.28297076 0.093002476 -0.05949325 0.305726
000010 de 3b 89 bb 58 09 80 3e f7 4d 0e 3b 14 78 8f 3e
       -0.004188045 0.2500713 0.002171395 0.280213
000020 77 a2 64 3d ec 1c 42 3d d1 f1 d7 3d aa f4 e9 bd
       0.055819 0.047390863 0.1054417 -0.11423619
000030 e5 14 85 3e 09 2d 83 3e 45 c1 8e be bc 98 a2 3e
       0.25992504 0.25620297 -0.27881828 0.31757152

bn2.running_mean f4 [16]
000000 95 04 6c 3f 3f 6b 86 3f 7c ac d1 3e fc 86 43 3f
       0.9219449 1.0501479 0.40951908 0.76377845
000010 af f4 9b 3e bf 79 a6 3f 72 04 b4 3e db 15 6a 3f
       0.30460116 1.3005904 0.35159642 0.914396
000020 7b f4 f0 3e b2 20 b5 3e b6 e2 b4 3e ed de 14 3f
       0.47061524 0.35376507 0.35329217 0.5815266
000030 8b d0 2b 3f 2d 98 90 3f eb 45 a8 3e 2b c6 38 3f
       0.67115086 1.129644 0.32865843 0.7217738

bn2.running_var f4 [16]
000000 b2 98 19 40 57 6a 56 3f 02 cf 6b 3f 26 10 b7 3f
       2.3999448 0.8375601 0.92112744 1.4301803
000010 3c 5b a2 3e 92 1f c9 3f 73 d2 dd 3e 06 28 56 3f
       0.3171023 1.571276 0.43324623 0.8365482
000020 55 d5 ad 3f 3a a3 74 3f 9d 73 5b 3f 43 90 62 3f
       1.3580729 0.95561564 0.85723287 0.88501376
000030 6a c1 9c 3f 60 03 78 3f d5 b6 30 3f b7 3f 27 3f
       1.2246525 0.9688015 0.6902898 0.65331596

conv3.weight f4 [32, 16, 3, 3]
000000 28 c7 d4 bd 3c d9 f4 bc 0e 0e ad bd 75 52 1e 3e
       -0.103895485 -0.029888742 -0.08449946 0.15461142
000010 d4 45 08 bc 8a be 1d bb fc 91 04 3d 2a f8 d1 3d
       -0.00831743 -0.002406987 0.032365784 0.10252412
000020 de 93 1e be 23 6b 01 be aa 77 12 bd 0a 9a 93 bd
       -0.15486094 -0.12638526 -0.03575865 -0.07207115
000030 19 c6 fd 3d db 8e e1 bc e6 bc 30 bd 9d 53 c3 bd
       0.123913 -0.02753394 -0.043148898 -0.09537432
000040 36 b2 0e bd 9f 37 80 bd e1 af f3 bc 6f c6 14 be
       -0.034837924 -0.06260609 -0.029746952 -0.14528821
000050 f2 92 84 ba 3f 11 3d bd 62 2c 62 3e 3b ba 97 3d
       -0.0010114594 -0.046159025 0.22087243 0.074085675
000060 c2 ac 50 bd 47 e9 bf 3d f3 29 7f 3e 90 dc 6a bd
       -0.050946005 0.09370666 0.24918346 -0.05733925
000070 5d 50 cd bd d5 f8 2b be 1a dd 37 be 94 ee 46 be
       -0.10025094 -0.1679414 -0.17955437 -0.19426948
000080 19 38 83 3c 83 b3 0a bd af 51 af 3d 59 32 a8 3d
       0.01601796 -0.033862602 0.08560502 0.08212728
000090 ac 56 2c bd 1c ff 19 3d 5a c7 5d 3a a1 f4 d5 3d
       -0.042074844 0.037596807 0.00084601867 0.1044705
0000a0 38 8c c0 bd 8a 0a c1 3d bb db 70 3d b7 ef 26 3d
       -0.094017446 0.09425838 0.0588033 0.040755954
0000b0 94 4c fb bd 2a 8f d3 bc 5c 4f 5a bd e1 ff b6 bd
       -0.122704655 -0.025825102 -0.05329834 -0.08935524
0000c0 23 86 7c 3d 96 2c 6a 3d 89 e2 4b 3d 9a ba eb bc
       0.06165136 0.057171427 0.049776588 -0.028775502
0000d0 d6 4e 9d bc de cb bd bd a5 8b c7 3d d2 fc 0e bd
       -0.019202631 -0.092674 0.09743432 -0.034909077
0000e0 72 45 2b be 0a 65 ce 3d 77 16 c3 3b 5f fb 99 bd
       -0.1672571 0.100778654 0.0059536058 -0.07518648
0000f0 c5 06 51 bd 08 ff 1e 3e 26 95 46 3e 8c e0 28 3e
       -0.051031847 0.15526974 0.19392833 0.16491908
000100 d5 0c 3b 3d b7 aa e8 bd fc 6a 25 3d d5 24 63 3d
       0.045666534 -0.11360686 0.04038523 0.055455048
000110 b9 17 cc bd fe 85 cf bd 35 d5 2a be 5a f3 c2 bd
       -0.09965462 -0.10132979 -0.16682895 -0.09519072
000120 97 a1 eb bc 27 e4 a9 3d 66 42 7e bd 60 63 12 3d
       -0.028763575 0.0829547 -0.06207504 0.035739303
000130 fb fd 0e 3d ad 95 fd 3d 19 52 87 3d 37 ad 18 3e
       0.034910183 0.12382064 0.06607456 0.14909826
000140 77 5a 07 be ef 51 0b be 60 6b 18 be 5a f9 2a 3b
       -0.13218103 -0.13605474 -0.1488471 0.0026088567
000150 f2 61 d1 3d 2d 77 7e 3c 39 dc 92 3e 11 1b 8b bc
       0.1022376 0.015531343 0.28683642 -0.01698068
000160 60 7c 04 bd d3 75 f0 3d e2 3c 8f bd 5d 44 61 bd
       -0.032345176 0.11741223 -0.06994034 -0.054996837
000170 c2 40 04 3e 99 26 58 bc 2d a3 bb 3c 41 eb 08 3e
       0.12915328 -0.013192796 0.022904957 0.13370992
000180 4b cc df bd 41 6c b7 3e f4 c5 84 bd a1 5a 58 3d
       -0.10927638 0.3582478 -0.06483069 0.052820805
000190 4b 47 30 bd 8f cc f0 bd 13 db d5 bd 23 38 97 be
       -0.04303674 -0.117577665 -0.10442176 -0.29535016
0001a0 bc 5b 04 3d cd cf aa bd 00 e7 f4 bc 88 1e 1e bd
       0.032314047 -0.08340416 -0.029895306 -0.038603336
0001b0 ec 80 ae bd 1d 9c 25 be c0 71 b7 bd df c6 c4 3d
       -0.08520684 -0.16172834 -0.08957243 0.09608244
0001c0 eb a7 e9 bc 30 ce 16 3e db e0 01 3e d4 ce 94 bd
       -0.028522452 0.14727092 0.12683432 -0.07266012
0001d0 92 45 06 3e 0c 04 20 3e 85 37 d7 3d 11 0c cc bd
       0.13112476 0.15626544 0.105086364 -0.09963239
0001e0 17 1f 4b 3e e1 2d e3 bc 33 4c 93 3e 40 5a 7d bc
       0.19836079 -0.027731838 0.28769073 -0.015463412
0001f0 15 5a 31 3e ba b2 8c 3e 68 c3 40 bb 38 ed dd 3d
       0.1731952 0.27480108 -0.0029413346 0.108362615
000200 cc b3 9f 3d 39 69 d3 3d 29 f0 dc bd 3d 6c 41 3d
       0.077979654 0.10322804 -0.107879944 0.047222365
000210 f7 b4 d5 bd 36 3a 3a bd d9 ad 91 3d 9f fb a0 3c
       -0.10434907 -0.04546567 0.07113237 0.019651232
000220 10 42 34 3e 08 40 7d bd 5b ec 60 3d 6b 6b e1 3d
       0.17603326 -0.061828643 0.054912906 0.110068165
000230 50 68 2b bc 57 76 f5 bc 1a 54 96 3c 1c 4b 7d 3b
       -0.010461882 -0.029963655 0.01835065 0.0038649505
000240 d1 fa 2a bd 8f 36 ed 3c 69 ef 34 bd 6b 84 d6 3d
       -0.041743103 0.02895668 -0.04417363 0.104744755
000250 9b 28 34 3e e9 34 a3 bc 95 5d d7 bd ea 09 cf 3a
       0.17593615 -0.01992269 -0.10515896 0.0015795801
000260 f9 87 85 3e 02 d3 92 bd c8 ae cb ba e1 f7 ae bd
       0.260803 -0.07169153 -0.001553976 -0.08543373
000270 56 81 6b bd 12 f5 46 3d 8a b6 c0 bb 62 87 88 3e
       -0.05749639 0.04857356 -0.0058811354 0.2666579
000280 82 aa 2e bc 78 e5 89 be 48 10 9e 3d 66 ed 35 3e
       -0.010660769 -0.26932883 0.07717949 0.17766342
000290 15 bc 23 3e c3 a9 22 be 43 2b a3 bc 39 46 cc 3d
       0.15989716 -0.15885071 -0.01991809 0.099743314
0002a0 36 5e 51 be 24 fb fc bd 8c 8c bb 3d 2b 20 62 be
       -0.20446095 -0.12352589 0.091576666 -0.22082584
0002b0 12 1b 88 bc b6 b9 59 be 5b d0 70 bd d5 8c 47 3b
       -0.01661447 -0.2126225 -0.058792453 0.0030448933
0002c0 9f ca e1 bd 30 5c 99 be 8a f5 f9 bd bd 5e 49 be
       -0.11024975 -0.29953146 -0.12205036 -0.19665046
0002d0 d2 64 3e be d3 78 18 be 94 64 85 3d 27 da 09 3c
       -0.18593147 -0.14889841 0.065133244 0.008413828
0002e0 bd 3f a8 bd b0 fe 3d be 12 30 bf bd 68 b8 46 3d
       -0.08215282 -0.18554187 -0.093353406 0.048515707
0002f0 f7 13 9c bc 60 ce 6a bd d3 cd 7a 3d 87 90 08 be
       -0.019052489 -0.05732572 0.061231446 -0.13336383
000300 87 73 f6 3d 21 1e 86 3d 74 03 e2 bd 7d 97 ca 3d
       0.12033754 0.065487154 -0.11035815 0.09892175
000310 bc d7 65 3d 71 6b 5f 3d f6 f0 06 3e 97 0e 9b bc
       0.056113943 0.054545823 0.13177857 -0.018927855
000320 45 a0 34 3e 46 8d d5 3d c4 cc 88 bd 4f e1 80 bd
       0.17639263 0.104273364 -0.06679681 -0.06292974
000330 6d 89 b1 3d 71 11 bc bd 2d 7e 24 bd 64 f2 9d be
       0.0866879 -0.09183014 -0.040159393 -0.30848992
000340 ab f2 18 bb 1c f5 c6 3d c3 10 9a 3c 31 d2 16 3d
       -0.0023338 0.0971472 0.01880682 0.036821548
000350 bf 42 a1 bb 29 a3 07 be fb 58 13 be 78 7c d9 3c
       -0.004921287 -0.13245834 -0.14389412 0.02654861
000360 44 d6 53 3d 5e 58 82 3d ca 8d 09 3e 48 f6 11 3e
       0.05171801 0.06364511 0.13432994 0.14254105
000370 22 2e 2e 3d 63 a6 53 bb ba 15 48 bd 8b f8 55 3d
       0.042524464 -0.003229522 -0.048848845 0.052238982
000380 5e 20 e2 3d 37 e1 04 bd 30 60 46 bb f0 65 a4 bb
       0.1104133 -0.032441344 -0.0030269735 -0.0050170347
000390 cd 4f 49 bd d0 f1 13 be 6d 8c 1b 3e 72 81 9f 3d
       -0.04914837 -0.14447713 0.15190287 0.077883616
0003a0 30 a1 31 3d aa dc ea 3d 2e 85 06 3d 17 47 43 bd
       0.04336661 0.114678696 0.032841854 -0.04767522
0003b0 1f c9 91 bd 4a bc 12 be 0f ba 93 ba ca 74 fa bd
       -0.07118439 -0.14329639 -0.001127066 -0.12229307
0003c0 50 48 8d bc c4 c2 67 3d cc 0a cd bd cf 98 87 3e
       -0.017246395 0.056582227 -0.10011825 0.2648377
0003d0 2f c4 fc 3d 9d ac 5d bd 20 44 12 3e fb fd 72 b9
       0.123421066 -0.054119695 0.142838 -0.00023173534
0003e0 80 ec db 3d d0 5a e8 3d 23 28 09 be 1d 4b cf bc
       0.10738468 0.11345446 -0.13394217 -0.025304371
0003f0 7c 1b 29 3e fb 9e bd bd 08 5e 5b be 8f 68 ae bd
       0.1651439 -0.09258839 -0.21422589 -0.08516037

conv3.bias f4 [32]
000000 63 8e be bb aa b8 f0 3a 1a 91 bd bd 1f 59 29 bc
       -0.0058153137 0.0018365581 -0.092561916 -0.0103361895
000010 38 8f 2c bd 2f 8d 48 bd 7c b2 ff bd a1 1a 06 bd
       -0.04212877 -0.04896277 -0.12485215 -0.03274024
000020 74 c1 16 3b 59 9b 0a be bd b6 92 3c 11 f4 ef bd
       0.002300349 -0.13535823 0.017909402 -0.11716474
000030 60 0d 9d bc bd b9 22 bd ed 6e 91 3b 2e 2a 95 bc
       -0.019171417 -0.039727915 0.004438272 -0.01820859
000040 2b 04 0d bd 69 22 7c 3c da b9 18 bc df 8a 72 bc
       -0.034427803 0.015389063 -0.009321654 -0.014803617
000050 be 75 1c bd 64 b9 47 bd b0 7c f9 bd e5 3b a0 be
       -0.038198225 -0.048760787 -0.121819854 -0.31295696
000060 86 d4 f4 bd 9f e5 1f 3d cb 1f c9 bc b2 b5 ac be
       -0.11954598 0.039037343 -0.024551293 -0.33732373
000070 2e ec d7 3c cb 22 9d bb bd ae cb 3a 8d 92 01 be
       0.026357736 -0.0047954074 0.0015539747 -0.12653561

bn3.weight f4 [32]
000000 2a 4b 74 3f 40 f0 6b 3f 91 c2 6f 3f a4 ff 55 3f
       0.9542719 0.9216347 0.9365626 0.835932
000010 34 5e 91 3f cf 56 ad 3f 67 15 88 3f 07 99 88 3f
       1.1356874 1.3542117 1.0631531 1.06717
000020 64 55 8a 3f e4 4a 82 3f e4 f6 71 3f 07 c5 5d 3f
       1.0807309 1.0179105 0.9451735 0.86628765
000030 e8 e7 8e 3f ba 24 5e 3f 4e df 80 3f 87 fe 72 3f
       1.1164522 0.8677479 1.0068147 0.9491963
000040 7c a6 76 3f d1 bc 56 3f bf 45 57 3f 85 57 4b 3f
       0.96347785 0.8388186 0.840908 0.7943042
000050 f1 7f 7c 3f f3 07 73 3f 0b fd 98 3f fb 3a 91 3f
       0.98632723 0.94934005 1.1952223 1.1346124
000060 1f 2b 85 3f 86 6d 50 3f d0 1a 85 3f 08 10 9c 3f
       1.0403785 0.8141712 1.0398808 1.2192392
000070 21 59 44 3f 12 cb 7c 3f 28 2d 57 3f 3c 4b 73 3f
       0.766985 0.9874736 0.8405328 0.95036674

bn3.bias f4 [32]
000000 44 48 1d be 11 5f 89 3b cf f4 f0 3c 2e a2 c6 bc
       -0.15359598 0.004192241 0.029413609 -0.024247255
000010 18 98 72 3d d7 7a e7 bd 6e b5 3b 3e 28 ea 30 bd
       0.05922708 -0.11302727 0.18330929 -0.04319206
000020 51 80 92 3c ac 9c fc 3d c7 dc 96 3d 11 c9 6e be
       0.017883452 0.1233457 0.07366329 -0.23318888
000030 fd 5d 56 bc 13 c1 01 bd c7 dd 01 bd e2 3d b9 bc
       -0.013083932 -0.03167827 -0.031705644 -0.022612516
000040 4b 85 39 bd de 51 83 3e 32 8c 11 3e 4b db c6 3c
       -0.045293134 0.25648397 0.14213637 0.024274489
000050 81 9f 33 bd 31 5b 0e bd 20 40 22 be 95 53 3e 3e
       -0.043853287 -0.034754936 -0.15844774 0.18586572
000060 9e b1 74 be a7 ad e9 3d 1c 57 15 be 31 71 fe bc
       -0.2389588 0.11410075 -0.14584011 -0.031059833
000070 12 89 86 3c 1e ec d7 3d 91 fb ce 3d 17 c9 30 bd
       0.016422782 0.10543083 0.10106576 -0.043160524

bn3.running_mean f4 [32]
000000 0e 3c 3b 3f a9 45 06 3f 36 a0 85 3e 57 ec 71 3e
       0.7313851 0.5245004 0.26098794 0.23625313
000010 c9 64 e5 3e 66 c8 2d 3e 98 fc 53 3e 4f 86 10 3f
       0.44803455 0.16970977 0.20701826 0.5645494
000020 06 81 00 3f f7 6b d0 3d a3 d5 06 3f 9b a9 37 3e
       0.50196874 0.10176843 0.52669734 0.17935793
000030 be 1c 02 3f 31 c9 0f 3f 18 27 4f 3f 6f d5 88 3e
       0.5082511 0.5616637 0.8091903 0.26725337
000040 d3 75 61 3f 2c 2e 92 3f ae c8 3b 3f 3f df 42 3f
       0.8807041 1.142034 0.7335309 0.76121897
000050 0b 66 0f 3f 71 b8 05 3f 09 4c 0f 3e 5c 44 8c 3d
       0.5601508 0.5223456 0.13993849 0.06848976
000060 0c 93 76 3e d7 7c 95 3f 49 86 17 3f ea 2b a8 3d
       0.24079531 1.1678723 0.5918928 0.08211501
000070 52 b9 ae 3f 6d 4f 72 3e 3d 7e 62 3f 8c 16 89 3e
       1.3650305 0.23663111 0.88473874 0.26775014

bn3.running_var f4 [32]
000000 fc 40 0a 40 75 1a 9b 3f 0e 65 c6 3e 00 c3 67 3e
       2.1602163 1.2117449 0.38748974 0.2263298
000010 f7 2b 62 3f fc d8 9e 3e e1 fc c7 3e d3 86 c5 3f
       0.88348335 0.3102492 0.3906012 1.543177
000020 29 20 99 3f c1 1a 4d 3e 56 76 5a 3f c3 f8 89 3e
       1.196294 0.20029737 0.85336816 0.26947603
000030 39 ed 6a 3f fa 14 d9 3f b6 4f 32 40 97 4e b3 3e
       0.91768223 1.6959527 2.7861152 0.35020897
000040 e4 67 42 40 77 b1 9f 3f 05 a5 e8 3e 42 ed 9f 3f
       3.037591 1.2476033 0.454384 1.249428
000050 ab ea a5 3f d8 c4 97 3f 19 71 ad 3e 52 c4 f0 3d
       1.296224 1.1856947 0.3387535 0.11756195
000060 78 a3 d7 3e ca 8c 16 40 02 04 60 3f 9f cc 52 3e
       0.42116904 2.352343 0.87506115 0.20585869
000070 66 a9 f8 3f 75 56 a6 3e d0 a5 8f 3f 8b d7 0c 3f
       1.9426696 0.32487836 1.1222477 0.5501639

conv4.weight f4 [64, 32, 3, 3]
000000 38 57 b8 3d f9 2d 41 3d 9f 7c e8 3d b8 42 33 3e
       0.09001011 0.047162984 0.113518946 0.1750592
000010 a1 98 04 be 8f ba 2e 3e 32 45 eb bc 5d e1 fb 3d
       -0.12948848 0.17063354 -0.028719518 0.12298844
000020 bb 2f c5 bd 80 87 01 3d 92 77 87 bd 3d 49 82 bd
       -0.096282445 0.031623363 -0.06614603 -0.06361625
000030 65 cd 98 bd 1d 0d 90 3d b9 ee 1a be 45 56 ea bc
       -0.07461051 0.07033751 -0.15130128 -0.02860559
000040 84 50 d8 bb a8 4f 26 be 10 fe 45 bc 1b f2 4a be
       -0.006601395 -0.16241324 -0.012084499 -0.19818918
000050 79 e0 59 bd 24 d9 73 3e 97 20 a6 bb f8 9b 98 bc
       -0.05319259 0.23813301 -0.005069803 -0.01862906
000060 5d 18 af bd da 7e c0 bd e9 b4 b5 bc b1 7b c5 3d
       -0.08549569 -0.09399195 -0.022180991 0.09642733
000070 05 6b 15 3e 32 b8 19 3e f9 4f 58 bd 7a 92 3b 3d
       0.14591606 0.15011671 -0.052810643 0.045793988
000080 b6 3e 73 3b 77 da 06 3d 09 28 14 3e b6 84 43 bd
       0.0037116236 0.032923188 0.14468397 -0.047733985
000090 28 9c 22 3d d7 e8 0a bc e3 e0 21 3d 59 c5 f5 3d
       0.039699703 -0.008478365 0.03952111 0.12000532
0000a0 77 d7 52 3d bc ce 19 bc 48 76 b9 bc c3 66 1d 3d
       0.051475015 -0.009387668 -0.022639409 0.03842808
0000b0 ae b1 fe bd 34 9f 2b bc c4 c7 0e bd 2b 6d 9f bd
       -0.124362335 -0.010474969 -0.03485848 -0.07784494
0000c0 0f 6f 08 bd 20 f5 bf 3c c3 55 71 3d 26 ed 89 bd
       -0.03330904 0.023432314 0.05891968 -0.067346856
0000d0 8b cb 1e be 1c 0c aa bc 59 c1 bc 3d 77 c8 23 3d
       -0.15507333 -0.020757727 0.09216566 0.0399861
0000e0 e2 8f c4 bd 93 48 ad 3c 14 5b b6 bd 29 f2 1d be
       -0.09597756 0.02115277 -0.089040905 -0.15424408
0000f0 50 4f 1e bc 58 46 b8 bd 19 96 38 3e d2 5f 06 3c
       -0.009662464 -0.08997792 0.18026008 0.008201556
000100 39 f3 09 bd 86 49 e9 bc 62 d1 76 3d 62 2b 85 3e
       -0.03367922 -0.028477442 0.060258277 0.2600966
000110 7c 1d 89 3c 7b be 5d bd 1c 94 e7 bc 9e b6 c6 3d
       0.016737692 -0.054136734 -0.028268866 0.097028
000120 cd 3b be 3d 00 e6 94 bc 9a e0 2a 3d e6 66 f8 3c
       0.0928875 -0.018176079 0.041718103 0.030322503
000130 ea de 53 bd b9 db 80 3d 33 a1 98 bd c1 4d ca 3c
       -0.05172626 0.06291909 -0.07452621 0.02469528
000140 01 0e b3 bd fc 79 34 bc 80 c3 ce 3c c6 94 79 3d
       -0.087429054 -0.0110154115 0.025239706 0.060932897
000150 86 5c b3 bd eb 9c 6c bd 01 88 1f 3d a9 f0 d3 3d
       -0.08757882 -0.057766836 0.038948063 0.10348637
000160 2c 3d 3a bd f8 d9 31 bc 61 86 61 3c 5d 62 c7 bc
       -0.045468494 -0.01085519 0.013764949 -0.024338895
000170 3c 87 10 3d 91 b4 93 bd 2d aa d9 3c a1 ce c0 3d
       0.03528522 -0.07212175 0.026570404 0.09414411
000180 80 e0 cb bd 03 2f b2 bd c2 c1 63 bd 70 44 05 be
       -0.09954929 -0.08700373 -0.055604704 -0.13014388
000190 da 47 f1 bd 35 a3 cc bd 04 8c 02 3e 0e ac 09 3d
       -0.11781283 -0.09992067 0.12748724 0.03361135
0001a0 e1 df b0 3d 0b 63 df 3d ed 7f fd 3b 1c b9 d6 3d
       0.086364515 0.10907563 0.007736197 0.104845256
0001b0 fe d8 7f bb e1 bf ab bd ec 02 db bb 11 fd f6 3d
       -0.003903925 -0.08386207 -0.006683698 0.12059987
0001c0 04 c0 cb bd 17 60 9e 3d 55 19 06 bd 61 a0 3a be
       -0.099487334 0.077331714 -0.032739002 -0.18225242
0001d0 f8 ef 9b bb 3f 37 69 bc 25 25 7e bb 71 01 08 3e
       -0.004758831 -0.014234363 -0.0038779464 0.132818
0001e0 0d 57 92 3d ea d9 d3 bd 3c 75 bd bc 60 db cf ba
       0.0714551 -0.10344298 -0.02312719 -0.0015858226
0001f0 56 49 91 bd c1 71 ef bd 23 09 3c bd 2b 5c ce 3d
       -0.07094066 -0.11691619 -0.04590715 0.100761734
000200 da 7c 4f 3e 5b 40 d3 3d 5b 13 0a bd b2 31 db bc
       0.20262471 0.10315009 -0.033709865 -0.026757095
000210 30 86 13 3d 16 5c 35 3d 8b 50 a5 3c 84 e5 45 3d
       0.036016643 0.044277273 0.020180007 0.048314586
000220 c5 68 aa 3d c6 e9 81 3d 5d 6d 86 bb 8d e7 79 3d
       0.083207645 0.06343417 -0.0041023926 0.06101184
000230 41 34 06 bc 91 44 8b 3d 50 87 81 bd a9 1c 0e bd
       -0.008191169 0.068001874 -0.06324637 -0.0346953
000240 c7 b2 93 bd 1a d2 93 bc ba 1d 33 bd 78 ec fc 3d
       -0.072118334 -0.01804452 -0.04372952 0.1234979
000250 3f d7 15 3e aa fa 92 3c 1f dc 57 bd 66 9d ec 3c
       0.14632891 0.017941792 -0.05270016 0.028883647
000260 36 a7 29 bb 3a 76 cf 3b 86 26 82 bd 6d 4f f3 3d
       -0.002588702 0.0063312324 -0.06355004 0.11880384
000270 4f 29 1e 3d 78 8b 1b b9 b9 d9 48 ba 69 36 cd bd
       0.038613614 -0.00014833908 -0.0007661838 -0.100201435
000280 08 72 c3 3b 9b 1b e9 bc 9d aa 94 bd 9e 9a 75 bd
       0.0059645213 -0.028455546 -0.072591044 -0.059961908
000290 72 33 28 bd 60 02 10 3c 18 c5 a7 bd 46 47 1a bd
       -0.041064687 0.008789629 -0.081918895 -0.037665628
0002a0 57 73 22 bd 11 c9 93 bd f0 5e 5f 3c fb c2 0b 3e
       -0.039660778 -0.07216085 0.013633475 0.13648598
0002b0 6d b1 c7 bd 74 41 90 bd a1 8f e9 bd f9 f2 c0 bc
       -0.09750638 -0.07043734 -0.11404348 -0.023553358
0002c0 0d 61 53 3c 31 c1 2c 3e 41 c5 02 be 1e d1 0e be
       0.012901557 0.16870572 -0.12770559 -0.1394696
0002d0 5a 49 70 3d 08 c7 9d ba 07 96 56 be a0 98 17 be
       0.058663704 -0.0012037465 -0.20955668 -0.14804316
0002e0 d1 8f 80 bc 26 73 82 3d 25 8e 36 bd 69 1f e0 bd
       -0.015693577 0.06369619 -0.044569153 -0.10943491
0002f0 f1 6c 1b be 8f 4f ff bd 37 e6 fb 3c ec 2b 35 be
       -0.15178277 -0.124663465 0.030749423 -0.17692536
000300 0e f8 09 3c 06 e4 9e bc 0f 48 be 3d 36 e4 15 bd
       0.008420957 -0.01939584 0.09291088 -0.036594592
000310 d6 ed 9d bd fe 06 9a bc df 14 84 3d 0e 27 12 3d
       -0.07711379 -0.018802162 0.06449293 0.035681777
000320 a8 45 4f 3c 83 c4 d1 bd 99 36 93 3d 94 10 40 3d
       0.012650885 -0.1024256 0.07188148 0.04689081
000330 58 fa 81 bb 6b 41 5a be e2 74 ff bb ac 41 33 3d
       -0.003966611 -0.21314017 -0.007795916 0.0437638
000340 a9 8a e7 3d 1d 99 50 3c 16 41 90 bd 24 20 b2 3c
       0.11305744 0.012731818 -0.07043664 0.021743841
000350 28 15 5a bd 33 a1 79 3d d3 79 77 bb 7a 59 36 bd
       -0.053242832 0.060944747 -0.0037761822 -0.044518925
000360 15 63 bf bd 4b 4a 75 bd 46 ab 21 bd eb 46 8b 3d
       -0.0934507 -0.059885304 -0.03946998 0.06800636
000370 ce d5 53 bd eb 74 60 bd ec f0 fd bd fb 11 91 bd
       -0.051717572 -0.054799 -0.12399468 -0.070835076
000380 64 8d d8 bc 25 37 4f 3d 66 4f bf bc b6 e5 0a be
       -0.026434608 0.0505897 -0.02335329 -0.1356419
000390 b7 13 dd bd 4d ca 0e 3e dc 67 84 bc 2c 8d ce b9
       -0.10794776 0.13944359 -0.016162805 -0.00039396563
0003a0 da 1c 01 be 96 7f 9a bb b4 fe 96 ba 6e 5b f9 3c
       -0.12608662 -0.0047149165 -0.0011519999 0.030439105
0003b0 24 6f 11 3d 44 89 2c 3b c5 fb 80 3c b0 f6 f2 bc
       0.035506383 0.0026326934 0.015745053 -0.029658645
0003c0 ad e4 d9 3c 6a bb 71 3d ea 16 ff bc 7a aa 01 3e
       0.026598299 0.059016623 -0.031138856 0.12662688
0003d0 6c 3d d5 3d b3 7e 8d 3d 8a cf 30 be bd c2 a3 bd
       0.10412106 0.069089316 -0.1726667 -0.07996128
0003e0 29 24 25 3c 09 d4 8b bd ff 47 3f 3e b4 78 4d bd
       0.010079422 -0.06827552 0.18679808 -0.05016394
0003f0 d1 38 ff bc fb 5d 82 be 74 ea 0d 3e 72 f4 0a 3d
       -0.031155022 -0.25462326 0.13858968 0.033924527

conv4.bias f4 [64]
000000 0a 84 14 bc 7e ed 95 bd 8b 89 c1 bc 99 b3 17 bc
       -0.009064684 -0.07320689 -0.023625156 -0.009259128
000010 33 80 51 3d 21 fd 0a bd d8 67 5e bd ce b8 3e 3c
       0.05114765 -0.03393281 -0.054298252 0.011640741
000020 80 60 9a 3c 78 d9 9f bc 6a 6b 32 bd 8f 41 1f 3c
       0.018844843 -0.019512877 -0.04355947 0.00972022
000030 4c 52 a3 bc 8c b2 5c 3c ad 5e da 3c e6 b1 b8 3c
       -0.019936703 0.013470303 0.026656473 0.022545766
000040 f1 f8 5e 3c 42 f8 74 bd 33 7f b0 bb 0a d8 c4 bc
       0.013609157 -0.05980707 -0.005386257 -0.024028797
000050 3a 0e 94 bc f9 7f 17 bd 7d dd e9 bc c2 4e 08 3d
       -0.01807319 -0.03698728 -0.028547997 0.033278234
000060 9e 3a af 3b b9 d3 95 bb 8b fa 91 ba 7c 97 2a bc
       0.005347564 -0.0045723584 -0.001113729 -0.010412093
000070 be 9c a4 bb 9d bc a9 bb 55 bd 3a bc 24 08 24 bd
       -0.005023568 -0.005179955 -0.011397679 -0.040046826
000080 a1 92 8c 3c 66 44 82 3b 45 9f ef bb 9a 65 70 bb
       0.017159762 0.003975439 -0.0073126876 -0.0036681653
000090 1b 2b ef bc d9 78 c7 bd 41 7d 70 bc 69 2f e5 3c
       -0.029195359 -0.09739847 -0.0146783 0.027976708
0000a0 e2 eb c4 bb aa d0 87 bc ed 82 c6 bb 77 2a 89 bd
       -0.0060095647 -0.016578991 -0.006058088 -0.06697553
0000b0 05 96 52 bd d7 2b 12 3d ad f3 b6 bd 75 18 55 bd
       -0.0514126 0.03568634 -0.08933196 -0.052025277
0000c0 9b 3f 7c bd 01 21 3d bd 9a fb db bd b1 2f be bc
       -0.061584096 -0.046174053 -0.107413486 -0.0232161
0000d0 95 59 44 3b 48 1a 93 bc 6a c6 9f bc 01 46 1d bd
       0.0029960622 -0.017956868 -0.01950379 -0.03839684
0000e0 2d d5 a7 bd e2 fc 05 bb 38 05 16 bc 08 50 5b 3c
       -0.08194957 -0.002044492 -0.009156518 0.01338578
0000f0 e1 76 10 bb dd 11 8d bc 41 ee 44 bd 12 8b 21 bd
       -0.0022043514 -0.017220432 -0.04807878 -0.03943927

bn4.weight f4 [64]
000000 b7 13 9b 3f 25 65 f0 3f be 6a 8a 3f a1 97 94 3f
       1.2115391 1.8780867 1.0813825 1.1608773
000010 ed 7f bf 3f 5f e1 ba 3f 03 f2 b3 3f 5a dc a9 3f
       1.4960915 1.4600028 1.4058231 1.3270371
000020 4e 27 ad 3f 28 82 95 3f 7c 58 9c 3f 0c da 97 3f
       1.352762 1.1680346 1.2214503 1.1863418
000030 eb bb 90 3f 68 74 93 3f c0 e3 93 3f 77 ca a6 3f
       1.1307348 1.1519899 1.1553879 1.3030537
000040 41 e6 8c 3f 14 40 d5 3f d3 24 80 3f db a6 9a 3f
       1.1007768 1.666018 1.0011238 1.208217
000050 ef 8f aa 3f 3f 36 8e 3f aa be eb 3f f1 9e 9e 3f
       1.3325175 1.1110305 1.8417561 1.2392255
000060 29 c1 8e 3f ee 4d aa 3f ce 11 a2 3f ab 3d 90 3f
       1.1152698 1.3305032 1.2661684 1.126882
000070 e0 7c cd 3f b8 07 8c 3f c8 f8 ac 3f b1 29 be 3f
       1.6053734 1.0939856 1.3513422 1.4856473
000080 69 74 9c 3f bd 4a 92 3f c3 11 98 3f 0c 80 82 3f
       1.2223026 1.1429058 1.188042 1.0195327
000090 7d 9b 9a 3f a8 1c dd 3f 6e 41 f4 3f fa e3 ab 3f
       1.2078701 1.727437 1.9082468 1.3428948
0000a0 f4 a5 94 3f 64 c3 94 3f 76 1c 97 3f d7 5c a1 3f
       1.1613145 1.1622128 1.180556 1.2606457
0000b0 aa fb c2 3f 73 b5 be 3f 3f 7b e7 3f 75 26 b9 3f
       1.5233052 1.4899124 1.8084487 1.4464861
0000c0 5f 84 a9 3f aa 73 fa 3f 3c fd e5 3f 98 21 8d 3f
       1.3243521 1.9566548 1.7967906 1.1025877
0000d0 04 f2 90 3f f3 54 a0 3f 77 50 ac 3f 74 7d b1 3f
       1.1323857 1.2525924 1.3462056 1.386641
0000e0 6f 9e b8 3f 32 87 a0 3f e6 f9 97 3f 60 e5 a8 3f
       1.442335 1.2541258 1.1873138 1.3195
0000f0 3c ec d1 3f 84 c5 94 3f 50 a4 d0 3f 98 88 c8 3f
       1.6400218 1.1622777 1.6300144 1.5666685

bn4.bias f4 [64]
000000 3d e2 ee be 89 1c 41 bd 17 8d 05 3c 0f 3e 59 be
       -0.4665698 -0.047146354 0.008151314 -0.2121508
000010 ad ff f3 be cd 31 f5 3d 1c 28 5f 3e 76 de 9b 3e
       -0.47656003 0.11972389 0.21792644 0.30443162
000020 74 c5 fa be e6 47 50 3f c1 9d 6a 3e b7 c3 88 bd
       -0.4897877 0.8135971 0.22911741 -0.06677955
000030 54 df 90 3e 07 6a 2c be 3a 27 2e be 8c da 7f 3d
       0.28295386 -0.16837321 -0.17007151 0.062464282
000040 76 40 31 3d dd cb 6a 3e 02 b7 f1 be 58 2f 8b 3e
       0.043274365 0.2292933 -0.47209936 0.27184558
000050 8c 91 c4 be 07 cd d8 bd 6e 73 b0 be 68 62 68 3e
       -0.38392293 -0.10585981 -0.34463066 0.22693789
000060 b1 20 1c 3f a7 2a 1b be d0 66 e7 3d 84 5e b3 3e
       0.60987383 -0.1515299 0.11298907 0.35033047
000070 a1 bf 04 bf 5d 88 2c 3f 35 e9 07 3d 23 f9 0b 3f
       -0.518549 0.67395574 0.033181388 0.5467703
000080 50 00 bd bb 41 c5 43 bf e4 85 9f 3d 91 5e 71 3e
       -0.0057678595 -0.7647286 0.077892095 0.2357123
000090 85 0a 20 3e 39 57 49 3e fa 90 a9 3d 7a 8a b8 be
       0.15629013 0.19662179 0.08279605 -0.3604315
0000a0 04 06 a7 3e 17 8b c3 be 24 74 de be 6b d5 d2 be
       0.32621777 -0.38192055 -0.43447983 -0.4117845
0000b0 fb 2f cb bd 79 94 2a be 95 34 91 3c 47 e8 85 bc
       -0.09921261 -0.166582 0.017725268 -0.01634611
0000c0 eb f4 dc 3e df 20 3a bc b1 91 f4 bd 5e af 90 be
       0.43155608 -0.011360376 -0.11941851 -0.28258795
0000d0 8d 40 38 be 77 32 5a 3e c1 10 09 3f f8 e5 e4 bd
       -0.17993374 0.21308313 0.5354119 -0.111766756
0000e0 90 c6 c4 be 6d c3 9d 3d cd 28 21 bf 24 23 79 be
       -0.3843274 0.0770329 -0.6295288 -0.24329811
0000f0 74 f6 bb 3e d2 cf 1c 3e 7d 63 1c be e4 c2 1c be
       0.36711466 0.15313652 -0.15272327 -0.1530872

bn4.running_mean f4 [64]
000000 bc e4 cf 3e 5e 77 09 3e 75 9a 08 3f 5b 8a a0 3e
       0.40604198 0.13424441 0.5336068 0.31355557
000010 60 d8 92 3f d9 80 e0 3e 96 41 03 3e 37 e6 4f 3f
       1.1472282 0.43848303 0.12817988 0.81210655
000020 c7 8c 24 3f 77 19 72 3e ae b2 16 3e ca 55 41 3f
       0.6427731 0.23642527 0.14716598 0.7552153
000030 f5 93 a3 3e cd d5 63 3f 94 d3 8b 3f 95 d0 86 3f
       0.3194882 0.8899811 1.0923944 1.0532404
000040 14 49 24 3f 17 db 20 3e 3c 1b 21 3f ab da 26 3e
       0.6417401 0.15708576 0.6293218 0.16294353
000050 e9 3d 19 3f 85 d2 0d 3e be 72 06 3e fc c2 8a 3f
       0.5986009 0.13849838 0.13129708 1.0840755
000060 c8 49 48 3f c5 6b 71 3e 95 1d bd 3e 84 03 ad 3e
       0.7823758 0.23576267 0.36936632 0.33791745
000070 73 c7 c5 3e 9c b2 ab 3e f8 6e e1 3e 37 a0 15 3e
       0.3862873 0.33534706 0.44029975 0.14611898
000080 2f a7 1e 3f 00 5d b6 3e 43 be 11 3f c3 a8 d7 3e
       0.6197385 0.35617828 0.5693094 0.42120942
000090 5b 3b d1 3e 3f 82 5c 3e 3b 0c 35 3e 67 13 bc 3e
       0.40865597 0.2153406 0.17680447 0.36733553
0000a0 6f ed b5 3e 83 b8 e1 3d e1 ac 92 3e 0b 36 43 3e
       0.3553271 0.11021521 0.2864752 0.19063585
0000b0 85 97 93 3e b9 05 01 3f b4 a7 a0 3d 97 db 9e 3e
       0.28826538 0.5039936 0.07844487 0.3102691
0000c0 04 c5 53 3e 1d 7e 19 3e 31 a3 89 3d 73 9f d4 3e
       0.20680624 0.14989515 0.067205794 0.415279
0000d0 0d 02 18 3f e1 f6 a1 3e c1 c3 a9 3e d0 85 06 3e
       0.5937813 0.31633666 0.3315716 0.13136983
0000e0 7e a1 32 3e 63 35 3a 3f 27 8d 42 3e 93 85 47 3f
       0.17444417 0.7273771 0.18999158 0.77938193
0000f0 28 70 69 3f a0 31 7e 3e 36 b1 5a 3e 33 d3 1b 3e
       0.9118676 0.24823618 0.21356663 0.15217285

bn4.running_var f4 [64]
000000 13 65 07 3f 24 75 41 3e 8a 3c 23 3f 52 11 e8 3e
       0.528886 0.18892342 0.6376425 0.45325714
000010 16 1b 1b 3f a0 04 1e 3f 9e 95 6e 3e 31 de 1b 3f
       0.60588205 0.6172581 0.23299262 0.6088591
000020 45 42 59 3f ee eb 03 3f 9f f0 33 3e 84 c2 13 3f
       0.84866744 0.51531875 0.17572258 0.5771868
000030 2d 08 b1 3e 50 ee 11 3f 91 3e 96 3f f4 02 29 3f
       0.3457655 0.5700426 1.1737844 0.6602013
000040 97 88 27 3f b8 a6 80 3e 2f 69 67 3f 37 19 58 3e
       0.65442795 0.25127196 0.9039487 0.21103369
000050 6c a5 10 3f b7 cb 27 3e 9d af 72 3e 32 14 7f 3f
       0.56502414 0.16386305 0.23699804 0.9964019
000060 96 5b 09 3f 87 6d 3e 3e 98 1d c4 3e cd 14 2c 3f
       0.53655374 0.18596469 0.38303828 0.6721924
000070 cd 29 10 3f 7f 4a 0c 3f bb a9 0d 3f 0f c9 95 3e
       0.5631378 0.5480117 0.55337113 0.29254958
000080 f5 09 fc 3e 3f ea 86 3e 35 e5 29 3f 35 a5 ac 3e
       0.49226347 0.2635059 0.6636537 0.33719793
000090 ad 9f 1e 3f 66 c7 e0 3e 04 7a 28 3e a7 1c 8c 3e
       0.61962396 0.4390213 0.16452795 0.2736561
0000a0 8e 28 aa 3e a3 2a 69 3e be 9b be 3e fb e8 94 3e
       0.33234066 0.22770171 0.37228197 0.29084
0000b0 96 59 9d 3e 83 d1 a8 3e a8 55 f0 3d 7e 0a c6 3e
       0.3073241 0.32972345 0.11735088 0.3867988
0000c0 4e 01 72 3e 0f db 63 3e 3c 8d 13 3e 61 46 2d 3f
       0.2363331 0.22251533 0.14409345 0.67685515
0000d0 44 ed f9 3e 91 a8 d8 3e 0c 28 af 3e 68 91 37 3e
       0.48813832 0.42316106 0.3421024 0.17926562
0000e0 b3 15 a9 3e 0b f4 ed 3e 56 ab 38 3e 5c cd 0f 3f
       0.33024368 0.46475253 0.1803411 0.5617273
0000f0 aa 85 57 3f e0 69 87 3e f3 d2 8f 3e c8 e0 2d 3e
       0.8418833 0.26447964 0.2809063 0.16980278
