NCC_Code/Models/2022-07-08_17-59-27_model.pt (torch, 115275 bytes, 50 tensors)

conv1.weight f4 [8, 2, 5, 5]
0.34191018 0.123502366 -0.14632855 -0.07661125 -0.14087845 -0.09260481 0.062729314 0.46221745
0.1093806 -0.2233254 0.28605068 0.46546888 0.26493204 0.2756696 -0.13958606 -0.20704043
-0.2088736 0.26531374 0.057443287 -0.10635601 0.21096659 0.10913524 -0.41873616 0.07529514
0.0005065821 -0.054219663 -0.11437528 -0.047565382 -0.16517435 -0.024817416 0.04161547 0.36452678
0.06210553 0.23968813 0.2570194 0.23839244 0.16196293 0.13929594 0.116609454 0.094680846
0.088231705 0.208046 -0.377758 -0.27943063 -0.26653543 0.14599127 0.19484639 0.33753157
0.26038644 0.23179606 -0.14520018 -0.2631748 -0.17707503 -0.16264607 -0.4366864 0.041641764
0.053225372 -0.14882144 -0.0038294625 -0.14507584 0.3498542 0.0655858 0.0829535 -0.11276367
-0.0033400238 0.12733482 0.16912444 0.04164032 -0.44418404 -0.19886412 -0.06698701 -0.029971508
-0.013621664 0.00046091634 0.0012675881 0.026924217 -0.15463908 -0.44255427 -0.47512206 -0.09742356
-0.023014568 0.018790096 0.21899413 -0.15345663 0.10079046 -0.22384404 0.09320429 -0.006561219
0.100779705 -0.31708747 -0.14411967 -0.19503821 -0.11100501 0.1389865 0.059442356 -0.043967765
-0.3143544 -0.3903265 -0.27084947 -0.2870846 0.15897267 -0.059651088 0.24645083 0.2688399
0.031780116 -0.23652737 -0.27609783 0.13520518 0.052993935 0.59144306 0.30521274 0.19547924
0.17713894 0.28758126 0.14756791 0.26232854 -0.26828384 0.16621964 0.18871254 -0.009378244
0.24270332 -0.185347 -0.28096798 -0.24596092 -0.0006999613 0.032525897 0.550085 -0.05275906
0.104673535 0.29246065 0.11646832 0.035995677 -0.10877678 0.28425735 0.09311217 -0.16374193
0.30301544 0.12655225 0.26619992 0.33320567 -0.09264182 0.2240748 -0.17427933 -0.01714363
0.23999435 -0.13689749 -0.1042394 -0.058049303 0.11065008 0.0063814567 -0.08276738 -0.2284467
-0.113848075 -0.07208759 0.1125157 0.004323581 -0.06381314 0.25881764 0.008832457 -0.20523365
0.01854001 0.08288932 -0.20724311 0.09775208 0.02600807 -0.09325441 -0.43888766 -0.11914243
0.18510818 0.06771384 0.36096853 0.43593216 0.24354555 0.1957834 0.2362773 -0.057361856
-0.03379077 -0.05413452 -0.027741037 -0.09533699 0.19328713 0.26026523 -0.17266275 0.003064966
0.052632567 -0.07886811 -0.25433558 0.03855137 -0.06184058 0.1829792 -0.19145252 0.21920195
0.105380185 -0.33264756 -0.13049893 0.23317377 0.2676962 0.26441145 0.37355864 0.21129684
0.14681804 0.19489607 0.15558895 0.13756272 -0.033516776 0.087269925 -0.393028 -0.19494483
-0.27025735 -0.2759595 0.049994186 0.22270638 0.25629768 0.22587466 0.28379282 0.08710728
0.12941909 0.3067708 0.102497794 0.23327401 -0.071936116 -0.019617809 -0.21186768 0.23559085
-0.08998494 0.04465887 0.050326366 0.08051617 0.08894378 0.20370173 -0.4553801 -0.12798697
-0.27589205 -0.22258091 -0.11951215 0.30020797 0.2859763 0.19222786 0.2938145 0.0027635829
-0.060377564 -0.15165658 -0.22574177 -0.040874194 -0.22950086 0.077209376 -0.0736128 0.047994018
-0.5289897 -0.10766611 0.17582189 0.2772579 0.14187619 0.25229257 0.2836701 -0.14038713
00000000: da0e af3e cfee fc3d 27d7 15be 5ce6 9cbd
00000010: 7142 10be 97a7 bdbd 3a78 803d c4a7 ec3e
00000020: f002 e03d 6aaf 64be 3c75 923e f051 ee3e
00000030: 2ca5 873e 9124 8d3e a6ef 0ebe 6802 54be
00000040: f6e2 55be 34d7 873e a749 6b3d 2ed1 d9bd
00000050: a007 583e 4c82 df3d 9664 d6be 5734 9a3d
00000060: 26cc 043a 7015 5ebd 963d eabd ebd3 42bd
00000070: 7723 29be e54d cbbc fc74 2a3d 41a3 ba3e
00000080: 5e62 7e3d ce70 753e 0c98 833e 261d 743e
00000090: 9cd9 253e 98a3 0e3e f0d0 ee3d 08e8 c13d
000000a0: d3b2 b43d 030a 553e 7f69 c1be 8811 8fbe
000000b0: 5577 88be bc7e 153e d085 473e f0d0 ac3e
000000c0: 5f51 853e f25b 6d3e 5baf 14be d9be 86be
000000d0: 2853 35be b18c 26be 5c95 dfbe 8e90 2a3d
000000e0: d902 5a3d a664 18be b8f7 7abb c38e 14be
000000f0: 1720 b33e d951 863d 86e3 a93d a4f0 e6bd
00000100: 4de4 5abb 0f64 023e f52e 2d3e 0a8f 2a3d
00000110: 176c e3be 09a3 4bbe 7c30 89bd cf86 f5bc
00000120: 662d 5fbc 25a7 f139 3325 a63a 2d90 dc3c
00000130: b559 1ebe 7996 e2be 3343 f3be 0186 c7bd
00000140: 0c89 bcbc b0ed 993c ff3f 603e bc23 1dbe
00000150: 3b6b ce3d 5f37 65be e4e1 be3d 7fff d6bb
00000160: 9765 ce3d 4a59 a2be 1b94 13be 19b8 47be
00000170: 9856 e3bd 7a52 0e3e d479 733d 8b17 34bd
00000180: 0ff3 a0be e0d8 c7be c8ac 8abe c1fc 92be
00000190: bbc9 223e b354 74bd 9b5d 7c3e 62a5 893e
000001a0: de2b 023d 3b34 72be b25c 8dbe 3a73 0a3e
000001b0: 2b10 593d d068 173f d844 9c3e b62b 483e
000001c0: e963 353e da3d 933e 0b1c 173e ed4f 863e
000001d0: 805c 89be 7b35 2a3e dc3d 413e 35a7 19bc
000001e0: 3887 783e 9bcb 3dbe 09db 8fbe 2edd 7bbe
000001f0: 9c7d 37ba e039 053d 5fd2 0c3f e219 58bd
00000200: 145f d63d 67bd 953e f186 ee3d 3470 133d
00000210: 5cc6 debd 2e8a 913e 98b1 be3d f7ab 27be
00000220: d724 9b3e ea96 013e 5b4b 883e ef99 aa3e
00000230: ffba bdbd dd73 653e 4876 32be cc70 8cbc
00000240: 14c1 753e db2e 0cbe 777b d5bd 1bc5 6dbd
00000250: 829c e23d 8a1b d13b f281 a9bd efed 69be
00000260: 2e29 e9bd a9a2 93bd a26e e63d d3ac 8d3b
00000270: 77b0 82bd bf83 843e 02b6 103c c528 52be
00000280: 38e1 973c e0c1 a93d 8a37 54be 3e32 c83d
00000290: e00e d53c 2bfc bebd e2b5 e0be f200 f4bd
000002a0: 008d 3d3e 8ead 8a3d ded0 b83e 8032 df3e
000002b0: 0164 793e 727b 483e adf2 713e 44f4 6abd
000002c0: 3168 0abd 29bc 5dbd 2c41 e3bc 0a40 c3bd
000002d0: 10ed 453e 7c41 853e 81ce 30be 99dd 483b
000002e0: 3f95 573d 9b85 a1bd 4638 82be 0be8 1d3d
000002f0: 8c4c 7dbd e65e 3b3e 210c 44be 7a76 603e
00000300: 91d1 d73d c850 aabe 83a1 05be 1bc5 6e3e
00000310: 7a0f 893e f060 873e 1443 bf3e 335e 583e
00000320: 7857 163e d692 473e b652 1f3e 3edd 0c3e
00000330: e348 09bd 93ba b23d f73a c9be 9e9f 47be
00000340: 2c5f 8abe 904a 8dbe b4c6 4c3d 240d 643e
00000350: 7339 833e b04b 673e 4b4d 913e 4d65 b23d
00000360: 7086 043e 1011 9d3e 5dea d13d 62df 6e3e
00000370: 3e53 93bd 87b5 a0bc d7f3 58be ba3e 713e
00000380: 064a b8bd 38ec 363d 0523 4e3d a9e5 a43d
00000390: 2828 b63d 3097 503e 9527 e9be 040f 03be
000003a0: b941 8dbe 40ec 63be c9c2 f4bd dcb4 993e
000003b0: 7c6b 923e 61d7 443e db6e 963e 3a1d 353b
000003c0: 774e 77bd dd4b 1bbe da28 67be b36b 27bd
000003d0: 4602 6bbe f31f 9e3d 4fc2 96bd 6095 443d
000003e0: de6b 07bf 0d80 dcbd a70a 343e bff4 8d3e
000003f0: fe47 113e 7e2c 813e 353d 913e a5c1 0fbe

conv1.bias f4 [8]
-0.2757249 0.39037427 0.13699335 -0.5147863 0.117101744 0.030753244 0.15813592 -0.05743232
00000000: d02b 8dbe 23df c73e fc47 0c3e 09c9 03bf
00000010: 0ad3 ef3d 3aee fb3c 62ee 213e 273e 6bbd

bn1.weight f4 [8]
0.7597264 1.0383384 0.9631954 0.9884289 1.1936754 0.92659783 1.0029421 1.0436897
00000000: 6e7d 423f 46e8 843f f993 763f ad09 7d3f
00000010: 5bca 983f 8435 6d3f 6860 803f a097 853f

bn1.bias f4 [8]
-0.095156826 0.11558494 0.16521965 0.0027551977 0.1567316 -0.012559469 -0.114965975 -0.15378727
00000000: 95e1 c2bd ccb7 ec3d 572f 293e 8c90 343b
00000010: 407e 203e 3bc6 4dbc 4873 ebbd 697a 1dbe

bn1.running_mean f4 [8]
0.9054258 1.5896916 1.4319279 0.29871637 0.45370746 0.27214858 1.2605289 0.38338268
00000000: fcc9 673f 047b cb3f 6a49 b73f 5af1 983e
00000010: 584c e83e 0f57 8b3e 0359 a13f bc4a c43e

bn1.running_var f4 [8]
4.179313 2.098656 8.181461 0.74470997 0.94405305 0.3408462 7.127447 0.7479006
00000000: efbc 8540 6150 0640 44e7 0241 50a5 3e3f
00000010: 76ad 713f 6583 ae3e 0c14 e440 6a76 3f3f

conv2.weight f4 [16, 8, 3, 3]
0.09087154 0.17460795 -0.22284152 0.120666 0.28242055 0.20429371 -0.086774945 -0.04101328
0.004873391 -0.37805519 -0.101022296 -0.118471146 0.15151721 -0.06078042 0.11523258 -0.09119368
-0.0005978135 0.17220637 -0.17777053 -0.27726626 0.060627993 0.25704044 0.15816063 0.18320625
0.16050132 0.13324194 0.10708637 0.22111261 0.16959 -0.05485085 -0.19764684 -0.09961975
0.081405245 -0.2860739 -0.13701223 -0.06438102 0.10124788 -0.1590179 -0.35805807 0.051475275
0.25580716 0.0575226 -0.13474406 -0.057818305 0.3104346 0.04345644 -0.014187877 -0.0049148593
-0.26803052 -0.33796915 -0.13651876 -0.066895895 0.05206855 -0.2054283 0.040106162 0.2383637
0.2765911 0.3193011 0.15104647 0.1787761 0.16699532 0.053067636 -0.10012914 -0.041402776
-0.17295212 -0.3377035 -0.19920756 0.003951862 0.011510354 -0.2765919 -0.32508668 -0.45171326
0.09125115 -0.041858416 0.15282694 0.07847596 0.098446965 0.09293067 -0.018028742 -0.23624963
0.09842398 -0.33871183 -0.15041198 0.021107271 -0.1340078 0.06093404 0.25184825 -0.010390862
-0.06490376 0.006246143 0.2157387 -0.21921293 -0.33614063 -0.14163692 -0.24296647 -0.5206101
0.2772507 -0.078244746 -0.17990763 0.06394799 -0.078174785 -0.34110507 0.06896558 0.06151844
-0.24800506 -0.29116166 -0.027367387 -0.18439914 -0.23313993 -0.058921058 -0.15027565 -0.17666017
-0.013439393 0.066973075 -0.012381752 -0.096777424 -0.051646557 0.12804097 0.12693329 0.09228504
0.036752194 0.22352341 0.14819206 0.073135465 -0.11454892 -0.07148475 0.13458018 -0.12418983
-0.3824444 0.10265429 0.29193118 0.14858723 0.11491336 0.05627775 -0.23548818 0.012261627
0.005674538 -0.12033171 -0.17168118 -0.15862426 -0.18160778 0.07886678 -0.08289105 -0.20794475
0.17333864 0.45397165 0.081579 0.26151827 0.24540713 0.002533279 -0.038217783 -0.058025748
0.08539198 0.25765488 -0.011056942 0.2243109 0.051281337 0.28980312 0.27118206 -0.16774587
-0.16215147 -0.1733681 -0.07201663 0.101952404 -0.07155303 0.3350492 0.42564026 0.22671859
0.03558011 0.25213924 0.3869104 -0.18648091 0.058448542 -0.21817896 0.035835188 -0.09170569
0.19347788 0.36271945 0.23054083 0.11668919 -0.11265949 -0.14579701 -0.29207698 -0.45077845
-0.22999029 -0.08141415 0.25102946 0.182602 0.13278827 -0.28398898 -0.2865595 0.02188571
-0.0798605 -0.22165497 -0.0951119 0.13657518 0.15887192 0.12451753 0.22089738 -0.0032640737
0.24448887 0.3026489 0.06552663 0.049156815 -0.35054 0.33248645 0.0061982693 0.12997578
-0.0992403 -0.004945461 -0.095274575 -0.24092804 -0.09952946 0.13062192 0.006574477 0.09542275
-0.068969645 0.043600023 -0.08552464 -0.09517091 -0.29218146 -0.17261821 0.114480756 0.062146895
0.5303087 -0.21800394 -0.31414136 -0.11500226 0.18656582 0.08698711 -0.18889393 -0.21435092
0.123191506 -0.24553703 0.13482088 -0.012170714 -0.17626828 -0.005494737 0.104217686 -0.030195337
-0.0064237583 -0.074482895 0.10053248 0.056051943 0.3088787 0.18336321 -0.058438912 -0.019384634
-0.34883723 -0.055444088 0.028457368 0.034640547 -0.118210115 0.0800315 -0.013240818 0.045892324
00000000: dc1a ba3d 6dcc 323e 9130 64be bc1f f73d
00000010: 6d99 903e 5f32 513e 10b7 b1bd 8bfd 27bd
00000020: f7b0 9f3b 7390 c1be c7e4 cebd 00a1 f2bd
00000030: 5427 1b3e e4f4 78bd 0fff eb3d c1c3 babd
00000040: 96b6 1cba de56 303e 7a09 36be d8f5 8dbe
00000050: 0f55 783d ce9a 833e dcf4 213e 6b9a 3b3e
00000060: 755a 243e 9370 083e 1950 db3d 586b 623e
00000070: 00a9 2d3e 49ab 60bd ef63 4abe 7105 ccbd
00000080: cbb7 a63d 4778 92be ef4c 0cbe 32da 83bd
00000090: 0c5b cf3d 97d5 22be 6353 b7be bdd7 523d
000000a0: 28f9 823e d19c 6b3d 59fa 09be e3d2 6cbd
000000b0: 49f1 9e3e 61ff 313d 4574 68bc d40c a1bb
000000c0: 4c3b 89be 4b0a adbe 93cb 0bbe b700 89bd
000000d0: d545 553d cc5b 52be 5c46 243d 9d15 743e
000000e0: 599d 8d3e 6f7b a33e edab 1a3e 1511 373e
000000f0: d200 2b3e 735d 593d 8210 cdbd f595 29bd
00000100: 5c1a 31be 79e7 acbe 11fd 4bbe 9f7e 813b
00000110: ec95 3c3c 749d 8dbe c371 a6be f646 e7be
00000120: e2e1 ba3d bb73 2bbd aa7e 1c3e 01b8 a03d
00000130: 909e c93d 6f52 be3d 03b1 93bc 6ceb 71be
00000140: 8392 c93d a36b adbe 9905 1abe 28e9 ac3c
00000150: 5739 09be f995 793d 41f2 803e 6f3e 2abc
00000160: 43ec 84bd 72ac cc3b 9bea 5c3e 5b79 60be
00000170: a01a acbe 4509 11be 34cc 78be b446 05bf
00000180: cef3 8d3e c83e a0bd b539 38be 2af7 823d
00000190: 1a1a a0bd 53a5 aebe d33d 8d3d c2fa 7b3d
000001a0: 0af5 7dbe 2413 95be 9231 e0bc 21d3 3cbe
000001b0: 3cbc 6ebe 3557 71bd dce1 19be 67e6 34be
000001c0: e630 5cbc 2e29 893d d5dc 4abc 3e33 c6bd
000001d0: 578b 53bd 2c1d 033e cdfa 013e f0ff bc3d
000001e0: 7889 163d 52e3 643e a9bf 173e 0cc8 953d
000001f0: a098 eabd 9966 92bd 63cf 093e 3d57 febd
00000200: c1cf c3be 6a3c d23d 0178 953e 4027 183e
00000210: b257 eb3d 7f83 663d d023 71be fee4 483c
00000220: 7af1 b93b 7970 f6bd 31cd 2fbe 666e 22be
00000230: 64f7 39be e884 a13d c8c2 a9bd 78ef 54be
00000240: af7f 313e f96e e83e e412 a73d b9e5 853e
00000250: 024c 7b3e 5e05 263b 408a 1cbd 68ac 6dbd
00000260: fee1 ae3d 57eb 833e 2d28 35bc c2b1 653e
00000270: 610c 523d 1361 943e 60d8 8a3e 93c5 2bbe
00000280: 090b 26be 6887 31be 747d 93bd 6ccc d03d
00000290: 658a 92bd 928b ab3e 85ed d93e eb28 683e
000002a0: 73bc 113d 6518 813e 1f19 c63e daf4 3ebe
000002b0: bd67 6f3d 4e6a 5fbe ebc7 123d 31d0 bbbd
000002c0: 111f 463e 5db6 b93e e512 6c3e befa ee3d
000002d0: 05ba e6bd d04b 15be 1d8b 95be 6fcc e6be
000002e0: 9382 6bbe 76bc a6bd ef86 803e 05fc 3a3e
000002f0: a6f9 073e 0167 91be edb7 92be a949 b33c
00000300: e78d a3bd 85f9 62be 07ca c2bd 5dda 0b3e
00000310: 52af 223e 0c03 ff3d ec32 623e 12ea 55bb
00000320: 4a5b 7a3e ccf4 9a3e d332 863d a858 493d
00000330: fb79 b3be aa3b aa3e da1a cb3b 5f18 053e
00000340: 803e cbbd 890d a2bb 511f c3bd d7b5 76be
00000350: 1ad6 cbbd c1c1 053e b66e d73b 016d c33d
00000360: f53f 8dbd f095 323d 8b27 afbd f7e8 c2bd
00000370: cf98 95be d4c2 30be e374 ea3d be8d 7e3d
00000380: 50c2 073f 6d3c 5fbe 23d7 a0be 4e86 ebbd
00000390: 1c0b 3f3e 4c26 b23d 696d 41be cf7e 5bbe
000003a0: d44b fc3d 0f6e 7bbe 7c0e 0a3e ad67 47bc
000003b0: ac7f 34be 320d b4bb 1570 d53d 365c f7bc
000003c0: 647e d2bb 7d8a 98bd f9e3 cd3d b996 653d
000003d0: 5925 9e3e 91c3 3b3e a45d 6fbd 86cc 9ebc
000003e0: cb9a b2be 5719 63bd 6d1f e93c 3fe3 0d3d
000003f0: 2518 f2bd 8ee7 a33d 04f0 58bc 97f9 3b3d

conv2.bias f4 [16]
0.1596467 -0.061053727 -0.08841138 0.046909407 -0.13797657 -0.12711893 -0.12855937 -0.20024635
-0.007564454 -0.3218696 0.03404859 0.0052618813 -0.0801045 -0.14803371 0.13887486 -0.21836695
00000000: 6d7a 233e 7913 7abd 0711 b5bd 1424 403d
00000010: bb49 0dbe 772b 02be 11a5 03be 610d 4dbe
00000020: 3ddf f7bb 18cc a4be 8976 0b3d dc6b ac3b
00000030: d40d a4bd 2696 17be 3635 0e3e 969b 5fbe

bn2.weight f4 [16]
1.1391351 0.96820056 0.98915803 1.1176716 0.99547124 0.99187243 0.9861315 1.1104127
0.81104064 1.0462216 0.88045204 0.940777 0.9495355 0.9147212 0.9171496 0.91406417
00000000: 2ecf 913f fedb 773f 7639 7d3f dd0f 8f3f
00000010: 34d7 7e3f 5aeb 7d3f 1d73 7c3f 0122 8e3f
00000020: 5ca0 4f3f 97ea 853f 4e65 613f c3d6 703f
00000030: c214 733f 2b2b 6a3f 51ca 6a3f 1c00 6a3f

bn2.bias f4 [16]
0.09099796 -0.2658944 -0.35058063 0.14458388 -0.17236954 0.08627717 0.064392425 0.19761479
0.35487014 0.1859147 -0.2873858 0.03178921 -0.029884461 0.18758357 -0.07391868 -0.22802861
00000000: 235d ba3d 5023 88be 4e7f b3be cc0d 143e
00000010: a481 30be 16b2 b03d 2de0 833d 885b 4a3e
00000020: 8ab1 b53e 6c60 3e3e 3b24 93be 6735 023d
00000030: 42d0 f4bc e815 403e ad62 97bd 5580 69be

bn2.running_mean f4 [16]
0.64460856 0.55506784 0.698516 0.55900633 0.5404036 0.43766814 0.19207543 0.45438793
0.5848131 0.35121995 0.6618171 0.39966673 0.35503072 0.36624345 0.994935 0.71381354
00000000: 1105 253f ed18 0e3f f2d1 323f 0a1b 0f3f
00000010: e457 0a3f 0a16 e03e 6caf 443e 89a5 e83e
00000020: 50b6 153f 1ad3 b33e d86c 293f 1ea1 cc3e
00000030: 96c6 b53e 4384 bb3e 0fb4 7e3f 7cbc 363f

bn2.running_var f4 [16]
0.9472012 0.34794077 2.7461057 1.1067305 2.5932662 1.1716801 0.31694946 1.9823245
1.8931608 0.8578364 1.4843607 0.73708445 1.0000762 0.79069465 0.68756884 1.4444128
00000000: c77b 723f 4b25 b23e 32c0 2f40 58a9 8d3f
00000010: 13f8 2540 9df9 953f 3347 a23e cfbc fd3f
00000020: 1853 f23f 2b9b 5b3f 88ff bd3f 91b1 3c3f
00000030: 7f02 803f f76a 4a3f 8304 303f 85e2 b83f

conv3.weight f4 [32, 16, 3, 3]
-0.18784194 -0.21464321 -0.32302344 -0.3063063 -0.2525811 -0.34577736 0.3157827 0.15510726
0.010196311 0.14848192 -0.010323539 -0.08652678 0.0043032216 0.046965737 0.19241744 -0.08943928
0.007223762 0.14876299 0.09581491 0.17329262 -0.16375436 0.16272078 0.17496616 -0.08988416
-0.12678544 0.008220753 -0.17253166 -0.086926244 -0.006687352 -0.06417113 -0.11380686 -0.11259673
-0.30768245 0.14829586 -0.008805296 -0.26326647 0.05920418 0.2879424 0.053113915 0.06146382
-0.055136804 0.009396431 -0.044912394 0.16943027 -0.1321604 0.026122028 0.029147942 -0.009935616
0.03666036 0.12950367 -0.13534003 0.16764054 -0.039759543 0.11170617 0.09661017 0.0004886378
-0.09386312 0.1131377 0.09491582 0.23939939 -0.001088118 0.064665236 0.14967021 -0.19880672
-0.21042368 -0.08077283 0.03289061 0.013840285 -0.11981232 -0.046930946 -0.25754383 -0.13727838
0.084901966 0.08449509 0.23328479 -0.0711749 -0.073344275 -0.15373363 -0.06961419 -0.21278791
-0.14848626 -0.10476554 0.06494671 0.10778548 0.08084731 -0.22072226 -0.020314131 -0.04106517
0.101654924 -0.113580644 -0.05190947 0.01062845 -0.029102271 0.24215327 0.29992494 0.1594028
0.10381014 0.054908045 -0.13155553 0.08772279 -0.020110756 -0.055115644 0.13672064 0.10927233
-0.046938535 0.026683938 -0.23194388 -0.044099674 -0.077652946 -0.007145892 -0.052216977 -0.18262288
-0.19694565 -0.08164405 0.061261754 0.2977967 0.07006255 0.11579933 -0.21297924 0.07127558
0.27088454 0.266386 0.06939652 -0.18312187 -0.0521291 -0.07695263 -0.102239355 0.0037479885
0.034554247 0.0002763675 -0.17551513 0.113874726 0.21806554 0.06281271 -0.054497704 0.07544226
-0.015365956 -0.109947115 0.10001473 0.07908248 -0.27139273 0.19617535 0.041118145 -0.29886717
-0.17077097 -0.43431234 -0.34318313 -0.06867718 0.0078105237 -0.026226735 0.09100522 -0.1834328
-0.27542844 0.2100718 0.25091848 -0.028477676 0.04436751 -0.012137658 -0.029474257 0.010112664
0.00079630676 0.13847615 0.31725633 0.04334272 0.12021752 0.034820665 0.018868517 -0.1920308
0.06742898 0.27240476 0.24067849 0.13826762 -0.044020284 0.15103358 -0.06129449 -0.07118377
-0.118872695 0.19290419 -0.04263822 0.07285552 -0.0029603227 0.10362637 0.14877687 -0.03246336
0.12939535 -0.04884378 -0.049284104 0.14284049 0.15100506 -0.03685834 -0.13701451 -0.12903023
-0.26022178 -0.3348084 -0.1935576 -0.16486898 0.058113113 -0.1416954 0.09501698 0.17595209
-0.16124783 0.03834004 -0.02545111 -0.028449386 -0.119705856 -0.0983527 0.0059139603 0.022377094
-0.29227966 -0.27280128 -0.12065013 -0.13217212 0.0074805557 0.05179138 0.011629847 -0.0636617
-0.05505793 -0.08535034 -0.15568002 0.21080263 -0.043007657 -0.17051524 0.027252952 0.0498928
-0.0042161657 0.0034012203 0.12624864 -0.037234157 0.14567015 -0.23003182 -0.16494542 -0.20042282
-0.0014320955 0.17345642 0.033176214 -0.0386624 0.07513932 0.03427518 0.18306974 0.036246832
-0.11789785 -0.08437408 -0.01490092 -0.061414205 0.069069505 0.14169843 -0.0698986 -0.02653107
-0.047958218 0.09647165 0.22350462 0.1187353 -0.12720701 -0.3547399 -0.20765464 -0.11869494
00000000: a359 40be 6ecb 5bbe 5463 a5be 2ed4 9cbe
00000010: 4f52 81be bb09 b1be 45ae a13e 70d4 1e3e
00000020: 6e0e 273c a50b 183e 1024 29bc f434 b1bd
00000030: 0a02 8d3b 255f 403d 1409 453e f12b b7bd
00000040: 4fb5 ec3b 5355 183e 9c3a c43d 9f73 313e
00000050: 39af 27be 47a0 263e 542a 333e 3015 b8bd
00000060: 0bd4 01be 56b0 063c 24ac 30be 6306 b2bd
00000070: 9321 dbbb 276c 83bd 9213 e9bd 1d99 e6bd
00000080: 8e88 9dbe dfda 173e 1744 10bc ddca 86be
00000090: 1580 723d 306d 933e fa8d 593d 7dc1 7b3d
000000a0: 21d7 61bd 7df3 193c 0ff6 37bd 217f 2d3e
000000b0: 0e55 07be ddfd d53c aac7 ee3c fec8 22bc
000000c0: 2c29 163d 9c9c 043e 9496 0abe f6a9 2b3e
000000d0: e7da 22bd 34c6 e43d 8edb c53d ed17 003a
000000e0: 4f3b c0bd bdb4 e73d 3a63 c23d 1d25 753e
000000f0: 2e9f 8eba 356f 843d 2643 193e fd93 4bbe
00000100: 4e79 57be 3a6c a5bd 4eb8 063d 5dc2 623c
00000110: 2960 f5bd aa3a 40bd c9dc 83be b492 0cbe
00000120: 15e1 ad3d c30b ad3d 35e2 6e3e 25c4 91bd
00000130: 8635 96bd 596c 1dbe e291 8ebd 13e5 59be
00000140: c80c 18be 518f d6bd c802 853d a2be dc3d
00000150: 4693 a53d 0405 62be d269 a6bc f433 28bd
00000160: 7530 d03d f89c e8bd 069f 54bd f322 2e3c
00000170: e367 eebc 07f7 773e c38f 993e 7d3a 233e
00000180: 699a d43d 42e7 603d 7eb6 06be 02a8 b33d
00000190: 50bf a4bc f1c0 61bd 7f00 0c3e 2cca df3d
000001a0: 9f42 40bd 4698 da3c b282 6dbe dca1 34bd
000001b0: 8208 9fbd 1628 eabb 78e1 55bd 7e01 3bbe
000001c0: 1fac 49be ff34 a7bd 9bed 7a3d cf78 983e
000001d0: f47c 8f3d 3328 ed3d 3b17 5abe eef8 913d
000001e0: 61b1 8a3e bf63 883e c31f 8e3d 4d84 3bbe
000001f0: 5385 55bd 5799 9dbd de62 d1bd d0a0 753b
00000200: c188 0d3d 6be5 9039 3dba 33be 2737 e93d
00000210: 934c 5f3e f3a3 803d fc38 5fbd 7981 9a3d
00000220: 7ec1 7bbc f42b e1bd 86d4 cc3d fff5 a13d
00000230: fdf3 8abe 31e2 483e 806b 283d 1e05 99be
00000240: 96de 2ebe 305e debe b3b5 afbe 9fa6 8cbd
00000250: 6cef ff3b 73d9 d6bc f260 ba3d cfd5 3bbe
00000260: f504 8dbe 101d 573e 6378 803e 044a e9bc
00000270: b5ba 353d 07dd 46bc ff73 f1bc 96af 253c
00000280: 3ebf 503a b1cc 0d3e 6c6f a23e 2388 313d
00000290: 9a34 f63d 1da0 0e3d 2692 9a3c b9a3 44be
000002a0: 3418 8a3d a378 8b3e 6c74 763e 0796 0d3e
000002b0: 9d4e 34bd 8ca8 1a3e ee0f 7bbd ccc8 91bd
000002c0: 8773 f3bd ad88 453e 6aa5 2ebd 4635 953d
000002d0: f901 42bb 103a d43d f758 183e 4df8 04bd
000002e0: 3780 043e 6a10 48bd 21de 49bd c744 123e
000002f0: 12a1 1a3e c5f8 16bd 884d 0cbe 8020 04be
00000300: ca3b 85be 026c abbe f733 46be 6ad3 28be
00000310: 0408 6e3d 9918 11be 4398 c23d c92c 343e
00000320: 271e 25be 720a 1d3d d97e d0bc b00e e9bc
00000330: 5828 f5bd 246d c9bd e5c9 c13b 2b50 b73c
00000340: aea5 95be 9cac 8bbe 6a17 f7bd 2158 07be
00000350: 731f f53b 3323 543d 1d8b 3e3c 1161 82bd
00000360: 6d84 61bd 29cc aebd 956a 1fbe a5dc 573e
00000370: cc28 30bd 8c9b 2ebe 9541 df3c 655c 4c3d
00000380: c327 8abb 02e7 5e3b 5347 013e d882 18bd
00000390: 8e2a 153e 768d 6bbe 74e7 28be a43b 4dbe
000003a0: 27b5 bbba 8f9e 313e c8e3 073d 775c 1ebd
000003b0: a5e2 993d 2264 0c3d a276 3b3e 8f77 143d
000003c0: 6e74 f1bd 51cc acbd fd22 74bc 768d 7bbd
000003d0: 5074 8d3d 6519 113e ff26 8fbd b057 d9bc
000003e0: d66f 44bd ee92 c53d 65de 643e 7e2b f33d
000003f0: 8e42 02be 78a0 b5be 6ba3 54be 5516 f3bd

conv3.bias f4 [32]
-0.2905548 -0.31742147 -0.33652106 -0.02948973 -0.079666145 -0.10092727 -0.23875588 -0.29905578
-0.017910225 -0.053506155 -0.044804707 -0.23174791 0.10171863 -0.059467975 -0.17069076 -0.019747563
-0.20365228 -0.2045775 -0.034856822 -0.28729153 -0.05074825 -0.22096983 -0.22709373 -0.38335916
-0.057802267 -0.3443696 -0.27895907 -0.32987317 -0.07847741 0.11793394 0.11212152 -0.2316854
00000000: 99c3 94be 1185 a2be 7d4c acbe 7294 f1bc
00000010: 0128 a3bd f5b2 cebd 6c7c 74be d71d 99be
00000020: 77b8 92bc 4529 5bbd 2485 37bd 534f 6dbe
00000030: db51 d03d b194 73bd 8fc9 2ebe a4c5 a1bc
00000040: 398a 50be c47c 51be 07c6 0ebd e017 93be
00000050: 66dd 4fbd ea45 62be 428b 68be a747 c4be
00000060: 12c2 6cbd 3651 b0be b9d3 8ebe 23e5 a8be
00000070: c4b8 a0bd 5987 f13d f89f e53d f03e 6dbe

bn3.weight f4 [32]
0.9190731 0.8322189 0.9928534 0.88672674 0.9163021 1.027788 1.1311105 1.0564868
1.0933706 0.8574859 1.0115247 1.0874386 0.88056815 0.8254687 0.88997626 0.98339176
1.0345315 1.0201756 1.0092978 0.95789516 0.93266815 1.0103801 0.9152467 1.0149803
0.9596812 0.90180254 1.09117 0.84567183 1.0067194 0.92877746 0.961119 1.066595
00000000: 6048 6b3f 4c0c 553f a42b 7e3f 8600 633f
00000010: c692 6a3f 8f8e 833f 3bc8 903f f63a 873f
00000020: 91f3 8b3f 3284 5b3f a479 813f 3031 8b3f
00000030: ea6c 613f eb51 533f 7cd5 633f 90bf 7b3f
00000040: 876b 843f 1d95 823f ac30 813f 9e38 753f
00000050: 57c3 6e3f 2354 813f 9c4d 6a3f e0ea 813f
00000060: abad 753f 88dc 663f 75ab 8b3f f37d 583f
00000070: 2edc 803f 5cc4 6d3f e50b 763f 2f86 883f

bn3.bias f4 [32]
-0.40608963 0.26281294 0.095980935 0.5446744 -0.23306488 0.093320765 0.27596888 0.32661352
0.09887936 0.38169685 -0.11364058 0.61936384 -0.16390672 -0.18511906 -0.1764538 0.19558588
0.15869066 0.28838056 -0.35296795 -0.1442907 0.41916674 0.16340256 0.16848241 0.08911253
0.38490832 -0.06085855 0.047330085 0.2808965 0.19320177 -0.549462 0.07482804 0.26048025
00000000: fbea cfbe 6b8f 863e a791 c43d c86f 0b3f
00000010: 8fa8 6ebe f51e bf3d cb4b 8d3e e339 a73e
00000020: 4381 ca3d c56d c33e 64bc e8bd a18e 1e3f
00000030: 2ad7 27be da8f 3dbe 4eb0 34be aa47 483e
00000040: ce7f 223e 9ea6 933e 37b8 b4be f1c0 13be
00000050: 069d d63e 0053 273e a786 2c3e a180 b63d
00000060: b412 c53e d146 79bd 31dd 413d abd1 8f3e
00000070: afd6 453e 8ba9 0cbf 723f 993d ab5d 853e

bn3.running_mean f4 [32]
0.19031116 0.12569046 0.3628112 0.7859632 0.48656225 0.7561634 0.5367327 0.45663014
0.44664982 0.74693555 0.24555057 0.6063158 0.79496264 0.3200638 0.4644764 0.7477918
0.5548954 0.44687444 0.72640884 0.27058083 0.27957296 0.50949407 0.23528516 0.3622963
0.315273 0.64175075 0.25499392 0.33395395 0.98881316 1.1290003 1.1957246 0.4149877
00000000: eee0 423e 00b5 003e 64c2 b93e e234 493f
00000010: b01e f93e ed93 413f 5067 093f 6dcb e93e
00000020: 49af e43e 2b37 3f3f 9c71 7b3e 8337 1b3f
00000030: ac82 4b3f 67df a33e dacf ed3e 496f 3f3f
00000040: a00d 0e3f bacc e43e eef5 393f 9289 8a3e
00000050: 3024 8f3e 346e 023f 98ee 703e e77e b93e
00000060: 766b a13e c749 243f 908e 823e 03fc aa3e
00000070: dc22 7d3f 1583 903f 810d 993f 4579 d43e

bn3.running_var f4 [32]
0.35797405 0.1840017 1.083462 0.96609104 0.87799525 0.86721784 1.9065709 1.245335
1.4864445 0.6986888 0.749346 2.1669722 0.8633582 1.1139122 1.1107095 1.4662431
0.94119126 1.7430344 1.3184586 0.65933526 0.77313924 1.2059743 0.4684083 0.91825753
0.8543009 2.3900726 1.0223598 0.5765024 2.4748106 3.155131 1.1956161 1.640101
00000000: 6048 b73e f16a 3c3e e2ae 8a3f be51 773f
00000010: 4cc4 603f fd01 5e3f 840a f43f 2367 9f3f
00000020: d043 be3f 45dd 323f 24d5 3f3f acaf 0a40
00000030: 0b05 5d3f ad94 8e3f bb2b 8e3f dbad bb3f
00000040: e9f1 703f c01b df3f 40c3 a83f 32ca 283f
00000050: 74ec 453f 5e5d 9a3f 36d3 ef3e ed12 6b3f
00000060: 77b3 5a3f f3f6 1840 b0dc 823f a995 133f
00000070: 4c63 1e40 abed 4940 f309 993f d4ee d13f

conv4.weight f4 [64, 32, 3, 3]
0.15276048 0.07739771 0.0012539696 -0.038033754 -0.029130084 0.17408188 0.046510156 -0.038258098
-0.002834248 0.02267562 0.055117495 0.03336109 -0.1320753 -0.046363197 -0.09141805 0.06428061
0.075704694 0.040227495 -0.11867397 -0.03363842 0.03440184 0.0817031 -0.19483632 -0.045539826
-0.111483075 -0.010615029 -0.1167991 -0.031145964 0.027350465 -0.15068005 -0.1505218 -0.28176928
-0.11396762 -0.11926698 -0.10884104 0.017201627 -0.010026292 0.06622316 -0.059291642 0.19240044
0.11375748 0.10750766 -0.4502782 -0.30297172 -0.2597377 0.07442804 -0.09381481 -0.07756418
-0.026219545 -0.08316349 -0.14721227 -0.1617181 -0.15046583 0.20615397 -0.4390371 -0.374623
-0.32840303 -0.23765305 -0.17629004 -0.286616 -0.33854902 -0.30379272 0.25310168 0.0059456946
0.09947024 0.022599602 0.13509661 -0.009896386 -0.13865091 -0.07407462 -0.17144223 -0.1078977
-0.12709364 -0.0768282 0.11549143 -0.114924625 -0.07355868 -0.068852045 0.23906508 0.16240217
0.22577298 0.12476509 0.0361125 0.069918096 -0.072144605 -0.24390607 -0.17459951 -0.10904313
0.00301386 -0.23122919 0.032564923 -0.0052557504 0.08158824 -0.04562333 0.1687128 0.08515522
0.14047435 0.18599589 -0.008311165 0.090633936 0.03128059 0.10371071 -0.051763076 -0.18007413
0.01112092 0.06958494 -0.041313067 -0.058740947 0.14688225 0.038843554 -0.11505707 0.10137789
0.12312475 0.14585961 -0.20691267 -0.23055993 0.080291614 -0.0697822 -0.116420455 -0.07056648
0.028767 0.015591392 0.013384067 0.23126365 0.12731141 -0.14157838 -0.02911324 -0.25288036
-0.030071868 -0.11232786 0.007700555 0.13824175 0.058501866 0.1035562 0.079006426 0.15975279
0.12775259 0.08647529 -0.19173259 0.0151647 0.114868864 0.11431846 0.27695847 -0.014115939
0.044170946 -0.077476464 -0.022610279 -0.08373959 0.07201321 0.16424228 -0.0957671 -0.013586454
-0.12142318 -0.03893837 -0.06325885 0.055255823 -0.21468991 -0.28906605 -0.055708222 0.16410778
0.16850737 -0.05923404 -0.22467072 -0.048068646 -0.051648896 0.1717034 0.17653944 0.10127836
0.19407836 0.16727152 -0.0020349806 0.007965124 0.14564784 0.017593993 0.07141993 -0.012754032
0.017245818 -0.001072244 0.003792071 -0.024540909 -0.07764323 0.061501473 0.11962422 -0.16003299
-0.08571372 -0.1367311 -0.11386477 -0.28288138 -0.12041291 -0.040066414 -0.03119306 -0.08983939
0.09476136 0.25873855 -0.06763025 -0.00013229383 -0.0203593 0.17498861 0.07432281 -0.063881755
-0.19231148 -0.2583963 -0.20436394 0.051622275 -0.13846572 -0.1549759 -0.04037108 -0.14485164
-0.0350469 -0.05129155 -0.13559358 -0.19674905 -0.04343454 -0.216157 -0.103207804 -0.08762592
0.020069353 -0.08535296 0.08452277 0.026216697 -0.051819917 -0.17123376 0.025399541 0.09292837
-0.19883785 -0.08164047 -0.025245601 -0.01460431 0.06092426 -0.05713668 -0.23006766 -0.056776647
-0.030657327 -0.023334706 0.09990417 0.21173215 -0.008865473 0.09337875 0.022731043 -0.09732029
-0.09342591 -0.41123047 -0.12926428 0.04169452 -0.01196376 -0.1711553 -0.10107453 -0.13917634
-0.07080837 0.026912728 -0.042451587 0.14880006 -0.007660981 0.09205193 0.10118718 0.017240072
00000000: 3e6d 1c3e b182 9e3d 3d5c a43a 48c9 1bbd
00000010: 37a2 eebc 8542 323e 6f81 3e3d 86b4 1cbd
00000020: cabe 39bb 39c2 b93c e2c2 613d a3a5 083d
00000030: bf3e 07be 56e7 3dbd 6339 bbbd 8da5 833d
00000040: 100b 9b3d 96c5 243d 570b f3bd 71c8 09bd
00000050: f2e8 0c3d f453 a73d 2c83 47be f887 3abd
00000060: 3d51 e4bd a9ea 2dbc 5e34 efbd d225 ffbc
00000070: 150e e03c df4b 1abe 6322 1abe 1044 90be
00000080: db67 e9bd 3f42 f4bd 0de8 debd 6dea 8c3c
00000090: 5145 24bc 02a0 873d cbdb 72bd 9f04 453e
000000a0: aff9 e83d fa2c dc3d dd8a e6be 1c1f 9bbe
000000b0: 57fc 84be ba6d 983d fb21 c0bd f8d9 9ebd
000000c0: 5fca d6bc 9f51 aabd d0be 16be 6e99 25be
000000d0: b713 1abe 071a 533e 79c9 e0be 96ce bfbe
000000e0: 7124 a8be 525b 73be 6085 34be 55bf 92be
000000f0: 4c56 adbe b88a 9bbe 8b96 813e 1ad4 c23b
00000100: 0eb7 cb3d cd22 b93c c456 0a3e 7424 22bc
00000110: 81fa 0dbe 6fb4 97bd 8d8e 2fbe 78f9 dcbd
00000120: d624 02be 1a58 9dbd c586 ec3d 9a5d ebbd
00000130: efa5 96bd 4d02 8dbd 7acd 743e c14c 263e
00000140: 0831 673e d784 ff3d b3ea 133d 3831 8f3d
00000150: 8dc0 93bd 83c2 79be 37ca 32be 0152 dfbd
00000160: 2e84 453b 58c7 6cbe cc62 053d 6e38 acbb
00000170: bc17 a73d 87df 3abd 0cc3 2c3e dc65 ae3d
00000180: 82d8 0f3e b575 3e3e 8d2b 08bc 499e b93d
00000190: 1320 003d 4866 d43d 8505 54bd 5a65 38be
000001a0: 8534 363c 8d82 8e3d e437 29bd 599a 70bd
000001b0: 4d68 163e 6b1a 1f3d 0ba3 ebbd 369f cf3d
000001c0: d428 fc3d 395c 153e eae0 53be e717 6cbe
000001d0: ee6f a43d f8e9 8ebd d96d eebd 2985 90bd
000001e0: c6a8 eb3c 0a73 7f3c d948 5b3c 61d0 6c3e
000001f0: ec5d 023e ecf9 10be e47e eebc 8979 81be
00000200: 4759 f6bc 260c e6bd f054 fc3b 3f8f 0d3e
00000210: a79f 6f3d 4615 d43d 1fce a13d 3c96 233e
00000220: 93d1 023e f519 b13d 8c55 44be 5d75 783c
00000230: 5e40 eb3d cc1f ea3d 80cd 8d3e 8a46 67bc
00000240: 98ec 343d fbab 9ebd 3139 b9bc aa7f abbd
00000250: a97b 933d 212f 283e 8b21 c4bd b899 5ebc
00000260: b7ac f8bd d77d 1fbd db8d 81bd ee53 623d
00000270: acd7 5bbe 7700 94be 4e2e 64bd df0b 283e
00000280: 328d 2c3e 659f 72bd 1510 66be a1e3 44bd
00000290: cb8d 53bd 04d3 2f3e c1c6 343e 076b cf3d
000002a0: 7abc 463e 3a49 2b3e 4f5d 05bb 2780 023c
000002b0: b524 153e 4721 903c 9d44 923d 4af6 50bc
000002c0: 1a47 8d3c 8a8a 8cba 6584 783b 040a c9bc
000002d0: 6a03 9fbd f8e8 7b3d 8bfd f43d b0df 23be
000002e0: ad8a afbd 3d03 0cbe ef31 e9bd d4d5 90be
000002f0: 0b9b f6bd ae1c 24bd 9788 ffbc b7fd b7bd
00000300: 3e12 c23d 6179 843e ba81 8abd 5bb8 0ab9
00000310: 8cc8 a6bc 3730 333e 8f36 983d 70d4 82bd
00000320: 4ded 44be 854c 84be c844 51be e171 533d
00000330: f5c9 0dbe 01b2 1ebe 255c 25bd fd53 14be
00000340: 578d 0fbd 1717 52bd 0bd9 0abe 9578 49be
00000350: 6be8 31bd 4358 5dbe 9d5e d3bd 3875 b3bd
00000360: 7c68 a43c 88cd aebd 461a ad3d 66c4 d63c
00000370: 1f41 54bd e757 2fbe b312 d03c 3b51 be3d
00000380: 269c 4bbe 1e33 a7bd ddcf cebc ea46 6fbc
00000390: b88b 793d 2708 6abd db96 6bbe a18e 68bd
000003a0: 1325 fbbc 6d28 bfbc 8f9a cc3d 50d0 583e
000003b0: 7d40 11bc 5c3d bf3d 7436 ba3c dc4f c7bd
000003c0: 1556 bfbd cd8c d2be db5d 04be dfc7 2a3d
000003d0: a503 44bc 5643 2fbe 2a00 cfbd 3e84 0ebe
000003e0: fb03 91bd 1578 dc3c b7e1 2dbd 0b5f 183e
000003f0: f708 fbbb b985 bc3d 393b cf3d 0d3b 8d3c

conv4.bias f4 [64]
-0.14114098 -0.22814327 -0.01032584 -0.15560019 -0.19984996 -0.19592732 -0.16170962 -0.23957624
-0.18155436 -0.20196356 -0.16815598 -0.1985083 -0.19835591 -0.2026592 0.08301139 -0.18459159
-0.13595806 -0.3112598 -0.26677296 -0.17570259 -0.34270003 -0.46439347 -0.12477343 -0.14546263
-0.18157502 -0.34099352 -0.3882915 -0.27691486 -0.15838718 -0.51176447 -0.17626975 -0.057643216
-0.28640077 -0.24455354 -0.29092494 -0.22814633 -0.3508149 -0.37519208 -0.25537348 0.042635992
0.00115567 -0.14746201 -0.34270927 -0.17480883 -0.37506947 -0.17001818 -0.3437324 -0.2755826
-0.31168348 -0.042095087 -0.109419055 -0.052949823 -0.20045331 -0.30300948 -0.15066372 -0.23734927
-0.13194886 -0.28764182 -0.46749622 -0.4201091 -0.4063317 -0.41987956 -0.28805777 -0.18234129
00000000: 4387 10be 649e 69be b62d 29bc a855 1fbe
00000010: 78a5 4cbe 2ca1 48be 3597 25be 7953 75be
00000020: 63e9 39be 89cf 4ebe 1531 2cbe c345 4bbe
00000030: d01d 4bbe e585 4fbe e001 aa3d 9405 3dbe
00000040: 9738 0bbe 725d 9fbe 7796 88be 61eb 33be
00000050: 6176 afbe fbc4 edbe 3689 ffbd 28f4 14be
00000060: cdee 39be b496 aebe 25ce c6be c9c7 8dbe
00000070: 4030 22be ff02 03bf 0f80 34be 4b1b 6cbd
00000080: 1fa3 92be 3e6c 7abe 1df4 94be 319f 69be
00000090: 039e b3be 2d19 c0be 50c0 82be 14a3 2e3d
000000a0: da79 973a 4800 17be 9777 afbe 1601 33be
000000b0: 1b09 c0be 3f19 2ebe b1fd afbe 2a19 8dbe
000000c0: fa94 9fbe e66b 2cbd 1917 e0bd eae1 58bd
000000d0: a243 4dbe 0f24 9bbe 9747 1abe b00b 73be
000000e0: 9a1d 07be ca45 93be aa5b efbe 8a18 d7be
000000f0: b50a d0be 74fa d6be 4f7c 93be adb7 3abe

bn4.weight f4 [64]
2.6309493 2.7413719 1.8953958 2.260234 2.2868147 2.3694694 2.0219915 2.5991855
2.386447 2.1429224 2.5382204 2.6368585 2.2143786 2.5104322 2.2240803 2.758883
1.9349357 2.6715488 2.0899122 2.0474508 2.8112986 2.5047605 2.6434777 2.9453025
2.7795649 2.4635067 2.4118018 2.7486 1.978135 2.3902526 2.4670532 1.8127583
2.354957 2.3219342 2.7029178 2.336555 2.4971523 2.171178 2.2099903 2.204401
1.9401957 2.3744764 2.6918106 2.3075576 2.5865953 2.455529 2.9080417 2.5172396
2.373809 2.2206457 2.2696414 2.0033865 2.123927 2.760139 2.4856968 1.9903803
2.3232987 2.1048498 2.0784564 2.525111 2.59357 2.7920842 2.7063253 2.439247
00000000: 7961 2840 a372 2f40 549c f23f ada7 1040
00000010: 2c5b 1240 63a5 1740 4f68 0140 0e59 2640
00000020: 8cbb 1840 a425 0940 3472 2240 4ac2 2840
00000030: 61b8 0d40 ecaa 2040 5557 0e40 8a91 3040
00000040: f9ab f73f a8fa 2a40 1fc1 0540 6f09 0340
00000050: 51ec 3340 ff4d 2040 bd2e 2940 d67f 3c40
00000060: 64e4 3140 18aa 1d40 f65a 1a40 10e9 2f40
00000070: 8733 fd3f e6f9 1840 33e4 1d40 7708 e83f
00000080: 9eb7 1640 929a 1440 9bfc 2c40 1e8a 1540
00000090: 58d1 1f40 95f4 0a40 7b70 0d40 e814 0d40
000000a0: 5558 f83f 6cf7 1740 a046 2c40 06af 1340
000000b0: c78a 2540 6327 1d40 5b1d 3a40 741a 2140
000000c0: 7dec 1740 0f1f 0e40 ce41 1140 7c37 0040
000000d0: 6cee 0740 1ea6 3040 a815 1f40 c8c4 fe3f
000000e0: edb0 1440 dcb5 0640 6e05 0540 6b9b 2140
000000f0: 0dfd 2540 82b1 3240 6f34 2d40 9f1c 1c40

bn4.bias f4 [64]
-0.18805638 0.3042754 0.18405776 0.14542933 -0.31903583 0.16130067 0.15133077 -0.18405692
-0.18094479 -0.20276923 0.21008442 -0.32438028 -0.14931095 -0.15811595 0.21754555 -0.2173578
0.18676598 -0.14444426 0.3095506 0.17017908 -0.3330657 -0.40093184 0.2663769 -0.16779462
-0.2447934 0.16424792 -0.089626215 0.1727614 -0.3105911 -0.18527345 -0.16026531 0.1610067
-0.23435596 -0.29391617 0.329449 0.14031361 -0.22741207 0.17171927 -0.10659421 0.19445051
0.25000685 0.22184876 0.3348587 -0.22126088 -0.17627776 -0.122384414 0.21822323 0.2760567
0.15413535 -0.20723505 0.24016671 0.22221507 0.1712416 -0.24311316 0.18039304 0.15880615
-0.3011887 0.19069166 0.1409469 -0.2539425 -0.20454155 0.19080384 -0.16651404 -0.17795989
00000000: da91 40be fcc9 9b3e a379 3c3e 6deb 143e
00000010: aa58 a3be 012c 253e 74f6 1a3e 6b79 3cbe
00000020: 9749 39be bda2 4fbe 5f20 573e 2c15 a6be
00000030: f8e4 18be 26e9 21be 43c4 5e3e 0b93 5ebe
00000040: 953f 3f3e 32e9 13be 6b7d 9e3e 6d43 2e3e
00000050: 9687 aabe f046 cdbe 8e62 883e 5ad2 2bbe
00000060: 1fab 7abe 9b30 283e f38d b7bd 5de8 303e
00000070: cc05 9fbe 53b8 3dbe 971c 24be f1de 243e
00000080: 02fb 6fbe 2e7c 96be 8aad a83e 5fae 0f3e
00000090: b6de 68be 2dd7 2f3e 114e dabd 091e 473e
000000a0: e600 803e 522c 633e 9972 ab3e 3692 62be
000000b0: 2882 34be aea4 fabd e975 5f3e 4e57 8d3e
000000c0: a8d5 1d3e 6d35 54be 43ee 753e 598c 633e
000000d0: f559 2f3e a8f2 78be f4b8 383e 149e 223e
000000e0: 6835 9abe ad44 433e 6254 103e c004 82be
000000f0: 5773 51be 1562 433e a882 2abe 1e3b 36be

bn4.running_mean f4 [64]
0.08108745 0.060772724 0.19521539 0.0876077 0.11700961 0.12848535 0.18403505 0.057234433
0.12933642 0.12855364 0.08729786 0.046659995 0.051280797 0.08479517 0.2207254 0.07696694
0.16543598 0.04769767 0.09975868 0.33751634 0.045886487 0.07046609 0.04084952 0.08481575
0.033033293 0.1148814 0.06612705 0.20005612 0.1500872 0.022756532 0.04021004 0.49745372
0.0959506 0.15581834 0.095614605 0.06574825 0.0679997 0.175195 0.087439224 0.20357855
0.25681514 0.08930154 0.10153753 0.10910793 0.08636815 0.07319986 0.04698867 0.074044466
0.061515953 0.08949148 0.2076024 0.54580545 0.15539318 0.085568175 0.13021089 0.11156984
0.06843549 0.13646404 0.222158 0.07384733 0.090924434 0.11983648 0.14123684 0.050601695
00000000: 2d11 a63d d2ec 783d 8be6 473e aa6b b33d
00000010: bca2 ef3d aa91 033e af73 3c3e a76e 6a3d
00000020: c470 043e 91a3 033e 38c9 b23d 8d1e 3f3d
00000030: d00b 523d 17a9 ad3d d705 623e d8a0 9d3d
00000040: 0d68 293e a25e 433d 474e cc3d f1ce ac3e
00000050: 78f3 3b3d 8750 903d d451 273d e1b3 ad3d
00000060: eb4d 073d f046 eb3d 9e6d 873d 83db 4c3e
00000070: 75b0 193e e86b ba3c 48b3 243d 41b2 fe3e
00000080: c081 c43d d88e 1f3e 97d1 c33d 05a7 863d
00000090: 6d43 8b3d 5166 333e 5613 b33d e576 503e
000000a0: 467d 833e bae3 b63d e9f2 cf3d fa73 df3d
000000b0: c9e1 b03d cfe9 953d 3177 403d a0a4 973d
000000c0: 27f8 7b3d 4f47 b73d b995 543e e8b9 0b3f
000000d0: 641f 1f3e 5e3e af3d 0156 053e ba7e e43d
000000e0: e827 8c3d 3bbd 0b3e 637d 633e 453d 973d
000000f0: 9736 ba3d d46c f53d 64a0 103e b943 4f3d

bn4.running_var f4 [64]
0.15541443 0.15488273 0.37660605 0.163354 0.3115239 0.32682946 0.40383527 0.111125715
0.31157 0.22934468 0.19460729 0.10217202 0.08645328 0.1569461 0.52062994 0.17684415
0.39656222 0.10628381 0.21082306 0.8468998 0.07035296 0.23012242 0.08832259 0.14648204
0.06977837 0.252164 0.1574274 0.43485942 0.31318548 0.06527049 0.06957247 1.6784271
0.23868132 0.34894213 0.21881174 0.15279168 0.10374351 0.37619135 0.13758327 0.20864294
0.47346306 0.20901673 0.17398678 0.19873352 0.26876843 0.1111373 0.08562076 0.21190734
0.123894036 0.174262 0.48317856 1.2694256 0.32419765 0.19450833 0.28853077 0.20668742
0.14951955 0.23177144 0.5467213 0.19662397 0.21913667 0.40379927 0.19390315 0.07110987
00000000: f624 1f3e 9499 1e3e 82d2 c03e 4546 273e
00000010: 1080 9f3e 3156 a73e 7fc3 ce3e e195 e33d
00000020: 1a86 9f3e 55d9 6a3e 2247 473e 903f d13d
00000030: 6b0e b13d 7ab6 203e 0148 053f a216 353e
00000040: 340a cb3e 54ab d93d 00e2 573e 6dce 583f
00000050: 3615 903d 36a5 6b3e 79e2 b43d 63ff 153e
00000060: f6e7 8e3d a41b 813e a634 213e e5a5 de3e
00000070: d959 a03e 89ac 853d 037c 8e3d b3d6 d63f
00000080: e068 743e 8ba8 b23e 2f10 603e 6c75 1c3e
00000090: 7a77 d43d 279c c03e a1e2 0c3e 7fa6 553e
000000a0: c069 f23e 7b08 563e 9729 323e cd80 4b3e
000000b0: 049c 893e f49b e33d f059 af3d 3dfe 583e
000000c0: 28bc fd3d bd71 323e 2e63 f73e 8a7c a23f
000000d0: 3cfd a53e 312d 473e 4eba 933e dea5 533e
000000e0: a71b 193e 7e55 6d3e edf5 0b3f cb57 493e
000000f0: 5d65 603e c7be ce3e 8c8e 463e 0da2 913d

lin.weight f4 [10, 64]
-0.572723 -0.57783437 0.34717268 0.6711889 0.3790745 0.829159 0.7162973 -0.35205373
-0.2062894 -0.43069825 0.55020094 0.66126204 -0.88882786 -0.5630818 0.5242109 -0.6531793
0.5499331 -0.92033917 -0.2480191 0.49805862 0.20084465 0.6835573 -0.52177095 -0.7905242
-0.11622205 0.4932296 -1.0566084 0.9102734 0.3228351 -0.5261678 -0.884195 0.3867055
-0.3206636 0.17387952 -0.6447288 0.7122638 -0.33340785 0.44753698 -0.64469916 0.047962535
0.3265305 0.50413 0.020952523 -0.051634002 -0.67709535 -0.7912759 0.12113423 -0.91196185
0.97885656 -0.29337093 0.061293714 0.12827979 0.38368753 -0.06971964 0.7542267 0.6666902
0.23244338 0.81198907 0.8577087 -0.29659542 -0.5512634 0.20628205 -0.8642598 -0.47249362
0.7551551 1.0306128 -1.0960498 0.51793206 -0.74782723 0.20894796 0.23658784 -0.15818045
1.1126081 0.794112 -0.27453306 -0.8229782 0.6006961 -0.72779554 0.28921673 0.44778275
0.30723867 0.97434026 0.6670316 0.3840128 -0.3562401 -0.5439198 0.73153436 0.4824161
0.9287486 -0.1378795 0.4804269 -0.36292166 -0.7477882 0.8421544 0.07201659 0.2265819
-0.58519 -0.7905867 0.65069777 -0.42478356 -0.59045273 -0.29612902 0.58612406 -0.8595931
0.17858005 -0.65546244 -0.2289485 -0.32526562 -0.35958576 0.959619 -0.99465597 0.37280345
-0.216405 -0.7195866 0.63184303 0.26375717 0.5078789 -0.79571414 0.45620438 -0.14809607
0.55209094 -0.030866107 -0.0562888 -0.71445 -0.27053168 -0.9887051 0.46210796 0.0488369
0.97611356 -0.59253454 0.13154449 -0.58325434 -0.24669465 -0.13569976 -0.62144995 -0.7398376
-0.2735421 -0.14220262 -1.7343746 -0.43233797 -0.28190705 0.3069574 0.12287876 1.2316501
-1.111172 -0.4573148 -0.34788066 -0.8130159 1.2714382 -0.17832562 -0.17985734 -0.45975733
-0.25827894 -0.9799266 -0.12682092 0.7282679 0.14436555 -0.49181134 -0.22369094 -0.9217421
-0.3834924 0.782655 0.9147284 -1.4377314 1.5161308 0.1677049 -0.5324616 0.5830152
-1.7350589 -0.260425 -1.3011779 0.23898576 0.13084972 -0.39161628 1.0334119 -0.23570724
0.36279958 0.19873498 -1.019047 -0.24830483 -0.9298646 -0.58718437 -0.89840144 -0.94686335
-0.4755731 0.14669 -0.12814772 0.40739375 -0.39687 -1.160656 0.18145028 1.4532235
-0.82263124 -0.6477159 0.48057213 -0.7382918 0.238974 -0.87639505 -0.45211884 -0.33044496
-0.67879575 -0.40817928 0.6991696 0.0832353 0.64395595 0.584309 -1.3350567 -0.22601765
-0.31253195 0.6045103 0.308807 0.073518485 -0.6957573 -0.05422244 0.6288713 -0.5561894
-0.90884125 0.7162923 0.8361766 -1.298515 0.18715905 -0.06774976 1.2062608 0.33183262
1.3262686 -0.15164907 -0.041795064 0.2530282 0.10451175 0.57360727 0.70613295 -0.23332164
0.08955842 -0.50854385 0.8622213 -0.6286829 1.2667176 -0.4960827 0.45552713 0.9597413
-1.0231943 0.27201837 -0.05606665 0.5059652 0.23345259 0.94413733 -1.277056 -0.31513318
-0.3341026 -0.25633058 -0.9691872 0.91475683 -0.1277482 1.0939957 -0.5951279 -0.57889813
00000000: f99d 12bf f4ec 13bf 9ec0 b13e 09d3 2b3f
00000010: 0e16 c23e c443 543f 435f 373f 6340 b4be
00000020: 873d 53be 7b84 dcbe f8d9 0c3f 7848 293f
00000030: 398a 63bf 2126 10bf af32 063f c236 27bf
00000040: 6ac8 0c3f 599b 6bbf b8f8 7dbe 8a01 ff3e
00000050: 38aa 4d3e 9cfd 2e3f c892 05bf cb5f 4abf
00000060: d305 eebd 9788 fc3e f23e 87bf ad07 693f
00000070: a44a a53e efb2 06bf 9b5a 62bf 43fe c53e
00000080: 052e a4be 790d 323e f20c 25bf ec56 363f
00000090: 6fb4 aabe 9123 e53e 010b 25bf 5d74 443d
000000a0: 012f a73e aa0e 013f a0a4 ab3c 2d7e 53bd
000000b0: 1f56 2dbf 0f91 4abf 3915 f83d 5576 69bf
000000c0: 5896 7a3f b734 96be 1e0f 7b3d c75b 033e
000000d0: b172 c43e 2cc9 8ebd 0015 413f 35ac 2a3f
000000e0: a305 6e3e 84de 4f3f cc92 5b3f 5bdb 97be
000000f0: 991f 0dbf 9a3b 533e 2140 5dbf afea f1be
00000100: d851 413f 1feb 833f 5c4b 8cbf 3297 043f
00000110: 9b71 3fbf 74f6 553e 1544 723e 0efa 21be
00000120: f169 8e3f ed4a 4b3f 998f 8cbe b3ae 52bf
00000130: 38c7 193f cf50 3abf 3714 943e c843 e53e
00000140: 634e 9d3e 5d6e 793f 95c2 2a3f 539d c43e
00000150: 1a65 b6be 543e 0bbf d645 3b3f 3eff f63e
00000160: 78c2 6d3f 4930 0dbe 84fa f53e ded0 b9be
00000170: 0c6f 3fbf 6e97 573f 6f7d 933d 1605 683e
00000180: 03cf 15bf e463 4abf 2194 263f 3b7d d9be
00000190: e927 17bf 399e 97be 3a0c 163f 4b0e 5cbf
000001a0: b0dd 363e 63cc 27bf 7a71 6abe 3789 a6be
000001b0: a01b b8be 97a9 753f c6a1 7ebf 18e0 be3e
000001c0: 4699 5dbe d436 38bf 77c0 213f 2e0b 873e
000001d0: 5a04 023f ecb3 4bbf 9f93 e93e 7fa6 17be
000001e0: d555 0d3f ebda fcbc 168f 66bd 32e6 36bf
000001f0: 2183 8abe c71b 7dbf 6a99 ec3e 3409 483d
00000200: 94e2 793f 58b0 17bf 99b3 063e 2850 15bf
00000210: 869d 7cbe e1f4 0abe 5817 1fbf ff65 3dbf
00000220: b60d 8cbe 909d 11be fdff ddbf 675b ddbe
00000230: 1f56 90be 8529 9d3e dca7 fb3d b6a6 9d3f
00000240: e23a 8ebf 2a25 eabe 6a1d b2be cf21 50bf
00000250: 7dbe a23f fe9a 36be 862c 38be 5065 ebbe
00000260: 233d 84be 78dc 7abf 58dd 01be c46f 3a3f
00000270: 90d4 133e b2ce fbbe 3d0f 65be 4af7 6bbf
00000280: 1e59 c4be 145c 483f a42b 6a3f 9507 b8bf
00000290: 9310 c23f d5ba 2b3e 674f 08bf 7c40 153f
000002a0: 6916 debf 6d56 85be ff8c a6bf afb8 743e
000002b0: 78fd 053e ee81 c8be d746 843f 3d5d 71be
000002c0: dec0 b93e 2f81 4b3e 2270 82bf 9f43 7ebe
000002d0: 9b0b 6ebf b751 16bf a3fd 65bf a365 72bf
000002e0: 517e f3be e735 163e 2839 03be ea95 d03e
000002f0: 8b32 cbbe 6090 94bf 1ace 393e 3a03 ba3f
00000300: f697 52bf b6d0 25bf 8d0d f63e b100 3dbf
00000310: 9ab5 743e 6d5b 60bf 1f7c e7be 1530 a9be
00000320: 8fc5 2dbf e0fc d0be c7fc 323f 4577 aa3d
00000330: 4cda 243f 4695 153f 23e3 aabf 2c71 67be
00000340: 3004 a0be 30c1 1a3f f31b 9e3e dc90 963d
00000350: 271d 32bf 5918 5ebd b6fd 203f 6e62 0ebf
00000360: d2a9 68bf ef5e 373f ab0f 563f bd35 a6bf
00000370: 9fa6 3f3e 63c0 8abd c166 9a3f f7e5 a93e
00000380: 2bc3 a93f e549 1bbe 4d31 2bbd ea8c 813e
00000390: 420a d63d edd7 123f 21c5 343f deeb 6ebe
000003a0: 686a b73d ee2f 02bf 89ba 5c3f 5df1 20bf
000003b0: cd23 a23f 8dfe fdbe da3a e93e 9bb1 753f
000003c0: 08f8 82bf fe45 8b3e 25a6 65bd ef86 013f
000003d0: 320e 6f3e fcb2 713f 9276 a3bf 2359 a1be
000003e0: 7f0f abbe c33d 83be a71c 78bf 812d 6a3f
000003f0: 6dd0 02be 0d08 8c3f 4d5a 18bf ab32 14bf

lin.bias f4 [10]
-0.06753806 0.16277933 -0.03761343 0.15096088 0.16610561 -0.49845397 -0.33566916 -0.4600342
-0.5124713 -0.445405
00000000: 6551 8abd a0af 263e 8a10 1abd 7d95 1a3e
00000010: 9717 2a3e 5c35 ffbe d4dc abbe 9a89 ebbe
00000020: 5231 03bf 200c e4be
