NCC_Code/Models/2022-08-15_14-45-01_model.pt (torch, 115275 bytes, 50 tensors)

conv1.weight f4 [8, 2, 5, 5]
000000 5f a5 16 be 66 43 c4 be c4 e5 66 be 6a 0a 2c be
       -0.14711522 -0.3833267 -0.22548586 -0.16800848
000010 07 44 92 3c e3 2b 45 bc e6 84 73 3d 30 50 93 3e
       0.017854704 -0.012034389 0.059452914 0.28772116
000020 62 97 07 be c5 d3 6f 3d 34 51 b2 3e 93 28 e5 3e
       -0.13241342 0.05855157 0.34827578 0.44757518
000030 be ce 6d 3e 31 d8 fa 3e 56 c3 8f 3d 8b 3c 0d be
       0.23223397 0.48993066 0.07019679 -0.13792627
000040 02 ba 94 bb 0a b8 4c bd 8e 67 24 3e 86 5c a6 bd
       -0.0045387754 -0.0499802 0.16055128 -0.08123116
000050 d3 7b e5 bd ee 05 81 bc 47 ec fb 3c af 12 6c be
       -0.11205258 -0.015749898 0.030752314 -0.23054002
000060 c9 79 5e be 32 dd f3 bd 9b 18 b5 3d 3b 53 3f be
       -0.21726145 -0.11907424 0.08842584 -0.18684094
000070 d7 54 09 be 8f 89 6c be f3 6e 62 3e 7a b4 b2 3b
       -0.1341127 -0.2309935 0.22112636 0.0054536434
000080 cb 9d 7c bd 4c d0 46 3e 43 31 7e bd cf fe 39 3e
       -0.06167392 0.19415396 -0.0620587 0.18163608
000090 f5 b6 a4 3e 37 c5 2f 3e 8f 76 ef 3c 86 5d d9 3d
       0.32170835 0.17165075 0.029231338 0.10613541
0000a0 87 92 82 bd 0e 2c a6 be ed 72 d6 bd 2f 2c d4 be
       -0.06375604 -0.32455486 -0.10471139 -0.4143996
0000b0 c7 34 d6 bd c0 5f 75 3d 0d 16 00 be 58 86 af be
       -0.10459285 0.059905767 -0.12508412 -0.34282184
0000c0 54 56 03 be db 37 83 bc c7 08 d5 3d db 43 b4 3e
       -0.128259 -0.016017845 0.10402065 0.3520802
0000d0 b5 56 e3 3d ac 0b 0a 3f 2e 0d d6 3e 8d 84 8e be
       0.111005224 0.5392406 0.4180693 -0.27835503
0000e0 56 c0 11 be 94 ab 06 be 70 24 d7 3d b5 05 13 be
       -0.14233527 -0.1315139 0.10504997 -0.14357646
0000f0 4c 45 88 3d 69 36 64 3e d3 ea 1e bd 57 91 2d bc
       0.06653842 0.22286381 -0.038798165 -0.010593734
000100 59 2b ff 3d 0e cc d1 3d 1d 8c 39 bd 44 2e 81 3d
       0.1245944 0.102439985 -0.045299638 0.063076526
000110 5c d1 11 bd 99 7b 1e be fe 43 b7 bd ee 9b 86 be
       -0.03560005 -0.15476836 -0.08948515 -0.2629084
000120 5d 8a 8a bb 0c 79 8e be 9a df 2e be 60 74 c7 3b
       -0.00422792 -0.27826726 -0.17077485 0.006086871
000130 d7 13 43 3e 9b 76 e2 3e b8 85 48 3e 88 a4 8a 3e
       0.19050537 0.44231114 0.1958226 0.27078652
000140 f1 9b a4 3e 12 dc b7 bc 8e e6 90 3e 77 99 1b bd
       0.32150224 -0.022443805 0.283009 -0.037988152
000150 d2 68 14 3e b9 bd 89 bc 2b d1 6c bd 40 d7 da bd
       0.14493111 -0.0168141 -0.057816666 -0.10685587
000160 72 6a a8 bd 8f 9c 9c 3d e4 02 2b 3e 39 08 20 3e
       -0.08223428 0.07647049 0.16700321 0.15628137
000170 98 2f 90 3e b6 61 70 3e 0a 37 6a bd 6f 00 f5 3d
       0.2816131 0.23474774 -0.057181396 0.11962973
000180 d1 2b 92 3d 57 d3 b6 be 1d 13 0f be 9b e0 0a be
       0.071372636 -0.35708115 -0.13972135 -0.13562243
000190 f7 96 50 3d 93 ec 0c 3d d4 e0 22 3e c6 f2 75 bd
       0.05092522 0.034405302 0.15906078 -0.06004598
0001a0 32 f9 12 3e c7 8d 75 bd d5 e0 42 be f7 f8 4a 3e
       0.14352873 -0.059949663 -0.19031079 0.19821535
0001b0 f8 b3 f3 bd ef aa cf 3d 6c 07 dd 3e 65 94 ba 3e
       -0.11899561 0.10140025 0.43169725 0.3644134
0001c0 93 5e 1f 3e 53 5c 22 3e 9b 4e 65 3e 19 5e 77 36
       0.15563421 0.15855531 0.22393267 3.686064e-06
0001d0 00 a8 15 3e 6d 43 9f be 48 60 a7 3d 29 9f b4 bd
       0.14614868 -0.3110613 0.08172661 -0.0881942
0001e0 cb ba 77 be 20 0a 4e 3d 8b 5b c8 bc 70 c2 0c 3c
       -0.2419235 0.050302625 -0.024457714 0.008591279
0001f0 55 21 55 3e d6 77 50 3d c1 42 9c bc de bf 91 bc
       0.20813496 0.050895534 -0.0190748 -0.017791685
000200 e7 68 1d 3e b4 48 8d bd b4 15 45 be f5 43 60 be
       0.15372048 -0.06898633 -0.1924656 -0.21900924
000210 a3 6b 26 bf f0 3b 73 be 8a 74 99 be 75 74 6b 3d
       -0.6500799 -0.23753333 -0.29971725 0.05748411
000220 89 b1 08 3e 7e 87 bc 3e a7 9b 55 3d c4 2d 48 bd
       0.13348974 0.36822122 0.052150395 -0.04887177
000230 64 fe 34 3e 29 21 35 3a 59 c3 c0 3e ea a7 07 3e
       0.17675167 0.00069095433 0.37649038 0.13247648
000240 60 08 2f bd e8 1a 27 3d 37 07 21 3d b6 19 04 3e
       -0.042732596 0.040797144 0.03931352 0.12900433
000250 6f 62 51 3e 2c 31 df 3d 0b 1d b6 bd 63 cc 70 bd
       0.20447706 0.10898051 -0.08892258 -0.05878867
000260 bb d4 9f bd dc 20 05 3e 5a 24 96 3c 8d f8 05 3d
       -0.07804247 0.13000816 0.01832788 0.03270774
000270 2b b5 e3 bd 69 d9 fd 3d 12 02 ad bd e7 f9 7b bc
       -0.111185394 0.12394983 -0.084476605 -0.015379406
000280 42 4d 0b 3e fe ec 91 bd 4f 6d 95 be 74 98 55 3e
       0.1360369 -0.07125281 -0.29184958 0.20858938
000290 2c 84 c0 be e9 bd 88 3e 29 b3 fe 3e f1 a4 cc 3e
       -0.3760084 0.2670739 0.49746063 0.3996959
0002a0 fc 1c bd 3e 99 2c 85 3e c1 ab 27 3e c4 93 f9 bd
       0.36936176 0.26010588 0.16374113 -0.12186387
0002b0 a8 71 76 bc ed 6d db bd 3c 91 d3 3d df 17 44 3c
       -0.015041746 -0.10714326 0.10330436 0.011968582
0002c0 42 46 b8 bc 8d 80 b2 3c e3 f1 da bc ea de f4 3c
       -0.022494439 0.021789813 -0.026726669 0.02989145
0002d0 ed 73 63 be 3d ff 49 be 0b 8a 8b be b9 4d 9a be
       -0.22212191 -0.19726272 -0.27253756 -0.30137423
0002e0 48 7b 6f be 6e 1b 49 3e 3b dc 90 3e f5 85 51 3e
       -0.23386872 0.1963937 0.28293023 0.20461257
0002f0 b9 e5 c3 bd 82 56 c3 3e 4c 49 d1 3d c1 2d 1b 3e
       -0.095653005 0.38151938 0.102190584 0.15154172
000300 80 d2 ee 3e 68 bc e6 3e 33 0c 41 3e 0e d5 96 be
       0.46644974 0.45065618 0.1885231 -0.29459423
000310 31 20 91 bd 4a 0f 9d be 6c d8 7e be d1 6a 7d be
       -0.07086218 -0.30675727 -0.24887246 -0.24747778
000320 6f 9a fc 3d 91 9e a7 3d 45 e1 53 3b 5e b1 8b 3e
       0.12334143 0.08184541 0.0032330316 0.27283758
000330 b8 c3 f7 bd d9 fd 05 bc aa b5 e1 3c d8 e0 dd bc
       -0.12097877 -0.008178198 0.027552444 -0.027084753
000340 a7 94 c7 bc 5a 1f 93 3e 0e 05 2d 3e cb 59 7d be
       -0.024362875 0.28734857 0.1689646 -0.24741285
000350 be d5 87 be 75 80 cc be 6b e5 b9 3c cc 82 05 bf
       -0.2653026 -0.39941755 0.022692403 -0.52152705
000360 25 61 f8 be f6 f3 51 be 29 b1 82 be 19 ff 9b bd
       -0.48511615 -0.2050322 -0.25525787 -0.076170154
000370 10 3d 32 be 6c fc 96 bd c3 59 e6 be c6 0d 0e be
       -0.17406106 -0.073723644 -0.44990358 -0.13872442
000380 34 b8 9a be 63 ae 82 3d 2f 33 9a 3d 1d ce 0a 3e
       -0.3021866 0.06380918 0.07529294 0.13555188
000390 c4 5b 88 be 74 f5 05 3e 7b c1 43 be ca 9b b1 ba
       -0.26632512 0.13081914 -0.19116776 -0.0013550457
0003a0 7f 61 99 bd 57 7a 63 3d b7 97 63 be 97 f0 d4 be
       -0.07489299 0.055536594 -0.22225843 -0.41589805
0003b0 ab a0 85 be 17 9f 93 be 44 f6 f4 bd 00 75 21 be
       -0.26099142 -0.28832313 -0.11961034 -0.15767288
0003c0 ba c0 35 3e a5 5a a7 bd 54 3b 5f be 66 ad 34 be
       0.177493 -0.08171586 -0.21799976 -0.17644271
0003d0 9f f6 ac 3c 45 d3 56 bd 27 54 d8 be c9 3c 5e be
       0.021113692 -0.052447576 -0.42251703 -0.21702875
0003e0 a3 f7 0b bf 92 6b 45 be f2 3b 9f 3e b3 39 09 3f
       -0.5467474 -0.19279316 0.31100422 0.5360367
0003f0 6c 8e 7d 3e 47 4c 6c 3e 04 33 a1 3e 5f 4e 13 3d
       0.24761361 0.23075972 0.31484234 0.035963412

conv1.bias f4 [8]
000000 ba 3e de 3d 30 fc 2f bd 1f 35 69 be 89 4f fc 3d
       0.10851808 -0.042965114 -0.2277417 0.123198576
000010 99 90 5a 3e 68 07 24 be f3 94 90 3e 8c 75 67 3e
       0.21344222 -0.1601845 0.2823864 0.22603434

bn1.weight f4 [8]
000000 95 0f 75 3f f6 8f 88 3f ac 53 70 3f 5c a4 a6 3f
       0.957269 1.0668933 0.93877673 1.3018909
000010 31 04 65 3f 1d 34 77 3f 0e 5a 5d 3f 6f ca 7f 3f
       0.8945952 0.96563894 0.8646554 0.99918264

bn1.bias f4 [8]
000000 ea ca 15 3d 13 92 d7 3d ee d0 94 bd c9 c6 7b 3b
       0.036570467 0.10525908 -0.07266413 0.0038418046
000010 d3 07 0f 3e 64 d1 61 bc 20 e2 2f 3d cc 14 0d be
       0.13967828 -0.013782833 0.04294026 -0.13777465

bn1.running_mean f4 [8]
000000 26 11 03 3f 20 bb 3f 3f 91 6d a2 3e e3 3d 0d 3f
       0.5119804 0.74894905 0.31724218 0.55172557
000010 3f d5 f1 3f b7 e6 d0 3e 1a d0 bc 3f 00 fe 10 3f
       1.8893203 0.4080102 1.4751008 0.56637573

bn1.running_var f4 [8]
000000 90 5b 7a 3f bd 51 20 40 3c 87 18 3f ba 97 94 3f
       0.97795963 2.504989 0.5958135 1.1608803
000010 f9 6b 3e 40 77 0d 5a 3f 45 06 de 3f 3a 81 7d 3f
       2.9753401 0.85176796 1.7345663 0.9902531

conv2.weight f4 [16, 8, 3, 3]
000000 3a 01 a6 bd 24 6c 4a be 85 bf 31 be 03 fa 6e bc
       -0.08105703 -0.19767815 -0.17358215 -0.014585975
000010 50 4d fa bd b0 b7 10 be bb 76 2a 3e fd c3 03 bd
       -0.122217774 -0.14132571 0.16646855 -0.03216933
000020 04 73 dd 3d fe 0c 92 3e 0e 62 1c be 5d 5e 0b 3e
       0.10812953 0.28525537 -0.1527178 0.13610215
000030 1d 3f e6 bc 60 e1 37 be e7 d6 be bd 4d 0b ac 3d
       -0.028106267 -0.17957067 -0.09318333 0.08400593
000040 7d 16 87 be 39 8b cc bd 78 21 9d 3d 5d b0 0b be
       -0.26384345 -0.09987492 0.07672399 -0.13641496
000050 70 f3 d4 bc 04 e5 75 bc b4 84 bb 3d ee 01 75 3e
       -0.025994986 -0.015008215 0.091561705 0.23926517
000060 ef 3b 04 be 08 f8 94 bc cf 4f 88 b8 b5 09 98 3e
       -0.12913488 -0.018184677 -6.499851e-05 0.29694906
000070 c1 ae c0 3e f4 7b 16 3e ea ce 5c be 25 e0 2a be
       0.37633327 0.14695722 -0.21563306 -0.16687067
000080 34 ac 8a be 96 8b 27 3d 91 36 15 3e 1d ff 14 3d
       -0.27084506 0.040904604 0.14571597 0.036376107
000090 2b 9a 3e 3d a2 61 4f be 57 d1 c3 bd a4 d6 8d 3e
       0.046533745 -0.20252088 -0.09561413 0.2770282
0000a0 bc a8 b7 bd 26 b4 39 3e cb de 71 bd 85 d7 b7 3e
       -0.089677304 0.18135127 -0.059050363 0.35906616
0000b0 ee ad ab 3e 9d f6 34 bd 20 89 c8 3d 3e 1f 1c be
       0.33531135 -0.0441805 0.097917795 -0.15246293
0000c0 04 de 9f 3e 07 97 49 3e 9c c1 e2 3e 5d d5 45 bd
       0.31224072 0.19686519 0.44288337 -0.048299182
0000d0 9a f4 97 be be 12 bc 3c 10 ac 28 be 92 c3 aa bd
       -0.29678804 0.022958156 -0.16471887 -0.08338083
0000e0 d0 8c 6f 3e 3c 11 41 bc 73 dc 65 3e 89 25 e7 3e
       0.2339356 -0.011783894 0.22447376 0.45145825
0000f0 58 a9 15 be f8 f5 b2 3d 7a 1d 68 be c0 94 b6 3d
       -0.14615381 0.08738321 -0.22667494 0.089150906
000100 7e ad bc bd e0 03 60 bd 73 f7 a6 3e d0 8a 9d 3e
       -0.092127785 -0.054691195 0.32610664 0.30769968
000110 30 d7 08 3f 8a 47 97 be 2b 55 06 bd 06 b1 df bc
       0.5345335 -0.29546767 -0.032796066 -0.027306091
000120 b1 ec 13 bc 92 ef 28 bc 09 e0 38 3e 2e a3 b6 bd
       -0.0090286 -0.010311024 0.18054213 -0.08917843
000130 d2 13 83 ba e5 b6 cb 3d 00 63 94 3d 02 bf 0c 3e
       -0.0010000414 0.09946994 0.07245445 0.13744739
000140 51 61 88 3e f7 5f e4 bd 43 66 62 3e dc f1 8d be
       0.26636747 -0.11151116 0.22109322 -0.27723587
000150 c6 be 8a bd 97 fc 95 bd 15 0a 31 3e 00 a8 a3 3d
       -0.067746684 -0.07323568 0.17289002 0.07991028
000160 74 4d 9c 3e c5 26 29 3d b2 88 10 3e 8f b2 e5 3d
       0.30527842 0.04129674 0.14114645 0.11215698
000170 78 5f 60 3e 9a ec 39 3e 73 df 83 3d bf 72 0e 3e
       0.21911418 0.18156663 0.06439104 0.1391096
000180 c3 8f a8 3e 3c 29 a3 3d 88 98 a7 3e 8b 94 97 3d
       0.3292218 0.07966849 0.3273356 0.07401379
000190 c2 4e 83 3d fa ee 23 3d d8 50 86 be fb 9e 53 be
       0.06411506 0.040022828 -0.26233554 -0.20666115
0001a0 99 a8 8e be 1a ab cb 3c ef d7 60 3e f8 f7 34 3d
       -0.27863005 0.024861861 0.21957372 0.044181794
0001b0 85 51 29 be 6e 7a 2c 3e d9 c3 10 bd 9b 9a 39 3e
       -0.16535003 0.16843578 -0.035343025 0.18125384
0001c0 47 7b b6 bd fa a8 65 bd 7e b6 f8 bd 70 c4 0a 3d
       -0.08910232 -0.05606935 -0.121441826 0.033878744
0001d0 f9 1a ac bd bb 55 f2 bb b2 9b 91 be 54 e3 d7 be
       -0.08403582 -0.007395474 -0.284391 -0.42165625
0001e0 f1 b1 ba 3c ff a2 7a 3e 79 d0 1a 3e 8b 40 58 3e
       0.022789927 0.2447624 0.15118589 0.21118371
0001f0 e0 a2 c9 3c cd 99 40 bd 4d 21 9a 3e dc a8 a9 bc
       0.024613798 -0.047021676 0.3010353 -0.020710401
000200 08 26 08 bd 51 ed 7b 3e cc 55 a1 bd e9 2b 45 3e
       -0.033239394 0.24602248 -0.078776926 0.19255032
000210 3b 2c 2f 3e dd aa 62 3e 2d 50 d5 3d 3d 33 1b bc
       0.17106716 0.22135492 0.10415683 -0.009472665
000220 26 d0 b2 be 44 02 bf bd a9 21 a0 bd c7 5f 2e be
       -0.3492443 -0.09326604 -0.0781892 -0.17028724
000230 45 ca a8 bd 4c 9b a7 3d 58 e7 28 be 2f 40 89 be
       -0.08241705 0.081839174 -0.164945 -0.2680678
000240 3d 4a 14 bf 80 c4 58 3d c4 22 56 be 3d e2 eb bd
       -0.5792578 0.052921772 -0.209117 -0.11517761
000250 03 f4 37 3d 06 b2 e5 3d 3e d7 59 be 6f 44 88 3e
       0.044910442 0.11215596 -0.21273515 0.2661471
000260 35 dd 50 bd 54 5a 20 3e 81 78 3b be 8b 42 e2 bd
       -0.05099221 0.15659457 -0.18307687 -0.11047848
000270 a2 f1 b3 3e 23 42 fc 3b c8 68 3f be 7b a4 0d 3e
       0.3514529 0.007698314 -0.18692315 0.13832276
000280 84 d4 a7 be d0 fc 6a bd 97 24 45 be 0d af cc be
       -0.32779324 -0.057370007 -0.19252239 -0.39977303
000290 b7 8d ca bc a4 40 8c bd ea 04 07 bc 57 5b cb 3d
       -0.024725778 -0.06848267 -0.008240918 0.09929531
0002a0 0a c5 92 3e db 7b e5 bd 79 fd c2 3d d2 e7 c4 3b
       0.28665954 -0.11205264 0.09521002 0.0060090804
0002b0 5a e5 20 be 88 7c 6a be 54 87 27 bf 55 d8 dc be
       -0.1571249 -0.22899067 -0.6544087 -0.43133798
0002c0 e8 28 1c be 9b 42 a4 3d 0a 06 58 be f6 6d 25 3e
       -0.1524998 0.080205165 -0.21096054 0.16155228
0002d0 f8 cc 9c bd a4 b3 44 3b 45 6f af 3d 43 7a a7 3e
       -0.07656282 0.00300143 0.08566145 0.32710466
0002e0 9f a7 9c 3c 8e 4e f4 3d 13 48 02 be 54 27 16 be
       0.019122897 0.119290456 -0.12722807 -0.1466344
0002f0 17 c1 7c bc ca 3e 0d 3e 43 be 77 be e6 a0 cc 3d
       -0.015426896 0.13793483 -0.24193673 0.099916264
000300 ff b0 14 3e 29 11 4a 3e ab c8 a0 3c f0 1b 1f be
       0.14520644 0.19733109 0.019626936 -0.15538001
000310 b4 1b 64 bd 11 01 bc 3e f2 32 10 be a0 c0 23 3e
       -0.055690482 0.36719564 -0.14081934 0.1599145
000320 0d 0b d9 bd 73 14 d7 3e a2 12 e3 3e 8b bb 13 3f
       -0.10597811 0.4200779 0.44350153 0.5770804
000330 fe 62 98 3c ce a3 10 be c2 3d 82 bb b4 96 a3 bd
       0.01860189 -0.14124987 -0.0039746473 -0.07987729
000340 9c cf 16 bd f5 d2 30 3d ce 82 89 3d 49 3e 3c 3e
       -0.036819085 0.043169934 0.06714402 0.18383135
000350 8b 32 b9 3d 3c 2d 42 be 85 81 5c be 00 22 42 3d
       0.090428434 -0.18962568 -0.21533783 0.047395706
000360 68 12 8b be 30 13 7b 3d e1 2a b9 bd 16 71 50 3e
       -0.2716248 0.061297596 -0.090413816 0.20355639
000370 68 1e f1 bd b2 b5 1e be 34 fd 7d be 80 64 03 be
       -0.11773378 -0.15498999 -0.2480362 -0.12831306
000380 52 21 fd bd 89 14 10 bf 7d b8 8f be 28 fb f1 be
       -0.12359871 -0.56281334 -0.2807044 -0.4726193
000390 a0 3f c6 bd 5d 12 98 be 7a 52 29 be aa 21 1f 3e
       -0.09680104 -0.2970151 -0.16535369 0.15540186
0003a0 22 1a 09 3e d9 93 b8 3e 4b b0 1a 3e 93 00 b1 3d
       0.13388875 0.360503 0.15106313 0.08642688
0003b0 4c 88 da 3e a4 d9 09 3e cc 16 41 be 8a 6c 7e bd
       0.4268211 0.1346193 -0.18856353 -0.06211523
0003c0 f4 04 7d 3d 86 0c 73 3d 54 76 0f bd 33 7e 52 3e
       0.0617723 0.059338115 -0.035024956 0.20555954
0003d0 8c 03 9f 3d 4c d2 2f 3e 1f ea 2a 3e 36 5a c9 3d
       0.077643484 0.17170066 0.16690873 0.098316595
0003e0 3a f9 d0 3c e2 15 3d 3e 9c 5a 5d 3e b9 be a4 bc
       0.025509465 0.18465379 0.21616596 -0.020110475
0003f0 da 4f 1b 3e d4 f7 67 3e 5d fc 4d 3e 4c dd 17 be
       0.1516718 0.22653133 0.201158 -0.14830512

conv2.bias f4 [16]
000000 c1 ad c6 ba 49 45 aa bb c9 5b 60 3d 97 a9 90 be
       -0.0015157984 -0.0051962477 0.054775033 -0.28254387
000010 78 4c b8 3b 9e 9c 83 3c 6e 79 d3 bc 13 44 15 3e
       0.00562435 0.016065892 -0.025814738 0.1457675
000020 90 50 f4 bd 44 3f 1f 3c d8 c5 a4 bd f0 59 c0 bd
       -0.119294286 0.009719674 -0.08045548 -0.09392154
000030 34 32 1a 3e 44 97 26 bd bf 6e ce bd 93 5e 14 be
       0.15058213 -0.040671602 -0.10079717 -0.14489202

bn2.weight f4 [16]
000000 e3 79 81 3f c8 05 7c 3f 57 f0 45 3f 24 8f 8d 3f
       1.0115322 0.9844632 0.77319854 1.1059308
000010 2f 74 8e 3f 44 23 61 3f 38 bd 8a 3f 97 58 57 3f
       1.1129206 0.87944436 1.0838995 0.8411955
000020 83 b3 75 3f 7e ef 62 3f f2 5e 82 3f 64 87 8a 3f
       0.9597704 0.88646686 1.0185225 1.0822568
000030 2f bc 51 3f cb 93 8c 3f fd 06 7d 3f 3c 09 7d 3f
       0.8192777 1.0982603 0.9883879 0.98842216

bn2.bias f4 [16]
000000 3a cc ad 3d e4 4c c1 bc 33 51 19 be 52 89 c1 3c
       0.08486219 -0.023596235 -0.14972381 0.02362505
000010 55 0b 74 bd e3 7f 1b be 36 85 47 be f3 d3 b0 3e
       -0.05958112 -0.15185504 -0.1948441 0.34536704
000020 82 7b 89 3e 4a 2d 0d 3e cd 3c 80 3e 8b 04 4d 3e
       0.2685204 0.13786808 0.25046387 0.20021264
000030 12 b8 8c 3d 1c d0 b9 bd 12 d3 5d 3e 34 77 b0 3d
       0.06871046 -0.09072897 0.21662548 0.08616486

bn2.running_mean f4 [16]
000000 2e 7b 02 3f 11 3d 2f 3f 7f 44 9b 3f 76 69 99 3e
       0.5096921 0.68452555 1.2130278 0.29963273
000010 ea 43 cf 3e b8 ad 0e 3f 75 ca 05 3f 64 61 8f 3f
       0.40481502 0.55733824 0.5226205 1.1201596
000020 ac 3d 9c 3f 0f eb 10 3f 08 8e 1f 3f 6e 79 04 3f
       1.2206321 0.5660867 0.623261 0.51747787
000030 ac 59 15 3f a3 44 29 3f 1e 6c 21 3f 7c 74 8b 3f
       0.58339953 0.66120356 0.630556 1.0894923

bn2.running_var f4 [16]
000000 84 fd 72 3f cc a0 64 3f 37 62 ad 3f 35 ee 5a 3f
       0.94918084 0.89307857 1.3545598 0.85519725
000010 ae e2 60 3f 36 b4 95 3f 1c 5e d5 3f a8 ad 5a 3f
       0.87845886 1.1695621 1.6669345 0.8542123
000020 d7 dd ba 40 67 06 21 3f 46 b7 5d 3f 95 82 d7 3f
       5.83958 0.62900394 0.8660778 1.6836725
000030 d0 d7 e4 3e a8 c9 0d 40 06 74 96 3f d8 34 c9 3f
       0.44695902 2.2154331 1.1754158 1.5719252

conv3.weight f4 [32, 16, 3, 3]
000000 8d f6 5f bd 41 19 54 be f8 3a 04 be 19 03 c2 bc
       -0.05467849 -0.20712759 -0.1291312 -0.023683118
000010 82 8f 34 3c be ba b4 3d 83 8f 26 3e e0 ec d7 3d
       0.011020543 0.08824681 0.16265683 0.10543227
000020 a9 d1 7d 3e 6f 05 26 3d 73 ad 43 3d b1 fb 0a 3d
       0.2478701 0.040532526 0.047772836 0.033931438
000030 c0 47 87 be 01 d1 7b be a5 83 fd bb fc 99 ed 3c
       -0.26421928 -0.24591447 -0.0077366405 0.02900409
000040 48 65 17 3e b6 77 87 3d bf 47 75 be 06 dd 4c be
       0.1478473 0.0661463 -0.2395315 -0.20006189
000050 dc 11 43 bd fe d5 43 3e 5e 24 b0 3d ef ab b6 bb
       -0.047624454 0.191246 0.086006865 -0.0055746953
000060 a1 24 01 3e 43 fc 5d 3e f9 58 67 3e 4d 5f 2e 3e
       0.12611629 0.21678261 0.22592534 0.17028542
000070 68 13 00 be cf 9c 2a be e0 55 25 3e b1 88 04 be
       -0.12507403 -0.1666138 0.1614604 -0.12942769
000080 2a 85 2e 3c a0 90 36 be d3 ea 91 be 28 fb 86 be
       0.010651866 -0.17828608 -0.2849947 -0.26363492
000090 a2 26 2f 3e 94 51 70 3d a1 bd 10 3d ce af e4 3d
       0.17104581 0.05867155 0.035337094 0.111663446
0000a0 d8 c8 b1 3e 40 7c eb 3d f3 14 96 3c 26 a6 37 be
       0.34723544 0.11498308 0.018320536 -0.17934474
0000b0 4d df 5e bd 45 17 c9 bd a6 a4 b6 bc 90 b2 4a be
       -0.054412175 -0.098188914 -0.022295307 -0.19794679
0000c0 89 23 30 3e 14 94 59 3e a6 12 4b 3c c9 2c 59 bd
       0.17201056 0.21247894 0.012394583 -0.053021226
0000d0 f7 1e 6a 3c ce c2 08 3c 59 ee fc bd 95 03 30 be
       0.014289609 0.008347226 -0.12350149 -0.17188866
0000e0 9f ac 87 be d9 84 2b 3e 46 e2 2f 3e 00 9a 65 3e
       -0.26498887 0.16749896 0.1717616 0.22422028
0000f0 40 ca f0 bd a1 bf 96 bc 3a be ef 3c 64 ea 7f 3d
       -0.11757326 -0.018401923 0.029265512 0.06247939
000100 7d 00 f2 bd 8a 3e 4f bd b8 e7 d4 bd 9f 3c 12 be
       -0.118164994 -0.05059675 -0.10395759 -0.14280938
000110 12 de a9 3d 5e 61 27 3d ae 03 8b be 66 e3 45 bd
       0.0829431 0.04086434 -0.27151245 -0.048312567
000120 d0 da c3 3d f3 39 5f 3d 52 eb c1 bd 11 c5 21 3c
       0.095632195 0.054498624 -0.09468712 0.009873644
000130 3c a8 84 bc e8 1b 47 be 7e f8 cf 3d ff db 55 bc
       -0.016193502 -0.19444239 0.10154818 -0.013052939
000140 ac 33 d1 bd b5 7c 9e bd 81 e2 ba be b7 7f 7f be
       -0.10214934 -0.0773863 -0.36500934 -0.24951063
000150 56 31 0a 3e 33 74 13 3e c7 29 ba 3d 9e 23 e9 3d
       0.13495383 0.14399795 0.0909 0.113837466
000160 3a 41 a8 3d 31 d2 9a bd 8c 34 5c ba d1 2e cb 3d
       0.08215566 -0.07559622 -0.0008400164 0.09921039
000170 7e 8b 54 3b cd ab d5 3d b5 32 8f bd 47 e1 a9 bd
       0.0032431777 0.10433159 -0.069920935 -0.08294921
000180 43 69 f6 bd 7a bd 37 bd c1 bd 1a 3b 9b fc fc 3c
       -0.12031796 -0.044858433 0.0023611637 0.03088217
000190 5e f1 69 be 0e 7e bb be eb 71 94 3d de 98 09 3e
       -0.2284598 -0.3661961 0.07248291 0.1343722
0001a0 91 ed 08 3e e3 a4 06 bd ec ca c1 bd cc 0c 83 be
       0.13371874 -0.032872092 -0.094625324 -0.255957
0001b0 26 9a 32 bd 44 17 e5 3d 36 c4 1b 3e ab c9 af bd
       -0.04360404 0.11186078 0.15211567 -0.08583387
0001c0 f5 a0 86 be 63 69 f3 bd b8 0b 55 3c 19 bc 26 3e
       -0.26294675 -0.11885335 0.013003282 0.16282691
0001d0 6f ca e6 3d 35 ac 9a 3e 7a 5c 9e 3e 8f fc 83 3e
       0.1126908 0.3020951 0.3092993 0.25778624
0001e0 6e 05 78 3c d7 73 c4 3d 0c 88 c9 3d 7f 20 68 be
       0.015138013 0.09592407 0.09840402 -0.22668646
0001f0 46 96 ea bd 1c b4 d8 3d 81 fd 37 3e 57 08 88 3e
       -0.11454444 0.10581228 0.17967798 0.26568863
000200 e2 b3 94 bd f9 70 52 ba 29 32 f5 bd 9f 51 15 3d
       -0.072608724 -0.00080276985 -0.11972458 0.036454793
000210 22 2c b7 3e a5 93 3a 3d d7 a3 99 be 83 08 33 bc
       0.35775858 0.04555096 -0.30007812 -0.010927322
000220 65 b5 60 bd 43 2b b7 bd a3 e4 88 bd 22 59 7c 3e
       -0.05486049 -0.089437984 -0.06684234 0.24643376
000230 cf 83 98 3e f8 6a 58 3d 74 e2 1c 3e 46 29 30 3e
       0.29788062 0.05283639 0.1532076 0.17203245
000240 3f aa 03 3d a5 b2 4f 3e 39 3f 83 3e 35 1c 2f be
       0.03214478 0.20282991 0.25634173 -0.17100604
000250 83 8e 82 3d 35 77 12 3e 19 48 b9 3c e4 8e 2d 3c
       0.06374838 0.14303286 0.022617387 0.01059315
000260 a1 39 bc bd 38 59 9a 3d bf 94 ac bd 22 00 3c be
       -0.09190679 0.075365484 -0.084268086 -0.18359426
000270 93 f1 4d bc 21 5c 07 3d 41 ea 39 3d a7 6a 8a be
       -0.012569803 0.033046845 0.045389418 -0.27034494
000280 59 af a5 be 17 f3 c4 be ec 4d 4d 3e c5 ec 68 3d
       -0.32360342 -0.38466713 0.20049256 0.056866426
000290 62 5d 3e 3c 92 1d 9b bd 35 36 c3 3d 57 e0 c8 3d
       0.011618944 -0.075739995 0.095318235 0.098084144
0002a0 25 23 a8 3d 9a 5e 96 3d a5 42 a0 bd 4e 04 47 3d
       0.08209828 0.073422626 -0.078252114 0.04858809
0002b0 fa 9b ac bc c5 67 5f 3c 67 86 31 be 78 a4 25 be
       -0.02107047 0.01363558 -0.17336427 -0.16176021
0002c0 19 c0 af bd db 48 66 bd 42 24 11 be cc 7d 35 be
       -0.085815616 -0.056221824 -0.14173988 -0.17723769
0002d0 ca fc d9 bc c6 02 bf bd 76 5c 0f be b4 bd 6e 3e
       -0.026609797 -0.09326701 -0.14000115 0.23314553
0002e0 59 93 06 3e 06 9f 8f bd 64 20 66 be 85 bc c3 be
       0.13142146 -0.07012753 -0.22473294 -0.38229766
0002f0 12 3a ba bd 05 99 32 be 22 92 5d bd fc 31 c5 3c
       -0.09093107 -0.17441185 -0.05409444 0.024071686
000300 1b 24 99 3d 05 96 4e 3e dc 63 42 3e 59 dc 13 3e
       0.0747759 0.20174415 0.18983406 0.14439525
000310 ec 0b 81 3d bb 32 62 3e e1 c4 31 be 47 b9 7d bd
       0.06301102 0.22089665 -0.1736026 -0.061944272
000320 c0 17 10 be d8 a3 47 be a2 18 f8 bd a8 b3 7c 3d
       -0.1407156 -0.19496095 -0.12114073 0.06169477
000330 e1 be 61 3e 84 c2 fd bd e4 87 3c be ae 28 70 be
       0.22045471 -0.123906165 -0.18411213 -0.23453018
000340 4c 4f 66 be f9 f2 b8 be f8 2c 9c bb 6a 1f 04 3e
       -0.22491187 -0.36122873 -0.004766103 0.12902609
000350 b0 8e 67 3e 1a cd 86 3d 12 a5 86 3c 02 a6 ef 3d
       0.22613025 0.06582089 0.016436134 0.11701585
000360 ef 8b 9e 3d 47 7a 3a 3e a3 81 1c bd 4a 78 68 3e
       0.07741534 0.18210708 -0.03820957 0.22702137
000370 38 e2 81 3c f3 2d e3 3d af 94 7d 3d 0b 8a a0 3d
       0.01585494 0.110927485 0.061909374 0.078388296
000380 1d 86 ae bd 6d a2 30 be c3 9d d7 bd 9d dc 04 3d
       -0.08521674 -0.1724946 -0.105281375 0.032436956
000390 47 87 8d bc 05 0f 96 3d bd af d4 3d a7 65 53 3d
       -0.01727642 0.073270835 0.10385082 0.051610615
0003a0 2e 76 1f bd b8 e3 26 3d 2d 92 e8 bc e2 f3 66 3d
       -0.038931064 0.040744513 -0.028390015 0.05638493
0003b0 22 64 43 3e a0 da 98 3d 60 0b e4 3d 2d ad a5 3c
       0.19081166 0.074635744 0.11134982 0.020224178
0003c0 18 d3 cc 3d 95 2b 4a bc 64 0b 27 bc e9 f8 ce be
       0.100012004 -0.012339492 -0.010195587 -0.40424278
0003d0 35 67 4b be 1b bf ba bd 87 bb 2f 3e e6 19 3c 3d
       -0.19863589 -0.09118482 0.1716138 0.045923136
0003e0 b5 1a e4 bc 11 b7 d6 3b 05 1c 48 bd 5f 32 a2 bd
       -0.027844766 0.006552585 -0.048854847 -0.07919764
0003f0 b4 b9 50 bc 2a 49 2c 3d 8d 04 a1 bd f0 34 cf 3d
       -0.012739588 0.042061962 -0.07862196 0.10117519

conv3.bias f4 [32]
000000 bf 70 b0 be 4f a3 57 3c 5e fa f4 be 63 1d 77 be
       -0.34461018 0.013161494 -0.47847265 -0.24132304
000010 02 fd 6a be 66 9f 8d be 5d f4 92 be 70 68 9a bc
       -0.22948077 -0.27660674 -0.2870206 -0.018848628
000020 90 d4 2d be 4c 9e ab be fa e9 50 be 39 52 b8 be
       -0.16975617 -0.33519208 -0.20401755 -0.3600023
000030 7d d9 89 be 66 b0 6a be 1b 28 bc be 6d 63 bb be
       -0.26923743 -0.22918853 -0.36749348 -0.36599293
000040 fd 27 ba 3b fb 7f d4 be 1b 10 b5 be c6 ca 33 3e
       0.0056810365 -0.4150389 -0.3536385 0.1755782
000050 6b 98 47 be 76 2f a5 be ca cb 8f bd 3d 19 01 be
       -0.19491737 -0.32262772 -0.070212916 -0.12607284
000060 4c 6c 15 be c1 89 82 be f5 fb 57 bc 8d f7 57 be
       -0.14592093 -0.25495723 -0.01318263 -0.21090527
000070 b1 b8 89 bd 89 43 1e be e5 0f c3 be f8 a9 a9 bd
       -0.0672468 -0.1545545 -0.38098064 -0.08284372

bn3.weight f4 [32]
000000 e9 eb 89 3f 41 0b 86 3f 8a 3c 72 3f c5 3e 68 3f
       1.0775119 1.0472184 0.94623625 0.9072078
000010 8f f8 71 3f b4 9a 7c 3f e4 82 79 3f 70 d0 69 3f
       0.94519895 0.9867356 0.9746535 0.91333675
000020 78 f5 77 3f 79 ab 89 3f 2c bf 88 3f 58 9a 85 3f
       0.9685893 1.0755454 1.0683341 1.0437727
000030 63 64 5f 3f 65 3f 64 3f d8 f5 89 3f 84 3d 91 3f
       0.8726255 0.8915923 1.077815 1.1346898
000040 b2 0c 70 3f ef f8 82 3f 13 e0 76 3f db 45 86 3f
       0.9376937 1.0232219 0.9643566 1.0490068
000050 7f 3d 71 3f d0 a6 81 3f c6 a1 7c 3f ec 9d 70 3f
       0.9423446 1.0129032 0.98684347 0.9399097
000060 36 d2 7d 3f 83 14 62 3f d5 af 84 3f 29 ce 69 3f
       0.9914888 0.8831255 1.036616 0.913302
000070 3b ba 66 3f 4b 84 78 3f 5a 61 5f 3f f8 ea 64 3f
       0.90127915 0.97076863 0.8725792 0.89421034

bn3.bias f4 [32]
000000 35 92 20 3e 14 72 49 3e 69 3d 91 be 30 c4 ef bd
       0.15680774 0.19672424 -0.28367165 -0.11707342
000010 05 28 e4 3e 66 e1 10 be d2 94 d5 be ee 23 e8 3e
       0.44561782 -0.14148483 -0.41715103 0.45339912
000020 55 70 a4 bd 22 8e 81 3e e5 89 87 bd 9b 87 6c 3c
       -0.08029238 0.2530375 -0.06618098 0.014436628
000030 9c d9 bb bc fe 08 52 3e 63 ab 59 bd 4d ac 7a 3d
       -0.022930913 0.20511243 -0.053141963 0.061199475
000040 bc b9 2c 3e ef 9f 0c 3e cd fb af 3d 47 f2 1b be
       0.16867727 0.13732885 0.08592949 -0.1522914
000050 67 41 bc 3e 47 19 11 3e 26 d1 92 be 6b 50 8d 3d
       0.36768648 0.14169799 -0.28675193 0.06900104
000060 32 f1 9a bd 53 a4 a3 3e df b4 60 3e fd d3 27 3f
       -0.075655356 0.31961307 0.21943997 0.65557843
000070 33 bd a6 3e 2a 0c 7c 3c f2 5b 88 be af b2 9c be
       0.32566223 0.0153837595 -0.2663265 -0.30605075

bn3.running_mean f4 [32]
000000 fc 1d b6 3e 53 2c 0a 3f c0 23 26 3f 05 21 6e 3e
       0.3556975 0.53973883 0.648983 0.23254783
000010 d3 00 ce 3e 2a c5 81 3e 1a c6 8d 3f 92 ec 2e 3f
       0.40235004 0.25345737 1.1076081 0.6832973
000020 42 ee 86 3f 5c ee 41 3f 2d 00 1e 3f 04 e5 da 3e
       1.054146 0.7575433 0.6171902 0.4275285
000030 b7 a4 92 3e 1f 2f 09 3f 89 ed d1 3e 19 f7 d7 3e
       0.28641292 0.53587526 0.41001537 0.42180708
000040 47 4d ad 3e c6 b4 75 3e 72 af 1e 3f 23 60 f8 3e
       0.3384802 0.23994741 0.6198646 0.48510846
000050 0b 6f 92 3e 06 f4 51 3f 17 b0 0f 3f 09 fa 4a 3f
       0.28600344 0.82012975 0.56128067 0.79287773
000060 2a 86 19 3f 36 2d 42 3f 62 fd f0 3e f0 c6 53 3f
       0.59970343 0.75850236 0.47068316 0.8272543
000070 f7 c3 40 3f a5 bd 1a 3f d2 d4 f6 3e d7 12 ce 3e
       0.7529902 0.60445625 0.48209244 0.4024875

bn3.running_var f4 [32]
000000 f2 45 71 3f 46 86 7b 3f 35 d0 de 3f b0 55 1a 3f
       0.94247353 0.9825176 1.740729 0.60287
000010 63 f0 55 3f 2b be 1d 3f 71 60 49 40 10 a7 99 3f
       0.83569926 0.616183 3.1465113 1.2004108
000020 b1 6b 9f 3f cc 62 3a 40 4f 49 72 3f 94 92 78 3f
       1.245474 2.91228 0.9464311 0.9709866
000030 e5 a3 ba 3e 1c 5e 7f 3f ff ef af 3f 38 50 47 3f
       0.36453167 0.99752975 1.3745116 0.7785678
000040 77 70 76 3f b1 3e 3d 3f 8d 40 6d 3f 63 d3 8a 3f
       0.9626536 0.73923784 0.9267662 1.084576
000050 39 1b 0a 3f 38 43 49 40 52 e6 5b 3f 89 4f 83 3f
       0.5394779 3.1447277 0.85898316 1.0258647
000060 3f 71 8b 3f a8 74 dc 3f 61 13 9a 3f 05 40 b0 3f
       1.0893935 1.7223101 1.2037164 1.3769537
000070 e3 77 b2 3f 15 0c e7 3f bd 67 b5 3f 5f bb 3d 3f
       1.3942837 1.8050562 1.4172283 0.7411403

conv4.weight f4 [64, 32, 3, 3]
000000 6b ce f8 3c b5 d9 b9 3a 9e 90 fc bc a4 12 16 bd
       0.030371865 0.0014179262 -0.030830678 -0.03663887
000010 62 6b 10 3d c1 68 de 3c a8 e3 40 bd 3f b5 f4 bd
       0.03525866 0.02714956 -0.04709211 -0.119486324
000020 cc 57 6b be 7f 60 2e be 0f cf c1 3d a5 e9 e8 3d
       -0.2298271 -0.17028998 0.094633214 0.11372689
000030 b9 7f d5 3b e9 dd 04 be b5 63 f0 bd e2 79 0e 3d
       0.00651547 -0.12975277 -0.117377676 0.034784205
000040 2a 74 88 3d 15 35 12 3d 8c 73 83 bd 15 08 0c be
       0.066627815 0.035695154 -0.06418523 -0.13674958
000050 9f 7c c1 bd b3 53 d7 bd 00 c8 e0 bd cf 89 2c be
       -0.09447598 -0.10514011 -0.10975647 -0.16849445
000060 df 1d 33 be 5d 36 e7 bd 0c d4 31 be 42 0f 6b bd
       -0.17491864 -0.11289666 -0.17366046 -0.057387598
000070 24 b4 f5 bc 7e bf d9 bc 54 88 fe 3d 92 e3 14 3e
       -0.029993124 -0.026580568 0.12428346 0.14539936
000080 d8 64 4c 3c ed 90 26 be e3 68 0d be b5 0b 41 bd
       0.012475215 -0.16266222 -0.13809542 -0.047130305
000090 c9 91 96 3c 3b 7a ab 3d ec fe 5b 3d d8 a8 56 be
       0.018380063 0.08372923 0.05370991 -0.20962846
0000a0 7f b4 85 be a5 d4 37 be 81 2a 7e be d6 c5 63 be
       -0.2611427 -0.17952211 -0.24820901 -0.22243437
0000b0 27 1a 3c be 01 2a b7 3d de 45 54 3d e0 4d 05 3b
       -0.18369351 0.089435585 0.051824443 0.0020340607
0000c0 19 90 eb 3c b8 c9 04 3e 69 49 44 3e 54 62 1e 3d
       0.028755235 0.12967575 0.19168629 0.03866799
0000d0 f4 a3 c1 bd c5 70 e9 bd a5 65 13 be ca ed e6 bd
       -0.094551 -0.11398462 -0.14394243 -0.112758234
0000e0 f8 36 01 3d d6 0e 3a 3e 06 de 6f 3d ff 3f a5 3d
       0.031546563 0.18169722 0.058561347 0.08068847
0000f0 4e 4f 62 be f2 99 5b be 98 25 06 be 3d 5a 1a 3e
       -0.22100565 -0.21445444 -0.13100278 0.15073486
000100 c4 8d e0 3b 40 b5 2f 3c 92 46 bb bd 65 4b 43 be
       0.0068528373 0.010724366 -0.091443196 -0.1907173
000110 fb 0b 9c bd 82 a6 9d bd 81 85 4b 3d f6 25 3e 3c
       -0.076194726 -0.076977745 0.049687866 0.01160573
000120 33 f6 3f bc 2c 29 32 3d ab 00 22 3d d1 bc 8e bd
       -0.011716413 0.043496296 0.03955142 -0.069696076
000130 86 fb 85 bd 59 ba 14 be 3e 4a d3 3d 00 ed e2 3c
       -0.06542115 -0.14524211 0.10316895 0.027700901
000140 aa c7 0d 3e 14 56 35 bd 08 02 51 be 80 75 25 be
       0.13845697 -0.044271544 -0.20410931 -0.16158104
000150 2b 80 48 3e 08 43 2e 3e af ac 3e 3e a8 12 ce bc
       0.19580142 0.17017758 0.18620561 -0.02515538
000160 7f c3 ae 3d 4b 9a 0f bd 88 cd 10 3e 47 e8 17 3d
       0.08533382 -0.035059255 0.14140904 0.03708675
000170 a6 5d bc 3d e4 3a 40 bc fa d4 7f 3d aa 4a ad bd
       0.091975495 -0.011732791 0.06245897 -0.08461507
000180 87 fa ef 3b 8f 60 38 bd c1 61 de bd 86 0b be 3d
       0.0073235664 -0.04501396 -0.10858489 0.09279542
000190 74 6d f7 3d 2d 89 4a 3e 44 bf e3 bd 82 62 7d 3c
       0.120814234 0.19778891 -0.111204654 0.015465381
0001a0 bb 14 98 bd 05 4c 77 3c f7 b6 46 bc cf 94 b2 3d
       -0.07425829 0.015093808 -0.012128583 0.08719789
0001b0 f7 44 bc bd 9c 28 b2 bd 96 6f 6f bd af 88 90 bd
       -0.091928415 -0.08699152 -0.058456026 -0.0705732
0001c0 0b 30 23 be 4c aa 7b be cc f1 b3 3c d8 b6 77 3d
       -0.15936296 -0.24576682 0.021965884 0.060477108
0001d0 23 da af 3d f7 05 12 36 4f df a5 bb 24 e3 8e 3d
       0.08586528 2.1759167e-06 -0.005062021 0.069769174
0001e0 e3 ae af bd 56 7c 34 be 40 14 37 be b0 56 27 3e
       -0.08578279 -0.17625555 -0.17878819 0.16341662
0001f0 0e 19 14 3e 64 34 6d 3e 65 d6 2b 3e e9 e9 66 3e
       0.14462683 0.23164517 0.16781004 0.22550167
000200 e1 c8 b8 3d 2d ca b6 3e ea 0d 8d 3e 7c 0c a8 3e
       0.090226896 0.35701123 0.27549678 0.32822025
000210 ed d0 e3 3d a1 e8 ef 3d b3 11 89 3b 2a 76 58 bd
       0.11123834 0.11714292 0.004183018 -0.052847065
000220 f5 11 0c be 4a 7b 19 be 61 08 fd 3d 58 76 7d 3d
       -0.13678725 -0.14988437 0.12355114 0.06188044
000230 a1 de dc 3c bc d1 66 bd a1 bd 93 bd d8 e4 c1 bd
       0.026961626 -0.056352362 -0.07213903 -0.094674766
000240 67 87 9d bc ee d2 c9 bc fd 90 15 bd f8 57 81 be
       -0.019229604 -0.024636712 -0.036515225 -0.25262427
000250 4f 72 80 be 7a f5 20 be c6 65 56 bb 3b 71 e1 3c
       -0.2508721 -0.15718642 -0.003271447 0.027519813
000260 6f 89 d9 bd bb fc 05 3d f9 63 07 bd 82 89 8a bd
       -0.106219165 0.032711726 -0.033054326 -0.06764509
000270 3e f6 13 3d 18 b8 35 3e d0 fa 0e 3e af ac 6a 3d
       0.036123507 0.17746007 0.13962865 0.05729359
000280 5f cc 2f 3e ea 31 0a 3e ff d3 8c bc 6f fa 7d 3c
       0.17167805 0.13495603 -0.017190931 0.015501603
000290 ca d0 93 3c ed aa 15 bc 04 b0 1d 3e bd 41 2c 3e
       0.018043894 -0.00913499 0.15399176 0.16821952
0002a0 b0 6e a1 3d 8c ab 0e bd 9a 8e f7 bd b8 ae 66 3d
       0.0788244 -0.03483157 -0.12087746 0.05631897
0002b0 8e 74 d2 3d 2d 46 38 3d 9a 44 57 be 17 e3 02 be
       0.10276137 0.0449888 -0.21022263 -0.1278194
0002c0 fa 69 37 bd c2 67 7d 3e 43 0d 7a 3e cb 93 50 3e
       -0.0447788 0.24746612 0.24419121 0.20368879
0002d0 51 df 31 be 85 4c 43 bc 7e e1 a3 3d 95 55 e6 bc
       -0.17370345 -0.011920099 0.080019936 -0.02811698
0002e0 21 1b 9f 3c e3 d8 a8 3d 37 b0 34 bd 8a b0 30 be
       0.019422116 0.08244493 -0.044113364 -0.17254844
0002f0 98 80 25 be 62 9b 4e be 46 dc df bd e1 50 4c 3d
       -0.16162336 -0.20176461 -0.10930686 0.04988182
000300 1a 10 40 bb b2 e2 f6 bd f1 e6 82 3c 1e 56 67 be
       -0.0029306472 -0.120549574 0.015979262 -0.22591445
000310 a1 a3 75 be 06 42 2f be 31 42 fb bd 22 07 b3 bd
       -0.239882 -0.1711503 -0.122684844 -0.08741595
000320 a1 28 be bd f9 13 4c bc 3b ed b3 b9 d3 6d 48 ba
       -0.09285093 -0.012455934 -0.0003431829 -0.00076457596
000330 1b a9 5d 3c 9a 65 85 bd f9 06 12 3b 57 16 78 bd
       0.013529087 -0.065135196 0.0022281988 -0.06056818
000340 5e fc 0c 3d a6 4d 8e 3d ec ff 11 3e a7 2d 1f 3e
       0.034420364 0.06948404 0.14257783 0.15544759
000350 47 30 96 3e 42 95 a9 3d fb 88 a7 3b 45 e5 87 3d
       0.29333708 0.08280422 0.005112765 0.066355266
000360 7d c7 21 3c 14 ef 0f bd 72 ca ec bd d8 0a 35 3e
       0.009874222 -0.035140112 -0.11562051 0.17679918
000370 47 bf 11 3e d1 1a 91 3c 29 61 a2 bd 62 c0 7d bd
       0.14233123 0.017712982 -0.07928688 -0.06195105
000380 0c 22 f3 3c ad e7 e1 bd 13 5b 5d bd 68 39 83 3d
       0.02967932 -0.11030517 -0.054041933 0.06407434
000390 c9 be 1c be 44 c7 1d be 52 20 1e be 54 2d ce 3c
       -0.15307154 -0.15408045 -0.15442017 0.025168099
0003a0 50 2b 1a 3e 99 f9 65 bd 21 e9 90 bd 9f 40 e5 bd
       0.15055585 -0.056146238 -0.07075716 -0.11193966
0003b0 bb e5 cd bd de 6a 46 bc 6e ed 14 bd 3a 97 f7 bc
       -0.10053583 -0.01211044 -0.036359243 -0.030223478
0003c0 82 0d 84 3c c6 b5 80 be 88 e5 07 be d9 31 32 3e
       0.016119722 -0.25138682 -0.13271153 0.17401828
0003d0 c2 0e 29 3e 48 b7 18 3d df 91 57 be 73 fd 0d be
       0.16509536 0.037284166 -0.21051739 -0.13866214
0003e0 ed c0 dd bd ce f8 3f 3d de d8 38 bd 7d 7e b9 3d
       -0.10827813 0.046868138 -0.045128696 0.09057329
0003f0 09 53 b1 bd 00 e7 66 bd 8d fb aa bb d0 bb 03 be
       -0.08658416 -0.056372643 -0.0052179755 -0.12864614

conv4.bias f4 [64]
000000 87 7d 9c bd 1f 58 b6 be e2 61 d0 bd 12 51 c9 be
       -0.0764113 -0.35614106 -0.1017492 -0.39319664
000010 82 de 59 bd 82 bf 68 be d1 51 cd be 12 13 c2 bb
       -0.053190716 -0.22729304 -0.40101483 -0.0059226835
000020 d2 b6 82 be a8 18 a9 be 97 0f ee bc 7d f3 99 be
       -0.25530106 -0.33026624 -0.029060168 -0.3006858
000030 f2 1d e0 be ec 13 c0 be 99 e0 d4 be e9 b1 9f be
       -0.43772846 -0.375152 -0.41577604 -0.31190422
000040 52 95 b1 be f8 b2 08 bc 3d 2f 5a be 82 ea b7 be
       -0.34684235 -0.008343451 -0.21307082 -0.35921103
000050 ef 24 07 bd 24 da 9c be 48 2b 76 be f3 80 30 be
       -0.032994207 -0.30635178 -0.24039948 -0.1723669
000060 bd 66 ad 3d 11 14 54 bd 25 30 95 bd b1 53 51 be
       0.084668614 -0.05177695 -0.072845735 -0.20442082
000070 28 92 cf be e9 e1 ba be 45 cf bc be d2 72 9e be
       -0.40541196 -0.3650048 -0.36876884 -0.30946976
000080 bf b2 ea be ac d5 8c be b9 6f 9f be 71 d2 bf be
       -0.45839497 -0.2750677 -0.31139925 -0.37465242
000090 f2 86 01 bf 20 51 43 be 98 28 7e be 9b 12 b8 be
       -0.50596535 -0.19073915 -0.24820173 -0.35951695
0000a0 26 f4 a4 be 24 e7 03 3e 8d 90 99 be fa e1 b8 be
       -0.3221752 0.12881142 -0.29993096 -0.36109906
0000b0 7c 5d 8a be 56 00 a6 be b1 d9 1e bd 06 4e b8 be
       -0.27024448 -0.3242213 -0.038781825 -0.35997027
0000c0 12 b3 9a be 60 d3 a7 be a0 c0 67 be 58 51 76 be
       -0.30214745 -0.32778454 -0.22632074 -0.24054468
0000d0 95 58 6e be b8 3e 81 bc 43 50 de be 03 70 a2 be
       -0.23275979 -0.015776977 -0.4342061 -0.31726083
0000e0 00 b5 5f be aa 32 37 be 8c 1d 22 be 34 6c 01 be
       -0.2184639 -0.1789042 -0.15831584 -0.12638932
0000f0 c6 5d d8 be 17 f2 3f be 1a 66 6a be 13 c3 9c 3d
       -0.42259043 -0.18744694 -0.22890511 0.07654395

bn4.weight f4 [64]
000000 cb 03 2e 40 b4 ed 47 40 09 cd 3b 40 4b d1 62 40
       2.7189815 3.1238832 2.9343894 3.5440242
000010 8c 34 48 40 60 0f 45 40 19 ca 51 40 63 b2 25 40
       3.1282072 3.0790634 3.27796 2.5890129
000020 df 50 60 40 5c e6 31 40 54 b8 4c 40 31 c5 4f 40
       3.504936 2.779685 3.1987505 3.2464106
000030 83 20 54 40 0e f2 5c 40 a5 a8 6a 40 82 23 4c 40
       3.3144844 3.4522738 3.6665432 3.1896672
000040 ec cc 60 40 04 06 30 40 04 99 59 40 9e f6 5f 40
       3.5125074 2.7503672 3.3999643 3.4994273
000050 cc fd 3d 40 87 82 44 40 10 57 4e 40 a2 7b 31 40
       2.9686155 3.0704668 3.2240639 2.773171
000060 81 58 30 40 f6 62 20 40 da 1a 2a 40 dd e7 5f 40
       2.7554018 2.50604 2.657889 3.4985268
000070 be 0e 59 40 58 f8 56 40 fd 11 46 40 83 ba 35 40
       3.3915248 3.3589077 3.094848 2.8395088
000080 85 f5 46 40 ed 96 4e 40 29 e8 3b 40 62 79 47 40
       3.1087353 3.2279618 2.936045 3.1167836
000090 60 d2 47 40 50 93 4d 40 f0 d1 4e 40 d1 20 42 40
       3.1222153 3.2121162 3.2315636 3.033253
0000a0 0d 53 51 40 ee d0 3d 40 9d e6 3a 40 e6 07 32 40
       3.270694 2.965877 2.9203255 2.781732
0000b0 56 e0 48 40 35 24 5c 40 a0 b6 37 40 b5 8b 57 40
       3.1386924 3.43971 2.8705215 3.367902
0000c0 a9 f9 53 40 b0 45 47 40 4e 27 7a 40 73 25 29 40
       3.312113 3.1136284 3.908649 2.6429107
0000d0 36 fb 43 40 69 18 5c 40 19 8f 49 40 9b 01 3e 40
       3.0622077 3.4389899 3.149359 2.968848
0000e0 74 9e 53 40 ef 57 55 40 f6 2b 43 40 59 16 34 40
       3.3065462 3.333492 3.0495582 2.813864
0000f0 12 fd 68 40 a3 95 36 40 57 b8 39 40 1a cf 2c 40
       3.6404462 2.852883 2.9018762 2.7001405

bn4.bias f4 [64]
000000 2e 0f 51 3c 55 6e 7b 3d 9a fd c3 bd d3 1a 1a 3b
       0.012759967 0.061384518 -0.09569855 0.0023514524
000010 ad d4 ee bd 73 54 9f 3d c3 15 16 3e 39 c2 28 be
       -0.116616584 0.07779779 0.14656739 -0.1648034
000020 13 51 b7 3d 4d 18 d0 bd ce 20 0d be cd 49 74 be
       0.089510106 -0.10160885 -0.13782045 -0.23856278
000030 18 0c c6 bd 82 c2 78 3d 26 2e 7e bb 8b fe c5 3a
       -0.096702754 0.060732372 -0.003878483 0.0015105767
000040 0d 85 e2 3d df 3d 01 bd d8 f5 25 3c 90 73 9e bd
       0.11060534 -0.031553145 0.0101294145 -0.077368855
000050 44 dc db bd f7 4c 16 3d 6f d3 09 be fd d3 2c bc
       -0.10735372 0.036694493 -0.13459562 -0.010548589
000060 dd 10 91 bd 72 fb 2d 3e 40 ae 2b be bc 98 14 be
       -0.070832945 0.1699045 -0.1676569 -0.14511389
000070 49 ea 4c 3c 71 51 46 bc 89 e1 4b 3e dd c1 ee 3d
       0.01250703 -0.012104378 0.19910254 0.1165807
000080 af 8a 44 3d 10 1c fe 3d e5 03 79 3e 64 6d 07 3d
       0.04798382 0.12407696 0.24317892 0.033063307
000090 6e d2 27 be 5d ee 5c bd 96 aa 37 be a6 09 10 3d
       -0.16388866 -0.05393826 -0.17936167 0.03516545
0000a0 62 b3 35 3e 3a 42 8d 3b b6 04 d5 3d 42 18 80 bb
       0.1774421 0.0043108733 0.10401289 -0.0039091418
0000b0 30 67 b8 3d e1 e0 5e bd 68 97 23 3e 38 d1 39 be
       0.090040565 -0.05441368 0.15975726 -0.18146217
0000c0 ac 01 86 3d 1b 36 46 3e f6 ca 7c 3b 92 37 f5 3d
       0.06543288 0.19356577 0.0038573123 0.1197349
0000d0 c9 97 89 3d af 3d a3 bd 98 c2 fc bd 2f 64 14 3d
       0.06718404 -0.079707496 -0.12341803 0.036228355
0000e0 de 34 13 bd 10 9d 0a be 5c 7d 9f bd 44 35 6e 3e
       -0.03593909 -0.13536477 -0.07787582 0.23262507
0000f0 07 a3 d2 3d d0 c7 0b bd 7a 18 9e bc 19 3f 4e 3e
       0.10285001 -0.034126103 -0.01929878 0.20141257

bn4.running_mean f4 [64]
000000 0a c4 9d 3e 72 7d cf 3d 03 e9 61 3e 51 6d de 3d
       0.30813628 0.10131349 0.22061543 0.10860694
000010 8e 83 98 3e 9d fa 64 3e 52 7b 06 3e 2d d5 1c 3f
       0.29787868 0.22361226 0.1313298 0.6126278
000020 2c 52 77 3e ef 11 2c 3e 41 1b 82 3e de e0 3b 3e
       0.2415244 0.16803716 0.25411418 0.18347499
000030 f3 e7 00 3e 4b 80 10 3e e8 08 d2 3d 0e 60 2f 3e
       0.12588482 0.1411144 0.10255605 0.17126486
000040 13 67 65 3d 68 07 4c 3f c3 6a 17 3e ea 78 59 3e
       0.056006502 0.796988 0.1478682 0.21237531
000050 7d 8b ef 3d 2f 1e 28 3e c9 17 56 3d d1 44 a9 3e
       0.11696527 0.16417764 0.052268777 0.33060315
000060 49 f6 da 3e 56 8d 66 3f db 0a d7 3e 3e 15 10 3e
       0.42766026 0.9005941 0.4200047 0.14070603
000070 ad 27 8a 3d 35 26 0a 3e ff 23 84 3e 9f 78 4a 3e
       0.06745849 0.13491137 0.25808713 0.19772576
000080 fd 9f 65 3e 06 1c 9e 3e 1e 78 15 3e ac 4c 0b 3e
       0.22424312 0.30880755 0.14596602 0.13603467
000090 32 7f 85 3d c2 60 5d 3e 0c 66 45 3e 86 55 56 3e
       0.06518401 0.21618941 0.19277209 0.20931062
0000a0 29 d2 0f 3e fb 43 69 3e 65 81 01 3e 3b 29 b1 3e
       0.14045013 0.22779839 0.12647016 0.3460177
0000b0 9a 48 74 3e 66 dd d4 3d 68 bd 7f 3f 2d 0c 14 3d
       0.2385582 0.10393791 0.99898386 0.036144424
0000c0 4e 63 e8 3d b9 ba b5 3e 48 a6 ed 3d ca e1 f4 3e
       0.11347066 0.3549402 0.11603981 0.47828513
0000d0 3c 59 e8 3d db 43 e3 3d 1c e0 4c 3d 5b 15 17 3e
       0.11345145 0.11096927 0.050018415 0.1475424
0000e0 f0 22 f6 3d b2 96 2c 3e 04 40 2f 3e da c4 d1 3e
       0.120183825 0.1685436 0.17114264 0.40970498
0000f0 d6 f9 0f 3e 0b e1 83 3e dc 7d 46 3e 88 b7 7c 3f
       0.14060149 0.25757632 0.19383949 0.98717546

bn4.running_var f4 [64]
000000 dd 48 0d 3f c3 1f 2a 3e 3d 41 8f 3e 19 1e 26 3e
       0.55189306 0.16613679 0.2797946 0.16222419
000010 58 7f d4 3e cd 60 f3 3e 9b cf 94 3e f4 38 5d 3f
       0.41503406 0.4753479 0.2906464 0.8641503
000020 77 d8 b3 3e c6 65 b5 3e 78 26 02 3f 5a 47 b1 3e
       0.35126087 0.3542921 0.5083995 0.3462475
000030 e9 42 b5 3e 47 77 94 3e a5 0d 8c 3e b2 9f 92 3e
       0.3540261 0.2899725 0.2735416 0.28637463
000040 0a c6 0f 3e 3d e1 a9 3f a3 9e 91 3e 28 1d bd 3e
       0.1404039 1.3271862 0.28441343 0.36936307
000050 b8 a5 3d 3e 92 53 a0 3e 2b 5a ce 3d a1 c4 0e 3f
       0.18520248 0.3131376 0.10075792 0.5576878
000060 02 50 0f 3f 89 d8 96 3f e8 bc 27 3f a7 02 85 3e
       0.5598146 1.1784831 0.65522623 0.25978586
000070 f6 51 1d 3e b8 7a 7b 3e 26 e4 09 3f 4c 9d dd 3e
       0.15363297 0.24558532 0.5386375 0.4328407
000080 b8 3c d1 3e 17 64 f8 3e 93 9b a1 3e df 7a bf 3e
       0.40866637 0.48513862 0.31564006 0.3739843
000090 13 cc 05 3e 00 ed 82 3e 15 a1 e7 3e 34 66 b8 3e
       0.1306613 0.25571442 0.45240083 0.36015475
0000a0 cd 34 68 3e 12 8f cc 3e 38 2a 78 3e 9f c8 65 3f
       0.22676392 0.39952904 0.24234855 0.8975925
0000b0 d7 1c db 3e b6 20 5a 3e 33 a9 a2 3f b7 e6 a4 3d
       0.4279544 0.2130154 1.2707886 0.08051818
0000c0 fa 3f 26 3e 85 92 1f 3f 58 55 4b 3e 5b c2 25 3f
       0.16235343 0.62332946 0.19856775 0.6474969
0000d0 d9 9d 44 3e 02 98 6b 3e 3c b9 db 3d f7 1b ec 3e
       0.19200839 0.23007205 0.1072869 0.46115085
0000e0 af b8 99 3e 46 a5 d9 3e 92 99 ad 3e 76 cd 33 3f
       0.30023715 0.42508906 0.33906227 0.70235384
0000f0 1b a2 49 3e 73 e5 dc 3e ec 7d a2 3e c7 60 b8 3f
       0.19690745 0.43143806 0.31736696 1.4404534
