NCC_Code/Models/2022-08-28_13-57-55_model.pt (torch, 115275 bytes, 50 tensors)

conv1.weight f4 [8, 2, 5, 5]
-0.06698905 0.1573897 0.06374608 0.14668591 -0.0017072022 0.19028273 -0.27212194 -0.29727107
-0.34104285 -0.12757161 0.082351066 0.20705603 -0.060839467 0.058291316 0.16170157 -0.0694092
-0.051982652 0.25238988 -0.0287252 -0.14075397 -0.049830258 0.5168266 0.398941 1.0312942
0.48180908 0.51813984 0.11064244 0.04025077 0.16961284 0.040932305 -0.30800763 -0.2468018
0.15130758 -0.27033138 -0.15622865 -0.15202312 -0.11074192 -0.11136033 0.22451143 0.024891248
-0.083160795 -0.105369 -0.11870715 0.35241672 0.38390064 0.27339208 0.11754128 0.7278185
0.63478845 0.49842468 -0.20087704 -0.3025496 -0.3101612 -0.26392925 0.050879955 0.15747522
0.15828404 -0.0841921 -0.11697702 -0.11927178 -0.06418198 0.014453786 0.13210452 0.15238662
-0.14101316 0.17152017 0.3557925 0.5011908 0.4484485 0.19030298 -0.09223821 0.09656927
-0.11347978 -0.3159895 -0.26615626 -0.21359682 -0.18794285 -0.20953323 -0.14643058 -0.21359587
-0.03323042 -0.038985297 0.12639232 0.042150095 -0.05873666 0.15253499 -0.036489207 -0.03905899
-0.018196506 -0.05847808 0.33497944 0.5305581 0.61573434 0.34211344 -0.1341376 0.25352395
0.038983557 0.02785336 0.10089186 -0.15788521 0.19913153 0.11965504 -0.06454672 -0.1149682
-0.08808327 0.56724715 0.51975375 0.22357266 0.020797336 -0.1704011 0.2403986 0.19395012
0.18401903 -0.3001773 -0.17888229 -0.048901375 -0.15083311 -0.21656705 -0.1006726 -0.07634225
-0.07463488 0.0071956217 -0.17663966 -0.14895457 0.08589752 0.20427126 0.26258165 0.010080762
-0.088699125 -0.31127277 0.46070144 0.34897327 0.10198576 0.039330583 -0.03723119 -0.26013276
-0.055635836 -0.12219813 -0.114853725 -0.38647896 0.018395986 0.049308684 -0.054235283 -0.2578313
-0.23985763 -0.22091173 -0.20167261 0.11815241 0.14654347 -0.103266 0.042703636 -0.127089
-0.3265219 -0.10508964 -0.046923704 0.12389269 0.049469315 0.06900791 0.16871916 0.088445626
0.00921659 0.24816908 0.30462626 0.3737259 0.22220682 -0.39451963 -0.14016657 -0.16824393
-0.23237343 -0.0668992 0.24643135 0.25979823 0.23766439 0.24479693 0.026835153 -0.115661226
-0.13828442 -0.014369979 -0.3399218 -0.1779352 -0.076735355 0.02674874 0.093025714 0.12882529
-0.06313651 0.041359585 0.24118811 0.40727428 0.5230004 0.3297512 -0.12580253 -0.3186805
-0.16403107 -0.24747193 -0.33544487 0.027392585 0.092593886 -0.06654841 0.11384798 0.15146878
-0.085593775 -0.2714398 0.03348469 -0.014768576 -0.17347059 0.01824367 0.034148514 -0.14183378
-0.11496674 -0.070739135 0.3534041 0.41410285 0.3379532 0.24406673 -0.0362796 -0.13396129
-0.3206707 -0.24916665 -0.36852962 -0.19742788 -0.03750146 0.24629575 0.15437284 -0.013546745
0.008795043 -0.10958731 -0.014907483 -0.122700855 -0.19613396 -0.029214766 -0.036366105 -0.024904057
0.105164625 -0.05183498 -0.18600683 0.2114748 0.30487806 0.3781194 0.19038163 0.015221901
-0.10538443 -0.24613303 -0.16471803 -0.11320225 -0.28574848 0.21733062 0.14772484 0.2053165
-0.033779673 -0.2649031 -0.020483615 0.113701366 -0.046975285 0.6033294 0.3560609 -0.059872683
00000000: 8e31 89bd c42a 213e 4e8d 823d d534 163e
00000010: 33c4 dfba 7ad9 423e 9153 8bbe ea33 98be
00000020: 2b9d aebe 22a2 02be ada7 a83d 7f06 543e
00000030: ce32 79bd e0c2 6e3d 1995 253e 6926 8ebd
00000040: c3eb 54bd 3f39 813e 1c51 ebbc cf21 10be
00000050: d01a 4cbd c04e 043f ff41 cc3e 7301 843f
00000060: aeaf f63e d0a4 043f 8198 e23d fedd 243d
00000070: fdae 2d3e a2a8 273d 2db3 9dbe 9cb9 7cbe
00000080: 60f0 1a3e e068 8abe 67fa 1fbe f3ab 1bbe
00000090: a9cc e2bd e210 e4bd 53e6 653e bbe8 cb3c
000000a0: 3550 aabd b4cb d7bd bc1c f3bd f76f b43e
000000b0: a08e c43e 0cfa 8b3e 7cb9 f03d 5052 3a3f
000000c0: 7f81 223f 8531 ff3e b6b2 4dbe c8e7 9abe
000000d0: 73cd 9ebe bc21 87be 8067 503d 2f41 213e
000000e0: 3615 223e e86c acbd a691 efbd c344 f4bd
000000f0: d871 83bd 93cf 6c3c 6846 073e 3d0b 1c3e
00000100: c165 10be fca2 2f3e 6f2a b63e 0a4e 003f
00000110: 0b9b e53e c9de 423e 63e7 bcbd 1cc6 c53d
00000120: 1668 e8bd 60c9 a1be a245 88be 20b9 5abe
00000130: 1774 40be e18f 56be e6f1 15be e0b8 5abe
00000140: 9f1c 08bd 0caf 1fbd fd6c 013e 94a5 2c3d
00000150: da95 70bd 2232 1c3e b575 15bd 52fc 1fbd
00000160: d710 95bc b686 6fbd 6d82 ab3e a8d2 073f
00000170: c4a0 1d3f 7e29 af3e 5e5b 09be e4cd 813e
00000180: 39ad 1f3d bb2c e43c 64a0 ce3d a9ac 21be
00000190: 23e9 4b3e b40d f53d 1231 84bd 7374 ebbd
000001a0: 0065 b4bd 1c37 113f 950e 053f 3bf0 643e
000001b0: 2d5f aa3c a07d 2ebe 0d2b 763e dc9a 463e
000001c0: 7c6f 3c3e d7b0 99be eb2c 37be cf4c 48bd
000001d0: ff73 1abe c1c3 5dbe 702d cebd 5359 9cbd
000001e0: 2cda 98bd 40c9 eb3b 07e1 34be 8c87 18be
000001f0: 0aeb af3d 7c2c 513e 1a71 863e c829 253c
00000200: e3a7 b5bd 255f 9fbe 0fe1 eb3e a0ac b23e
00000210: e9dd d03d 1b19 213d bb7f 18bd 1f30 85be
00000220: 67e2 63bd 0343 fabd 6e38 ebbd 92e0 c5be
00000230: 2eb3 963c e7f7 493d d125 5ebd 7702 84be
00000240: 3d9d 75be af36 62be 4483 4ebe e4f9 f13d
00000250: 7e0f 163e 207d d3bd 02ea 2e3d 9e23 02be
00000260: e12d a7be 3d39 d7bd 1233 40bd 73bb fd3d
00000270: 56a0 4a3d 0554 8d3d b7c4 2c3e fb22 b53d
00000280: 2e01 173c 0920 7e3e f9f7 9b3e 0059 bf3e
00000290: 2f8a 633e 7afe c9be d387 0fbe 2348 2cbe
000002a0: 4df3 6dbe 7302 89bd 8058 7c3e 4604 853e
000002b0: 4b5e 733e 0cac 7a3e 65d5 db3c cbdf ecbd
000002c0: 6e9a 0dbe 0f70 6bbc 3b0a aebe a534 36be
000002d0: 6d27 9dbd 2c20 db3c 4484 be3d c7ea 033e
000002e0: b74d 81bd ab68 293d 04fa 763e 4186 d03e
000002f0: 5be3 053f 26d5 a83e 61d2 00be 172a a3be
00000300: c3f7 27be 4869 7dbe 6ebf abbe 6a66 e03c
00000310: dda1 bd3d 884a 88bd 2129 e93d a21a 1b3e
00000320: ca4b afbd 28fa 8abe 3e27 093d e6f7 71bc
00000330: 46a2 31be c073 953c 50df 0b3d e03c 11be
00000340: af73 ebbd aedf 90bd 62f1 b43e 4a05 d43e
00000350: 3408 ad3e a1ec 793e eb99 14bd 262d 09be
00000360: f32e a4be 8b25 7fbe eaaf bcbe 892a 4abe
00000370: 229b 19bd f434 7c3e ea13 1e3e 2bf3 5dbc
00000380: 1619 103c 506f e0bd 843e 74bc 964a fbbd
00000390: 57d7 48be ce53 efbc a0f4 14bd 9803 ccbc
000003a0: 8d60 d73d ea50 54bd 9378 3ebe da8c 583e
000003b0: fa18 9c3e de98 c13e 67f3 423e 4865 793c
000003c0: cbd3 d7bd 4c0a 7cbe d8ab 28be 95d6 e7bd
000003d0: a04d 92be eb8b 5e3e 2e45 173e 7d3e 523e
000003e0: 8e5c 0abd 61a1 87be 41cd a7bc 43dc e83d
000003f0: 2869 40bd cc73 1a3f 9d4d b63e 0f3d 75bd

conv1.bias f4 [8]
-0.14014073 -0.18934987 0.1937205 -0.3836971 0.13910949 0.10096489 0.40725228 -0.12914991
00000000: 0d81 0fbe efe4 41be ab5e 463e f273 c4be
00000010: b872 0e3e aec6 ce3d 5f83 d03e e03f 04be

bn1.weight f4 [8]
1.0946934 1.3576202 0.8520698 1.2013954 0.91463286 0.63028055 0.699558 1.1104357
00000000: ea1e 8c3f 80c6 ad3f 3f21 5a3f 53c7 993f
00000010: 6125 6a3f 115a 213f 3c16 333f c222 8e3f

bn1.bias f4 [8]
-0.2570265 -0.43411025 -0.22058275 -0.072672494 -0.04743425 0.01900451 0.07614942 0.1911515
00000000: fa98 83be b343 debe 72e0 61be 51d5 94bd
00000010: 6b4a 42bd 59af 9b3c 3af4 9b3d 38bd 433e

bn1.running_mean f4 [8]
1.5361644 0.5349803 0.58932227 0.33121005 0.48382 0.5978813 1.4805412 0.4309062
00000000: 09a1 c43f 78f4 083f d3dd 163f 5d94 a93e
00000010: 41b7 f73e c00e 193f 6082 bd3f bd9f dc3e

bn1.running_var f4 [8]
6.442988 1.3439788 0.91916084 0.5490961 0.390171 0.66246223 3.4995441 0.60651624
00000000: f52c ce40 7f07 ac3f 204e 6b3f 9091 0c3f
00000010: 7ec4 c73e 2097 293f 88f8 5f40 a644 1b3f

conv2.weight f4 [16, 8, 3, 3]
0.2720554 0.41239348 0.13171978 0.1823432 -0.041733805 0.08194032 -0.2391148 -0.15866706
-0.1402114 0.08253606 0.14609405 0.19638602 -0.10903227 -0.40496212 -0.27736324 0.02247778
0.086980745 -0.033645656 -0.16181985 -0.11943007 -0.13421015 -0.056945685 0.06891079 0.22968
0.07746531 0.10210994 0.052378416 -0.10016684 -0.10393566 0.13051908 -0.033287838 0.011944357
0.10978852 0.31796083 0.3142772 0.06656503 -0.002673904 -0.2921826 -0.2891383 0.08004356
-0.08800986 0.123204835 0.15704164 0.20076188 0.16424948 -0.012329903 -0.17122193 -0.35264993
0.20354176 0.06715187 -0.14803064 0.13342214 -0.06237815 0.00677881 -0.15123676 -0.26044357
-0.19375797 0.20244437 -0.2303394 -0.117129594 0.22962233 -0.23917437 -0.18934397 0.009335594
0.0018095365 0.12298544 0.46177903 0.20553096 0.058963932 -0.39385712 -0.41677198 -0.2439762
-0.14572656 -0.08962551 -0.20513612 -0.22130741 -0.13018331 -0.115686886 0.7496746 0.53760797
0.34742907 -0.09430882 -0.23332438 -0.28068382 -0.26669753 -0.112768315 -0.11156123 0.41887352
0.30191314 0.48377204 0.032825872 0.15890409 0.20757999 0.16775031 0.0694015 0.023093486
-0.14418867 -0.084799804 -0.27194116 0.050860446 0.0072377957 -0.12666537 -0.2758282 -0.35947788
-0.122693874 0.096816435 0.18848526 -0.014181206 0.12606283 -0.032870963 -0.04237236 -0.16143304
0.09504775 0.12683539 0.045461264 -0.023559304 0.039575953 0.03511633 0.07728323 0.052024946
-0.008435871 -0.04760306 -0.06058026 0.35021478 -0.19180699 -0.043310788 0.039355747 -0.38752753
-0.2934657 0.07579768 0.045546554 0.13116395 -0.13530478 -0.01727251 -0.026675224 0.033022117
-0.10306411 -0.0991502 0.051668484 -0.09394519 -0.24050975 -0.11717743 -0.13349907 0.02634931
0.4996619 -0.095555365 0.065514505 -0.060041755 0.20255442 0.08047637 -0.37548703 0.13996693
0.040154967 0.047933914 -0.10518454 -0.17735928 -0.28438175 -0.21046934 -0.24390262 -0.17563365
-0.26156554 0.1422024 0.056370337 0.24067311 0.06231929 0.2687072 0.12729065 -0.013780541
-0.17807852 -0.19371057 -0.25999907 0.2395576 0.29965755 -0.031389173 0.013058959 0.056278523
0.15395148 -0.33692655 -0.5102399 -0.28572574 -0.0022135032 -0.03144427 -0.022453774 0.34799138
0.42220137 0.19417694 -0.3046649 -0.14607993 -0.00019811904 -0.092347145 -0.24942124 -0.18287216
0.12338172 0.045769252 -0.019504175 0.05738965 0.13305914 -0.18261243 -0.075065926 -0.25945336
0.06816433 -0.08917524 0.051460993 0.03754788 -0.07277442 -0.19846372 0.05191933 0.047313377
-0.012097924 -0.48196343 0.033833664 0.12245764 -0.08195686 0.19822732 0.028425112 0.108970426
-0.038044028 0.11985311 -0.21661513 -0.0026447019 0.24322584 -0.054565564 0.15558633 0.34046245
-0.2729689 0.42267063 0.24367683 -0.18055177 -0.13962524 -0.21732175 0.0501152 0.08768231
0.25747317 -0.06389474 0.022784404 0.18230279 0.16339232 0.21574944 0.010627014 -0.030487053
0.24332574 0.16933915 0.101656444 0.021389846 0.11002028 -0.22891863 0.030355029 0.06265754
-0.29369804 0.12386192 0.112389274 -0.34945196 0.066346236 -0.04841181 0.14943181 -0.14680263
00000000: d84a 8b3e 3d25 d33e 8de1 063e 2db8 3a3e
00000010: 11f1 2abd 54d0 a73d 83da 74be 9e79 22be
00000020: 9493 0fbe aa08 a93d ae99 153e 6b19 493e
00000030: 504c dfbd 3257 cfbe 8e02 8ebe 5223 b83c
00000040: f622 b23d 07d0 09bd 1ab4 25be c197 f4bd
00000050: 636e 09be e13f 69bd 1a21 8d3d 3c31 6b3e
00000060: 22a6 9e3d 041f d13d c08a 563d 4624 cdbd
00000070: 38dc d4bd cba6 053e d458 08bd 44b2 433c
00000080: ced8 e03d c3cb a23e f1e8 a03e 3f53 883d
00000090: aa3c 2fbb f598 95be ef09 94be e1ed a33d
000000a0: 833e b4bd d152 fc3d 86cf 203e 8694 4d3e
000000b0: 0431 283e 5d03 4abc cd54 2fbe 888e b4be
000000c0: 406d 503e eb86 893d 5895 17be d09f 083e
000000d0: 3b80 7fbd c820 de3b cfdd 1abe dc58 85be
000000e0: 7d68 46be 944d 4f3e 17de 6bbe a4e1 efbd
000000f0: 1e22 6b3e 20ea 74be 63e3 41be 52f4 183c
00000100: f82d ed3a cadf fb3d 4d6e ec3e b576 523e
00000110: 2a84 713d a4a7 c9be 2363 d5be e6d4 79be
00000120: 5839 15be 948d b7bd 340f 52be 699e 62be
00000130: c64e 05be 3fed ecbd adea 3f3f ada0 093f
00000140: 39e2 b13e fc24 c1bd 96ec 6ebe cab5 8fbe
00000150: 948c 88be 13f3 e6bd 377a e4bd 9776 d63e
00000160: 5c94 9a3e f8b0 f73e 6c74 063d c1b7 223e
00000170: d98f 543e bdc6 2b3e 6022 8e3d 8d2e bd3c
00000180: 32a6 13be 85ab adbd df3b 8bbe 0b53 503d
00000190: 082b ed3b 91b4 01be 5b39 8dbe 7c0d b8be
000001a0: ed46 fbbd b247 c63d 4802 413e 4a58 68bc
000001b0: 9d16 013e b4a3 06bd a48e 2dbd b44e 25be
000001c0: 65a8 c23d 23e1 013e 9735 3a3d 71ff c0bc
000001d0: 651a 223d 24d6 0f3d ac46 9e3d 1c18 553d
000001e0: 9c36 0abc 6dfb 42bd 0223 78bd 5a4f b33e
000001f0: 0d69 44be a766 31bd 7e33 213d 026a c6be
00000200: 2341 96be d03b 9b3d 068f 3a3d d84f 063e
00000210: 568d 0abe 147f 8dbc 0086 dabc 3342 073d
00000220: 4713 d3bd 430f cbbd 55a2 533d 5666 c0bd
00000230: 3048 76be b8fa efbd fbb3 08be 82da d73c
00000240: afd3 ff3e 88b2 c3bd 782c 863d 58ee 75bd
00000250: 6d6a 4f3e ccd0 a43d d63f c0be 7e53 0f3e
00000260: 8979 243d 5a56 443d fe6a d7bd ac9d 35be
00000270: 7c9a 91be 4685 57be 9cc1 79be 4fd9 33be
00000280: ebeb 85be 829d 113e 95e4 663d 0373 763e
00000290: 8342 7f3d fd93 893e 7b58 023e c7c7 61bc
000002a0: 375a 36be 105c 46be 991e 85be 964e 753e
000002b0: b76c 993e ef91 00bd 3ef5 553c 4f84 663d
000002c0: 75a5 1d3e a381 acbe 159f 02bf a54a 92be
000002d0: 6c10 11bb b5cb 00bd faf0 b7bc ed2b b23e
000002e0: c72a d83e 52d6 463e 0afd 9bbe fa95 15be
000002f0: 2dbe 4fb9 8020 bdbd 4868 7fbe d742 3bbe
00000300: 8eaf fc3d 8a78 3b3d 38c7 9fbc 6911 6b3d
00000310: a840 083e c1fe 3abe 2abc 99bd 12d7 84be
00000320: be99 8b3d 82a1 b6bd c3c8 523d cecb 193d
00000330: c10a 95bd 133a 4bbe 5da9 543d accb 413d
00000340: 5f36 46bc e9c3 f6be 2b95 0a3d 12cb fa3d
00000350: 00d9 a7bd 1afc 4a3e c8db e83c e32b df3d
00000360: 0ed4 1bbd 8c75 f53d 5bd0 5dbe bc52 2dbb
00000370: 3210 793e 2480 5fbd 0652 1f3e 1851 ae3e
00000380: 94c2 8bbe 4968 d83e 6b86 793e 90e2 38be
00000390: ebf9 0ebe 9889 5ebe 9945 4d3d c892 b33d
000003a0: 86d3 833e 3fdb 82bd 5ca6 ba3c 95ad 3a3e
000003b0: 5150 273e 6ced 5c3e ed1c 2e3c fcbf f9bc
000003c0: 622a 793e 3e67 2d3e 4131 d03d c239 af3c
000003d0: 5052 e13d a569 6abe 1cab f83c 9952 803d
000003e0: 975f 96be 51ab fd3d 592c e63d 5eeb b2be
000003f0: 89e0 873d 764b 46bd a704 193e 6e53 16be

conv2.bias f4 [16]
0.031701252 -0.66065377 0.89959353 -0.4664452 0.27355316 0.12315525 -0.000744918 -0.09327708
-0.027055826 -0.37156227 -0.13709374 -0.14087977 -0.104464166 -0.4240282 0.01367244 0.11524589
00000000: 2cd9 013d 9b20 29bf c34b 663f e8d1 eebe
00000010: 290f 8c3e d238 fc3d 9a46 43ba 0e08 bfbd
00000020: 2ea4 ddbc 693d bebe 4d62 0cbe c942 10be
00000030: 4ff1 d5bd 391a d9be 5f02 603c 0a06 ec3d

bn2.weight f4 [16]
1.0751199 1.1230067 0.8400228 1.0790198 0.7726178 0.98592234 1.0616496 0.4731623
1.0142993 0.97558355 1.1487677 0.89761347 0.38437992 1.1156788 1.0683492 0.87612325
00000000: 879d 893f afbe 8f3f bc0b 573f 521d 8a3f
00000010: 48ca 453f 6865 7c3f 22e4 873f 5442 f23e
00000020: 8fd4 813f d8bf 793f d20a 933f ffc9 653f
00000030: 72cd c43e 90ce 8e3f abbf 883f 9d49 603f

bn2.bias f4 [16]
0.10615418 -0.22098619 -0.29013184 -0.4537332 0.41496217 -0.29680604 -0.39220005 0.121184304
-0.5668582 -0.41154048 0.0561433 0.16495734 0.33606824 -0.2294022 0.029366126 -0.4640664
00000000: 5d67 d93d 344a 62be 298c 94be b84f e8be
00000010: ec75 d43e f6f6 97be 72ce c8be 7a2f f83d
00000020: 9e1d 11bf 6fb5 d2be 84f6 653d 94ea 283e
00000030: 2311 ac3e 69e8 6abe 3b91 f03c 1c9a edbe

bn2.running_mean f4 [16]
0.4505769 0.16483891 1.6583278 0.29068574 2.053819 0.43132132 0.6920325 1.7877747
0.7249191 0.19484708 0.9182764 0.25618637 1.6087954 0.20985016 0.5562921 1.2069688
00000000: 04b2 e63e 88cb 283e 1644 d43f c3d4 943e
00000010: c571 0340 26d6 dc3e 0b29 313f cdd5 e43f
00000020: 4c94 393f fe85 473e 2a14 6b3f dc2a 833e
00000030: 02ed cd3f f6e2 563e 2969 0e3f f47d 9a3f

bn2.running_var f4 [16]
0.93860555 0.5449927 1.0128375 1.2941034 2.234744 0.86582845 2.1780937 3.7620327
2.251492 0.5724701 3.5424845 0.62853163 2.7678618 0.7678478 1.8727716 2.8287468
00000000: 7448 703f a484 0b3f a9a4 813f 2ea5 a53f
00000010: 0c06 0f40 efa6 5d3f e365 0b40 25c5 7040
00000020: 7218 1040 678d 123f 11b8 6240 73e7 203f
00000030: a624 3140 ac91 443f fbb6 ef3f 300a 3540

conv3.weight f4 [32, 16, 3, 3]
0.07879836 0.10252548 0.02590636 0.10714762 0.09491367 -0.0610121 -0.18434642 0.035653904
-0.108680524 0.1072327 0.047856964 0.040600326 -0.49116606 -0.3088053 0.0965705 0.06602126
0.060275964 0.1750172 -0.32584593 -0.032230146 0.14282738 -0.07933674 -0.020544482 -0.047573626
0.019456375 0.24584864 0.09436314 0.2554053 0.12918411 -0.15479313 0.1605311 0.15668386
-0.04873553 0.13300265 0.27397665 0.17063509 -0.0607845 0.20101859 0.029858906 -0.14869109
-0.32313687 -0.056895044 0.16752586 -0.025944082 -0.13093571 0.15131047 -0.17796429 -0.16818182
-0.14917676 -0.44398558 -0.4063368 0.022618838 -0.11314294 -0.22778222 0.09995126 0.16239166
0.01432648 -0.03994956 -0.13334498 -0.45244393 0.038704187 0.15291208 -0.26644126 -0.08997832
-0.10961806 -0.25834975 -0.07673321 -0.13135357 0.10849885 -0.4534785 0.006925884 -0.15573035
0.19617404 0.18354315 0.10067692 0.043526415 -0.059111685 0.29384172 -0.05766679 -0.014441992
-0.034242097 0.24445133 0.21734485 -0.13521732 0.1588135 0.19855551 -0.120485306 0.27243137
0.1856629 0.117955856 0.04414522 -0.23850146 -0.3838212 -0.14828153 -0.15787615 -0.2859526
0.037837394 0.1878348 -0.19284415 -0.31280825 -0.061427444 0.110914685 -0.21395074 -0.09317028
0.14534107 0.29388663 0.14948028 -0.114310116 0.04056398 -0.08070188 -0.021100428 -0.078989126
0.062343817 0.083745986 -0.32309029 -0.13534035 -0.13492449 -0.13665725 0.013333195 -0.25159803
0.028452765 -0.09356071 -0.2261058 0.07563282 -0.12941778 -0.18178725 -0.13807592 -0.016556056
-0.07762097 0.04418359 0.0010461231 -0.27867782 0.29345542 0.32911548 0.4301315 0.09232469
0.06785574 -0.079350136 0.29385865 0.22232245 -0.03308296 0.13116598 -0.041645065 0.06972157
-0.07741289 -0.0007303516 -0.03329175 0.20143262 0.28543094 0.045496885 -0.1978049 -0.4635058
-0.55706173 0.046939053 -0.0878843 -0.14092608 0.107952364 -0.03516365 -0.053406466 0.07642117
0.19166861 0.22076367 -0.020217564 -0.16479595 -0.2282033 -0.17419475 0.0028512867 0.082477644
0.08455193 -0.02837443 -0.092470825 -0.044809695 0.22319508 0.16232103 0.104407236 0.15305334
0.14901051 0.14199148 0.050061833 -0.09555604 -0.03482487 -0.045570675 -0.0050501917 -0.16325638
-0.049960032 -0.21701932 -0.2212964 -0.08405248 -0.14896937 0.089711085 0.25693628 0.1881313
0.120841965 -0.057039503 -0.10602337 0.06166427 -0.10830998 -0.25626868 0.19069491 0.067100815
-0.04983636 -0.1719551 0.05729768 -0.023179354 -0.1257955 0.0089108795 0.17493103 -0.2268598
-0.18553947 0.04896398 -0.16341974 -0.051658615 0.028169401 -0.32738432 -0.26827005 -0.09978004
-0.10460158 -0.072382055 -0.13681217 0.39389348 0.106839165 -0.0269898 0.14032184 0.0032178233
0.014179263 -0.008099698 -0.062602974 0.029434247 -0.23961747 -0.18838382 0.014806871 0.08948497
-0.01800471 -0.036237605 -0.22510624 -0.40676948 -0.34556654 0.05477153 -0.00095015374 0.067625634
0.072406285 0.079320915 0.016843552 0.029631924 -0.055837832 0.062839285 -0.041255917 0.036288623
0.011818667 0.018879237 0.10835054 0.04735247 0.17381734 -0.15896782 -0.024552561 0.0728511
00000000: 0961 a13d e1f8 d13d 9339 d43c 3670 db3d
00000010: 1962 c23d d3e7 79bd 4fc5 3cbe d409 123d
00000020: e593 debd d19c db3d aa05 443d 874c 263d
00000030: 1e7a fbbe ba1b 9ebe c1c6 c53d 2836 873d
00000040: eee3 763d b537 333e 47d5 a6be c203 04bd
00000050: 5741 123e 4d7b a2bd e74c a8bc 90dc 42bd
00000060: fa62 9f3c bfbf 7b3e 7641 c13d 7cc4 823e
00000070: d748 043e 1782 1ebe 4462 243e bc71 203e
00000080: e89e 47bd d931 083e ab46 8c3e f7ba 2e3e
00000090: 2bf9 78bd d1d7 4d3e aa9a f43c 7a42 18be
000000a0: 3272 a5be c70a 69bd e68b 2b3e af88 d4bc
000000b0: 0314 06be 22f1 1a3e 453c 36be db37 2cbe
000000c0: cbc1 18be 1452 e3be 610b d0be 244b b93c
000000d0: 7cb7 e7bd be3f 69be 3fb3 cc3d 004a 263e
000000e0: 9db9 6a3c 26a2 23bd 968b 08be bba6 e7be
000000f0: 4888 1e3d fc94 1c3e fd6a 88be 8e46 b8bd
00000100: 6f7f e0bd 6b46 84be 4d26 9dbd 8d81 06be
00000110: a534 de3d 552e e8be 87f2 e23b c777 1fbe
00000120: d9e1 483e bcf2 3b3e b32f ce3d c148 323d
00000130: 181f 72bd 6c72 963e 0334 6cbd 1b9e 6cbc
00000140: 7141 0cbd 7351 7a3e a68f 5e3e 6976 0abe
00000150: 02a0 223e 2352 4b3e 00c1 f6bd 207c 8b3e
00000160: 6a1e 3e3e d792 f13d 9ed1 343d ba39 74be
00000170: 3684 c4be 1dd7 17be 49aa 21be 6168 92be
00000180: 62fb 1a3d c457 403e f078 45be 6728 a0be
00000190: 589b 7bbd 3d27 e33d e715 5bbe 0fd0 bebd
000001a0: 4ad4 143e 4f78 963e 5c11 193e 6c1b eabd
000001b0: 6a26 263d 0747 a5bd ceda acbc 0dc5 a1bd
000001c0: 3b5c 7f3d 0483 ab3d 176c a5be a996 0abe
000001d0: a529 0abe e1ef 0bbe 7973 5a3c 75d1 80be
000001e0: c615 e93c c29c bfbd 4788 67be 61e5 9a3d
000001f0: 1886 04be 7026 3abe c663 0dbe 91a0 87bc
00000200: bef7 9ebd daf9 343d 111e 893a dcae 8ebe
00000210: ca3f 963e d381 a83e 323a dc3e ba14 bd3d
00000220: f3f7 8a3d 5382 a2bd a474 963e 7fa8 633e
00000230: ff81 07bd 6050 063e 0494 2abd 2fca 8e3d
00000240: a68a 9ebd 1175 3fba ee5c 08bd 5a44 4e3e
00000250: 0124 923e f15a 3a3d 5e8d 4abe a250 edbe
00000260: 999b 0ebf 2a43 403d affc b3bd ed4e 10be
00000270: 2116 dd3d c207 10bd bdc0 5abd b482 9c3d
00000280: c744 443e df0f 623e 4e9f a5bc 45c0 28be
00000290: 20ae 69be 1c60 32be a7dc 3a3b 0aea a83d
000002a0: 9029 ad3d 7e71 e8bc 5861 bdbd 5f8a 37bd
000002b0: 408d 643e 7c37 263e 76d3 d53d 04ba 1c3e
000002c0: 3696 183e 3766 113e a30d 4d3d e3b2 c3bd
000002d0: 86a4 0ebd 51a8 3abd 147c a5bb ae2c 27be
000002e0: e4a2 4cbd 503a 5ebe 869b 62be b523 acbd
000002f0: 6d8b 18be 72ba b73d 278d 833e 7ea5 403e
00000300: fe7b f73d 41a2 69bd c822 d9bd ac93 7c3d
00000310: 9fd1 ddbd a635 83be 8745 433e 276c 893d
00000320: 3621 4cbd ff14 30be f9b0 6a3d a1e2 bdbc
00000330: 89d0 00be f0fe 113c 1f21 333e ef4d 68be
00000340: 0ffe 3dbe 748e 483d 8157 27be fc97 53bd
00000350: 84c3 e63c eb9e a7be b15a 89be 7a59 ccbd
00000360: 5a39 d6bd 0b3d 94bd 7d18 0cbe 68ac c93e
00000370: 7ece da3d b719 ddbc 87b0 0f3e 1ee2 523b
00000380: 2450 683c 99b4 04bc fd35 80bd 1720 f13c
00000390: 485e 75be b0e7 40be 8598 723c e543 b73d
000003a0: 9d7e 93bc e26d 14bd 4082 66be 1744 d0be
000003b0: 19ee b0be 1d58 603d bd13 79ba 4f7f 8a3d
000003c0: bf49 943d 0173 a23d 7dfb 893c a6be f23c
000003d0: 36b6 64bd e2b1 803d f7fb 28bd 61a3 143d
000003e0: 15a3 413c a1a8 9a3c e3e6 dd3d aaf4 413d
000003f0: 2cfd 313e 76c8 22be 7422 c9bc f532 953d

conv3.bias f4 [32]
-0.28848308 -0.4550653 -0.41093746 -0.0054799295 -0.4038889 -0.19588415 -0.2774294 -0.07050882
-0.21386614 -0.33336607 0.02929221 -0.33230397 -0.5205204 -0.24582075 -0.15334235 -0.2769395
-0.15646541 -0.20972273 -0.05297892 -0.35145584 -0.06824517 0.14672303 -0.42995867 -0.49999836
-0.25076514 -0.6486718 -0.2802935 -0.49904776 -0.24902843 -0.21130489 0.14700772 -0.39764538
00000000: 0eb4 93be 52fe e8be 6566 d2be fb90 b3bb
00000010: 87ca cebe db95 48be 3a0b 8ebe ee66 90bd
00000020: baff 5abe f5ae aabe 37f6 ef3c bf23 aabe
00000030: d340 05bf 6fb8 7bbe c705 1dbe 04cb 8dbe
00000040: 7838 20be 8ec1 56be 6d00 59bd 05f2 b3be
00000050: 20c4 8bbd 903e 163e 8b23 dcbe c9ff ffbe
00000060: 4a64 80be 5b0f 26bf a182 8fbe 3083 ffbe
00000070: 4f01 7fbe 4f60 58be 3189 163e 2d98 cbbe

bn3.weight f4 [32]
0.96231544 1.1156216 0.98340964 0.8498822 0.96388537 1.0806473 1.0083395 0.81796056
0.99053437 1.0579594 0.8338682 0.93464816 1.036198 1.2130706 1.0138946 1.0641712
1.0034193 0.9657739 0.9506107 1.1537647 0.888277 0.75494117 1.0587957 0.8472402
0.83312595 1.1170728 0.9947861 0.9988222 1.0215601 1.1188548 0.8351543 1.0564324
00000000: 4e5a 763f b0cc 8e3f bcc0 7b3f e191 593f
00000010: 31c1 763f a752 8a3f 4511 813f dd65 513f
00000020: a993 7d3f 376b 873f 6378 553f 1a45 6f3f
00000030: 23a2 843f e645 9b3f 4cc7 813f c336 883f
00000040: 0b70 803f f53c 773f 395b 733f 90ae 933f
00000050: 1f66 633f d343 413f 9e86 873f bce4 583f
00000060: be47 553f 3efc 8e3f 4daa 7e3f d0b2 7f3f
00000070: 7bc2 823f a236 8f3f accc 553f 2d39 873f

bn3.bias f4 [32]
-0.21751256 0.15947233 0.016981315 -0.35162735 -0.12541498 0.026705066 0.21829878 -0.43922934
0.39276263 -0.02516043 0.05529734 0.16671437 0.0031700016 0.29689702 0.056568656 0.095246956
0.38908586 -0.00042861357 0.1506843 0.5315074 0.1720021 0.36933064 0.30178183 -0.16508973
0.026007961 0.64029294 0.059850395 -0.058329362 0.034494568 0.17811784 -0.4934858 0.08787789
00000000: 9dbb 5ebe b74c 233e 661c 8b3c 8008 b4be
00000010: c96c 00be 95c4 da3c b789 5f3e abe2 e0be
00000020: 2f18 c93e 3f1d cebc 777f 623d 2cb7 2a3e
00000030: cdbf 4f3b e302 983e 89b4 673d d610 c33d
00000040: 4336 c73e 8ab7 e0b9 fc4c 1a3e de10 083f
00000050: 5221 303e e818 bd3e 2683 9a3e 480d 29be
00000060: a60e d53c 3dea 233f b025 753d c5ea 6ebd
00000070: 2d4a 0d3d 8664 363e 2caa fcbe 53f9 b33d

bn3.running_mean f4 [32]
0.38560528 0.20808406 0.22224726 0.5562415 0.59612274 0.31977338 0.27748376 0.45108542
1.7211938 0.37650794 0.7940332 0.5399083 0.28762537 0.3680057 0.37955874 0.3130294
0.70956826 0.35931873 2.4219124 0.35313636 0.24117413 1.2630769 0.23101376 0.742762
0.51978314 0.19257611 0.5546005 0.5205895 0.33459425 0.4976163 1.1628332 0.2831031
00000000: 0e6e c53e fd13 553e c994 633e d865 0e3f
00000010: 809b 183f 56b9 a33e 5a12 8e3e abf4 e63e
00000020: 1450 dc3f a6c5 c03e c345 4b3f 6e37 0a3f
00000030: a243 933e 3e6b bc3e 8655 c23e 6445 a03e
00000040: 44a6 353f a0f8 b73e 9d00 1b40 4ace b43e
00000050: 5af6 763e 81ac a13f df8e 6c3e a725 3e3f
00000060: 8210 053f ac32 453e 4cfa 0d3f 5a45 053f
00000070: f04f ab3e 90c7 fe3e b8d7 943f e4f2 903e

bn3.running_var f4 [32]
1.4973184 1.3281231 0.80675924 2.4179375 2.155037 1.3017814 1.4246445 1.6551251
1.9699174 2.030141 1.3309026 2.552001 1.312409 1.1580114 1.4312549 1.0852538
3.4989989 1.1891277 2.3368778 1.6381924 0.7576225 1.6160612 1.0823528 2.8565698
1.653112 1.1752425 2.3238962 2.4144154 1.6900873 1.78474 3.0421896 1.403195
00000000: 21a8 bf3f f0ff a93f c687 4e3f 7dbf 1a40
00000010: 20ec 0940 c6a0 a63f c05a b63f 24db d33f
00000020: 4126 fc3f d5ed 0140 045b aa3f fc53 2340
00000030: 05fd a73f b839 943f 5c33 b73f 99e9 8a3f
00000040: 99ef 5f40 5635 983f 688f 1540 4ab0 d13f
00000050: 8cf3 413f 18db ce3f 898a 8a3f 0ad2 3640
00000060: 2d99 d33f 596e 963f b7ba 1440 c885 1a40
00000070: c854 d83f 5c72 e43f 3cb3 4240 e59b b33f

conv4.weight f4 [64, 32, 3, 3]
-0.18043444 -0.09559882 -0.06100137 0.07259223 0.18639113 -0.05946648 0.032276433 -0.11699557
-0.2932219 0.00076216704 -0.011260994 -0.1761431 -0.019431382 0.08858959 0.14180034 0.07624208
-0.0046032094 0.0022061032 0.06870705 0.12064832 0.014712468 0.090135485 0.21276931 0.122125424
-0.020952763 0.19692533 0.085242614 0.21111144 0.22169109 0.29345295 0.082342915 0.090718664
0.15229663 -0.010810404 0.06240668 -0.12874402 0.021369882 -0.02178536 -0.07857502 0.33824015
0.27628604 0.10016827 -0.00056293973 -0.009867039 -0.27461675 -0.24369869 -0.33597752 -0.049741656
0.027101131 -0.12762466 -0.16110335 -0.32753676 -0.42323983 -0.38364518 -0.0800918 -0.06755559
-0.20050211 -0.035329077 0.08201453 0.040670715 0.009551925 -0.07539015 -0.09470357 0.068711825
-0.11656152 -0.04971386 -0.021705283 -0.016285965 0.057688214 0.07976403 -0.06587333 -0.029459627
0.04657149 0.048120957 -0.020270409 -0.1939626 -0.09843878 -0.037220385 0.030977549 -0.009044152
0.16903105 0.1652042 0.011320672 0.026814498 -0.43472013 -0.2920148 -0.0026494614 -0.07380293
0.017601566 -0.14895628 0.16743085 0.019756092 -0.037218288 0.042804584 -0.065428704 0.05976749
0.10424025 0.0061909715 -0.03767232 0.09065215 0.12856692 -0.021173721 -0.05816238 0.006690533
-0.06731848 0.008882238 0.097375154 -0.18321724 -0.30363753 -0.22667523 -0.12217946 0.30650952
0.12849662 0.021279939 -0.05593191 -0.099150404 0.07848234 -0.050068848 -0.026124392 -0.064129286
0.056795355 -0.07416585 -0.33559754 0.08402557 0.10746208 0.07802465 0.19616124 0.14150786
-0.032653786 -0.24582428 -0.22336367 -0.013598871 0.102379 0.028158462 -0.15693164 -0.0506748
-0.039950576 -0.10468801 0.17684507 0.02643167 -0.15299447 0.024759104 0.011872104 -0.031310417
-0.024690963 0.010622235 0.030698491 -0.15499958 0.0038740444 -0.38666767 0.01930539 -0.046922047
-0.25035077 -0.15503465 -0.07393843 0.034101736 0.10955991 0.18305269 0.2936696 0.12224707
0.15629427 0.1459359 -0.17395298 -0.07338173 0.12179095 -0.46402925 -0.31627768 -0.1759599
-0.04581246 0.1554969 0.1291083 -0.1808029 -0.06422143 -0.30209103 0.12761371 0.17599033
0.0005091418 0.031018827 -0.043299396 -0.018225435 -0.015342413 -0.17580903 -0.063779615 0.25934592
0.22808136 0.12399642 -0.07665154 -0.077091165 -0.068558834 0.030740913 -0.077973306 -0.22135024
0.03205098 -0.040787697 -0.07934716 0.1452902 0.13169207 -0.052697368 -0.15219998 -0.008381219
0.17117593 0.13928787 0.23467693 0.44689295 0.06590715 0.019197654 -0.0855315 0.12104838
0.03090209 0.32761753 0.031661566 0.25550503 0.2303642 0.13598078 0.059499525 0.25600663
-0.050797723 -0.23048952 0.07071702 -0.2047464 -0.06125066 -0.10371142 -0.009521705 0.029328989
0.0065851556 -0.048853397 -0.0237244 -0.09953239 -0.07323885 -0.18350618 -0.21503021 -0.27085876
-0.18426366 -0.057153493 -0.108404286 0.15054907 -0.1040268 0.108673215 0.08735058 -0.14188044
-0.037455138 0.1676759 0.16364686 0.15411021 0.25618538 0.19072863 0.10342142 0.05787247
0.19787446 0.053014666 0.079227276 0.017231887 -0.08271528 -0.08073238 -0.0066235294 -0.054054197
00000000: cec3 38be 50c9 c3bd 93dc 79bd 3cab 943d
00000010: 51dd 3e3e 2093 73bd 4b34 043d 609b efbd
00000020: 2e21 96be 2acc 473a 0880 38bc db5e 34be
00000030: 902e 9fbc 756e b53d 1c34 113e cf24 9c3d
00000040: 85d6 96bb 4594 103b 48b6 8c3d 7716 f73d
00000050: 900c 713c f498 b83d 33e0 593e e51c fa3d
00000060: 21a5 abbc cba6 493e ae93 ae3d 992d 583e
00000070: fd02 633e 773f 963e 67a3 a83d b5ca b93d
00000080: a6f3 1b3e 1f1e 31bc 269e 7f3d 79d5 03be
00000090: e40f af3c 3677 b2bc f1eb a0bd d02d ad3e
000000a0: 5d75 8d3e 0625 cd3d 3f92 13ba 5ca9 21bc
000000b0: 919a 8cbe 268c 79be 3f05 acbe e8bd 4bbd
000000c0: 3103 de3c 0ab0 02be 47f8 24be e6b2 a7be
000000d0: e4b2 d8be 246d c4be 2b07 a4bd 965a 8abd
000000e0: 6d50 4dbe 39b5 10bd 3cf7 a73d 5696 263d
000000f0: ad7f 1c3c 2766 9abd f2f3 c1bd c9b8 8c3d
00000100: ceb7 eebd c3a0 4bbd 47cf b1bc 256a 85bc
00000110: 7a4a 6c3d 535b a33d 99e8 86bd 5155 f1bc
00000120: bfc1 3e3d 7b1a 453d 210e a6bc 229e 46be
00000130: 459a c9bd 6774 18bd a1c4 fd3c ec2d 14bc
00000140: 7a16 2d3e 4a2b 293e 577a 393c 14aa db3c
00000150: a393 debe f782 95be 96a2 2dbb fe25 97bd
00000160: 2931 903c ff87 18be fe72 2b3e 87d7 a13c
00000170: 3472 18bd dc53 2f3d 7cff 85bd c1ce 743d
00000180: ea7b d53d a2dd ca3b 4a4e 1abd d6a7 b93d
00000190: 0ca7 033e 8374 adbc ad3b 6ebd 423c db3b
000001a0: 45de 89bd ce86 113c a06c c73d 4d9d 3bbe
000001b0: 6176 9bbe 8d1d 68be 3a39 fabd d1ee 9c3e
000001c0: 9e94 033e 4453 ae3c dc18 65bd 5e0f cbbd
000001d0: 59bb a03d fe14 4dbd d202 d6bc 3756 83bd
000001e0: 3fa2 683d 44e4 97bd 71d3 abbe 9915 ac3d
000001f0: 1415 dc3d 63cb 9f3d 7ede 483e 70e7 103e
00000200: fabf 05bd 5cb9 7bbe 72b9 64be cdcd 5ebc
00000210: 15ac d13d 93ac e63c b0b2 20be 6190 4fbd
00000220: 37a3 23bd ab66 d6bd e016 353e 3b87 d83c
00000230: 95aa 1cbe 9bd3 ca3c 3783 423c 5a3f 00bd
00000240: b444 cabc e208 2e3c 677b fb3c 36b8 1ebe
00000250: aee3 7d3b 4ef9 c5be 5626 9e3c 5531 40bd
00000260: fa2d 80be 67c1 1ebe 086d 97bd 43ae 0b3d
00000270: f260 e03d 2a72 3b3e dd5b 963e ac5c fa3d
00000280: 9b0b 203e 3870 153e bb20 32be 2949 96bd
00000290: 896d f93d 3e95 edbe 26ef a1be d52e 34be
000002a0: d9a5 3bbd 943a 1f3e f734 043e 6524 39be
000002b0: 8686 83bd adab 9abe 2bad 023e cf36 343e
000002c0: ee77 053a 321b fe3c b55a 31bd 824d 95bc
000002d0: bf5e 7bbc 4807 34be e39e 82bd fdc8 843e
000002e0: 298e 693e d6f1 fd3d 7cfb 9cbd f9e1 9dbd
000002f0: 9368 8cbd 5ed4 fb3c 78b0 9fbd a3a9 62be
00000300: e347 033d 0011 27bd c480 a2bd f4c6 143e
00000310: 49da 063e 32d9 57bd 50da 1bbe 6151 09bc
00000320: be48 2f3e 7ba1 0e3e 264f 703e 27cf e43e
00000330: 54fa 863d 6644 9d3c 242b afbd 37e8 f73d
00000340: 6126 fd3c 7cbd a73e 8faf 013d 8ed1 823e
00000350: 98e4 6b3e 8c3e 0b3e c6b5 733d 4d13 833e
00000360: 4611 50bd 7205 6cbe 16d4 903d 0aa9 51be
00000370: f9e1 7abd a766 d4bd ed00 1cbc 5943 f03c
00000380: 4ac8 d73b 801a 48bd ac59 c2bc a3d7 cbbd
00000390: 40fe 95bd 0be9 3bbe e130 5cbe 00ae 8abe
000003a0: 9daf 3cbe c819 6abd 1103 debd 8929 1a3e
000003b0: 010c d5bd 1090 de3d dce4 b23d 1b49 11be
000003c0: 8f6a 19bd 3bb3 2b3e 0b93 273e 11cf 1d3e
000003d0: bb2a 833e 5e4e 433e 9cce d33d af0b 6d3d
000003e0: 9a9f 4a3e e825 593d e941 a23d e329 8d3c
000003f0: a166 a9bd 0557 a5bd 310a d9bb ef67 5dbd

conv4.bias f4 [64]
-0.10333233 -0.047724977 -0.31566873 0.00050636014 -0.07494569 -0.22074175 -0.33930773 -0.283011
-0.27797425 -0.21927139 -0.2568703 -0.2042088 -0.040440343 -0.022813614 -0.40484956 -0.11308508
-0.24178576 -0.18642198 -0.21236216 -0.22150724 -0.19839367 -0.20259373 -0.2261084 0.00021490207
-0.080945194 -0.33929354 -0.14597104 -0.19917238 -0.21676755 -0.4348365 -0.4082783 0.121114634
-0.43112817 -0.23845379 -0.34905592 -0.1141523 -0.08007582 -0.03972656 -0.17903136 -0.18386371
-0.22516873 -0.15999343 -0.4664675 -0.29745346 0.108160935 -0.37134418 -0.04793036 -0.28302592
-0.2865847 -0.18152896 -0.26864952 -0.23038264 -0.311924 -0.24061157 -0.0024981352 -0.29544556
-0.034165487 -0.18731266 -0.19940823 -0.22481485 -0.33378252 -0.13934614 -0.3420604 -0.25058678
00000000: e79f d3bd 447b 43bd 559f a1be 41bd 043a
00000010: 207d 99bd 200a 62be beb9 adbe d1e6 90be
00000020: a452 8ebe ae88 60be 8184 83be 1d1c 51be
00000030: c6a4 25bd 9ee3 babc 7148 cfbe 2799 e7bd
00000040: b096 77be 67e5 3ebe 7775 59be cbd2 62be
00000050: b627 4bbe bb74 4fbe f688 67be 5657 6139
00000060: 98c6 a5bd e2b7 adbe 6f79 15be d8f3 4bbe
00000070: 50f8 5dbe e4a2 debe da09 d1be f30a f83d
00000080: d5bc dcbe 3b2d 74be 75b7 b2be aec8 e9bd
00000090: cbfe a3bd 51b8 22bd ff53 37be c546 3cbe
000000a0: a292 66be 51d5 23be d4d4 eebe d24b 98be
000000b0: 7b83 dd3d d320 bebe a052 44bd c6e8 90be
000000c0: 3bbb 92be bae2 39be 6e8c 89be 6de9 6bbe
000000d0: 81b4 9fbe e162 76be c1b7 23bb a444 97be
000000e0: 1cf1 0bbd e4ce 3fbe ac31 4cbe dd35 66be
000000f0: 8be5 aabe c1b0 0ebe 8a22 afbe e94c 80be

bn4.weight f4 [64]
2.3266945 3.2286344 2.7412694 2.420731 2.0703814 3.1997094 3.017738 2.889276
2.9257562 2.7839587 2.711933 2.8102443 2.645678 2.1585152 2.7875307 3.1033232
2.8713615 2.475329 2.9744513 2.0158021 2.6897633 2.9676485 2.9603083 2.2457829
3.1334789 3.4357283 2.9260638 3.0327005 2.1908863 3.4158263 3.4114304 2.3952067
2.6449916 2.8992987 3.1816661 1.9325173 3.1308684 3.3382218 3.130435 2.5728774
3.5809588 2.9368262 3.3713524 2.903513 2.1469712 2.4034574 2.4117503 3.179798
2.7146676 2.7467074 3.234615 2.5969124 2.674085 2.7119539 2.1035368 2.9329355
2.338922 2.8145072 2.8351128 2.9233944 2.6234555 3.1126893 2.4760582 2.5416589
00000000: 90e8 1440 f2a1 4e40 f570 2f40 42ed 1a40
00000010: 2181 0440 0ac8 4c40 9f22 4140 e6e9 3840
00000020: 973f 3b40 612c 3240 4f90 2d40 0bdb 3340
00000030: ca52 2940 1d25 0a40 e766 3240 d99c 4640
00000040: 63c4 3740 ca6b 1e40 695d 3e40 e702 0140
00000050: 1525 2c40 f4ed 3d40 b175 3d40 e8ba 0f40
00000060: eb8a 4840 f9e2 5b40 a144 3b40 c417 4240
00000070: 7b37 0c40 e69c 5a40 e054 5a40 114b 1940
00000080: 8b47 2940 1c8e 3940 6ba0 4b40 ba5c f73f
00000090: 2660 4840 6da5 5540 0c59 4840 06aa 2440
000000a0: 6e2e 6540 f6f4 3b40 3dc4 5740 28d3 3940
000000b0: fa67 0940 3fd2 1940 1e5a 1a40 cf81 4b40
000000c0: 1dbd 2d40 0eca 2f40 ef03 4f40 d033 2640
000000d0: 3524 2b40 a790 2d40 59a0 0640 37b5 3b40
000000e0: e6b0 1540 e320 3440 7d72 3540 e518 3b40
000000f0: b2e6 2740 4d36 4740 bd77 1e40 8aaa 2240

bn4.bias f4 [64]
0.16093272 -0.20826477 -0.20700885 0.2108609 0.14745276 -0.189653 0.27313977 0.15397537
0.14827019 0.26697555 0.22670116 -0.17348672 0.26494622 -0.2197844 0.13165322 -0.21943913
-0.20118348 0.22339328 -0.20996831 -0.21169323 0.25358945 -0.15577134 -0.11234961 -0.2295046
-0.23423485 0.19563086 0.16996871 -0.25469202 0.23335694 -0.19313622 -0.3150089 -0.3491016
-0.32314056 -0.19302413 -0.21049058 0.10931609 0.20246875 0.30794948 -0.29672346 0.15161377
-0.2614951 0.21596448 0.26705784 0.21343872 0.18018267 0.12697385 -0.21145469 -0.22828417
0.24384895 0.19753875 0.24834366 -0.30305508 -0.36131665 -0.2218169 -0.21397597 0.17102066
0.24859625 0.24650592 -0.2073314 0.29941905 0.15812537 -0.21686436 0.109089814 0.16120704
00000000: 8ccb 243e 5c43 55be 21fa 53be ebeb 573e
00000010: dbfd 163e 6534 42be fad8 8b3e b8ab 1d3e
00000020: 24d4 173e 05b1 883e 5924 683e 81a6 31be
00000030: 08a7 873e 290f 61be 1ad0 063e a7b4 60be
00000040: 0b03 4ebe 35c1 643e ef01 57be 1cc6 58be
00000050: 7ad6 813e 8682 1fbe 8d17 e6bd 4103 6bbe
00000060: 43db 6fbe 7553 483e 470c 2e3e fe66 82be
00000070: 1ff5 6e3e 80c5 45be d948 a1be 72bd b2be
00000080: ae72 a5be 1ea8 45be d88a 57be 1de1 df3d
00000090: f853 4f3e 8eab 9d3e 23ec 97be a440 1b3e
000000a0: b0e2 85be cb25 5d3e cebb 883e ae8f 5a3e
000000b0: ce81 383e 6f05 023e 9487 58be 53c3 69be
000000c0: 8ab3 793e 9947 4a3e cd4d 7e3e 092a 9bbe
000000d0: 7ffe b8be f823 63be 841c 5bbe 0a20 2f3e
000000e0: 0490 7e3e 0c6c 7c3e af4e 54be 744d 993e
000000f0: 9eeb 213e b111 5ebe 7b6a df3d 7513 253e

bn4.running_mean f4 [64]
0.58754474 0.23905951 0.10949914 0.3482271 0.9510046 0.2055231 0.087682866 0.13937703
0.09410734 0.07457759 0.25391054 0.0745221 0.18528128 0.18702449 0.09104868 0.123960264
0.053312194 0.2868815 0.13138972 0.31996053 0.10248259 0.066362485 0.20891264 0.2092326
0.1084111 0.24148329 0.12330051 0.16287316 0.2508643 0.06743668 0.15269157 0.84196365
0.07359689 0.14268328 0.071247734 0.69529176 0.15431884 0.17800334 0.3020627 0.36794293
0.09045103 0.11345283 0.09432782 0.10887321 0.8123071 0.33106536 0.18647988 0.15958302
0.12996118 0.11858228 0.16022302 0.21163698 0.11779127 0.11588878 0.5925195 0.21098234
0.36666748 0.15763293 0.08403636 0.23741722 0.21552625 0.16330864 0.16157818 0.12816624
00000000: 5569 163f 04cc 743e 1641 e03d d34a b23e
00000010: 0a75 733f a674 523e 1393 b33d dab8 0e3e
00000020: 59bb c03d 23bc 983d 9000 823e 0b9f 983d
00000030: 60ba 3d3e 5983 3f3e bb77 ba3d e1de fd3d
00000040: e35d 5a3d 22e2 923e 078b 063e ded1 a33e
00000050: 64e2 d13d 0ee9 873d 32ed 553e 1241 563e
00000060: a406 de3d 6547 773e fa84 fc3d 39c8 263e
00000070: 4971 803e 3e1c 8a3d 2e5b 1c3e ee8a 573f
00000080: f7b9 963d 911b 123e 55ea 913d a4fe 313f
00000090: c205 1e3e 8246 363e f6a7 9a3e 0463 bc3e
000000a0: 643e b93d f559 e83d f22e c13d ebf8 de3d
000000b0: 5cf3 4f3f 6681 a93e 95f4 3e3e bb69 233e
000000c0: 8b14 053e 44db f23d 8111 243e 5db7 583e
000000d0: 8d3c f13d 1957 ed3d 5caf 173f c10b 583e
000000e0: d7bb bb3e 876a 213e 411b ac3d 801d 733e
000000f0: eab2 5c3e 613a 273e c074 253e 033e 033e

bn4.running_var f4 [64]
2.4470887 0.95227426 0.31287968 0.91785073 3.378329 1.05199 0.29351097 0.4170171
0.32096615 0.31467405 0.85121715 0.1796738 0.61903846 0.4659769 0.39224052 0.3138757
0.14692087 1.0146208 0.3691417 0.359258 0.25633237 0.19255182 0.94260126 0.48720464
0.3067081 0.71766233 0.34874922 0.6372596 0.7569003 0.20853704 0.60036755 2.6779408
0.21023369 0.39871645 0.20841831 3.3545468 0.5366142 0.40553963 1.2663791 1.2561119
0.27329764 0.4680455 0.34033346 0.2470915 2.677313 1.0151138 0.5123793 0.59381896
0.48203155 0.3422224 0.67924047 0.6498925 0.3121842 0.3559346 0.76991296 0.5914285
0.9777492 0.4433413 0.19554275 0.6928581 0.97524995 0.49874502 0.446479 0.44835106
00000000: 1a9d 1c40 3fc8 733f c431 a03e 44f8 6a3f
00000010: 8b36 5840 9ca7 863f 1247 963e 4483 d53e
00000020: ad55 a43e f51c a13e 5ee9 593f 69fc 373e
00000030: 4e79 1e3f 8694 ee3e c0d3 c83e 51b4 a03e
00000040: 6d72 163e 18df 813f 2400 bd3e aaf0 b73e
00000050: ff3d 833e 4e2c 453e 514e 713f e372 f93e
00000060: d808 9d3e b8b8 373f 428f b23e 7223 233f
00000070: 38c4 413f bc8a 553e b0b1 193f 6263 2b40
00000080: 8047 573e 9024 cc3e 9c6b 553e e5b0 5640
00000090: 8c5f 093f e4a2 cf3e b618 a23f 46c8 a03f
000000a0: abed 8b3e a9a3 ef3e 3040 ae3e 8e05 7d3e
000000b0: 1959 2b40 40ef 813f 4a2b 033f 8504 183f
000000c0: d7cc f63e c637 af3e b4e2 2d3f 5b5f 263f
000000d0: 9cd6 9f3e 0f3d b63e 0419 453f dc67 173f
000000e0: c64d 7a3f a2fd e23e 5c3c 483e 265f 313f
000000f0: fba9 793f 825b ff3e e598 e43e 458e e53e

lin.weight f4 [10, 64]
0.464022 -0.3015178 -0.27102607 0.1642181 0.49638283 -0.6330059 -1.0100052 1.0886086
1.3513665 -0.9227964 0.35504037 -0.44229382 0.7341162 0.06886227 1.1572616 -0.40899262
-0.4784476 0.91350853 -0.21713693 -0.15011951 0.39462098 -0.7874554 -1.2202418 -0.63979226
-0.46773154 0.5936891 0.18921517 0.36008564 0.44215524 -0.8912607 0.42392257 0.24963833
0.8034152 -1.0726211 -0.8904926 0.6373813 0.3184785 0.03939575 0.073883615 0.42958346
-0.3336207 0.34596387 -0.64777887 -0.8179834 0.4126261 0.86122024 -0.5015767 -0.80609274
0.60689473 -0.28435132 -1.7914823 -0.068743594 0.7567609 0.06613502 -0.36707157 1.3435752
0.50551176 0.077613994 -1.2297064 -0.8052848 1.0685365 -0.639533 0.9884783 0.9849905
-0.040641524 -0.8519652 -0.6254396 0.26667237 0.3820236 -0.828867 1.3374729 -0.2855183
-0.036325466 1.03329 -0.7759026 -0.9442746 -0.3963838 -0.31159008 -0.12807323 0.24375314
-0.47565866 -1.322061 -0.3965759 -0.35447064 -0.31017283 0.13914247 1.0834246 1.1302545
0.48476246 0.40473238 0.084470905 -0.56709194 -0.37691808 -0.72179836 -0.010094058 0.18875727
-0.7036956 1.3766805 1.3634169 -0.19249931 0.9584629 -0.088617764 0.89954317 0.71272326
-0.84761643 0.93842506 0.5089501 1.4194226 0.11112048 0.29947558 -0.2758942 0.121136755
-1.5180275 1.1193362 0.508231 -0.1920591 -0.4457831 -0.7945308 -0.10586412 -1.7626022
-1.5185642 -0.71822226 0.8421259 1.1302904 -1.1176503 0.74060196 -0.03937531 0.22809711
-1.119799 -0.46536002 1.7046663 -1.5257727 -0.87321424 0.2589484 -0.7101279 0.6454218
-0.9047654 0.042395804 -0.063746266 0.84325266 0.25687554 0.6602454 0.46642882 -1.0735781
1.7837387 0.11702544 -0.5116495 1.3502065 -1.0680733 -0.98527664 0.65706736 -0.41522017
-0.17474 1.022791 -1.1736133 -0.8635381 0.2618961 0.9262667 1.1450979 -0.32665488
-0.18195437 -0.5360094 0.39514798 -0.8699861 -2.034191 -2.3658898 -0.45035443 -0.5008071
-0.6891761 -1.12194 -0.9323529 0.09528459 -0.9083607 -0.66101116 -0.4307203 1.4101695
0.10206975 -0.6305622 -0.46837786 1.4820873 0.4057993 -0.3511242 1.2906667 0.1290263
-0.0746267 -1.4342847 0.3901898 0.32800144 -0.73389006 -0.45057058 -0.08644765 -0.7084075
0.6839552 0.7542457 0.096674725 0.50480145 0.11966869 1.0273803 -0.3275168 -1.5814338
-0.9626658 0.11516547 0.85965794 0.89805335 -1.248991 -0.53956175 -1.6320094 -0.259775
0.23682567 0.014567749 -0.34140745 -0.16529591 0.6137106 1.5423874 0.097528614 -0.017611105
-0.92726576 -1.6423085 0.87220395 -0.21596915 -0.99513966 1.3714546 -0.9346194 0.2821165
0.012346647 -0.0030978417 -0.6006824 0.22189784 -0.9606336 0.9743869 -0.7874526 -0.9269355
0.69091344 -1.3420087 1.3236899 -0.9529196 0.55163586 -0.88980633 1.2769357 0.5706618
0.7226097 -0.39157778 1.3861326 -0.04781949 -0.6073464 1.358566 -0.37300944 -0.047855135
0.32898447 1.1245645 0.65563685 -0.035060797 0.24012424 -0.5989588 -0.7579453 -1.3402547
00000000: 4b94 ed3e 8b60 9abe eec3 8abe ca28 283e
00000010: e425 fe3e ad0c 22bf da47 81bf 8757 8b3f
00000020: 94f9 ac3f 633c 6cbf dac7 b53e 5674 e2be
00000030: 0aef 3b3f a907 8d3d 2621 943f 7b67 d1be
00000040: 15f7 f4be b2db 693f 2559 5ebe eeb8 19be
00000050: c30b ca3e ad96 49bf e230 9cbf 6dc9 23bf
00000060: 827a efbe 02fc 173f 9fc1 413e 255d b83e
00000070: 2c62 e23e a929 64bf 610c d93e 31a1 7f3e
00000080: 9eac 4d3f a64b 89bf 53f7 63bf 6c2b 233f
00000090: 9d0f a33e 705d 213d 4b50 973d 5df2 db3e
000000a0: 55d0 aabe 2d22 b13e d6d4 25bf 5c67 51bf
000000b0: ba43 d33e ee78 5c3f 5567 00bf 185c 4ebf
000000c0: 745d 1b3f 7f96 91be 4b4f e5bf 71c9 8cbd
000000d0: 15bb 413f cc71 873d cef0 bbbe 46fa ab3f
000000e0: 3869 013f 16f4 9e3d 0567 9dbf 2527 4ebf
000000f0: cec5 883f 6fb8 23bf ea0c 7d3f 5628 7c3f
00000100: ba77 26bd 641a 5abf cf1c 20bf 4889 883e
00000110: 9998 c33e a130 54bf 5032 ab3f 742f 92be
00000120: 03ca 14bd d942 843f 8ea1 46bf fbbb 71bf
00000130: d1f2 cabe bc88 9fbe a125 03be 6c9a 793e
00000140: 8889 f3be 4b39 a9bf ff0b cbbe 2d7d b5be
00000150: f9ce 9ebe 5d7b 0e3e a8ad 8a3f 2eac 903f
00000160: c932 f83e 1539 cf3e 15ff ac3d f02c 11bf
00000170: 68fb c0be c7c7 38bf 8c61 25bc 9649 413e
00000180: 6525 34bf 1137 b03f 7284 ae3f 8a1e 45be
00000190: d35d 753f 3b7d b5bd 7648 663f 0875 363f
000001a0: 64fd 58bf a03c 703f 8e4a 023f a4af b53f
000001b0: 2293 e33d dd54 993e 0142 8dbe 8c16 f83d
000001c0: ba4e c2bf 6946 8f3f 6d1b 023f 24ab 44be
000001d0: af3d e4be 5f66 4bbf 4acf d8bd f39c e1bf
000001e0: 5060 c2bf 6add 37bf 9095 573f 5bad 903f
000001f0: 2a0f 8fbf 1798 3d3f 0148 21bd 4a92 693e
00000200: 9355 8fbf ab43 eebe 8132 da3f 854c c3bf
00000210: f88a 5fbf e294 843e f1ca 35bf 5d3a 253f
00000220: b59e 67bf 39a7 2d3d 678d 82bd 68df 573f
00000230: 3185 833e d805 293f c2cf ee3e 026b 89bf
00000240: 8d51 e43f 09ab ef3d 76fb 02bf 91d3 ac3f
00000250: a0b6 88bf 173b 7cbf 9135 283f bd97 d4be
00000260: 0bef 32be d1ea 823f f638 96bf d510 5dbf
00000270: 3f17 863e d01f 6d3f 9192 923f 4f3f a7be
00000280: 3f52 3abe e937 09bf d650 ca3e 69b7 5ebf
00000290: 2f30 02c0 bd6a 17c0 db94 e6be e534 00bf
000002a0: d86d 30bf bb9b 8fbf aeae 6ebf 9124 c33d
000002b0: 548a 68bf 0738 29bf 5f87 dcbe 6f80 b43f
000002c0: f209 d13d 866c 21bf 39cf efbe 09b5 bd3f
000002d0: edc4 cf3e 8dc6 b3be 9134 a53f 781f 043e
000002e0: e2d5 98bd a496 b7bf f5c6 c73e ceef a73e
000002f0: 38e0 3bbf 30b1 e6be 770b b1bd 325a 35bf
00000300: b017 2f3f 3f16 413f 66fd c53d ab3a 013f
00000310: dc14 f53d 3381 833f 48b0 a7be 6c6c cabf
00000320: 4471 76bf e0db eb3d 8b12 5c3f d3e6 653f
00000330: f0de 9fbf b820 0abf afe5 d0bf 3b01 85be
00000340: 6e82 723e 91ad 6e3c f5cc aebe 5543 29be
00000350: 231c 1d3f f36c c53f 15bd c73d 2a45 90bc
00000360: 4a61 6dbf 2a37 d2bf c248 5f3f 0427 5dbe
00000370: 79c1 7ebf d38b af3f 3843 6fbf 9371 903e
00000380: 9749 4a3c 2905 4bbb 52c6 19bf 3039 633e
00000390: 15ec 75bf 6b71 793f 7e96 49bf a54b 6dbf
000003a0: b4df 303f f1c6 abbf ac6e a93f 8af2 73bf
000003b0: 0238 0d3f 59ca 63bf a172 a33f e416 123f
000003c0: f3fc 383f e27c c8be cb6c b13f 5fde 43bd
000003d0: 0e7b 1bbf 7ee5 ad3f 18fb bebe bf03 44bd
000003e0: a770 a83e bbf1 8f3f d1d7 273f e99b 0fbd
000003f0: 21e3 753e 5d55 19bf b408 42bf 778d abbf

lin.bias f4 [10]
0.09925192 0.08787467 0.060947597 0.01196783 0.07291734 -1.1600163 -0.955619 -1.0102041
-1.0987086 -1.0684168
00000000: 9744 cb3d a3f7 b33d 30a4 793d b814 443c
00000010: b055 953d 6a7b 94bf 72a3 74bf 5e4e 81bf
00000020: 7ca2 8cbf e2c1 88bf
