NCC_Code/Models/2022-07-13_22-51-53_model.pt (torch, 115275 bytes, 50 tensors)

conv1.weight f4 [8, 2, 5, 5]
0	0xbe85728c	-0.26063955
1	0xbd4611cd	-0.04835682
2	0xbd12c5bc	-0.035833105
3	0xbe74b198	-0.23895872
4	0xbdc2c96d	-0.09511075
5	0x3e3c09f3	0.1836317
6	0x3ea5d297	0.3238723
7	0x3e60a730	0.21938777
8	0x3e34c821	0.17654468
9	0x3e1994e5	0.14998205
10	0xbeba4266	-0.36378783
11	0xbf1be7cd	-0.60900575
12	0xbeae5382	-0.34048086
13	0xbe97c359	-0.29641226
14	0xbe2b75a0	-0.16744089
15	0x3e8e42b8	0.27785277
16	0x3dd8d68e	0.10587798
17	0xbd8ea9c0	-0.06965971
18	0x3abba6f0	0.0014316719
19	0xbd4a25a3	-0.0493523
20	0x3e0ce3e0	0.13758802
21	0x3da01b57	0.07817715
22	0x3d032199	0.032014463
23	0x3c208f4b	0.009799789
24	0xbe2285f5	-0.15871413
25	0xbc3b951d	-0.011449126
26	0xbe8b81c9	-0.27247456
27	0xbe65ac23	-0.22428946
28	0x3dcefe25	0.10107068
29	0xbdb19b28	-0.08672172
30	0x3e843c5d	0.25827304
31	0x3ece8ef2	0.40343434
32	0x3ea5efd2	0.3240953
33	0x3e23d227	0.15998136
34	0x3e21a65a	0.15786114
35	0xbe9b4923	-0.30329236
36	0xbeae8f78	-0.34093833
37	0xbeeec835	-0.4663712
38	0xbe7c1e9e	-0.24621055
39	0xbe775b03	-0.24155812
40	0xbde4d305	-0.11173061
41	0x3debb8b6	0.1150984
42	0x3eeb5779	0.45965174
43	0x3dc3538a	0.09537418
44	0x3e7043e2	0.23463395
45	0x3c607ed0	0.013702109
46	0x3d930cd2	0.0718018
47	0x3da4d48d	0.08048353
48	0xbd3b361e	-0.045705907
49	0xbddd81da	-0.10815783
50	0xbd1bec13	-0.038066935
51	0xbebd6998	-0.36994624
52	0xbe515585	-0.2044278
53	0xbe5d1c63	-0.2159286
54	0xbe925a80	-0.2858467
55	0x3ecc4446	0.39895838
56	0x3ebfdea3	0.37474546
57	0x3c866bdc	0.016408853
58	0x3ddf8f8a	0.1091605
59	0x3ed959db	0.42451367
60	0xbb3a9593	-0.00284705
61	0xbe21ffc0	-0.15820217
62	0xbdfc1020	-0.12307763
63	0xbe065847	-0.13119613
64	0xbe0bceaf	-0.13653062
65	0x3e3fa3c0	0.1871481
66	0x3eb8bb93	0.36080608
67	0x3d8f1df2	0.069881335
68	0x3f0a986a	0.54138815
69	0x3e6311d0	0.22174764
70	0x3e909ed6	0.28246182
71	0xbe0e8091	-0.13916232
72	0xbe8db6ad	-0.27678433
73	0xbd44c4fd	-0.048039425
74	0xbe6d619b	-0.23181765
75	0xbdd8ce22	-0.10586192
76	0x3d363469	0.044483576
77	0xbd77f2ed	-0.060534406
78	0xbe37910a	-0.17926422
79	0xbe50b523	-0.20381598
80	0x3dfaf7b4	0.12254277
81	0x3eecb5bf	0.4623241
82	0x3dce43e2	0.10071541
83	0xbe9371db	-0.28797802
84	0xbd9b3174	-0.07577792
85	0x3e713c63	0.23558192
86	0xbd67503b	-0.056472998
87	0xbda3031b	-0.07959577
88	0xbdcb1d24	-0.099176675
89	0xbde6fed1	-0.11279071
90	0x3e43e03b	0.19128506
91	0x3e8a918f	0.27064177
92	0x3f13f482	0.57794964
93	0x3d9da1f9	0.076969095
94	0xbe12f8bd	-0.14352699
95	0xbd804313	-0.062627934
96	0xbe0a01e4	-0.13477284
97	0xbe1e99fa	-0.15488425
98	0xbecedee5	-0.4040443
99	0xbdd8361f	-0.10557198
100	0x3eb47378	0.35244346
101	0x3e2c31b0	0.1681583
102	0x3ebf1016	0.3731696
103	0x3e5648e0	0.20926237
104	0xbe565ef6	-0.20934662
105	0xbe7d0941	-0.24710561
106	0xbe356c36	-0.1771706
107	0xbd65e93a	-0.056130625
108	0xbe6103aa	-0.21974054
109	0xbeb68c08	-0.3565371
110	0x3e1bc9c5	0.15213688
111	0x3db822f3	0.08991041
112	0x3b919404	0.0044426937
113	0x3ebedd1a	0.37278062
114	0x3e9c4f8d	0.30529442
115	0xbc255e23	-0.010093245
116	0xbc7aa5c9	-0.015298315
117	0x3d04974d	0.032370854
118	0xbd80fab7	-0.0629782
119	0xbe979f70	-0.2961383
120	0xbe601483	-0.21882825
121	0xbdf657c9	-0.120284624
122	0xbe65cf87	-0.22442447
123	0x3dd0186f	0.1016091
124	0xbd8c9b5e	-0.068655714
125	0x3e8209b6	0.25398034
126	0x3eddf065	0.4334747
127	0x3eafaf59	0.34313467
128	0x3e920925	0.28522602
129	0x3e829a7f	0.25508496
130	0xbe95e032	-0.2927261
131	0xbdb17827	-0.08665495
132	0xbcb7c708	-0.022433773
133	0xbbe20613	-0.0068976968
134	0xbd1b6217	-0.037935343
135	0x3eea1ecd	0.45726624
136	0x3e2a7ddf	0.16649579
137	0x3e974c0a	0.295502
138	0x3de18940	0.110125065
139	0xbdcfaa70	-0.1013993
140	0xbe675c24	-0.22593743
141	0xbe48599b	-0.19565432
142	0x3df9892f	0.12184369
143	0xbe46616c	-0.19373101
144	0x3e4841e9	0.19556393
145	0x3e2f71ce	0.17133257
146	0x3bb33488	0.0054689087
147	0x3d6dbe47	0.05804279
148	0xbeb6a3aa	-0.3567174
149	0xbf09e42d	-0.53863794
150	0xbdbc5764	-0.09196356
151	0x3cab932d	0.020944202
152	0x3ea44633	0.32084808
153	0x3e279ae3	0.16367678
154	0x3d603f56	0.0547479
155	0x3e2c22a9	0.16810097
156	0x3deb753e	0.114969715
157	0x3e54f807	0.2079774
158	0x3e79701f	0.24359177
159	0x3cd87584	0.026423223
160	0xbe1a9b95	-0.15098412
161	0xbe87175c	-0.2638501
162	0xbeb8683c	-0.36017025
163	0xbed6c5d8	-0.41947818
164	0xbebdfc7f	-0.37106702
165	0x3e175f69	0.1478249
166	0x3e27e6d3	0.16396646
167	0x3db87010	0.09005749
168	0x3e821d9a	0.2541321
169	0x3e33e162	0.17566445
170	0xbd7ee686	-0.062231563
171	0x3e1b67db	0.15176336
172	0xbd4dcf28	-0.050246388
173	0xbdfea8ac	-0.12434515
174	0xbe1d03a5	-0.15333422
175	0x3d7053f7	0.058673825
176	0x3e769dff	0.24083708
177	0xbe0d439f	-0.13795327
178	0x3e44ea82	0.19230083
179	0x3ee98206	0.45607013
180	0x3c11d369	0.008900502
181	0x3de8c194	0.11365047
182	0x3dbcd96d	0.09221158
183	0x3e12f46b	0.1435105
184	0x3e97ddd0	0.29661417
185	0xbe594307	-0.21216975
186	0xbeb1f75e	-0.3475904
187	0xbe165023	-0.14679007
188	0xbe9069d5	-0.28205743
189	0xbe6e3507	-0.23262416
190	0x3e0ce3dd	0.13758798
191	0x3e412067	0.18860017
192	0x3dfb8e9f	0.12283062
193	0x3e2b3c3e	0.167222
194	0x3ec1f5d4	0.37882864
195	0xbd3d740e	-0.046253256
196	0xbe3cd1c5	-0.18439396
197	0x3d5633bd	0.052295435
198	0xbd1c515a	-0.03816352
199	0xbd7962f2	-0.060885377
200	0x3dc00918	0.093767345
201	0x3dd421e2	0.10358025
202	0x3e66a5e7	0.22524224
203	0x3e5848c9	0.21121515
204	0xbe2c3334	-0.16816407
205	0x3dc04ada	0.09389277
206	0x3dcaf5c1	0.09910155
207	0x3de4f273	0.11179056
208	0x3e80b515	0.25138155
209	0x3dca1b28	0.09868461
210	0x3e598032	0.21240309
211	0x3e208769	0.15676655
212	0x3e99fa0a	0.30073577
213	0x3df83945	0.12120298
214	0xbe7c6885	-0.24649246
215	0xbccda246	-0.025101792
216	0xbe919738	-0.28435683
217	0xbe8ef363	-0.27920064
218	0xbeecfb3a	-0.4628542
219	0xbe8a17d7	-0.26971313
220	0xbe2670d1	-0.16253974
221	0x3d9f51f0	0.077793
222	0x3d5230a2	0.05131591
223	0x3dc378b2	0.09544505
224	0xbd0ae26e	-0.033907346
225	0x3e879bf0	0.26486158
226	0x3dde3e39	0.10851712
227	0x3c87d62d	0.01658162
228	0x3e365986	0.17807588
229	0xbe973ab0	-0.29536963
230	0x3ea7d51a	0.3277977
231	0x3ea02905	0.31281295
232	0x3f13f93d	0.5780218
233	0x3e4a0ac8	0.19730675
234	0x3cc5d4ba	0.024149287
235	0x3e80efc7	0.25182936
236	0x3eb66303	0.35622415
237	0x3e352fcf	0.17694019
238	0x3debcd7b	0.11513802
239	0xbea3f44f	-0.3202233
240	0xbec607b0	-0.3867774
241	0xbecd067f	-0.4004402
242	0xbe1890a6	-0.14898929
243	0xbec7b777	-0.3900716
244	0xbe5d7e29	-0.21630158
245	0xbd8da30f	-0.069158666
246	0xbd2c515b	-0.042069774
247	0xbd8b9d55	-0.06817118
248	0xbe143dd1	-0.14476706
249	0xbde3e02c	-0.11126742
250	0x3d435530	0.047688663
251	0x3e9ee620	0.31034946
252	0xbe3db6be	-0.18526742
253	0xbcbcc662	-0.023043815
254	0xbe435886	-0.19076738
255	0xbde31075	-0.11087123

conv1.bias f4 [8]
0	0x3ef8eaa6	0.48616523
1	0xbbd77e11	-0.0065763076
2	0xbcc40a96	-0.023930829
3	0x3e67164f	0.22567104
4	0xbd58b34d	-0.05290537
5	0x3ee4fdd3	0.44724903
6	0x3bcd3e42	0.006263525
7	0xbe1d9f26	-0.15392742

bn1.weight f4 [8]
0	0x3f41f585	0.7576526
1	0x3f67b82b	0.90515393
2	0x3f802419	1.0011016
3	0x3f9a2c87	1.2044839
4	0x3f9c3bd6	1.220576
5	0x3f378d43	0.71699923
6	0x3f6f997d	0.9359358
7	0x3f61787d	0.88074476

bn1.bias f4 [8]
0	0x3e22bebc	0.15893072
1	0xbebccaca	-0.36873466
2	0x3d8d32ae	0.06894432
3	0xbc49355b	-0.012280787
4	0xbe377929	-0.17917313
5	0x3c61ad52	0.013774233
6	0xbdf26555	-0.11835734
7	0xbec3c69a	-0.38237458

bn1.running_mean f4 [8]
0	0x3f2c7d41	0.6737862
1	0x3eb39f3d	0.35082427
2	0x3f1cf64f	0.6131334
3	0x3f193abe	0.5985526
4	0x3f1460f3	0.5796043
5	0x3f8a763d	1.0817333
6	0x3ebcd506	0.36881274
7	0x3f75f9c7	0.96084255

bn1.running_var f4 [8]
0	0x3f00a9e4	0.5025923
1	0x3eff9b77	0.49923298
2	0x3f8ee39a	1.1163208
3	0x3f5441f7	0.82913154
4	0x3fb1729e	1.3863103
5	0x3fad911d	1.355991
6	0x3ee8f3bc	0.45498455
7	0x4032469a	2.7855592

conv2.weight f4 [16, 8, 3, 3]
0	0xbb4c7b3e	-0.0031201388
1	0xbe26cfab	-0.16290157
2	0x3d35a8dc	0.04435049
3	0xbe05dc6b	-0.13072364
4	0x3e672528	0.22572768
5	0xbc07e8dc	-0.008295264
6	0xbd26e4c5	-0.040745515
7	0xbe82d75f	-0.2555494
8	0xbdc1c40c	-0.09461221
9	0xbd5fb7e6	-0.05461874
10	0x3d68581b	0.05672465
11	0x3d742520	0.059605718
12	0xbce8e41f	-0.02842909
13	0xbe703036	-0.23455891
14	0xbe90f46f	-0.28311488
15	0xbe857f0f	-0.260735
16	0xbec4de8f	-0.3845105
17	0xbe6dcafd	-0.23221965
18	0xbd80bae1	-0.06285644
19	0x3e5a2863	0.21304469
20	0x3dea5dfc	0.11443707
21	0x3e8ef5f7	0.2792203
22	0x3e8fd966	0.2809555
23	0x3d9d8965	0.076922216
24	0x3c962c2d	0.018331612
25	0xbc36503b	-0.011127527
26	0x3e4595d0	0.1929543
27	0xbdd25ddb	-0.10271808
28	0x3d2db802	0.04241181
29	0xbe63e5a7	-0.22255574
30	0x3cefd000	0.029273987
31	0xbd80f607	-0.06296926
32	0x3d777b6f	0.06042045
33	0x3e1354cf	0.1438782
34	0xbe274c9c	-0.16337818
35	0xbe54b177	-0.20770822
36	0xbc508fd1	-0.012729601
37	0xbe801162	-0.25013262
38	0xbe0c4fff	-0.13702391
39	0x3e9a5703	0.3014451
40	0x3ec8214c	0.39087903
41	0x3edda85f	0.4329252
42	0xbeb0518f	-0.34437224
43	0xbe33b948	-0.17551148
44	0xbe6e55ea	-0.23274961
45	0xbead52e9	-0.33852318
46	0x3bf3c47d	0.0074391947
47	0x3d8ef078	0.069794595
48	0xbe5c8db9	-0.21538438
49	0x3e02856a	0.12746206
50	0x3eb00c64	0.34384453
51	0xbd295206	-0.04133799
52	0xbd2a724b	-0.041612905
53	0x3c20e11e	0.009819297
54	0x3d796963	0.06089152
55	0xbe9028f3	-0.28156242
56	0xbe801282	-0.2501412
57	0xbe8329ee	-0.25617927
58	0xbe177c4f	-0.14793514
59	0xbdcffcc8	-0.10155636
60	0xbc85f326	-0.016351294
61	0xbd87c60c	-0.06629571
62	0x3e44abf3	0.19206218
63	0xbdc4d36a	-0.096106365
64	0x3e1ca69b	0.1529793
65	0xbe97a2b6	-0.29616326
66	0xbd7edf81	-0.06222487
67	0x3df10b33	0.11769714
68	0xbdb70af2	-0.089376345
69	0xbd8f44d7	-0.06995552
70	0xbe57ef32	-0.2108734
71	0xbecfde2a	-0.40599185
72	0x3eba592c	0.36396158
73	0xbe5d4d91	-0.2161162
74	0x3dc67d28	0.096918404
75	0x3dc2958f	0.09501182
76	0x3d8fcc96	0.070214435
77	0x3dabe52e	0.08393322
78	0xbc6eff67	-0.01458726
79	0x3d52f746	0.05150535
80	0x3e7b5689	0.2454473
81	0x3e386b80	0.18009758
82	0x3e4aec7e	0.19816777
83	0x3dc0ebe1	0.0941999
84	0xbdc6a790	-0.09699929
85	0xbc42901d	-0.01187518
86	0x3e7e39c8	0.2482673
87	0x3e4f26e6	0.20229682
88	0x3e34ed23	0.17668585
89	0x3db00758	0.08595151
90	0x3d58803c	0.05285667
91	0xbb47d6c2	-0.0030492996
92	0x3e912983	0.28351983
93	0x3e818cbd	0.25302687
94	0xbb66a358	-0.0035192575
95	0x3e83c3e4	0.2573539
96	0xbd24f309	-0.04027084
97	0xbe8f22d2	-0.27956253
98	0xbe315816	-0.17318758
99	0x3cc2a900	0.023762226
100	0xbda7d208	-0.08194357
101	0x3dce4224	0.10071209
102	0x3eae1a11	0.34004262
103	0x3e1e5609	0.15462507
104	0x3eb80e65	0.35948482
105	0xbcac501d	-0.021034295
106	0x3dd36fc4	0.10324052
107	0xbb2273bc	-0.0024788221
108	0x3d8c72e5	0.06857852
109	0x3e743cfc	0.23851389
110	0x3e195921	0.14975406
111	0x3d203970	0.039117277
112	0x3e8c15c6	0.27360362
113	0x3de5f7b6	0.11228888
114	0xbee2c234	-0.4428879
115	0xbf079921	-0.5296803
116	0xbe6d132d	-0.23151846
117	0x3bf9072b	0.0075997314
118	0x3dc98c03	0.09841158
119	0xbea88252	-0.32911927
120	0xbdaebef9	-0.08532519
121	0xbd75921b	-0.05995379
122	0x3ec48a75	0.38386884
123	0xbebeb6bc	-0.3724879
124	0x3e3d6af7	0.18497835
125	0xbdf881c2	-0.12134124
126	0xbcaa4960	-0.020786941
127	0xbc84ba32	-0.016202066
128	0xbe0d3167	-0.13788377
129	0xbe324ced	-0.17412157
130	0xbeba6b98	-0.36410213
131	0xbe2e9cc0	-0.17051983
132	0x3e8da7a8	0.27666974
133	0xbd80f212	-0.06296171
134	0xbd86d659	-0.06583852
135	0x3e0fd81d	0.14047284
136	0x3d816401	0.06317902
137	0x3ce42dca	0.027853865
138	0x3e1c409a	0.15259019
139	0xbcb10f73	-0.021613812
140	0x3e91fd45	0.28513542
141	0xbde52854	-0.111893326
142	0xbe9c310b	-0.30506167
143	0xbc1030d6	-0.008800706
144	0xbe501a7d	-0.20322604
145	0xbe139fa0	-0.14416361
146	0xbeaa294b	-0.3323463
147	0xbd6bfbae	-0.057613067
148	0xbea98f32	-0.33117062
149	0x3e11cae8	0.14237559
150	0x3e23abd2	0.15983513
151	0xbd604580	-0.05475378
152	0x3e3b9ec1	0.18322279
153	0x3be6497e	0.007027804
154	0x3d86d01e	0.06582664
155	0x3d79986a	0.06093637
156	0xbbe84197	-0.007087897
157	0x3ddee4f4	0.10883513
158	0x3e3d8107	0.18506251
159	0x3e7a7baf	0.24461244
160	0xbc09db47	-0.008414096
161	0xbc760362	-0.015015455
162	0xbec69c7d	-0.38791266
163	0xbd46cb6a	-0.048533835
164	0x3e5ff2b3	0.21869926
165	0x3e544311	0.20728709
166	0x3ea69bc1	0.32540706
167	0x3e6a5ac2	0.22886184
168	0xbc9454b0	-0.018106788
169	0x3db4c84d	0.08827267
170	0xbdcea998	-0.10090941
171	0xbef57626	-0.47941703
172	0xbeba7006	-0.36413592
173	0xbed7a530	-0.42118216
174	0x3e9b88ae	0.30377716
175	0x3da31758	0.07963437
176	0xbdf0429e	-0.11731456
177	0x3e1b11e7	0.15143548
178	0xbd623757	-0.055228557
179	0xbead74a8	-0.33878064
180	0x3c05e829	0.008173027
181	0xbcbb8114	-0.022888698
182	0xbc9e19cc	-0.01929941
183	0x3e9a8de4	0.3018638
184	0x3eab0c36	0.33407754
185	0x3e58294d	0.21109505
186	0x3e9cf950	0.3065896
187	0x3df72c43	0.12068989
188	0xbdd9ea7d	-0.10640428
189	0xbe3d3699	-0.18477859
190	0x3e84c175	0.25928846
191	0x3e1493b6	0.14509472
192	0xbeac59d0	-0.33662271
193	0xbd9901b2	-0.074710265
194	0xb998b31a	-0.0002912514
195	0x3d9067cd	0.070510484
196	0xbdd86012	-0.10565199
197	0x3c181081	0.009281279
198	0xbd7573f1	-0.059925023
199	0x3ddfee16	0.10934083
200	0xbe296650	-0.16542935
201	0xbe8b1bb6	-0.2716958
202	0x3d600e18	0.05470094
203	0xbdb7b6bf	-0.08970403
204	0xbc8d603c	-0.017257802
205	0x3de786b3	0.11304989
206	0xbe7ddba8	-0.24790823
207	0xbe765a50	-0.24057889
208	0xbd1334ae	-0.03593891
209	0xbe202d2b	-0.1564223
210	0x3eb388a9	0.350652
211	0x3d6ad572	0.057332464
212	0x3e19e779	0.15029706
213	0x3ea425f3	0.32060203
214	0x3ea1499d	0.31501475
215	0xbe926fd3	-0.2860094
216	0x3db5169a	0.088422015
217	0x3d35e082	0.04440356
218	0x3ea9017c	0.33008945
219	0xbec00d25	-0.37510028
220	0x3dc637a0	0.096785784
221	0xbe672a4c	-0.22574729
222	0x3ddd3fd1	0.10803188
223	0x3e20694f	0.15665172
224	0xbc8e27fe	-0.017353054
225	0xbcc49b07	-0.023999704
226	0x3d0dbf49	0.034606252
227	0xbecba993	-0.39777812
228	0x3e1ec991	0.15506579
229	0x3e487023	0.19574027
230	0x3e624069	0.22094883
231	0x3df8d716	0.121503994
232	0x3e6e884a	0.23294178
233	0x3e50aad2	0.20377663
234	0xbee84d1a	-0.45371324
235	0xbeaf1c56	-0.34201306
236	0xbe9eb441	-0.30996898
237	0xbe3d9760	-0.18514776
238	0x3e0e2189	0.1387998
239	0x3e3afb37	0.18259893
240	0x3ca8c8f1	0.020603629
241	0x3d91d799	0.071212
242	0x3e48e333	0.1961792
243	0x3ddb740e	0.10715495
244	0xbaff9a7c	-0.0019500996
245	0xbe3da64f	-0.18520473
246	0xbebdede3	-0.37095556
247	0xbd693236	-0.05693265
248	0xbeada301	-0.33913425
249	0x3e7364ba	0.23768893
250	0x3e834830	0.25641012
251	0x3dd4ab75	0.10384265
252	0xbd3e8aaa	-0.04651896
253	0xbdd45df2	-0.10369481
254	0x3df18782	0.11793424
255	0x3c23559e	0.009969143

conv2.bias f4 [16]
0	0x3ede6e84	0.43443692
1	0xbe27d596	-0.1639007
2	0xbe572395	-0.21009667
3	0xbdd3cfee	-0.10342394
4	0x3dda1f45	0.106504954
5	0x3dc0f766	0.094221875
6	0xbc67ae9f	-0.014140754
7	0x3cfef22f	0.031121342
8	0xbe243788	-0.16036808
9	0xbe44b364	-0.19209057
10	0xbe1ba241	-0.15198614
11	0xbd6ad7c3	-0.057334673
12	0x3d0c6926	0.034279965
13	0x3e342f85	0.17596252
14	0x3b802c66	0.0039115427
15	0xbdd2e9b3	-0.10298481

bn2.weight f4 [16]
0	0x3f8194dd	1.0123554
1	0x3f71e953	0.9449665
2	0x3f99ebb4	1.2025056
3	0x3f8a9fff	1.0830077
4	0x3f53c99e	0.8272952
5	0x3f5fd13d	0.8742865
6	0x3f527527	0.8221001
7	0x3f43ca6d	0.7648075
8	0x3f932e7b	1.149856
9	0x3f6083ea	0.87701285
10	0x3f8479dd	1.034969
11	0x3f9e12ec	1.2349524
12	0x3f6127ba	0.8795124
13	0x3f85ceee	1.0453775
14	0x3f4815e8	0.78158426
15	0x3f64e07d	0.8940504

bn2.bias f4 [16]
0	0x3e471343	0.19440942
1	0xbe92a7ee	-0.28643745
2	0xbecff9d7	-0.406203
3	0xbe85fced	-0.2616953
4	0x3eaeaca4	0.3411609
5	0xbeb59f5c	-0.35473144
6	0xbd2b074b	-0.041755002
7	0x3d717c02	0.058956154
8	0xbe304beb	-0.1721646
9	0xbd1e06ae	-0.03858059
10	0x3d47cd7b	0.048779946
11	0xbe008e86	-0.12554368
12	0xbee85011	-0.45373586
13	0xbe2f2197	-0.17102657
14	0x3e54a4cf	0.20765994
15	0x3f0608eb	0.5235736

bn2.running_mean f4 [16]
0	0x3fda7109	1.7065746
1	0x3f335816	0.70056283
2	0x3e875ef5	0.26439634
3	0x3f169c5b	0.5883233
4	0x3f87e4ee	1.0616739
5	0x3e7bfab8	0.2460736
6	0x3eda3a8f	0.42622802
7	0x3f504222	0.8135091
8	0x3e84ebf9	0.25961283
9	0x3ebe97f7	0.37225315
10	0x3e5bb2a0	0.21454859
11	0x3f4270c5	0.7595332
12	0x3eff6e04	0.49888623
13	0x3fe864e3	1.8155788
14	0x3f169956	0.5882772
15	0x3f21d579	0.6321636

bn2.running_var f4 [16]
0	0x3fea5258	1.8306379
1	0x402d95b0	2.7122612
2	0x3f86cc5b	1.0531114
3	0x4007c577	2.1214273
4	0x3f604f0e	0.8762063
5	0x3edb9c6f	0.42892787
6	0x3f445437	0.76691
7	0x3f0cce2e	0.55002105
8	0x3f59e121	0.85109144
9	0x3f26c8ea	0.6515032
10	0x3f107f66	0.56444395
11	0x40328504	2.7893686
12	0x3f71cb06	0.94450414
13	0x400c49ce	2.1920047
14	0x3f23ef71	0.64037234
15	0x3fe4a84f	1.7863864

conv3.weight f4 [32, 16, 3, 3]
0	0x3e3b3b35	0.18284304
1	0x3cf86804	0.030323036
2	0x3d817b2b	0.063223206
3	0x3e196763	0.14980845
4	0xbde153f2	-0.110023394
5	0xbd5be994	-0.053689554
6	0xbe51913c	-0.20465559
7	0xbe73a669	-0.23793949
8	0xbc9ae5b4	-0.01890836
9	0x3c0a7d3c	0.00845271
10	0x3d9ca0d4	0.07647863
11	0x3cb0cfa9	0.021583395
12	0xbc2e67c4	-0.010644857
13	0xbd18e1e7	-0.037324812
14	0x3d0eac2e	0.034832172
15	0xbdabe657	-0.08393543
16	0x3e2f91f6	0.17145523
17	0x3ce3790a	0.027767677
18	0xbe9f01f9	-0.31056193
19	0xbecc0a22	-0.3985148
20	0xbe2fcc0b	-0.1716768
21	0x3e17d391	0.148268
22	0x3d8d3658	0.06895131
23	0x3c80ba58	0.015713856
24	0xbdf455a0	-0.11930394
25	0xbe79e9c7	-0.24405585
26	0x3dc322e2	0.09528138
27	0xbd91fada	-0.07127924
28	0x3e849c38	0.25900435
29	0x3c8d15f8	0.01722239
30	0x3da2c131	0.079470046
31	0x3dbf6d50	0.093470216
32	0xbcebc521	-0.028780522
33	0x3df2ad2c	0.11849436
34	0x3db94377	0.09046071
35	0x3e4b06d4	0.19826823
36	0xbdcc28e5	-0.099687375
37	0xbdc2196c	-0.09477505
38	0xbd1f94d5	-0.038960297
39	0x3e9c9632	0.3058334
40	0x3cbd0042	0.023071412
41	0xbde2d876	-0.11076443
42	0x3dc79150	0.09744513
43	0x3e381125	0.1797529
44	0x3d843048	0.064545214
45	0x3d53752a	0.05162541
46	0xbd24aaf4	-0.040202096
47	0xbd3ae312	-0.045626707
48	0xbda4dc6d	-0.080498554
49	0xbe61df44	-0.22057825
50	0xbde580d6	-0.11206214
51	0xbdded7e5	-0.10881022
52	0xbdb41667	-0.087933354
53	0xbdb4ead4	-0.088338524
54	0x3c8b2493	0.016985213
55	0x3dd78eb8	0.10525268
56	0x3e939e57	0.2883174
57	0xbd86e54b	-0.06586703
58	0xbe315d6a	-0.17320791
59	0xbcf61deb	-0.030043563
60	0x3d3fd7bf	0.04683661
61	0x3e640e24	0.22271019
62	0x3d9a1c9d	0.07524989
63	0x3d4626c0	0.0483768
64	0xbdd57ca1	-0.10424162
65	0x3bb20c26	0.005433577
66	0x3d831a97	0.06401556
67	0x3d13ddce	0.0361002
68	0x3dea77ae	0.11448608
69	0xbe067fbf	-0.13134669
70	0xbd4ae067	-0.049530413
71	0x3cb211c7	0.021736993
72	0xbeb9170e	-0.36150402
73	0xbeb389ce	-0.35066074
74	0xbe89a53f	-0.26883885
75	0x3dd430f4	0.103608996
76	0x3ea10872	0.31451756
77	0x3e8db250	0.27675104
78	0xbe85410b	-0.26026186
79	0xbea7a5c9	-0.32743672
80	0xbe3e1855	-0.1856397
81	0xbe151ad7	-0.1456102
82	0x3de0fa59	0.1098525
83	0x3de369bb	0.11104151
84	0xbe429062	-0.1900039
85	0x3c61118d	0.013737095
86	0xbd255875	-0.040367562
87	0xbdcf86c2	-0.10133125
88	0x3d3e6f70	0.046492994
89	0xbdc0504f	-0.09390318
90	0xbdc14b3c	-0.09438178
91	0xbaf4d8fc	-0.0018680389
92	0xbd9205ec	-0.07130036
93	0x3e00c93e	0.12576768
94	0xbd324f71	-0.043532792
95	0xbdb46e7e	-0.08810137
96	0xbedb4788	-0.42828012
97	0xbf09c4fc	-0.538162
98	0xbcd1e780	-0.025623083
99	0x3d524da2	0.051343568
100	0xbe117495	-0.14204629
101	0xbe575626	-0.21028957
102	0xbe54a59e	-0.20766303
103	0x3d995236	0.074863836
104	0xbdffc91f	-0.12489533
105	0x3e08f4c1	0.13374616
106	0x3de5fbd8	0.11229676
107	0x3de86f3a	0.1134934
108	0x3cfd1336	0.03089295
109	0xbdfa868e	-0.122326955
110	0xbe3724ca	-0.17885128
111	0x3e377348	0.1791507
112	0x3e2ad633	0.16683273
113	0x3b46301b	0.0030241075
114	0xbe298b59	-0.16557063
115	0xbd7a0157	-0.061036434
116	0x3d8fd9aa	0.07023938
117	0x3bc46c8f	0.0059943865
118	0xbe104533	-0.14088897
119	0xbdc586cc	-0.09644851
120	0xbd47c37a	-0.048770405
121	0x3d0c03ed	0.03418343
122	0x3d364ec7	0.04450872
123	0x3d8cbeba	0.06872316
124	0x3d1251fc	0.035722718
125	0xbe144585	-0.14479645
126	0xbdbf64e7	-0.093454175
127	0xbe2e2bec	-0.17008942
128	0xbe08103c	-0.13287443
129	0xbdee48c5	-0.116349734
130	0xbe14560b	-0.14485948
131	0xbd216923	-0.039406907
132	0x3d9f5c34	0.07781258
133	0x3e2e67af	0.1703174
134	0x3daf6e97	0.08566015
135	0xbd496d3d	-0.049176443
136	0xbecf61f9	-0.40504435
137	0xbebc1c0e	-0.36740154
138	0x3e1f8810	0.15579247
139	0x3e0fb976	0.14035591
140	0x3d663ae6	0.056208514
141	0xbd946df0	-0.072475314
142	0x3e6aa5ab	0.2291476
143	0x3d7aadbb	0.06120084
144	0x3e0ec158	0.13940942
145	0x3e391419	0.18074073
146	0x3d6374c1	0.055531267
147	0x3de0b9c0	0.10972929
148	0x3e6e090c	0.23245639
149	0x3e25af6b	0.16180198
150	0xbe0a816a	-0.1352593
151	0xbe7fa164	-0.2496391
152	0xbdf954e9	-0.121743985
153	0x3e3a8a6c	0.18216866
154	0xbc59eed4	-0.01330157
155	0x3e1669b9	0.14688767
156	0x3daabc62	0.083367124
157	0xbd8f46b5	-0.06995908
158	0xbd87b557	-0.06626385
159	0x3d34ff25	0.044188637
160	0x3e7a988d	0.24472256
161	0x3e4707e0	0.19436598
162	0xbd0de71d	-0.034644235
163	0x3dca5d88	0.09881121
164	0x3dff6346	0.12470107
165	0x3e96e50a	0.29471618
166	0x3df78b46	0.12087111
167	0xbea5c415	-0.3237616
168	0xbd8520d0	-0.06500399
169	0xbcb691c0	-0.022286296
170	0x3e038d7f	0.12846945
171	0x3e43379f	0.19064187
172	0x3d895acd	0.06706772
173	0x3e25a157	0.16174828
174	0xbb94c2d6	-0.004539828
175	0xbdfd25c0	-0.12360716
176	0x3d387122	0.045029767
177	0xbd92abe0	-0.07161689
178	0x3dce3559	0.10068769
179	0x3c10bd5d	0.00883421
180	0xbdca9a5e	-0.098927245
181	0x3e26a6ff	0.16274641
182	0x3dc20d24	0.094751626
183	0x3d9e65a4	0.0773423
184	0x3de09db0	0.109675765
185	0x3e5cd61c	0.21566051
186	0xbe00b166	-0.12567672
187	0xbd0570c2	-0.032578237
188	0xbd83f5f3	-0.064433955
189	0x3d074abd	0.03303026
190	0x3d7e04f4	0.062016442
191	0x3e4e69eb	0.20157592
192	0x3ea0a940	0.31379128
193	0x3e861014	0.26184142
194	0x3e01c9ec	0.12674683
195	0x3e09fbb8	0.1347493
196	0x3dabcc1a	0.08388539
197	0x3df435bb	0.11924311
198	0xbd687a14	-0.056757048
199	0x3d8c3c1e	0.06847404
200	0x3df6aebc	0.12045047
201	0x3d797bd6	0.060909115
202	0x3e346cf6	0.1761969
203	0x3d8c77bf	0.06858777
204	0x3d1594c7	0.03651884
205	0x3e099d71	0.13438965
206	0x3b60589e	0.0034232507
207	0xbde08ee2	-0.10964753
208	0xbd4f337d	-0.050586212
209	0x3a2615c8	0.0006335643
210	0xbe0f8ef8	-0.14019382
211	0xbd8a7138	-0.06759876
212	0xbe04a69f	-0.12954186
213	0x3c0867fe	0.008325575
214	0x3b2be568	0.0026229266
215	0xbdae1a3f	-0.085011
216	0x3db9dd05	0.09075359
217	0x3e8af140	0.27137184
218	0x3ea2ca1f	0.3179483
219	0xbec1732d	-0.37783185
220	0xbeba67c8	-0.36407304
221	0xbe6f8bd4	-0.23393184
222	0x3d8e2e37	0.069424085
223	0x3e11b21e	0.14228103
224	0x3ddf8cb6	0.1091551
225	0xbe9e30fe	-0.30896753
226	0xbe8886b0	-0.26665258
227	0xbdddd846	-0.108322665
228	0x3dd06bc7	0.10176807
229	0xbd3629d0	-0.04447347
230	0x3db1c941	0.08680964
231	0xbcf79916	-0.030224364
232	0xbdc077eb	-0.093978725
233	0x3dd01b5c	0.101614684
234	0x3c8db2ff	0.017297266
235	0x3cb43f4f	0.022002844
236	0xbd0fa4e2	-0.035069354
237	0xbe416580	-0.18886375
238	0xbe96fd82	-0.29490286
239	0xbe0b27de	-0.13589427
240	0xbc86f9ea	-0.01647659
241	0xbd9bfd41	-0.07616664
242	0xbe419cd8	-0.18907487
243	0x3e2a07b0	0.16604495
244	0x3d5cfcfe	0.05395221
245	0x3d5cc250	0.05389625
246	0x3eb200e9	0.3476632
247	0x3bf47a52	0.007460871
248	0xbcdc2609	-0.026873605
249	0x3d471f92	0.048614092
250	0xbd9e8059	-0.07739324
251	0xbd19fc09	-0.037593875
252	0xbdd1c173	-0.10241976
253	0xbe518796	-0.20461878
254	0xbe4f7f05	-0.20263298
255	0x3e65259a	0.22377625

conv3.bias f4 [32]
0	0xbe6706bb	-0.22561161
1	0xbe804b3c	-0.250574
2	0xbe7fc078	-0.24975765
3	0xbe16792c	-0.14694661
4	0xbe8c9ee9	-0.2746499
5	0xbd56e3a8	-0.052463204
6	0xbebdd248	-0.37074494
7	0xbec65e83	-0.38743982
8	0xbeb792bc	-0.35854137
9	0xbe6b6121	-0.2298627
10	0x3d67cdfe	0.056592934
11	0xbe44574b	-0.19173925
12	0xbe76ab35	-0.24088748
13	0xbe5246f4	-0.20534879
14	0x3bc36ca6	0.0059638796
15	0xbe449e32	-0.19200972
16	0xbe8f56f4	-0.27996027
17	0xbe844ad3	-0.25838336
18	0xbe159229	-0.14606537
19	0xbe613b24	-0.21995217
20	0xbe9f291b	-0.31086048
21	0xbde14a8e	-0.11000548
22	0x3b032add	0.0020014562
23	0xbe21a769	-0.15786518
24	0xbd9203be	-0.0712962
25	0xbed14122	-0.40870005
26	0xbe0b379f	-0.13595437
27	0xbed2b973	-0.41157112
28	0xbe36ac1c	-0.17839092
29	0xbe7c1306	-0.24616632
30	0xbe4f8826	-0.2026678
31	0xbe221ad6	-0.1583055

bn3.weight f4 [32]
0	0x3f614b64	0.8800566
1	0x3f80beaa	1.0058186
2	0x3f7e5cc5	0.99360305
3	0x3f74e801	0.9566651
4	0x3f5565d1	0.83358485
5	0x3f74d29d	0.9563387
6	0x3f834831	1.0256406
7	0x3f886b7a	1.0657799
8	0x3f7c68a6	0.9859718
9	0x3f7525f6	0.9576105
10	0x3f68782c	0.9080837
11	0x3f788daf	0.9709119
12	0x3f6a6a7e	0.91568744
13	0x3f870f06	1.055146
14	0x3f439f44	0.76414895
15	0x3f618237	0.8808932
16	0x3f827e70	1.0194836
17	0x3f856e65	1.0424315
18	0x3f4b0735	0.7930787
19	0x3f7e2a09	0.9928289
20	0x3f93e527	1.1554307
21	0x3f50a543	0.8150217
22	0x3f6b5ed2	0.9194156
23	0x3f8ba75b	1.0910448
24	0x3f9a3081	1.2046052
25	0x3f78fe8c	0.9726341
26	0x3f8b026c	1.0860114
27	0x3f89a6c7	1.0754021
28	0x3f79cd8f	0.9757928
29	0x3f80aabc	1.0052104
30	0x3f9daba4	1.2318006
31	0x3f6d9aaa	0.92814124

bn3.bias f4 [32]
0	0x3e6da02b	0.2320563
1	0x3ddd3430	0.108009696
2	0x3e632a2d	0.22184058
3	0x3d3d3367	0.0461916
4	0x3e5d8c0e	0.21635458
5	0xbcf018bc	-0.02930867
6	0xbdb17bf3	-0.086662196
7	0x3ee0a4b0	0.43875647
8	0xbd8849f6	-0.06654732
9	0xbdf4e400	-0.1195755
10	0xbe0d06d5	-0.13772137
11	0xbeb4981b	-0.35272297
12	0x3e9d3b1e	0.30709165
13	0x3cfed143	0.031105643
14	0x3f224f0d	0.6340187
15	0x3e659c36	0.22422871
16	0x3ee547bd	0.44781294
17	0xbe5d7b0a	-0.21628967
18	0x3e953ac6	0.29146403
19	0x3e78f914	0.24313766
20	0x3e879edc	0.26488388
21	0x3ecca921	0.39972785
22	0x3ebeedd2	0.37290817
23	0x3e9c611a	0.30542833
24	0x3db9644a	0.09052332
25	0x3e85778f	0.26067778
26	0xbdbe3cfb	-0.09288975
27	0x3d6408e2	0.055672534
28	0xbe3afabb	-0.18259709
29	0x3e3a4ca7	0.18193303
30	0x3e4ad5ce	0.19808123
31	0xbe0ea728	-0.13930953

bn3.running_mean f4 [32]
0	0x3f820e37	1.0160588
1	0x3eb2f483	0.34952173
2	0x3e98a037	0.29809734
3	0x3e3eb63e	0.18624207
4	0x3df86109	0.12127883
5	0x3ed644b2	0.41849285
6	0x3f0d641d	0.55230886
7	0x3ee77ceb	0.45212492
8	0x3e933079	0.2874792
9	0x3eb905de	0.3613729
10	0x3f4482f8	0.7676234
11	0x3ec18981	0.3780022
12	0x3edb0e9d	0.42784587
13	0x3e6d30d4	0.23163158
14	0x3f8af389	1.0855571
15	0x3ec04880	0.37555313
16	0x3e3e36f3	0.18575649
17	0x3e902027	0.2814953
18	0x3ecf43e6	0.4048149
19	0x3ed56fcf	0.41686866
20	0x3e5185be	0.20461175
21	0x3ead2818	0.33819652
22	0x3f26a355	0.65092975
23	0x3fb4a07b	1.4111475
24	0x3e67dcb1	0.22642781
25	0x3e0eb8bd	0.1393766
26	0x3e9cb11a	0.30603868
27	0x3e58486b	0.21121375
28	0x3e9109ab	0.2832769
29	0x3ea75269	0.3268006
30	0x3f85290e	1.0403154
31	0x3e39e4ab	0.18153636

bn3.running_var f4 [32]
0	0x3f803fa4	1.0019422
1	0x3f9a25a5	1.2042738
2	0x3f0257a4	0.5091498
3	0x3f37a1c3	0.71731204
4	0x3e9c255e	0.3049726
5	0x3f928478	1.1446676
6	0x3fec4a9f	1.8460273
7	0x3fa100da	1.2578385
8	0x3f4fbb67	0.8114533
9	0x3f56328a	0.83670866
10	0x3faaba77	1.3338155
11	0x3fa3708f	1.2768725
12	0x3f9451d9	1.1587478
13	0x3f5d48aa	0.86439
14	0x3fbb134e	1.4615266
15	0x3f7942ba	0.9736744
16	0x3f012ac6	0.5045589
17	0x3f8a1690	1.0788136
18	0x3f82dc8d	1.0223557
19	0x3f942195	1.1572748
20	0x3f30bed9	0.6904121
21	0x3f2eec77	0.68329567
22	0x3fa9b4df	1.3258322
23	0x3fb20602	1.3908083
24	0x3f3a6920	0.7281666
25	0x3ebaedaf	0.36509463
26	0x3f5beba3	0.8590643
27	0x3f2af59f	0.6678104
28	0x3f758c63	0.9591734
29	0x3f962978	1.1731405
30	0x409f273a	4.9735384
31	0x3ecd2642	0.4006825

conv4.weight f4 [64, 32, 3, 3]
0	0x3da4bc7c	0.08043763
1	0x3df2164c	0.11820659
2	0x3d9c7193	0.0763885
3	0x3df72c76	0.12069027
4	0x3d4ab633	0.049490165
5	0x3bb0281f	0.0053758766
6	0xbd6a48ee	-0.057198457
7	0x3d701b15	0.058619577
8	0xbce069ec	-0.027394257
9	0x3d9b957b	0.075968705
10	0xbc97ca0a	-0.018528957
11	0x3c1efdac	0.009704035
12	0x3eaa6e35	0.33287206
13	0x3dea3dc0	0.11437559
14	0xbc31f40f	-0.010861411
15	0x3bb1e624	0.005429046
16	0x3d2d8231	0.04236049
17	0x3dee8a0e	0.116474256
18	0xbe60a8ef	-0.21939443
19	0xbe4f7583	-0.20259671
20	0xbe183636	-0.1486443
21	0xbe25b257	-0.16181313
22	0x3abc60f7	0.001437216
23	0xbadf401e	-0.0017032658
24	0xbe3c10a7	-0.18365727
25	0xbe82a765	-0.25518337
26	0xbdf0fc15	-0.11766831
27	0xbee8700c	-0.45397985
28	0xbe2ac1ec	-0.16675538
29	0xbe97c707	-0.29644033
30	0x3e12fdfc	0.143547
31	0x3e145442	0.14485267
32	0x3e438b75	0.19096167
33	0xbde6fb0e	-0.11278354
34	0xbe20c34d	-0.15699501
35	0xbd729afc	-0.059229836
36	0xbe06daa9	-0.1316935
37	0xbd98ffb7	-0.07470649
38	0x3c494d8b	0.012286554
39	0xbd85a0f6	-0.065248415
40	0x3cd88387	0.026429905
41	0x3e1217b8	0.1426686
42	0xbd21336b	-0.039355677
43	0xbda3c833	-0.07997169
44	0xbd8e879f	-0.069594614
45	0xbd51cc14	-0.051220015
46	0x3dd8eec0	0.10592413
47	0x3e04db87	0.12974368
48	0x3d6aa493	0.057285856
49	0x3cc9ecbd	0.024649018
50	0xbd7623df	-0.060092803
51	0x3da1cb2f	0.07900082
52	0x3cd195d2	0.025584135
53	0xbdc5245b	-0.09626075
54	0x3e3d528b	0.18488519
55	0x3e18a8c5	0.1490813
56	0x3e059c2c	0.13047856
57	0x3e66522f	0.22492288
58	0x3c8b17a9	0.016979055
59	0xbc81db0c	-0.01585152
60	0x3dd1eec4	0.10250619
61	0x3e889cea	0.26682216
62	0x3e3a0fe8	0.1817013
63	0x3953d8a0	0.00020203227
64	0xbbec9b27	-0.007220644
65	0x3dcfe6f8	0.10151476
66	0x3d1dd15f	0.03852975
67	0x3d8960d7	0.06707924
68	0xbc1e8b4e	-0.0096767675
69	0xbe875c68	-0.26437688
70	0xbdee2b25	-0.11629323
71	0xbd27d0ad	-0.040970493
72	0xbd1d4a61	-0.03840101
73	0x3de291bb	0.11062952
74	0x3e8e50ac	0.27795923
75	0x3df4d8ec	0.11955437
76	0x3e87c39c	0.26516426
77	0x3d3dd14f	0.04634219
78	0xbd4d0e4c	-0.050062463
79	0x3dabf7b7	0.08396857
80	0xbc783854	-0.015150148
81	0xbdc35b59	-0.095389076
82	0xbe57beb1	-0.21068837
83	0x3b79abb8	0.0038096737
84	0x3d8e305f	0.0694282
85	0x3d301d90	0.042996943
86	0x3b67deec	0.0035380675
87	0xbb2c2d9d	-0.0026272305
88	0x3d91b097	0.0711376
89	0x3d3ecd06	0.046582244
90	0xbc2dbdb6	-0.010604313
91	0xbde1dc42	-0.11028339
92	0xbdda690d	-0.10664568
93	0x3cae766d	0.021296704
94	0xbaa8436a	-0.0012837474
95	0xbc023ee0	-0.007949561
96	0x3c1a3788	0.009412654
97	0x3d4c6620	0.04990208
98	0xbd287fc9	-0.04113749
99	0xbdfc8f53	-0.123320244
100	0xbdb22be7	-0.0869978
101	0x3e1a9452	0.15095642
102	0x3d12cb3f	0.03583836
103	0x3dec69bf	0.11543607
104	0xbe1603a0	-0.1464982
105	0x3e5a791a	0.21335259
106	0x3e86ccd1	0.26328138
107	0x3da1739b	0.07883378
108	0x3dc1907a	0.09451385
109	0x3d206d92	0.039166994
110	0x3e02222f	0.12708353
111	0xbe2dc155	-0.16968282
112	0xbec83536	-0.39103097
113	0xbe3e4597	-0.18581234
114	0xbd84e9cf	-0.06489908
115	0xbe4e0bf7	-0.20121752
116	0xbc5afdcb	-0.013366173
117	0xbe4704ed	-0.19435473
118	0xbdf6081b	-0.12013265
119	0xbdeca9bf	-0.11555814
120	0xbdd7e9ea	-0.105426624
121	0xbd42146e	-0.047382765
122	0xbdd6616b	-0.104678
123	0x3c84b875	0.016201237
124	0xbd3ead47	-0.04655197
125	0xbd2c222b	-0.042024773
126	0xbdabee0a	-0.08395012
127	0xbdd8feda	-0.10595484
128	0xbdd620de	-0.10455488
129	0xbd069969	-0.032861147
130	0x3c9df893	0.019283568
131	0xbda1e566	-0.079050824
132	0xbe0a02aa	-0.13477579
133	0xbe345d8f	-0.17613815
134	0xbd9c2aa1	-0.07625318
135	0xbc7b048c	-0.015320908
136	0xbdc19081	-0.0945139
137	0xbd19159e	-0.03737413
138	0x3b8aec7b	0.0042396164
139	0xbdbc4782	-0.091933265
140	0xbd3b9d3e	-0.045804255
141	0x3c24285f	0.010019391
142	0xbdd7c954	-0.10536447
143	0xbd011a2c	-0.0315191
144	0xbe81c802	-0.25347906
145	0xbdbb763e	-0.09153412
146	0xbc9b84b7	-0.018984182
147	0x3e011ec9	0.126094
148	0xbc011721	-0.0078790495
149	0x3d68b00b	0.056808513
150	0x3e152e58	0.1456846
151	0xbd639fcb	-0.055572312
152	0xbe2fdbd9	-0.17173709
153	0xbdfbcd9b	-0.122950755
154	0xbe14c544	-0.14528376
155	0xbe182912	-0.14859417
156	0x3e802ce4	0.2503425
157	0x3e85965a	0.26091272
158	0x3e03c589	0.12868322
159	0x3d60cfae	0.05488556
160	0x3cc143ed	0.02359196
161	0xbd0cf14a	-0.0344098
162	0xbd032241	-0.03201509
163	0xbe2a4db5	-0.16631205
164	0xbe22ea2d	-0.15909643
165	0xbd2eb45d	-0.042652477
166	0x3cb634d5	0.02224199
167	0x3db3ae9a	0.08773537
168	0xbeaf8b1e	-0.34285825
169	0xbd95074f	-0.07276785
170	0xbc3afafe	-0.01141238
171	0x3d79a1b3	0.060945224
172	0xbe198dd1	-0.14995505
173	0xbcfe50bc	-0.031044357
174	0xbd894884	-0.067032844
175	0x3de14ea7	0.1100133
176	0xbda89ece	-0.082334146
177	0xbd3d4908	-0.046212226
178	0xbe004d40	-0.12529469
179	0x3df48525	0.11939458
180	0x3debf583	0.11521437
181	0x3e32d455	0.1746381
182	0x3eb12da0	0.34605122
183	0x3de38d6c	0.111109585
184	0x3dda9257	0.10672443
185	0x3c8789b6	0.016545158
186	0x3b3f7b9c	0.0029217964
187	0x3e18dc98	0.149279
188	0xbdcb5e6e	-0.099301204
189	0xbd9f320a	-0.07773216
190	0xbe450283	-0.1923924
191	0xbd4cf68d	-0.050039817
192	0xbc18501c	-0.009296443
193	0xbd58d4e5	-0.052937407
194	0x3d43c75f	0.047797557
195	0xbc1dfa8a	-0.009642253
196	0x3d48e22e	0.049043827
197	0xbe0d9acd	-0.13828583
198	0xbe2f40c4	-0.1711455
199	0xbe882e38	-0.26597762
200	0xbe5f058f	-0.21779464
201	0x3e8c7da0	0.27439594
202	0xbb94fb2b	-0.004546543
203	0xbdc9db7b	-0.09856316
204	0xbd9c4c8a	-0.07631786
205	0xbd7a385c	-0.061088905
206	0xbe37eed4	-0.179622
207	0x3c0d72cf	0.0086333295
208	0xbde33afb	-0.11095234
209	0xbd8e2346	-0.069403216
210	0x3d3f1f83	0.04666091
211	0x3e1b8ed8	0.1519121
212	0xbcca9094	-0.024727143
213	0xbd1e1a36	-0.038599215
214	0xbd9368cb	-0.07197722
215	0x3b81ae00	0.00395751
216	0x3cc5ebd8	0.02416031
217	0x3c2628bd	0.010141549
218	0x3d5d6ce0	0.05405891
219	0xbdeaa286	-0.1145678
220	0x3d218c3a	0.03944037
221	0xbe282504	-0.1642037
222	0xbce4e438	-0.027940854
223	0xbd38f672	-0.045156904
224	0x3df6a838	0.12043804
225	0x3e67d063	0.22638087
226	0x3e289117	0.16461597
227	0x3d4b7404	0.049671188
228	0xbe161925	-0.1465803
229	0xbe5d3ab1	-0.2160442
230	0xbe1f63bb	-0.15565388
231	0x3d3618eb	0.044457357
232	0x3e12d7cd	0.14340134
233	0x3e2082e3	0.1567493
234	0xbd1f4e71	-0.038893167
235	0x3cc8bb97	0.024503512
236	0x3e1900f6	0.14941773
237	0x3d5659bf	0.052331682
238	0xbd862016	-0.06549089
239	0xbe58bf26	-0.21166667
240	0x3e8151ba	0.25257665
241	0x3e3f57e7	0.18685876
242	0x3e7a0888	0.24417317
243	0xbdf0c3ac	-0.117560714
244	0xbdaa39df	-0.08311819
245	0xbd750eea	-0.059828676
246	0x3e110d23	0.14165168
247	0x3e27a26a	0.1637055
248	0x3e3e40cb	0.18579404
249	0xbe5cc936	-0.21561131
250	0x3d8e3bcc	0.06944999
251	0xbd6bcdd8	-0.057569355
252	0x3db817cb	0.08988913
253	0xbd935008	-0.07192999
254	0xbdc45f42	-0.095884815
255	0x3d32de3d	0.043668974

conv4.bias f4 [64]
0	0xbebe189b	-0.37128147
1	0xbc8d5a40	-0.017254949
2	0xbeabf1bb	-0.33582863
3	0xbec32a07	-0.38118002
4	0xbe7b7364	-0.24555737
5	0xbe278873	-0.16360645
6	0xbf20baba	-0.6278492
7	0xbea28093	-0.3173872
8	0xbc97094b	-0.018437048
9	0xbc1146f7	-0.008867017
10	0xbe9969e0	-0.2996359
11	0xbed4da17	-0.4157264
12	0xbe6a1c64	-0.22862393
13	0xbf0fafa6	-0.56127393
14	0xbec2a126	-0.38013572
15	0xbe3a7619	-0.18209113
16	0xbecfc01d	-0.40576258
17	0xbe96c4f5	-0.2944714
18	0xbe3ea49a	-0.18617478
19	0xbe4b8d06	-0.19878015
20	0xbdc6dc8d	-0.097100355
21	0xbe287237	-0.1644982
22	0xbe14dd6d	-0.14537592
23	0xbe0f55b7	-0.13997541
24	0xbe62c992	-0.22147205
25	0xbe376af6	-0.17911896
26	0xbdc3abd4	-0.09554258
27	0xbec33f42	-0.381342
28	0xbe274428	-0.16334593
29	0xbdfe9c11	-0.12432111
30	0xbd5f3772	-0.054496236
31	0xbe8954e9	-0.26822594
32	0xbe90c708	-0.2827685
33	0xbe553773	-0.20821933
34	0xbc7a4cda	-0.015277112
35	0x3b5249af	0.0032087376
36	0xbd869515	-0.06571404
37	0xbe259a24	-0.16172081
38	0x3ccd8411	0.025087388
39	0xbe73a9a1	-0.23795177
40	0xbe999b89	-0.30001476
41	0xbdcd01ee	-0.10010134
42	0xbd62002c	-0.055175945
43	0xbceebdd9	-0.02914326
44	0xbeadecfa	-0.3396986
45	0x3dda2bf2	0.10652913
46	0xbd84127a	-0.064488366
47	0xbe10f876	-0.1415728
48	0xbe787932	-0.24264982
49	0x3e2d500b	0.16925065
50	0x3de3e60a	0.11127861
51	0xbd9cd72e	-0.0765823
52	0xbe26bd30	-0.16283107
53	0xbe4c9a66	-0.19980773
54	0xbe3c1ee9	-0.18371166
55	0xbebe3308	-0.3714831
56	0xbe98d5db	-0.2985066
57	0xbe42cf86	-0.19024476
58	0xbe4fc5fa	-0.20290366
59	0xbe745c2e	-0.23863289
60	0xbdea2040	-0.114319324
61	0xbd8de4f0	-0.06928432
62	0xbe3fdd40	-0.18736744
63	0xbe8944de	-0.26810354

bn4.weight f4 [64]
0	0x403c62cf	2.9435308
1	0x4008878b	2.133273
2	0x40261914	2.5952806
3	0x400dd09d	2.2158577
4	0x40148a8e	2.3209567
5	0x4019d920	2.4038773
6	0x40315bf1	2.7712367
7	0x4027895c	2.6177588
8	0x3fffaa82	1.997391
9	0x40030f3b	2.0478046
10	0x403bf506	2.93683
11	0x4016663b	2.3499897
12	0x4016b1c5	2.3546002
13	0x4018ab62	2.3854604
14	0x40349db7	2.8221262
15	0x4023d999	2.560156
16	0x402e7e12	2.7264447
17	0x401e8737	2.4770029
18	0x4018e490	2.3889503
19	0x402b7edd	2.6796181
20	0x400d9f5c	2.2128515
21	0x403199b9	2.7750075
22	0x4018a260	2.3849106
23	0x4012ef3d	2.295852
24	0x401076d6	2.2572532
25	0x403bb025	2.932626
26	0x40202760	2.5024033
27	0x4043b862	3.0581288
28	0x40137143	2.303788
29	0x403094e6	2.759088
30	0x40031cf7	2.0486429
31	0x401eab9b	2.479224
32	0x400ae84a	2.1704278
33	0x401713e9	2.3605902
34	0x403dc3b4	2.9650698
35	0x400879ed	2.1324418
36	0x4008259a	2.127295
37	0x400c60ab	2.1934001
38	0x401081c2	2.2579198
39	0x400bc698	2.1839962
40	0x401c2d00	2.4402466
41	0x3fe4e82b	1.7883352
42	0x4012cb0d	2.2936432
43	0x40044521	2.0667193
44	0x4026d2c4	2.606614
45	0x4004d8d5	2.0757344
46	0x4022f4e8	2.546198
47	0x4039fbc0	2.9059906
48	0x4009b52f	2.1516836
49	0x3fd9dc11	1.7020284
50	0x4003b0f6	2.0576758
51	0x400d209d	2.2051156
52	0x4038bd42	2.8865514
53	0x3ffecde0	1.9906578
54	0x403435ff	2.8157957
55	0x4032ec4d	2.7956727
56	0x4012c4ad	2.2932541
57	0x400a427a	2.1603074
58	0x40240887	2.5630205
59	0x4012f87b	2.296416
60	0x40546225	3.3184903
61	0x4013e9d6	2.3111472
62	0x403a2c5a	2.908957
63	0x4052ccfc	3.2937613

bn4.bias f4 [64]
0	0x3e93296b	0.28742537
1	0x3e43df98	0.19128263
2	0xbe19f6d3	-0.15035562
3	0xbeb53e9d	-0.35399333
4	0x3e50d1bc	0.20392507
5	0xbe9193dd	-0.28433123
6	0x3e27980d	0.16366597
7	0xbe8eafd0	-0.2786851
8	0x3e500ae7	0.20316659
9	0x3e4f15c5	0.20223148
10	0xbe50a1c4	-0.20374209
11	0x3e07ad00	0.13249588
12	0x3eb36577	0.3503835
13	0xbd123263	-0.035692584
14	0xbeb33de2	-0.3500815
15	0x3e7939a1	0.2433839
16	0x3e9dce28	0.30821347
17	0x3ea42fd9	0.32067755
18	0xbe47c2cf	-0.19507907
19	0xbe2f7597	-0.171347
20	0x3e71fd94	0.23631889
21	0xbe5f7e24	-0.21825463
22	0x3e92a979	0.28644922
23	0xbe8db869	-0.27679756
24	0xbe4b38a2	-0.19845822
25	0xbe641ce2	-0.22276643
26	0x3e5d312f	0.21600793
27	0x3ea28c32	0.31747586
28	0xbe563b5a	-0.20921078
29	0xbe7e2905	-0.24820335
30	0x3e37d7c5	0.17953403
31	0x3e5f1950	0.21787
32	0xbebbba1c	-0.36665428
33	0x3e528d5f	0.20561741
34	0x3eb978e2	0.3622504
35	0x3e571932	0.21005705
36	0xbe8f2351	-0.27956632
37	0xbe6abc9a	-0.22923508
38	0x3e6d0d3d	0.23149581
39	0x3e6ecb39	0.23319711
40	0x3e5384b4	0.20656091
41	0xbe8e62ed	-0.2780985
42	0xbe3e133f	-0.1856203
43	0xbe930a25	-0.28718677
44	0xbe313415	-0.17305024
45	0x3e85c4c8	0.26126695
46	0xbe5e2d5d	-0.21696992
47	0xbe317030	-0.17327952
48	0xbea5fcae	-0.32419342
49	0xbe955899	-0.29169157
50	0x3e72db7a	0.23716536
51	0x3e73f64f	0.23824428
52	0xbe15cc8b	-0.14628808
53	0xbe75922c	-0.23981541
54	0xbe2d7223	-0.16938071
55	0xbe362060	-0.17785788
56	0xbe98f880	-0.2987709
57	0x3e44052a	0.19142595
58	0x3e5f66a9	0.21816505
59	0x3e548c3a	0.20756617
60	0xbe593fb3	-0.21215706
61	0xbe94bffd	-0.29052725
62	0xbe327902	-0.17428973
63	0xbe79c2e4	-0.24390751

bn4.running_mean f4 [64]
0	0x3d602359	0.05472121
1	0x3ee6f697	0.45110008
2	0x3dfb954e	0.12284337
3	0x3deabadc	0.11461422
4	0x3e1d3545	0.15352352
5	0x3defa62b	0.11701616
6	0x3de705e2	0.11280419
7	0x3d497249	0.049181256
8	0x3f0e8e8a	0.5568625
9	0x3efc5811	0.4928594
10	0x3daa3478	0.08310789
11	0x3dc805d1	0.097667344
12	0x3e28b669	0.16475834
13	0x3d46b84c	0.048515603
14	0x3d935117	0.07193201
15	0x3e85148f	0.25992247
16	0x3e57f6b9	0.21090211
17	0x3eb28146	0.34864253
18	0x3e12e70e	0.14345953
19	0x3e43ca09	0.19120039
20	0x3eac73f7	0.33682224
21	0x3dd8b686	0.105816886
22	0x3de69e26	0.11260633
23	0x3e9c1e61	0.30491927
24	0x3da11eb6	0.07867186
25	0x3dcb9796	0.09941022
26	0x3e599368	0.21247637
27	0x3dc604f6	0.09668915
28	0x3e83cd36	0.257425
29	0x3de06644	0.109570056
30	0x3eb03fcc	0.34423673
31	0x3dca12e4	0.09866884
32	0x3ebcb89c	0.36859596
33	0x3dac66c6	0.0841804
34	0x3e0f6abb	0.14005558
35	0x3f03b225	0.514437
36	0x3e268ffc	0.16265863
37	0x3da6ce4e	0.08144818
38	0x3ea9c364	0.33156884
39	0x3eba5921	0.36396125
40	0x3dd5a811	0.10432447
41	0x3e04d619	0.12972297
42	0x3d6ba712	0.057532378
43	0x3f2a02ab	0.6641032
44	0x3dace4bd	0.08442066
45	0x3f27bc37	0.6552157
46	0x3daad6d0	0.083417535
47	0x3d76949c	0.06020032
48	0x3e5b9d57	0.21446739
49	0x3f919c3c	1.1375804
50	0x3ec9e061	0.39429
51	0x3db988ba	0.09059282
52	0x3d71d97c	0.0590453
53	0x3ec284bd	0.37991896
54	0x3da1c2ce	0.07898484
55	0x3dd34445	0.10315756
56	0x3dfb0c3f	0.12258195
57	0x3eae1830	0.3400283
58	0x3deeecd3	0.116662644
59	0x3e13f721	0.14449741
60	0x3dea0b48	0.11427933
61	0x3e5862f1	0.21131493
62	0x3dc605fc	0.0966911
63	0x3de08094	0.10962024

bn4.running_var f4 [64]
0	0x3e1fdc80	0.15611458
1	0x3fb66823	1.425053
2	0x3ea3137a	0.31850797
3	0x3eb892c0	0.3604946
4	0x3ebe30f5	0.37146726
5	0x3eaafad2	0.33394486
6	0x3eaec881	0.34137347
7	0x3dce5a3a	0.10075803
8	0x4001643b	2.0217426
9	0x3febb41e	1.8414342
10	0x3e89b8a1	0.26898673
11	0x3e670b5a	0.22562924
12	0x3f065902	0.52479565
13	0x3df6d28f	0.120518796
14	0x3e5a03e2	0.21290544
15	0x3f346c95	0.70478183
16	0x3f321465	0.6956237
17	0x3f2b3a63	0.66885966
18	0x3e6d1b33	0.23154907
19	0x3f058cc7	0.52167934
20	0x3f25af91	0.6472102
21	0x3eb8fe33	0.3613144
22	0x3ecad6b8	0.39616942
23	0x3f77957c	0.9671247
24	0x3e6cde6d	0.23131724
25	0x3e6ddfcb	0.23229901
26	0x3f109943	0.5648386
27	0x3eaaf26d	0.3338808
28	0x3f0b1776	0.54332674
29	0x3e5cd27e	0.21564671
30	0x3f0c5275	0.5481332
31	0x3e4a28ca	0.19742122
32	0x3f890766	1.0705383
33	0x3e0a91e7	0.1353222
34	0x3e7fc554	0.24977618
35	0x3fb10ba3	1.3831676
36	0x3e9515ef	0.29118297
37	0x3e31f944	0.17380244
38	0x3f6147e8	0.88000345
39	0x3f9e7083	1.2378086
40	0x3e87208d	0.26392022
41	0x3ea3274f	0.31865928
42	0x3ddcbe86	0.10778527
43	0x3f766d6e	0.96260726
44	0x3e74a326	0.23890361
45	0x3fa51ffb	1.2900385
46	0x3e27a3a9	0.16371025
47	0x3e0715a1	0.13191845
48	0x3ef8be0a	0.48582488
49	0x3f9d13c0	1.2271652
50	0x3f63725e	0.88846385
51	0x3e5c4ec9	0.21514429
52	0x3e56ebc4	0.20988375
53	0x3f991797	1.1960324
54	0x3e5fec1f	0.21867417
55	0x3e8ea0fc	0.27857196
56	0x3e1ba326	0.15198955
57	0x3f4828a4	0.7818701
58	0x3ec53131	0.38514093
59	0x3efcc0c5	0.4936582
60	0x3eaa3686	0.33244723
61	0x3f443c4e	0.7665452
62	0x3e40004c	0.18750113
63	0x3e438fc7	0.19097815

lin.weight f4 [10, 64]
0	0xbebd39f2	-0.3695827
1	0x3ee04eb7	0.43810055
2	0xbf2373ab	-0.6384837
3	0x3eeaf2f4	0.45888484
4	0x3ed49956	0.41523236
5	0xbe79a122	-0.24377874
6	0x3f9e9b1f	1.2391089
7	0xbe0a2c17	-0.13493381
8	0x3f0486a5	0.5176795
9	0x3ef68a81	0.48152545
10	0xbe6bcee4	-0.23028141
11	0x3f82a977	1.0207967
12	0xbf7c1c6b	-0.9848086
13	0x3f9bcf2f	1.2172602
14	0x3efcc835	0.49371496
15	0x3f026648	0.5093732
16	0x3ec49a3a	0.38398916
17	0xbe3a91cb	-0.18219678
18	0xbeefe2c7	-0.46852705
19	0xbf63cbb5	-0.8898271
20	0x3ed83458	0.42227435
21	0xbf1d9e20	-0.61569405
22	0xbe828fa6	-0.2550022
23	0x3e768ca4	0.24077088
24	0xbed6b908	-0.41938043
25	0xbf2a47e0	-0.6651592
26	0x3eebe4be	0.46072954
27	0xbf27d0ab	-0.6555278
28	0xbe8310bf	-0.25598714
29	0xbeecd43e	-0.46255678
30	0x3f00d54f	0.50325483
31	0x3f01800b	0.50586003
32	0x3e4d4e88	0.20049489
33	0x3f242d93	0.6413204
34	0xbf299dd1	-0.66256434
35	0x3e988bd2	0.29794174
36	0x3def3969	0.11680872
37	0xbe4ae6ba	-0.19814578
38	0x3ebd0d3c	0.3692416
39	0x3ec58bcb	0.38583216
40	0x3f55e880	0.8355789
41	0x3e0978df	0.13425015
42	0xbf4d8f47	-0.8029675
43	0x3dbce6af	0.09223687
44	0xbf671617	-0.9026808
45	0x3ea66d22	0.32505137
46	0xbeff348e	-0.49844784
47	0xbf7984e9	-0.9746843
48	0x3f0d63ea	0.5523058
49	0xbbb77b88	-0.005599443
50	0x3e83817a	0.2568472
51	0x3ed6bb64	0.41939843
52	0xbf79b987	-0.9754872
53	0x3f1dab94	0.6158993
54	0xbf5990c6	-0.8498653
55	0xbf4cfd28	-0.80073786
56	0xbd63977f	-0.0555644
57	0x3f035ff7	0.51318306
58	0x3edea814	0.43487608
59	0x3f489c80	0.783638
60	0xbf34ea88	-0.70670366
61	0xbea31a46	-0.31855983
62	0xbf73d4f9	-0.95246845
63	0xbddea0f8	-0.10870546
64	0x3f094819	0.5362564
65	0x3edd3a4d	0.43208542
66	0xbe99737c	-0.2997092
67	0xbf301a89	-0.6879049
68	0x3f3292af	0.6975507
69	0x3f6da471	0.9282904
70	0xbf20c2d9	-0.62797314
71	0xbf42511e	-0.75905025
72	0xbe24b658	-0.16085184
73	0x3ed74d7c	0.42051303
74	0xbf596fc4	-0.84936166
75	0xbe0f699b	-0.14005129
76	0x3f1cb672	0.6121589
77	0xbf17648c	-0.591378
78	0xbf4d02f9	-0.8008266
79	0x3f1756e1	0.5911694
80	0xbf47b8de	-0.7801646
81	0x3f0d9c1a	0.5531632
82	0xbee4c2f0	-0.44679976
83	0xbc88d5cf	-0.016703514
84	0x3e782071	0.24231125
85	0x3f23802e	0.6386746
86	0x3f3f4c41	0.7472573
87	0x3f0c34c3	0.5476801
88	0x3f866823	1.050053
89	0x3da7876b	0.08180126
90	0x3f4ec92e	0.80775726
91	0x3f819c3e	1.0125806
92	0xbf271e9c	-0.6528108
93	0x3e23be91	0.15990664
94	0x3d7394f4	0.059468225
95	0xbf245676	-0.6419443
96	0xbee74a02	-0.4517365
97	0xbf6a923f	-0.91629404
98	0x3f059c6b	0.521918
99	0xbd8c02fb	-0.06836506
100	0xbf05f6be	-0.52329624
101	0xbf096937	-0.5367617
102	0x3f10ce9b	0.56565255
103	0x3ed0b8fd	0.40766135
104	0xbeb35917	-0.35028908
105	0xbf13aecc	-0.57688594
106	0x3ed9e7ab	0.4255956
107	0xbf306685	-0.6890643
108	0x3eb95e1c	0.36204612
109	0x3e09a08e	0.13440153
110	0x3db1566e	0.08659063
111	0xbdedc6ff	-0.11610221
112	0xbe65fb8b	-0.22459237
113	0xbeb73984	-0.35786068
114	0x3e94c9d1	0.29060224
115	0xbf44780b	-0.7674567
116	0x3f46c389	0.7764211
117	0xbe91c0a9	-0.284673
118	0x3f96d6d3	1.1784309
119	0x3f5e7e3e	0.8691138
120	0xbd9dc2e9	-0.07703192
121	0xbf9ef944	-1.241982
122	0xbf61eb96	-0.882501
123	0xbf7de0fe	-0.99171436
124	0xbee4c3a7	-0.4468052
125	0xbb9eb6ad	-0.004843554
126	0x3f484832	0.7823516
127	0x3f143650	0.57895374
128	0xbf6be751	-0.92149836
129	0xbf31f52e	-0.6951474
130	0x3fa16501	1.2608949
131	0x3e4e2981	0.2013302
132	0xbe88c9b1	-0.26716378
133	0xbdfae940	-0.1225152
134	0x3f21d62d	0.6321743
135	0x3ecbfece	0.39842838
136	0xbfb39c29	-1.4032031
137	0xbf56c3ce	-0.83892524
138	0x3ee22228	0.44166684
139	0xbf2b3253	-0.66873664
140	0xbdf06f56	-0.11739986
141	0x3d04e885	0.03244831
142	0xbebb09ef	-0.36531016
143	0xbf37d813	-0.7181408
144	0x3f0c64e9	0.54841477
145	0x3f16dce0	0.5893078
146	0x3fafb763	1.372784
147	0xbea6647b	-0.32498536
148	0xbf2259a3	-0.63418025
149	0xbee1f916	-0.4413535
150	0xbf4308f6	-0.7618555
151	0xbeaae451	-0.33377317
152	0xbeb456b1	-0.3522239
153	0xbf3c0c34	-0.7345612
154	0xbf3d0e81	-0.73850256
155	0x3effff55	0.4999949
156	0xbeceacbe	-0.40366167
157	0xbdd81cea	-0.1055239
158	0xbee4884c	-0.44635236
159	0xbf87fbd1	-1.0623723
160	0xbe3339ab	-0.17502467
161	0x3ce89b8d	0.028394485
162	0xbfa76a76	-1.3079364
163	0xbfd3d97d	-1.6550747
164	0x3f7b3fd9	0.981443
165	0xbece1195	-0.4024779
166	0xbf699631	-0.912448
167	0xbf6e2794	-0.9302914
168	0xbf299c4f	-0.66254133
169	0x3f1e99a5	0.6195319
170	0xbe49626b	-0.1966645
171	0x3f74812c	0.955096
172	0x3f56f103	0.83961505
173	0xbeee9752	-0.46599823
174	0x3ed9e86f	0.42560145
175	0xbeda388a	-0.4262126
176	0xbebcb24f	-0.3685479
177	0x3f56e4ee	0.8394307
178	0xbf8498b2	-1.0359099
179	0xbe2d7f82	-0.16943172
180	0xbea671bd	-0.3250865
181	0xbecbfd13	-0.39841518
182	0xbec9f1d8	-0.39442325
183	0x3f111495	0.5667203
184	0x3fb3da73	1.405104
185	0xbde454d1	-0.1114899
186	0xbfdb0cc8	-1.7113276
187	0xbe15a7c6	-0.14614782
188	0xbf730cff	-0.94941705
189	0xbe322b0c	-0.17399234
190	0xbe7264ac	-0.23671216
191	0x3fb9e84d	1.4524018
192	0x3f5c2f17	0.86009353
193	0xbd972850	-0.07380736
194	0x3f44b6fe	0.76841724
195	0xbe4c858d	-0.1997282
196	0xbfa3191b	-1.2742037
197	0xbf03179a	-0.5120789
198	0xbf792e78	-0.9733653
199	0x3f5db058	0.86597204
200	0x3ea775e0	0.3270712
201	0xbdc4898f	-0.0959655
202	0x3fb3758e	1.402025
203	0xbf4bc499	-0.7959686
204	0x3ed177b1	0.4091163
205	0xbf1032b4	-0.56327367
206	0xbe59253b	-0.21205609
207	0xbfc433d8	-1.5328321
208	0x3f1eb235	0.6199067
209	0x3ddf716f	0.109103076
210	0x3eb93fca	0.3618148
211	0x3f7bc4bf	0.98347086
212	0xbdbf6ee5	-0.09347323
213	0x3f23bd5d	0.6396082
214	0x3e353a0e	0.17697927
215	0xbf0396a5	-0.5140174
216	0xbe4c84aa	-0.19972482
217	0xbe599d39	-0.21251382
218	0xbf80a10d	-1.0049149
219	0x3e17c3df	0.14820813
220	0x3f45dce2	0.77290165
221	0xbf3d0cd7	-0.7384772
222	0x3e312912	0.17300823
223	0x3f1042a8	0.5635171
224	0x3f15bddf	0.58492845
225	0x3f14f678	0.5818858
226	0x3f3a34b7	0.72736686
227	0x3f19ec2a	0.6012598
228	0xbeb90a2c	-0.36140573
229	0x3f883333	1.0640625
230	0xbe14b72c	-0.14523
231	0xbef04c66	-0.46933287
232	0xbf8476a7	-1.034871
233	0x3e248256	0.16065344
234	0x3f37efdd	0.7185038
235	0xbe67aa1e	-0.22623488
236	0x3eb69757	0.35662338
237	0x3eed9194	0.4640013
238	0xbf0475d3	-0.51742285
239	0x3fbc0739	1.4689704
240	0xbd352bbb	-0.044231158
241	0xbec50e0b	-0.38487276
242	0x3ec57d3e	0.38572115
243	0xbed6b72d	-0.41936627
244	0x3f62df81	0.8862229
245	0x3e7ed1ca	0.24884716
246	0xbe84dfc9	-0.25951985
247	0x3e093341	0.13398458
248	0xbeb341bb	-0.35011086
249	0x3f29d704	0.6634371
250	0x3f4071c6	0.75173604
251	0x3d121232	0.035661884
252	0x3faf5460	1.3697624
253	0xbf0bbf7c	-0.54589057
254	0xbdd5607b	-0.10418793
255	0xbf2975ad	-0.66195184

lin.bias f4 [10]
0	0x3c8e5822	0.01737601
1	0x3d054626	0.032537602
2	0x3dc12573	0.09430971
3	0x3e3d7e78	0.18505275
4	0xbd4ee09a	-0.050507165
5	0xbe4e5b64	-0.2015205
6	0xbe79f8ab	-0.24411266
7	0xbea5949b	-0.3233994
8	0xbe28bbfd	-0.16477962
9	0xbeaa3a25	-0.33247486
