NCC_Code/Models/2022-08-15_09-08-19_model.pt (torch, 114443 bytes, 50 tensors)

conv1.weight f4 [8, 2, 5, 5]
000000 dc 53 26 3d 57 3b 4e 3d ae a6 0b 3e ae ce d9 3d
       0.04060732 0.05034956 0.13637802 0.10635124
000010 1c fd bf 3c b0 af 18 be b5 b5 d7 be d5 3f 99 be
       0.023436122 -0.1491077 -0.4213082 -0.29931512
000020 3c 1a a3 be d9 f6 a4 be b2 91 b9 3c 23 be 59 3d
       -0.31855953 -0.3221958 0.02265248 0.053159844
000030 d2 a9 28 3e 78 1d 09 3e 33 d7 33 3e 67 a1 74 be
       0.16471031 0.13390148 0.1756256 -0.23889695
000040 ea e7 17 be 92 ee 98 bd 7c 14 b1 bd c4 70 59 bd
       -0.14834562 -0.07467379 -0.08646485 -0.053086057
000050 41 44 84 3e 19 ab 54 3e 31 16 88 3d 3e ed 89 3e
       0.25833324 0.20768394 0.06644858 0.26938814
000060 ca ee a9 bc 18 e0 24 3e 31 a2 a1 3e b7 ad d6 3d
       -0.020743746 0.1610111 0.31569055 0.10482352
000070 d3 e6 0b bd c1 72 17 be 77 bb ae be dd e0 a7 be
       -0.034155678 -0.14789869 -0.341274 -0.32788745
000080 9f ab 7b be 85 44 a4 be ce 63 1b be ad d1 f2 3d
       -0.24577187 -0.32083526 -0.15174791 0.11856399
000090 de 38 b4 3d 4d 7b bf 3d df 38 cf 3d 61 d0 2e be
       0.08799909 0.0934969 0.10118269 -0.17071678
0000a0 7f 96 5c 3c 88 79 0d bd 99 c9 51 be 5b 65 c5 be
       0.013463615 -0.03453973 -0.2048706 -0.3855389
0000b0 9c 25 75 be 0b 19 81 bd e3 3c a8 3d ac 0e 56 3e
       -0.23940128 -0.06303605 0.08214738 0.20904034
0000c0 ff bd c5 3e 89 82 dd 3e d2 da 60 3d 11 27 ae 3d
       0.38621518 0.43263653 0.054896183 0.08503545
0000d0 c0 91 5f 3e 3f 13 86 3c 8f 7c 7c be 15 9d 08 be
       0.21832943 0.0163666 -0.2465689 -0.13341172
0000e0 0a 34 27 be c7 3a 86 be 32 fa 64 be 74 d8 b7 bd
       -0.16328445 -0.2621672 -0.22361067 -0.08976832
0000f0 60 e9 c5 bd 2a 1f 48 bd 7e 18 87 bd 6a 75 a7 bd
       -0.096636534 -0.048857845 -0.065964684 -0.08176692
000100 6c c3 76 3d 8a 72 c5 bc 67 86 e3 3d 48 b1 85 3e
       0.060244963 -0.024102468 0.111096196 0.26111817
000110 39 16 21 bd c2 e6 84 be 9f ca bf 3e 3c c2 b5 3d
       -0.039327834 -0.25957304 0.37459275 0.08874938
000120 d1 47 81 3e 78 ae 1f 3d 6a e7 64 bd 75 37 ad 3e
       0.25250104 0.038984746 -0.055884756 0.33831373
000130 9b f9 cc 3e b6 ec 02 3f 3a ae 79 3e c6 b2 d1 bc
       0.40034184 0.5114244 0.24382868 -0.025597941
000140 71 12 89 be 62 6f 94 be bf 15 8f bb 2f 14 84 be
       -0.26771882 -0.28991228 -0.004366606 -0.2579665
000150 f3 c7 67 be c5 d0 36 3e 80 23 5c 3e ad 7d 6b 3e
       -0.22634868 0.17853077 0.21497917 0.2299716
000160 86 7c 09 be 43 15 c9 be a6 9c cb bd 38 87 b1 bd
       -0.13426408 -0.39274034 -0.09941988 -0.08668369
000170 40 ff 84 3d ad 02 3e bd ef 6b 03 be f8 6c a4 bc
       0.064939976 -0.04638927 -0.12834142 -0.020071492
000180 77 c1 f5 3e da 69 0c 3f eb 5c 72 bd f7 d0 b7 be
       0.47999164 0.54849017 -0.059170645 -0.35901615
000190 f1 df 06 be 46 a2 bf bc 7f cc f9 3c 6c 94 4c 3e
       -0.13171364 -0.023392808 0.03049302 0.19978493
0001a0 66 9e 89 3e 01 90 4c 3e 58 5b 63 3e ee a9 c5 3e
       0.2687866 0.19976808 0.22202814 0.3860621
0001b0 d5 ec e1 3e 13 c3 3d 3e f8 6c d7 bd a6 c9 52 bd
       0.44126 0.18531446 -0.10518831 -0.05146184
0001c0 a3 0f ae 3e fe d3 23 3e ba 0a e3 bc 53 fa c5 bd
       0.33996305 0.15998837 -0.027715076 -0.09666886
0001d0 8b c6 03 be b2 d7 28 bd e0 66 7e be 1e 35 ad 3e
       -0.12868707 -0.041221328 -0.24843931 0.33829588
0001e0 8e 0f 00 be 6e e2 7a be f8 f6 93 be f2 dd c5 be
       -0.12505934 -0.24500439 -0.2889936 -0.38645893
0001f0 4d 01 d0 be dc 50 0f be 4a 79 28 3c d0 24 1c 3e
       -0.40625992 -0.13995689 0.010282824 0.15248418
000200 54 7d 04 3e 72 17 f5 3d ff dd 82 3e 0b 9b 10 3f
       0.12938434 0.119673625 0.25559995 0.56486577
000210 80 30 00 3f d3 b0 20 3f fd 7f f0 3e b5 13 17 3d
       0.50074005 0.6276981 0.46972647 0.03688403
000220 24 85 81 be d5 d7 c4 be d5 8a 3f 3e 51 13 b5 3c
       -0.2529689 -0.38445917 0.18705304 0.022103937
000230 97 5f e2 3c c4 45 c4 3d 4c 51 bd bd d9 29 24 bd
       0.027633471 0.09583619 -0.09244022 -0.04007897
000240 f0 d4 d0 be 1e 5f 6f bc 0c 94 0b bd 35 28 0d be
       -0.40787458 -0.01461008 -0.034076735 -0.13784869
000250 d0 0e 4d be 47 b7 20 bd b2 74 d9 bd 98 03 09 be
       -0.20025182 -0.039237287 -0.10617961 -0.13380277
000260 b2 8b 3f 3e a5 86 59 3e 03 eb a7 3c 1a f2 1b 3e
       0.18705633 0.21242769 0.020497805 0.15229073
000270 0c 99 93 3e e7 34 d1 3e 80 5d d5 3d cc 57 af 3e
       0.28827703 0.40860674 0.10418224 0.3424667
000280 67 dc 73 be 4f 85 72 be 78 a0 55 be 22 fd 7c be
       -0.23814546 -0.23683666 -0.20861995 -0.24705938
000290 9b fe ff bd b5 9b 94 bd 42 a1 04 be f4 53 b8 be
       -0.12499734 -0.07256261 -0.1295214 -0.3600155
0002a0 cd 2f 4d be 53 a8 72 be 6c d7 ec 3e 7b ac 89 3e
       -0.20037766 -0.23697023 0.46258104 0.26889405
0002b0 9d 82 de 3e af e2 08 3e 7b 11 22 bd c5 6b 82 3e
       0.43459025 0.13367723 -0.039567452 0.25472847
0002c0 a1 05 5e 3d 2e 30 00 be 29 f5 44 3e 8e 5a da 3b
       0.054204587 -0.12518379 0.19234146 0.006663627
0002d0 02 50 29 be a7 32 86 3e 46 e1 31 3d 87 9f 84 3e
       -0.16534427 0.2621052 0.043427728 0.2590296
0002e0 0b 4a a2 3e 25 f9 cb 3d 98 a1 5c be b7 96 7e be
       0.31697115 0.0995963 -0.21546018 -0.2486218
0002f0 c9 dd 59 be b8 70 90 be cb fe 99 be 03 84 96 be
       -0.2127601 -0.28210998 -0.30077204 -0.29397592
000300 17 c6 65 3d f1 1b ad be fa 17 39 be ba 8c 6b 3e
       0.056097116 -0.3381038 -0.18075553 0.23002902
000310 aa 2a e9 3e 22 53 31 3e 85 9d a0 3e c8 18 1a 3e
       0.45540363 0.17316869 0.31370178 0.15048516
000320 07 7e 8e be db 8e ce be 37 80 80 bd b7 ef ba be
       -0.27830526 -0.40343365 -0.06274455 -0.36511013
000330 dc 7f 15 be 72 91 b8 3d d3 51 81 3e 25 cc cd 3e
       -0.14599556 0.090121165 0.2525774 0.40194812
000340 05 19 a5 3e d0 7b b1 3d 9f 86 10 be d6 49 0d bd
       0.3224565 0.086661935 -0.14113854 -0.034494244
000350 be d5 88 be 3c ae ee be eb d7 7f be 5f 94 2f 3e
       -0.26725572 -0.46617305 -0.2498471 0.17146443
000360 64 dd 4d be dc 16 83 be 23 3f 51 3d 57 2a 9d be
       -0.20103985 -0.25603378 0.051085602 -0.30696365
000370 2a 3d b1 3d 2e e6 3f 3d 3e dd 47 3e 87 5e 43 3c
       0.08654244 0.046850376 0.19517991 0.011924393
000380 38 4f 50 3d 1f 53 26 be d9 0a 85 3d 63 b9 88 be
       0.0508568 -0.16242646 0.0649621 -0.2670394
000390 d9 6a 1b be 2e 52 40 bd 07 4e 7d 3e 09 1c a5 bc
       -0.15177478 -0.046953373 0.24736796 -0.02015497
0003a0 1b 17 08 3d d5 91 a5 3e 7d 88 0f 3e ac ba 01 be
       0.03322516 0.32337824 0.1401691 -0.12668866
0003b0 de 14 57 be cd b8 43 be 32 d2 48 be e6 9d 6d be
       -0.21004054 -0.19113465 -0.19611433 -0.23204765
0003c0 8e 4c ab bd 8a 4e 40 3b 58 72 8a 3b 9f 97 7d be
       -0.08364211 0.0029343688 0.0042250566 -0.2476487
0003d0 d5 a2 a6 bd 1d 3e 0a 3e 69 d1 4b 3e 39 67 ce 3d
       -0.081365265 0.13500257 0.19904102 0.10078282
0003e0 58 e5 a4 3e 9f e0 24 3d f9 ba 15 be 81 cc 96 3e
       0.32206225 0.040253278 -0.14622106 0.294529
0003f0 64 f6 49 3d cc 2c e3 be 83 7e 4b be 0a d9 5b 3e
       0.049307242 -0.44370115 -0.19872479 0.21469513

conv1.bias f4 [8]
000000 55 ff 26 3f cb 36 11 bf 05 fa 2f be 65 b5 8e bd
       0.65233356 -0.5672423 -0.17185219 -0.06968192
000010 e4 93 11 3f 90 0d cd 3d 66 1b 2e be 99 75 13 bb
       0.5686629 0.100123525 -0.17002639 -0.0022500514

bn1.weight f4 [8]
000000 60 fe 58 3f 4f 77 6e 3f 05 07 90 3f 0c d2 60 3f
       0.84763145 0.931508 1.1252142 0.87820506
000010 2b 60 62 3f b2 88 84 3f 93 9a 56 3f 9f ce 97 3f
       0.8842799 1.0354216 0.8382961 1.1859931

bn1.bias f4 [8]
000000 dd b2 f5 3d f2 3b 4f be 64 84 32 be 69 31 88 3e
       0.11997006 -0.20237711 -0.17433316 0.26600197
000010 83 5f 77 3c c1 7b 32 be b9 f3 3d be e8 ff 8b be
       0.015098455 -0.17430021 -0.18550004 -0.27343678

bn1.running_mean f4 [8]
000000 31 f1 6d 3f 90 ec 64 3e b6 ed 50 3f a8 b0 da 3e
       0.92946154 0.22355866 0.8161272 0.42712903
000010 e5 5e 7d 3f 32 53 2a 3f 78 76 99 3e f9 81 af 3e
       0.9897292 0.66533196 0.29973197 0.3427885

bn1.running_var f4 [8]
000000 20 89 2b 3f a1 7a e0 3e 92 c2 25 40 e6 d2 11 3f
       0.6700611 0.43843558 2.5900006 0.5696243
000010 3d 17 9c 3f 72 cd d6 3f bb 61 0e 3f e3 30 b8 3e
       1.2194592 1.6781447 0.55617875 0.35974798

conv2.weight f4 [16, 8, 3, 3]
000000 7b 00 85 3e 5d f8 e2 3d 6b 59 a5 3e 43 6c 74 3e
       0.2597693 0.11082528 0.32294783 0.23869424
000010 99 c7 05 3e c2 c5 a0 bc 7c 57 a1 be 81 f8 7b be
       0.13064422 -0.019625548 -0.31512058 -0.24606515
000020 98 6c 92 3d 80 6a d3 bc a0 7b 09 bd 22 c9 ab bd
       0.07149619 -0.02580762 -0.033565164 -0.083879724
000030 56 4e 96 bd 27 8d 6f bd c1 07 5f 3d a8 37 81 3e
       -0.0733916 -0.058484223 0.054450754 0.25237775
000040 3f e0 6a 3e 52 73 da 3b 3b 89 79 3e 67 f9 da bd
       0.22937106 0.0066665793 0.24368756 -0.10692101
000050 7e 73 f6 3e e7 f4 b2 3e 63 f2 22 3f 85 9b 29 3f
       0.4813499 0.3495247 0.636511 0.6625293
000060 90 e0 a9 bd 21 33 21 bc 1c 1b ca bc eb c6 06 3c
       -0.08294785 -0.00983885 -0.02467113 0.008226137
000070 99 0b ce 3d 1e 3a 2b bd bf 3c 03 3c 49 82 38 3d
       0.10060806 -0.04180347 0.0080100885 0.045046125
000080 01 0f 2e bd be 09 4d bd 7b bf a6 be d2 2f 4e be
       -0.042494778 -0.05005812 -0.32567963 -0.2013543
000090 8e 89 50 bc 14 1f 25 3e 12 48 65 3e 6b 70 2a 3d
       -0.012728108 0.16125137 0.22390774 0.041611116
0000a0 77 67 e1 3e c3 c4 e4 3d 03 28 9c bd 1e ae 94 be
       0.4402425 0.11170342 -0.07624819 -0.2903909
0000b0 63 d5 5f 3d 99 8a 56 3e a8 d8 16 3e b0 02 4a 3e
       0.05464686 0.20951308 0.14731085 0.19727588
0000c0 08 15 6f 3e 40 0f 7b 3e 48 ab e1 3e 12 66 90 bc
       0.23347867 0.24517536 0.4407599 -0.017626796
0000d0 e3 b5 e4 3c a5 2a d2 bd 03 c3 28 3d 3a 61 36 be
       0.027918762 -0.1026204 0.041201603 -0.17810526
0000e0 92 dc 1c be 8c ac 01 be c1 a1 bc 3d a1 30 1e 3e
       -0.15318516 -0.12663478 0.092105396 0.15448238
0000f0 4d 9b a0 3e 9f 48 4c 3e d8 e3 10 bd 3e 5e 4e 3d
       0.31368485 0.19949578 -0.03537354 0.050382845
000100 80 91 4d 3d 87 13 44 3e 6a cf e3 bd 5f 60 75 bd
       0.050187588 0.19148074 -0.111235455 -0.05990636
000110 ae 02 10 3e 40 94 f9 3d bb e7 36 be 1c 64 6b be
       0.14063522 0.121864796 -0.17861836 -0.22987407
000120 9f cb e5 bd ef 22 bf bd 78 1a 41 bd 87 3d 96 3e
       -0.11220478 -0.09332835 -0.047144383 0.29343817
000130 46 ef 09 3e 5c b4 4b 3e 4d 63 23 3e 34 17 c5 3d
       0.13470182 0.1989302 0.15955849 0.09623566
000140 aa 38 98 3d 3d 06 77 be 55 a7 88 bd 35 ca 58 bb
       0.07432683 -0.24123473 -0.06672541 -0.003307951
000150 4b 54 c7 3e 13 0e ca 3e a3 b2 a8 3e 10 d5 93 3d
       0.38931498 0.39463863 0.3294879 0.07218373
000160 f5 21 63 3e 91 df ac 3d a4 3c 72 be 95 5f cf bd
       0.22180922 0.084410794 -0.23655945 -0.10125653
000170 5b 72 26 3e 82 0c 82 be 55 6e a2 be a3 36 b0 be
       0.1625456 -0.25400168 -0.31724802 -0.34416685
000180 05 e5 e2 bd 6a c6 2f be 34 21 67 3d 05 dc c6 be
       -0.11078838 -0.17165533 0.05642815 -0.38839737
000190 37 10 ab be d2 b5 c4 be ef d1 1b bd 15 1d 18 3e
       -0.33410808 -0.38419968 -0.038042005 0.14854844
0001a0 41 f4 16 3e 25 ab a8 3d 52 d2 39 be 5c 70 fa bd
       0.14741613 0.08235768 -0.18146637 -0.12228462
0001b0 d9 9b 97 3d b5 67 1b 3e 4d c0 b5 3d 5b ae 94 be
       0.074027725 0.1517628 0.08874569 -0.29039273
0001c0 be 64 17 3e 33 b3 c4 be 31 c8 25 be 4f 60 4d be
       0.14784524 -0.38417968 -0.16189648 -0.2005627
0001d0 29 51 61 3e 08 73 a1 3d 80 91 1c 3c f1 bf 89 be
       0.22003616 0.078832686 0.009556174 -0.26904252
0001e0 72 1a ac bd a4 1e 6c be 38 0f 7a bd f8 74 e2 be
       -0.084034815 -0.23058563 -0.06104967 -0.44229865
0001f0 bc 24 97 be ea 82 97 be 2e 8a 23 bd 71 73 cc bd
       -0.29520214 -0.29592067 -0.0399267 -0.09982956
000200 47 46 04 3e 1b a6 38 3e 0e 92 85 3e 86 ef 61 3c
       0.12917434 0.18032114 0.26087993 0.013790017
000210 22 26 af 3d ba 1b bf 3d 17 eb b6 3d ca 29 73 3e
       0.08552195 0.0933146 0.089315586 0.2374641
000220 d9 44 af 3e c7 58 cd 3e 7f 65 1a 3c df d4 44 bd
       0.34232214 0.40106794 0.009423613 -0.048054572
000230 c2 33 b2 bd a5 99 b6 3d 47 30 e3 bc 64 df 05 be
       -0.08701278 0.08916024 -0.027732981 -0.13073498
000240 17 c3 31 3d e0 e2 ab bb 49 db ab 3d 6a 96 3b 3e
       0.043398943 -0.0052455515 0.08391435 0.18319097
000250 1d 17 df bd 37 af 55 be 7f cf fd 3c 76 cf c3 bc
       -0.108930804 -0.2086762 0.03098273 -0.023902636
000260 af 93 a3 3d 4c ea 67 bd f7 05 da bd c2 78 8e 3c
       0.07987153 -0.056619927 -0.10645669 0.017391566
000270 5d 0c d8 3d 74 7f 6a 3e 96 55 78 3e 95 ea 57 3d
       0.10549233 0.22900182 0.24251398 0.05271395
000280 3f 01 6f 3e 3b 59 97 3d e7 d3 62 be 28 22 c8 be
       0.23340319 0.07390066 -0.22151147 -0.3908856
000290 fd ec 01 bf 8f b3 32 be c2 cb 9e be 27 95 44 be
       -0.5075224 -0.17451309 -0.3101483 -0.19197522
0002a0 21 4c 33 3e ef fb bc 3d 5d 0a 09 3e 51 da 00 3e
       0.1750951 0.0922774 0.1338286 0.12583281
0002b0 24 6b 40 3e c8 19 b0 3c d6 3c 01 be 74 65 8e bd
       0.18790871 0.021496668 -0.12620863 -0.069529444
0002c0 1e f6 fa bd 5d 40 ca bd 03 c9 1c be bd 36 25 3d
       -0.122539744 -0.098755576 -0.15311055 0.040335406
0002d0 da 50 5a 3e af f6 3b be 62 e1 b3 bd 24 93 8a 3e
       0.21319905 -0.18355821 -0.08783223 0.27065384
0002e0 a8 61 11 3e 70 97 24 be 06 65 01 bf df 9e d1 bd
       0.14197409 -0.16073394 -0.50544775 -0.102353804
0002f0 ef 2f a5 bd 51 0d b0 be b5 8e f3 be 68 05 1e be
       -0.08065783 -0.3438516 -0.47569814 -0.1543175
000300 13 fd cc bd 91 0e 1c bd 16 82 95 be ec 7a 10 3e
       -0.100092076 -0.03809983 -0.2920081 0.14109391
000310 0e f0 1d be 98 b2 ed bb cc 1b 6a 3e 59 ad 75 3e
       -0.15423605 -0.007253956 0.22862166 0.23991908
000320 a0 65 b9 3d 9b 23 1d be 06 1b b4 bd 22 25 03 3e
       0.090525866 -0.15345614 -0.08794217 0.12807134
000330 5e 51 0f 3e 75 85 be 3d ae 6d c1 bd 23 04 87 3e
       0.13995883 0.09302799 -0.09444748 0.26370344
000340 a5 fb c7 3e 93 29 b0 3e e7 7e 9a 3d 13 10 15 3e
       0.39059177 0.3440672 0.07543736 0.14556913
000350 e6 3b 52 3e 4b 05 29 3e c8 5f 92 3e 28 52 6f 3e
       0.20530662 0.16505925 0.285887 0.23371184
000360 47 2e 1b 3e 26 03 aa 3e 3e df 81 3e fd 9d c1 3b
       0.15154372 0.33205527 0.25365633 0.0059087262
000370 83 e2 8b 3d df 55 18 3c 6b bc d4 bc e0 57 21 be
       0.06830313 0.009297817 -0.025968751 -0.15756178
000380 c6 a2 98 be e0 90 32 bd 2e ae df bc 04 9d c8 bc
       -0.29811686 -0.043595195 -0.027304735 -0.024488933
000390 a2 a7 07 bd 5a b3 22 be 96 fa 57 3c d0 e3 cc bd
       -0.03311885 -0.1588873 0.013182303 -0.10004389
0003a0 27 32 2a be a4 2c 57 bd 59 8a c5 3d 43 24 88 3d
       -0.16620694 -0.052532807 0.09645528 0.066475414
0003b0 36 b2 3a 3e 1a c3 65 be e9 5d 83 bd 9e ec 10 3d
       0.18232045 -0.22437707 -0.06414396 0.035381906
0003c0 95 55 14 bd 3a 2f 51 bc a6 d6 27 be 44 69 8b be
       -0.03621443 -0.012767607 -0.16390476 -0.2722875
0003d0 05 ad 52 be b8 9f a0 be 84 14 b4 be e4 fd 7d be
       -0.20573814 -0.31371856 -0.35171902 -0.24803883
0003e0 8c 90 8f be 7c 33 81 3e e8 f2 b5 3d 64 f6 51 3d
       -0.28039968 0.25234592 0.08884221 0.051260367
0003f0 57 f4 9f 3e 2b d7 84 3e 47 2a 48 3e db dc 33 be
       0.31241104 0.2594541 0.19547378 -0.17564718

conv2.bias f4 [16]
000000 6b 35 07 bf 71 2f 83 be c2 4d bb 3c b6 b1 4a be
       -0.52815884 -0.25622132 0.022864226 -0.19794354
000010 c5 db 21 be f7 36 be be 2d 34 46 3e d0 77 f1 be
       -0.15806492 -0.3715131 0.19355841 -0.47161722
000020 96 0f 9c bd 8d 5e 45 be 15 a1 86 be e5 dc 3d be
       -0.0762016 -0.1927435 -0.2629477 -0.18541296
000030 ca 9d bf bc e4 26 99 bd 7c fd 9b bd 67 ff cb 3b
       -0.02339067 -0.07478121 -0.07616708 0.0062255147

bn2.weight f4 [16]
000000 51 13 83 3f 37 27 48 3f c4 5d 86 3f 4c f8 8f 3f
       1.024027 0.7818484 1.0497365 1.1247649
000010 29 9c 21 3f ca 30 86 3f f7 f2 22 3f 3e 3d 91 3f
       0.63128906 1.0483639 0.63651985 1.1346815
000020 f0 df 1d 3f e0 10 88 3f 10 47 8b 3f 13 5a 3d 3f
       0.61669827 1.063015 1.0881062 0.7396557
000030 09 e3 82 3f ab c9 a3 3f 8e e7 8e 3f a0 0d 70 3f
       1.0225536 1.2795919 1.1164415 0.9377079

bn2.bias f4 [16]
000000 90 f6 5a 3e 8e b5 69 3e 36 ec 86 be 39 d7 3a be
       0.21383119 0.22823164 -0.2635209 -0.18246163
000010 7c 69 f5 be 5f e9 c8 3c ca d2 e8 3d 2d 54 8c 3d
       -0.4793204 0.024525343 0.1136833 0.06851993
000020 86 db 41 be 13 35 49 3e ac d2 ab be c9 06 e4 bd
       -0.18931398 0.19649152 -0.33559167 -0.11134107
000030 47 12 98 bd 2b 9a a0 bd de 23 11 bf 34 08 a5 be
       -0.07425361 -0.07841905 -0.56695354 -0.3223282

bn2.running_mean f4 [16]
000000 42 b2 12 3f eb 04 00 3f 36 aa 23 3f f4 0e be 3e
       0.5730325 0.50007504 0.63931596 0.37120783
000010 60 0c a3 3f 23 a7 c8 3e ad 63 4f 3f 15 47 9a 3e
       1.2738152 0.39190015 0.8101147 0.30132356
000020 88 c8 b9 3f 17 44 08 3f cd 2a 18 3f bb 36 3f 3f
       1.4514322 0.53228897 0.5944031 0.7469289
000030 d6 c0 7d 3f 5b a0 9f 3e 45 f6 de 3e c2 b5 b4 3e
       0.9912237 0.3117703 0.43547264 0.3529492

bn2.running_var f4 [16]
000000 25 1f 60 40 d5 a5 4e 3f 13 6b e2 3f 50 f7 8a 3f
       3.501901 0.8072179 1.7688926 1.0856724
000010 3c 4e f0 40 5e a0 ba 3f d4 27 a5 3f 6b 01 c0 3f
       7.50955 1.458019 1.290278 1.5000433
000020 2d eb 98 3f 72 96 d8 3f 6e 6d 12 40 eb 2a 1d 40
       1.194677 1.6920912 2.287929 2.4557445
000030 89 7f c0 40 81 ad a3 3f 48 5f b6 3f a9 ad a2 3f
       6.0155683 1.2787324 1.4247828 1.2709247

conv3.weight f4 [32, 16, 3, 3]
000000 5a fb 19 3e 9e ef 18 bd 06 bb 9d 39 23 cd 91 3e
       0.1503729 -0.03733789 0.00030084717 0.2847682
000010 ae aa a5 3c a4 96 55 be 4d 8d fc bd d2 7d be 3d
       0.020222988 -0.20858246 -0.123316385 0.09301342
000020 bd 92 b9 bd 58 b1 3c be 89 f0 82 bd a0 90 c1 be
       -0.09061191 -0.18427026 -0.06393535 -0.37805653
000030 83 ff 28 be 18 f5 34 3d 55 d7 b2 bc a4 65 2e 3e
       -0.1650372 0.044179052 -0.021831194 0.1703096
000040 fc 22 02 3e d5 66 02 3e 84 04 8f 3e 0c 43 cb 3e
       0.12708658 0.1273454 0.27933133 0.3969959
000050 9b b5 26 bd 3b 4e 7f bc 49 e1 b7 3d a4 65 18 be
       -0.040700536 -0.015582616 0.089785166 -0.14882523
000060 7d e6 26 3e 9b 88 1f 3e 77 7b 5e 3e 14 a7 a4 3d
       0.16298862 0.15579455 0.21726786 0.0803968
000070 85 c1 00 3d 2a 98 7d 3d 98 e9 96 be 0f 8f dd be
       0.031434555 0.061912693 -0.29475093 -0.43273208
000080 4a 2d bd 3d ca 46 b9 bc 7f 92 b7 bd 8d c9 0e bd
       0.09237154 -0.022616763 -0.08963489 -0.034860183
000090 23 13 6a 3d ed 8b 5e 3a 9e 38 a4 ba b7 c2 3e 3e
       0.057147156 0.00084894785 -0.001252908 0.18628965
0000a0 ff bf 18 3e 03 68 c1 bd b0 d6 3f 3d bf 2d 4a 3e
       0.1491699 -0.09443667 0.0468356 0.19744013
0000b0 83 42 95 bd 80 0c b2 3e f2 a5 49 3e 8c 81 d0 3d
       -0.07288077 0.34775162 0.1969221 0.10180959
0000c0 b9 00 10 bd 6d 79 58 be bc 00 9e be 60 1b bf bd
       -0.03515694 -0.2114007 -0.30859935 -0.09331393
0000d0 11 91 37 be d8 a3 8b be d7 18 0d bd ab aa 3d 3c
       -0.17926432 -0.2727344 -0.034447517 0.011576335
0000e0 03 e6 fd bd f5 42 45 3e 59 59 b7 3d 44 3f 2c 3d
       -0.12397387 0.19263823 0.089525886 0.042052522
0000f0 d4 08 1c 3e 4a 43 10 3e 7c c7 0b be 86 80 04 3c
       0.15237743 0.14088169 -0.13650316 0.008087283
000100 2f b8 52 3c b3 e0 ad 3b 6a 47 02 3e 3b 76 c5 3d
       0.012861296 0.0053063272 0.12722555 0.09641691
000110 b6 85 b7 3d a7 34 01 bd c4 5e 0f bd c2 4e e1 3d
       0.0896105 -0.031544354 -0.035002485 0.1100135
000120 71 a2 c0 3d 77 be 8c bd 17 49 39 be af 26 01 bb
       0.09405983 -0.06872266 -0.18094288 -0.0019706895
000130 2d 04 22 3e 0c 76 8b 3e a6 43 65 3e 82 b9 6f 3e
       0.15821905 0.272385 0.22389087 0.2341061
000140 1a 56 4f 3e b0 e2 ee be 49 29 94 be a2 03 5a be
       0.20247689 -0.46657324 -0.28937748 -0.21290448
000150 45 8d e2 3d 38 cf b6 3d a5 dd f3 bd 6a 48 37 bd
       0.11062101 0.089262426 -0.1190751 -0.044746794
000160 a2 24 57 3c a8 82 f9 bd 2d b0 6b bd f8 c0 21 bc
       0.013131293 -0.12183124 -0.05754106 -0.0098726675
000170 99 2c a5 be ee 9f 2f bd 47 52 19 bc 9e d6 40 be
       -0.32260588 -0.04287713 -0.009357995 -0.1883187
000180 b0 99 fa bd 73 81 1a 3e 58 61 82 3e 6f da 8f be
       -0.12236345 0.15088443 0.25464892 -0.2809634
000190 3c 74 0e be 6e 51 8e bd 30 4a 34 3e b9 5c 74 3e
       -0.13911527 -0.06949125 0.17606425 0.23863496
0001a0 a5 c8 4e bc f0 cd 82 3d ad 82 c7 3e 69 95 79 3e
       -0.01262108 0.06386936 0.38966885 0.24373402
0001b0 37 67 80 be 39 e7 fe bd 8d 87 f2 bd b5 46 92 bc
       -0.25078747 -0.12446446 -0.118422605 -0.017855981
0001c0 7f 76 30 be 32 b4 5e be 7e 92 16 be 27 0a 7d bd
       -0.17232703 -0.21748427 -0.1470432 -0.06177726
0001d0 d9 cf d1 be 46 ac 1c be dc 3a d4 bc e3 7e ee 3c
       -0.40978888 -0.15300092 -0.025906973 0.029113239
0001e0 f2 11 9c 3e 2a 58 4e 3e e7 f7 46 bd f0 28 f1 3b
       0.3048244 0.2015082 -0.04857626 0.0073596165
0001f0 e2 3f 9e 3d 29 ea 41 3e 66 75 86 3d 41 b7 0c bd
       0.077270284 0.18936981 0.06565361 -0.034354452
000200 64 c1 2e be 6b 70 14 3e df c4 8b 3d b3 31 30 bc
       -0.1706596 0.14496009 0.068246596 -0.010754037
000210 86 40 58 3d 70 68 59 bd c0 28 62 be e3 43 83 bc
       0.05279591 -0.053078115 -0.22085857 -0.016023582
000220 a0 8f e6 3d 10 14 af 3e 8e a0 a1 3e 51 e9 12 3e
       0.11257863 0.34194994 0.31567806 0.14346816
000230 0d 3c 8d 3e 89 30 14 3d b6 1d 8a bd e3 3a 55 3d
       0.27584878 0.0361791 -0.06743948 0.052058112
000240 7d e0 c2 3b c2 bc 01 be 36 75 98 bd 4d 9b 88 3c
       0.0059471712 -0.12669662 -0.07444231 0.016675616
000250 1d 6a 36 3e ca 9a 21 3e f3 36 87 bd 95 92 0e 3e
       0.17813917 0.15781704 -0.066022776 0.13923104
000260 6b 3a 4c 3d fd cd 8e be 2f 52 a3 be 4f 42 9f bd
       0.0498604 -0.27891532 -0.3189864 -0.07776319
000270 c2 ed 3f 3c c8 e9 22 bc 0e 14 cd bd 36 88 df 3d
       0.011714401 -0.009943433 -0.10013591 0.10914652
000280 b8 08 5e 3d e8 eb 98 3d d1 33 08 3e 4b f2 9d 3d
       0.054207534 0.074668705 0.13301016 0.07712229
000290 07 9a b6 3e 9b 40 c7 bc 1e e1 62 3d 53 fe bd bd
       0.3566439 -0.024322798 0.05539047 -0.09277024
0002a0 64 e5 15 3d 3e 68 f4 3d 74 43 f8 3d 6b a7 cf 3b
       0.036595717 0.11933945 0.12122241 0.0063370964
0002b0 c8 35 21 be fa 05 10 bd e5 b5 11 be 51 33 c6 be
       -0.15743172 -0.03516195 -0.14229544 -0.38711026
0002c0 0c 2e 9b be 49 47 2b be 41 4b 04 be dd 09 c6 bd
       -0.30308568 -0.16726412 -0.12919332 -0.0966985
0002d0 fd a0 a8 bd a3 a4 89 3c cc 3c 3c bd b6 90 04 3d
       -0.08233831 0.016802138 -0.045956418 0.03236457
0002e0 8e 5e c0 3d 57 cf be 3d 88 ed 9b bb de 44 2a 3e
       0.09393035 0.09316891 -0.0047585405 0.16627833
0002f0 61 eb f9 bc a3 ad 38 be 77 f7 a0 3d ab 8d 18 bd
       -0.030507745 -0.18034987 0.078597 -0.03724448
000300 61 03 76 be a1 6c da be 66 24 ae be f9 73 94 3e
       -0.24024726 -0.42661002 -0.34012145 0.2899473
000310 6b 8e ce 3d 5c 66 14 bd 54 0f 6f 3d 2f db 2a be
       0.10085758 -0.03623043 0.058364227 -0.16685174
000320 69 06 ec bd a9 bc 17 3e f8 b5 e3 bc 94 ad c0 bd
       -0.1152466 0.14818062 -0.02779673 -0.094081074
000330 95 b0 d2 bd e8 35 1c be 1f ac b2 bd 85 44 a1 3b
       -0.102875866 -0.15254939 -0.08724236 0.0049214982
000340 df 84 84 3e 21 0a 37 3e 15 50 26 bd 8b 24 9b bd
       0.25882623 0.17874958 -0.040603716 -0.075753294
000350 d9 57 75 bd 5d 7f 69 be f4 56 76 be 4e 23 48 be
       -0.05989823 -0.22802491 -0.24056607 -0.19544718
000360 6b ed b3 bd 20 c9 f1 bb 8a e3 b6 bd 3c 50 d2 3d
       -0.08785518 -0.0073787123 -0.089301184 0.1026921
000370 d8 a6 ca 3d 3a b3 47 3d 8b a9 e3 3c 51 3a 1b 3e
       0.09895104 0.04875491 0.027790805 0.15158965
000380 ac 05 12 3e 1b ff b1 bd 3a 86 bf 3c 50 8c b4 bd
       0.14259976 -0.08691236 0.023379434 -0.08815825
000390 9d da 2f 3e fa 75 99 3e f2 7f 8c 3e d4 2c 1e 3e
       0.17173238 0.2997282 0.27441365 0.15446788
0003a0 fe bf 95 3e b1 78 44 3e 5d 15 46 3e 8b 77 ac 3e
       0.2924804 0.19186665 0.19344087 0.33684954
0003b0 91 a3 92 3e fc 59 67 be d5 44 d2 bd 97 11 b4 bb
       0.28640416 -0.2259292 -0.10267035 -0.005495261
0003c0 38 a5 59 bd e6 6a 8f be 9e d3 8c be 1a 91 64 3b
       -0.05313608 -0.28011245 -0.275052 0.0034876526
0003d0 6c d9 c2 bc 34 64 0e bd 80 ad 25 3d e4 79 f6 3d
       -0.023785315 -0.03476353 0.040448666 0.120349675
0003e0 52 60 eb bc 80 49 ea bd 82 5e 41 be d2 7a 12 be
       -0.028732453 -0.114398 -0.18883708 -0.14304665
0003f0 be 33 6b 3e 68 2b 28 3e 45 8d 34 3e 36 1d c7 3d
       0.22968957 0.16422808 0.17632015 0.097223684

conv3.bias f4 [32]
000000 ab f7 d2 be 72 0f 8e be 5a 1a 1a be f7 0e 9b be
       -0.4120458 -0.2774616 -0.15049115 -0.30284855
000010 36 d1 cd be c2 fc d8 be 1c 8f 88 be e5 b6 0a be
       -0.40198678 -0.4238034 -0.26671684 -0.13546331
000020 60 48 53 be 30 8a a9 be 1b f2 5b be f2 4b ac be
       -0.20633078 -0.3311324 -0.21479075 -0.33651692
000030 53 cb 8e be 55 6f 28 be d8 3a f9 be 90 d6 b2 be
       -0.278895 -0.1644872 -0.48677707 -0.34929323
000040 65 38 90 bd 1a 4f 97 be bf aa b1 bd cf b6 29 be
       -0.070420064 -0.29552537 -0.08675145 -0.16573642
000050 2e 06 d5 be 6c 7c cc be 3c 46 84 bd 4c 93 b7 be
       -0.41606277 -0.39938676 -0.06458709 -0.35854566
000060 64 25 16 bf 4d d3 8d bd 2e fc 97 be 3f 13 35 be
       -0.58650804 -0.06925068 -0.29684585 -0.17683123
000070 7b bc 87 3d 7e 54 c7 3d cf 14 fe bd dd e8 e3 3d
       0.06627747 0.097329125 -0.12406313 0.111283995

bn3.weight f4 [32]
000000 c8 c2 87 3f 7b 4f 88 3f 68 96 77 3f 54 4c 59 3f
       1.0606318 1.0649256 0.96713877 0.8488209
000010 37 d1 8e 3f e6 e2 86 3f 06 ca 8d 3f 60 49 68 3f
       1.1157597 1.0537994 1.1077278 0.9073696
000020 62 d4 74 3f 6d 4a 83 3f 41 6d 89 3f 98 1e 8b 3f
       0.9563657 1.0257088 1.0736467 1.0868711
000030 86 0c 83 3f 2c e6 8b 3f d3 d0 88 3f 91 b7 3c 3f
       1.0238197 1.0929618 1.0688728 0.737176
000040 f2 e1 8e 3f 74 17 54 3f 2b db 66 3f c7 53 77 3f
       1.1162703 0.82848287 0.90178174 0.9661221
000050 04 0b 6f 3f ca 5f 73 3f 11 19 72 3f 90 9f 82 3f
       0.93376184 0.9506804 0.945695 1.0204945
000060 d6 1d 71 3f 09 b8 67 3f 59 0e 91 3f 76 9b 68 3f
       0.9418615 0.9051519 1.1332504 0.90862215
000070 a0 ad 86 3f 5a 48 89 3f 30 4a 6d 3f 5e cc 64 3f
       1.0521736 1.0725205 0.92691326 0.8937434

bn3.bias f4 [32]
000000 6e d7 40 bd 48 3a ae 3e 28 0f 4d bc 31 b8 6b 3e
       -0.04708045 0.3402884 -0.012515821 0.23019482
000010 fd cc cf 3c d3 f5 39 3e 1c ec 9a 3e c7 10 e8 bd
       0.0253663 0.18160181 0.30258262 -0.11331325
000020 76 65 19 be fa 91 d1 3e 22 ca 05 3e 24 4b f9 3c
       -0.1498011 0.40931684 0.13065389 0.030431338
000030 8c b3 7d bd a1 4a 1c 3e 72 40 7e be 86 42 ee bd
       -0.061938807 0.15262844 -0.24829271 -0.11633782
000040 8e ea 0f 3e 11 75 84 be 25 2e ae 3e 7d ce 3d 3e
       0.1405432 -0.25870565 0.3401958 0.185358
000050 7e 23 88 3e b4 93 8f 3e 35 89 8f be 64 f9 62 3e
       0.26589578 0.28042376 -0.28034368 0.22165447
000060 02 5d 39 bc 21 f8 86 3e 75 68 0f 3f 01 90 78 be
       -0.011313679 0.26361182 0.56018764 -0.24273683
000070 8a 9f 8a 3e 58 44 d5 bb fa 2f eb 3d 51 cd 9e 3e
       0.27074844 -0.0065083914 0.1148376 0.3101602

bn3.running_mean f4 [32]
000000 2c b4 a7 3e 69 35 b6 3e e6 2d 31 3f c7 95 f6 3e
       0.32754648 0.35587624 0.6921066 0.48161146
000010 77 1b 2b 3e c7 f7 87 3e a0 df 99 3e 59 97 18 3f
       0.16709696 0.26556227 0.30053425 0.5960594
000020 02 b5 ca 3e b6 ee b0 3e b9 d0 88 3e 30 b3 02 3e
       0.39591223 0.34557122 0.26721743 0.12763667
000030 e9 69 99 3e e0 3b 75 3e c3 87 8a 3e 78 59 b5 3e
       0.29963616 0.23948622 0.27056703 0.35419822
000040 ec c0 c5 3e 53 a3 05 3f 70 a7 26 3e bc d5 75 3d
       0.3862375 0.5220234 0.1627481 0.060018286
000050 4e df 68 3e b4 4a e4 3e 25 f6 b9 3e 04 4c 2d 3f
       0.22741434 0.44588244 0.36320606 0.67694116
000060 88 5a 96 3e dd e1 63 3e 56 a5 c7 3e 14 f7 c3 3e
       0.29365945 0.22254129 0.3899333 0.38274443
000070 d3 a7 c7 3e 60 59 29 3f b6 4b 1d 3f 4d 17 a9 3f
       0.38995227 0.66152 0.6144365 1.3210236

bn3.running_var f4 [32]
000000 60 bf ed 3f 60 49 ae 3f ee eb 2c 40 0a c9 08 40
       1.8574028 1.3616142 2.7019 2.1372705
000010 6b 62 4b 3f 61 5a 94 3f 98 40 94 3f 6b d8 9f 3f
       0.7944705 1.1590081 1.1582212 1.248792
000020 0c c9 a3 3f 07 0c f3 3f 69 5d c6 3f 29 3a 25 3f
       1.279573 1.8988045 1.5497257 0.6454187
000030 40 36 88 3f 54 1b 80 3f 5d c3 97 3f d4 e9 6e 3f
       1.0641556 1.000834 1.1856495 0.93325543
000040 6c 59 cc 3f ac 09 f5 3f 7f f9 1c 3f 07 c6 3a 3e
       1.5964789 1.9143577 0.613182 0.18239604
000050 e9 8d 5a 3f 27 73 0d 40 99 77 a2 3f e4 7e 23 40
       0.8537279 2.2101533 1.2692748 2.5546198
000060 f4 88 a4 3f 03 9c 0e 3f a8 5d 0e 40 0c 76 d8 3f
       1.2854295 0.55706805 2.2244663 1.6911025
000070 ce 8c dd 3f 5d 25 42 40 2e c4 07 40 30 bc ff 3f
       1.7308595 3.0335305 2.1213489 1.9979305

conv4.weight f4 [64, 32, 3, 3]
000000 0c d7 ed bd c5 76 f5 3d f4 23 90 3b 1f 2a 4d be
       -0.116132826 0.11985544 0.004398817 -0.20035599
000010 42 9b c5 be b5 0d c7 be 0f 6a b9 bd d7 7d 78 bd
       -0.38595015 -0.38877645 -0.09053432 -0.060666885
000020 77 05 07 3e e0 d1 b2 bd f1 c4 1d bd a1 df ee bc
       0.13185678 -0.08731437 -0.038517896 -0.029159369
000030 f0 64 ed 3c b5 12 33 3e ec 9e 28 bc 49 4c ee bc
       0.028978795 0.17487605 -0.010291796 -0.02908911
000040 64 ed 91 3c 47 16 ae bc e6 3d 4f b9 22 6c d0 bd
       0.017813392 -0.021250857 -0.00019764117 -0.10176875
000050 71 e2 f9 bc 08 01 d2 3d e4 33 01 3e 87 22 11 3d
       -0.030503483 0.10254103 0.12617451 0.03543332
000060 82 c1 23 be ae d9 bc bd 11 85 84 3d 7f 73 83 3d
       -0.15991786 -0.092212066 0.06470693 0.064185135
000070 f4 a4 19 3e 57 dd 3f 3e 3a c6 a0 3d 26 3b 00 3e
       0.15004331 0.18736778 0.07850309 0.12522563
000080 e2 7e 98 bd 0e 6b 5e 3e 5b c7 7e 3e 89 f1 0c 3e
       -0.07446076 0.21720526 0.24880736 0.13764013
000090 69 c7 2c be 78 10 24 bd 98 fd e9 3d 97 42 d4 bc
       -0.16872944 -0.04005477 0.11425322 -0.025910659
0000a0 97 fb ca bd d2 b9 fa bd e7 85 6c 3e 94 c0 8b 3d
       -0.09911268 -0.12242474 0.23097955 0.06823841
0000b0 64 27 74 3e 6d 30 93 be 19 a2 cf be 95 a3 8f bd
       0.23843151 -0.28747883 -0.40553358 -0.07013623
0000c0 7d 97 2b be 0c f8 f0 bd 82 76 f3 3c 16 ef 0b bd
       -0.16757007 -0.11766061 0.029719595 -0.034163557
0000d0 e0 24 f0 bd 46 0d df bd 68 8c 4e be 65 27 6e be
       -0.11725783 -0.108912036 -0.20170748 -0.23257215
0000e0 22 ee 3b be f7 b3 00 be f3 90 8d be 48 d2 2f be
       -0.18352559 -0.12568651 -0.2764965 -0.1717006
0000f0 4b fd 2c be e3 c5 e8 bd e2 4f 3f 3d a2 cb dd bd
       -0.16893499 -0.11365869 0.04670704 -0.108298555
000100 68 67 68 be ec 3e 6e be 3e 5b 3f 3e 05 c1 30 3e
       -0.22695696 -0.2326619 0.1868715 0.17261131
000110 aa bb df bb 4f d4 f4 bd b8 0a 4d be 28 28 1b 3e
       -0.006827791 -0.11954557 -0.2002362 0.15152037
000120 fd 5c d2 3c 45 7f 73 3e c0 ee b9 bb 8d 55 ab bc
       0.025679106 0.23779018 -0.005674213 -0.020914817
000130 4c e8 a2 3b c7 fc 06 3e 38 6b 8b bc 50 bb 03 be
       0.0049715396 0.13182364 -0.0170189 -0.12864423
000140 d9 d0 93 bd b8 30 e2 bb 9b df 0c be 1d a8 2a be
       -0.07217569 -0.0069027804 -0.13757174 -0.16665693
000150 2d d3 30 bb 1f 3c 34 3e a2 90 76 3e d2 8c 02 be
       -0.002698134 0.1760106 0.2407861 -0.12749031
000160 b1 4d 18 be 23 b6 f1 bd ec 41 a1 be f4 f0 4f be
       -0.14873387 -0.11802318 -0.31495607 -0.2030676
000170 b5 5f 09 3e 85 f8 72 3c 73 59 2d be f6 51 e6 bd
       0.13415416 0.0148297595 -0.16928653 -0.112461016
000180 5a f8 8d be 2f 42 9b be 58 f0 63 be d5 21 24 be
       -0.2772854 -0.30323932 -0.22259653 -0.16028531
000190 ba a8 cb be 0f 68 82 be aa 45 20 bc 59 92 25 3d
       -0.39777166 -0.25470015 -0.009782234 0.04042277
0001a0 ae 3a c3 bd 5e 1f 39 be 5c 3f c2 bd 5a 09 f9 3c
       -0.09532677 -0.18078372 -0.09484741 0.030399967
0001b0 df 11 34 bd 7b 35 a4 bd a9 60 d7 bd dc 41 f0 bd
       -0.043962356 -0.08018013 -0.10516483 -0.11731312
0001c0 d2 b0 87 be 1b 03 2c be 48 aa 2b 3d 7b b0 c3 bd
       -0.2650209 -0.1679806 0.04191044 -0.09555145
0001d0 03 28 98 bd fe 59 4d 3d c0 ff 11 3e aa c9 7d 3d
       -0.07429507 0.05013465 0.14257717 0.0619599
0001e0 08 40 b5 bd 0a 3c f2 bd 98 84 ec bd 9a db e4 3c
       -0.088501036 -0.11827858 -0.11548728 0.027936745
0001f0 08 02 92 3d ca 06 85 bd c2 12 0e 3d 5d 77 00 be
       0.07129294 -0.064954355 0.034685858 -0.12545533
000200 07 b6 0c be 40 7e 7a 3e 12 ef 87 3e 07 9c 82 3e
       -0.13741313 0.24462223 0.26549584 0.25509664
000210 3d 0b 19 bd 9e 35 b4 3d af 26 b3 bd 2b 29 10 3d
       -0.037364233 0.08799289 -0.08747613 0.03519551
000220 3e c7 21 3d 11 78 83 bc 4a ff 1b 3e 01 d0 87 3d
       0.039496653 -0.016048463 0.15234104 0.066314705
000230 44 89 15 3e 65 17 89 be 31 7b 7c be ff 90 a8 bd
       0.14603144 -0.2677566 -0.24656369 -0.08230781
000240 49 dd 39 3e 2b cd 76 3c 6d ee 1b be e1 22 66 3c
       0.1815082 0.015063564 -0.15227671 0.014046402
000250 ea f9 a4 bd c3 9d df bd 8a 53 8c 3d c1 87 a2 bd
       -0.0805548 -0.109187625 0.06851871 -0.07936049
000260 5b 5c 50 be a7 cc 3c bd d5 ab 32 3d 08 24 6a bd
       -0.20347731 -0.04609361 0.043620903 -0.05716327
000270 cc d6 62 3b c8 bf e6 3d 61 00 1a 3d 2c a4 52 3e
       0.0034612892 0.11267048 0.037598018 0.20570439
000280 5c fe 4d 3e 19 55 58 3e 74 37 45 3e 2d 68 9f 3d
       0.20116562 0.21126212 0.19259435 0.07783542
000290 fb 5f 32 3c 81 f2 50 3d 71 71 c8 3d 85 a7 e6 bb
       0.010887141 0.05101252 0.09787262 -0.007039013
0002a0 0e 61 20 be 51 54 dd bd cb d4 1c bd ec f8 39 3e
       -0.15662023 -0.10807098 -0.038288873 0.18161362
0002b0 ee 51 ab 3d 3e e6 07 3e 34 64 cb 3d 50 15 fb 3d
       0.08365236 0.13271424 0.099312216 0.122599244
0002c0 c1 e4 c2 3d d3 1d 35 3e 65 d8 e1 3d a7 50 07 3e
       0.095162876 0.17687158 0.11027602 0.1321436
0002d0 30 26 de bc 09 b7 4f bc e3 09 95 bc 4a 8d aa bd
       -0.027117819 -0.012677916 -0.01819319 -0.0832773
0002e0 88 fa 82 be c9 43 91 be 1f bd bd 3d b1 ac c4 3d
       -0.25581765 -0.28372028 0.092645876 0.09603251
0002f0 a4 6b 17 3d 15 58 db bd 36 16 21 be fd 49 f1 bd
       0.03696789 -0.1071016 -0.15731129 -0.1178169
000300 e5 f4 61 3e 30 9f 98 3d db 20 91 3d 50 68 7d 3d
       0.22066076 0.074522376 0.07086345 0.06186706
000310 4e 5b af 3d cf d3 0a bd 52 e6 93 be a9 fd 62 bd
       0.08562337 -0.033893403 -0.28886658 -0.05541769
000320 ca 3e a1 3d 46 aa 96 3d d6 0e 94 3e 8b 88 ac 3e
       0.07873304 0.07356696 0.2891757 0.33697924
000330 9e c4 8a bd ba d6 06 3d 24 d8 ab 3d cf 9e c6 bc
       -0.06775783 0.032919623 0.08390835 -0.024245648
000340 e4 ea e3 3d be 70 37 3e 7b 6f ea 3d c1 b2 04 3e
       0.11128786 0.17914101 0.114470445 0.12958814
000350 7f 66 88 bd d8 51 a8 3a 96 65 80 3d 28 10 a9 bd
       -0.066601746 0.0012841774 0.06269376 -0.08255035
000360 a1 88 1c 3e 8f d9 26 3e 7e f8 33 3e 50 33 2d be
       0.15286495 0.1629393 0.17575261 -0.16914105
000370 ee c1 87 be 3c 8b ec bd 60 28 1d 3e 6d 42 c9 3d
       -0.26515144 -0.11549994 0.15347433 0.09827123
000380 0e 95 76 bd b7 79 1c be ee 38 4a bd 35 fe 33 bb
       -0.060200743 -0.15280806 -0.0493707 -0.0027464752
000390 15 96 e6 bc a7 bc 65 ba 60 94 c9 bd c2 fb 33 3e
       -0.028147737 -0.0008763768 -0.098427534 0.17576507
0003a0 bb ff 67 3e 4e a4 44 3e a2 b6 3c be 8a d2 44 be
       0.22656147 0.19203302 -0.18429044 -0.1922094
0003b0 a2 02 01 bf 73 fb 26 be 9b f5 8d 3c 72 c1 7c 3d
       -0.5039464 -0.16306858 0.017329028 0.06170792
0003c0 32 bc 8d be 8a 02 d6 be 8c d4 83 be 16 db 68 bd
       -0.27682644 -0.41798812 -0.25748098 -0.05684956
0003d0 76 57 9a bc c5 cd 25 bd 1e 43 05 be 50 99 5b be
       -0.018840533 -0.04047944 -0.13013884 -0.21445203
0003e0 cd e6 fa bd 27 60 93 bc d5 01 c3 bd a1 24 2f be
       -0.12251053 -0.017990185 -0.09521834 -0.17103817
0003f0 49 db 1d 3e 88 99 5f 3e ce 04 1f 3d ba ba e1 bd
       0.15415682 0.21835911 0.03882294 -0.110219434

conv4.bias f4 [64]
000000 4d 83 be be 8f 59 8d be 97 09 80 be 9e e4 a0 be
       -0.3720955 -0.2760739 -0.25007316 -0.3142442
000010 13 97 8b be 5f 31 c4 bd e2 ca 04 bd ac e3 3f be
       -0.27263698 -0.09579729 -0.032420047 -0.18739194
000020 77 0c 8b be 76 3d 83 be 7e 41 11 bb 05 51 5d be
       -0.27157947 -0.25632828 -0.002216428 -0.21612938
000030 e4 2e 86 3c e1 4d 06 bb 38 eb b9 be 2f b3 d9 bd
       0.016379781 -0.0020493197 -0.3631227 -0.1062988
000040 9e 18 7e bd de 16 78 be f0 44 a6 bc 85 30 5e be
       -0.062035196 -0.24227473 -0.020296544 -0.21698196
000050 36 9f a3 3e 3f c8 9d 39 14 93 82 be b0 2e ba bd
       0.31957406 0.00030094569 -0.25502837 -0.09090936
000060 c3 77 57 be dc b0 97 be 7d a9 9e bd e0 de 3f be
       -0.21041779 -0.2962712 -0.07747171 -0.18737364
000070 a5 8f d6 be a9 cf 5e be 87 ae a9 bd 9a d7 5e be
       -0.41906467 -0.21758904 -0.082852416 -0.21761933
000080 63 be 91 be 1c 11 f7 3c d4 8a 0e be 05 8c 97 be
       -0.28465566 0.030159526 -0.13920146 -0.29599014
000090 f1 9c 80 be dd f4 8a be c5 b3 a2 be 8f 80 32 be
       -0.25119737 -0.2713994 -0.31777778 -0.17431854
0000a0 72 ba 8b be 02 35 56 be 89 9c 04 3e a9 73 4f bd
       -0.27290684 -0.20918658 0.12950338 -0.05064741
0000b0 94 c2 2a 3e d8 a2 09 be 16 8a a4 be f7 67 c5 bd
       0.16675788 -0.13441026 -0.321366 -0.0963897
0000c0 05 00 a9 be ff af c4 be 3b 5c ab be 02 4c b7 be
       -0.33007827 -0.38415524 -0.33468804 -0.35800177
0000d0 06 cd 31 bd b7 08 4c be 42 fc bf 3c d4 a2 93 3d
       -0.043408416 -0.199252 0.023435716 0.072087914
0000e0 90 20 1b be 77 9a 4c bc fc 8f 7c be 01 53 f4 be
       -0.1514914 -0.012487999 -0.246643 -0.47719577
0000f0 25 5d 41 be 18 31 2d be 99 46 58 be bd c0 8c bb
       -0.18883188 -0.16913259 -0.21120681 -0.004295437

bn4.weight f4 [64]
000000 72 74 5c 40 9f d9 4f 40 79 96 48 40 bd 48 79 40
       3.4446073 3.2476575 3.1341841 3.8950646
000010 5a 87 5f 40 64 98 55 40 b3 45 3b 40 d1 70 6b 40
       3.4926362 3.3374262 2.926129 3.6787608
000020 b2 33 28 40 10 f4 55 40 3d 95 3b 40 3a 8a 66 40
       2.6281552 3.3430214 2.9309838 3.6021867
000030 6c 4c 30 40 5a ce 21 40 9e 61 2a 40 77 86 51 40
       2.7546644 2.5282197 2.662208 3.273832
000040 5e 20 70 40 47 33 60 40 e5 35 56 40 a2 9d 55 40
       3.7519755 3.5031297 3.3470395 3.3377461
000050 08 a3 36 40 0f a4 3a 40 7b e3 55 40 dc 10 4f 40
       2.8537006 2.9162633 3.3420093 3.235404
000060 3b 34 38 40 ea a2 55 40 98 c9 5a 40 0f da 58 40
       2.878188 3.3380685 3.4185543 3.3883092
000070 82 17 65 40 e9 db 41 40 fd d1 3f 40 fb 19 74 40
       3.5795598 3.0290473 2.9971917 3.8140857
000080 62 ee 6f 40 98 d4 2d 40 b8 3d 3f 40 96 a3 5d 40
       3.7489247 2.7161007 2.988142 3.4631095
000090 bc 05 52 40 4d 2b 62 40 b7 56 67 40 28 60 4b 40
       3.2816 3.5338929 3.6146677 3.177744
0000a0 e8 c3 59 40 32 9d 3b 40 83 a6 6a 40 46 69 58 40
       3.4025822 2.9314694 3.666413 3.3814254
0000b0 97 62 16 40 32 c1 66 40 66 43 51 40 1b f7 53 40
       2.3497674 3.6055417 3.2697387 3.3119571
0000c0 ff e4 6c 40 67 7f 7e 40 3e 9d 57 40 00 70 5f 40
       3.7014768 3.976526 3.3689723 3.491211
0000d0 8c 1b 4a 40 8d 77 74 40 22 70 53 40 fb a7 3b 40
       3.1579313 3.8197968 3.303719 2.9321277
0000e0 b5 c9 47 40 8c 84 35 40 9a e1 30 40 bd a3 5b 40
       3.1216862 2.836215 2.7637696 3.4318688
0000f0 20 80 72 40 8a 25 53 40 1b c5 3b 40 18 a0 6d 40
       3.7890701 3.2991662 2.9339054 3.7128963

bn4.bias f4 [64]
000000 16 d1 68 be cb a9 8f 3d 23 41 e5 3d d7 59 14 be
       -0.2273601 0.07014807 0.111940645 -0.14487396
000010 7e 3b b6 3d c3 df 38 3e 8f 23 3a 3e 90 bf 22 bd
       0.08898066 0.18054108 0.18177627 -0.03973347
000020 46 9f 2c 3e 73 58 c6 bc 5e e3 b4 bd c9 25 12 bd
       0.16857633 -0.024212098 -0.08832429 -0.035680566
000030 58 ed 9a bd 79 9f 7d 3c b7 45 ab bd 8a 0b b7 3d
       -0.07564801 0.015479916 -0.083629064 0.08937748
000040 b0 23 48 bd 6d 92 69 bc 15 61 34 be 19 1d f4 3d
       -0.04886216 -0.014256102 -0.17615159 0.119196124
000050 6c db 37 3e ba 71 d6 bd 26 83 fa 3b 96 19 6e 3d
       0.17954797 -0.1047091 0.0076450286 0.05812987
000060 e9 9d ef 3d a9 b5 ae 3c ad f7 b1 bd 27 f0 97 bd
       0.11700041 0.021326857 -0.086898185 -0.07418852
000070 e9 04 37 3e e8 22 4f 3c 25 b5 39 be cc d0 f9 bd
       0.17872967 0.0126426 -0.18135507 -0.12198028
000080 c9 42 0d 3e 8c 54 39 be 99 ae 4e 3e de 51 28 bd
       0.13795008 -0.18098658 0.20183791 -0.0410937
000090 32 90 de bd 1e 04 28 be 1d 99 85 bd 5a 8f 27 3d
       -0.10867347 -0.1640782 -0.06523345 0.040908195
0000a0 b2 37 2d be cc 34 38 be e1 0d d2 3d 06 a2 d4 3d
       -0.16915777 -0.1798889 0.102565534 0.10382466
0000b0 31 8f 36 be f0 97 14 bc 25 e8 c4 3d 89 f7 c6 bd
       -0.1782806 -0.009069428 0.096145906 -0.09715182
0000c0 ac 29 d7 3d df 2b 32 be 93 f3 1e bd 5a ef 52 3d
       0.10505995 -0.17399548 -0.03880651 0.051497795
0000d0 b1 5b 80 3d 6e e3 6a bc a1 2c b1 3d 44 df 44 3e
       0.06267489 -0.01433645 0.086510904 0.19225794
0000e0 1c 11 db bc 13 e0 e6 3d f8 dd 03 bd 1b 95 0f be
       -0.026741557 0.112732075 -0.032194108 -0.14021723
0000f0 a7 93 13 3c c7 5c 30 3e f9 ff 72 bd 59 46 6e 3e
       0.009007371 0.17222892 -0.059326146 0.23269023

bn4.running_mean f4 [64]
000000 39 80 1f 3e e1 ee 43 3e b1 38 2f 3e 51 0e 22 3e
       0.15576257 0.19134094 0.1711147 0.15825774
000010 21 66 3f 3e 3e cc 92 3e 0d e1 17 3e 13 96 a6 3d
       0.18691303 0.2867145 0.14831944 0.08134093
000020 81 7a eb 3e d3 04 57 3e 4e 57 8d 3e 64 9b 1d 3e
       0.459919 0.20997934 0.2760567 0.15391308
000030 5e 85 17 3f e6 47 51 3e 98 b2 68 3e c0 ee e1 3d
       0.5918788 0.20437583 0.22724378 0.11031866
000040 ea d9 ce 3d 61 1d 8d 3d 38 ea c2 3e 46 b6 2e 3e
       0.101001576 0.06890369 0.3806932 0.1706172
000050 3c c8 a5 3f 97 04 6e 3e 7e f2 ab 3e d4 1e ee 3e
       1.2951732 0.23243938 0.33583444 0.46507895
000060 dc c1 8c 3e fc 5e 29 3e fb bc 32 3e b9 28 16 3e
       0.27491653 0.1654014 0.17454903 0.14663972
000070 42 1a 4f 3e 5b c2 4c 3d 0b fd 05 3f ca 3c 34 3e
       0.2022486 0.04999004 0.5233924 0.17601314
000080 5a de 07 3e d3 43 95 3e 89 38 93 3e c2 a7 2b 3e
       0.13268414 0.29153308 0.2875407 0.16763213
000090 13 37 77 3e 15 b8 16 3e a5 84 23 3e f8 70 05 3e
       0.24142103 0.14718659 0.15968569 0.13031375
0000a0 76 d3 b8 3d 8f 7d 48 3e 1a dc 6b 3e b6 51 d1 3e
       0.09024708 0.19579147 0.23033181 0.40882653
0000b0 e4 8c a9 3f 0b 19 43 3e 99 1a 84 3e 50 e4 a6 3e
       1.3246121 0.19052522 0.25801542 0.32596064
0000c0 18 29 d3 3d 10 be c6 3d 0a 2b 2d 3e d7 40 59 3e
       0.103105724 0.0970422 0.1691095 0.2121614
0000d0 3c 23 ad 3e 33 bd 30 3e 49 0e 31 3e ea 14 7a 3e
       0.33815944 0.17259674 0.17290606 0.2442204
0000e0 3e 9d f1 3d 42 39 0c 3f 70 29 00 3e 10 c9 80 3d
       0.1179757 0.5477487 0.12515807 0.0628835
0000f0 4a a6 29 3e a8 17 25 3e 9f 85 45 3e fa 1b 43 3e
       0.1656734 0.16122305 0.19289254 0.19053641

bn4.running_var f4 [64]
000000 bb f3 db 3e a0 33 f9 3e 0a 91 03 3f 44 d8 03 3f
       0.4295939 0.486722 0.5139319 0.5150187
000010 01 90 53 3f 7a e9 24 3f 63 56 bd 3e 87 fd 77 3e
       0.8264161 0.64418757 0.3697997 0.24217807
000020 15 c5 a5 3f f2 f3 05 3f 55 95 0b 3f 12 88 01 3f
       1.295077 0.52325356 0.5452474 0.5059825
000030 5f b0 8a 3f 51 54 28 3f e1 80 09 3f 91 3a b8 3e
       1.0835074 0.65753657 0.5371228 0.35982183
000040 35 19 6f 3e 53 00 40 3e 54 f0 44 3f 85 ff 16 3f
       0.2334946 0.18750124 0.7692921 0.5898364
000050 fe f5 cb 3f 24 97 62 3f db 6e be 3f 12 0c b3 3f
       1.5934446 0.8851187 1.487758 1.3988059
000060 83 f0 80 3f 53 f9 07 3f db 80 d5 3e 42 24 00 3f
       1.0073398 0.53114814 0.4169987 0.50055325
000070 06 7a 61 3f 0e db d1 3d 67 18 5b 3f 14 c0 27 3f
       0.8807682 0.102468595 0.8558411 0.6552746
000080 95 4a e1 3e dd 2e 0e 3f 76 25 3f 3f 98 a9 12 3f
       0.44002214 0.5554026 0.74666536 0.5729003
000090 72 ee 84 3f f1 9d 11 3f 54 09 01 3f a8 77 e2 3e
       1.0385268 0.56881624 0.5040486 0.44231915
0000a0 cc 55 7c 3e c4 32 e1 3e 2a 44 1b 3f d7 5b 6e 3f
       0.24642104 0.43984044 0.60650885 0.93108886
0000b0 71 82 bc 3f c9 be 0b 3f 95 0e 8e 3f 0d 4e a1 3f
       1.4727308 0.5458799 1.10982 1.2601944
0000c0 49 7e b0 3e 9a 26 a0 3e 5d 76 32 3f 7d 37 3b 3f
       0.34471348 0.3127945 0.6971186 0.73131543
0000d0 5f 3c 6e 3f 6e e1 1c 3f cd 39 19 3f 11 f2 17 3f
       0.9306087 0.6128148 0.5985382 0.5935374
0000e0 01 78 92 3e 6c 7b c4 3f 34 19 e3 3e 22 cc 11 3e
       0.2860718 1.5350165 0.44355166 0.14238027
0000f0 d7 48 0a 3f 45 ff d0 3e 95 1c 2a 3f 12 7d 08 3f
       0.54017395 0.40819755 0.6644986 0.5331584
