NCC_Code/Models/2022-07-12_15-01-44_model.pt (torch, 114443 bytes, 50 tensors)

conv1.weight f4 [8, 2, 5, 5]
00000000: 9ac5 b83c b487 50be f38f 303e aeb0 093c
00000010: c46a 6c3c 732c cebd 3809 213d b933 acbd
00000020: 3281 28be 3cf4 17be c9be c5be c7f0 a4bc
00000030: a5e0 d3bd 45fa 62be 64db 76be 9e2d 5dbe
00000040: 884f 30bd ab8e cf3d 88b5 ad3e 81c1 3fbe
00000050: 9918 063e 2178 d5bd 8131 6b3e abb5 29be
00000060: e3ae 65bc aece afbe d60c ebbc 0952 02be
00000070: bcbe 72be efce 3c3e 1c4d 7c3d 032f 003e
00000080: 912f 3abf 30f6 60be 993d 08be 9a7a 63be
00000090: bc4c 803e f031 82be 021c 2ebe a658 74be
000000a0: 7a91 9b3b ecc1 583d 8a7d dabd e52b a03e
000000b0: 22ee 32bc b4f9 643e 695a 57be 9c53 48be
000000c0: d0bc fa3d 977e 80bd 73d1 3cbe 5778 373c
000000d0: a43e 38bd 3c7e f2bd c0f7 813e 3add a43d
000000e0: 96b6 a03d 06a2 57be 84fc 81be f4c1 343d
000000f0: b425 4b3e 32cd bebe b998 03be 724f 663e
00000100: 0956 7dbe 76c3 8fbc 9046 843d 1914 06bd
00000110: f1e4 cebc c471 fdbc 51c4 8f3d 67e1 bd3e
00000120: dbcb cb3c ac39 9fbc 293a 6b3e de76 b1be
00000130: fe81 993e 9a14 873d 1daa 173e 9097 16bf
00000140: b6bf b83c c5f7 603c c854 3dbe b1a3 0cbe
00000150: 6cdf b43d 5bc0 52be ee6d cb3c e2a5 0fbe
00000160: c4c8 833d 31e4 9dbe 7e14 bcbe 22a4 4abd
00000170: 454a ffbd 2e76 463e 1463 2ebe 1a71 bf3b
00000180: 7177 52be 2499 5f3d 1c8d 0bbf c280 04be
00000190: fb12 2fbc 460f cd3e 6d08 2cbe 7a14 56be
000001a0: eb24 c93d f58d 9abd 18d0 433d 38f3 2d3e
000001b0: f205 b3bc 4b37 373e 5ad2 883b c5a3 7a3e
000001c0: b197 96bd b065 333e 24d6 ab3e 92c3 66be
000001d0: fdbe 303d c273 66be 3a3b 693c 52bf 82be
000001e0: dd8a cbbd 8922 3bbe d752 bdba c3ea c03d
000001f0: fe9a 4ebe 5338 3dbc 9eef a5be 1bfa 943e
00000200: ff68 e73d 3983 183c 6a4e 38be 4875 713e
00000210: 1415 553e 7434 1f3d 0c3d f73c 9ef2 3ebc
00000220: d3ba 523b 03c7 dfbd f7c6 813e d8e9 a63d
00000230: e271 93be f297 d23d 1c5a 7cbd 2548 d1b9
00000240: ab28 cabd 8a49 a63d 0812 c4bd b042 6dbb
00000250: 2596 d4bd 739c cfbe 89fd 873e 4b16 44bd
00000260: 5241 2bbe 7804 74be 6726 8e3d 632d 44be
00000270: 440c d6bd c8a7 37bd 2b1f 6cbd 95f5 60bd
00000280: 4e1c f7bd 04f1 61be faca bf3d fa7b 2a3a
00000290: 1f57 833e 39b3 013d 2f81 6cbd a114 78be
000002a0: c34a aabe 0cb6 1abe 0472 5b3e cde6 aebd
000002b0: f73d 7a3e fbf2 e6be bc63 fe3d 33d8 d7be
000002c0: 6c6c 5dbc a152 b1bd 3d74 99be d944 823d
000002d0: 248a f03d e1a7 b73e e00a b03d 2ee3 1cbe
000002e0: 88bc b43e ce51 23bd b90e 813e 489b 04be
000002f0: 0590 153e 7c3e ca3e c234 83be 13e9 4f3e
00000300: b383 8c3e 6a43 f33d bfc2 a7bd fadd f83e
00000310: dad0 d1be 7665 843b 1ea6 a3bd e3d6 4dbe
00000320: 0ddc 29be 0922 3b3d 6d97 1e3e ebec 4cbd
00000330: e9ef 1c3e 5088 27bd 141a aebd bfe4 edbd
00000340: b7c5 9c3e 72db 79bd 53d8 8dbc d4fd 68be
00000350: 5641 5e3d c6a8 5cbd eb4f 4cbd 03bb 473c
00000360: 0e5f 71bd ea94 5f3d 21dc 203d b651 efbd
00000370: 4d66 803e 04c5 963b 68b7 e7bd 0253 afbe
00000380: 9ec2 87be bab8 ddbe 5b66 653c e879 443e
00000390: 6bb0 033b 4c6e e83d 888b 643e 68f3 523e
000003a0: c864 a5bd b52e 263e 14e7 1fbd a482 4abd
000003b0: 52c0 23be 2481 99be c269 a53c d417 1abe
000003c0: 2a55 f03b ab52 e1bc 12af c43d 196c cfbe
000003d0: d066 c5be 3a14 ad3d cc4c 45bd 6303 1d3e
000003e0: 7caa 00be bbc4 963d 202e d8bd a8f6 c23e
000003f0: b1b9 7fbe 0128 b63d e0ea 0c3f 9402 c43e
0.022555161 -0.20364267 0.17242412 0.00840394 0.014429752 -0.10067072 0.039315432 -0.08408303
-0.16455534 -0.14839262 -0.3862212 -0.020134343 -0.10345582 -0.22165783 -0.24107128 -0.21599433
-0.043044597 0.10134634 0.3392756 -0.1872616 0.13095321 -0.104233034 0.22968103 -0.16573207
-0.014018747 -0.34337372 -0.028692644 -0.12726606 -0.23705572 0.18438314 0.061596975 0.12517934
-0.7272883 -0.21968913 -0.13304748 -0.22214738 0.25058544 -0.25428724 -0.17002872 -0.23861942
0.0047475668 0.052919313 -0.10668476 0.3128349 -0.010921033 0.22360879 -0.21030582 -0.19563144
0.122430444 -0.06274145 -0.18439274 0.011198125 -0.044981614 -0.118404835 0.2538433 0.08050008
0.078473255 -0.21057901 -0.25387967 0.04413028 0.19838601 -0.37265927 -0.12851228 0.22491243
-0.24739851 -0.017549258 0.06458771 -0.03273401 -0.025255652 -0.030938037 0.07019866 0.3708603
0.02487748 -0.01943668 0.22971405 -0.34661 0.2998199 0.06595726 0.14810987 -0.58825016
0.022552352 0.013730948 -0.18489373 -0.13734318 0.08831677 -0.2058119 0.024832692 -0.14028123
0.064347774 -0.3083816 -0.36734384 -0.049472935 -0.12465338 0.1938102 -0.17029983 0.00584234
-0.20553376 0.054589406 -0.5451219 -0.12939742 -0.010685678 0.40050715 -0.16800089 -0.20906249
0.09821495 -0.075466074 0.047805876 0.16987312 -0.02185342 0.17892186 0.0041754665 0.24476536
-0.073531516 0.1751926 0.33561814 -0.22535542 0.04315089 -0.22505096 0.014235312 -0.2553659
-0.099385954 -0.18274893 -0.0014444244 0.09419777 -0.20176312 -0.011549073 -0.32409376 0.29097065
0.11299323 0.00930863 -0.17998663 0.23579895 0.20808822 0.038868383 0.030180477 -0.011654524
0.0032154813 -0.1092663 0.2534711 0.08150071 -0.28797823 0.102828875 -0.061609372 -0.00039917338
-0.09871038 0.08119495 -0.09573752 -0.003620308 -0.103802 -0.4054905 0.2656062 -0.047872823
-0.16724136 -0.2382983 0.069409184 -0.19157939 -0.10451558 -0.044837743 -0.05764691 -0.054921705
-0.120659456 -0.22064596 0.093648866 0.00065034593 0.25652406 0.03166506 -0.057740387 -0.2422662
-0.33260164 -0.15108508 0.21430212 -0.085401155 0.244377 -0.45107254 0.124213666 -0.42157134
-0.013514619 -0.08658338 -0.29971495 0.06360788 0.11745098 0.3587027 0.08595824 -0.15321037
0.35300088 -0.039872937 0.25206545 -0.1294986 0.1460572 0.39500797 -0.2562619 0.20303755
0.2744423 0.118780926 -0.08191442 0.48606855 -0.40979654 0.0040404154 -0.07990669 -0.20101504
-0.16587849 0.045686755 0.15487452 -0.05003063 0.15325893 -0.040901482 -0.08501068 -0.116158955
0.30619594 -0.061000295 -0.017315065 -0.22753078 0.054261528 -0.053871892 -0.049880903 0.012190583
-0.05892854 0.054585375 0.03927243 -0.11685507 0.2507805 0.004601123 -0.11314279 -0.34243017
-0.2651567 -0.43304998 0.014001454 0.19187129 0.0020094167 0.113491625 0.22318852 0.20600665
-0.08075863 0.16228755 -0.039038733 -0.049440995 -0.15991333 -0.2998134 0.02019203 -0.15048152
0.007334371 -0.02750524 0.096037045 -0.4051216 -0.38555002 0.084511235 -0.048168942 0.15333323
-0.12565035 0.07361742 -0.10555673 0.3807881 -0.2497318 0.08894349 0.5504589 0.38283217

conv1.bias f4 [8]
00000000: 139d 7639 cd2c 5abc e106 54bc ecc8 013c
00000010: 186e 173c 308c 9fbb 4856 983b c791 3eba
0.00023518903 -0.013316345 -0.012941093 0.007921439 0.009242557 -0.0048690066 0.0046489574 -0.00072696473

bn1.weight f4 [8]
00000000: 9672 7d3f 15f1 7c3f 1118 843f 6f49 7c3f
00000010: 9183 7f3f 012f 803f 2c50 803f b2b7 803f
0.9900297 0.9880536 1.0319844 0.9854955 0.9981013 1.0014344 1.0024467 1.0056059

bn1.bias f4 [8]
00000000: 3c01 0d3c 1c34 d43b ae17 7abc 99c3 e93b
00000010: 222e 4fbc d3f4 71bb b452 7b3b 8496 5bbb
0.008606251 0.0064759385 -0.015264435 0.0071339128 -0.012645276 -0.0036919608 0.0038348855 -0.0033506462

bn1.running_mean f4 [8]
00000000: e99f 973f b293 693f 74b1 8f3e 9d35 9f3e
00000010: 081e 173f aa55 283f 1f2e 383f 1c89 283f
1.1845676 0.9124099 0.28065073 0.3109559 0.590302 0.65755713 0.71945375 0.6583421

bn1.running_var f4 [8]
00000000: 5859 1540 e1e6 b13f fd83 833e d52e 4e3e
00000010: 9c5c 103f 4467 9b3f 06d5 9e3f b7c7 8e3f
2.333578 1.3898584 0.25686637 0.20135053 0.5639131 1.2140889 1.240876 1.1154698

conv2.weight f4 [16, 8, 3, 3]
00000000: 99da 96bd c373 f63d 7f26 f6bc cce1 06be
00000010: 6568 353d 010f 19be 53a4 c33d 18db 33bd
00000020: 4df6 1bbe 77da 4a3e db5f 923d a526 e3bd
00000030: a48b 87bd 4102 2fbe c005 9b3d 6433 b5be
00000040: 6c49 d1bc 2592 183e ca3e 47be fd98 7fbc
00000050: 48d0 babd 4c64 b43d 7c98 8c3b 0093 0e3d
00000060: 815a cabc 98d2 aa3e 5549 2c3d a708 68bd
00000070: fe4e 883e 5553 293e e8fb 72bd 5641 b13d
00000080: 8924 013d 90e2 bebd 8ad5 a1bc 238e 4ebd
00000090: 90e2 92bc 3b76 33bd f041 c63c 3c44 7c3e
000000a0: c00b a3bd 7a86 27be a6a9 41be b524 6b3e
000000b0: 43bc ad3d 55a3 1e3e 2031 a8bc 084b 74bd
000000c0: be93 a0bc 9b52 f1bd 528b 3cbe 6c86 a43e
000000d0: 176e c03d 3fd4 a33d a7f6 86bd 4c0d 523d
000000e0: 4b6d 3f3e 0996 d6bd 7214 cdbd 8079 883d
000000f0: 6b47 c1be 6788 063e e43f ab3c 6ecd c23d
00000100: 47d6 bcbd a797 373d c9dd 093e cc66 15bc
00000110: 660d 1f3e 6e95 53bd fed6 a13e 5cca b7bd
00000120: a150 d23e c44a ba3b 71a1 583e 9c34 0d3e
00000130: 9df3 f6bc ad01 46bd 551f 86bd dd22 cdbb
00000140: 0aa6 4d3c f9c5 2abe 7ea0 69be e822 4b3e
00000150: 4028 253e ccd7 b4bd d2a3 003e 4338 90be
00000160: 30fb a83b 141d 3a3e d4cf 79bd 968f 24bd
00000170: 8a31 c03d 413a b83e 4219 47be cea7 253e
00000180: 8d04 4e3b 3ea1 4a3e 4218 083e 04c3 19be
00000190: 653c 8cbd 64b3 97bd 1f50 9cbe 5ea4 c93e
000001a0: 2137 853d 8090 3dbe 02fa 223e 6123 443e
000001b0: 86d3 babd 5b0d 503e 76bb 20be 338a 063d
000001c0: 9a94 8abc 5ba5 9abe c7c8 003e 8610 e8bc
000001d0: 042d cabd 019f 13bd 7e7e 8a3e feab f43d
000001e0: 0a74 b7be f31d 813e 724d c03e b910 aa3c
000001f0: 0b94 b8bc b9b9 273e c880 883d ef53 863b
00000200: cd8b bb3e 1938 bd3e b297 1abd 0e6b f13c
00000210: b951 21be 6744 a4bc d336 b5bd b544 78be
00000220: 3596 4a3e 34c0 b33c 6c5e 49bd c3f3 5abd
00000230: 8454 7bbd 7338 593e c3c3 31bd d17c 353e
00000240: ccbe dcbd f26e cabd 0230 363e 2072 8d3d
00000250: 498b af3d ce83 a03d 2405 923e 205d 8d3e
00000260: 0d46 89bd 80a1 cb3d 2d71 b9be a487 afbd
00000270: e8c5 2e3d 96b4 793d 8297 08be c614 56be
00000280: 82d5 e6bd 82d3 dfbc 2337 9cbe 0708 843d
00000290: f8fe 433e fe1f 48be 2b58 6f3d 6cca 873c
000002a0: 2751 f53e fc89 093e b62b 7cbd 8502 823e
000002b0: 9c02 773d 60fe df3e 7860 c83e a40e b63d
000002c0: baea c8bd cc39 29be e8a8 42bd 74e6 dc3d
000002d0: b4f5 5d3c dd63 1a3e 9000 213d e2cf 483e
000002e0: 5aab 55be 487c 703e 0a26 b73c 47df e23d
000002f0: ac93 c13d 5364 ddbd 9edd a4bc 2f71 0c3c
00000300: c2ad 27be 72e2 a6be ed6d a2be a6d4 f23d
00000310: 6222 bbbc 82fc 7a3c 3361 59bd f7e3 a13e
00000320: 3a6e 9a3e cd5d d93d 3231 9d3e f526 a63d
00000330: c2b4 62bd 8a21 8c3d afbe 6abe 0dc8 d9bd
00000340: 7757 d1bd 69df c4be f3bd 08bd 699a 1fbe
00000350: 15ed cf3c 616a 073d f235 f03d b41a cc3b
00000360: 1130 f6bd f612 aa3d 584a e33d 94f5 363e
00000370: 78e1 433e 55b7 283d 5c56 343c 5e8d 9b3c
00000380: 3c0a 10be 78e3 153e 864d 923e b03d ea3c
00000390: ee89 3f3d b10b 6abe 6ad4 c0bd 7cc3 333e
000003a0: 665d 883e 7102 49be cf94 cf3e 3827 343e
000003b0: f5f5 2bbd ad02 5dbd 2cfd 9f3d 0944 fe3d
000003c0: 718c b53e 2228 abbc 7099 aabe d5a0 3d3e
000003d0: 6e6c 28bd ebdf e83c 6fb4 223e 6ba8 c03d
000003e0: 3563 3cbd 020e 713e b823 283e 9cda 213d
000003f0: 7904 ee3c 76e9 84be 4084 5cbe 0f26 dbbd
-0.07365913 0.120337985 -0.030047653 -0.13172072 0.04428901 -0.1494713 0.09552827 -0.043910116
-0.15230675 0.198099 0.07147189 -0.11091355 -0.06618431 -0.17090704 0.07569456 -0.3539077
-0.025547706 0.148995 -0.19457546 -0.01560044 -0.09121758 0.088081926 0.0042906385 0.03480816
-0.024701359 0.33363795 0.042062122 -0.056648877 0.26622766 0.16535695 -0.059322268 0.0865504
0.031528983 -0.09320557 -0.019755144 -0.05042852 -0.017930299 -0.043813925 0.024201363 0.24635404
-0.079612255 -0.16359892 -0.18912372 0.22963221 0.08483174 0.15491994 -0.020531237 -0.059641868
-0.019601699 -0.11783334 -0.18412521 0.32133806 0.09395998 0.07999467 -0.06590014 0.051282212
0.18694036 -0.10477836 -0.10013665 0.06663799 -0.377498 0.13137971 0.020904489 0.09511839
-0.09220558 0.04482236 0.1346351 -0.009118747 0.15532455 -0.05165618 0.3160934 -0.08974144
0.4107714 0.0056851823 0.21155335 0.137896 -0.03014546 -0.048341442 -0.06548945 -0.0062602595
0.012551794 -0.16677083 -0.22815129 0.19837534 0.16128635 -0.088302225 0.12562492 -0.28167924
0.005156897 0.18175155 -0.060989216 -0.040175997 0.09384449 0.35981944 -0.19443229 0.16177294
0.0031435818 0.19788072 0.13290504 -0.15015799 -0.06847457 -0.07407263 -0.30529878 0.39383215
0.06504656 -0.18512154 0.15915683 0.19154121 -0.09122376 0.20317595 -0.1569651 0.03284664
-0.016916562 -0.3020428 0.1257659 -0.028328191 -0.09871867 -0.03604031 0.2704963 0.119468674
-0.35830718 0.25218162 0.37559086 0.020759927 -0.02253153 0.16379441 0.06665188 0.004099361
0.36630097 0.36956862 -0.037742324 0.029469993 -0.15753831 -0.020052148 -0.088483475 -0.2424496
0.19783862 0.021942236 -0.049162313 -0.053455126 -0.061359897 0.2121294 -0.043399584 0.17723395
-0.10778579 -0.098844424 0.17791751 0.06906533 0.085714884 0.0783764 0.28519547 0.2761011
-0.06702814 0.09942913 -0.3621916 -0.08570793 0.042669207 0.060963236 -0.13339046 -0.20906362
-0.11271192 -0.027322534 -0.30510816 0.064468436 0.19140232 -0.19543454 0.058433693 0.016576014
0.47913477 0.13431543 -0.061565123 0.25392547 0.060305223 0.4374876 0.391361 0.08889511
-0.098103955 -0.16525954 -0.047524363 0.10786143 0.01354735 0.15077157 0.039307177 0.19610551
-0.20866147 0.2348491 0.022357006 0.11077743 0.09451994 -0.10810151 -0.020125207 0.008571907
-0.16374877 -0.3259464 -0.31724492 0.11856966 -0.022843543 0.015318992 -0.053071212 0.31619236
0.3016222 0.10613594 0.30701596 0.08112899 -0.055348165 0.068423346 -0.22924303 -0.1063386
-0.10221761 -0.38451698 -0.033384275 -0.15586247 0.025381604 0.033060435 0.11729039 0.006228769
-0.12020887 0.08304398 0.11098164 0.17867118 0.19128978 0.041190464 0.011006918 0.018988308
-0.14066404 0.14637554 0.2857477 0.028593868 0.0467624 -0.22856022 -0.09415515 0.1755504
0.26633757 -0.19629838 0.4054322 0.17593086 -0.04198261 -0.05395763 0.078119606 0.124153204
0.3545871 -0.02089316 -0.3332019 0.18518384 -0.04111903 0.028427085 0.15889142 0.09407123
-0.04599305 0.235405 0.16419876 0.039515123 0.029054867 -0.25959367 -0.21534824 -0.107006185

conv2.bias f4 [16]
00000000: 0dec 04bc 636d 2038 66c5 9339 75fc 0abc
00000010: f7ad 71b9 0fdd 2d3c 2bb3 dfbb c7fc 9e3b
00000020: 6b3c d1bb 56d5 8bbb 0706 2ebc de0c 7c3b
00000030: a607 ff3b 3226 0cbc 2cb4 bb3b d381 6e3b
-0.0081129195 3.8248847e-05 0.00028185098 -0.008483042 -0.00023048358 0.0106117865 -0.0068267784 0.0048519108
-0.006385376 -0.004267375 -0.010621554 0.0038459818 0.007782894 -0.008554028 0.0057282653 0.00363933

bn2.weight f4 [16]
00000000: 4b8e 813f dda4 813f 2312 7f3f c28d 7e3f
00000010: b75b 7c3f 3fc7 813f 64eb 803f c238 803f
00000020: c44c 7d3f e2a4 803f 1567 7e3f a1c4 7f3f
00000030: 4b44 803f 89ec 7f3f 4f30 803f 11c9 7e3f
1.0121549 1.0128437 0.9963705 0.99435055 0.98577446 1.013893 1.0071836 1.0017321
0.9894526 1.0050318 0.9937604 0.99909407 1.0020841 0.999703 1.0014743 0.99525553

bn2.bias f4 [16]
00000000: eb3b d5bb 115a 4ebc c4a2 0bbc 4a2b 343c
00000010: b7e4 303c b29a 903c a195 f13a 3425 11bc
00000020: cea2 a63b 68b5 f83a c10e 483b 0d48 f1bb
00000030: 5df1 953c 3fa5 143c 62f4 6fbb f462 613c
-0.006507387 -0.012594716 -0.008522693 0.010996649 0.010796717 0.01765189 0.0018431434 -0.008858968
0.005085326 0.0018974962 0.0030526372 -0.0073633255 0.018303568 0.009072601 -0.003661417 0.013756502

bn2.running_mean f4 [16]
00000000: 8cb9 953e f5d7 0c3f 9a67 193f 9125 333f
00000010: 55ef 503f b99e 1a3f a978 c63e 3758 143f
00000020: a3ee e73e bea5 a13e 14d1 283f ad06 053f
00000030: c208 f43e 981e 9b3e fe17 533f 8651 cf3e
0.29243124 0.55017024 0.5992371 0.69979197 0.8161519 0.6039844 0.3876393 0.57947105
0.45299253 0.31571764 0.6594403 0.5196331 0.47662932 0.3029678 0.82458484 0.40491885

bn2.running_var f4 [16]
00000000: de9d 823e 483f 893f 9383 623f 89bc 8a3f
00000010: 15c3 ab3f de9f e03e 9607 a83e 6b5d 253f
00000020: 83b3 363f 5021 903e a41d 513f 8f75 3a3f
00000030: 95ac e93e e1a3 a93e c304 e83f f54a e03e
0.25511068 1.0722437 0.88482016 1.0838786 1.3418909 0.4387197 0.32818288 0.6459567
0.71367663 0.28150415 0.81685853 0.7283563 0.45639482 0.33132842 1.8126453 0.43807188

conv3.weight f4 [32, 16, 3, 3]
00000000: f050 0cbd 8c97 3a3e b6d0 a0bc 00c6 533d
00000010: e329 cebc e983 9b3c 97cf 92bd a081 b8bc
00000020: 8138 623e a2a6 7ebc a63a 733e 7339 35be
00000030: 1397 5abe 308f 8bbd cf02 b23c 4f06 983d
00000040: 4f0e e1bd ed20 b83d e7e5 05bb fd98 31be
00000050: 13da d9bd 5e2c 223d f581 733c ebb6 6eba
00000060: d3b8 203e 11a0 a53c 1ddb 0139 136a 9c3d
00000070: 09ae 893c c5a0 1abd 9eca 8cbd 0972 ffbd
00000080: a4f2 3c3d a88a 803d 84aa 143e b8f8 07bd
00000090: 6207 4dbd 2fd1 63bd ca06 ce3d 606a 8b3d
000000a0: 58c4 253e b97e c73d e71a 0cbe 183d 50be
000000b0: dc56 98bc 6464 b5bd afb5 30bd 3379 be3d
000000c0: 2a37 2a3e 34e4 b9bc 8c8e 0fbc a71e e23c
000000d0: 1c4a fc3d 5c62 963e ab08 fe3d c619 94bc
000000e0: a1d3 0a3e c69b 70bd d349 633d 826e 23be
000000f0: c84a 54bd aaf7 bbbc ea6f d23d dc78 36bd
00000100: 3036 05be 4189 013e dc1f 11bd aa77 8fbd
00000110: 461c 31bc 06c5 bfbd 98e0 13be c299 9bbd
00000120: d00c 4fbb 4e1d d4bd 1efb de3d f8c3 a8bd
00000130: f976 74be 27a1 e8bb 281c 683d ef15 4d3e
00000140: 3915 6fbe e42f bcbd 6649 41be d915 06bd
00000150: ebe3 e7bd 7a95 24bd caae 4b3e 538d 133d
00000160: 4a9b b03d e471 8e3d 85e2 b4bd e930 6dbd
00000170: 2141 503e eee0 c1bd 29ac dd3d fddd 633c
00000180: 58a8 a13c e8c1 083e 2daa 9c3c 7de3 6bbc
00000190: e152 163d 984e cebd 1017 0dbe fc7c 813d
000001a0: b7d1 10bd 0909 0bbe f0fd f13c 5006 653e
000001b0: b8d3 723d c1bb f4bc b5e3 903d b721 39bd
000001c0: 95b5 913e d03f 0b3d b949 0f3e f7af 4cbe
000001d0: f02d 333b 2c93 b0be 5670 383c 49c8 d3bd
000001e0: 0fed 1cbd e13a e4bc 048d 59bd c40b 9fbd
000001f0: 3fb8 153c 6671 b83d 4210 8abd 1271 5abc
00000200: 9430 ad3b 88fa 3ebd 41d6 a0bd 2327 f53d
00000210: e1a3 f33c 783d 993c 01d5 7fbe 5b5a 89bd
00000220: 10b4 3a3d 2275 623e 342e 0d3c 1a6b 11bd
00000230: 4893 283d ce63 5d3d 20a1 b6bc febd 723c
00000240: c768 b7bd 21bb 0739 0f2d 443d 3d05 b2bd
00000250: e763 0fbc 3811 33bd 93a7 aabd a05a e63d
00000260: 67da 0bbe c663 e9bd 622f e53d bf82 913d
00000270: 2ad7 003d 8238 8c3d 4f4c a5bd 84e1 b03c
00000280: c9ee ab3d 3833 2abd 9aee 8d3d 3b7e 243d
00000290: b049 b2bd 6dd6 38be 6a9d b53c f7dc a53d
000002a0: 51e7 a33d 1d2b 993c 4ddd 2bbd 9f5b 353d
000002b0: 0093 41bd 6a6f 52be 48f6 693d 3347 c4bc
000002c0: b0e5 41be 034d d5bd 3daf 84bd 11da 893e
000002d0: afba 05bd e6d7 063e 17fa 373e ae31 fcbb
000002e0: 79fc edbc ad6c e1bd 8b94 f93d 8b8c 96bc
000002f0: 5262 45be f441 12be e1b2 2c3c 01ae ca3d
00000300: fc09 77bc 7111 113e 97bb 983e 97aa 583e
00000310: cc40 b3bc 8262 943c 8f59 7e3e 475d b6bc
00000320: 423a e2bc 68dc 85bd 711a ad3c 921b 2c3d
00000330: af6a 513e c1a7 353d 0954 8a3d ab6d dbbd
00000340: 1944 f5bd 067d fabc b50e 80bd 8ee7 f8bb
00000350: 74f1 b8bb 0dfe 6cbd 72bb edbd bd44 14be
00000360: 634f bf3d a988 b2bd f39f 06bd 9bfb b93d
00000370: 1c9c c5b9 7e77 3e3d 8885 0039 601d 31be
00000380: 5da4 c4bd a362 003d 4dcc b03c 4fc4 553e
00000390: 3d1d 0abc 6a39 ed3d de9c 65be 8351 8ebd
000003a0: 120b cfbc e7fc 13bc d519 c4bd b56d e6bd
000003b0: 3697 d5bd 4666 c3bc 575f 1fbe 9c52 0b3d
000003c0: aea4 99bd d3be df3d 2ce7 bd3d 464c 743d
000003d0: bd2e 8a3d d7c4 0e3e 1027 26bd 9b22 e3bd
000003e0: 3cb8 fabd 7296 0dbe 77db bd3d 40ba 47be
000003f0: 0f24 2a3e b33d 7bbc 25f0 6b3d 5319 fe3d
-0.034256876 0.18221873 -0.019630771 0.0517025 -0.025166458 0.018983798 -0.07168501 -0.022522748
0.22091867 -0.015542658 0.23752841 -0.17697696 -0.21346693 -0.0681442 0.021729855 0.07423078
-0.10989057 0.08990655 -0.0020431222 -0.17343517 -0.106372975 0.039593093 0.014862527 -0.00091062364
0.15695505 0.020217927 0.00012384025 0.076374196 0.01680662 -0.037750978 -0.06874584 -0.12472922
0.046129838 0.062764466 0.14518172 -0.03319618 -0.05005587 -0.055619415 0.10059889 0.06807399
0.1618818 0.09740967 -0.13682137 -0.20335805 -0.018596105 -0.088570386 -0.043142017 0.09300461
0.16622606 -0.022691824 -0.008762013 0.027602507 0.12318823 0.29371917 0.12403997 -0.018078696
0.13557293 -0.058742307 0.055490326 -0.15960124 -0.05182913 -0.022945244 0.10275252 -0.044548854
-0.13008952 0.12650014 -0.035430774 -0.07005246 -0.010809964 -0.09363751 -0.14441144 -0.07597686
-0.003159333 -0.10357152 0.108877406 -0.08240503 -0.2387351 -0.007099289 0.056667477 0.20027898
-0.2334794 -0.09188822 -0.18875656 -0.03273568 -0.11322769 -0.040181614 0.19890895 0.03602345
0.08623369 0.06955317 -0.08832268 -0.057907972 0.20337345 -0.0946673 0.108238526 0.013907907
0.019733593 0.1335522 0.019124115 -0.014397499 0.036700133 -0.10073584 -0.13778329 0.06322667
-0.03535625 -0.13577665 0.029540032 0.2236569 0.059283942 -0.029874684 0.07074682 -0.04519817
0.2845885 0.033996403 0.13992967 -0.19989 0.0027340613 -0.34487283 0.011257252 -0.10340936
-0.038312014 -0.027860107 -0.053113 -0.07765916 0.009138166 0.09006004 -0.06741382 -0.013332622
0.005285332 -0.046625644 -0.07853366 0.11970355 0.02974123 0.018706068 -0.24983598 -0.06706687
0.045581877 0.22114995 0.008616973 -0.03550253 0.041156083 0.05405026 -0.022293627 0.0148158055
-0.089555316 0.00012944314 0.047894534 -0.086924054 -0.008751846 -0.043717593 -0.083327435 0.11247754
-0.13657533 -0.113959834 0.11190678 0.07105016 0.031455196 0.068467155 -0.08071195 0.02159191
0.08395154 -0.041552752 0.06930275 0.040159445 -0.08705461 -0.18050547 0.022169787 0.08098786
0.080031045 0.018697316 -0.041959096 0.04427683 -0.04725933 -0.20550314 0.057119638 -0.023959732
-0.18935275 -0.104150794 -0.064787365 0.26924184 -0.03264874 0.13168296 0.17966495 -0.007696352
-0.029051052 -0.110070564 0.121865354 -0.018377563 -0.19275787 -0.14282972 0.010540695 0.0989647
-0.015078064 0.1416681 0.2983062 0.21158825 -0.021881483 0.018113378 0.24838851 -0.022261275
-0.02761567 -0.0653618 0.021130772 0.04201848 0.20450853 0.044349436 0.0675431 -0.10714277
-0.11975879 -0.030577194 -0.06252805 -0.007595963 -0.005644018 -0.05785947 -0.11608018 -0.14479347
0.09341314 -0.08717472 -0.032867383 0.09081193 -0.0003769108 0.046500675 0.00012256776 -0.17296362
-0.09601662 0.031344067 0.021581793 0.20875667 -0.0084298225 0.115832165 -0.22423121 -0.06949141
-0.025273833 -0.009032465 -0.095752396 -0.11251394 -0.10429232 -0.023852479 -0.15563713 0.03401433
-0.07502113 0.10925069 0.09272608 0.059643053 0.06747196 0.13942276 -0.040564597 -0.11090585
-0.12242171 -0.13826922 0.09270375 -0.19504642 0.16615318 -0.015334534 0.057602067 0.12407174

conv3.bias f4 [32]
00000000: ded9 9c3c ce20 6c3c 0cb2 b339 f0e6 83bc
00000010: ca10 15bb 6a8f afbb 2422 eeba 9127 d93b
00000020: 8db0 a23b a9b6 69bc 8f36 dfbb 06c6 df3a
00000030: 5a07 353c 4e10 cbb8 6062 713c 2f6d e93b
00000040: 008e 003c fdf8 d8ba a2d3 7abb d9cb 8e3b
00000050: c08a 3bbc 16ef d9bb 7b0f aab9 0a71 f7b9
00000060: 731b 0a3c 80dc 2a3c ea62 3f3b 1c74 503c
00000070: a108 b13b 9495 e4b8 f0a8 9eba bb82 303c
0.019146856 0.014412118 0.00034274196 -0.01610133 -0.0022745603 -0.0053576725 -0.0018168134 0.006627031
0.004964894 -0.014264741 -0.006811924 0.0017072565 0.011049116 -9.682831e-05 0.014732927 0.0071236114
0.007846355 -0.0016553696 -0.0038273116 0.0043577966 -0.011446655 -0.0066508157 -0.0003243646 -0.00047195732
0.008429396 0.010428548 0.0029203244 0.012722995 0.00540264 -0.00010899748 -0.0012104791 0.010773356

bn3.weight f4 [32]
00000000: cb70 813f ceb8 7e3f d69b 823f 65fe 7d3f
00000010: a4d3 7c3f 57fd 7c3f c119 7e3f d1e1 7e3f
00000020: 5520 813f e4fd 803f 5e5a 7a3f 74fc 7b3f
00000030: 9cf2 813f b062 7f3f fa50 803f 9472 7d3f
00000040: e83d 843f c196 7d3f 2742 7f3f 6ad6 7a3f
00000050: 3848 823f 3af5 7d3f ac81 7e3f f037 823f
00000060: 3660 813f 8447 7d3f f944 803f 6da7 7c3f
00000070: 2704 7e3f 525e 7f3f 4223 7e3f d1e5 803f
1.0112547 0.9950074 1.0203807 0.992163 0.9876044 0.98824066 0.9925805 0.9956332
1.0087992 1.0077481 0.9779414 0.9843209 1.0152164 0.9975996 1.0024712 0.9900296
1.0331392 0.9905816 0.99710315 0.9798342 1.017829 0.9920231 0.99416614 1.0173321
1.0107486 0.9893725 1.0021049 0.9869297 0.99225086 0.99753296 0.9927255 1.0070134

bn3.bias f4 [32]
00000000: ec2c 76bc 6b0b a2bb 2f2d 9cba 3e25 26bc
00000010: 3f05 86ba 8220 273c 1ffb 73ba 6577 5f3c
00000020: 6e8d cd3b 1d22 5abc 988b a6bc c5ab f6bb
00000030: d5c5 8fbc 4632 c239 96b1 823c 62a1 39bc
00000040: b947 c1bb b85b 66bc d515 003b 03e5 c8bb
00000050: 430a 97bb 835e 8d39 7201 18bc ac0c 173a
00000060: 489e 453a 6211 903c 40ef 8bbc 621d 6ebc
00000070: 8d2f 06bc 99ff 3739 6c15 ab3c be0c d33a
-0.015025359 -0.004945209 -0.0011915321 -0.010140715 -0.0010224952 0.010200622 -0.00093071343 0.013639306
0.0062729632 -0.013313797 -0.020330235 -0.0075278007 -0.017550388 0.0003704002 0.01595382 -0.011329981
-0.0058984426 -0.014059953 0.0019544263 -0.006130816 -0.0046093776 0.00026964032 -0.009277688 0.0005762081
0.00075385394 0.017586414 -0.017081857 -0.014533373 -0.008190048 0.00017547458 0.020884238 0.001610182

bn3.running_mean f4 [32]
00000000: b67f fd3e 341a 0a3f bc0f 283f 4c28 f73e
00000010: d34e 063f 6e43 e43e dfdc ce3e a4f5 0c3f
00000020: 8f2d 083f 0a60 b33e 48d8 9c3e 8a2f ca3e
00000030: 2c77 d53e 03f8 4c3f 34bc fa3e 63d6 0c3f
00000040: bfae c63e 401e e63e ab8a b53e ed68 fe3e
00000050: 3cc8 d83e 93f4 d53e 137b 3a3f 52d1 e33e
00000060: 5195 013f da7f 143f 355f 253f b27b 713f
00000070: 297b f83e ef32 073f 0e5d e83e 91a3 103f
0.49511498 0.5394623 0.6564901 0.48272932 0.52464026 0.44582695 0.40402886 0.5506232
0.53194517 0.3503421 0.3063376 0.39489394 0.41692483 0.80065936 0.48971713 0.5501463
0.38805196 0.44944954 0.35457358 0.49689427 0.42340267 0.41788158 0.72844046 0.44495636
0.50618464 0.58007586 0.645984 0.9432937 0.48531464 0.52812093 0.45383495 0.5649958

bn3.running_var f4 [32]
00000000: 3ab6 e53e e98e 0f3f 0638 5d3f 42c0 ff3e
00000010: 25f2 0c3f 96f9 1b3f 4e9a bf3e 6764 eb3e
00000020: 3d78 4c3f 8e4e 9c3e e669 933e 00e2 823e
00000030: 24af d63e 43ef dc3f b637 083f 07ec 1e3f
00000040: cb9d e93e 1d54 d13e 62cb 913e bbc9 0a3f
00000050: 84f6 1b3f 7e8e fe3e 3091 9a3f 6de9 ac3e
00000060: e084 313f 8b0b 443f e024 193f d65e fa3f
00000070: 7bee 153f 670e 653f a97c 003f c17a fc3e
0.4486559 0.5607744 0.8641361 0.4995137 0.55056983 0.6092771 0.37422413 0.45975038
0.7987097 0.30528682 0.28791732 0.2556305 0.41930497 1.7260517 0.5321001 0.620789
0.456282 0.40884486 0.2847548 0.54214066 0.6092303 0.49718088 1.2075558 0.3377184
0.69343376 0.76580113 0.5982189 1.9560192 0.5856702 0.894751 0.50190216 0.49312404

conv4.weight f4 [64, 32, 3, 3]
00000000: c873 443d 4356 87bd 643b 833d 8378 65bd
00000010: 4ed2 4b3d 68a0 58bd 1a48 23bd 628f 883d
00000020: d3a6 c0bd 34db 95bc 2be1 dd3b f959 b03d
00000030: e428 a0bd 8ace cbbc 6fb9 c0bc 4d17 933d
00000040: d4de a8bc 4953 9f3d bf81 bd3c 917c 823e
00000050: 68c4 473e 2441 9c3d 12cd 0fbd 38ef c1bc
00000060: 98d0 09bc 8f54 793d fadf ea3d 81d3 c13d
00000070: 5f32 303c 3752 013d 1967 0b3e 20c9 cabd
00000080: 4d2a 823d fbde cb3d d081 403d 3993 0d3e
00000090: 9409 61bd 68c3 49bc 4464 133e f3a2 08be
000000a0: c133 6abd 2df3 753d 9952 093e 8cc1 d83d
000000b0: 465e c03c 1328 2f3e 375b a53d 9f91 4db9
000000c0: c510 6b3d 6cd1 d7bd 8a6d 053e 7227 c63b
000000d0: 1343 febd 83df c83b 35a0 613c 3622 b53d
000000e0: 982b 30bd c451 503d 9dcc 9a3d 51c5 353e
000000f0: 20e9 f83c 77a7 62bd fdae e9bb 49d8 ac3d
00000100: 4f55 073d 15b7 c13c 5403 c93d dcfd 7e3d
00000110: 208c aabd 583f 023d 0a3b 8bbd b06d bd3b
00000120: e2b4 863d 7ba3 823c 24bc 48bd 8fbe 483c
00000130: 7dc4 4f3b eb0b 083e e60d 0bbd aa11 113e
00000140: f8f4 0b3e c0cf af3d 3f23 843c 97ff 79bd
00000150: a2c1 d93d 1f34 aa3d f698 6cbd 2c52 993b
00000160: ba51 3c3e 4426 05be 5343 ab3b 5399 ac3d
00000170: 3350 993d 7591 1cbd 0107 0dbd 3cc8 0abd
00000180: 9a34 20bd 2b3d 21be 3f3d 2b3e caf7 d3bd
00000190: f86b e93c 0439 e7bc 495f 993d 24c7 3dbc
000001a0: 53b7 343d d0b3 18be 2811 0cbc fcc7 d5bb
000001b0: 1933 4b3d f99a 94bc bbe5 a53b eb34 d43d
000001c0: 0b79 a6bd 960c 17be 786c 6ebd ee9f b5bd
000001d0: 441b a3bd ebb7 c83d e6ee 48bd 1d2b 013e
000001e0: 6044 ddbd 0a29 433c 8d0a 673d c0b1 fdbb
000001f0: 1b37 533d 4992 4ebd fc87 06bd 737c 84bd
00000200: 9537 8e3d 416a b63d b1d8 aa3c 58ec ecbd
00000210: 2e4a 4c3d 8609 3b3d dd05 bcbd 8acb 3c3d
00000220: 60e7 18bd a786 943c d668 5dbd f436 0abc
00000230: 4ee4 e63d c566 babd b4b6 4bbd af74 0dbd
00000240: 15a5 4e3d 3810 a6bd 7102 0a3e 567a 1d3d
00000250: 4d11 31be 08f0 e43c 606e 07bc 52e6 15bd
00000260: 06bc 8c3d dbf9 d73d aa4b b13d 5ba0 dabd
00000270: 9e17 aebd 8220 b03c 5072 1fbc 4016 2f3d
00000280: 02d2 f93c 8f7a 2ebc d6f6 f43b e3ef 5fbd
00000290: a0c4 013e d096 b3bc dc46 a93d a5eb 8ebb
000002a0: 491f 69bd 6b48 ca3d 5956 1abe 07ec d9bc
000002b0: 3cb5 ecbd 2609 23be c07c 66bd f239 37be
000002c0: 8d8a 653d 91c9 3dbd 5df1 c7bc ce1c edbd
000002d0: f98a 2f3c 1024 1fbd 6fa3 edbd 3c59 8cbc
000002e0: 88b8 52bd fbcf 94bd 5343 cebd 2f07 373d
000002f0: 92eb 16be e567 1abb 6722 e4bd 7387 25be
00000300: 712c 513d 48d3 14be c862 fb3c 14f8 32bc
00000310: 4554 963c 5f63 c4bc 87c8 c43d c721 1cbe
00000320: 2753 483d a601 093e edd2 87bd f62c 60bc
00000330: 290c 4d3a 7276 313d bb85 a43c 7bdf 9c3d
00000340: 07a4 26bd 4264 f7bd 8956 05bd 74d6 9cbd
00000350: 2363 903d d75e cb3c f46a 0b3d 0645 babd
00000360: 9536 db3b dabe 08bd ce71 d0bc 5050 b7bd
00000370: bb88 7b3c b7fc de3d ad30 27be e3a7 c3bc
00000380: 7c71 41bd 2918 e63c cf62 cfbd 8af9 a13d
00000390: 340b 99ba 5bd6 13be c3f9 c1bc c54f 0b3b
000003a0: d6ff f23c 4e0b 9ebc 5101 34be ac53 42bd
000003b0: 71c1 203d 6c48 ed3d 114c a3bd 000a 633c
000003c0: ccae 9c3c 4f03 1a3b 42ae 04be 0dbb 523e
000003d0: 5a1e 37be 330e bbbd e196 323d a7f2 dabd
000003e0: 9997 323d 7890 5fbd 3ab0 16be 77e7 d13d
000003f0: 278e 983d d5e5 b0bd 4588 1e3d dd92 7b3d
0.04796198 -0.0660825 0.06407812 -0.056023132 0.04976111 -0.05288735 -0.039863683 0.06667973
-0.09406819 -0.018293 0.006771227 0.08610911 -0.07820299 -0.024878759 -0.023525922 0.07182179
-0.020614065 0.07779557 0.023133157 0.25485662 0.19508517 0.07629612 -0.03510768 -0.023673639
-0.008411549 0.060871657 0.114685014 0.09464169 0.010754197 0.031572547 0.13613547 -0.09901643
0.063557245 0.099546395 0.0469988 0.13825692 -0.054940775 -0.012314655 0.14393717 -0.1334341
-0.057178263 0.060046364 0.13410415 0.10583791 0.023482453 0.17105131 0.080740385 -0.00019604572
0.05738904 -0.10537991 0.13030067 0.0060471827 -0.12415137 0.0061301603 0.0137711065 0.08844416
-0.043010324 0.050859228 0.07558558 0.17751051 0.0303846 -0.05533549 -0.007131456 0.084396906
0.03304034 0.02364687 0.09815088 0.062253818 -0.08327508 0.03179869 -0.0679837 0.005780898
0.065774694 0.015947094 -0.04900755 0.012252464 0.003170281 0.13285796 -0.0339488 0.14166895
0.13667667 0.08584547 0.016130088 -0.061034765 0.10632636 0.083107226 -0.057763062 0.004678985
0.18390551 -0.13002878 0.0052265315 0.08427682 0.07486 -0.038224656 -0.034430508 -0.033882365
-0.039112665 -0.1574599 0.16722582 -0.103499964 0.028493866 -0.02822543 0.07488877 -0.011583123
0.044120144 -0.14912343 -0.008549012 -0.006524084 0.049609277 -0.018140303 0.0050627864 0.10361656
-0.08128556 -0.14750895 -0.058208913 -0.08868395 -0.07964185 0.098007046 -0.049055956 0.12614103
-0.10804057 0.01191164 0.056406546 -0.0077421367 0.051566225 -0.050432477 -0.03284453 -0.06469049
0.06944195 0.08906985 0.02085528 -0.115685165 0.04987543 0.04566338 -0.09180806 0.046092547
-0.03733003 0.018130613 -0.054055057 -0.008435953 0.112740144 -0.09101633 -0.049734786 -0.034535106
0.050450403 -0.08108562 0.13477494 0.038446747 -0.17291756 0.027946487 -0.008266062 -0.036596604
0.068718 0.10545703 0.0865701 -0.10675117 -0.08500598 0.021499876 -0.009731844 0.04274583
0.030495647 -0.010649337 0.007475714 -0.054672133 0.12672663 -0.021922499 0.082654685 -0.004361587
-0.0569146 0.09877094 -0.15072002 -0.026601804 -0.11558005 -0.15921459 -0.056271315 -0.17893198
0.056040335 -0.046334807 -0.024407083 -0.1157776 0.010714286 -0.03885275 -0.11603438 -0.017132394
-0.051445514 -0.072662316 -0.10071435 0.044684585 -0.147383 -0.002356046 -0.11139374 -0.16164951
0.051067773 -0.14533722 0.030686751 -0.010923404 0.01835073 -0.023973165 0.0960856 -0.1524726
0.048907425 0.13379535 -0.06632028 -0.0136825945 0.00078219414 0.04332585 0.020083299 0.07659813
-0.040683772 -0.120796695 -0.03255323 -0.07658091 0.07050159 0.024825497 0.034037545 -0.090951964
0.0066898563 -0.033385135 -0.025444891 -0.08950865 0.015352423 0.10888045 -0.16327162 -0.023883766
-0.047227368 0.028087692 -0.10126268 0.07908924 -0.0011676312 -0.14437239 -0.023678666 0.0021257263
0.029663008 -0.0192925 -0.17578627 -0.047443077 0.03924698 0.11586079 -0.07973493 0.013857365
0.019126318 0.0023500507 -0.12957099 0.20579167 -0.17882672 -0.09133568 0.04360092 -0.106908135
0.043601606 -0.054581136 -0.14715663 0.102492265 0.074489884 -0.08637587 0.038704176 0.061419357

conv4.bias f4 [64]
00000000: 03c5 b63b df34 d43b ee5f e13b 46de a2bb
00000010: 3ec8 3dbc cf99 313c f63e 80bb b297 88bc
00000020: b5b7 24bc be23 b4bb 9ce8 64ba 1856 dcbb
00000030: d70f e13c 8fd7 9c3c cda7 953c 270b df3a
00000040: da48 f33b 1f65 8dba 10b7 f1bb 13e3 7fbc
00000050: 211d c13b c080 aa3c 5242 9b3b 313e 0bbc
00000060: ad82 8c3b c091 333b 9849 123b a9ba b5bb
00000070: f334 433c 3944 783c ec54 ebbb b98d 0f3c
00000080: 7224 0d3a 5551 c3bb fb5e 62bb abdf a3bb
00000090: 6dd8 a1bb 7752 553b c0db 42bc 0d1b 8eba
000000a0: b879 8339 8e23 87bb 3f36 28bb 5e3e 79ba
000000b0: 27e7 f83b b448 1c3b d5c6 953b 0fac 183b
000000c0: 3a90 72bc 0a62 acbc 9ec2 eb3a 7956 b73b
000000d0: 9970 31bc e518 5d3c de9b 9b3b db08 20bc
000000e0: 099e 06bb 55c8 e1bb 1b31 e1ba 0ed0 c13c
000000f0: 362d bf3c 153e 233a ad8e 6cbc acf2 40ba
0.005577685 0.0064760293 0.006877891 -0.0049703447 -0.011583386 0.0108398935 -0.0039137555 -0.016673896
-0.010053565 -0.005497425 -0.0008732171 -0.0067241304 0.027473373 0.019145755 0.01826849 0.0017016873
0.007424456 -0.0010787583 -0.007376559 -0.015618104 0.005893365 0.020813346 0.0047381306 -0.008498714
0.0042880387 0.0027400106 0.0022321697 -0.0055459333 0.01191448 0.015152984 -0.0071817543 0.008761817
0.0005384154 -0.0059606233 -0.0034541476 -0.0050010285 -0.00493913 0.0032550374 -0.011893213 -0.0010841802
0.00025076955 -0.0041241115 -0.0025667099 -0.00095078896 0.007595915 0.0023847045 0.0045708218 0.0023295914
-0.014804894 -0.021042842 0.0017987078 0.005595025 -0.010830068 0.013494705 0.0047488054 -0.009767736
-0.0020540974 -0.0068903365 -0.0017180772 0.023658779 0.023336988 0.00062272075 -0.014438313 -0.00073603797

bn4.weight f4 [64]
00000000: f0d1 813f 2464 823f f116 823f 5bf9 803f
00000010: 62f7 7e3f 4a50 803f 7b6b 803f 52a2 7c3f
00000020: 140c 7f3f 0f60 7c3f 4b4e 7e3f 59f9 813f
00000030: 3433 843f 3084 813f bd17 833f 8bdb 803f
00000040: 9a20 813f b9fb 803f c758 7d3f df54 7e3f
00000050: ff1b 803f 13bf 7f3f a7bc 803f 570f 803f
00000060: 2943 833f 27b7 803f 859a 7e3f c5a3 803f
00000070: c369 813f 754b 803f 4c78 7c3f fc70 803f
00000080: f5a3 803f 931b 7f3f 66c4 7f3f 9b2d 823f
00000090: eaac 7e3f 407d 803f 9fb3 803f e15c 833f
000000a0: eff2 813f 2011 7f3f 3380 7d3f f398 803f
000000b0: b82d 7f3f a4a7 803f e35c 803f 86a8 803f
000000c0: 190e 7f3f b083 7c3f be29 813f 7f6c 803f
000000d0: 0dd0 7e3f f831 833f 6505 823f 0bea 803f
000000e0: 8a96 803f 8dc9 7d3f a899 7f3f 3cef 813f
000000f0: 183d 853f 9eac 813f 1d48 833f e8e7 7d3f
1.0142193 1.018681 1.0163251 1.0076097 0.99596226 1.0024502 1.00328 0.9868518
0.99627805 0.98584074 0.99338216 1.015422 1.0328126 1.0118465 1.0241619 1.0066999
1.0088074 1.007682 0.9896359 0.99348253 1.0008544 0.9990093 1.0057572 1.0004681
1.0254871 1.0055894 0.9945453 1.0049978 1.0110401 1.0023028 0.9862106 1.003448
1.0050036 0.9965145 0.99909055 1.0170168 0.99482596 1.0038223 1.0054816 1.0262719
1.0152262 0.99635506 0.9902374 1.0046676 0.99679136 1.005116 1.0028347 1.0051429
0.99630886 0.9863844 1.0090864 1.003311 0.9953621 1.0249624 1.0157896 1.0071424
1.0045941 0.9913567 0.99843836 1.0151134 1.0409269 1.0130804 1.0256382 0.99181986

bn4.bias f4 [64]
00000000: e9bd 073c 5c33 6fbd 0cc2 10bc 22f9 5d3d
00000010: a453 67bd c242 78bd 2862 0abd 2ecc 053d
00000020: 0416 64bd 0fa5 67bd 1cc3 5dbd b498 503d
00000030: 2ef0 5cbd 3a2d 463d 5173 60bd ed05 763d
00000040: f35f 643d 5731 6c3d 6088 473d 8d08 65bd
00000050: 12e5 65bd 899e 173d 1d9c 4fbd be7b 01bd
00000060: 6456 083d 09eb 52bd 610f 2f3d a1ab ed3c
00000070: 1ca7 623d f83d 22bd be93 78bd ed1b 563d
00000080: c762 c73c 8031 64bd 5b84 32bd a74d 6abd
00000090: aba0 5cbd 0485 e8bc 0c55 72bd 20dd 44bd
000000a0: bd5f 50bb bf30 2bbd 79f7 56bd bad8 f33c
000000b0: 0409 603d 815b 2e3d 11f7 0f3d e7f3 b7ba
000000c0: 0e9a ca3c 97f2 5bbd 900a 263c 4530 cfbc
000000d0: 666d 0b3c 9107 7fbd ea2e 05bd 6ba0 5a3d
000000e0: 9a36 68bd b441 24bd 39dc 5b3d 9b92 623d
000000f0: 0f9f 6abd b651 763d 872a 8e3c 04f6 3b3d
0.008285024 -0.05839859 -0.008835327 0.05419267 -0.05647625 -0.06061054 -0.033785015 0.032665424
-0.05568506 -0.056553897 -0.05414115 0.05092688 -0.05393999 0.048382975 -0.054797474 0.060064245
0.055755567 0.05766424 0.04871404 -0.055916358 -0.05612666 0.037016425 -0.05068599 -0.03161215
0.033285514 -0.05149368 0.042739276 0.029012503 0.05533515 -0.03960988 -0.060687773 0.052272726
0.024339093 -0.05571127 -0.043583255 -0.05720296 -0.053864162 -0.02838374 -0.05916314 -0.048062444
-0.0031795346 -0.041794535 -0.052482102 0.02976643 0.054696098 0.042567734 0.03514773 -0.001403448
0.024731662 -0.05369815 0.010134354 -0.025291571 0.008509969 -0.062263075 -0.032515444 0.053375643
-0.056692697 -0.040101722 0.053676818 0.055315595 -0.057280596 0.06013652 0.017354263 0.045888916

bn4.running_mean f4 [64]
00000000: 7cd7 063f f265 fd3e 1da2 f03e 7240 c33e
00000010: 862c d53e 25e1 223f 00a0 d53e 8e86 233f
00000020: a1ab 003f 1a6a c53e 005f 143f b82f 193f
00000030: 5cb9 483f 42db 303f b3a9 653f 09ce fc3e
00000040: d1bc 243f 78ba 0e3f cc27 c53e 997b 413f
00000050: 6284 3d3f b110 193f 9c0f 2b3f 360a 033f
00000060: fa68 253f 3523 f63e d233 d33e 1537 343f
00000070: 79ff 253f 0f9f 123f e294 d83e b4ff 063f
00000080: 6705 073f ed3c df3e fe90 a83e aebb 173f
00000090: f159 e43e 3a0c 243f a8c3 203f e3ae 163f
000000a0: ae4b ec3e ec3e 343f 9088 1e3f cbd9 253f
000000b0: d700 003f 475c 043f ae45 f43e 707b e13e
000000c0: afbc 113f ff8c 0b3f 0ea5 0c3f 2bbf eb3e
000000d0: e750 2e3f 541e 023f 2739 3b3f 5ffc e23e
000000e0: 74b5 2b3f 6b06 083f fcda fe3e 1888 433f
000000f0: d2a6 1d3f 0ac2 3a3f e0c4 3f3f 2091 213f
0.52672553 0.4949184 0.46998683 0.38135105 0.4163553 0.63624793 0.41723633 0.6387719
0.50261885 0.38557512 0.5795746 0.5983844 0.78407836 0.6908456 0.89712065 0.49375942
0.6435061 0.5575328 0.38506925 0.7557922 0.74030125 0.59791094 0.66820693 0.51187456
0.64613307 0.48073736 0.41250473 0.7039655 0.64842945 0.57273954 0.4230109 0.5273392
0.5274262 0.4360117 0.3292312 0.5927075 0.4459987 0.64081156 0.6279855 0.58860606
0.4615149 0.7040851 0.6192713 0.6478545 0.5000128 0.51703304 0.4770941 0.44039488
0.56928533 0.5451202 0.54939353 0.46044287 0.680922 0.5082753 0.7313408 0.4433317
0.6707375 0.53134793 0.49776447 0.7637954 0.6158267 0.7295233 0.7490978 0.6311207

bn4.running_var f4 [64]
00000000: a156 503f 6efe 143f 43e9 0f3f d5b2 de3e
00000010: 9e8c dd3e 7400 423f b89a cb3e 367a 6f3f
00000020: 8b7f 6e3f 819b d53e eb04 333f 1ac9 af3f
00000030: 652c 933f f4e8 543f a035 ad3f a5d5 163f
00000040: 96a7 7b3f c80e 3e3f d0eb e03e a5f9 a43f
00000050: 0490 8d3f f580 333f 4bad 703f 93ef 473f
00000060: e366 6f3f 5f7f f33e 0dd3 033f c01b 8d3f
00000070: 0010 433f 6f8b 253f 37f3 f43e 1ca0 153f
00000080: f80d 263f 2e85 ee3e 158a a63e 9837 af3f
00000090: c212 093f f87f 3c3f 2ebf 513f 3015 233f
000000a0: 7caf 103f 26af af3f 60fc 1e3f 9cda c53f
000000b0: 88f9 0e3f 355f 1e3f 9f51 453f 8c84 fb3e
000000c0: ea93 553f 932c 3d3f 9f0d 713f 0514 103f
000000d0: a2c0 813f 2d46 203f 6861 813f 8d20 f53e
000000e0: cddb 613f 3e57 243f 763e 113f 2531 4d3f
000000f0: a734 833f 2958 303f 7225 ac3f 7c35 463f
0.81382185 0.5820073 0.56215304 0.43495813 0.43271345 0.7578194 0.3976648 0.93545854
0.93163365 0.41720203 0.6992938 1.3733246 1.1497923 0.8316796 1.353199 0.58919746
0.9830259 0.74241304 0.4392991 1.2888685 1.1059575 0.7011865 0.94014424 0.78099936
0.9351637 0.47558114 0.5149391 1.1024094 0.7619629 0.64665884 0.47841808 0.5844743
0.64865065 0.46585983 0.32527223 1.3688841 0.5354425 0.73632765 0.8193234 0.63704205
0.5651777 1.3725326 0.62103844 1.5457339 0.55849504 0.61864024 0.7707767 0.49124563
0.83428824 0.7389614 0.9416141 0.5628055 1.0136912 0.6260708 1.0107851 0.47876397
0.88226014 0.6419562 0.5673593 0.80153114 1.0250443 0.6888452 1.3448927 0.7742536

lin.weight f4 [10, 64]
00000000: a26b de3d 2d52 61bd 9c5f aabd f51d a53c
00000010: 37c2 ddbd a33d 52bd e156 e9bd a853 953d
00000020: b88d 1dbd 16cb f7bd db40 e1bc 7ee2 ec3d
00000030: a2cf f6bd 49d4 5dbd 4a42 0abd 316f b33c
00000040: fe9b f53d 2b9f 343c c854 7f3d 9960 b3bd
00000050: bdda b9bd 0f49 bdbd fa96 b7bd 562a 45bc
00000060: 2c7e 383d 9232 49bd b8ad d33d bff9 d63d
00000070: b30e 883c 7f34 71bb 6af0 e93c bb16 14bd
00000080: 49b4 8cbb 2d69 64bc 7d51 acbd fdd7 ba3c
00000090: a122 d9bd 09c0 e8bd 9e4a 8bbd 9300 cfbc
000000a0: 392d 873d 919d 6fbd 7cd9 4bbd e542 b23d
000000b0: 70f2 543d be5b e53d 174a a7bc f4fb 74bc
000000c0: b43a 70bc 593d 30bd 164b ae3d 8ecd 12bd
000000d0: 1122 a83d 830f 9bbd aa6b f4bd f9c7 09bd
000000e0: 18a7 0cbe 60c1 eabd 7071 f33c 9da4 f3bc
000000f0: 7be7 8dbd 54e2 5fbc 3609 633d 1119 e5bc
00000100: 1f92 b3bd e134 febd ec11 093e 9c3e 933d
00000110: 4acd 2abc cf77 f9bd 39ba 013e d01b 94bd
00000120: 83af 77bd 0723 a4bd 4061 b3bd 94a2 f03c
00000130: 7372 38bd 7c03 123e 02f3 ffbd f930 ab3d
00000140: bd61 9e3d 37ba c13d 1177 2e3d e473 debd
00000150: dc58 a6bd 24aa 013b d7b3 a2bd eed6 6ebd
00000160: e43b b63c 95c1 05be 405c a6bd 0866 42bd
00000170: 6536 ae3d 367e 19b9 afd9 43bd 7eab 8b3d
00000180: 35f3 8b3d 0dfd a2bd c9ba af3d a5f1 d2bd
00000190: 9f86 543d 2887 fd3d f85b 183d 2ef0 4e3d
000001a0: 1476 bdba 59d1 06be 0423 223c f11f 94bd
000001b0: 7c47 8bbd 2691 c2bb 1b41 e93d a8a2 d73d
000001c0: c231 9c3c 02f3 373d 01ab 363a 974c 8d3d
000001d0: 855c 97bd 0611 edbd 36dc 983a 700b bd3d
000001e0: 2253 cfbc ddd4 c43d c74f 63bd 31e6 003d
000001f0: 4bbd eebd ccea e93d 294a 48bd 7dcb 1f3c
00000200: 4e09 01be 2926 8d3d b831 b3bd acfd a53d
00000210: b878 06bc 2561 4e3c ea2b bbbd 7928 853c
00000220: 33c2 21bd c228 543c 413e 2ebd 81bc 5abd
00000230: 9c87 063e 3441 7dbd 997e b83d bc27 f2bd
00000240: 5ad8 5cbd 9cd5 efbd a4fe c9bc 96ad c73d
00000250: eaee 9ebd 9834 c73d bab5 febd 0092 67bc
00000260: 85a6 21bd 4db7 15bd ba9e 113c 0ec7 bb3d
00000270: 8753 4abc ccf2 a93d dc1a 483d 6b00 2d3d
00000280: 99a9 d2bd f3d2 cfbd 2ece b93c 9276 c1bd
00000290: 2137 bfbd ce29 cc3d 7a39 e5bd 5733 9ebc
000002a0: 4130 cdbd 55c4 ae3d 9e88 e4bd b347 d8bd
000002b0: ebb3 2bbd 5704 e13d 1a96 e0bd 84e8 0d3d
000002c0: ba92 f73d 2db0 86bd f600 0abe 4a81 713b
000002d0: a076 95bd c685 823d 516b 223d 8a01 3bbd
000002e0: 4bea b0bd be28 8c3d 8659 f6bd 3cc7 253d
000002f0: d088 213e 6d6e 433d 3cf1 993d 8955 653d
00000300: 4db7 9e3d 504b f73c 48f9 313b 69e8 36bc
00000310: 2832 ab3d 520c c5bd 3944 ba3d 3e84 b63d
00000320: 0498 d53d 57cd 303d 9a2f e63d 9d1c e2bd
00000330: e822 cbbd e1e8 d33d c5c1 a0bc 26cd a63d
00000340: 0950 123d c609 753d 4ced 94bd e470 c2bc
00000350: aced 4fbd 7b94 813d a4f7 a43d cf30 f63d
00000360: 51f9 ac3d 2320 803d 0adc e8bd 7ce0 ec3d
00000370: 99a3 f33d 84d3 6a3d 4e78 9d3c f8b8 a23d
00000380: c7b0 923d e29a b5bc 674b c23d 2058 d6bd
00000390: c8b5 9abd 597c acbd 42da 653a 200f ba3c
000003a0: 3675 833d 32bd 6a3d 618a efbd 37d3 d7bd
000003b0: dbca 60bc 97af dcbd 8d4a b03d d294 a6bb
000003c0: 430d fb3d 0f7b dfbb 7f0a ecbd 6965 6c3d
000003d0: 908a 81bd 805c cdbd c097 05be 2bd5 37bc
000003e0: 9237 dfbc 185a d23c dc6e 64bd 93f0 acbd
000003f0: cc96 e0bc 1985 d13d 5f19 cdbd 0f96 85bd
0.10860373 -0.05501001 -0.08319017 0.020155886 -0.10828059 -0.051328313 -0.11393524 0.07291347
-0.03846523 -0.120992824 -0.027496746 0.115666375 -0.120513216 -0.05415753 -0.033754624 0.021903606
0.11992644 0.011024277 0.062336713 -0.08758659 -0.09074924 -0.092424504 -0.08964343 -0.012034019
0.045042202 -0.049120493 0.103358686 0.10496854 0.016608572 -0.0036804972 0.028557021 -0.03615449
-0.0042939526 -0.0139410915 -0.0841398 0.02280807 -0.10602308 -0.11364753 -0.068013415 -0.025268828
0.066004224 -0.058499876 -0.049767956 0.08704165 0.05198902 0.11199139 -0.020421071 -0.014952648
-0.014662433 -0.043027256 0.08510415 -0.035840563 0.08209623 -0.07571318 -0.11934598 -0.033637974
-0.13735616 -0.114626646 0.029717177 -0.02974158 -0.06928917 -0.013664801 0.055428706 -0.027966054
-0.08768105 -0.124124296 0.13385743 0.07189676 -0.010424921 -0.12181055 0.12668695 -0.07231867
-0.060470115 -0.080144934 -0.08758783 0.029374398 -0.045031022 0.14259142 -0.12497522 0.0835895
0.07733486 0.09459346 0.04259402 -0.10861948 -0.08122417 0.001978525 -0.07944458 -0.05831044
0.022245355 -0.13062127 -0.08123064 -0.047460586 0.08506469 -0.00014638234 -0.04781502 0.06819819
0.068334974 -0.07958422 0.08580548 -0.10299996 0.051886197 0.12379295 0.037197083 0.050522022
-0.0014454746 -0.13165797 0.009896044 -0.07232655 -0.06800744 -0.005937713 0.11389371 0.10529071
0.019066695 0.044909485 0.00069682306 0.06899374 -0.073906936 -0.115755126 0.0011662308 0.09230697
-0.025308196 0.09610913 -0.055496003 0.031469528 -0.116571985 0.11421737 -0.04889885 0.009753105
-0.12601206 0.06892044 -0.087497175 0.08105025 -0.0082074925 0.012596403 -0.09139235 0.01625465
-0.039491843 0.012949171 -0.04253984 -0.053402428 0.13137668 -0.06182976 0.090085216 -0.11823985
-0.053917266 -0.11710665 -0.024657555 0.09749906 -0.07760413 0.09726828 -0.12437005 -0.01413393
-0.039465446 -0.036551762 0.008887941 0.09168826 -0.012349016 0.08298263 0.04885374 0.042236727
-0.102862544 -0.10147657 0.022681322 -0.094464436 -0.09336687 0.09968911 -0.111926034 -0.01931159
-0.10018969 0.08533541 -0.1115887 -0.105605505 -0.04191963 0.10987156 -0.109661296 0.034645572
0.12088533 -0.065765716 -0.13476929 0.0036850744 -0.072980165 0.063731715 0.039653126 -0.045655765
-0.08638438 0.068437085 -0.12028794 0.040473208 0.15774846 0.047712732 0.07516715 0.055989776
0.077498056 0.030187279 0.002715664 -0.011163809 0.08359176 -0.096214905 0.09095044 0.08911942
0.10429385 0.043164577 0.11239548 -0.11040614 -0.09918767 0.103471525 -0.019623647 0.08144598
0.03572086 0.059823774 -0.07271823 -0.023735471 -0.05076377 0.063271485 0.08055046 0.12021028
0.08445991 0.062561296 -0.11370094 0.115662545 0.11896438 0.057330623 0.019222405 0.07945436
0.07162624 -0.02216858 0.09487038 -0.10466027 -0.07554203 -0.08422155 0.00087681797 0.02271229
0.064188406 0.057309337 -0.116963156 -0.10538333 -0.0137202395 -0.107756786 0.086079694 -0.0050836587
0.12258389 -0.0068200896 -0.115254395 0.0577139 -0.06325257 -0.100274086 -0.1304617 -0.011220257
-0.027248178 0.025677726 -0.055769786 -0.084443234 -0.027415656 0.102304645 -0.10014605 -0.06522762

lin.bias f4 [10]
00000000: 9d74 043e 28a6 86bc e18c a7bd d06b c43c
00000010: 868d d8bc 57ca 883d e9dd d3bc 8b9c a5bd
00000020: 350a 22be b0e0 02bd
0.1293511 -0.016436651 -0.081811674 0.02397719 -0.026434671 0.06679218 -0.025862651 -0.08086499
-0.15824206 -0.03195256
